checkpoints/sort_2/S_6_K_6/ArgmaxAR/16_05_2023__09_16/cktp/checkpoint_0004500.tar (torch, 796187 bytes, 89 tensors)

model.base_dist.loc f4 [1, 3, 1]
000000 12 6b 07 bc 47 80 68 bc 0a 7b fa 3c
       -0.008265274 -0.01419074 0.030576248

model.base_dist.log_scale f4 [1, 3, 1]
000000 a7 99 74 3d 82 21 41 3c c1 12 9e 3d
       0.059716847 0.011787774 0.07718421

model.transforms.0.encoder.noise_dist.base_dist.net.weight f4 [6, 32, 1]
000000 b9 2a 36 be a4 1e 93 3d 6b ad 72 be e5 f3 89 be
       -0.17789735 0.071835786 -0.23698966 -0.2694389
000010 78 c9 7d 3c 8a 9b 1f 3e b9 0a 19 be 06 27 29 3d
       0.015489928 0.15586677 -0.14945497 0.04129698
000020 c8 34 57 be 8e 13 c3 ba ac 08 70 be 03 aa 3a be
       -0.21016228 -0.0014883147 -0.23440808 -0.18228917
000030 da 1d 57 3e 06 cf 85 bd 18 f2 31 be 46 6e 47 3e
       0.21007481 -0.06533627 -0.17377508 0.1947566
000040 60 86 31 3e 9a 45 ba bd 4e 33 b1 3d 14 86 93 3e
       0.17336416 -0.09095307 0.08652364 0.2881323
000050 dd b4 67 bd e5 06 49 be 59 99 37 3e 65 82 1b be
       -0.05656897 -0.19631536 0.17929591 -0.1518646
000060 75 73 b0 bd 28 ce 88 bd 2f 88 14 be bf 30 cc bd
       -0.08615772 -0.06679946 -0.14505075 -0.09970235
000070 a4 fc 4a be ac 75 82 3d dd e3 d9 3c 45 39 3d 3e
       -0.19822937 0.063701004 0.026597911 0.18478878
000080 ba f3 4d 3d c7 f9 d5 3d 5f 1f 44 be fe 3b 53 be
       0.050281264 0.10448032 -0.19152592 -0.20628354
000090 aa 00 1f 3e ee 97 16 bd 14 1b 90 3d 65 09 08 be
       0.15527597 -0.036765985 0.07036415 -0.13284834
0000a0 82 22 b4 3d ab 05 1a 3e f1 df 27 be 39 82 24 bd
       0.08795644 0.15041225 -0.1639402 -0.040163253
0000b0 36 0d 22 3e 95 7e 8e bd 2e b4 10 bd e6 dc 15 3e
       0.15825352 -0.06957737 -0.035328083 0.14635047
0000c0 5a c7 70 3d e3 97 4a 3e 38 ff 82 bc a3 db f4 3d
       0.058783866 0.19784503 -0.015990838 0.11955955
0000d0 cc 94 c4 bd a1 8b d9 3b 0c 72 8a 3d 16 84 5b be
       -0.09598693 0.0066389595 0.06760034 -0.21437106
0000e0 84 72 6b be 9d 73 bc bd 50 eb ce 3d 9f e9 85 bc
       -0.22992903 -0.09201739 0.10103476 -0.01634675
0000f0 48 24 42 bd fd 8d 3b be 23 a3 3c bc b5 cd 70 3d
       -0.04739788 -0.18315883 -0.011513504 0.058789928
000100 c7 02 11 bd 52 34 13 3e 42 48 01 be d7 5f 8d bc
       -0.03540304 0.14375427 -0.1262522 -0.017257614
000110 d4 50 0f be 82 b3 44 3e 16 32 39 be 49 53 8d 3d
       -0.13995677 0.19209102 -0.18085513 0.06900651
000120 cd 80 ce bc 05 c8 a5 bd 3d 1e 91 be d8 ff 51 be
       -0.025207901 -0.08094791 -0.28343382 -0.20507753
000130 aa db 39 3e 5e 27 c0 bd 1e 49 a6 bd 59 c2 42 3c
       0.18150201 -0.09382509 -0.08119415 0.011887156
000140 95 a3 5f 3e 8c 2f c4 bc 6c 27 be 3d 6f 09 d9 3d
       0.21839745 -0.023948453 0.09284863 0.105975024
000150 b3 51 94 3d 42 0a 7a be 4c ba 4f 3e df 76 d7 bd
       0.072421454 -0.24417976 0.2028591 -0.1052072
000160 29 47 54 bd 7e 5c 2d be cf b5 43 3d 1a f1 22 3e
       -0.051825676 -0.16929814 0.047780808 0.15912285
000170 6e b1 2f be 7c ce 30 be 5f 56 85 3d bb b1 01 3c
       -0.17157528 -0.17266268 0.065106146 0.007915909
000180 68 79 01 be 35 9b b7 bd 90 a0 b7 bd 1b 03 aa bd
       -0.12643969 -0.0896515 -0.08966172 -0.083013736
000190 91 e3 f4 3c 86 58 ed bd 7f 94 19 be c6 69 00 3e
       0.029893668 -0.1158915 -0.14998053 0.1254035
0001a0 a6 d4 1b 3e 96 79 9d bd 7a 7e fe bd bd 3b 1f 3e
       0.15217838 -0.07689206 -0.12426467 0.15550132
0001b0 5a 9b 35 3e a3 a1 25 3e 99 b6 51 3d c5 cb 99 bd
       0.17735043 0.16174941 0.05119953 -0.07509569
0001c0 16 98 7f bc ef 32 31 3d c4 10 37 3e 9b ee 8c bd
       -0.015600225 0.043261465 0.1787749 -0.06881448
0001d0 ec b3 ad 3c 38 aa e7 3d 7a 85 00 bd 82 b5 52 bd
       0.021203957 0.113117635 -0.031377293 -0.05144263
0001e0 e4 7a 53 3d dc c4 e4 bd 93 5b a7 3d 90 50 0d 3e
       0.05163087 -0.111703604 0.08171763 0.13800263
0001f0 f1 77 18 3e e8 eb d9 3d cb 47 08 be ef b3 ac 3d
       0.14889504 0.10640699 -0.13308637 0.08432757
000200 d4 70 dd bc d7 09 ba 3c e3 4b 49 3c 3c de d6 bd
       -0.02703134 0.02270977 0.012286159 -0.104916066
000210 34 21 02 be 73 6b 8f 3d 06 a9 96 bd a9 ca 86 bd
       -0.12707978 0.07002916 -0.073564574 -0.06581623
000220 1d 2c 9b bd 1e 3f c2 3d 0e bc d2 bd 34 49 40 3d
       -0.07576773 0.09484695 -0.10289775 0.046944812
000230 b0 b5 0e 3e 82 84 17 3d de 0d 36 3d 89 40 51 bd
       0.13936496 0.036991604 0.04444682 -0.051086936
000240 1b 3e 07 bd 15 e2 d0 bd 83 b0 1c 3e 86 18 2e 3d
       -0.033018213 -0.10199372 0.15301709 0.042503856
000250 68 ae 85 3d 9d 57 f6 3d 43 41 3e be 3f 59 2c 3e
       0.06527406 0.1202843 -0.18579583 0.1683092
000260 8e c4 08 be 52 7d 71 bd 84 f6 bb 3c 5d 8f 3f bd
       -0.1335623 -0.058957405 0.022944696 -0.04676758
000270 68 f8 f0 3c 8c d2 be 3d 00 04 6e 3d 28 6c 00 be
       0.029415324 0.093175024 0.058109283 -0.12541258
000280 63 ac 77 bd f1 0a 95 3d b0 da eb 3c 00 f6 da 3c
       -0.060467135 0.072774775 0.028790802 0.02672863
000290 28 48 23 3e cd 80 1e be 9d 5b 0a be 4a 20 c9 bd
       0.15945494 -0.15478821 -0.1351151 -0.09820612
0002a0 5b e1 a9 bd 90 52 96 3b 1f a5 d3 3d 90 a8 16 3e
       -0.08294936 0.004587479 0.10334229 0.14712739
0002b0 ab 83 eb bd 0a 3e 83 bc e9 27 18 3e 6c b2 cf 3d
       -0.11499723 -0.016020793 0.14858975 0.10141453
0002c0 69 ab 49 bd bc 6b c4 bd 6c af 07 3e df fa e6 3d
       -0.049235735 -0.09590861 0.13250512 0.112783186
0002d0 de 4c 21 3d a7 89 f9 bd b1 ee fd 3d 86 87 06 3e
       0.039379947 -0.12184458 0.123990424 0.13137636
0002e0 17 c3 ac bd 11 5a 0f be 69 42 05 be 99 4c ce 3c
       -0.08435648 -0.13999201 -0.13013615 0.025183009
0002f0 18 02 92 bb 9b 58 2e 3e 44 5f c7 bb 55 98 ef 3d
       -0.004455816 0.17025988 -0.0060843546 0.11698977

model.transforms.0.encoder.noise_dist.base_dist.net.bias f4 [6]
000000 e3 47 cb bc ed 9f 09 3e 4a 82 d9 3d d8 f5 10 bc
       -0.024814552 0.13439913 0.10620554 -0.008847676
000010 e4 98 a7 3d ae 15 87 bc
       0.081834584 -0.01648983

model.transforms.0.encoder.noise_dist.transforms.0.ar_net.lstm.weight_ih_l0 f4 [256, 35]
000000 0f 63 b9 3d 85 b8 eb bd 93 b4 b7 bd 68 74 16 3e
       0.09052097 -0.11509804 -0.08969989 0.14692843
000010 18 71 fa bc 8e dd de bb bc a6 41 3d 19 cb 91 3d
       -0.030571505 -0.0068013137 0.04727815 0.07118816
000020 20 5e 8d bd d4 8a cf bd fb 99 7e 3c 8f ad f3 3d
       -0.069027185 -0.10133901 0.0155396415 0.11898338
000030 b5 ff 08 bd 35 24 01 3e 42 57 83 3a 0e c1 e8 3d
       -0.033446986 0.12611468 0.0010020512 0.11364947
000040 08 ec 71 3d 17 c3 09 3e 3e a6 c6 3d 2e 35 0d 3d
       0.059062988 0.13453327 0.09699677 0.034474544
000050 2b 5e 9f bc a7 48 98 bd ae 6d 97 3d a7 27 dd 3c
       -0.019454082 -0.07435732 0.073939666 0.026996447
000060 d4 e1 4f 3d d0 05 01 3c ff 1e f3 bd 3b 43 9f 3d
       0.050752476 0.007874921 -0.118711464 0.07776495
000070 52 f4 31 3d e6 2b 21 3e 9a 43 32 3d 99 2c 59 3d
       0.043445893 0.15739402 0.0435215 0.053021047
000080 2c 73 c2 3d 1e 19 24 3d 0c 06 e5 3d 5b d6 d2 bd
       0.094946235 0.040063016 0.11182794 -0.10294791
000090 04 36 76 3b c3 36 68 bd c2 60 ba 3c 76 9c 16 bb
       0.0037568817 -0.05669285 0.022751216 -0.0022981442
0000a0 a2 27 d0 bd 6a 65 13 3d 2b 7a fb bc ae 9f 02 be
       -0.10163809 0.035985388 -0.030697903 -0.12756225
0000b0 a3 7b 8a bc 79 a5 a4 bd aa 84 db bc 2d ed ee bd
       -0.016904658 -0.08039374 -0.026796658 -0.116663314
0000c0 da 60 a7 bd 23 ea 26 bc b5 3c e7 bd a7 a2 3e bd
       -0.0817277 -0.0101876585 -0.11290876 -0.046541836
0000d0 57 5c ff bb 62 ae ca bd 80 f8 4d bd 81 91 9e 3d
       -0.00779299 -0.09896542 -0.050285816 0.077425964
0000e0 ed 53 a5 3c 5d 13 aa bd a1 4d 70 3d 20 34 76 bd
       0.02018162 -0.083044745 0.058667783 -0.060108304
0000f0 80 d6 16 bb a0 c6 d3 3d a2 b1 70 bc 51 9b c9 3d
       -0.0023016036 0.10340619 -0.014690788 0.098440774
000100 34 ba db bd 66 30 ea bd 42 21 87 bd 6a 0a 8d 3d
       -0.10728875 -0.114350125 -0.0659814 0.06886752
000110 1a 54 d4 3d 04 f9 58 bd 55 c2 8e 3d 21 3c 60 3d
       0.103676036 -0.052971855 0.0697066 0.054744843
000120 b5 12 d4 bc 51 e3 09 3e 3b 2f 5d 3c ef 75 cb 3d
       -0.025887826 0.1346562 0.01350003 0.099346034
000130 3c e0 d6 bd 5d b8 21 bd ca 0b 8e 3c a6 d5 03 3e
       -0.10491988 -0.039482463 0.017339606 0.12874469
000140 5e 70 07 be 74 fc 83 3d 3a b3 ea bd 6c b7 8a 3d
       -0.13226458 0.06444636 -0.11459966 0.06773266
000150 a7 20 a1 bd 6a be 82 3c 37 d9 9c 3d 6c 9c c7 3d
       -0.07867556 0.015959937 0.07658618 0.09746632
000160 78 92 12 3d 16 53 4b bc ab 04 60 bd b0 53 da 3c
       0.035784215 -0.012409946 -0.05469195 0.026651233
000170 23 13 7e 3d 92 8b c2 bd c0 78 9c 3d 02 2c 04 bc
       0.06202997 -0.09499277 0.07640219 -0.008067133
000180 fd f8 a0 bd b2 d2 93 3d 53 18 c5 3c 7d e0 aa 3c
       -0.07859991 0.07217921 0.02405945 0.020858997
000190 f8 70 8a 3c de a6 80 bd 7a 7c 4a bc a7 10 c7 bc
       0.01689957 -0.062818274 -0.012358779 -0.024299933
0001a0 46 93 c2 bd bc be f7 3c d4 c6 10 bc 95 0d 81 3c
       -0.095007464 0.030242316 -0.008836467 0.015753547
0001b0 dc 2d 60 bd 83 3a bf bc 9a 6b 86 3d f9 32 ff bd
       -0.054731235 -0.02334333 0.06563492 -0.12460894
0001c0 db af c9 3d 19 df 31 bd 42 59 d0 3d 76 12 80 3d
       0.09847995 -0.043425653 0.101732746 0.06253521
0001d0 20 41 0a 3d 15 cc a1 3d 51 88 02 bd 00 b6 6f 3c
       0.033753514 0.07900254 -0.031868283 0.0146307945
0001e0 2a ad 5d 3d 9a 7a 18 3d d5 2f aa bc 2e aa e6 bd
       0.05412022 0.037226297 -0.020774761 -0.11262928
0001f0 2e 93 8c bd 95 17 64 3c 64 19 ba bd 3c 65 94 3d
       -0.0686401 0.013921638 -0.09086874 0.072458714
000200 bc 88 4b 3d b3 fd 84 3d 18 3d e1 bc c8 59 87 bd
       0.049690947 0.06493702 -0.027494952 -0.06608921
000210 88 c4 e5 bd 84 f8 11 3d cb b4 9f 3d b6 a7 6a 3c
       -0.11219126 0.035637394 0.077981554 0.014322212
000220 b8 6c 45 bd 0d cc 2e 3d aa fa 2f 3d d1 3c da 3d
       -0.048199385 0.042675067 0.04296366 0.10656131
000230 6b e5 01 bc b7 e3 09 be db f9 68 3c 51 c0 fe bc
       -0.007928233 -0.13465773 0.014219726 -0.031097563
000240 2a 2f 45 3d 99 c9 f7 bd 72 a2 82 bc bd 1d c5 bd
       0.048140682 -0.120989986 -0.0159466 -0.09624813
000250 45 e3 d8 bd d2 5a b8 3d c3 2f f3 3b a0 77 4f bc
       -0.10590223 0.090016976 0.007421465 -0.012662798
000260 2b d8 49 bd d5 0f 8a bc 25 1c 4d 3d f4 e8 91 bd
       -0.04927842 -0.016853252 0.05007567 -0.071245104
000270 27 9f bc 3d 94 08 74 3d 38 97 3a bd 05 40 0d 3d
       0.092100434 0.059578493 -0.04555437 0.034484882
000280 7c fb a9 bd df c4 89 bd dd 3b 88 3d ea 48 48 3d
       -0.0829992 -0.06727003 0.06652043 0.04889766
000290 b4 13 84 bd 67 46 dc bd ef 31 4d bd 14 de 61 bd
       -0.064490706 -0.10755616 -0.05009645 -0.05514343
0002a0 ba c9 22 3d 2d 35 08 bc 58 80 ee bd a7 d6 44 bd
       0.039743163 -0.008313459 -0.116455734 -0.04805627
0002b0 21 25 a7 3d 56 df 56 bd 87 46 ad bb b9 b5 0c 3e
       0.08161379 -0.052459083 -0.0052879485 0.13741197
0002c0 d4 96 51 bd bc 5f 94 bd ff 4e 8d bc 57 6a 17 3e
       -0.05116923 -0.072448224 -0.017249582 0.14786659
0002d0 c0 23 8d bd 72 d9 9e 3d e7 01 0b 3e 17 f1 48 bb
       -0.068915844 0.07756318 0.13574944 -0.003066128
0002e0 ef 54 01 bd 62 f3 e3 bd 5e 4c c5 3d 3f 4e 90 3d
       -0.03157514 -0.11130406 0.096337065 0.07046174
0002f0 c6 9b 57 3c 09 e7 83 bc 42 bc 9f bd 68 8f bf bd
       0.013159698 -0.016101377 -0.07799579 -0.093535244
000300 92 47 5c bd 58 6f cf 3d cc 70 bd bc 60 30 24 3d
       -0.053779192 0.10128659 -0.023125075 0.040085196
000310 c0 6f fe 3d 1f 1f e5 3c 2e f0 8e 3c 46 bc c8 bd
       0.12423658 0.027968941 0.017448511 -0.09801535
000320 a2 fb d6 3d d1 19 1e be 2d be 30 bc 05 f4 89 bd
       0.10497214 -0.15439536 -0.010787529 -0.06735996
000330 d7 5e cf bd ca 8d d7 3b d9 35 45 bc 7b 7f 47 be
       -0.10125511 0.006578182 -0.012036764 -0.19482224
000340 33 4f 19 be 6c 2f 80 bd 2c b9 03 bd 3e b5 0e 3e
       -0.14971618 -0.06259045 -0.032159016 0.13936326
000350 63 e4 d4 3c ea bf 9d 3d c1 94 19 3e 07 7a d3 bd
       0.02598781 0.0770262 0.14998151 -0.10326009
000360 41 af e2 3c 47 20 03 bc c9 42 f9 bd ce c3 09 bd
       0.027671458 -0.008003301 -0.121709414 -0.033634
000370 1c 3c 02 be 41 11 dd 3d a2 61 84 3d 5b 67 99 3d
       -0.12718242 0.107943065 0.064639345 0.074904166
000380 2f 72 d0 bc 65 4a ac 3d 10 c0 7f 3d 74 59 0c be
       -0.025445072 0.08412627 0.062439024 -0.13705999
000390 7a 35 1c bd 8a df 9f bd df f8 51 bd 07 de 97 bd
       -0.038136937 -0.078063086 -0.051262733 -0.07415395
0003a0 ac 05 0e 3e 59 c1 d9 3b e1 2f ea bd f0 0a ae bd
       0.13869351 0.0066453633 -0.114349134 -0.0849818
0003b0 db 54 2c be 96 0c 16 bd 26 a5 29 bb 24 2e a1 bd
       -0.16829245 -0.036633097 -0.002588579 -0.07870129
0003c0 db b2 e9 bd 24 ae ea 3c 2e b4 cb bd af 59 e6 bd
       -0.11411067 0.02864749 -0.09946476 -0.112475745
0003d0 1c 5f 54 bc 53 c6 02 3c 98 50 02 bd 12 8c c5 3b
       -0.012962129 0.0079818545 -0.03181514 0.0060286606
0003e0 aa 09 ca bd 6a ea e4 3c ef 5d c3 3d f4 8b 5a 3d
       -0.098651245 0.027943809 0.09539401 0.053356126
0003f0 6b 34 bd 3d e0 3d db 3d 66 4d 9e bd 8c 6d ab bd
       0.092385136 0.10705161 -0.07729606 -0.08370504

model.transforms.0.encoder.noise_dist.transforms.0.ar_net.lstm.weight_hh_l0 f4 [256, 64]
000000 37 b6 5a bd 9a 5b 9c 3c b1 ad be 3d 50 34 35 bc
       -0.05339643 0.019086648 0.09310473 -0.011059836
000010 47 19 a9 bd 79 4d 51 3b 40 ee 55 3d 90 a3 a1 3d
       -0.082567744 0.0031937046 0.052229166 0.07892525
000020 86 71 d6 3c 3a a8 9f 3c 63 a1 ad 3c f6 8f 5b bd
       0.026177179 0.019489396 0.02119512 -0.05360409
000030 50 17 4e bc 60 b2 a0 bd d6 92 38 3c 6d 54 35 3d
       -0.0125788 -0.07846522 0.011265477 0.044269968
000040 32 6a 84 bd 3e 17 00 3e a6 06 82 3d 3a c6 8f 3d
       -0.06465568 0.12508866 0.06348924 0.070202306
000050 21 d4 9a 3d ba 64 85 bd 60 c7 96 3d c4 bd 15 bc
       0.07559992 -0.06513353 0.073622465 -0.009139482
000060 23 a1 80 3c 33 d6 7e 3d cf ce da 3c 50 0f fb bd
       0.015701836 0.062215995 0.026709942 -0.1225878
000070 39 7f db bc c8 9e 8a 3c a9 31 43 3d 16 48 b3 3d
       -0.026794063 0.016921416 0.04765478 0.08753984
000080 b7 0f ca 3c 49 4c 25 3c e1 36 eb bd a2 72 f4 bd
       0.024665697 0.010088989 -0.11485077 -0.11935927
000090 03 25 94 3d 3d 8d 28 3d e9 0d e2 bd bf a6 c0 bb
       0.07233622 0.04115032 -0.110378094 -0.0058792527
0000a0 a9 b8 8c 3d f3 d7 bb bd 4d 5e 80 3d df 46 2f 3d
       0.06871159 -0.091720484 0.062679864 0.042792197
0000b0 ea 45 1b bd 5c 95 c3 bd 37 c9 f1 3d 24 36 e8 bd
       -0.037908472 -0.095499724 0.11805957 -0.113384515
0000c0 73 de 9d bd a5 71 9b bd a9 ed 49 3d c6 44 e3 bd
       -0.077084444 -0.07590035 0.049298916 -0.11097102
0000d0 b0 26 08 bd 5a 5a a6 bd 6a bd ee bc 7d 54 cd 3d
       -0.03324002 -0.08122702 -0.029143054 0.100258805
0000e0 db b6 64 bc 65 74 d2 3d 6f 5b 89 3d 08 21 02 3d
       -0.013959612 0.10276107 0.06706893 0.031769782
0000f0 a3 1a a3 bd 7f 88 36 bd bf c6 b0 3d fe e7 8f 3d
       -0.07964065 -0.044563767 0.08631658 0.07026671
000100 ce b2 d2 3c eb 62 65 bb a7 67 ba 3d 92 f0 c8 bd
       0.025720026 -0.0035001587 0.09101801 -0.0981151
000110 85 3c 02 be 7a 57 9e 3d a7 98 d7 bd 9d 57 be bc
       -0.12718399 0.077315286 -0.10527163 -0.023235137
000120 67 26 75 3d 9a 7c b8 bc fb 65 a4 bd 19 47 c5 bd
       0.059851076 -0.022520352 -0.08027264 -0.096327014
000130 b7 ae ee 39 64 f8 d4 3d 51 19 b8 bb 44 67 da 3d
       0.0004552507 0.10398939 -0.0056182523 0.106642276
000140 8f 1e e5 3d 09 ff 50 bd c3 b3 ee bd 40 80 33 3d
       0.11187469 -0.05102447 -0.116553806 0.04382348
000150 37 d1 c2 3d f5 0f f6 bd 1e 0f 20 ba d6 19 09 3c
       0.09512561 -0.12014762 -0.0006105768 0.008367976
000160 83 a2 1f 3b ef 37 d7 bd 51 e1 04 bd 21 dc d1 bd
       0.002435834 -0.10508715 -0.03244144 -0.102470644
000170 02 25 b5 3d 16 3f 00 3e e7 13 ea bd 55 dd 06 bd
       0.08844949 0.12524065 -0.11429577 -0.032925922
000180 0b f8 9b 3c 54 99 3c 3d 4b 55 e3 bd 72 7a b8 bd
       0.019039175 0.046044663 -0.11100253 -0.090077296
000190 f4 b1 d4 3b e7 f6 a2 ba ed a5 37 bd 6d 11 23 3d
       0.00649094 -0.0012433202 -0.044835974 0.03981154
0001a0 38 fc 5b 3d fe 71 4e bd 7b ef 63 3d 28 92 ef 3d
       0.05370733 -0.05040168 0.05564831 0.11697799
0001b0 5d 1f b5 bc 3f 86 8f bd 29 a4 40 bc 51 81 04 3e
       -0.022109682 -0.07008027 -0.011757889 0.12939955
0001c0 92 e5 a1 3d 76 fc 34 3d 5d 93 ba 3a 16 19 41 bc
       0.07905115 0.044186078 0.0014234592 -0.011785766
0001d0 f3 d3 c6 bd f9 f8 c6 bd f4 03 c4 3d fd 71 a2 bd
       -0.09708395 -0.097154565 0.095710665 -0.07931898
0001e0 9e 6f 34 bd d9 b8 52 3d f0 f1 9d 3c fb 6f 39 3d
       -0.04405176 0.051445816 0.019280404 0.04527281
0001f0 c9 e9 a4 3b 75 08 a0 bc 91 d5 45 bd e2 ca 50 bd
       0.005032752 -0.019535283 -0.048299376 -0.050974734
000200 f5 ae 12 bd f0 33 20 3d c6 0f c9 3d 17 1b 9d 3d
       -0.035811383 0.03911203 0.09817462 0.076711826
000210 43 64 75 3d fd ff 76 bd 0b 27 e7 3d 68 6b 5a 3c
       0.05991007 -0.060302723 0.11286744 0.013331272
000220 87 fb c4 3d cf be ec bc 71 9b 10 3e b7 2e d2 bd
       0.096182875 -0.028899578 0.14121796 -0.102628164
000230 73 20 b9 3c b0 91 e1 bd b3 fc 03 be 1d 0f 2c 3d
       0.02259848 -0.11014116 -0.12889366 0.0420066
000240 88 e3 c1 bd 52 46 f5 3c da 8e a5 bd 47 1e bb 3d
       -0.09467226 0.029940758 -0.080838874 0.09136634
000250 17 96 c8 bd b7 c4 96 3a 12 78 82 bd c6 d1 fe bd
       -0.09794252 0.0011502717 -0.06370558 -0.12442355
000260 d9 1d 43 bd d2 6e 02 3e 3a d6 fe bc da d3 c4 bd
       -0.047635887 0.12737587 -0.03110801 -0.0961072
000270 98 ab 21 bd e4 0c d5 bc f4 ee 88 bd 91 e3 77 bc
       -0.039470285 -0.026007123 -0.06686202 -0.01512994
000280 80 30 15 3d ed 45 c3 3d 0b 1c 19 3d f0 5f 42 3c
       0.036423206 0.09534822 0.03738026 0.011863694
000290 a3 0e dc bb 59 bb 68 bd da 2b 3a bd 2e 3b ce bd
       -0.006715612 -0.056819294 -0.045451976 -0.100698814
0002a0 e9 c3 31 bd cd a6 cb 3c c0 8d 02 be 90 66 a4 bd
       -0.043399725 0.02485981 -0.12749386 -0.08027375
0002b0 26 e8 bb 3d 24 36 2b bc 02 bf 14 bd 26 f8 0e bd
       0.09175138 -0.01044992 -0.03631497 -0.03490462
0002c0 1f 91 59 3d df 59 c7 3c 35 d6 ab 3d 56 06 a1 bd
       0.053116914 0.024334846 0.08390466 -0.078625366
0002d0 88 3e 33 3d 0e dc 99 3c ad 0c d7 bd 89 d0 b0 3d
       0.043760806 0.018781688 -0.105004646 0.08633525
0002e0 47 30 ab 3c 0d 81 8d bd 06 03 dc 3d 9c b1 d7 3d
       0.020897044 -0.0690938 0.10742764 0.10531923
0002f0 2c 88 3d 3d 16 6b a9 3d ef 55 a6 bc 06 d2 cb 3c
       0.04627244 0.08272378 -0.020304648 0.02488042
000300 88 ef 99 3d 88 6c b7 bd 5d 81 8d 3d ee 8a 0c 3d
       0.0751639 -0.089562476 0.0690944 0.03431218
000310 70 22 89 bd 02 d4 58 3c 41 62 88 3d 5f 66 b9 3d
       -0.066960216 0.01323414 0.066593654 0.09052729
000320 53 c8 2e bd ea 3b 18 3d e5 da 81 3c b8 36 3a bd
       -0.042671513 0.037166514 0.015851447 -0.04546234
000330 0b 66 0e 3d f1 4a da bd 94 8e 74 3d ab c9 e2 3d
       0.034765285 -0.10658825 0.059706286 0.11073621
000340 91 3d 08 bc 11 58 74 3d c4 8f 27 be 06 ca 06 3c
       -0.00831546 0.0596543 -0.16363436 0.008226877
000350 b7 84 99 3d 4d a3 45 bd 53 fc bc 3d 92 23 8e 3d
       0.074960165 -0.04825144 0.092278145 0.06940378
000360 77 30 b6 bd fd 12 f2 bb 47 cd a9 bd a4 1f c0 3d
       -0.08895963 -0.0073875175 -0.08291107 0.09381035
000370 05 c5 79 3d a9 0c a8 bd bb 7b c4 bd b7 78 12 3e
       0.060978908 -0.0820554 -0.09593912 0.14303862
000380 9c f7 95 3d d7 fd 01 be 25 6c 87 bd dd 34 94 bb
       0.07322618 -0.12694488 -0.06612424 -0.0045229034
000390 91 64 7d 3d 1d f0 73 3d 08 5d 97 3d b7 72 46 bd
       0.061863486 0.05955516 0.07390791 -0.048449244
0003a0 00 30 63 3c 23 62 4c bd 39 36 98 bd 8c 9a cf 3d
       0.013866425 -0.049898278 -0.07432217 0.10136899
0003b0 10 67 6c 3d 9e f2 bf bd db 4d 8b bd d6 14 58 bd
       0.057715476 -0.093724474 -0.06801959 -0.052754246
0003c0 de e3 3b bd dd cb dd bd a6 3b eb 3d 30 0b 0a 3e
       -0.045871608 -0.108298995 0.114859864 0.1348083
0003d0 a7 f3 91 3d 9b ab 03 be 14 05 64 bd 88 ba d5 3d
       0.07126551 -0.12858431 -0.055668905 0.10435969
0003e0 46 b8 96 3c 43 b0 36 bd 90 e7 1e 3c b1 1c 96 bd
       0.018398415 -0.04460169 0.0096987635 -0.07329691
0003f0 54 29 6c bd 6a 33 ac 3d a1 07 44 3c 13 79 ab bd
       -0.0576566 0.08408244 0.0119647095 -0.083727024

model.transforms.0.encoder.noise_dist.transforms.0.ar_net.lstm.bias_ih_l0 f4 [256]
000000 a2 69 8c bd 2e 1d 7d 3d b0 30 99 bc b2 eb 55 bb
       -0.06856085 0.061795406 -0.018699974 -0.0032641706
000010 15 53 da bd 6a 6f 24 bd 61 51 3d bd d1 5e aa bd
       -0.10660378 -0.040145315 -0.046220187 -0.08318866
000020 d9 b5 29 3d da 71 0b 3e db 69 23 bb d7 a2 d2 bd
       0.04143319 0.1361765 -0.002493492 -0.102849655
000030 b3 d6 08 bd b3 f0 b4 3c 29 a9 10 bd aa 08 89 bd
       -0.033407878 0.02208743 -0.035317574 -0.06691106
000040 85 a7 5b bc 5f 2d 0f bd 6c 2a 8b bd 35 20 04 be
       -0.013406639 -0.03495538 -0.06795201 -0.12902911
000050 3b 2e 5a bd 02 ca 99 bd 05 a9 6d 3d fe 48 db bd
       -0.053266745 -0.07509233 0.058022518 -0.107072815
000060 e1 52 e3 bd 25 73 a7 3c 83 f1 97 bd ab ec fe 3b
       -0.11099792 0.020440647 -0.074191116 0.007779678
000070 a3 a8 a6 3d d4 13 29 bd 6a 10 0d 3c d0 28 10 3e
       0.08137634 -0.041278675 0.00860987 0.14078069
000080 5f fe 25 bd 01 53 ed bd b1 3c 3e 3d 4e ee 3d bc
       -0.04052579 -0.11588097 0.0464446 -0.011592461
000090 69 cb 07 be 92 39 f4 bc 4e 4e 00 be 1b 8f e3 3d
       -0.13261189 -0.029812608 -0.12529871 0.111112796
0000a0 0a 41 81 bd a2 16 7d 3c 63 29 f6 bc b0 92 98 3d
       -0.06311233 0.015447291 -0.030049032 0.074498534
0000b0 14 c9 f2 bc 63 72 32 3d 2b bc 2d bd c6 e5 32 bd
       -0.029636897 0.04356612 -0.04241578 -0.04367616
0000c0 a7 ca 9d 3b 19 16 f3 3c ce 5d 18 3d 4d 6c 00 be
       0.004815418 0.029673623 0.037198834 -0.12541313
0000d0 5d 11 7b 3d 57 71 e0 3d c1 70 71 3b 39 59 b7 3d
       0.061295856 0.10959118 0.0036840888 0.08952565
0000e0 97 be 91 3d 38 de c4 bd e6 b9 a3 3a af 6c a3 ba
       0.0711643 -0.09612697 0.0012491315 -0.0012468303
0000f0 7b 7f 78 bd f3 e3 97 3d b1 ff f5 bd 80 c2 0a 3d
       -0.06066845 0.07416525 -0.1201166 0.033876896
000100 d0 3c df 3d 32 68 13 bd f1 bc 1c 3d 90 52 1f 3d
       0.10900271 -0.03598804 0.038266126 0.038897097
000110 a4 99 78 bd a1 57 b9 3d 34 bb 8c 3d 76 03 08 bd
       -0.060693398 0.09049917 0.06871644 -0.033206426
000120 77 ea b7 3d 6a 0c 71 3d 81 c6 8d bc c4 56 85 bc
       0.089802675 0.05884973 -0.017306568 -0.016276725
000130 68 54 0c bd af e8 6d bd 18 d9 1f 3c 88 12 e5 3d
       -0.034260184 -0.058083232 0.009756349 0.11185175
000140 89 c9 b5 bd 3a 80 49 3d 4c 53 05 bd d0 3e de 3d
       -0.088763304 0.049194552 -0.03255014 0.10851824
000150 bf 18 4c 3c 4d 2e e7 3b 8b 73 d7 3d cb 7a 31 3d
       0.012457072 0.00705508 0.10520085 0.043329995
000160 a8 08 e7 3d bc 00 99 3d 24 8c 47 3d a8 82 be 3d
       0.11280948 0.07470843 0.048717633 0.093022645
000170 d2 e1 6e 3d cc 75 17 bd c6 49 05 3d b1 7b 04 3c
       0.058320828 -0.036977574 0.03254106 0.008086131
000180 4e 43 81 3d 17 fb ed 3d 5c 62 83 3c 08 29 b4 bc
       0.063116655 0.11620157 0.016038112 -0.021992221
000190 8b 9b c6 3b 0d 12 82 3d c9 8b 08 bd 6c d4 b9 bd
       0.0060610226 0.06351099 -0.033336435 -0.090737194
0001a0 64 38 a2 bc 8b 39 8c 3d 21 15 03 3e af 9c 31 bd
       -0.01980228 0.06846913 0.12801029 -0.043362316
0001b0 3a 87 ea bd 3e bf a0 3d 72 05 b5 bd dc 10 f6 3b
       -0.11451574 0.078489766 -0.08838929 0.007509334
0001c0 44 3b 3e 3b 46 62 0f 3e 46 3b 13 bd cd f5 c6 3d
       0.0029027024 0.14002332 -0.0359452 0.097148515
0001d0 98 32 e1 bd af 4e bc 3d db 0b 9d bc c4 57 8f bd
       -0.10995978 0.09194695 -0.019170692 -0.06999162
0001e0 7c 7e 0a 3d f4 6f b6 3c 8b 45 f4 bc 3a 12 bb 3d
       0.03381203 0.02227018 -0.029818317 0.09134336
0001f0 9e 3a a0 bd e9 b8 69 3d 60 ae 28 3d 3c 50 a8 3d
       -0.0782368 0.05706111 0.041181922 0.082184285
000200 9c f4 a8 3d c2 0a e5 bc ca 3d 97 3d 2a df 07 bd
       0.082497805 -0.027959231 0.07384832 -0.03317181
000210 3d 1a ab bd dc a6 da 3d 49 09 37 bd b1 45 9d bd
       -0.08354614 0.10676357 -0.04468659 -0.07679308
000220 1e 91 d0 3d c4 ec 20 bd 61 0c e5 bd 1e 73 94 3d
       0.10183929 -0.039288297 -0.11184002 0.07248519
000230 eb f1 7d bd 27 1a 7a 3d 6b 95 c2 3d 2e ca 19 bd
       -0.06199829 0.061060097 0.095011555 -0.03754633
000240 35 5d cc bd 32 2c 97 3d d7 70 c8 bc 6b 03 75 bd
       -0.09978715 0.073814765 -0.024467869 -0.059817713
000250 57 fa ec 3d 25 dc e7 bd fd ac c3 bd bd 16 bc 3d
       0.11571186 -0.11321286 -0.09554479 0.091840245
000260 96 5d 4f bc d9 8a 98 bc 57 79 57 3d 31 e5 bc bd
       -0.01265659 -0.018620895 0.052605953 -0.09223402
000270 fd 32 9b 3d c5 61 97 bd 6d 0f 33 3d 48 ca d6 3d
       0.075780846 -0.07391695 0.043715883 0.10487801
000280 81 20 92 3b 76 86 0a bd ff 8d d9 bd 9d 65 07 3e
       0.004459441 -0.03381964 -0.10622787 0.13222356
000290 85 aa cf bd d9 7c d2 bd bd 0a a9 3d 47 e8 9d bd
       -0.10139946 -0.10277719 0.08254001 -0.07710319
0002a0 1d 1a a3 bc 48 29 95 bd 09 17 65 bd 38 5f a9 bc
       -0.019909913 -0.072832644 -0.05593017 -0.020675287
0002b0 54 54 85 bd 2e d8 f8 bd 48 b7 ba 3c 6d b6 d4 bd
       -0.06510225 -0.12150608 0.022792473 -0.103863575
0002c0 cc 48 b9 3d bf 10 0b 3d 66 bf 65 3c 3a 7a f1 bc
       0.09047088 0.033951517 0.014022684 -0.029477227
0002d0 66 6d 58 bd ab bc 6f 3d 41 34 55 bd 15 c1 c9 3d
       -0.052838705 0.058529537 -0.052051786 0.098512806
0002e0 4e e4 67 3d aa d3 a4 bd 48 e5 8b 3c 7d 26 b5 3d
       0.056614213 -0.08048184 0.017077103 0.08845232
0002f0 24 8a d5 3d 39 56 64 3c 1d 2c 4a bd 67 c7 89 bd
       0.10426739 0.013936573 -0.049358476 -0.06727486
000300 3a 0d d3 bd fc c3 39 3d 9f b1 8b bc 55 0f b7 bd
       -0.10305257 0.04535292 -0.01705247 -0.08938471
000310 d7 7f 99 3d 4d 40 a7 3d f6 76 97 3d b6 6c eb 3b
       0.07495087 0.08166561 0.07395737 0.00718459
000320 d9 5c a4 3d a3 26 b5 bd a7 52 eb bc 80 80 93 3c
       0.08025522 -0.0884526 -0.028725935 0.01800561
000330 02 1e 50 bd 9f 72 68 bd df be 15 3d 3a 27 05 3d
       -0.050809868 -0.056749936 0.036558982 0.032508112
000340 ee 98 a2 bd de 03 bf bd 6d d9 df bc 65 47 15 bd
       -0.07939325 -0.093269095 -0.027325356 -0.03644504
000350 ca 89 04 3e d9 99 47 bd 59 d4 89 3d fe 32 c2 3d
       0.12943187 -0.048730705 0.06729955 0.09482382
000360 20 67 05 3e 07 e8 b3 3d d7 32 4e bc 57 62 27 3d
       0.1302762 0.0878449 -0.012585363 0.04086527
000370 f1 f7 c7 bc 6e d5 24 3d 93 4e c0 bd de 5c 97 bd
       -0.02441022 0.040242605 -0.09389987 -0.0739076
000380 b9 37 ff bd 6a 05 9e bc 63 c6 a8 3b df da 8c 3d
       -0.124618 -0.019289691 0.0051506027 0.06877684
000390 64 b9 e8 bd d3 83 89 bc a0 a5 ee bc a9 62 02 bc
       -0.113634855 -0.016786491 -0.02913171 -0.007958093
0003a0 f0 87 80 3d 10 ee ad bd 79 e7 17 3d d8 9c d6 bd
       0.06275928 -0.084926724 0.037085984 -0.10479134
0003b0 8e 6a c8 bd 79 fb 01 be 84 89 00 bc 49 5c 8f 3d
       -0.09785949 -0.12693585 -0.007845286 0.07000024
0003c0 31 81 b5 bd d2 43 a8 3d 6e 08 5f bd d1 be 04 bd
       -0.08862532 0.08216061 -0.0544514 -0.03240854
0003d0 bd 12 17 bc 6c ea a7 3d 3a bb 21 3d fd e1 c7 bd
       -0.009220776 0.08199009 0.039485194 -0.09759901
0003e0 5f f3 b1 3d ba 43 4b 3d f6 75 75 bc 8e 7a 81 bc
       0.086889975 0.049625136 -0.014981737 -0.015805509
0003f0 b3 16 98 3c cb bd f9 bd 03 c9 da bd 3c 6c bd 3c
       0.018565511 -0.12194403 -0.10682871 0.0231229

model.transforms.0.encoder.noise_dist.transforms.0.ar_net.lstm.bias_hh_l0 f4 [256]
000000 88 ca 5d bd 42 25 1b bd 4f bf de bd 4a dc c0 bd
       -0.054148227 -0.03787733 -0.10876333 -0.09417017
000010 85 01 76 bd f8 13 0b 3d 0f 22 ac bd 21 60 0b be
       -0.060060043 0.03395459 -0.08404934 -0.13610889
000020 ff 0c 10 3e 79 d7 73 3d 1c 15 42 3d db ef bc 3d
       0.14067458 0.059531663 0.047383413 0.09225436
000030 88 71 ee 3d 9f e4 31 3d 00 c9 dc 3d 41 58 44 bc
       0.11642748 0.04343092 0.10780525 -0.011983932
000040 bc fb ba bd cb 9d 68 bd 01 53 af bd 3a 25 72 bd
       -0.09130046 -0.056791108 -0.085607536 -0.059117533
000050 85 d1 ab 3d 9b e5 a6 3d 8e 99 e1 bd af 25 35 3d
       0.08389572 0.081492625 -0.11015616 0.04422539
000060 a0 95 83 3d df ce c8 bd 82 34 c5 3c 91 49 82 3c
       0.06425023 -0.098050825 0.02407289 0.01590422
000070 a4 55 a2 3c bb 3a 01 3e 60 33 4f 3d b3 81 9f bd
       0.019816227 0.1262006 0.050586104 -0.0778841
000080 dd b3 52 bd d7 ee 44 3d ab 3f 49 3c 69 2c db bd
       -0.051441062 0.048079338 0.012283246 -0.1070183
000090 33 3d b4 bd 9e 39 15 3a 3a df e6 3d 4f a0 69 bd
       -0.08800735 0.00056924846 0.11273046 -0.057037648
0000a0 3d a9 be 3d 54 7e 99 bd 7d c8 c2 bd 44 b8 8c 3d
       0.093096234 -0.07494798 -0.09510896 0.068710834
0000b0 86 d7 15 be 82 81 7f 3d ad eb a9 3d f2 04 ac 3c
       -0.14632997 0.062379368 0.08296905 0.020998452
0000c0 a4 95 db 3c 28 9f 12 3d 5b d2 c2 bc 40 7b ea 3c
       0.026804753 0.035796314 -0.023781946 0.028623223
0000d0 ce ba 0c 3d 59 27 9c 3d 58 c4 d5 3d 1d b6 a6 3d
       0.03435784 0.076246925 0.1043784 0.08140204
0000e0 4b 60 8c 3d 5c e5 bc 3c 33 ee ba bd 90 d7 f9 3c
       0.06854304 0.023058586 -0.09127464 0.030498296
0000f0 de 18 be bd a5 f7 bd bc 54 64 98 3b 1b 5a 08 be
       -0.09282087 -0.023189375 0.004650632 -0.13315623
000100 7c 9e 1f bd 35 1f 1a 3d 48 57 26 bd 06 3c 0b 3e
       -0.0389695 0.037627418 -0.04061058 0.13597116
000110 2c 3a 25 3d af 8c 95 3d 50 87 05 bc 86 2e ea bd
       0.04033868 0.07302224 -0.008149937 -0.11434655
000120 82 6d f7 3d 0d 70 c4 bd a1 5f 92 bd 20 66 2e 3d
       0.12081434 -0.095916845 -0.07147146 0.042577863
000130 c1 91 94 bd 69 0e 26 3d 1e 8e 09 bd 99 1f 50 bd
       -0.07254363 0.040541086 -0.0335828 -0.050811384
000140 f7 5b ab 3a 02 02 5a bb 48 bf c4 bd c1 28 01 bd
       0.0013073672 -0.0033265357 -0.096067965 -0.031533007
000150 c7 86 3c bb aa 15 07 bd a7 f2 75 3d ae 22 e1 3d
       -0.0028766857 -0.032979645 0.060045864 0.10992943
000160 d1 7a 7a 3d 3a f4 e5 3d 1d b3 b2 3d bb bd 66 bd
       0.061152283 0.11228223 0.087255694 -0.056333285
000170 55 03 10 3d 0d 01 ad bc cb c9 92 bd 86 9a 8f 3d
       0.035159428 -0.021118665 -0.07167395 0.07011895
000180 c1 6a 0c 3d e8 c3 9a bc 05 f5 b2 3d 51 79 03 3e
       0.034281496 -0.018892244 0.0873814 0.12839247
000190 33 ad c8 bc bb cc 10 be 96 65 e5 3d a8 4b 89 bd
       -0.02449665 -0.14140598 0.112010166 -0.067038834
0001a0 b9 06 99 3d 5e 93 de 3d 3d 1e 63 3d d1 68 6b bd
       0.07471985 0.10867952 0.05544876 -0.057473008
0001b0 1b e4 43 bc 7e 94 b6 bd 8a b3 db bc e8 9f 0b 3e
       -0.01195624 -0.089150414 -0.02681901 0.13635218
0001c0 24 0e a3 3d 9a 58 f3 3b 0b 9f 51 bd a5 c3 94 3d
       0.079616815 0.0074263336 -0.051177066 0.07263879
0001d0 93 50 80 bd 0f fe b0 bd 94 85 2d 3c aa d2 05 bd
       -0.06265368 -0.08642208 0.01059093 -0.032671608
0001e0 55 ce 89 bb 1b 8d 00 bc c2 a1 df 3d 6a c4 ce 3c
       -0.004205505 -0.007846142 0.10919525 0.025240142
0001f0 ae 34 ce 3d 6d 15 bf bd 16 d6 fa 3d 27 54 55 3d
       0.100686416 -0.093302585 0.12247865 0.052082207
000200 4a 11 07 3e 4a 54 bc bd 4e 17 56 bd 57 18 68 3d
       0.13190189 -0.09195764 -0.05226832 0.056663837
000210 15 63 cc 3d 2f 25 8d bd b1 6e a5 bc 5e d7 21 bd
       0.09979836 -0.06891858 -0.020194383 -0.03951203
000220 3f 5b dc bb 18 39 b2 bd 20 9a fc bc da 8e 0e be
       -0.0067247446 -0.08702296 -0.030835211 -0.13921681
000230 ca d9 18 bd 6f d5 79 bc 6b a0 03 3e 74 37 96 bb
       -0.037317075 -0.01524864 0.12854163 -0.0045842472
000240 69 41 8b 3c 89 ba cb 3c b7 d2 c3 3d 9b 22 93 bd
       0.016998963 0.02486922 0.09561675 -0.07184335
000250 90 fd 09 bd 52 ca 32 3c ed df 8c 3d f7 29 8b bd
       -0.03368908 0.010912495 0.06878648 -0.067951135
000260 3d ad 7c 3d d1 e8 b2 bd b9 92 4e bd e6 cc 40 bb
       0.06168865 -0.087358125 -0.050432894 -0.0029419004
000270 c9 54 8b bc 87 65 81 bd 5b 5b 5b 3c e8 b4 ea 3d
       -0.017008202 -0.06318193 0.01338848 0.114602864
000280 4a 1b 74 bd 5f 7b ef bc 19 55 0e be 40 e2 4c 3d
       -0.059596337 -0.029233633 -0.1389965 0.050020456
000290 ef a6 a6 3d 15 a3 c7 3d c2 49 7c bd 99 30 f7 3d
       0.08137309 0.09747902 -0.06159378 0.12069816
0002a0 d5 68 08 bc 51 89 88 3c 53 d2 02 3e 8a 35 90 3d
       -0.008325775 0.01666704 0.12775545 0.07041462
0002b0 1d 68 65 bc 25 92 7e bc ff 6f a1 3d 69 2b 4e 3d
       -0.014001873 -0.015537773 0.0788269 0.050334368
0002c0 f4 4a d6 bd 36 cd 3c bd 1c ab b9 3d 1d cd ae 3d
       -0.10463515 -0.046094142 0.0906584 0.08535216
0002d0 12 e5 01 be 5f 1d f9 3d 5c 9b cd 3c f4 e9 32 3d
       -0.1268504 0.12163805 0.025098495 0.043680146
0002e0 39 9a 02 3e fa 06 94 3d 24 3c d4 bd 6d 7e 5f bd
       0.12754144 0.07227893 -0.103630334 -0.05456393
0002f0 96 ca e9 3d 4e a9 d1 3d fc e8 a6 bd c1 32 19 bd
       0.11415593 0.102373704 -0.08149907 -0.03740192
000300 ba f2 39 3d 57 f4 91 bd bc c6 12 bd 6d 5d 13 3d
       0.045397498 -0.07126682 -0.03583406 0.03597777
000310 fa 05 59 bd 49 3c 8c bd 1a 1b 9c 3d 0b f2 3b 3c
       -0.052984215 -0.06847436 0.07622357 0.011471282
000320 d7 79 95 3d 7d dd 12 3d 14 02 a2 3d bc 8c b6 bd
       0.0729863 0.03585576 0.079105526 -0.08913562
000330 7b a3 72 bd e4 67 e7 bd 73 fd e3 bd 07 d9 8d 3c
       -0.05923794 -0.112991124 -0.11132326 0.0173154
000340 25 a9 72 3c 4c 02 fa 3d d3 f5 89 3d 9b 9e 43 bd
       0.014810835 0.12207469 0.067363404 -0.04775868
000350 01 05 ea 3d c1 45 07 bd 37 59 9e bc 32 1b 9e 3d
       0.11426736 -0.033025507 -0.01932965 0.07720031
000360 45 eb b5 3d df fb 87 bd e7 f0 5a bd 3f 39 f3 bd
       0.08882765 -0.066398375 -0.0534524 -0.11876153
000370 1c 96 0d be 20 9c 82 bc 55 d9 f0 bd 0b 48 af bc
       -0.13826793 -0.015943587 -0.11760203 -0.021396657
000380 de 24 c9 bd d8 8c d9 bc 17 06 65 3d 9f df f9 bd
       -0.09821485 -0.026556417 0.05591401 -0.122008555
000390 b4 28 b8 bd 30 a3 c3 3d f5 79 fb 3c 0c 97 33 bd
       -0.089921385 0.0955261 0.030697802 -0.04384522
0003a0 3e ea 89 bd 98 d1 dd 3d 0e e0 b5 bd 5c f6 bd bd
       -0.06734131 0.108309925 -0.08880626 -0.09275505
0003b0 e6 7c f0 bb dd 9c c6 3d 50 4a a3 bd c5 b4 20 3d
       -0.007339108 0.09697888 -0.07973158 0.039234895
0003c0 5d 6e 86 3d 52 b8 6b 3a f2 b4 b1 3d ab c5 db bd
       0.06564019 0.00089920044 0.08677091 -0.107310615
0003d0 32 3b d8 bc 58 dd 78 3d ae a0 98 bc bb c8 43 3d
       -0.026395414 0.060757965 -0.018631306 0.047798853
0003e0 f1 87 bd bd af 8a 89 3c 04 7e 91 bd d5 29 45 bc
       -0.092544444 0.016789762 -0.07104114 -0.012033899
0003f0 1c 64 0c 3c 3f 1b c8 3d 9a 58 00 bd 7e b4 0c bd
       0.00856879 0.09770822 -0.031334497 -0.03435182

model.transforms.0.encoder.noise_dist.transforms.0.ar_net.l_out.0.weight f4 [33, 64]
000000 76 d3 09 be b6 09 a3 bd 3b 9f a4 3c a5 85 ba 3d
       -0.13459572 -0.079608366 0.020095458 0.09107522
000010 ac f5 b5 3d 91 2b 4f bc 36 2e 9c bd d2 2a 08 3e
       0.08884749 -0.012644664 -0.076260015 0.13297585
000020 70 df a1 3c bc 57 bd 3d 02 f7 b4 3d d2 56 13 3e
       0.019759864 0.0924525 0.088361755 0.14388588
000030 64 e3 69 3d 15 95 02 bb dd 04 b0 39 19 2d 78 bd
       0.057101622 -0.0019925286 0.0003357296 -0.060589883
000040 b7 66 3d 3d 15 25 c4 bc ae 45 ac 3d fb 13 f2 3d
       0.046240535 -0.023943463 0.08411728 0.11820217
000050 f5 f9 6c bd f1 1b d8 3c de 40 ba 3b ed 7f ab 3c
       -0.057855565 0.026380511 0.0056840023 0.020935023
000060 0d 1f a0 bb 45 5e 5c b9 43 6f 04 be 74 96 d6 bd
       -0.004886514 -0.00021015953 -0.12933068 -0.104779154
000070 5a 12 a0 3c d1 6b 27 bd a0 25 b0 3d ae c2 ff bd
       0.01954 -0.040874306 0.086009264 -0.12488304
000080 3f a9 07 3d 37 37 6a 3d e4 a1 0b 3e ff 2b dc bd
       0.03312039 0.057181563 0.13635975 -0.10750579
000090 ae b6 fc 3c 48 1c cd bd 76 69 fb bd a1 44 ee bd
       0.030848827 -0.1001516 -0.122759745 -0.11634184
0000a0 b4 d5 39 bc 2f 22 ba 3d 96 f1 74 bc 07 24 03 be
       -0.011342455 0.09088551 -0.014950177 -0.12806712
0000b0 01 a1 8e bd 3e 5c 03 3e 6e 15 59 bd ed 12 f8 3d
       -0.06964303 0.12828156 -0.052998953 0.12112985
0000c0 ea da 8f bd e0 0a 89 bd 94 a6 b8 3c 6e ba 8a bd
       -0.070241764 -0.06691527 0.022540368 -0.0677384
0000d0 b5 24 9a bd 21 42 3d 3d bc c4 33 3d 51 ed 87 3d
       -0.075265326 0.046205644 0.043888792 0.066370614
0000e0 c1 9f 2d bb 98 90 4b bc e1 d1 c8 bd f2 18 0f 3e
       -0.0026492926 -0.012424611 -0.09805656 0.1397436
0000f0 cf bd 95 3d c7 e0 fa bd dc 96 45 bd 97 c5 ee 3c
       0.07311594 -0.12249904 -0.048239574 0.029146953
000100 87 43 af 3d e4 03 d9 3d 8c 9e e0 bd 4a 5e 97 ba
       0.08557802 0.10596445 -0.109677404 -0.0011548486
000110 7b 50 2b bd 80 bb 1f bd 11 bd ac bd 61 7e d8 bb
       -0.0418248 -0.038997173 -0.08434499 -0.0066068624
000120 96 7d b6 3d 5f 0d 51 bd c5 7d 89 3d d4 0b b1 3d
       0.08910672 -0.051038142 0.06713442 0.08644834
000130 c3 74 a5 bd 97 65 0f bd 1c cb 74 bd 14 a4 ad 3d
       -0.08078911 -0.035008993 -0.059764013 0.08478561
000140 e7 33 ab 3d 8d c4 89 bd 52 0d f5 bd 99 2a be 3c
       0.08359509 -0.06726942 -0.11965431 0.023213672
000150 7f ad be 3d 2f b7 6f 3d 22 67 85 3d 5b 44 dc 3d
       0.093104355 0.058524307 0.06513812 0.10755225
000160 35 d6 f1 3d 9f 50 c4 bd dd ef 6b 3d 3a 90 9a bd
       0.11808435 -0.0958569 0.0576018 -0.0754704
000170 97 ed 52 3d c6 6c f4 bd 5f c7 2e bc ec 3a b0 bd
       0.051496115 -0.119348094 -0.010667651 -0.086049885
000180 9c bb d0 bd e0 7d d4 bb fc 89 27 3d 33 a5 f3 3d
       -0.10192034 -0.006484732 0.040903077 0.118967436
000190 16 50 18 bc de a9 c9 3d 15 cb d2 3d a1 01 24 3d
       -0.009296438 0.09846853 0.10292641 0.040040616
0001a0 b4 49 db bd 42 65 98 3d c0 e6 c8 3d 1c 71 7c bc
       -0.10707417 0.074411884 0.09809637 -0.015407827
0001b0 cb bf 7c bd 81 73 6e 3d 13 80 5a bd 47 dd 0c be
       -0.061706346 0.05821562 -0.053344797 -0.13756286
0001c0 e2 3f 8c bd 98 1c 68 bd d3 7c a5 bb f7 44 31 bd
       -0.06848122 -0.056667894 -0.0050502806 -0.04327866
0001d0 e3 b4 a4 bd b1 d8 83 3d a8 e1 d4 bd e7 53 6a bb
       -0.08042314 0.06437815 -0.10394603 -0.0035755576
0001e0 af 44 68 3d 1f c5 04 be 65 8a d6 bd 9d e8 ae 3d
       0.056706127 -0.1296582 -0.104756154 0.08540461
0001f0 ab dc 8a 3b 74 27 45 3c ab 90 ed bd a1 7c 9b 3d
       0.0042377315 0.012033332 -0.11599859 0.075921305
000200 1a 18 a1 bd ab 69 24 3d bd 9c 83 3d 38 20 02 3e
       -0.07865925 0.040139835 0.0642638 0.12707603
000210 cc ca 0c be a0 d2 e1 bd 64 ef 61 3d 1b b3 d7 3d
       -0.13749236 -0.11026502 0.05515994 0.105322085
000220 ed 5d d8 bd da 59 99 3c 87 2c 04 be 20 ad ba bd
       -0.1056479 0.018719602 -0.12907611 -0.09115052
000230 d9 51 e4 bd 56 b6 1f 3c ed cd ba bb 08 68 cb bd
       -0.11148424 0.009748062 -0.005700818 -0.09931952
000240 c9 52 d9 bd 21 14 25 3d fc 04 c5 3d d1 bb df bd
       -0.10611493 0.0403024 0.09620091 -0.10924495
000250 0c c6 fe bc 4d 8c a6 bd 59 ff 22 bd fa 90 c0 bd
       -0.031100295 -0.08132229 -0.0397943 -0.09402652
000260 8d 9f 81 3d d3 8b 95 3d c4 57 72 3d 6d 7f 8f bd
       0.0632926 0.0730206 0.05916573 -0.070067264
000270 cb bb 35 3d 30 9b 23 bd 10 a4 df bd 4c d1 a3 bc
       0.044368546 -0.03994292 -0.10919964 -0.019997261
000280 be 70 a5 3c de 07 ea bd e2 47 4b 3d a4 44 af 3d
       0.020195361 -0.11427282 0.0496291 0.08558014
000290 aa 3c cf 3c 74 fc 36 3d 70 90 8f 3d 22 6d ef bd
       0.025297482 0.04467435 0.07009971 -0.11690737
0002a0 84 4c 8b bd e7 36 80 3c 37 36 d8 bd 3d 93 a9 3c
       -0.068017036 0.01565118 -0.10557216 0.020700091
0002b0 9f 17 c7 3d 66 fd e4 bc 69 32 dc 3d 27 d5 d6 3c
       0.09721302 -0.027952861 0.107518025 0.026224686
0002c0 42 d4 b3 bd fc 60 58 bd da 16 de 3d 0c 31 c6 bd
       -0.08780719 -0.052826867 0.10844202 -0.09677324
0002d0 de a4 92 3d e5 eb 91 bd a2 19 98 3d e1 43 d9 3d
       0.07160352 -0.071250714 0.07426764 0.1060865
0002e0 75 92 a1 3d 48 8f ed bd 76 8d 65 37 f8 28 6f bd
       0.078892626 -0.11599594 1.36824e-05 -0.05838868
0002f0 7f 78 fa 3d 90 4d db bd 60 3e 85 bd 4b 82 d4 bd
       0.12230014 -0.10708153 -0.06506038 -0.10376414
000300 ec 1b ce bc b8 a7 54 3d 80 c4 e0 3d ea 41 8f 3d
       -0.025159799 0.05191776 0.109749794 0.06994994
000310 fe b3 0d 3d 36 bb 6f 3d a7 73 d7 3c 28 42 bc bd
       0.034595482 0.058528148 0.026300265 -0.09192306
000320 0e cc 0e bc b1 1c dd bd 34 e6 9f bd 7d e0 cf 3d
       -0.008715643 -0.10796488 -0.0780758 0.101502396
000330 4f eb 7a 3d 40 da c5 bc 67 d2 d2 bb ae 4c 6b bc
       0.061259564 -0.024151921 -0.0064337733 -0.014361544
000340 5d 0a d3 3d 5d 22 04 3e c4 d6 bd bd 2c 4a 11 bd
       0.10304711 0.12903734 -0.09269479 -0.035471126
000350 4e 26 3a 3d 9e ee 84 bb 53 e7 86 3d d8 ee f6 3c
       0.045446686 -0.0040567657 0.0658709 0.030143186
000360 d7 7e 42 bd 2b f8 04 be 53 32 97 3d e9 88 6f bd
       -0.047484245 -0.12985294 0.073826455 -0.058480177
000370 14 28 ef 3d 6b cc 34 bd bd 59 ae bd 3d 3a 3e 3d
       0.11677566 -0.04414026 -0.0851321 0.04644226
000380 eb 27 9b bc d1 f3 01 be 04 44 9a 3d 9e 50 2e 3d
       -0.018939933 -0.12690665 0.07532504 0.04255735
000390 70 e1 c8 3d 6b f8 bc 3d ac 5f 37 3d f1 da 99 bd
       0.09808624 0.092270695 0.044768974 -0.07512463
0003a0 d6 6a e8 3d bb ee de 3d 77 a1 c7 bc 90 6f bd bd
       0.11348502 0.10885378 -0.024368985 -0.092497945
0003b0 7f cf 16 3d 12 be 91 3d 80 16 13 3d 03 a9 24 bd
       0.036818977 0.07116331 0.03591013 -0.040200245
0003c0 97 c7 9d bd 44 42 7c bd 12 77 be bd b7 a5 ae bd
       -0.07704084 -0.061586633 -0.093000546 -0.08527701
0003d0 12 45 f4 3c 95 58 d9 3b 02 4d 2d 3d 1c 0d 19 bd
       0.029818092 0.0066328743 0.04230977 -0.037366018
0003e0 a1 f4 e1 bd 5a ba f2 bd 36 9b a9 bd 09 f4 98 bd
       -0.110329874 -0.1185195 -0.08281557 -0.07468421
0003f0 2a 26 da bd 9b 25 35 3d 8f 9c 86 bd b5 85 e2 3d
       -0.106518105 0.044225316 -0.0657283 0.11060659

model.transforms.0.encoder.noise_dist.transforms.0.ar_net.l_out.0.bias f4 [33]
000000 16 35 8c 3d d0 83 32 3d 84 d4 01 3e 63 d4 8f bd
       0.06846063 0.043582737 0.12678725 -0.070229314
000010 94 24 f1 bc 49 b0 89 3d b4 d3 58 bc de a9 8c bd
       -0.029436387 0.06723077 -0.013234068 -0.06868337
000020 1a c7 e5 3c 98 e8 bb bd 7a e7 c6 bd c3 a4 ae 3c
       0.02804904 -0.09175223 -0.097121194 0.021318799
000030 be 93 dc 3d 09 91 1d 3d 97 8e bf 3d 2d a3 c5 3d
       0.10770367 0.038468394 0.09353369 0.09650264
000040 e8 4d 2b bd 3d 29 bf bd 9b 97 54 3b 34 fe d2 ba
       -0.041822344 -0.093340375 0.0032438997 -0.0016097487
000050 96 5b 88 3d 50 f8 e0 3a 43 c1 d1 3d 3e 20 42 3d
       0.06658094 0.0017163847 0.1024194 0.04739403
000060 11 8f cf 3d 03 7f c1 bd 5e 32 37 bd 16 90 0a 3e
       0.101347096 -0.09448054 -0.04472577 0.13531527
000070 d5 db 9e bd 83 27 2b 3d f5 fc c3 3d 81 97 0a bc
       -0.077567734 0.04178573 0.09569732 -0.008458973
000080 83 ff b9 bd
       -0.09081938

model.transforms.0.encoder.noise_dist.transforms.0.ar_net.l_out.1.first_token f4 [1, 1, 33]
000000 1f 2a 09 3e 67 7e fe 3c 0c 65 cf bb 43 6e 73 be
       0.13394974 0.031066133 -0.0063291844 -0.2377253
000010 17 84 80 3e e0 62 b9 bd 80 b8 62 be 31 87 6d be
       0.25100777 -0.09052062 -0.22140694 -0.23196103
000020 16 17 d0 bd 7d e2 0c be 9a 13 68 3d 29 84 32 bd
       -0.10160653 -0.13758273 0.05665932 -0.04358307
000030 99 3e 24 3e 81 37 07 3e 6c 4c 76 3e c4 db 0a 3e
       0.16039504 0.13204767 0.2405259 0.13560396
000040 0d 58 0a 3e f7 54 51 3e 76 66 ad 3d f1 61 21 3d
       0.13510151 0.20442568 0.084668085 0.039400045
000050 4c ae 4a 3d df 25 aa 3d 00 92 69 bd 4d bf 2e be
       0.04948263 0.083080046 -0.057024002 -0.17065163
000060 bf a1 f3 3d 83 b9 03 be c8 85 84 be 6c 6c 3b be
       0.11896085 -0.12863736 -0.25883317 -0.18303078
000070 c0 4e e2 3b 7e 84 13 be 0a 45 dd bd 6c 1d 58 3e
       0.0069063604 -0.1440601 -0.10804184 0.21104974
000080 f3 8d 42 be
       -0.18999462

model.transforms.0.encoder.noise_dist.transforms.0.autoregressive_net.lstm.weight_ih_l0 f4 [256, 35]
000000 0f 63 b9 3d 85 b8 eb bd 93 b4 b7 bd 68 74 16 3e
       0.09052097 -0.11509804 -0.08969989 0.14692843
000010 18 71 fa bc 8e dd de bb bc a6 41 3d 19 cb 91 3d
       -0.030571505 -0.0068013137 0.04727815 0.07118816
000020 20 5e 8d bd d4 8a cf bd fb 99 7e 3c 8f ad f3 3d
       -0.069027185 -0.10133901 0.0155396415 0.11898338
000030 b5 ff 08 bd 35 24 01 3e 42 57 83 3a 0e c1 e8 3d
       -0.033446986 0.12611468 0.0010020512 0.11364947
000040 08 ec 71 3d 17 c3 09 3e 3e a6 c6 3d 2e 35 0d 3d
       0.059062988 0.13453327 0.09699677 0.034474544
000050 2b 5e 9f bc a7 48 98 bd ae 6d 97 3d a7 27 dd 3c
       -0.019454082 -0.07435732 0.073939666 0.026996447
000060 d4 e1 4f 3d d0 05 01 3c ff 1e f3 bd 3b 43 9f 3d
       0.050752476 0.007874921 -0.118711464 0.07776495
000070 52 f4 31 3d e6 2b 21 3e 9a 43 32 3d 99 2c 59 3d
       0.043445893 0.15739402 0.0435215 0.053021047
000080 2c 73 c2 3d 1e 19 24 3d 0c 06 e5 3d 5b d6 d2 bd
       0.094946235 0.040063016 0.11182794 -0.10294791
000090 04 36 76 3b c3 36 68 bd c2 60 ba 3c 76 9c 16 bb
       0.0037568817 -0.05669285 0.022751216 -0.0022981442
0000a0 a2 27 d0 bd 6a 65 13 3d 2b 7a fb bc ae 9f 02 be
       -0.10163809 0.035985388 -0.030697903 -0.12756225
0000b0 a3 7b 8a bc 79 a5 a4 bd aa 84 db bc 2d ed ee bd
       -0.016904658 -0.08039374 -0.026796658 -0.116663314
0000c0 da 60 a7 bd 23 ea 26 bc b5 3c e7 bd a7 a2 3e bd
       -0.0817277 -0.0101876585 -0.11290876 -0.046541836
0000d0 57 5c ff bb 62 ae ca bd 80 f8 4d bd 81 91 9e 3d
       -0.00779299 -0.09896542 -0.050285816 0.077425964
0000e0 ed 53 a5 3c 5d 13 aa bd a1 4d 70 3d 20 34 76 bd
       0.02018162 -0.083044745 0.058667783 -0.060108304
0000f0 80 d6 16 bb a0 c6 d3 3d a2 b1 70 bc 51 9b c9 3d
       -0.0023016036 0.10340619 -0.014690788 0.098440774
000100 34 ba db bd 66 30 ea bd 42 21 87 bd 6a 0a 8d 3d
       -0.10728875 -0.114350125 -0.0659814 0.06886752
000110 1a 54 d4 3d 04 f9 58 bd 55 c2 8e 3d 21 3c 60 3d
       0.103676036 -0.052971855 0.0697066 0.054744843
000120 b5 12 d4 bc 51 e3 09 3e 3b 2f 5d 3c ef 75 cb 3d
       -0.025887826 0.1346562 0.01350003 0.099346034
000130 3c e0 d6 bd 5d b8 21 bd ca 0b 8e 3c a6 d5 03 3e
       -0.10491988 -0.039482463 0.017339606 0.12874469
000140 5e 70 07 be 74 fc 83 3d 3a b3 ea bd 6c b7 8a 3d
       -0.13226458 0.06444636 -0.11459966 0.06773266
000150 a7 20 a1 bd 6a be 82 3c 37 d9 9c 3d 6c 9c c7 3d
       -0.07867556 0.015959937 0.07658618 0.09746632
000160 78 92 12 3d 16 53 4b bc ab 04 60 bd b0 53 da 3c
       0.035784215 -0.012409946 -0.05469195 0.026651233
000170 23 13 7e 3d 92 8b c2 bd c0 78 9c 3d 02 2c 04 bc
       0.06202997 -0.09499277 0.07640219 -0.008067133
000180 fd f8 a0 bd b2 d2 93 3d 53 18 c5 3c 7d e0 aa 3c
       -0.07859991 0.07217921 0.02405945 0.020858997
000190 f8 70 8a 3c de a6 80 bd 7a 7c 4a bc a7 10 c7 bc
       0.01689957 -0.062818274 -0.012358779 -0.024299933
0001a0 46 93 c2 bd bc be f7 3c d4 c6 10 bc 95 0d 81 3c
       -0.095007464 0.030242316 -0.008836467 0.015753547
0001b0 dc 2d 60 bd 83 3a bf bc 9a 6b 86 3d f9 32 ff bd
       -0.054731235 -0.02334333 0.06563492 -0.12460894
0001c0 db af c9 3d 19 df 31 bd 42 59 d0 3d 76 12 80 3d
       0.09847995 -0.043425653 0.101732746 0.06253521
0001d0 20 41 0a 3d 15 cc a1 3d 51 88 02 bd 00 b6 6f 3c
       0.033753514 0.07900254 -0.031868283 0.0146307945
0001e0 2a ad 5d 3d 9a 7a 18 3d d5 2f aa bc 2e aa e6 bd
       0.05412022 0.037226297 -0.020774761 -0.11262928
0001f0 2e 93 8c bd 95 17 64 3c 64 19 ba bd 3c 65 94 3d
       -0.0686401 0.013921638 -0.09086874 0.072458714
000200 bc 88 4b 3d b3 fd 84 3d 18 3d e1 bc c8 59 87 bd
       0.049690947 0.06493702 -0.027494952 -0.06608921
000210 88 c4 e5 bd 84 f8 11 3d cb b4 9f 3d b6 a7 6a 3c
       -0.11219126 0.035637394 0.077981554 0.014322212
000220 b8 6c 45 bd 0d cc 2e 3d aa fa 2f 3d d1 3c da 3d
       -0.048199385 0.042675067 0.04296366 0.10656131
000230 6b e5 01 bc b7 e3 09 be db f9 68 3c 51 c0 fe bc
       -0.007928233 -0.13465773 0.014219726 -0.031097563
000240 2a 2f 45 3d 99 c9 f7 bd 72 a2 82 bc bd 1d c5 bd
       0.048140682 -0.120989986 -0.0159466 -0.09624813
000250 45 e3 d8 bd d2 5a b8 3d c3 2f f3 3b a0 77 4f bc
       -0.10590223 0.090016976 0.007421465 -0.012662798
000260 2b d8 49 bd d5 0f 8a bc 25 1c 4d 3d f4 e8 91 bd
       -0.04927842 -0.016853252 0.05007567 -0.071245104
000270 27 9f bc 3d 94 08 74 3d 38 97 3a bd 05 40 0d 3d
       0.092100434 0.059578493 -0.04555437 0.034484882
000280 7c fb a9 bd df c4 89 bd dd 3b 88 3d ea 48 48 3d
       -0.0829992 -0.06727003 0.06652043 0.04889766
000290 b4 13 84 bd 67 46 dc bd ef 31 4d bd 14 de 61 bd
       -0.064490706 -0.10755616 -0.05009645 -0.05514343
0002a0 ba c9 22 3d 2d 35 08 bc 58 80 ee bd a7 d6 44 bd
       0.039743163 -0.008313459 -0.116455734 -0.04805627
0002b0 21 25 a7 3d 56 df 56 bd 87 46 ad bb b9 b5 0c 3e
       0.08161379 -0.052459083 -0.0052879485 0.13741197
0002c0 d4 96 51 bd bc 5f 94 bd ff 4e 8d bc 57 6a 17 3e
       -0.05116923 -0.072448224 -0.017249582 0.14786659
0002d0 c0 23 8d bd 72 d9 9e 3d e7 01 0b 3e 17 f1 48 bb
       -0.068915844 0.07756318 0.13574944 -0.003066128
0002e0 ef 54 01 bd 62 f3 e3 bd 5e 4c c5 3d 3f 4e 90 3d
       -0.03157514 -0.11130406 0.096337065 0.07046174
0002f0 c6 9b 57 3c 09 e7 83 bc 42 bc 9f bd 68 8f bf bd
       0.013159698 -0.016101377 -0.07799579 -0.093535244
000300 92 47 5c bd 58 6f cf 3d cc 70 bd bc 60 30 24 3d
       -0.053779192 0.10128659 -0.023125075 0.040085196
000310 c0 6f fe 3d 1f 1f e5 3c 2e f0 8e 3c 46 bc c8 bd
       0.12423658 0.027968941 0.017448511 -0.09801535
000320 a2 fb d6 3d d1 19 1e be 2d be 30 bc 05 f4 89 bd
       0.10497214 -0.15439536 -0.010787529 -0.06735996
000330 d7 5e cf bd ca 8d d7 3b d9 35 45 bc 7b 7f 47 be
       -0.10125511 0.006578182 -0.012036764 -0.19482224
000340 33 4f 19 be 6c 2f 80 bd 2c b9 03 bd 3e b5 0e 3e
       -0.14971618 -0.06259045 -0.032159016 0.13936326
000350 63 e4 d4 3c ea bf 9d 3d c1 94 19 3e 07 7a d3 bd
       0.02598781 0.0770262 0.14998151 -0.10326009
000360 41 af e2 3c 47 20 03 bc c9 42 f9 bd ce c3 09 bd
       0.027671458 -0.008003301 -0.121709414 -0.033634
000370 1c 3c 02 be 41 11 dd 3d a2 61 84 3d 5b 67 99 3d
       -0.12718242 0.107943065 0.064639345 0.074904166
000380 2f 72 d0 bc 65 4a ac 3d 10 c0 7f 3d 74 59 0c be
       -0.025445072 0.08412627 0.062439024 -0.13705999
000390 7a 35 1c bd 8a df 9f bd df f8 51 bd 07 de 97 bd
       -0.038136937 -0.078063086 -0.051262733 -0.07415395
0003a0 ac 05 0e 3e 59 c1 d9 3b e1 2f ea bd f0 0a ae bd
       0.13869351 0.0066453633 -0.114349134 -0.0849818
0003b0 db 54 2c be 96 0c 16 bd 26 a5 29 bb 24 2e a1 bd
       -0.16829245 -0.036633097 -0.002588579 -0.07870129
0003c0 db b2 e9 bd 24 ae ea 3c 2e b4 cb bd af 59 e6 bd
       -0.11411067 0.02864749 -0.09946476 -0.112475745
0003d0 1c 5f 54 bc 53 c6 02 3c 98 50 02 bd 12 8c c5 3b
       -0.012962129 0.0079818545 -0.03181514 0.0060286606
0003e0 aa 09 ca bd 6a ea e4 3c ef 5d c3 3d f4 8b 5a 3d
       -0.098651245 0.027943809 0.09539401 0.053356126
0003f0 6b 34 bd 3d e0 3d db 3d 66 4d 9e bd 8c 6d ab bd
       0.092385136 0.10705161 -0.07729606 -0.08370504
