checkpoints/pair_1/S_6_K_6/CDM/15_05_2023__16_00/cktp/checkpoint_0003000.tar (torch, 625371 bytes, 43 tensors)

cdm.log_alpha f4 [100]
-0.00031574047 -0.0005587806 -0.0008020926 -0.0010457953 -0.0012900082 -0.0015348522 -0.001780449 -0.0020269218
-0.0022743961 -0.002522999 -0.0027728593 -0.0030241096 -0.003276884 -0.003531321 -0.0037875616 -0.0040457505
-0.0043060374 -0.0045685763 -0.004833525 -0.005101048 -0.005371314 -0.0056445003 -0.005920788 -0.006200367
-0.0064834356 -0.006770199 -0.0070608724 -0.0073556798 -0.0076548574 -0.0079586515 -0.00826732 -0.008581135
-0.008900384 -0.0092253685 -0.009556404 -0.00989383 -0.010238 -0.010589291 -0.010948103 -0.011314859
-0.011690011 -0.012074039 -0.012467455 -0.012870807 -0.013284679 -0.013709696 -0.014146531 -0.014595904
-0.015058593 -0.015535431 -0.016027322 -0.01653524 -0.017060239 -0.017603466 -0.018166164 -0.01874969
-0.019355519 -0.019985266 -0.020640705 -0.021323776 -0.022036618 -0.022781594 -0.02356131 -0.024378665
-0.025236877 -0.026139537 -0.027090665 -0.028094776 -0.029156953 -0.030282948 -0.031479288 -0.03275342
-0.03411387 -0.03557045 -0.03713451 -0.038819257 -0.040640138 -0.042615358 -0.044766497 -0.047119357
-0.04970503 -0.052561343 -0.055734772 -0.059283078 -0.06327894 -0.06781513 -0.07301196 -0.07902831
-0.08607849 -0.09445872 -0.10459039 -0.11709418 -0.13292374 -0.15362416 -0.18187614 -0.22277917
-0.2873987 -0.4052627 -0.69302577 -3.4538777
00000000: f889 a5b9 227b 12ba 8643 52ba 1113 89ba
00000010: 7e15 a9ba 182d c9ba f45d e9ba 1bd6 04bb
00000020: 090e 15bb e658 25bb dcb8 35bb 2430 46bb
00000030: fec0 56bb bc6d 67bb bd38 78bb 3792 84bb
00000040: a919 8dbb ffb3 95bb 8c62 9ebb b126 a7bb
00000050: d901 b0bb 80f5 b8bb 2b03 c2bb 732c cbbb
00000060: 0073 d4bb 8cd8 ddbb e45e e7bb ea07 f1bb
00000070: 99d5 fabb 0165 02bc a773 07bc e497 0cbc
00000080: ebd2 11bc 0026 17bc 7792 1cbc bb19 22bc
00000090: 49bd 27bc b57e 2dbc ac5f 33bc f561 39bc
000000a0: 7687 3fbc 31d2 45bc 4c44 4cbc 14e0 52bc
000000b0: fba7 59bc a29e 60bc dac6 67bc a923 6fbc
000000c0: 51b8 76bc 5288 7ebc bb4b 83bc e974 87bc
000000d0: eac1 8bbc 2535 90bc 35d1 94bc f398 99bc
000000e0: 778f 9ebc 24b8 a3bc b216 a9bc 33af aebc
000000f0: 2386 b4bc 77a0 babc a603 c1bc c4b5 c7bc
00000100: 91bd cebc 9522 d6bc 3eed ddbc 0427 e6bc
00000110: 90da eebc f213 f8bc 6df0 00bd 7328 06bd
00000120: fcba 0bbd 52b2 11bd 5b1a 18bd f100 1fbd
00000130: 4676 26bd 718d 2ebd 135d 37bd 3a00 41bd
00000140: 8097 4bbd 904a 57bd 254a 64bd d0d2 72bd
00000150: 6498 81bd a9e2 8abd 4b87 95bd 98d9 a1bd
00000160: eb49 b0bd 9373 c1bd 7d33 d6bd 13cf efbd
00000170: 291d 08be a74f 1dbe bd3d 3abe 3920 64be
00000180: ec25 93be 987e cfbe 236a 31bf 550c 5dc0

cdm.log_1_min_alpha f4 [100]
-8.060748 -7.490033 -7.1286874 -6.8635006 -6.653752 -6.4800887 -6.33178 -6.20225
-6.0871778 -5.983568 -5.889262 -5.8026505 -5.7225003 -5.6478486 -5.577926 -5.51211
-5.449889 -5.390837 -5.334595 -5.2808585 -5.2293673 -5.1798944 -5.1322446 -5.0862455
-5.0417447 -4.998608 -4.956715 -4.915958 -4.87624 -4.8374724 -4.799576 -4.7624764
-4.7261076 -4.6904073 -4.6553183 -4.6207867 -4.586764 -4.553202 -4.520058 -4.4872904
-4.4548597 -4.4227285 -4.390861 -4.359222 -4.327779 -4.296499 -4.265351 -4.2343035
-4.203326 -4.1723895 -4.1414633 -4.1105175 -4.0795226 -4.048448 -4.017264 -3.9859383
-3.9544399 -3.922736 -3.8907928 -3.8585756 -3.826048 -3.7931716 -3.7599068 -3.7262115
-3.692041 -3.6573477 -3.6220808 -3.5861862 -3.549605 -3.5122738 -3.4741237 -3.4350798
-3.3950596 -3.3539727 -3.3117182 -3.2681856 -3.2232504 -3.1767726 -3.128595 -3.0785387
-3.0263987 -2.9719398 -2.914889 -2.8549266 -2.7916753 -2.724686 -2.653416 -2.577203
-2.4952261 -2.40645 -2.309543 -2.2027526 -2.0837054 -1.9490751 -1.7939895 -1.6108967
-1.3871449 -1.0990171 -0.6932686 -0.032133576
00000000: d3f8 00c1 5aae efc0 351e e4c0 cca1 dbc0
00000010: 89eb d4c0 e35c cfc0 f19d cac0 d578 c6c0
00000020: 29ca c2c0 6479 bfc0 d674 bcc0 50af b9c0
00000030: b91e b7c0 2dbb b4c0 5f7e b2c0 3563 b0c0
00000040: 7e65 aec0 bd81 acc0 01b5 aac0 cbfc a8c0
00000050: fa56 a7c0 b2c1 a5c0 593b a4c0 86c2 a2c0
00000060: f955 a1c0 99f4 9fc0 699d 9ec0 874f 9dc0
00000070: 280a 9cc0 93cc 9ac0 2096 99c0 3566 98c0
00000080: 463c 97c0 d117 96c0 5ef8 94c0 7cdd 93c0
00000090: c5c6 92c0 d5b3 91c0 51a4 90c0 e297 8fc0
000000a0: 368e 8ec0 fe86 8dc0 ef81 8cc0 bf7e 8bc0
000000b0: 2a7d 8ac0 eb7c 89c0 c17d 88c0 6a7f 87c0
000000c0: a681 86c0 3784 85c0 de86 84c0 5c89 83c0
000000d0: 738b 82c0 e38c 81c0 6d8d 80c0 9d19 7fc0
000000e0: 8b15 7dc0 1b0e 7bc0 c002 79c0 e7f2 76c0
000000f0: f8dd 74c0 53c3 72c0 50a2 70c0 407a 6ec0
00000100: 664a 6cc0 fc11 6ac0 2cd0 67c0 1384 65c0
00000110: ba2c 63c0 18c9 60c0 0b58 5ec0 59d8 5bc0
00000120: a848 59c0 7da7 56c0 31f3 53c0 f429 51c0
00000130: bc49 4ec0 3e50 4bc0 e73a 48c0 c706 45c0
00000140: 84b0 41c0 4334 3ec0 8b8d 3ac0 1eb7 36c0
00000150: cfaa 32c0 4161 2ec0 91d1 29c0 e5f0 24c0
00000160: c9b1 1fc0 4703 1ac0 8dcf 13c0 e6f9 0cc0
00000170: 6e5b 05c0 4b7b f9bf 73a1 e5bf dd31 cebf
00000180: f78d b1bf 98ac 8cbf 0d7a 31bf 7f9e 03bd

cdm.log_cumprod_alpha f4 [100]
-0.00031574047 -0.0008745211 -0.0016766137 -0.0027224089 -0.004012417 -0.0055472692 -0.007327718 -0.00935464
-0.011629037 -0.014152035 -0.016924895 -0.019949004 -0.023225889 -0.026757209 -0.03054477 -0.03459052
-0.03889656 -0.043465134 -0.04829866 -0.053399708 -0.05877102 -0.06441552 -0.07033631 -0.07653668
-0.08302011 -0.089790314 -0.096851185 -0.10420687 -0.11186172 -0.11982037 -0.1280877 -0.13666883
-0.14556922 -0.15479459 -0.16435099 -0.17424482 -0.18448281 -0.19507211 -0.2060202 -0.21733508
-0.22902508 -0.24109912 -0.25356656 -0.26643738 -0.27972206 -0.29343176 -0.3075783 -0.3221742
-0.3372328 -0.3527682 -0.36879554 -0.38533077 -0.40239102 -0.41999447 -0.43816066 -0.45691034
-0.47626585 -0.4962511 -0.51689184 -0.5382156 -0.5602522 -0.5830338 -0.6065951 -0.6309738
-0.65621066 -0.6823502 -0.7094409 -0.73753566 -0.7666926 -0.79697555 -0.82845485 -0.86120826
-0.89532214 -0.9308926 -0.96802706 -1.0068463 -1.0474864 -1.0901018 -1.1348684 -1.1819876
-1.2316927 -1.2842541 -1.3399888 -1.399272 -1.4625509 -1.530366 -1.6033779 -1.6824062
-1.7684847 -1.8629434 -1.9675338 -2.084628 -2.2175517 -2.371176 -2.553052 -2.7758312
-3.06323 -3.4684927 -4.1615186 -7.615396
00000000: f889 a5b9 1e40 65ba d2c1 dbba 716a 32bb
00000010: 987a 83bb dec5 b5bb 5b1d f0bb 3444 19bc
00000020: b787 3ebc f0dd 67bc 14a6 8abc 186c a3bc
00000030: 3844 bebc ef31 dbbc 0739 fabc caae 0dbd
00000040: 0052 1fbd 7f08 32bd d1d4 45bd a7b9 5abd
00000050: e2b9 70bd 49ec 83bd 7c0c 90bd 43bf 9cbd
00000060: 7306 aabd fce3 b7bd ea59 c6bd 696a d5bd
00000070: c217 e5bd 6264 f5bd 6c29 03be eaf2 0bbe
00000080: 1910 15be 7982 1ebe a04b 28be 3c6d 32be
00000090: 10e9 3cbe fcc0 47be f6f6 52be 168d 5ebe
000000a0: 8d85 6abe b0e2 76be 7ad3 81be 7b6a 88be
000000b0: bb37 8fbe b03c 96be e77a 9dbe 04f4 a4be
000000c0: c7a9 acbe 099e b4be c5d2 bcbe 134a c5be
000000d0: 3206 cebe 8409 d7be 9856 e0be 27f0 e9be
000000e0: 1ed9 f3be a014 febe 0653 04bf 7fc8 09bf
000000f0: b06c 0fbf b441 15bf d149 1bbf 8087 21bf
00000100: 6cfd 27bf 81ae 2ebf eb9d 35bf 23cf 3cbf
00000110: f745 44bf 9706 4cbf 9e15 54bf 2578 5cbf
00000120: d533 65bf fa4e 6ebf 9fd0 77bf 57e0 80bf
00000130: 0914 86bf 7588 8bbf 5e43 91bf 5f4b 97bf
00000140: 1ba8 9dbf 7062 a4bf c184 abbf 581b b3bf
00000150: de34 bbbf 08e3 c3bf 7d3b cdbf 1659 d7bf
00000160: b55d e2bf ee74 eebf 26d8 fbbf 8c6a 05c0
00000170: 5eec 0dc0 59c1 17c0 3465 23c0 38a7 31c0
00000180: f60b 44c0 c9fb 5dc0 292b 85c0 53b1 f3c0

cdm.log_1_min_cumprod_alpha f4 [100]
-8.060748 -7.042271 -6.3918176 -5.907599 -5.520367 -5.1972218 -4.9197526 -4.6765566
-4.460059 -4.2649646 -4.08742 -3.924534 -3.7740781 -3.6343 -3.5037954 -3.381421
-3.2662346 -3.15745 -3.0544035 -2.956531 -2.863348 -2.7744355 -2.689429 -2.6080096
-2.5298953 -2.4548376 -2.3826144 -2.3130283 -2.2459013 -2.1810737 -2.1184006 -2.057751
-1.9990054 -1.9420555 -1.8868012 -1.8331517 -1.7810227 -1.730337 -1.6810232 -1.6330153
-1.5862517 -1.5406759 -1.4962345 -1.4528786 -1.4105618 -1.369241 -1.328876 -1.289429
-1.2508641 -1.2131484 -1.17625 -1.1401396 -1.104789 -1.070172 -1.0362633 -1.0030397
-0.9704786 -0.9385587 -0.9072599 -0.876563 -0.8464499 -0.81690323 -0.78790647 -0.7594439
-0.7315005 -0.704062 -0.6771147 -0.6506456 -0.62464213 -0.5990923 -0.5739848 -0.54930854
-0.525053 -0.5012082 -0.47776434 -0.4547122 -0.43204284 -0.40974766 -0.3878184 -0.36624715
-0.34502622 -0.32414833 -0.3036063 -0.28339338 -0.26350293 -0.24392861 -0.2246643 -0.20570408
-0.18704222 -0.16867323 -0.15059176 -0.13279265 -0.11527094 -0.098021805 -0.08104057 -0.064322725
-0.04786391 -0.031659897 -0.015706582 -0.0004929269
00000000: d3f8 00c1 495a e1c0 c589 ccc0 0d0b bdc0
00000010: d9a6 b0c0 a44f a6c0 9d6e 9dc0 5aa6 95c0
00000020: ceb8 8ec0 977a 88c0 25cc 82c0 912b 7bc0
00000030: 7f8a 71c0 5f98 68c0 2f3e 60c0 3469 58c0
00000040: fd09 51c0 a913 4ac0 597b 43c0 ce37 3dc0
00000050: 1841 37c0 5a90 31c0 9b1f 2cc0 a1e9 26c0
00000060: cee9 21c0 0f1c 1dc0 c17c 18c0 a808 14c0
00000070: d9bc 0fc0 b696 0bc0 e093 07c0 31b2 03c0
00000080: 69df ffbf 4695 f8bf b482 f1bf b7a4 eabf
00000090: 8df8 e3bf af7b ddbf c52b d7bf a506 d1bf
000000a0: 4c0a cbbf de34 c5bf 9d84 bfbf edf7 b9bf
000000b0: 4a8d b4bf 4a43 afbf 9c18 aabf 020c a5bf
000000c0: 511c a0bf 7248 9bbf 5c8f 96bf 18f0 91bf
000000d0: ba69 8dbf 65fb 88bf 47a4 84bf 9b63 80bf
000000e0: 4971 78bf 6245 70bf 2f42 68bf 6f66 60bf
000000f0: f1b0 58bf 9220 51bf 3db4 49bf ea6a 42bf
00000100: 9e43 3bbf 683d 34bf 6457 2dbf b690 26bf
00000110: 8ce8 1fbf 1d5e 19bf abf0 12bf 7c9f 0cbf
00000120: e069 06bf 2e4f 00bf 879d f4be 0ad0 e8be
00000130: b834 ddbe 72ca d1be 2290 c6be bf84 bbbe
00000140: 47a7 b0be c5f6 a5be 4972 9bbe f018 91be
00000150: dbe9 86be 6cc8 79be 660e 66be 17a4 52be
00000160: ff87 3fbe adb8 2cbe ba34 1abe ccfa 07be
00000170: 2c13 ecbd a8bf c8bd 99f8 a5bd a2bb 83bd
00000180: f30c 44bd cfad 01bd 17ab 80bc c437 01ba

cdm.Lt_history f4 [100]
2.484071e-07 7.338079e-07 1.0778562e-06 1.8061489e-06 3.929258e-06 5.136268e-05 0.06564247 0.030733583
0.0018045288 0.000110943925 0.0029857322 0.063173234 0.0063638864 0.02314932 0.0032524862 0.006857738
0.0010704004 0.012459228 0.0091423495 0.023283735 0.01710238 0.0065741143 0.010186775 0.009940511
0.003264286 0.0050129415 0.008221223 0.008108752 0.018461758 0.029632237 0.024040878 0.012834245
0.008368661 0.009528834 0.02031164 0.012499062 0.016032053 0.014039131 0.0154359825 0.017855728
0.021379422 0.014547916 0.010597961 0.023676163 0.07486172 0.01306826 0.039106213 0.0074757054
0.018081017 0.016961468 0.013079106 0.01044215 0.015154834 0.01956585 0.009856125 0.019967383
0.019463077 0.025563253 0.016588178 0.015033183 0.020346869 0.010896312 0.011127873 0.015415457
0.014063934 0.010434683 0.0155983 0.013121806 0.012957796 0.012701217 0.01628024 0.0105002
0.011391474 0.012546743 0.011051179 0.011102913 0.009407705 0.009121063 0.0076838434 0.00845665
0.008709124 0.007248404 0.0072217463 0.0077184346 0.0060721342 0.005647769 0.0047300984 0.0046563186
0.0040085088 0.0032856842 0.0035560494 0.0024544448 0.0022680454 0.001764228 0.0012210202 0.00090167846
0.00056342466 0.00031564725 0.00013571374 1.2907113e-05
00000000: d05c 8534 e5fa 4435 dbaa 9035 ce6a f235
00000010: 12d8 8336 426e 5738 8f6f 863d ffc4 fb3c
00000020: f085 ec3a 91aa e838 46ac 433b f860 813d
00000030: 2688 d03b a5a3 bd3c aa27 553b e0b6 e03b
00000040: ad4c 8c3a ca21 4c3c cbc9 153c 88bd be3c
00000050: 4a1a 8c3c ab6b d73b 6ee6 263c 86dd 223c
00000060: a2ed 553b 9a43 a43b 4fb2 063c 92da 043c
00000070: 1d3d 973c 4ebf f23c 60f1 c43c ba46 523c
00000080: b51c 093c d41e 1c3c 9964 a63c dec8 4c3c
00000090: a755 833c 6204 663c 34e7 7c3c 2d46 923c
000000a0: e623 af3c 625a 6e3c 12a3 2d3c 83f4 c13c
000000b0: 1a51 993d 411c 563c d62d 203d c3f6 f43b
000000c0: a41e 943c c7f2 8a3c bf49 563c 8d15 2b3c
000000d0: fb4b 783c 9048 a03c 967b 213c a392 a33c
000000e0: 0871 9f3c 076a d13c eee3 873c bd4d 763c
000000f0: 7aae a63c 7286 323c af51 363c 1d91 7c3c
00000100: 6a6c 663c 3cf6 2a3c 0390 7f3c d8fc 563c
00000110: f04c 543c c418 503c 235e 853c 0809 2c3c
00000120: 4ea3 3a3c db90 4d3c 0110 353c fee8 353c
00000130: c622 1a3c 8370 153c c0c8 fb3b c38d 0a3c
00000140: b7b0 0e3c 0584 ed3b 66a4 ec3b ecea fc3b
00000150: c1f8 c63b ec10 b93b f1fe 9a3b 0894 983b
00000160: cf59 833b a254 573b 9c0c 693b c0da 203b
00000170: 7da3 143b ab3d e73a a40a a03a 9e5e 6c3a
00000180: cab2 133a 757d a539 614e 0e39 a18b 5837

cdm.Lt_count f4 [100]
7831.0 7785.0 5415.0 5867.0 16712.0 23594.0 27594.0 31384.0
29070.0 34404.0 33574.0 37747.0 35999.0 33169.0 35601.0 40731.0
37216.0 35222.0 35665.0 37056.0 35814.0 37726.0 37386.0 36977.0
36612.0 37257.0 36743.0 36063.0 36896.0 37596.0 37604.0 37642.0
37043.0 36681.0 38843.0 38491.0 37875.0 38612.0 36265.0 38674.0
36817.0 38654.0 38165.0 38539.0 37596.0 37324.0 37008.0 37420.0
37875.0 38486.0 37567.0 37193.0 37034.0 37269.0 37109.0 37185.0
36846.0 37402.0 36601.0 37117.0 36082.0 36714.0 36127.0 36208.0
35180.0 34472.0 34522.0 34349.0 33283.0 32886.0 32186.0 31836.0
31553.0 30778.0 30721.0 29559.0 28719.0 28347.0 27740.0 26727.0
25916.0 25018.0 24231.0 23213.0 22103.0 21227.0 20156.0 18856.0
18047.0 16738.0 15763.0 14209.0 12867.0 11451.0 10197.0 8543.0
6642.0 4962.0 3117.0 1112.0
00000000: 00b8 f445 0048 f345 0038 a945 0058 b745
00000010: 0090 8246 0054 b846 0094 d746 0030 f546
00000020: 001c e346 0064 0647 0026 0347 0073 1347
00000030: 009f 0c47 0091 0147 0011 0b47 001b 1f47
00000040: 0060 1147 0096 0947 0051 0b47 00c0 1047
00000050: 00e6 0b47 005e 1347 000a 1247 0071 1047
00000060: 0004 0f47 0089 1147 0087 0f47 00df 0c47
00000070: 0020 1047 00dc 1247 00e4 1247 000a 1347
00000080: 00b3 1047 0049 0f47 00bb 1747 005b 1647
00000090: 00f3 1347 00d4 1647 00a9 0d47 0012 1747
000000a0: 00d1 0f47 00fe 1647 0015 1547 008b 1647
000000b0: 00dc 1247 00cc 1147 0090 1047 002c 1247
000000c0: 00f3 1347 0056 1647 00bf 1247 0049 1147
000000d0: 00aa 1047 0095 1147 00f5 1047 0041 1147
000000e0: 00ee 0f47 001a 1247 00f9 0e47 00fd 1047
000000f0: 00f2 0c47 006a 0f47 001f 0d47 0070 0d47
00000100: 006c 0947 00a8 0647 00da 0647 002d 0647
00000110: 0003 0247 0076 0047 0074 fb46 00b8 f846
00000120: 0082 f646 0074 f046 0002 f046 00ee e646
00000130: 005e e046 0076 dd46 00b8 d846 00ce d046
00000140: 0078 ca46 0074 c346 004e bd46 005a b546
00000150: 00ae ac46 00d6 a546 0078 9d46 0050 9346
00000160: 00fe 8c46 00c4 8246 004c 7646 0004 5e46
00000170: 000c 4946 00ec 3246 0054 1f46 007c 0546
00000180: 0090 cf45 0010 9b45 00d0 4245 0000 8b44

cdm._denoise_fn.transformer.first.weight f4 [6, 64]
-1.1357405 0.9106392 -1.2814429 -1.0716025 -1.1277419 1.2871933 -1.1491007 -0.14401682
-0.8959063 0.3277276 -0.5426269 -0.22028024 0.92112863 -0.7377785 -0.1957535 -0.46927863
-1.5112158 -0.4250208 -0.82477534 0.51990235 0.027510155 -0.024784213 1.0558604 0.8169032
0.48733237 -0.49602097 0.18053062 2.7061 0.2103559 1.1204145 0.25646764 1.7478359
-0.7155313 1.8423082 -0.30777854 -0.25665554 -1.2436457 0.057930604 -0.23907243 -0.7566299
1.1346529 0.39188966 -1.1264673 -0.80545807 -0.8183889 -0.8838012 -1.006084 -0.1517833
-0.94331294 0.26574507 -1.6203302 1.7677624 0.055516127 1.6107107 -0.63886476 1.1710105
0.7609839 -1.1480043 -0.59419525 -0.5160245 -1.9984514 0.75282884 -0.78621495 -0.15613222
1.1254487 -0.6285469 -1.5163295 -0.2761374 -0.91050416 1.5916685 -0.14003676 0.99312764
2.0705898 -1.0090544 0.14168306 -0.13547826 -0.3003102 0.3728616 0.18841577 2.1424708
0.92250377 0.016591523 -0.05818603 0.77616304 0.60527354 -0.7885047 0.3681433 0.17332482
2.0704045 1.1010817 -0.030462647 1.1739738 -1.3921443 -0.23100471 -0.9666103 -1.5756052
0.0552246 -0.36429164 0.2899484 0.6500515 0.7648111 -1.0146722 0.19510238 1.0078329
-0.4959726 -0.4476429 -0.43603 -0.54458934 -0.05553375 -0.51117194 -0.010554217 1.216104
0.44674674 -0.120101966 0.5912857 0.80997473 0.55418986 1.5189143 -0.50549334 0.8690945
-0.6527449 -1.1462356 0.24652292 -0.66661257 -0.91501707 1.889004 1.0136654 -1.4171557
-0.04028559 0.27173433 0.5687303 -1.3531743 0.804865 -0.25970316 0.67519754 -0.17724325
-0.100943156 0.072952926 0.018398713 0.35326555 0.102220446 0.17440972 -1.3624427 -1.6754081
1.0476515 -1.9053273 -0.15030408 1.7672577 2.1810102 -0.5984307 1.3010457 -0.39140886
0.5191271 0.040365197 0.19821234 0.86776555 2.4928055 -0.038470596 -0.25723332 -0.9616701
-0.008920389 1.4865417 0.21036007 -0.061675683 0.5007378 -1.5871127 0.6857349 -1.0991861
0.5312223 1.0459435 1.2439883 -0.08755074 -0.99180144 1.0373312 0.24358648 0.037687626
0.31633958 0.31823078 -0.89476913 -0.6285671 0.6769857 -0.16759071 -0.6203411 1.2504901
0.13366212 1.1958641 1.7554373 -1.4759283 -0.17927264 -1.0363438 -1.4112973 0.6425621
0.97665155 0.581523 -0.1317528 0.672665 -1.3666146 0.2329901 -0.55466706 -1.1562063
1.5945648 1.3938087 0.89484376 0.34145826 0.527597 -0.65149426 -1.4431239 1.7176732
-1.0025946 -0.46397197 -0.32300234 0.95228356 -1.1713372 0.3920633 0.5274576 0.919572
-0.4738676 0.61217695 -0.3207967 -0.35927644 -0.26445752 0.67989415 -0.14431915 -1.1163677
-0.7583457 -0.80416685 0.013647276 -2.32021 -1.0647587 -0.34649938 0.018354055 -0.010806318
-0.8315822 0.12929608 0.7527296 0.20925984 1.3015178 0.7037131 1.1637541 1.3753757
-0.2203422 0.6220626 0.19225122 -0.21451892 -1.5975162 1.4410406 1.3494707 0.2950059
0.8097352 1.3974837 0.37817907 0.007612028 -1.5626473 0.25210565 1.1828604 -1.5629718
00000000: f25f 91bf a71f 693f 5206 a4bf 452a 89bf
00000010: d959 90bf c0c2 a43f bb15 93bf 2579 13be
00000020: 1e5a 65bf e9cb a73e 99e9 0abf 2591 61be
00000030: 16cf 6b3f 0ddf 3cbf 9b73 48be 4a45 f0be
00000040: 856f c1bf 549c d9be 7a24 53bf 5218 053f
00000050: fa5c e13c 4308 cbbc 6f26 873f 9120 513f
00000060: a183 f93e 76f6 fdbe 05dd 383e be30 2d40
00000070: 8967 573e be69 8f3f ba4f 833e 16b9 df3f
00000080: 0f2d 37bf c1d0 eb3f 2695 9dbe 5b68 83be
00000090: c82f 9fbf a448 6d3d 67cf 74be 7fb2 41bf
000000a0: 4e3c 913f c3a5 c83e 1530 90bf 8032 4ebf
000000b0: ef81 51bf cc40 62bf 5cc7 80bf 156d 1bbe
000000c0: f57c 71bf bd0f 883e fb66 cfbf 0a46 e23f
000000d0: e164 633d c52b ce3f a48c 23bf ace3 953f
000000e0: d7cf 423f cef1 92bf 2e1d 18bf 2e1a 04bf
000000f0: 41cd ffbf 64b9 403f 6245 49bf 20e1 1fbe
00000100: b40e 903f 73e8 20bf 1617 c2bf e261 8dbe
00000110: cd16 69bf cbbb cb3f cc65 0fbe 9d3d 7e3f
00000120: 8b84 0440 b228 81bf 5d15 113e d0ba 0abe
00000130: 42c2 99be b7e7 be3e 10f0 403e 3e1e 0940
00000140: 3529 6c3f f2ea 873c 7954 6ebd 9fb2 463f
00000150: 35f3 1a3f 72db 49bf 477d bc3e 107c 313e
00000160: 8281 0440 3ff0 8c3f cd8c f9bc c644 963f
00000170: c931 b2bf 808c 6cbe c673 77bf 6ead c9bf
00000180: 3133 623d 6f84 babe 1e74 943e c669 263f
00000190: a9ca 433f c7e0 81bf ebc8 473e ab00 813f
000001a0: 1ff0 fdbe 7331 e5be 533f dfbe 356a 0bbf
000001b0: 5c77 63bd 2adc 02bf 98eb 2cbc 4ca9 9b3f
000001c0: fdbb e43e 05f8 f5bd 805e 173f 815a 4f3f
000001d0: 63df 0d3f c96b c23f 0368 01bf fa7c 5e3f
000001e0: 4a1a 27bf d9b7 92bf 8170 7c3e 1fa7 2abf
000001f0: 8f3e 6abf e2ca f13f cabf 813f 5c65 b5bf
00000200: 8102 25bd c320 8b3e 4f98 113f d134 adbf
00000210: a20b 4e3f d0f7 84be bfd9 2c3f 417f 35be
00000220: 49bb cebd 5868 953d e6b8 963c 39df b43e
00000230: f458 d13d 7698 323e 8664 aebf c673 d6bf
00000240: 7219 863f c4e1 f3bf 50e9 19be 8035 e23f
00000250: ac95 0b40 c132 19bf aa88 a63f be66 c8be
00000260: 83e5 043f fa55 253d 2df8 4a3e e225 5e3f
00000270: 208a 1f40 5893 1dbd 16b4 83be 0330 76bf
00000280: d326 12bc 0047 be3f a168 573e a49f 7cbd
00000290: 5a30 003f 8226 cbbf 538c 2f3f 21b2 8cbf
000002a0: 2ffe 073f 7ae1 853f 023b 9f3f cd4d b3bd
000002b0: b3e6 7dbf 45c7 843f bc6e 793e 575e 1a3d
000002c0: 43f7 a13e 25ef a23e 970f 65bf c6e9 20bf
000002d0: ef4e 2d3f e69c 2bbe adce 1ebf 0f10 a03f
000002e0: b9de 083e 1312 993f 2bb2 e03f 38eb bcbf
000002f0: 3f93 37be eaa6 84bf 64a5 b4bf f37e 243f
00000300: d605 7a3f b1de 143f 35ea 06be c633 2c3f
00000310: 3aed aebf f594 6e3e a9fe 0dbf 91fe 93bf
00000320: b31a cc3f 5368 b23f 7b14 653f 9ed3 ae3e
00000330: 9910 073f 54c8 26bf 49b8 b8bf b7dc db3f
00000340: 0555 80bf bc8d edbe 9060 a5be dbc8 733f
00000350: 61ee 95bf 85bc c83e 7607 073f 1269 6b3f
00000360: c69e f2be a1b7 1c3f 773f a4be 15f3 b7be
00000370: fa66 87be 8b0d 2e3f 66c8 13be 23e5 8ebf
00000380: f222 42bf e1dd 4dbf d398 5f3c 527e 14c0
00000390: 034a 88bf 5e68 b1be 3e5b 963c fc0c 31bc
000003a0: 92e2 54bf 3166 043e e3b2 403f 3648 563e
000003b0: 2398 a63f 8b26 343f e5f5 943f 500c b03f
000003c0: 63a1 61be 7f3f 1f3f 81dd 443e d9aa 5bbe
000003d0: 697b ccbf 0574 b83f 75bb ac3f 030b 973e
000003e0: ce4a 4f3f bfe0 b23f b0a0 c13e 526e f93b
000003f0: d404 c8bf fe13 813e f867 973f 760f c8bf

cdm._denoise_fn.transformer.mlp.0.weight f4 [256, 64]
-0.018817175 0.010246301 0.031148214 -0.08923987 0.022773525 -0.009159798 -0.04533402 0.060257427
-0.07526446 0.034435406 0.12179692 -0.075681515 0.041594997 0.15025704 0.048010945 0.074696355
-0.028556949 0.026360877 -0.05594786 0.11596561 -0.17113216 0.08647569 -0.17293327 -0.21037641
0.07061234 0.01597095 -0.05798134 -0.09545231 0.002717378 0.003643488 0.023110421 -0.0028825356
0.04812804 0.055850167 -0.082704745 -0.047665216 0.09471181 -0.105314255 0.05889323 -0.029273828
0.0041985535 -0.041458882 0.06417874 -0.018152986 -0.025740413 0.110428676 -0.13913539 0.06611808
0.11076796 0.024542917 0.02207927 0.09285572 -0.04797018 -0.107963175 -0.0824413 -0.21177578
-0.21354464 -0.15993705 -0.05152904 0.0019370365 -0.16868524 0.014188315 -0.0019392902 -0.0021632027
-0.06553954 -0.07989522 -0.020183777 0.044347595 -0.00038859388 -0.06511159 0.0010684751 0.020465253
-0.0066809976 0.0027475047 -0.06400155 0.112238206 0.0015596601 0.033718064 -0.098954685 -0.016795684
0.05938065 -0.09006117 -0.040881608 -0.05802789 -0.17470112 -0.04939176 -0.21460484 -0.08002817
0.009798694 -0.14306594 -0.022107875 -0.03160975 -0.111547 -0.021424752 0.10942606 0.02405133
-0.002771141 0.10787921 0.051329125 0.03811173 -0.13373713 0.049749967 0.10711214 0.03924546
-0.03850087 0.077735595 -0.05412077 0.035564866 -0.08104943 -0.07732724 -0.09051039 -0.106532246
-0.002871034 -0.06140775 0.00026340017 -0.003075881 0.031539667 0.08112754 0.038789205 -0.1532115
-0.23046416 -0.08913119 -0.20140988 -0.20773724 -0.14155361 0.030807238 0.020143693 -0.18468547
0.1468499 -0.058314346 -0.061433766 -0.105002984 0.14693266 0.047925767 0.1287031 0.0045810994
-0.053271525 0.03758917 -0.022669539 -0.124389715 -0.044498622 0.04216317 -0.12062082 -0.086638145
0.07873334 -0.09007002 0.0049806447 0.14206943 -0.014185987 -0.009249923 0.0014300629 0.051553674
-0.151989 0.006674707 -0.097737156 -0.123970516 -0.049045164 0.037249096 -0.14315127 -0.069802746
-0.010808791 0.062307004 0.044078805 0.06818553 0.12024769 0.044664286 -0.034379993 -0.0051121833
0.084770285 0.03614978 -0.097141884 0.021588877 0.04394527 0.03121896 -0.015234802 0.0014425615
0.04302422 -0.017697116 0.098585874 -0.06257486 -0.12504166 0.01664808 0.05232444 0.028747035
-0.13340393 -0.031590197 -0.1694508 -0.0005721128 0.01959331 -0.1183351 -0.03562756 0.022033412
-0.05803493 0.04700334 -0.056612365 0.015720734 -0.00689379 0.029289955 -0.043819644 0.007077592
0.0696324 -0.08378239 0.011174556 -0.031079726 -0.041065022 -0.07597008 0.059678674 0.095997445
-0.05710079 0.14911428 0.09360863 0.01337952 0.07051227 0.0052955244 0.004108633 0.017902425
-0.1222828 -0.0524499 -0.16179748 -0.050481435 -0.15088414 -0.2093188 -0.18357293 -0.27508256
-0.0015142227 5.081301e-05 -0.103207074 -0.042807642 0.02221435 0.020860879 -0.08650393 0.093491584
-0.048175085 -0.08318293 -0.03138177 0.06480311 -0.053745832 0.04660944 0.027100302 0.010742479
-0.010232808 -0.06320977 -0.054499388 0.1633046 0.13447347 0.15364045 0.1259463 0.10515522
-0.0015907736 0.028991528 0.002716211 -0.14818303 -0.08187072 -0.20842987 -0.031313885 -0.10951206
00000000: 7a26 9abc 1ae0 273c 8a2a ff3c 65c3 b6bd
00000010: 8b8f ba3c fa12 16bc 2ab0 39bd 7ed0 763d
00000020: 4124 9abd 240c 0d3d aa70 f93d e9fe 9abd
00000030: 845f 2a3d fbdc 193e 20a7 443d 67fa 983d
00000040: 43f0 e9bc c4f2 d73c 9529 65bd 617f ed3d
00000050: 453d 2fbe 2b1a b13d 6b15 31be ea6c 57be
00000060: 349d 903d 82d5 823c d77d 6dbd 807c c3bd
00000070: 0a16 323b 96c7 6e3b 1152 bd3c ece8 3cbb
00000080: e821 453d 25c3 643d 1b61 a9bd 9a3c 43bd
00000090: 44f8 c13d 00af d7bd 073a 713d abcf efbc
000000a0: 0594 893b cad0 29bd 2570 833d 92b5 94bc
000000b0: 8fdd d2bc 6e28 e23d 8279 0ebe ea68 873d
000000c0: 50da e23d 3a0e c93c 96df b43c 242b be3d
000000d0: 617c 44bd cc1b ddbd fcd6 a8bd c0db 58be
000000e0: 72ab 5abe 8ac6 23be 1d10 53bd 29e4 fd3a
000000f0: d3bb 2cbe 1b76 683c c82f feba 85c4 0dbb
00000100: 9839 86bd 1ba0 a3bd 7358 a5bc d3a5 353d
00000110: 30bc cbb9 3a59 85bd 130c 8c3a bfa6 a73c
00000120: 45ec dabb 7b0f 343b 3f13 83bd 25dd e53d
00000130: 826d cc3a f41b 0a3d c1a8 cabd 1a97 89bc
00000140: 2039 733d fe71 b8bd 7973 27bd a7ae 6dbd
00000150: dae4 32be 044f 4abd 5fc1 5bbe cfe5 a3bd
00000160: b48a 203c e17f 12be 931b b5bc 3a79 01bd
00000170: c172 e4bd f682 afbc c51a e03d 4b07 c53c
00000180: 089c 35bb c6ef dc3d 7d3e 523d 0c1b 1c3d
00000190: 63f2 08be 9fc6 4b3d 9c5d db3d d9bf 203d
000001a0: 17b3 1dbd d733 9f3d bead 5dbd 77ac 113d
000001b0: 3efd a5bd be5d 9ebd 835d b9bd 942d dabd
000001c0: f527 3cbb b186 7bbd f918 8a39 b894 49bb
000001d0: bd2f 013d 3226 a63d 6ee1 1e3d 7ae3 1cbe
000001e0: ccfe 6bbe 6a8a b6bd 643e 4ebe 12b9 54be
000001f0: 6ef3 10be 765f fc3c 6304 a53c 301e 3dbe
00000200: d25f 163e 06db 6ebd f9a1 7bbd ce0b d7bd
00000210: 8475 163e cf4d 443d bfca 033e 0c1d 963b
00000220: 3e33 5abd 1af7 193d 78b5 b9bc 09c0 febd
00000230: 3044 36bd 4ab3 2c3d 0c08 f7bd 576f b1bd
00000240: f23e a13d a176 b8bd ad34 a33b a67a 113e
00000250: 586c 68bc fd8c 17bc f370 bb3a f229 533d
00000260: 01a3 1bbe 80b7 da3b 6b2a c8bd 41e4 fdbd
00000270: 95e3 48bd 8292 183d 3f96 12be bef4 8ebd
00000280: 5b17 31bc a135 7f3d fa8b 343d dba4 8b3d
00000290: 6c44 f63d e6f1 363d 09d2 0cbd 1a84 a7bb
000002a0: 0b9c ad3d cb11 143d 53f2 c6bd 28db b03c
000002b0: f5ff 333d e8be ff3c 649b 79bc 5514 bd3a
000002c0: 2a3a 303d 8bf9 90bc 64e7 c93d 4027 80bd
000002d0: ec0a 00be 8e61 883c 2752 563d e77e eb3c
000002e0: 0a9b 08be b964 01bd 8384 2dbe d7f9 15ba
000002f0: 2682 a03c ac59 f2bd 34ee 11bd 6a7f b43c
00000300: 09b6 6dbd 9386 403d 5ee2 67bd c5c8 803c
00000310: 4de5 e1bb 7df1 ef3c 3a7c 33bd 25eb e73b
00000320: 6f9b 8e3d 1a96 abbd 7c15 373c e99a febc
00000330: cc33 28bd 3496 9bbd a071 743d 4f9a c43d
00000340: 85e2 69bd 6ab1 183e e2b5 bf3d c635 5b3c
00000350: bd68 903d 1486 ad3b b6a1 863b 1ba8 923c
00000360: 686f fabd b5d5 56bd 3dae 25be 9fc5 4ebd
00000370: 5f81 1abe ab57 56be 8bfa 3bbe 9fd7 8cbe
00000380: e278 c6ba 0e20 5538 3b5e d3bd 1157 2fbd
00000390: defa b53c 6fe4 aa3c f928 b1bd 8478 bf3d
000003a0: 3d53 45bd d05b aabd 2c8a 00bd 7eb7 843d
000003b0: 9724 5cbd 8ae9 3e3d 7401 de3c 3901 303c
000003c0: 82a7 27bc 2074 81bd c03a 5fbd 5239 273e
000003d0: 6ab3 093e ec53 1d3e 11f8 003e 9f5b d73d
000003e0: 8181 d0ba a47f ed3c 7502 323b 4bbd 17be
000003f0: d6ab a7bd a46e 55be fd42 00bd dc47 e0bd

cdm._denoise_fn.transformer.mlp.0.bias f4 [256]
0.045484778 -0.1253919 -0.024294568 -0.15101182 -0.107422955 -0.14226536 -0.021105867 -0.03281341
-0.187304 0.03617495 -0.12840824 -0.028985947 -0.2097106 -0.14716421 -0.06634455 -0.18260229
-0.1938237 -0.051473793 -0.040981222 -0.11166141 -0.16018909 0.06734299 -0.042855065 0.06506163
-0.0016490232 -0.07209826 -0.20173968 -0.16647229 0.014531139 -0.08450009 -0.15278071 -0.019785041
-0.13428468 -0.12642473 -0.090087004 -0.044104252 -0.13087401 -0.022715747 0.043122843 -0.04805062
0.009263203 -0.1883138 -0.17662264 -0.1872098 -0.03629571 -0.07841015 -0.052104443 0.01317928
-0.15942718 0.01412918 -0.06631519 -0.14483507 0.027066596 -0.056399975 -0.1531334 -0.04790918
-0.04230614 -0.08397872 -0.15741536 -0.088919476 -0.06496689 -0.050346382 0.07312226 -0.20408168
-0.13428746 -0.16369633 0.03163724 -0.17423575 0.05582033 0.03904055 -0.17199937 -0.12759699
-0.16151135 0.021388436 -0.049887396 -0.13685542 -0.046403337 -0.11136208 -0.033868767 -0.15488066
-0.17817599 -0.0713403 -0.0022648107 -0.16196471 -0.007930206 -0.097713076 -0.056829616 -0.00086792384
-0.047832962 -0.066457585 -0.12163129 0.068949595 0.04887806 0.047879368 0.05687019 -0.010759012
-0.17945738 -0.02539746 -0.19058056 0.013214914 -0.03636042 -0.17946489 -0.0401567 -0.011950092
-0.044450138 -0.009491215 -0.13776532 -0.057823706 -0.015904307 -0.075262845 -0.18527758 -0.091249295
0.0466504 -0.131213 -0.15537064 -0.14697362 -0.08569209 -0.09669434 -0.08745253 0.008589586
-0.011333022 -0.045501854 -0.17068668 0.014563456 -0.015440012 -0.18101098 -0.016120031 -0.015506799
-0.03536538 -0.14885797 -0.23291121 0.03810303 -0.03990297 0.015233085 -0.05246212 -0.016276447
-0.17276947 0.06021861 -0.16316554 -0.050179664 -0.06727204 -0.051311545 -0.14407846 -0.1579589
0.019015606 0.010451082 -0.15584032 -0.119416006 -0.07617941 -0.22111377 -0.011926255 0.019889727
-0.14326741 -0.08602999 -0.12154433 0.04573012 -0.081806965 -0.1776194 -0.1560805 -0.11898244
-0.17556329 -0.13202906 -0.13817915 -0.1554389 -0.15080361 -0.12748466 -0.09801097 -0.09259019
-0.07394374 -0.07408352 -0.12817954 -0.013442885 -0.040216 -0.087004334 0.027642079 -0.01605774
-0.10666328 -0.017264597 -0.12280558 -0.00374 -0.04403082 -0.10264164 -0.07537745 -0.18641642
0.027221972 -0.08193144 -0.1931184 -0.033817958 0.054825973 -0.17433481 -0.13542269 -0.009886567
-0.058409836 -0.020013971 -0.16361141 -0.17962918 -0.11284571 -0.0066745253 -0.049491983 -0.11555037
-0.076895416 0.017480262 -0.05103288 -0.07572577 -0.10344144 -0.057644937 -0.16340396 -0.11133025
-0.01779125 -0.13086653 -0.18996343 -0.0027110223 -0.17821337 -0.062447093 0.05255834 -0.036109816
-0.14796923 0.02857254 -0.059376806 -0.13630697 0.024833992 -0.13150226 -0.088002264 -0.117052704
-0.16117933 -0.09061083 -0.12714453 -0.12420978 -0.009560632 -0.028665613 0.035412643 -0.113358974
-0.037974253 -0.07620973 0.056377705 -0.1207242 0.018534856 0.01811077 -0.07714954 -0.16980843
-0.0072410684 -0.13833553 -0.00053447945 0.036954977 -0.029581992 -0.043890174 -0.11826808 0.0035570557
-0.15100597 -0.1503145 -0.057536833 -0.035401843 -0.0043962453 -0.040977348 0.032010693 -0.0014542086
00000000: 3f4e 3a3d bc66 00be 6705 c7bc d8a2 1abe
00000010: 9100 dcbd 03ae 11be 36e6 acbc 5b67 06bd
00000020: 9fcc 3fbe 2f2c 143d 737d 03be f073 edbc
00000030: 60be 56be 37b2 16be a7df 87bd 18fc 3abe
00000040: b879 46be 2fd6 52bd eddb 27bd bdae e4bd
00000050: 9c08 24be 1feb 893d cb88 2fbd 083f 853d
00000060: 0924 d8ba 41a8 93bd d994 4ebe b677 2abe
00000070: 0414 6e3c 620e adbd 8c72 1cbe 3d14 a2bc
00000080: ec81 09be 7c75 01be 897f b8bd a9a6 34bd
00000090: d603 06be 6016 babc 94a1 303d bad0 44bd
000000a0: b0c4 173c 55d5 40be 91dc 34be edb3 3fbe
000000b0: cfaa 14bd 8095 a0bd 786b 55bd e8ed 573c
000000c0: e140 23be 147e 673c 42d0 87bd a54f 14be
000000d0: c4ba dd3c a903 67bd 01cf 1cbe 6b3c 44bd
000000e0: 3449 2dbd 09fd abbd 7e31 21be 6a1b b6bd
000000f0: 5c0d 85bd 0238 4ebd 20c1 953d cafa 50be
00000100: a782 09be 03a0 27be 0d96 013d db6a 32be
00000110: dca3 643d fce8 1f3d 9a20 30be c9a8 02be
00000120: 3b63 25be cd36 af3c ba56 4cbd d423 0cbe
00000130: 6d11 3ebd cd11 e4bd fab9 0abd 0999 1ebe
00000140: c473 36be dd1a 92bd 386d 14bb 14da 25be
00000150: b2ed 01bc cb1d c8bd 2cc6 68bd 6285 63ba
00000160: 7fec 43bd ea1a 88bd d319 f9bd 7235 8d3d
00000170: 5c34 483d 281d 443d b7f0 683d 9146 30bc
00000180: adc3 37be 560e d0bc 8d27 43be 5e83 583c
00000190: aaee 14bd a5c5 37be 5a7b 24bd 52ca 43bc
000001a0: 5911 36bd 0b81 1bbc 5a12 0dbe 8dd8 6cbd
000001b0: c049 82bc 6823 9abd 68b9 3dbe e9e0 babd
000001c0: 7d14 3f3d b35c 06be 7b19 1fbe 4180 16be
000001d0: 567f afbd af07 c6bd 501a b3bd 56bb 0c3c
000001e0: 24ae 39bc 2760 3abd 7dc8 2ebe 909b 6e3c
000001f0: 1bf8 7cbc f15a 39be 280e 84bc 3b10 7ebc
00000200: 4adb 10bd 396e 18be 4780 6ebe ec11 1c3d
00000210: 4c71 23bd 3094 793c 85e2 56bd 2f56 85bc
00000220: 7bea 30be caa7 763d de14 27be 3189 4dbd
00000230: ecc5 89bd 0e2c 52bd 4e89 13be fabf 21be
00000240: 9ec6 9b3c 043b 2b3c 9b94 1fbe 6190 f4bd
00000250: f303 9cbd a66b 62be 5766 43bc c8ef a23c
00000260: b1b4 12be 7e30 b0bd 3cec f8bd 824f 3b3d
00000270: 698a a7bd dce1 35be 91d3 1fbe 11ad f3bd
00000280: ddc6 33be a032 07be d67e 0dbe 602b 1fbe
00000290: 436c 1abe 578b 02be fab9 c8bd ed9f bdbd
000002a0: d16f 97bd 1ab9 97bd 7f41 03be 8c3f 5cbc
000002b0: 88b9 24bd 542f b2bd a471 e23c 868b 83bc
000002c0: 4772 dabd 7c6e 8dbc 7e81 fbbd ca1a 75bb
000002d0: a959 34bd c835 d2bd 7e5f 9abd f2e3 3ebe
000002e0: 9d00 df3c accb a7bd d4c0 45be b384 0abd
000002f0: 3391 603d d384 32be 3fac 0abe 44fb 21bc
00000300: 273f 6fbd 57f4 a3bc c089 27be b6f0 37be
00000310: a71b e7bd fab5 dabb 1bb8 4abd aca5 ecbd
00000320: 587b 9dbd c432 8f3c da07 51bd 1d16 9bbd
00000330: 1bd9 d3bd 191d 6cbd 5e53 27be 1d01 e4bd
00000340: f5be 91bc e001 06be c685 42be 68ab 31bb
00000350: 917d 36be 86c8 7fbd 6a47 573d e3e7 13bd
00000360: 3f85 17be f610 ea3c 1835 73bd 0e94 0bbe
00000370: a870 cb3c 87a8 06be 883a b4bd 54b9 efbd
00000380: 320c 25be 2c92 b9bd 2d32 02be b261 febd
00000390: 32a4 1cbc 26d4 eabc d90c 113d c028 e8bd
000003a0: e48a 1bbd d913 9cbd 4fec 663d 403e f7bd
000003b0: 69d6 973c 0a5d 943c 9400 9ebd 43e2 2dbe
000003c0: 7c46 edbb d4a7 0dbe 4f1c 0cba 1a5e 173d
000003d0: ef55 f2bc 2fc6 33bd 8936 f2bd 7e1d 693b
000003e0: 4fa1 1abe 0bec 19be beab 6bbd 8601 11bd
000003f0: 610e 90bb ddd7 27bd a51d 033d 259b beba

cdm._denoise_fn.transformer.mlp.2.weight f4 [128, 256]
-0.0030132104 0.025048474 0.045484606 0.06232298 -0.017664805 0.0033154665 0.04980861 -0.030648395
0.045076814 0.043312788 -0.021363767 0.052763645 0.062165678 -0.0492575 0.022939857 0.020381397
-0.042277224 0.06837837 -0.021873096 -0.024035117 0.06185475 0.058422707 0.03126021 0.0068436386
0.0012849155 0.00828084 -0.035795163 -0.04525999 -0.011400052 -0.030010972 0.044732668 0.034513555
-0.038696546 -0.017360142 -0.043324374 -0.012777241 -0.044749986 0.042982955 0.04544667 -0.007158223
-0.028423468 0.019892812 0.047737442 0.047404822 0.0029535685 -0.02973486 0.04965097 0.010028325
-0.009003227 -0.023927279 -0.044440385 0.019663488 -0.030818623 -0.0383251 -0.026616443 0.053783946
-0.03528887 -0.05064601 -0.01753824 0.055681933 -0.0193542 -0.04997028 -0.00036809623 -0.036614366
0.03620533 -0.012789092 0.032483142 0.06254054 -0.020494001 0.029946284 -0.047974553 0.05694915
0.002831927 0.040078983 0.004776626 -0.029815946 0.037382144 0.017325474 0.05445878 0.049199965
0.06092877 -0.0044237794 0.049334865 0.0083636 -0.025585357 0.028671155 0.042346906 -0.005909952
-0.04373783 -0.020622589 0.018019507 0.052992426 0.049856678 -0.016443294 0.0076584313 -0.019322515
-0.019967508 -0.015386546 0.0064234613 0.016725663 -0.0011318249 0.021008119 -0.023845615 -0.022497183
-0.052531365 -0.009061789 0.041201893 0.03801726 -0.026510088 0.015183333 0.022597399 0.0032773314
-0.018066615 0.023759117 -0.035283506 -0.049528122 0.054354094 0.0076826476 0.023659077 -0.048381753
0.025660442 0.007773072 0.008284395 0.026341256 -0.04889526 -0.014009811 0.029984793 0.024458526
0.030468382 0.008694656 0.04964709 -0.03868091 -0.05203821 0.05273538 -0.053233266 0.04468801
-0.011958291 0.039548963 -0.030826448 0.043751173 0.05974415 0.014183209 0.06021654 0.06701223
0.044482812 -0.0036293145 0.00040076915 -0.049101733 -0.05236345 -0.051624406 -0.0036848 -0.023576906
0.019866321 0.048314 0.017068695 0.04349373 0.06771397 0.032132324 -0.041656308 0.024434954
0.047166653 -0.044886198 -0.013742983 0.015682908 0.037350055 -0.0214647 -0.048390143 0.006099559
-0.05465818 0.012444945 -0.059221182 0.030984811 0.02175248 0.014594779 0.03156357 -0.031121511
0.037778854 0.018029742 -0.020531313 -0.001975674 0.051761452 0.03376544 -0.020114869 -0.0431729
-0.038226783 -0.0047776713 -0.00547884 0.054876994 0.00901947 -0.046649385 0.04575627 -0.017679285
0.046862308 0.0148756 0.054079566 0.015553176 0.034750495 0.019636042 -0.016521247 -0.0140503375
0.028847432 0.027496653 0.052745644 0.040398907 -0.005555699 0.009842013 0.010775954 0.024404643
0.06707189 0.042130206 0.041078895 0.044417836 -0.04875341 -0.0066459626 -0.01737931 -0.039278995
0.00384999 -0.030171184 -0.03907461 -0.020199168 -0.028073056 -0.034932267 0.06286596 0.0075295805
0.023520468 0.022434903 -0.050293587 -0.05159085 0.055139255 -0.046845227 -0.020284245 0.024688281
0.0058571254 0.0028512848 -0.018807925 0.027231727 0.012377722 0.0004331573 -0.0040292884 -0.0078989295
-0.016569555 0.062035706 -0.019952448 -0.024562798 -0.018787049 0.021654213 -0.05667029 0.059912696
-0.0138898445 -0.017955497 0.06946829 -0.009321486 -0.0058620498 0.028552318 0.018349448 0.032631874
00000000: 4879 45bb 7532 cd3c 114e 3a3d 6246 7f3d
00000010: c8b5 90bc 4c48 593b 1d04 4c3d 5812 fbbc
00000020: 77a2 383d c068 313d 1103 afbc b11e 583d
00000030: 70a1 7e3d 3bc2 49bd 5eec bb3c e3f6 a63c
00000040: e22a 2dbd f509 8c3d 352f b3bc 4be5 c4bc
00000050: 685b 7d3d a64c 6f3d b50a 003d 9a40 e03b
00000060: 9c6a a83a 5cac 073c f39d 12bd 8a62 39bd
00000070: 49c7 3abc 92d9 f5bc 9a39 373d 165e 0d3d
00000080: 4580 1ebd db36 8ebc e674 31bd a257 51bc
00000090: c34b 37bd e50e 303d 4a26 3a3d 878f eabb
000000a0: 55d8 e8bc 40f6 a23c 5688 433d 8f2b 423d
000000b0: a890 413b 8596 f3bc d15e 4b3d d84d 243c
000000c0: 4582 13bc 2403 c4bc 1f07 36bd 5315 a13c
000000d0: 5677 fcbc c8fa 1cbd ba0a dabc 8e4c 5c3d
000000e0: 108b 10bd 3172 4fbd 5bac 8fbc bd12 643d
000000f0: b38c 9ebc a3ad 4cbd 0afd c0b9 f2f8 15bd
00000100: 0a4c 143d 5789 51bc 0b0d 053d 4115 803d
00000110: 09e3 a7bc e951 f53c f780 44bd 8343 693d
00000120: da97 393b dc29 243d 3e85 9c3b 9240 f4bc
00000130: 051e 193d 27ee 8d3c 2b10 5f3d e785 493d
00000140: 7290 793d 5af5 90bb 5b13 4a3d 7b07 093c
00000150: 6298 d1bc c5df ea3c f373 2d3d 45a8 c1bb
00000160: 7026 33bd b4f0 a8bc a59d 933c 960e 593d
00000170: 8436 4c3d 16b4 86bc 94f3 fa3b 404a 9ebc
00000180: e692 a3bc da17 7cbc e67b d23b 4204 893c
00000190: be59 94ba 3819 ac3c e157 c3bc 034c b8bc
000001a0: 212b 57bd e677 14bc 51c3 283d fdb7 1b3d
000001b0: af2b d9bc 84c3 783c 2e1e b93c 7fc8 563b
000001c0: 7000 94bc 7ba2 c23c 7085 10bd 00de 4abd
000001d0: 66a2 5e3d b8be fb3b aed0 c13c f22b 46bd
000001e0: d935 d23c 41b5 fe3b 45bb 073c 9ec9 d73c
000001f0: 6546 48bd 6889 65bc aba2 f53c 3f5d c83c
00000200: d498 f93c 0874 0e3c bf5a 4b3d e06f 1ebd
00000210: 0526 55bd 0e01 583d 200b 5abd c60a 373d
00000220: b5ec 43bc 18fe 213d bf87 fcbc 6e34 333d
00000230: 48b6 743d b160 683c 9ea5 763d b53d 893d
00000240: 9c33 363d cbd9 6dbb 531e d239 e61e 49bd
00000250: 0f7b 56bd 1d74 53bd af7c 71bb 5b24 c1bc
00000260: b2be a23c e7e4 453d a6d3 8b3c 7b26 323d
00000270: 9fad 8a3d 2f9d 033d ce9f 2abd d02b c83c
00000280: d231 413d 97da 37bd 402a 61bc 7179 803c
00000290: 5ffc 183d bdd6 afbc be34 46bd cfde c73b
000002a0: 41e1 5fbd e2e5 4b3c e991 72bd dcd3 fd3c
000002b0: 4232 b23c f11e 6f3c cd48 013d 8af2 febc
000002c0: 00be 1a3d 1cb3 933c 4931 a8bc 4f7a 01bb
000002d0: d103 543d a14d 0a3d f0c7 a4bc 11d6 30bd
000002e0: b093 1cbd 038e 9cbb d787 b3bb b3c6 603d
000002f0: 66c6 133c 6d13 3fbd ed6a 3b3d 26d4 90bc
00000300: b1f2 3f3d cab8 733c 8982 5d3d c0d2 7e3c
00000310: 8956 0e3d c4db a03c 9157 87bc 6333 66bc
00000320: 7351 ec3c a940 e13c d10b 583d 5379 253d
00000330: 950c b6bb 6540 213c a18d 303c 3fec c73c
00000340: fd5c 893d b990 2c3d 5842 283d 7aef 353d
00000350: a8b1 47bd 60c6 d9bb 0e5f 8ebc 03e3 20bd
00000360: 1d50 7c3b 8f29 f7bc b30c 20bd ba78 a5bc
00000370: 77f9 e5bc 2315 0fbd debf 803d b3ba f63b
00000380: ffad c03c 67c9 b73c a600 4ebd ed50 53bd
00000390: b3d9 613d c8e0 3fbd 252b a6bc 143f ca3c
000003a0: 21ed bf3b 9fdc 3a3b 1413 9abc 1215 df3c
000003b0: eecb 4a3c 6419 e339 1f08 84bb 836a 01bc
000003c0: e0bc 87bc 2719 7e3d 5173 a3bc ec37 c9bc
000003d0: 4ce7 99bc 2d64 b13c 1b1f 68bd 0467 753d
000003e0: 3b92 63bc 6817 93bc 6445 8e3d 25b9 18bc
000003f0: 7016 c0bb 8de6 e93c 9551 963c 00a9 053d

cdm._denoise_fn.transformer.mlp.2.bias f4 [128]
-0.04726868 -0.012422811 -0.043191943 -0.038255725 -0.06910872 -0.030457128 -0.057151925 0.037561193
-0.000952879 0.050747853 0.07741751 -0.060723003 0.036722418 -0.008283423 0.0422066 0.06303242
0.017932603 -0.009488734 0.05147459 0.014113474 0.056117076 -0.04505829 0.028353913 -0.006044464
-0.05578264 0.038184684 0.02721884 -0.014657127 0.0116194505 0.06585903 0.026229177 0.019125702
0.055357132 0.0056675784 0.03102 -0.01564715 0.016715378 0.026911527 -0.006198334 0.00025818846
-0.03928606 0.03150523 0.014517796 -0.022979496 0.010961986 0.015223184 -0.011928569 0.004702023
0.054430798 -0.043926977 0.01646775 -0.0043471605 -0.051695894 0.05162354 -0.008858617 -0.037546705
0.03323369 0.020611903 -0.017439215 0.0061254892 -0.05045019 -0.03613657 -0.059004698 0.027305897
-0.045595553 -0.032547165 -0.03844747 0.0042312914 -0.012899889 -0.032262936 0.038072493 -0.011147043
0.033641044 0.023420207 0.0022527461 0.029952746 0.022086892 -0.032802403 0.059280384 0.044489637
-0.06991679 0.021631021 0.017836984 0.034434065 -0.016319882 -0.055163458 -0.031592768 -0.06329612
-0.030695941 0.06529361 -0.035417024 0.04647616 -0.011547003 0.050703395 0.011103578 0.023774251
0.0053522037 0.0027893197 -0.027005313 0.041204162 -0.024615413 -0.045604065 0.023441466 -0.05161837
-0.0495016 -0.055461284 -0.0041742227 0.006137557 -0.054099806 -0.03648799 -0.046045203 0.020728303
0.054722644 -0.007573325 0.019569758 0.012391364 0.0448617 -0.01876487 -0.06318698 0.0031129916
0.08019714 -0.019706307 -0.009182227 -0.015130316 0.025895108 0.0095858695 -0.025046982 -0.060573056
00000000: ce9c 41bd 0c89 4bbc 09ea 30bd 09b2 1cbd
00000010: df88 8dbd 3a81 f9bc 2318 6abd c4d9 193d
00000020: a1ca 79ba fbdc 4f3d 128d 9e3d afb8 78bd
00000030: 3f6a 163d 32b7 07bc d4e0 2c3d 2417 813d
00000040: 65e7 923c a376 1bbc 05d7 523d 333c 673c
00000050: 05db 653d 0b8f 38bd 7746 e83c a410 c6bb
00000060: 567c 64bd 8b67 1c3d 0bfa de3c 7224 70bc
00000070: 825f 3e3c 19e1 863d 92de d63c 81ad 9c3c
00000080: 29be 623d 18b7 b93b a81d fe3c 742e 80bc
00000090: b0ee 883c 9075 dc3c 651b cbbb 785d 8739
000000a0: 6bea 20bd a10b 013d 0ddc 6d3c 7f3f bcbc
000000b0: e799 333c a96a 793c 0b70 43bc 6e13 9a3b
000000c0: d4f2 5e3d c6ec 33bd 60e7 863c a072 8ebb
000000d0: 13bf 53bd 3573 533d bc23 11bc 93ca 19bd
000000e0: 0d20 083d 4bda a83c afdc 8ebc 54b8 c83b
000000f0: dca4 4ebd f103 14bd e9ae 71bd 9eb0 df3c
00000100: 67c2 3abd 2d50 05bd 187b 1dbd a5a6 8a3b
00000110: 0e5a 53bc 2426 04bd e7f1 1b3d 16a2 36bc
00000120: 31cb 093d bcdb bf3c cfa2 133b 765f f53c
00000130: 92ef b43c d05b 06bd fdcf 723d c43a 363d
00000140: 8930 8fbd 8a33 b13c de1e 923c bc0a 0d3d
00000150: 46b1 85bc 14f3 61bd 6b67 01bd 65a1 81bd
00000160: 0e76 fbbc a8b8 853d 7111 11bd c95d 3e3d
00000170: a42f 3dbc 5dae 4f3d c8eb 353c 38c2 c23c
00000180: 8a61 af3b 05cd 363b 3f3a ddbc b2c5 283d
00000190: 43a6 c9bc 54cb 3abd 5108 c03c c96d 53bd
000001a0: 31c2 4abd 5f2b 63bd ebc7 88bb 8f1d c93b
000001b0: c297 5dbd 6e74 15bd e599 3cbd 67ce a93c
000001c0: da24 603d a829 f8bb c250 a03c 2605 4b3c
000001d0: e7c0 373d c9b8 99bc 2d68 81bd 5503 4c3b
000001e0: 663e a43d 1f6f a1bc 0d71 16bc 25e5 77bc
000001f0: fa21 d43c 0d0e 1d3c 542f cdbc 741b 78bd

cdm._denoise_fn.transformer.axial_pos_emb.weights_0 f4 [1, 1, 1, 64]
0.73437786 -0.7234997 1.3211683 1.617467 0.74586296 -0.6703097 0.69628274 -0.691494
-0.21352352 0.5013897 -0.50955534 -0.613547 1.5890945 -0.24678963 -1.7947294 0.6416371
0.4311473 0.50760734 1.3479806 0.95548993 0.18965879 -0.41915292 -0.16126867 0.37146986
-0.81351906 -0.56473017 -0.5537833 0.5610471 1.0025105 0.035526548 1.152788 1.8312663
0.17477667 0.09807775 0.4756265 -0.3857613 1.1176306 -1.1978526 -2.2715564 -0.77258605
2.1655514 0.32537255 1.2042977 0.89329344 -1.9349225 0.3444826 -0.6436943 2.3825967
0.8168974 0.58113164 1.6757029 0.27565712 -0.875344 -0.7818463 0.33014876 1.336192
0.12675273 -0.821537 0.0864348 0.94861376 -1.164895 0.760663 -1.0925628 1.1895814
00000000: 3000 3c3f 4737 39bf 0b1c a93f 2909 cf3f
00000010: e0f0 3e3f 6b99 2bbf 963f 323f c005 31bf
00000020: e9a5 5abe 135b 003f 3872 02bf 6b11 1dbf
00000030: 7367 cb3f 6cb6 7cbe b1b9 e5bf 5442 243f
00000040: 57bf dc3e 8ef2 013f a18a ac3f fd9a 743f
00000050: ea35 423e 369b d6be 9d23 25be 4c31 be3e
00000060: c942 50bf 2892 10bf bec4 0dbf c8a0 0f3f
00000070: 4452 803f 4984 113d 8f8e 933f ef66 ea3f
00000080: a8f8 323e fddc c83d 5185 f33e 8182 c5be
00000090: 850e 8f3f 3c53 99bf 2e61 11c0 33c8 45bf
000000a0: 6598 0a40 3b97 a63e 6d26 9a3f e1ae 643f
000000b0: 8aab f7bf 0660 b03e 26c9 24bf 777c 1840
000000c0: 3020 513f 0bc5 143f 6f7d d63f ee22 8d3e
000000d0: 8b16 60bf 1427 48bf 4209 a93e 5708 ab3f
000000e0: 78cb 013e 4050 52bf ba04 b13d 5ad8 723f
000000f0: 481b 95bf cfba 423f 19d9 8bbf 3444 983f

cdm._denoise_fn.transformer.axial_pos_emb.weights_1 f4 [1, 1, 6, 64]
-1.4018325 0.26605654 -0.2300129 -0.0040857457 0.80742806 2.1783168 0.09176432 0.6844226
0.43533996 -0.47626472 0.40354848 1.1335174 -2.6904001 0.38729995 -0.4874984 0.91208464
0.732517 0.4098291 0.046669565 0.0864132 0.27091265 0.37617046 -2.60201 -0.67488915
0.34056368 0.92069244 -0.33219168 -0.7742416 0.3020801 -0.5102176 -0.0759412 -0.32803348
1.0798566 -1.3981589 -0.35509348 0.923498 1.7763968 0.4287014 -1.0290695 0.7488466
-0.16378662 -0.66210365 0.37233546 0.36408648 1.5837953 0.1892198 -0.31576756 -0.12082677
1.1465961 -0.06990261 0.5406325 -1.1661932 0.2210409 0.33209094 -0.6038991 1.7378439
0.27744937 1.117362 -0.40911907 -0.14289749 -0.15927662 -1.4277288 -0.26175505 -1.1497177
-0.9077719 2.2159963 -0.30831343 -0.08441651 0.4226703 -0.99157566 -0.047881603 -0.7498107
-0.7768544 0.44830135 0.51518446 0.22229992 1.171603 -0.059991933 -0.9203553 1.4233837
-0.9002437 0.11648978 -0.09004574 -0.2702136 0.84678644 -1.6889373 0.35579348 1.3065072
2.155434 0.33191594 2.2197857 0.20240052 -1.403885 -0.12844965 0.40512407 0.14745808
-0.14983195 -0.09251863 0.36115485 -0.40267923 2.0204587 -0.25884742 -0.02913244 0.57229555
1.6128522 1.57059 -1.5701203 0.57329667 -0.7114424 -0.060117 -0.26791412 0.31607914
1.4176072 0.4959411 0.039527934 0.06543151 1.2330322 -0.31670254 1.0098195 0.6223559
0.60737234 -0.6645392 1.0301241 0.024240615 1.0693358 0.029358665 -1.5251888 1.1635689
-0.0022026727 0.9787773 -1.4631045 1.6325535 0.47266838 0.22438194 0.34204575 -0.67625815
1.5532225 1.0373679 0.22159807 -0.44996828 0.031785544 -1.7898548 0.4069146 0.67605084
0.83064705 -1.3664452 -0.54408944 0.35609773 0.7270072 -0.6824706 -0.020876653 -0.67763376
-0.6850758 0.89298266 -0.8138829 1.54686 0.2438243 -0.102707885 -0.6268824 0.81496966
1.9710755 -0.6424601 1.2978948 -1.3433638 1.1630343 0.14109734 0.605284 -0.53984165
0.736692 1.0377101 -0.42197886 1.6624372 -1.3549498 0.31532976 0.65216726 -0.9329362
-1.4824108 0.9685015 0.47810993 -0.46829015 -0.8480684 0.2465597 -1.1090844 0.7217733
-1.1774582 -0.35971928 -0.13161536 0.885298 1.038933 0.13478474 -0.24374342 0.20805803
-1.0922142 0.28965232 0.6722365 -0.3185062 -0.95331013 -0.9116614 0.76611686 1.665116
-0.05533836 -1.9281803 -0.26894724 0.8084068 -0.26671645 0.013199782 -0.9647381 1.2676446
-0.03842539 -0.49265823 -0.10791961 -0.65622914 -0.0662052 1.050585 -1.3903687 1.2600795
0.51533794 1.1398154 -0.49162233 0.8483249 0.2660374 0.27707073 1.4664223 0.8472406
-0.9055467 0.20013152 -1.2829397 -0.0059660836 -1.1327708 -1.2445736 1.0963895 0.44494843
0.30532488 0.79245573 1.4246249 -0.77081275 -0.12840295 0.15273742 0.2922804 -0.058633983
-0.19019178 -0.2513683 1.5772026 1.0032017 0.6735762 0.5943057 -0.1545932 0.61682296
0.7187924 -0.08187865 0.34796095 1.3455461 -0.45602047 -0.36121625 -1.4548849 0.9092345
00000000: 3f6f b3bf 9038 883e 8088 6bbe b8e1 85bb
00000010: 9bb3 4e3f 8b69 0b40 efee bb3d 5236 2f3f
00000020: e1e4 de3e f8d8 f3be e89d ce3e 1917 913f
00000030: 842f 2cc0 2e4c c63e 6499 f9be 617e 693f
00000040: 3c86 3b3f 1fd5 d13e 9628 3f3d 67f9 b03d
00000050: 10b5 8a3e 6a99 c03e 5587 26c0 89c5 2cbf
00000060: 5d5e ae3e 80b2 6b3f 0715 aabe b334 46bf
00000070: 3eaa 9a3e 9f9d 02bf 0f87 9bbd 01f4 a7be
00000080: be38 8a3f dff6 b2bf d0ce b5be 5d6a 6c3f
00000090: f860 e33f c07e db3e 8db8 83bf 69b4 3f3f
000000a0: aeb7 27be a07f 29bf c1a2 be3e 8b69 ba3e
000000b0: ceb9 ca3f d6c2 413e 49ac a1be 0774 f7bd
000000c0: a9c3 923f 1929 8fbd e466 0a3f d245 95bf
000000d0: 8c58 623e d307 aa3e 2299 1abf ab71 de3f
000000e0: d80d 8e3e b805 8f3f 0e78 d1be b853 12be
000000f0: 6919 23be d1bf b6bf c204 86be f329 93bf
00000100: bd63 68bf e2d2 0d40 42db 9dbe 90e2 acbd
00000110: 3e68 d83e e7d7 7dbf 801f 44bd 98f3 3fbf
00000120: eedf 46bf c187 e53e 21e3 033f 97a2 633e
00000130: 16f7 953f 1aba 75bd 689c 6bbf 7031 b63f
00000140: 5f76 66bf 3292 ee3d e769 b8bd 7059 8abe
00000150: ffc6 583f 192f d8bf 902a b63e a13b a73f
00000160: a1f2 0940 e3f0 a93e f810 0e40 1542 4f3e
00000170: 81b2 b3bf 4e88 03be 6c6c cf3e 40ff 163e
00000180: 8c6d 19be 687a bdbd 4ae9 b83e f92b cebe
00000190: 324f 0140 a687 84be 28a7 eebc f681 123f
000001a0: f171 ce3f 1809 c93f b4f9 c8bf 92c3 123f
000001b0: 1721 36bf 3e3d 76bd 0a2c 89be 20d5 a13e
000001c0: 2774 b53f feeb fd3e 0be8 213d f500 863d
000001d0: 00d4 9d3f d626 a2be c441 813f b752 1f3f
000001e0: c17c 1b3f 3e1f 2abf 1bdb 833f 4194 c63c
000001f0: ffdf 883f 9581 f03c 6339 c3bf d3ef 943f
00000200: b75a 10bb 2691 7a3f 0247 bbbf 83f7 d03f
00000210: 9701 f23e 61c4 653e 9f20 af3e 411f 2dbf
00000220: ffcf c63f 79c8 843f 9bea 623e 3e62 e6be
00000230: 8f31 023d f619 e5bf 1c57 d03e ab11 2d3f
00000240: 49a5 543f ade7 aebf 7249 0bbf 7152 b63e
00000250: 251d 3a3f 65b6 2ebf 8405 abbc 6879 2dbf
00000260: 2161 2fbf 839a 643f a15a 50bf 82ff c53f
00000270: 14ad 793e 8358 d2bd 5d7b 20bf daa1 503f
00000280: 344c fc3f 4478 24bf 6b21 a63f 58f3 abbf
00000290: 4fde 943f d27b 103e e4f3 1a3f 1033 0abf
000002a0: d997 3c3f afd3 843f 9d0d d8be beca d43f
000002b0: ff6e adbf e772 a13e 6ff4 263f e8d4 6ebf
000002c0: a3bf bdbf b7ef 773f d3ca f43e bac3 efbe
000002d0: 031b 59bf 257a 7c3e 7af6 8dbf 23c6 383f
000002e0: f3b6 96bf 202d b8be 2dc6 06be e4a2 623f
000002f0: c2fb 843f 0305 0a3e e097 79be 2a0d 553e
00000300: adcd 8bbf 4f4d 943e b117 2c3f 3f13 a3be
00000310: 220c 74bf a462 69bf 3c20 443f 8522 d53f
00000320: 7aaa 62bd 9dce f6bf 74b3 89be bff3 4e3f
00000330: 0f8f 88be e643 583c 13f9 76bf 2e42 a23f
00000340: f163 1dbd b33d fcbe f504 ddbd a2fe 27bf
00000350: 9896 87bd 9279 863f 9af7 b1bf 494a a13f
00000360: 30ed 033f 79e5 913f ecb5 fbbe d22b 593f
00000370: 0e36 883e 37dc 8d3e bab3 bb3f c3e4 583f
00000380: e9d1 67bf 47ef 4c3e 5e37 a4bf 237f c3bb
00000390: a2fe 90bf 304e 9fbf 7e56 8c3f 48d0 e33e
000003a0: 8b53 9c3e 61de 4a3f 1c5a b63f fc53 45bf
000003b0: 107c 03be 3367 1c3e c7a5 953e 302a 70bd
000003c0: a2c1 42be 59b3 80be c6e1 c93f ea68 803f
000003d0: 7d6f 2c3f 6b24 183f ae4d 1ebe 1ce8 1d3f
000003e0: c702 383f feaf a7bd f027 b23e db3a ac3f
000003f0: 847b e9be 56f1 b8be ab39 babf 98c3 683f
