checkpoints/sort_1/S_6_K_6/CDM/15_05_2023__10_32/cktp/checkpoint_0001000.tar (torch, 625371 bytes, 43 tensors)

cdm.log_alpha f4 [100]
00000000: f889 a5b9 227b 12ba 8643 52ba 1113 89ba
00000010: 7e15 a9ba 182d c9ba f45d e9ba 1bd6 04bb
00000020: 090e 15bb e658 25bb dcb8 35bb 2430 46bb
00000030: fec0 56bb bc6d 67bb bd38 78bb 3792 84bb
00000040: a919 8dbb ffb3 95bb 8c62 9ebb b126 a7bb
00000050: d901 b0bb 80f5 b8bb 2b03 c2bb 732c cbbb
00000060: 0073 d4bb 8cd8 ddbb e45e e7bb ea07 f1bb
00000070: 99d5 fabb 0165 02bc a773 07bc e497 0cbc
00000080: ebd2 11bc 0026 17bc 7792 1cbc bb19 22bc
00000090: 49bd 27bc b57e 2dbc ac5f 33bc f561 39bc
000000a0: 7687 3fbc 31d2 45bc 4c44 4cbc 14e0 52bc
000000b0: fba7 59bc a29e 60bc dac6 67bc a923 6fbc
000000c0: 51b8 76bc 5288 7ebc bb4b 83bc e974 87bc
000000d0: eac1 8bbc 2535 90bc 35d1 94bc f398 99bc
000000e0: 778f 9ebc 24b8 a3bc b216 a9bc 33af aebc
000000f0: 2386 b4bc 77a0 babc a603 c1bc c4b5 c7bc
00000100: 91bd cebc 9522 d6bc 3eed ddbc 0427 e6bc
00000110: 90da eebc f213 f8bc 6df0 00bd 7328 06bd
00000120: fcba 0bbd 52b2 11bd 5b1a 18bd f100 1fbd
00000130: 4676 26bd 718d 2ebd 135d 37bd 3a00 41bd
00000140: 8097 4bbd 904a 57bd 254a 64bd d0d2 72bd
00000150: 6498 81bd a9e2 8abd 4b87 95bd 98d9 a1bd
00000160: eb49 b0bd 9373 c1bd 7d33 d6bd 13cf efbd
00000170: 291d 08be a74f 1dbe bd3d 3abe 3920 64be
00000180: ec25 93be 987e cfbe 236a 31bf 550c 5dc0
-0.00031574047 -0.0005587806 -0.0008020926 -0.0010457953 -0.0012900082 -0.0015348522 -0.001780449 -0.0020269218
-0.0022743961 -0.002522999 -0.0027728593 -0.0030241096 -0.003276884 -0.003531321 -0.0037875616 -0.0040457505
-0.0043060374 -0.0045685763 -0.004833525 -0.005101048 -0.005371314 -0.0056445003 -0.005920788 -0.006200367
-0.0064834356 -0.006770199 -0.0070608724 -0.0073556798 -0.0076548574 -0.0079586515 -0.00826732 -0.008581135
-0.008900384 -0.0092253685 -0.009556404 -0.00989383 -0.010238 -0.010589291 -0.010948103 -0.011314859
-0.011690011 -0.012074039 -0.012467455 -0.012870807 -0.013284679 -0.013709696 -0.014146531 -0.014595904
-0.015058593 -0.015535431 -0.016027322 -0.01653524 -0.017060239 -0.017603466 -0.018166164 -0.01874969
-0.019355519 -0.019985266 -0.020640705 -0.021323776 -0.022036618 -0.022781594 -0.02356131 -0.024378665
-0.025236877 -0.026139537 -0.027090665 -0.028094776 -0.029156953 -0.030282948 -0.031479288 -0.03275342
-0.03411387 -0.03557045 -0.03713451 -0.038819257 -0.040640138 -0.042615358 -0.044766497 -0.047119357
-0.04970503 -0.052561343 -0.055734772 -0.059283078 -0.06327894 -0.06781513 -0.07301196 -0.07902831
-0.08607849 -0.09445872 -0.10459039 -0.11709418 -0.13292374 -0.15362416 -0.18187614 -0.22277917
-0.2873987 -0.4052627 -0.69302577 -3.4538777

cdm.log_1_min_alpha f4 [100]
00000000: d3f8 00c1 5aae efc0 351e e4c0 cca1 dbc0
00000010: 89eb d4c0 e35c cfc0 f19d cac0 d578 c6c0
00000020: 29ca c2c0 6479 bfc0 d674 bcc0 50af b9c0
00000030: b91e b7c0 2dbb b4c0 5f7e b2c0 3563 b0c0
00000040: 7e65 aec0 bd81 acc0 01b5 aac0 cbfc a8c0
00000050: fa56 a7c0 b2c1 a5c0 593b a4c0 86c2 a2c0
00000060: f955 a1c0 99f4 9fc0 699d 9ec0 874f 9dc0
00000070: 280a 9cc0 93cc 9ac0 2096 99c0 3566 98c0
00000080: 463c 97c0 d117 96c0 5ef8 94c0 7cdd 93c0
00000090: c5c6 92c0 d5b3 91c0 51a4 90c0 e297 8fc0
000000a0: 368e 8ec0 fe86 8dc0 ef81 8cc0 bf7e 8bc0
000000b0: 2a7d 8ac0 eb7c 89c0 c17d 88c0 6a7f 87c0
000000c0: a681 86c0 3784 85c0 de86 84c0 5c89 83c0
000000d0: 738b 82c0 e38c 81c0 6d8d 80c0 9d19 7fc0
000000e0: 8b15 7dc0 1b0e 7bc0 c002 79c0 e7f2 76c0
000000f0: f8dd 74c0 53c3 72c0 50a2 70c0 407a 6ec0
00000100: 664a 6cc0 fc11 6ac0 2cd0 67c0 1384 65c0
00000110: ba2c 63c0 18c9 60c0 0b58 5ec0 59d8 5bc0
00000120: a848 59c0 7da7 56c0 31f3 53c0 f429 51c0
00000130: bc49 4ec0 3e50 4bc0 e73a 48c0 c706 45c0
00000140: 84b0 41c0 4334 3ec0 8b8d 3ac0 1eb7 36c0
00000150: cfaa 32c0 4161 2ec0 91d1 29c0 e5f0 24c0
00000160: c9b1 1fc0 4703 1ac0 8dcf 13c0 e6f9 0cc0
00000170: 6e5b 05c0 4b7b f9bf 73a1 e5bf dd31 cebf
00000180: f78d b1bf 98ac 8cbf 0d7a 31bf 7f9e 03bd
-8.060748 -7.490033 -7.1286874 -6.8635006 -6.653752 -6.4800887 -6.33178 -6.20225
-6.0871778 -5.983568 -5.889262 -5.8026505 -5.7225003 -5.6478486 -5.577926 -5.51211
-5.449889 -5.390837 -5.334595 -5.2808585 -5.2293673 -5.1798944 -5.1322446 -5.0862455
-5.0417447 -4.998608 -4.956715 -4.915958 -4.87624 -4.8374724 -4.799576 -4.7624764
-4.7261076 -4.6904073 -4.6553183 -4.6207867 -4.586764 -4.553202 -4.520058 -4.4872904
-4.4548597 -4.4227285 -4.390861 -4.359222 -4.327779 -4.296499 -4.265351 -4.2343035
-4.203326 -4.1723895 -4.1414633 -4.1105175 -4.0795226 -4.048448 -4.017264 -3.9859383
-3.9544399 -3.922736 -3.8907928 -3.8585756 -3.826048 -3.7931716 -3.7599068 -3.7262115
-3.692041 -3.6573477 -3.6220808 -3.5861862 -3.549605 -3.5122738 -3.4741237 -3.4350798
-3.3950596 -3.3539727 -3.3117182 -3.2681856 -3.2232504 -3.1767726 -3.128595 -3.0785387
-3.0263987 -2.9719398 -2.914889 -2.8549266 -2.7916753 -2.724686 -2.653416 -2.577203
-2.4952261 -2.40645 -2.309543 -2.2027526 -2.0837054 -1.9490751 -1.7939895 -1.6108967
-1.3871449 -1.0990171 -0.6932686 -0.032133576

cdm.log_cumprod_alpha f4 [100]
00000000: f889 a5b9 1e40 65ba d2c1 dbba 716a 32bb
00000010: 987a 83bb dec5 b5bb 5b1d f0bb 3444 19bc
00000020: b787 3ebc f0dd 67bc 14a6 8abc 186c a3bc
00000030: 3844 bebc ef31 dbbc 0739 fabc caae 0dbd
00000040: 0052 1fbd 7f08 32bd d1d4 45bd a7b9 5abd
00000050: e2b9 70bd 49ec 83bd 7c0c 90bd 43bf 9cbd
00000060: 7306 aabd fce3 b7bd ea59 c6bd 696a d5bd
00000070: c217 e5bd 6264 f5bd 6c29 03be eaf2 0bbe
00000080: 1910 15be 7982 1ebe a04b 28be 3c6d 32be
00000090: 10e9 3cbe fcc0 47be f6f6 52be 168d 5ebe
000000a0: 8d85 6abe b0e2 76be 7ad3 81be 7b6a 88be
000000b0: bb37 8fbe b03c 96be e77a 9dbe 04f4 a4be
000000c0: c7a9 acbe 099e b4be c5d2 bcbe 134a c5be
000000d0: 3206 cebe 8409 d7be 9856 e0be 27f0 e9be
000000e0: 1ed9 f3be a014 febe 0653 04bf 7fc8 09bf
000000f0: b06c 0fbf b441 15bf d149 1bbf 8087 21bf
00000100: 6cfd 27bf 81ae 2ebf eb9d 35bf 23cf 3cbf
00000110: f745 44bf 9706 4cbf 9e15 54bf 2578 5cbf
00000120: d533 65bf fa4e 6ebf 9fd0 77bf 57e0 80bf
00000130: 0914 86bf 7588 8bbf 5e43 91bf 5f4b 97bf
00000140: 1ba8 9dbf 7062 a4bf c184 abbf 581b b3bf
00000150: de34 bbbf 08e3 c3bf 7d3b cdbf 1659 d7bf
00000160: b55d e2bf ee74 eebf 26d8 fbbf 8c6a 05c0
00000170: 5eec 0dc0 59c1 17c0 3465 23c0 38a7 31c0
00000180: f60b 44c0 c9fb 5dc0 292b 85c0 53b1 f3c0
-0.00031574047 -0.0008745211 -0.0016766137 -0.0027224089 -0.004012417 -0.0055472692 -0.007327718 -0.00935464
-0.011629037 -0.014152035 -0.016924895 -0.019949004 -0.023225889 -0.026757209 -0.03054477 -0.03459052
-0.03889656 -0.043465134 -0.04829866 -0.053399708 -0.05877102 -0.06441552 -0.07033631 -0.07653668
-0.08302011 -0.089790314 -0.096851185 -0.10420687 -0.11186172 -0.11982037 -0.1280877 -0.13666883
-0.14556922 -0.15479459 -0.16435099 -0.17424482 -0.18448281 -0.19507211 -0.2060202 -0.21733508
-0.22902508 -0.24109912 -0.25356656 -0.26643738 -0.27972206 -0.29343176 -0.3075783 -0.3221742
-0.3372328 -0.3527682 -0.36879554 -0.38533077 -0.40239102 -0.41999447 -0.43816066 -0.45691034
-0.47626585 -0.4962511 -0.51689184 -0.5382156 -0.5602522 -0.5830338 -0.6065951 -0.6309738
-0.65621066 -0.6823502 -0.7094409 -0.73753566 -0.7666926 -0.79697555 -0.82845485 -0.86120826
-0.89532214 -0.9308926 -0.96802706 -1.0068463 -1.0474864 -1.0901018 -1.1348684 -1.1819876
-1.2316927 -1.2842541 -1.3399888 -1.399272 -1.4625509 -1.530366 -1.6033779 -1.6824062
-1.7684847 -1.8629434 -1.9675338 -2.084628 -2.2175517 -2.371176 -2.553052 -2.7758312
-3.06323 -3.4684927 -4.1615186 -7.615396

cdm.log_1_min_cumprod_alpha f4 [100]
00000000: d3f8 00c1 495a e1c0 c589 ccc0 0d0b bdc0
00000010: d9a6 b0c0 a44f a6c0 9d6e 9dc0 5aa6 95c0
00000020: ceb8 8ec0 977a 88c0 25cc 82c0 912b 7bc0
00000030: 7f8a 71c0 5f98 68c0 2f3e 60c0 3469 58c0
00000040: fd09 51c0 a913 4ac0 597b 43c0 ce37 3dc0
00000050: 1841 37c0 5a90 31c0 9b1f 2cc0 a1e9 26c0
00000060: cee9 21c0 0f1c 1dc0 c17c 18c0 a808 14c0
00000070: d9bc 0fc0 b696 0bc0 e093 07c0 31b2 03c0
00000080: 69df ffbf 4695 f8bf b482 f1bf b7a4 eabf
00000090: 8df8 e3bf af7b ddbf c52b d7bf a506 d1bf
000000a0: 4c0a cbbf de34 c5bf 9d84 bfbf edf7 b9bf
000000b0: 4a8d b4bf 4a43 afbf 9c18 aabf 020c a5bf
000000c0: 511c a0bf 7248 9bbf 5c8f 96bf 18f0 91bf
000000d0: ba69 8dbf 65fb 88bf 47a4 84bf 9b63 80bf
000000e0: 4971 78bf 6245 70bf 2f42 68bf 6f66 60bf
000000f0: f1b0 58bf 9220 51bf 3db4 49bf ea6a 42bf
00000100: 9e43 3bbf 683d 34bf 6457 2dbf b690 26bf
00000110: 8ce8 1fbf 1d5e 19bf abf0 12bf 7c9f 0cbf
00000120: e069 06bf 2e4f 00bf 879d f4be 0ad0 e8be
00000130: b834 ddbe 72ca d1be 2290 c6be bf84 bbbe
00000140: 47a7 b0be c5f6 a5be 4972 9bbe f018 91be
00000150: dbe9 86be 6cc8 79be 660e 66be 17a4 52be
00000160: ff87 3fbe adb8 2cbe ba34 1abe ccfa 07be
00000170: 2c13 ecbd a8bf c8bd 99f8 a5bd a2bb 83bd
00000180: f30c 44bd cfad 01bd 17ab 80bc c437 01ba
-8.060748 -7.042271 -6.3918176 -5.907599 -5.520367 -5.1972218 -4.9197526 -4.6765566
-4.460059 -4.2649646 -4.08742 -3.924534 -3.7740781 -3.6343 -3.5037954 -3.381421
-3.2662346 -3.15745 -3.0544035 -2.956531 -2.863348 -2.7744355 -2.689429 -2.6080096
-2.5298953 -2.4548376 -2.3826144 -2.3130283 -2.2459013 -2.1810737 -2.1184006 -2.057751
-1.9990054 -1.9420555 -1.8868012 -1.8331517 -1.7810227 -1.730337 -1.6810232 -1.6330153
-1.5862517 -1.5406759 -1.4962345 -1.4528786 -1.4105618 -1.369241 -1.328876 -1.289429
-1.2508641 -1.2131484 -1.17625 -1.1401396 -1.104789 -1.070172 -1.0362633 -1.0030397
-0.9704786 -0.9385587 -0.9072599 -0.876563 -0.8464499 -0.81690323 -0.78790647 -0.7594439
-0.7315005 -0.704062 -0.6771147 -0.6506456 -0.62464213 -0.5990923 -0.5739848 -0.54930854
-0.525053 -0.5012082 -0.47776434 -0.4547122 -0.43204284 -0.40974766 -0.3878184 -0.36624715
-0.34502622 -0.32414833 -0.3036063 -0.28339338 -0.26350293 -0.24392861 -0.2246643 -0.20570408
-0.18704222 -0.16867323 -0.15059176 -0.13279265 -0.11527094 -0.098021805 -0.08104057 -0.064322725
-0.04786391 -0.031659897 -0.015706582 -0.0004929269

cdm.Lt_history f4 [100]
00000000: 0f99 bb31 3dce 4d33 32e7 3633 3554 7e34
00000010: 29a9 6138 9381 ac39 ecee 8a3b 03ae 4e3b
00000020: ab40 6c3b 56a0 8c39 cb38 283f abdd 9c3a
00000030: 0c78 103b 206d 0c3b 828c 843a 6eb2 953a
00000040: 0152 953b 5f4e e13b 6f85 7b3b acd8 fd3a
00000050: 214a a03b f01d 1f3d 64b4 203d 773b 8a3d
00000060: 9812 933b 1a15 833c cac2 323b a409 c23b
00000070: c853 753c 3572 6d3c 01a8 dd3b 47fc 633b
00000080: 284b 063d 680d ef3c 11da a83c b950 883b
00000090: ee31 ee3b 2008 2b3c 5ede 863c b812 c03c
000000a0: 8455 f83c c320 883c 7e62 f73c d4c5 a73c
000000b0: be3d 723c 47af d33c 6b5f 903c 407e cd3c
000000c0: f10a 293c fe63 d43b feae 1f3c 2a00 cf3c
000000d0: beca ab3c edd7 783c 57d7 a83c 08de 443c
000000e0: 77b0 783c a661 963c 2b37 723c 51b9 7f3c
000000f0: 02f5 6a3c 3da0 4d3c 77c0 a93c ade5 873c
00000100: efbf a43c ec0c 443c 4497 9a3c c895 4d3c
00000110: 321e 673c a461 863c 0c9d 4f3c 1015 793c
00000120: 28dc 583c 8fb0 383c f3bd 523c 11a7 343c
00000130: a243 3b3c f2ab 173c f531 233c d574 0c3c
00000140: 77f7 ff3b 4b0e fc3b 69e8 ea3b 5f07 da3b
00000150: 66ce c43b 7196 bc3b a98d a73b f911 983b
00000160: 2e11 7b3b d76a 623b 72a0 3d3b 3d93 1d3b
00000170: 728b fa3a 628c e33a 593e bc3a f1a0 633a
00000180: 4e07 063a 2680 a739 08d1 0939 1558 6037
5.459817e-09 4.7917855e-08 4.2585448e-08 2.3686228e-07 5.3801723e-05 0.00032902937 0.0042399075 0.0031536825
0.0036049287 0.0002682234 0.6571166 0.0011967918 0.002204421 0.0021427348 0.0010112675 0.0011420974
0.004556895 0.0068757976 0.0038379093 0.0019366941 0.0048916494 0.03884691 0.039234534 0.06749623
0.0044883005 0.016001273 0.0027276748 0.0059215594 0.014973588 0.014492561 0.0067644124 0.003478782
0.03278652 0.029181197 0.020611795 0.0041600135 0.0072691357 0.010438949 0.016463455 0.023446426
0.030314215 0.016617185 0.030198332 0.020480074 0.014785228 0.025840415 0.017623624 0.025084615
0.01031755 0.0064816466 0.009746311 0.025268633 0.020970698 0.0151881995 0.020610495 0.012015827
0.015178791 0.01835711 0.014783661 0.015608148 0.014340641 0.012550411 0.020721657 0.01658901
0.020111052 0.011965971 0.018870957 0.012547918 0.01410632 0.01640398 0.01267172 0.015202776
0.013236083 0.011272564 0.01286267 0.01102616 0.011429699 0.009257304 0.009960641 0.008572777
0.0078114825 0.0076921335 0.0071688187 0.0066537107 0.00600605 0.0057552387 0.0051133228 0.0046408144
0.00383098 0.0034548545 0.0028934744 0.002404406 0.0019115044 0.0017360563 0.0014361843 0.0008683345
0.0005112783 0.000319482 0.00013143208 1.3371949e-05

cdm.Lt_count f4 [100]
00000000: 0000 1343 0000 e842 00c0 d644 00c0 a644
00000010: 0004 2446 00c8 e145 0038 9b45 0048 f245
00000020: 0068 3c46 0038 1346 002c 4c46 0010 2546
00000030: 00ac 2046 00e4 2746 007c 2246 0020 2846
00000040: 00e0 0546 0094 1e46 0018 3946 00a8 3346
00000050: 0048 2546 00f0 2e46 0014 4346 0058 2746
00000060: 0054 2546 0038 3946 0088 2c46 00ec 3446
00000070: 000c 3746 0024 5146 00f0 4346 00c4 3e46
00000080: 0004 4846 0088 4f46 009c 4b46 0000 4746
00000090: 001c 4846 0028 4d46 00c0 3f46 0080 5a46
000000a0: 0020 5146 00ec 5746 00b4 5346 0034 5d46
000000b0: 0070 4946 0020 4c46 00b0 5a46 0010 5046
000000c0: 00f4 4f46 0024 4b46 009c 4e46 00c8 4b46
000000d0: 0028 5246 00bc 4f46 00cc 4c46 0058 5046
000000e0: 00a8 4e46 0028 4a46 0054 4f46 003c 4546
000000f0: 00ec 4746 0000 4a46 0060 4046 0000 4146
00000100: 00a8 3f46 0084 3a46 0064 3846 00e4 3446
00000110: 0024 3646 0010 3446 00a8 2d46 0098 2a46
00000120: 0038 2846 0068 2346 00fc 2046 0020 2246
00000130: 0098 1e46 00c8 1646 0038 1446 00bc 0d46
00000140: 0088 0946 00c8 0646 0044 0146 0070 fb45
00000150: 0010 ea45 0060 e245 0028 d245 0038 c945
00000160: 0090 bc45 00d8 b245 0010 a745 00c0 9745
00000170: 0078 8745 00e0 7045 0020 5345 0000 3745
00000180: 0050 0d45 0080 d244 00c0 8844 0000 c543
147.0 116.0 1718.0 1334.0 10497.0 7225.0 4967.0 7753.0
12058.0 9422.0 13067.0 10564.0 10283.0 10745.0 10399.0 10760.0
8568.0 10149.0 11846.0 11498.0 10578.0 11196.0 12485.0 10710.0
10581.0 11854.0 11042.0 11579.0 11715.0 13385.0 12540.0 12209.0
12801.0 13282.0 13031.0 12736.0 12807.0 13130.0 12272.0 13984.0
13384.0 13819.0 13549.0 14157.0 12892.0 13064.0 13996.0 13316.0
13309.0 13001.0 13223.0 13042.0 13450.0 13295.0 13107.0 13334.0
13226.0 12938.0 13269.0 12623.0 12795.0 12928.0 12312.0 12352.0
12266.0 11937.0 11801.0 11577.0 11657.0 11524.0 11114.0 10918.0
10766.0 10458.0 10303.0 10376.0 10150.0 9650.0 9486.0 9071.0
8802.0 8626.0 8273.0 8046.0 7490.0 7244.0 6725.0 6439.0
6034.0 5723.0 5346.0 4856.0 4335.0 3854.0 3378.0 2928.0
2261.0 1684.0 1094.0 394.0

cdm._denoise_fn.transformer.first.weight f4 [6, 64]
00000000: e57a 89bf 0187 753f 9f73 a8bf 2acb 88bf
00000010: f280 9abf d034 993f 9e14 8ebf f916 bdbd
00000020: d1f7 68bf 2d39 aa3e 7a15 0dbf 075f 79be
00000030: b835 7d3f 98cb 42bf 185d 70be 0fba dabe
00000040: 11ca bfbf bb1f e0be 0a34 5fbf 79c2 073f
00000050: c3fe 15bd d69f 803b eb0d 863f a681 5d3f
00000060: f351 e83e 6dfb f4be f658 c83d 9fe4 2f40
00000070: bc15 2e3e e306 913f d449 9b3e a844 e23f
00000080: 2f0f 45bf 3f3f ea3f 0b9e 9abe bb4b 82be
00000090: 2132 a4bf 45f4 823c 9005 7bbe da79 3ebf
000000a0: e971 903f 7c94 df3e 596b 97bf fbc6 41bf
000000b0: fd51 5fbf f6ea 5ebf 680c 7abf 1e0b 14be
000000c0: 547f 81bf 5d07 b63e d276 cebf fbce ea3f
000000d0: 51c9 733d f76d cb3f a66c 20bf 905c 923f
000000e0: 6089 403f e7c2 95bf a5dc 16bf 460a ecbe
000000f0: 7fff f8bf c424 483f f348 4fbf a6ad 0ebe
00000100: 28f1 943f 411e 1fbf 6b56 bcbf 7309 63be
00000110: b192 5dbf aa02 d03f 3e0b 51be 52a8 733f
00000120: ef21 0540 9e77 7cbf e34d 1c3e 45d9 01be
00000130: 4b9b 92be 63e8 ca3e af4d 633e b659 0840
00000140: 9ea7 613f 5706 4a3d 3f77 2abd 05b1 563f
00000150: 1997 143f 4582 4bbf 4847 ab3e 22d5 163e
00000160: 7b12 0740 bbc8 873f d245 173d 97f7 923f
00000170: b182 bbbf a94e 7dbe f94b 84bf 695e cdbf
00000180: 319d a83d 3227 b4be 9c70 813e 3bf6 223f
00000190: d67d 633f bfc5 75bf 544a 4c3e f605 833f
000001a0: 0364 e8be 30ac 0ebf a609 04bf 9138 17bf
000001b0: 7bf8 d13c 6f30 f2be 5668 4dbd a00c 963f
000001c0: 9bfc 053f c587 5fbe 8135 1c3f d8db 3d3f
000001d0: a6d4 033f 8aad c13f 0b31 06bf 049b 643f
000001e0: 927f 1ebf aafb 90bf fedb 773e b7cf 34bf
000001f0: 8bf8 71bf 26b3 ef3f aa9a 843f 4031 b9bf
00000200: af76 56bd a278 973e d4b2 133f 9fb8 b3bf
00000210: 2c88 5c3f ca23 a1be 1bea 2e3f b7f5 51be
00000220: 3bf1 cdbd f609 f23d dfce dcbc 97b4 a73e
00000230: f68d 073e ffcf 083e 7de1 abbf 0e86 d1bf
00000240: 9db9 813f ae84 f8bf b86c 22be d261 e03f
00000250: 9f00 0d40 1292 27bf 264b ab3f 0245 e2be
00000260: 42f8 0e3f ea43 2f3d 7fdc 8d3e 5d7e 583f
00000270: 2194 1f40 077f 0abd 9db1 a3be c7ab 6ebf
00000280: 8d3a 02ba 953b bf3f b619 853e 3976 10be
00000290: 25b9 083f 6c3a c8bf 151c 343f ccfb 8fbf
000002a0: a3ac 193f bd22 943f 64ea 9d3f d3cf 6cbd
000002b0: 5147 87bf 63ad 813f 1866 3d3e 90b0 363d
000002c0: 7cd7 ad3e b218 9e3e b56a 66bf e91c 23bf
000002d0: 2b26 223f 8d18 3ebe 24de 12bf 6495 a43f
000002e0: 230b 9e3d 42b1 953f 694a e83f 359a bebf
000002f0: 423a 50be 4fe4 81bf b77b b6bf 3f87 303f
00000300: fdca 673f dc6b 073f 8161 61be 13b1 2c3f
00000310: 1461 afbf 98c8 673e 911f 1abf 61a8 90bf
00000320: 1186 d23f fb7d b23f 5416 663f a1c7 b93e
00000330: bf08 093f d39d 30bf 10ec b8bf 40d2 dd3f
00000340: dcdf 72bf 9edf d9be b8b6 aabe 01c4 673f
00000350: cbab 98bf bda4 ce3e 5c2c 133f c6c2 6f3f
00000360: d287 01bf 9262 2b3f 996d a7be 423f 85be
00000370: 3a28 6ebe 3af7 2a3f d68a 12be a083 8dbf
00000380: 4369 47bf dce1 47bf 0a16 883d 47e9 14c0
00000390: 8b12 90bf 5fb7 ccbe 2880 1a3c e81c 14bd
000003a0: 01ea 49bf 3e04 133e fde7 533f c29b 423e
000003b0: a7a2 a43f 3465 293f 11f7 983f 8edf b03f
000003c0: befb 87be dac1 193f 2fd6 463e 68f7 4abe
000003d0: a2d2 cebf 7129 be3f 74f8 ad3f 1e2c 953e
000003e0: d7d8 443f 0057 b43f dc9b bd3e a8a2 3a3d
000003f0: d6a8 c4bf 4401 883e 7535 943f 008a c9bf
-1.074063 0.95909125 -1.3160285 -1.0687001 -1.2070601 1.1969242 -1.1100042 -0.09232897
-0.9100314 0.33246747 -0.55110896 -0.24352656 0.98910093 -0.7609191 -0.23473012 -0.42720076
-1.4983541 -0.43774208 -0.8718878 0.53031117 -0.036619913 0.003925304 1.0472997 0.8652595
0.45375022 -0.47848073 0.09782593 2.748329 0.17000479 1.1330227 0.30329764 1.7677202
-0.76976293 1.8300551 -0.30198702 -0.25448403 -1.2827798 0.015985617 -0.2451384 -0.7440468
1.1284763 0.43667972 -1.1829635 -0.75694245 -0.8723448 -0.8707727 -0.9767518 -0.14457366
-1.0116982 0.35552493 -1.6130011 1.8344415 0.059518162 1.5892934 -0.62665784 1.1434498
0.7520962 -1.1700104 -0.58930427 -0.46101588 -1.9452971 0.781811 -0.80970687 -0.13933429
1.1636095 -0.6215554 -1.4713873 -0.22171573 -0.8655196 1.6250813 -0.20414445 0.9517871
2.0801961 -0.9862002 0.15264086 -0.12680538 -0.28634104 0.39630422 0.22197603 2.1304755
0.8814639 0.049322452 -0.04161763 0.8386386 0.58043057 -0.7949565 0.3345282 0.14729741
2.110503 1.0608133 0.03693182 1.1481808 -1.4649259 -0.24737038 -1.0335685 -1.6044437
0.08233107 -0.35186154 0.25281227 0.6365697 0.88863885 -0.9600486 0.19950229 1.0236194
-0.45388803 -0.5573149 -0.5157722 -0.5907069 0.02563118 -0.47302577 -0.05014833 1.1722603
0.5233857 -0.21829136 0.6101914 0.7416358 0.5149635 1.5131085 -0.52418584 0.89299035
-0.61913407 -1.1326802 0.24205014 -0.7062945 -0.9451987 1.8726547 1.03597 -1.4468155
-0.05235928 0.29584223 0.57694745 -1.4040717 0.8614528 -0.31472617 0.68325967 -0.20503889
-0.10055777 0.11818306 -0.026954113 0.32754967 0.13237748 0.13360594 -1.3428189 -1.6369035
1.013477 -1.9415491 -0.15861785 1.7529852 2.203163 -0.6545726 1.3382308 -0.44193274
0.5584756 0.042789377 0.27707288 0.84567815 2.493416 -0.03381255 -0.31971446 -0.9323086
-0.0004967831 1.4940058 0.25996178 -0.14107598 0.5340751 -1.5642829 0.7035535 -1.1248717
0.6002905 1.1573101 1.2337155 -0.057815384 -1.0568639 1.0131038 0.18495977 0.044601977
0.33953464 0.30878216 -0.9000657 -0.6371599 0.6333949 -0.18564053 -0.5737021 1.285809
0.07716968 1.169472 1.8147708 -1.489081 -0.20334724 -1.0147799 -1.4256505 0.6895637
0.9054411 0.52898955 -0.22009851 0.67457694 -1.3701501 0.22635114 -0.60204417 -1.1301385
1.6447164 1.3944696 0.8987782 0.36285117 0.5352897 -0.6899082 -1.444704 1.7329788
-0.9487283 -0.4255342 -0.33342528 0.90533453 -1.1927427 0.4036006 0.5748956 0.93656576
-0.5059787 0.6694728 -0.32700804 -0.26024824 -0.23257533 0.6678349 -0.14310774 -1.1055794
-0.7789499 -0.7807901 0.066448286 -2.326738 -1.1255659 -0.3998365 0.009429969 -0.03616038
-0.78872687 0.14357087 0.8277586 0.1900473 1.2862138 0.6617005 1.1950399 1.3818223
-0.26559252 0.6006142 0.19417642 -0.1982094 -1.615803 1.4856397 1.3591447 0.2913522
0.7689337 1.408905 0.37032974 0.045565277 -1.5364025 0.26563466 1.1578814 -1.5745239

cdm._denoise_fn.transformer.mlp.0.weight f4 [256, 64]
00000000: 0846 d9bc 58c8 8e3c b83d 793c 34c0 c7bd
00000010: a83d 38bc 7f4a 0bbd 191a 4dbc 8846 973d
00000020: d01e ccbd 173e 333c fbae 013e 87f3 c5bd
00000030: c5b9 663d 54b4 ef3d 321b 3a3d 8f64 7c3d
00000040: b888 41bd 80da 163d 6010 25bd db65 bb3d
00000050: 81f4 e5bd 9f84 f03d 1f96 e1bd d991 17be
00000060: a72e c53d 1b14 8a3c 40a0 8fbd a760 eabd
00000070: 72a7 a3bc 2ef3 acbc 9cf6 37bb 293b f1bc
00000080: 7c16 fc3c c37d 983d c03d b0bd 4efa 9abc
00000090: 15e2 df3d a4e4 ebbd 16c2 a03d 9ef2 68bc
000000a0: 46d9 a93c c7ce 60bd f710 8a3d a7cb 40bc
000000b0: b811 d1bc 296f e83d b72c edbd 162c 9c3d
000000c0: 1e17 aa3d a28e 63bc 601b 17bd e094 fd3d
000000d0: c813 febc 81fd aabd 2463 71bd 2f4d 10be
000000e0: 4176 dabd c09c 73bd 7f70 9f3c 4ba6 5c3d
000000f0: 4327 02be 1ab8 4d3d dfc4 fe3c be8e ef3c
00000100: 7e38 f9bd 1200 bdbd 7cb1 cebb ca17 753d
00000110: 88b8 9bbc a053 98bd e229 653c ff5f 42bc
00000120: d397 bdba fe2a f0bb f55d 55bd b96c d03d
00000130: 1c2e 6d3c ec3e 6a3d b943 9dbd 9b98 99bc
00000140: bf50 de3c 7239 c2bd c79e 9dbd 85e5 04be
00000150: 7dd8 3ebd 7e8f 843b 084f 7bbe 7468 8dbd
00000160: 71d0 793d 392b 86bd 0e5f 863d bbee 763d
00000170: 51fa 91bc 56a7 953d 9911 513e 7c3b f33d
00000180: 4778 5cbb 8718 e73d 019f 6c3d 9039 9c3d
00000190: f665 dfbd c9c5 2a3d 1fb9 eb3d 637b 983c
000001a0: 6a63 08bd c45c 963d d64c 99bd 0f66 e63c
000001b0: c88b e4bd 45bc afbd d6f5 fabd 74b2 aebd
000001c0: 6165 30bc b991 f6bd 2944 adbd 892d 843d
000001d0: e6ed 54bd f1b7 4e3e 1c37 b73d d16a 4fbe
000001e0: 81f3 82be 8ceb 7cbd 2f49 15be a420 0bbe
000001f0: f4ce 7abd b651 ec3d 70fb da3d 7820 c6bd
00000200: 65e2 073e 0388 a0bd 2797 33bd e89d cdbd
00000210: 2377 113e 100e a23d 2955 d43d 451e da3b
00000220: e8b3 9dbd 375a 693d 03d1 37bd 342e d3bd
00000230: e1e0 62bd 8642 553d bd4e c9bd 7367 f3bd
00000240: 1820 c53d 5588 94bd 99fc 973c 6703 063e
00000250: 9ea4 a03c c60a 2cbd b0a0 5e3c 347d d33d
00000260: d40e c7bd 6be7 6b3d 6bfe 4cbd 414d a0bd
00000270: df15 93bb aa33 a63d 6112 ccbd 54b8 d9bc
00000280: 2549 edbc eade 773d 43fc 213d 4ff0 6e3d
00000290: 6c65 a13d 7031 8d3d 19d6 95bc 335b 7abb
000002a0: 1a99 913d a9ed 8e3d 9db9 d5bd ad86 0a3c
000002b0: 2a76 643d 2598 433d 767b 05bc b088 7a3c
000002c0: de20 093d 6a6e 79bd ab13 b53d 0493 a0bd
000002d0: 7b84 b8bd 2e1f d83c 0af8 8e3c db92 ba3b
000002e0: 41c2 f4bd fed1 093c 60b0 fbbd 6144 403d
000002f0: ec38 893d 70b1 91bd fce6 3a3c 023f 8d3d
00000300: 4df1 82bc fe54 133d 3b8e b1bd 1055 ea3c
00000310: edad 123d bed9 893c beb8 a8bd cf2c 123c
00000320: 80b0 a73d 725f d1bd 74d1 bc3a ec6e 2bbd
00000330: 39ef 3fbd ce18 98bd dd8d 0d3d 6c6e 8b3d
00000340: 67ea d1bd 26b8 d43d d91e 7c3d 60be 083c
00000350: 8dfb af3d 5915 ce3c 401e 913c 0d6d 943d
00000360: 0f6f c7bc 6be8 8d3d 49b9 e9bc 4a0e b53d
00000370: 337d 17bc 36f0 87bd cb1d 24bd f18c 06be
00000380: 7633 d9bc 608c 063c c039 b0bd a5ed 85bd
00000390: f85e 853c fdd1 633d a78b 96bd d28a e53d
000003a0: cf01 52bd 025f 68bd 7f46 2c3d c71d c03c
000003b0: 3319 6fbd 4f8c af3c 91ff 883c ec4f e83c
000003c0: 2587 dc3b 39b8 e2bd 9dd3 a4bd 60bb 9e3d
000003d0: a3b5 813d 4707 e83d b241 8d3d be20 363d
000003e0: 43e6 0fbd 8ff6 0b3d dc47 1b3d c195 c3bd
000003f0: 26b2 a0bc 1d5a 10be ccb3 1f3d d136 1abd
-0.026522651 0.017429516 0.015212469 -0.09753457 -0.011245169 -0.034006592 -0.012518429 0.073865
-0.099668145 0.010940096 0.12664406 -0.0966559 0.056329507 0.11704317 0.04543609 0.061619338
-0.047249526 0.03682947 -0.04029882 0.09150287 -0.11228276 0.117440455 -0.110149615 -0.1480173
0.09628039 0.01685529 -0.07012987 -0.11444216 -0.019977305 -0.02111205 -0.0028070575 -0.029447155
0.03077244 0.07445862 -0.08605528 -0.018918183 0.109317936 -0.11518219 0.07849519 -0.014218001
0.020733487 -0.0548847 0.06741517 -0.0117673045 -0.025521144 0.11349327 -0.11580794 0.07625596
0.083051905 -0.013888987 -0.03689134 0.12381911 -0.031015292 -0.08349133 -0.05893244 -0.14091943
-0.106670864 -0.05947566 0.019462822 0.053869527 -0.1271029 0.0502244 0.031099735 0.02924287
-0.12168978 -0.09228529 -0.006307779 0.05983714 -0.01900889 -0.07437825 0.013987036 -0.011863708
-0.0014464803 -0.007329344 -0.052091558 0.10176987 0.014476325 0.057188913 -0.07678933 -0.018749526
0.027138112 -0.09483613 -0.076963 -0.1297818 -0.046593178 0.004045426 -0.24541867 -0.069046885
0.0609898 -0.06551213 0.06561099 0.060286265 -0.017819555 0.073073074 0.20416869 0.1187658
-0.0033641027 0.11283975 0.057768825 0.07628167 -0.109081194 0.04169253 0.115099184 0.018613523
-0.033297934 0.073419124 -0.074853584 0.028124837 -0.11159474 -0.085808314 -0.12253921 -0.08530131
-0.010766358 -0.12039513 -0.08460266 0.06453998 -0.05198469 0.20187356 0.08946058 -0.20255591
-0.25576404 -0.061748073 -0.14578699 -0.1358667 -0.061232522 0.115390226 0.10692489 -0.09674162
0.13269956 -0.07838442 -0.043845322 -0.10039884 0.14205603 0.079128385 0.103678055 0.0066564404
-0.0770033 0.0569708 -0.044877063 -0.10311547 -0.055390242 0.052065395 -0.09829471 -0.11884966
0.09625262 -0.07252566 0.018553065 0.13087235 0.019609746 -0.04200246 0.013588116 0.10326615
-0.09719625 0.057593744 -0.05004732 -0.07827235 -0.004488691 0.08115323 -0.09964443 -0.026577152
-0.028965542 0.06051532 0.039547216 0.058334645 0.07880673 0.06894195 -0.018290566 -0.0038201332
0.0710928 0.06978924 -0.104357935 0.008454961 0.055776753 0.04775252 -0.008147111 0.015291378
0.03347861 -0.060896315 0.08841642 -0.07840541 -0.09009644 0.026382055 0.017452259 0.005693776
-0.119511135 0.008411882 -0.122895 0.04694021 0.0670031 -0.07113922 0.01140761 0.068967834
-0.015984202 0.035969727 -0.086697064 0.028605014 0.0358104 0.01682746 -0.08238362 0.008921816
0.081879616 -0.10223283 0.0014405684 -0.04185383 -0.046859 -0.07426606 0.03455912 0.06808171
-0.10249787 0.10386686 0.061552856 0.00834617 0.085929014 0.025156664 0.01771462 0.07247362
-0.024344949 0.06929096 -0.028530734 0.08840616 -0.009246158 -0.066376135 -0.040067475 -0.13139702
-0.026513796 0.008212179 -0.08604765 -0.06539468 0.016280636 0.055620182 -0.07350855 0.112081185
-0.051271256 -0.05673123 0.042059418 0.023451699 -0.05837364 0.021429209 0.016723426 0.028358422
0.0067299777 -0.11070294 -0.080481745 0.07750583 0.063334726 0.11329513 0.06897296 0.04446482
-0.035131704 0.034170683 0.037910327 -0.09550048 -0.019616198 -0.14096875 0.038989827 -0.037649933

cdm._denoise_fn.transformer.mlp.0.bias f4 [256]
00000000: ac65 993d 15ba 13bd a35b b83c 9030 9ebd
00000010: 5929 42bd 1f94 8dbd 4a5d cc3c 4e43 8f3c
00000020: e64d e0bd b113 b93d a300 8bbd 289b 4b3c
00000030: 018b 06be 5537 c0bd a5de 81bc f05c d9bd
00000040: 9293 10be dd47 debb 0e60 de3b df3d 60bd
00000050: 155d bbbd 8b29 c73d 08a7 1c3d cf6b 093e
00000060: 3092 9e3d c48f dbbb 1a2a 06be 599e d8bd
00000070: 6e29 af3d faaf 22bd 77de c2bd 0fc8 1e3d
00000080: 5cd2 a4bd 2b9d 84bd 9ada 7cbd 01d5 6e3c
00000090: bda0 a3bd f1b7 c93c b262 b93d 47d1 5dbc
000000a0: 0fc6 a03d d5c4 04be ce1d fdbd c631 f1bd
000000b0: 4f9d 183c 5d03 23bd 89c9 253c d6ca 893d
000000c0: fc5c debd 1e6b 963d e5d9 ab3b 1667 c7bd
000000d0: 5939 7a3d 31ea dbbc 0d39 a4bd a4f4 5d3c
000000e0: 9096 d1bb f927 2dbd 401c b0bd 27d7 dfbb
000000f0: ddca ac3b ee12 7fba 0f49 dc3d 6ee6 09be
00000100: bf40 88bd bc27 a8bd b2a0 663d 01bb febd
00000110: 0c9b c93d 198f 8b3d fafa c4bd 68ca 78bd
00000120: 436f ffbd 5da4 293d 997b 2f3c ed82 d7bd
00000130: e983 d43c fea7 e1bc b7b2 c83b 53a6 c4bd
00000140: 6383 dbbd 6eb2 83ba 231e a03d 3843 b4bd
00000150: 58d5 693c ec44 b3bc de3a f43c a759 993d
00000160: a30b e83b 2146 54bc d3ce 6fbd 17df e23d
00000170: 72d9 ca3d bf7f b33d a175 d93d fc76 8c3d
00000180: b5e2 02be 49e6 ebbc f3bd fcbd 1375 cc3d
00000190: 74bf 103d f5ad ecbd 2294 52bb 937f 423d
000001a0: d261 5b3c c447 5d3d 9b7b 97bd 4446 00bd
000001b0: 2a1c d43c 4b31 ffbb c9ad 16be 4878 adbc
000001c0: 7fa7 e13d bbb3 40bd e5ba adbd 6803 81bd
000001d0: f814 dbbb 26a6 93bc d350 9fbd cda0 c53d
000001e0: 90d4 f83c 9c41 0a3c 1280 00be ed51 793d
000001f0: 803d 583c 2d4d fcbd b961 413d 9fe3 1f3d
00000200: 5576 0c3c 7cb1 c1bd f95c 19be 95b3 b63d
00000210: cdc2 393c b1b1 953d 3f29 e53c 508a 393d
00000220: 8440 eebd e572 a83d 046a ebbd 69b9 533b
00000230: 08e3 b83c 8162 a93c 2542 a3bd cf01 e8bd
00000240: ee2b 843d 758c 8f3d f08c a1bd 48b6 d4bd
00000250: f8a4 9abc 03cb fabd a495 343d 96b5 bd3d
00000260: fb9b 46bd c354 8ebc b239 4ebd 0c3e 8e3d
00000270: 4a93 1cbc ade9 eebd c600 cabd 5f5c 92bd
00000280: d28d f2bd 2c6c b8bd 4360 91bd b61a aabd
00000290: c3c6 aebd 5369 53bd ec4e 62bd afe6 d1bc
000002a0: ff27 fcbc 74ba eabb 057b bebd 953a f73c
000002b0: 48f8 493c fb06 08bd 6e43 8e3d 4a9f 553d
000002c0: e9ed 45bd 8f79 a03c 4859 81bd 591e 163d
000002d0: e284 6e3c 4238 d1bd 1350 fbbc 2c1c 08be
000002e0: 174c b93d faab 9fbc 076d 0abe 04f3 173d
000002f0: 92ad c03d cc33 edbd 9b2d 2fbd 4cf2 593d
00000300: dc9f 0f3d f8b2 243d 2c24 dbbd 7ba1 f3bd
00000310: 1e26 27bd dbba 3d3d 7939 ce3c 8f2c 8abd
00000320: 4780 a63b bb50 af3d 4f16 81bc 670e 4cbd
00000330: ea95 9cbc 7733 f6bc 7e44 aabd 2e15 cebc
00000340: 4c9f 1b3d a09e bcbd a7e0 10be 5cf1 263d
00000350: 8b69 00be 042c f33c 67bf e23d 73a1 e93c
00000360: 80ec bebd a0d9 dc3d 504d b3bc 53c9 86bd
00000370: 23af 923d 6bbd 68bd 1ad4 14bd ec4c 92bd
00000380: 2e03 cebd d8e8 41bd e447 8cbd 349b 33bd
00000390: 2e1d 0f3d f544 8c3b 5b3d 973d 62a8 adbd
000003a0: de94 073d db9f 63bb adcc d23d ded5 9abd
000003b0: 496d dc3d f53f a13d fb0b 1bb9 e7a1 b9bd
000003c0: 59f7 aa3d a235 c4bd 7c83 693d 2683 9a3d
000003d0: 0008 ecbb 59f3 86bc b1ff 17bd 7820 5c3d
000003e0: a1b9 a7bd 50cd 99bd afc0 9bbc 4022 843c
000003f0: ff74 3d3d 7be7 033c 265c cc3d 6b69 973d
0.074900955 -0.036066134 0.022504633 -0.07724106 -0.047402713 -0.069130175 0.024946827 0.017488148
-0.10952358 0.09036959 -0.06787231 0.012427129 -0.13138963 -0.09385554 -0.015853235 -0.106134295
-0.14118794 -0.006783469 0.006786353 -0.054746505 -0.09148613 0.097247206 0.03824523 0.13420032
0.07742727 -0.006700488 -0.13101998 -0.105770774 0.08552824 -0.039718606 -0.09515088 0.03876501
-0.08047935 -0.0647529 -0.061731912 0.014577151 -0.07989643 0.024623843 0.09052028 -0.013538665
0.07850277 -0.1296571 -0.123592004 -0.11777072 0.009314849 -0.03979813 0.0101188505 0.06728141
-0.10857579 0.0734465 0.005244481 -0.09736459 0.061089847 -0.02684507 -0.08018694 0.013547096
-0.0063961223 -0.04227445 -0.08599138 -0.006831068 0.0052732066 -0.0009730299 0.10756122 -0.13466808
-0.06652974 -0.08210704 0.056305595 -0.12438012 0.09844026 0.06814403 -0.096181825 -0.060739905
-0.12472393 0.041416515 0.01071062 -0.10523019 0.025941806 -0.027545925 0.00612482 -0.09602036
-0.107184194 -0.0010047683 0.07818248 -0.088018835 0.0142720565 -0.02188345 0.029813226 0.07487803
0.0070814653 -0.012956173 -0.058546852 0.11077707 0.09904756 0.087646 0.10618139 0.06858632
-0.12781794 -0.028796332 -0.123409174 0.09983268 0.035338834 -0.11556617 -0.003213175 0.047484946
0.013390021 0.05402352 -0.07396623 -0.03131701 0.025892336 -0.0077878586 -0.14714731 -0.021175519
0.110182755 -0.047046404 -0.08482913 -0.06299478 -0.0066858493 -0.018023562 -0.07779088 0.09649811
0.030374795 0.008438494 -0.12548855 0.060869146 0.0131982565 -0.123194076 0.047212336 0.039035436
0.008573134 -0.094576806 -0.14976873 0.08920971 0.011337948 0.073092826 0.02797377 0.04529792
-0.11633399 0.082250394 -0.1149483 0.0032306558 0.022569194 0.020676853 -0.079716004 -0.1132847
0.064536914 0.07009212 -0.0788821 -0.1038633 -0.018877491 -0.12245753 0.04408802 0.092631504
-0.0484886 -0.017374402 -0.05034799 0.06945428 -0.009556601 -0.11665664 -0.09863429 -0.07146525
-0.11843456 -0.09005007 -0.070984386 -0.08305876 -0.085340045 -0.051614117 -0.055251047 -0.025622694
-0.03078079 -0.00716334 -0.09300808 0.030179301 0.012327261 -0.033209782 0.06946455 0.052153863
-0.048322592 0.019589214 -0.06315857 0.036650036 0.014558049 -0.102158085 -0.03067783 -0.13291997
0.09047716 -0.019491185 -0.13518153 0.037096992 0.09408106 -0.11582145 -0.042768102 0.053209588
0.035064563 0.04020974 -0.107002586 -0.11896034 -0.040807836 0.046320777 0.02517389 -0.0674678
0.00508121 0.0856032 -0.015757708 -0.049818423 -0.019114453 -0.030053837 -0.08313845 -0.025156584
0.037993714 -0.09209943 -0.14148198 0.040757522 -0.12540261 0.029684074 0.11071663 0.028519368
-0.093224525 0.10783696 -0.021887451 -0.06581368 0.07162311 -0.056821268 -0.03633509 -0.07143578
-0.100592 -0.047341198 -0.068496495 -0.043849185 0.034939937 0.0042806813 0.073847495 -0.08479382
0.033100955 -0.0034732732 0.10292945 -0.07560323 0.10763032 0.07873527 -0.00014786415 -0.090640835
0.08347959 -0.09580542 0.05701016 0.07544546 -0.007203102 -0.01647346 -0.03710908 0.053741902
-0.08189703 -0.075098634 -0.019012777 0.016129613 0.046254154 0.008050795 0.099785134 0.07393154

cdm._denoise_fn.transformer.mlp.2.weight f4 [128, 256]
00000000: d61d 0bbc 70a6 8c3c 1d98 393d 6c2a 5c3d
00000010: f934 a4bc fa96 5dbb 7ed7 513d 554c 2abd
00000020: d886 4f3d a10b 2f3d fc42 f5bc 120b 743d
00000030: 8ced 563d 4239 56bd 2134 613c a775 3c3c
00000040: 0183 27bd 7e26 7c3d 1925 15bd 3ade e0bc
00000050: d913 6f3d a7be 753d 59eb 1b3d 3d9a 423b
00000060: b595 edbb 386a 0e3c 0ee2 3ebd c539 78bd
00000070: 3d80 30bc 949c 1ebd 8959 273d c25b 093d
00000080: 9429 37bd 7a61 74bc 3e2c 40bd 9162 a0bc
00000090: d66b 36bd d56a 113d 7dcc 313d 4549 a63a
000000a0: a05a f3bc 0c54 a33c 5f2d 2f3d 718d 3b3d
000000b0: ecf7 263a f3b0 e5bc 202c 433d 62eb 5c3a
000000c0: 31e3 30bc bdee d2bc 9d81 5ebd 6ae1 a23c
000000d0: b5e0 0ebd 3786 0bbd 9fed e3bc f5aa 403d
000000e0: cc89 b1bc 8530 6cbd fa9f 05bd d652 373d
000000f0: 7a00 d1bc e172 3fbd 5572 d1bb e4b5 10bd
00000100: 5a32 073d cba8 65bc 3074 0d3d 8403 813d
00000110: b8a0 e6bc ee57 bc3c 830c 61bd f814 303d
00000120: 350f 91bb e3a6 1e3d 576b 7ebb 7a94 25bd
00000130: 4acb 023d e0f3 2a3c aa33 5f3d 8810 293d
00000140: de81 713d 3074 67bc e89d 4f3d 39ef 293c
00000150: 6555 abbc 0b30 d83c 93f2 323d b021 59ba
00000160: 2670 66bd 75ef a7bc a312 853c 7738 573d
00000170: e76f 3e3d 86e6 6fbc 62e3 b33b 1d9d c9bc
00000180: be61 bdbc 1ecb 69bc 4f6f 323a 02d1 4a3c
00000190: d099 9939 0188 b13c 657a a5bc 3001 12bd
000001a0: a1e6 7cbd d829 63bc ee38 113d c6c0 313d
000001b0: dea1 0ebd 4d65 ca3b 3ae1 ee3c b88e f8bb
000001c0: d6ad aebc 3c3e d33c f538 15bd bc0d 2dbd
000001d0: f6a8 453d c5fc ce3b 84d9 893c bf77 39bd
000001e0: d44c 193d b2eb b83b 1398 523c 211f d13c
000001f0: b3bc 62bd 1bc3 12bc d7be c23c 7f18 923c
00000200: 3a72 d03c 2f0d fa39 1e35 453d 4001 37bd
00000210: 91a2 6bbd dce3 293d 791e 47bd fa0e 2d3d
00000220: de2f 60bb d075 203d 3112 eebc b0a7 0c3d
00000230: 660d 443d fd50 393c 0c4e 583d 1f12 743d
00000240: 6997 363d d19a d9bb 11fd 8f3b 7377 53bd
00000250: aeaa 74bd 40a2 76bd 691b 0abb 793c 02bd
00000260: 2f05 c13c 58fb 4d3d 8af1 933c 6926 483d
00000270: b36f 713d c077 f63c 2417 66bd 50a3 fb3c
00000280: 985c 413d 807e 38bd aaab 58bc eaa3 1c3c
00000290: adfb 283d 68c6 afbc 6c04 4bbd 6587 c23a
000002a0: dd38 47bd f54f 393c 9f4a 58bd 01ed e33c
000002b0: b009 ad3c a40c 733c 3ecb 0b3d fac8 0dbd
000002c0: 4eba 2a3d 10b2 cb3b 471a d4bc 23f9 363a
000002d0: dd5e 443d d094 113d 9178 6cbc 645a 47bd
000002e0: 0784 34bd 4182 0abc da94 44bc 6306 593d
000002f0: 05d0 163c 6d0f 44bd 75b1 313d d6db 82bc
00000300: c4e2 4f3d f074 823c 631a 6d3d c13a 7a3c
00000310: 9db2 223d d92b 8a3c 0187 a0bc 18ae 8ebc
00000320: dbb4 c13c 7561 aa3c 30de 3f3d 629e 553d
00000330: 83ff 60bc 3e50 643c 824e 9d3b 79e1 c43c
00000340: 611c 823d bb67 063d 9c02 193d 6d88 153d
00000350: 970a 50bd 723d febb b1b1 8cbc 1575 26bd
00000360: 38c8 ec3a 3047 d5bc 9a2a 51bd 9e43 9dbc
00000370: b728 2dbd c9d6 30bd ba37 6b3d 5bc7 943b
00000380: d1a8 a43c c4db b53c 4b44 3ebd dd8e 5dbd
00000390: b134 583d 1d19 51bd d82a 07bd 733a d23c
000003a0: 3321 42bb 0e3f 783b 5811 b8bc 474b d53c
000003b0: 6aca 5c3c b32b 643b 3a58 0fbc 97c2 07bc
000003c0: 2dbf 7bbc bdfc 663d 1d10 a2bc 9664 fdbc
000003d0: f6c8 bdbc ea93 ad3c e041 5dbd a3db 453d
000003e0: 544c e6bc d5d2 b8bc 758b 633d e3f8 35bc
000003f0: 74a9 3abc 999d 053d 442f 353c 0fdf e63c
-0.008491 0.017169207 0.045311082 0.053751394 -0.02004479 -0.0033811913 0.0512309 -0.041576702
0.050665706 0.0427357 -0.029939167 0.05958087 0.052472636 -0.0523007 0.013745339 0.01150266
-0.04089642 0.061560147 -0.036412332 -0.027449716 0.058368538 0.059996273 0.038066242 0.0029693984
-0.0072505125 0.008692317 -0.0466023 -0.06060197 -0.010772762 -0.038723543 0.04085687 0.033534773
-0.044717386 -0.014915818 -0.046917193 -0.01957825 -0.044536434 0.035502274 0.043407906 0.0012686631
-0.0297063 0.019937538 0.04276788 0.045789186 0.00063693407 -0.028038478 0.047649503 0.0008427409
-0.010796354 -0.025748605 -0.054322828 0.019882876 -0.034882266 -0.034063544 -0.027823268 0.047038037
-0.021672152 -0.05766346 -0.03262327 0.044756733 -0.025512923 -0.046740416 -0.0063918033 -0.035329714
0.033007003 -0.014017294 0.034534633 0.06299499 -0.028152809 0.022991147 -0.054943573 0.042988747
-0.0044268616 0.038733374 -0.0038821304 -0.0404248 0.031932153 0.010434121 0.05449263 0.04127553
0.05896174 -0.014126822 0.0506877 0.0103719765 -0.020914743 0.026390096 0.043688368 -0.0008282913
-0.056259297 -0.020499924 0.016244238 0.052544083 0.046493437 -0.014642363 0.0054897526 -0.02461105
-0.023117896 -0.014269618 0.00068067474 0.012378933 0.00029297033 0.021671297 -0.020199964 -0.035645664
-0.061743382 -0.013864957 0.035454683 0.043396734 -0.034822337 0.006176627 0.02916013 -0.007585373
-0.021323126 0.025786512 -0.03643127 -0.042249426 0.048256837 0.0063167536 0.016827352 -0.045280214
0.037426785 0.0056433314 0.01285364 0.025527539 -0.05535574 -0.00895765 0.02377264 0.017833946
0.025445092 0.00047693538 0.04814636 -0.044678926 -0.057528082 0.04147707 -0.048613045 0.04225061
-0.0034208219 0.039174855 -0.029061409 0.034339607 0.04786434 0.011310813 0.052808806 0.059587594
0.04457799 -0.00664077 0.0043941815 -0.051627588 -0.059733085 -0.060213327 -0.0021073467 -0.031795952
0.023562042 0.05028853 0.01805951 0.048864756 0.058944415 0.030086398 -0.056174412 0.030717522
0.047207445 -0.045042515 -0.013224522 0.0095605645 0.04125564 -0.021456912 -0.049564764 0.0014841376
-0.048638213 0.011310567 -0.05280554 0.027822973 0.021122783 0.014834557 0.034129374 -0.034615494
0.04168158 0.006216295 -0.025891436 0.0006979873 0.04794203 0.03554231 -0.014433042 -0.048670188
-0.044071224 -0.0084539065 -0.01199838 0.052984606 0.009204869 -0.047866274 0.043382127 -0.015973967
0.05075337 0.0159249 0.057886492 0.015272797 0.03972112 0.016866611 -0.019595625 -0.017416999
0.023645809 0.020798424 0.046842754 0.052153 -0.013732794 0.013935147 0.0048006186 0.024033295
0.06353069 0.03281377 0.037356004 0.03650706 -0.05079135 -0.0077587897 -0.017174574 -0.040639002
0.0018065041 -0.026034921 -0.05106602 -0.019197281 -0.042275157 -0.043173585 0.057426192 0.0045403666
0.02010003 0.022199519 -0.046451848 -0.054091323 0.052784625 -0.05104934 -0.032999843 0.025662636
-0.002962184 0.003787938 -0.022469208 0.026036872 0.013475994 0.0034816086 -0.008749062 -0.00828614
-0.015365404 0.056393374 -0.019783074 -0.030931752 -0.023167115 0.021188695 -0.0540179 0.048305165
-0.028112568 -0.02256147 0.05555292 -0.0111067025 -0.01139294 0.032621 0.011058632 0.028182535

cdm._denoise_fn.transformer.mlp.2.bias f4 [128]
00000000: a724 46bd fa54 98bb 8551 3abd b4a8 2cbd
00000010: f711 8abd 760a d0bc e7f7 5cbd 7a0b 073d
00000020: 596e 34bc 34ee 503d 86ee 8d3d 39ef 6fbd
00000030: c332 0d3d 0806 1bbc 4ec0 1c3d 2d0f 723d
00000040: 5754 373c 4c90 39bc 50eb 513d ffd2 9d3c
00000050: c3dc 633d 5653 24bd 0a8c 163d c6f8 c3bb
00000060: 0e13 40bd 09b3 113d 5277 d93c a832 aabc
00000070: a7b8 b3b9 8e49 843d 7980 eb3c f18e 9d3c
00000080: cf77 7f3d b3f5 7bbb 5dc3 d53c c6fe 0bbc
00000090: 9e0b 703c 7c3a a63c 469d 21bb 6b9f 3f3b
000000a0: f422 21bd 2f6f 343d b0a8 133c 35d3 adbc
000000b0: a3be 2d3c 6e35 6d3c 50f9 1cbc b61a 933b
000000c0: 009b 393d cc94 2ebd f4a5 883c 824c 38bb
000000d0: 04db 5bbd d080 4a3d 0b44 693b c614 1bbd
000000e0: 41e0 fa3c a925 e33c 004c 31bc 3f4d 043b
000000f0: e1f7 2bbd d3af 1fbd 5a20 40bd 873d 023d
00000100: 74e9 42bd 9783 16bd 6ab4 1ebd 8144 f93b
00000110: 6b35 42bc 9d9a f8bc 797a e93c c31b 5abc
00000120: faca 303d 019c c13c 2d69 c5ba 2c55 c33c
00000130: 4953 613c fedb 03bd 1caf 593d bb8b 093d
00000140: 221b 3fbd 7c4b b33c 1bb5 df3c 5efb 933c
00000150: 69c4 59bc 28b7 71bd 0919 d8bc 13d0 70bd
00000160: 54b8 26bd 52fa 733d 3596 0cbd c411 303d
00000170: d9dc 80bc dc5d 4d3d eaa2 983c 42c8 d83c
00000180: 392f 273b b64e 0e3c 2bdc cbbc 94d1 343d
00000190: ede1 90bc 1b10 5cbd e51c ba3c 0018 50bd
000001a0: d23a 67bd e87f 56bd 5c3b 1ebc 465b 353c
000001b0: 7e46 61bd 2216 07bd 348a 1abd 0b60 8c3c
000001c0: aad9 6b3d f024 0abc 8222 373c 3057 c23b
000001d0: dbc0 633d 9d0e 86bc 9f16 84bd 6629 213c
000001e0: ecd7 8d3d 099a b9bc 64a6 94bb be63 10bc
000001f0: d157 763c 4cca bc3a d7a3 e3bc e0b9 66bd
-0.0483748 -0.004648802 -0.0454879 -0.042153075 -0.06741708 -0.025395613 -0.053947356 0.03296993
-0.011012637 0.05100842 0.0693026 -0.05857775 0.03447224 -0.009461887 0.038269334 0.059096504
0.011189542 -0.011325907 0.051249802 0.01926565 0.055630457 -0.040118538 0.036754645 -0.005980584
-0.046893172 0.03557113 0.026546154 -0.020776108 -0.00034279117 0.06459342 0.028747784 0.019233199
0.062370118 -0.0038446009 0.026094133 -0.008544629 0.014651207 0.02029156 -0.0024660393 0.0029239308
-0.039339975 0.044051345 0.009012386 -0.021218875 0.010604533 0.014478071 -0.009580925 0.004489268
0.045313835 -0.042622373 0.016680695 -0.0028121774 -0.053675666 0.04943925 0.0035593535 -0.037861608
0.03062451 0.027727919 -0.0108213425 0.0020187644 -0.041984443 -0.03898604 -0.046905853 0.03179696
-0.04758592 -0.036746588 -0.038746275 0.0076070433 -0.011853556 -0.030347163 0.028500782 -0.013312283
0.043162324 0.023633959 -0.0015061252 0.023844324 0.013752767 -0.032192223 0.053145513 0.033580523
-0.046656735 0.02188658 0.027308038 0.018064197 -0.013291457 -0.059012562 -0.026379125 -0.058792185
-0.040703133 0.059564896 -0.034322936 0.042985693 -0.015730308 0.05013834 0.018632371 0.026462678
0.0025510325 0.008685758 -0.024885258 0.04414518 -0.017685855 -0.053726297 0.022718856 -0.05080414
-0.05645258 -0.052368075 -0.009657707 0.011069125 -0.054998867 -0.032980092 -0.037729457 0.01713564
0.057580628 -0.008431658 0.011177661 0.0059308037 0.055603843 -0.01636439 -0.06449627 0.00983653
0.069259495 -0.022656457 -0.004536437 -0.008812843 0.0150355855 0.0014403551 -0.027788086 -0.056329608

cdm._denoise_fn.transformer.axial_pos_emb.weights_0 f4 [1, 1, 1, 64]
00000000: c2b7 3b3f bccd 39bf 8353 a93f 2b72 cf3f
00000010: aa5d 3c3f 1dad 2dbf 2aac 313f b407 32bf
00000020: 778d 61be 634c 003f 0692 02bf c7ea 1abf
00000030: a38a cc3f d966 7dbe af41 e7bf 59e7 243f
00000040: 8556 e03e b8af 003f 0547 ac3f 848f 753f
00000050: 9927 423e ab6c d9be 3f81 25be ed64 bf3e
00000060: 3b98 52bf 3c84 10bf 6b46 0ebf c0ce 123f
00000070: aaf9 7f3f 959f 2c3d f1a3 943f 79f3 eb3f
00000080: d9ee 303e 6d40 c83d 6c0e f43e 1469 cabe
00000090: 7346 903f 8cce 99bf bae9 11c0 335a 47bf
000000a0: 5915 0c40 9070 ab3e 9e89 9a3f 9804 663f
000000b0: 84f3 f8bf 58ef b03e 3ddb 25bf e4f7 1840
000000c0: a368 503f d64f 153f 7060 d73f 2ec4 8c3e
000000d0: 13de 61bf 708e 49bf 7c93 a83e ce18 ac3f
000000e0: c0b8 043e 0e76 54bf a304 c73d 8a82 723f
000000f0: 9f81 96bf 36eb 433f f43c 8dbf 49ea 973f
0.7332727 -0.7257955 1.3228611 1.6206716 0.7358042 -0.67842275 0.69403327 -0.69543004
-0.22026621 0.50116557 -0.51004064 -0.6051449 1.5979809 -0.24746265 -1.806692 0.6441551
0.4381601 0.50268126 1.3459173 0.9592211 0.18960418 -0.4246572 -0.16162585 0.37381688
-0.82263535 -0.56451774 -0.555762 0.57346725 0.9999033 0.042144377 1.1612531 1.8433677
0.17278613 0.09777913 0.47667253 -0.39533293 1.1271499 -1.2016158 -2.2798905 -0.7787201
2.188803 0.33484316 1.2073247 0.8985076 -1.9449315 0.34557605 -0.64787656 2.39013
0.8140966 0.58324945 1.6826305 0.27493423 -0.88229483 -0.7873297 0.32925022 1.344507
0.12961102 -0.8299264 0.09717681 0.94730437 -1.1758307 0.7653078 -1.1034226 1.1868373

cdm._denoise_fn.transformer.axial_pos_emb.weights_1 f4 [1, 1, 6, 64]
00000000: d394 b0bf ecd4 8a3e 6051 8ebe f976 063c
00000010: 9417 363f bd4a 0140 193b 1a3e 1f3d 393f
00000020: b113 de3e 790b 01bf a616 c13e 783c 883f
00000030: 9a8d 27c0 f24a 8e3e 37d5 d5be ed1c 6f3f
00000040: 30f4 443f da5f da3e 9e62 5a3c 9b0b 453d
00000050: 055d 8c3e 31ad c23e 3b4b 1ec0 6d02 20bf
00000060: 02d5 813e edb7 7e3f 9df9 e1be 3508 2cbf
00000070: c5be 7d3e 4cef f9be f2ed 0dbc 0e12 abbe
00000080: 25f9 883f 7586 acbf 3e7f 99be 5a6d 603f
00000090: 3e22 d13f 3b7f 8b3e 7ca0 6bbf 5800 3c3f
000000a0: b8ee 82be 6fbb 24bf 76b1 d53e debc c63e
000000b0: 5dc1 bf3f 5138 463e dc48 5dbe b5b9 acbd
000000c0: 8fa7 763f d19b 97bc 9f54 1d3f 6936 85bf
000000d0: 79ec 883e d65d b03e c616 0ebf d456 d13f
000000e0: db3f 2a3e d1ca 873f 73cb d7be dcba 65bd
000000f0: a89b d4bd a761 a9bf 7624 57be c31a 8cbf
00000100: 6a9b 7bbf 6a3f 0e40 0b8b 9bbe d676 6ebd
00000110: 2beb c53e 400e 86bf 4470 b93c 288a 38bf
00000120: 11db 54bf 23fb ce3e cf3a 073f 70c1 973e
00000130: 0dd0 953f 078d 32bd 3487 5ebf 5af2 b23f
00000140: c9eb 5ebf b95a 423e e1a7 8fbd 974b 8bbe
00000150: 0f7b 633f d7e1 d4bf a588 bf3e 9aa5 ac3f
00000160: 8366 0840 291d c13e be31 0640 b7cd 683e
00000170: 1b9c abbf d234 fdbd b0c1 dc3e 98e6 0c3e
00000180: 29af 12be 943f 58bd 90d3 833e 5b7a b3be
00000190: 80f5 f33f 092b c7be cb20 033d 75a3 103f
000001a0: 667b be3f 9f93 ba3f 2233 ccbf cb25 043f
000001b0: a732 2cbf 3922 6ebb ed6e 61be 900f b13e
000001c0: fa92 a73f ae52 fe3e 1dbe 073d bc41 013e
000001d0: 44a6 a43f 8fdf 90be ab33 7f3f ed36 2b3f
000001e0: 33e9 323f b0ff 2dbf 7468 833f f9cd 52b9
000001f0: 29bc 853f 4683 33bd 4ba8 c1bf 1684 9a3f
00000200: 2e3f cc3c 37c4 713f da44 b7bf 0cdc d33f
00000210: e201 e83e 93bb a43e 50de b83e 14f0 39bf
00000220: 6822 d03f 8066 803f 7b17 613e c52b d7be
00000230: 7aa9 cdbb 51dd d9bf 7304 c93e ec94 283f
00000240: 7170 573f de44 b0bf 2ac9 04bf 3d31 c13e
00000250: a0b3 333f 7d64 30bf a6d3 9bbd a809 3abf
00000260: fb58 30bf b6f0 583f d579 47bf eca7 bc3f
00000270: 617c 5d3e 3d3e b6bd 266c 1fbf 189c 4a3f
00000280: 1c19 ff3f a72f 2bbf 58a2 a63f 5b51 a7bf
00000290: 151e 963f 0212 593e 7b58 0c3f 486f f8be
000002a0: f136 423f c599 813f 70d3 e1be 450e d63f
000002b0: 6e6b a7bf 6830 ad3e 41b8 2e3f 9923 6dbf
000002c0: 0057 b8bf 25c5 733f 04de d93e 50f7 01bf
000002d0: 6ee4 61bf e0f0 863e 5220 8ebf e029 363f
000002e0: 218f 8dbf 39fc abbe c884 1dbe 98d1 533f
000002f0: 9aa2 7f3f 82c2 c13d b2e1 54be 5cab 083e
00000300: cede 92bf 6a14 893e 5867 4b3f 95a8 c0be
00000310: 38a1 63bf 2787 55bf f38c 303f 343a cc3f
00000320: 47e9 08be 6385 f8bf 5270 a3be 903d 4c3f
00000330: 46b2 a0be ed03 123e 6080 73bf a17d 953f
00000340: 1d6b a8bd 7c44 febe ce91 88bd fb7f 13bf
00000350: 4b2b 9dbd cf68 843f c56f b5bf 4b83 9d3f
00000360: 2778 023f bb18 7d3f df97 b3be 5f50 2b3f
00000370: ba88 4d3e 132f aa3e 7dc7 b93f c548 663f
00000380: 6980 6abf 3f2d 513e 2aac a5bf adbf df3c
00000390: 8070 81bf a5c8 8ebf a81d 873f bbcb 003f
000003a0: ba8b a23e 205a 453f c819 bf3f a48f 4bbf
000003b0: 872e a13b aa4e 2a3e c900 843e a2e7 c9bd
000003c0: 1b77 89bc 1949 b5be 95a5 bd3f eaa7 803f
000003d0: 02c2 2a3f 5833 093f 1e7d 43be 60bf 213f
000003e0: 2ec7 633f 1a6d 47bd 1969 ad3e cc13 9e3f
000003f0: 0689 ecbe 1ce6 c5be 2914 babf b9fb 5c3f
-1.3795418 0.27115571 -0.2779646 0.008207076 0.7112973 2.0201867 0.15061606 0.7235889
0.43374398 -0.5040813 0.37712592 1.0643454 -2.6180177 0.27791554 -0.41764233 0.9340351
0.769351 0.42651254 0.013329176 0.04810677 0.27414718 0.3802276 -2.4733417 -0.625037
0.25357825 0.994994 -0.44135752 -0.6720002 0.24779804 -0.48815382 -0.008662688 -0.33412212
1.0701033 -1.3478533 -0.2997989 0.8766686 1.6338575 0.27245507 -0.92041755 0.73438025
-0.25572753 -0.643485 0.41736954 0.3881597 1.4980885 0.1935742 -0.21609825 -0.08433858
0.96349424 -0.018506916 0.61457247 -1.040723 0.26742914 0.3444659 -0.555035 1.6354623
0.16625921 1.060877 -0.42147407 -0.056086406 -0.103812516 -1.3232926 -0.21010002 -1.0945667
-0.9828402 2.2226205 -0.3037952 -0.0582188 0.3865598 -1.0473099 0.02263654 -0.7208581
-0.8314677 0.40425977 0.5282411 0.2963977 1.1704117 -0.043591525 -0.86925054 1.398021
-0.8707853 0.1897992 -0.07014442 -0.27206108 0.8885965 -1.6631421 0.3740894 1.3488038
2.1312568 0.3771756 2.096786 0.22734724 -1.3407015 -0.1236359 0.43116522 0.1375984
-0.14324631 -0.052795008 0.25747347 -0.35054287 1.9059296 -0.3890002 0.032013696 0.56499416
1.4881408 1.45763 -1.5953104 0.5162017 -0.6726479 -0.0036336316 -0.22014971 0.34582186
1.3091729 0.49672455 0.03314029 0.12622732 1.286324 -0.28295562 0.99688214 0.66880685
0.69887084 -0.67968273 1.0266252 -0.00020103891 1.0448047 -0.043826364 -1.5129484 1.207156
0.02493247 0.94440025 -1.4317887 1.6551528 0.45313936 0.32174358 0.3610711 -0.72631955
1.62605 1.003128 0.21981613 -0.4202558 -0.0062763067 -1.7020665 0.39261207 0.65852237
0.84155947 -1.3771017 -0.5186945 0.37732878 0.7019596 -0.6890333 -0.07608728 -0.72670984
-0.68885773 0.84742296 -0.77920276 1.4738746 0.21629478 -0.0889859 -0.62274396 0.7914443
1.9929538 -0.66869587 1.3018293 -1.3071703 1.172793 0.21198276 0.5482251 -0.485224
0.75865084 1.0125052 -0.44106627 1.6723105 -1.307966 0.33825994 0.682499 -0.9263244
-1.440155 0.95222694 0.42552197 -0.50767994 -0.8823918 0.26355648 -1.1103613 0.71157646
-1.1059304 -0.33590868 -0.15382683 0.8274169 0.99857485 0.094609275 -0.20789221 0.13346618
-1.1474245 0.26773387 0.79454565 -0.37628618 -0.88917875 -0.8340935 0.6896507 1.5955262
-0.13370238 -1.9415706 -0.3192163 0.79781437 -0.31386012 0.1425931 -0.9511776 1.1678964
-0.08223555 -0.49661624 -0.06668435 -0.5761716 -0.07674273 1.0344485 -1.4174734 1.2305692
0.5096459 0.9886586 -0.35076806 0.6691951 0.20071688 0.3323904 1.4514004 0.8995479
-0.9160219 0.20427416 -1.2943165 0.027313078 -1.0112457 -1.1154982 1.0555925 0.5031087
0.31747228 0.77090645 1.4929743 -0.79516053 0.0049188766 0.1663157 0.2578185 -0.098586336
-0.016780427 -0.35407332 1.4816157 1.0051243 0.6670228 0.5359397 -0.19090697 0.6318264
0.889758 -0.04868803 0.33869246 1.2349792 -0.4619829 -0.38652122 -1.4537402 0.863216
