checkpoints/pair_2/S_6_K_6/ArgmaxAR/16_05_2023__09_52/cktp/checkpoint_0001500.tar (torch, 796123 bytes, 89 tensors)

model.base_dist.loc f4 [1, 3, 1]
00000000: 5bd8 8dbc 6d2f 6bbc 4714 003b
-0.01731508 -0.014354569 0.0019543336

model.base_dist.log_scale f4 [1, 3, 1]
00000000: 8df7 153d a026 ac3c bc15 203d
0.036613036 0.021014512 0.039083228

model.transforms.0.encoder.noise_dist.base_dist.net.weight f4 [6, 32, 1]
00000000: 9d7a ebbd 326c ce3d 4a30 4fbe 08fe 8abe
00000010: 39e6 9f3d aa52 a83d 553c 15be a716 b33c
00000020: af1d 3dbe 1b63 183d a706 67be d995 1abe
00000030: 28d2 583e 8372 34bc 0ec1 e8bd 25f4 613e
00000040: 2d3e 3f3e 6434 a0bd 4f03 9c3d 6d70 953e
00000050: 1666 84bd a482 64be 8c73 333e 334f 38be
00000060: 5427 acbd d556 43bd cb00 e4bd f3b3 bcbd
00000070: ada0 50be 52ec b83d 3a02 a7bc fba2 363e
00000080: 6b8e 363d 039f 9b3d e0e8 4cbe f1b3 3ebe
00000090: 1980 023e 7916 d8bc 9cd0 af3d 89a8 d7bd
000000a0: 5279 a43d 838d 0e3e 1b6c 1dbe d52c 01bd
000000b0: 4caf 153e a4c3 27bd c3fe 05bd 2859 ef3d
000000c0: b419 1d3d d482 143e 6830 f9bc d7b1 f03d
000000d0: ba73 78bd 1cac 18bc 86a1 8a3d ea8c 3ebe
000000e0: 33b2 5cbe bb56 9bbd 7c16 c63d bd04 1fbd
000000f0: 475b 0dbd 2e93 16be 36f2 7fbc d8c1 1e3d
00000100: 902e 183d 44e7 4b3e 5f65 dfbd 0cdc 15bd
00000110: a978 95bd fe17 f23d 2cbf 4abe 98ea 0b3d
00000120: bb3c 72bb 6189 69bd 9b10 96be c972 2ebe
00000130: 7135 4f3e bddb 133d d712 14bc 9091 733d
00000140: 6020 883e fd88 e7bb a7f5 bd3d f99b f33d
00000150: ba56 863d af06 87be d637 593e a868 2fbe
00000160: 08e1 88bd b372 33be 4163 de3d 6c68 5d3e
00000170: 78c1 53be ee32 12be 515c 5b3c 7f26 383c
00000180: db46 febd 8ea0 c2bd b2a0 abbd 8925 b8bd
00000190: 5855 1e3d c4c5 01be ff81 24be 96f9 143e
000001a0: 192e 213e ca37 b5bd 8c39 ffbd 7a07 1b3e
000001b0: 54ab 373e 2236 203e 3b73 713d 138e 8fbd
000001c0: 399c 83bc bfba 293d 7cf8 433e 6de6 8abd
000001d0: 0c41 853c 1223 fd3d 426a 20bd f1ab 5fbd
000001e0: 6576 663d e7c6 e6bd 17ca e13d 17de 373e
000001f0: 3f50 243e e3de bd3d 7c69 18be 3ac4 bc3d
00000200: 23d0 21bc 18ad d43c 3bc9 043d 8d9c dcbd
00000210: 63a7 ebbd 29de 313d a5f0 90bd d5fb aebd
00000220: c91a 84bd 822d e63d e9ee c7bd 7f83 3f3d
00000230: d586 0c3e fdea 0f3d fa9d 7e3d ac71 37bd
00000240: fefe e2bc c0a7 ccbd 2a95 203e c83b 1b3d
00000250: f751 883d 5e91 0a3e 6d98 45be 17b1 293e
00000260: 0472 08be 267f 6ebd 9ae1 793d 6cc1 edbc
00000270: 6c4a fb3c ffd9 ca3d 7c64 953d 2eb4 07be
00000280: 8009 94bd 073c 8d3d 1c9a d23c 443c b43c
00000290: 98dc 263e 8309 0dbe ddae 0fbe b81e e2bd
000002a0: 4881 c7bd 4774 fbbb 9130 cb3d 811c 073e
000002b0: 8b3b edbd b5b6 03bd 98ef 0c3e 6ba5 d63d
000002c0: 1695 3cbd e1b7 f7bd 9923 0f3e 1c7d eb3d
000002d0: 83dd 243d 1182 f2bd 9074 0a3e 086d 0a3e
000002e0: 5c00 b3bd daa5 15be d464 1abe b57a c33c
000002f0: b45f 27bc 1944 273e 0c66 5b3b d060 fc3d
-0.11497996 0.1007923 -0.20233265 -0.27146935 0.07807583 0.08218892 -0.14573796 0.021861387
-0.18468355 0.03720389 -0.22561131 -0.15096225 0.21173918 -0.01101363 -0.11364947 0.2206579
0.18676062 -0.07822493 0.076178186 0.29187337 -0.06464784 -0.2231546 0.17524546 -0.17998962
-0.08405939 -0.04769023 -0.11132964 -0.0921401 -0.20373793 0.090294495 -0.020386804 0.1783561
0.044569414 0.075986885 -0.2001071 -0.1862333 0.12744178 -0.026377903 0.08584711 -0.105301924
0.080309525 0.1392117 -0.1537327 -0.031536896 0.14617652 -0.04095806 -0.032713663 0.11686927
0.03835459 0.14503032 -0.03041859 0.1175267 -0.06065724 -0.009318378 0.067690894 -0.18608442
-0.21552353 -0.07584902 0.09672257 -0.03882288 -0.034510877 -0.14704582 -0.015621712 0.038759083
0.03715378 0.1991244 -0.10908007 -0.036586806 -0.07298405 0.118209824 -0.19799489 0.034159273
-0.0036962468 -0.05701578 -0.29309544 -0.17035975 0.2023523 0.03609823 -0.009037695 0.05946499
0.265872 -0.007065891 0.0927537 0.11894984 0.065595105 -0.26372287 0.21212706 -0.17129767
-0.06683546 -0.17524223 0.10858775 0.21621865 -0.20679271 -0.1427724 0.013388709 0.011239647
-0.12415858 -0.095032796 -0.083802596 -0.08991534 0.03865561 -0.12673098 -0.16065215 0.14548334
0.15740241 -0.088485315 -0.12462148 0.15139571 0.1793645 0.1564565 0.058947783 -0.070095204
-0.016065704 0.04143786 0.19137758 -0.067822315 0.016266368 0.12360205 -0.039163835 -0.054607335
0.056265254 -0.11268406 0.11024874 0.17955814 0.16046236 0.09271028 -0.14883989 0.09217115
-0.009876284 0.025961444 0.03241847 -0.10772047 -0.11506536 0.04342476 -0.07077149 -0.08544127
-0.06450421 0.11239149 -0.09762365 0.046756264 0.1372331 0.03513621 0.062162377 -0.04478614
-0.02770948 -0.09992933 0.15681902 0.03789881 0.066562586 0.13532016 -0.19296427 0.1657146
-0.13324744 -0.058226727 0.061006166 -0.029022895 0.030675136 0.09904861 0.072945565 -0.13252327
-0.072283745 0.06896215 0.02570825 0.022001393 0.16295087 -0.1377316 -0.14031549 -0.110410154
-0.09741455 -0.0076737734 0.09921373 0.13194467 -0.115836225 -0.032156665 0.13763273 0.1048077
-0.046040617 -0.12095619 0.13978423 0.11498472 0.040250313 -0.118412144 0.13521028 0.13518155
-0.08740303 -0.14614049 -0.15077525 0.023862222 -0.0102156885 0.16334571 0.0033477573 0.12323153

model.transforms.0.encoder.noise_dist.base_dist.net.bias f4 [6]
00000000: 34e6 b9bc 80f2 f43d 6cef ec3d 52d0 873b
00000010: c819 c13d 63fb 3ebc
-0.022692777 0.11960316 0.115691036 0.0041447068 0.094287455 -0.011656615

model.transforms.0.encoder.noise_dist.transforms.0.ar_net.lstm.weight_ih_l0 f4 [256, 35]
00000000: 1643 d83d 5277 d2bd e416 a6bd ec5a ff3d
00000010: b3d7 9dbc 831c babc 6cc8 143d 0a47 873d
00000020: 3c32 2abd 3a74 ebbd a6e9 a93c 950b d03d
00000030: f5fb d1bc dee5 e73d bbcf c0bc d148 053e
00000040: f77c 0b3d 2b9f e43d f392 d33d 53fb 513d
00000050: ede1 5fbc b595 75bd 1f0c b23d 8627 b53c
00000060: a6ac 223d 8464 a93c b9ef fcbd 91a0 853d
00000070: bb7c f73c 0764 143e 5227 4d3d fe10 f53c
00000080: f549 a53d d740 663d 7890 fd3d b4b6 c4bd
00000090: 4715 733c 2b1e 45bd e424 4c3c 4539 81bc
000000a0: 1325 e5bd c13d 453d e5f1 3abd c0cf e0bd
000000b0: a0fa 8dbc ccca 93bd eba3 c4bc 611e 07be
000000c0: 8e9a 95bd 4f3a 47bb a5af f0bd 19c1 07bd
000000d0: f93a 9fbc 2814 e9bd 922c 85bd 460a 943d
000000e0: efa6 833c 4ac5 aebd 159d 6b3d ee14 2bbd
000000f0: e562 ebbb 6897 fc3d 9c2d 32bc 9e5b cb3d
00000100: 4af0 01be 3e3a 00be 24e7 67bd 1581 823d
00000110: da04 e43d d1c5 5dbd 5815 a83d d6f1 6f3d
00000120: 1ce5 03bd 955d 023e 2501 5c3c 0360 cb3d
00000130: 98a4 d8bd 727c 5fbd 74dd 073d ced3 013e
00000140: 92dc 01be f15f 633d b469 ecbd d792 7b3d
00000150: 30a7 a8bd e72c 603c a8b4 913d d608 b93d
00000160: 1253 023d 1208 08bc 8e74 6fbd fd47 063d
00000170: f835 853d cc68 c2bd e6ea a23d d221 81bb
00000180: f1cc 88bd 023e 9b3d 4ede bc3c bee9 7d3c
00000190: ab73 9f3c 6f77 9abd fee7 9ebc 4961 45bc
000001a0: 799e cabd 3fbd d03c 1290 c1ba 8a73 d63c
000001b0: 0277 aebd 9182 1fbd e5f9 633d 45ae 00be
000001c0: 19aa cd3d 943c 15bd fa21 d23d a998 9c3d
000001d0: 2a05 d23c 2705 d43d 0b61 14bd 1744 883a
000001e0: 5ffc 823d df5f da3c 6d5d 80bd 2694 f5bd
000001f0: 788a 87bd 6f2c 7e3c e2d3 c6bd 1510 953d
00000200: ed1f 993d 0d65 563d 3791 7dbc f914 8dbd
00000210: 8775 f8bd 36c5 f83c eb5a b93d 189b c93b
00000220: 05dc 17bd 7202 313d ef50 913d efd2 f73d
00000230: 01dd 633b a58b cfbd fceb c63c 4b25 3bbd
00000240: e21f 443d 2c2d 09be 3aa3 d0bc e6cc 8ebd
00000250: 18c6 b9bd f48c ad3d d884 c3bc 3c4a 9ebc
00000260: e87b bcbc e883 f1bc 68ce 413d 9b4e 7cbd
00000270: 3fef 633d 83ed 483d a476 2abd 6683 063d
00000280: 8dbd febc 762e 86bd 5304 a23d d71e 1b3d
00000290: 5a4b 76bd 9db7 ccbd 9878 7cbd 0802 8abd
000002a0: c41a 003d 59be 55bb f848 dabd 4199 27bd
000002b0: 405f 843d 5c1c 12bd 7ace 7a3b 5547 d63d
000002c0: c09c afbd 745d dabd c6b7 013a 83b6 ab3d
000002d0: 2b93 06bc 87e5 f83d 4693 9e3d 2396 0cbc
000002e0: c1fb 313c 7ff8 cdbc 0f60 f13d b4eb e33c
000002f0: 375d 773d 1baa f93c 8b04 03be 803e 3dbd
00000300: a64f c9bc be76 123d 39ca 9fbd d6f9 223c
00000310: 39b2 c13d 4731 f6bc 0068 b53d 0653 58bd
00000320: 3781 333d fa5b aebd 3880 503d 3c59 d3bc
00000330: 047d 8abd 56b3 c83b 0b0d 653d 7d2d f4bd
00000340: 24b3 c4bd 66e8 ddbd a390 89bd e27f ed3d
00000350: 748f 51bc 1849 9a3d 17b1 d63d 2b01 a3bd
00000360: 2cea 7f3d bf02 8fbd 8db0 e6bd f5de 1fbc
00000370: cf5d 85bd 6532 f23d c67e ce3c fdd6 d43d
00000380: 2cba 15bb 9e0b 6f3d 5ffe b73d ef43 11be
00000390: 89c6 97bd 32d2 edbd e83a a1bd 8833 afbd
000003a0: 42fc db3d d305 893d 24dd b2bd 5e8a fbbd
000003b0: a8c0 efbd aa32 09b9 6b5d 703c 7257 8abd
000003c0: 2a00 e9bd d1bf 8c3d 37c1 3dbd fa60 69bd
000003d0: 357a e6bc 4c24 633c 4549 d8bc 3738 143c
000003e0: ba7c edbd 1c9b cd3c 465b bc3d 26fd 6f3d
000003f0: 2673 803d 44ff 083e 0bc6 a4bd 4845 b0bd
0.105596706 -0.10276665 -0.08109835 0.12468514 -0.019267892 -0.022718674 0.03632395 0.066053465
-0.041551813 -0.11496778 0.020741295 0.10158459 -0.025632838 0.113231406 -0.023536554 0.13016059
0.034054723 0.111631714 0.10330763 0.051265072 -0.013664705 -0.059957225 0.08693718 0.022113573
0.03971543 0.020677812 -0.12350411 0.06524766 0.030210843 0.14491282 0.050086327 0.02991533
0.08070747 0.05621418 0.12381071 -0.0960516 0.014836616 -0.048124474 0.012459967 -0.015774379
-0.11188712 0.048154596 -0.045640845 -0.10977125 -0.017331421 -0.07216415 -0.024003943 -0.13195182
-0.073048696 -0.0030399745 -0.117522515 -0.033143137 -0.0194373 -0.113807976 -0.06502642 0.07228522
0.016070811 -0.08533724 0.057522852 -0.041768007 -0.00718342 0.12333566 -0.010875132 0.09929584
-0.12689319 -0.12522218 -0.056616917 0.06372277 0.11133738 -0.05414373 0.08207196 0.058580242
-0.032200918 0.12731011 0.013428007 0.09930422 -0.10578269 -0.05456204 0.03317018 0.12678453
-0.12681797 0.05551142 -0.11543599 0.061419334 -0.082350135 0.013682581 0.071145356 0.090348884
0.031817503 -0.008302705 -0.058460765 0.032783497 0.06504434 -0.09492645 0.079549596 -0.0039407993
-0.066797145 0.075801864 0.023055222 0.015497623 0.019464334 -0.075423114 -0.019397732 -0.01204712
-0.098935075 0.025480865 -0.0014767668 0.02617814 -0.08518793 -0.038942877 0.05565824 -0.12566479
0.10042209 -0.036434725 0.10260387 0.07646305 0.025637228 0.10352545 -0.03622536 0.0010396269
0.06395792 0.026657043 -0.062678196 -0.11991148 -0.06618208 0.0155135235 -0.09708382 0.07278458
0.074767925 0.052342463 -0.015476516 -0.06888766 -0.121317916 0.030367475 0.09050544 0.006152522
-0.03707506 0.043215223 0.07095515 0.12100779 0.003476918 -0.10134057 0.024282448 -0.045689862
0.04788197 -0.13396138 -0.025468457 -0.06972675 -0.090709865 0.0847415 -0.023867056 -0.019322507
-0.023008302 -0.029481843 0.047315985 -0.0615984 0.055648085 0.049054634 -0.04161705 0.032840155
-0.031096244 -0.065518305 0.07910981 0.037871208 -0.060130455 -0.09995959 -0.061638445 -0.06738669
0.031275526 -0.0032614677 -0.10658449 -0.04091764 0.0646348 -0.035671577 0.0038270042 0.10462824
-0.085748196 -0.10662356 0.0004948344 0.08384421 -0.0082137985 0.12153154 0.07742934 -0.008580717
0.010863245 -0.025142906 0.117859 0.027822353 0.06039163 0.03047662 -0.12794702 -0.046202183
-0.024574112 0.035757773 -0.07802243 0.009947261 0.094578214 -0.030052794 0.08857727 -0.052813552
0.0438244 -0.08513637 0.05090353 -0.025799386 -0.06762126 0.006124894 0.055920642 -0.11922739
-0.09604481 -0.10835342 -0.067170404 0.11596657 -0.01279055 0.07533473 0.10482996 -0.07959207
0.062479183 -0.06982946 -0.11264143 -0.009757747 -0.06512033 0.11826018 0.025206935 0.10392568
-0.0022846563 0.05836069 0.08984064 -0.14186071 -0.074109145 -0.11612357 -0.078725636 -0.08554751
0.10741474 0.06690564 -0.087335855 -0.12282251 -0.11706668 -0.00013084212 0.01467071 -0.0675496
-0.113769844 0.068725236 -0.046326842 -0.05697725 -0.028134445 0.013863634 -0.026402125 0.009046606
-0.11596055 0.025098376 0.091970965 0.05859103 0.06271963 0.13378626 -0.08045586 -0.08606964

model.transforms.0.encoder.noise_dist.transforms.0.ar_net.lstm.weight_hh_l0 f4 [256, 64]
00000000: f72b 40bd 9445 b73c fd5a c43d 30a3 a83c
00000010: f77c 54bd 0236 0dbd 23ce c63c 7a53 c13d
00000020: 2171 213d 60d5 a33c 273e 94b9 8075 71bd
00000030: 4020 a3bc 4382 afbd fa14 a03c 0fa4 233d
00000040: fb51 87bd 3230 c43d bdcd 563d 799f a03d
00000050: d336 b93d 779d 88bd 6c3e 8b3d 3a64 2c3c
00000060: 003d 193c c4ef 683d d16d 013d 14f8 f3bd
00000070: 56bf 81bb 02e8 493c ceda 713d 4b09 8c3d
00000080: 45bb fe3c 2913 1b3c 1864 e0bd c766 d4bd
00000090: 81ae 983d 30ca e03c 11bb c5bd e6df 2dbb
000000a0: 1f2d 423d 1c2e 07be 7b59 a03d 0583 493d
000000b0: e783 5ebd 4dd8 bfbd d6ac f33d 01a4 dabd
000000c0: acea 93bd 5934 a3bd f597 5b3d f1d1 c4bd
000000d0: 1b29 22bd 1ba9 abbd 36f0 afbc 079c bf3d
000000e0: 79a2 57bc 4ae7 b93d 1419 923d 8fa0 f23b
000000f0: ddb5 75bd 3039 83bd cb7d ae3d 5063 8e3d
00000100: 899a 0f3d 9b85 f0bb 4ef0 be3d 7a57 b7bd
00000110: cd48 f5bd 0c65 8a3d 0066 00be 99c5 90bc
00000120: 5bb9 7b3d ea9c a1bc a7f1 c0bd 8172 bebd
00000130: e4c0 f3ba 116f c93d 7b94 09ba 1b46 e43d
00000140: d230 df3d 6dfc 6bbd f109 e2bd e238 333d
00000150: aa60 d43d cfd1 04be d731 96bb c3be 673c
00000160: 0101 8ab7 5f19 ffbd 5c1d f9bc 9ddd dabd
00000170: 1fbb d13d 111d f33d 4a76 d3bd 1329 14bd
00000180: f4b9 e13c ee64 223d e7d5 e3bd 92cc acbd
00000190: cd2a 0d3c c257 78bb 845f 0fbd d053 3d3d
000001a0: 4aff 723d 75d8 50bd e590 883d 6325 e23d
000001b0: 7e60 debc bec5 8cbd 8b66 3ebc 324f 003e
000001c0: b829 a23d fedd 1c3d a3e4 573c 967f 39bc
000001d0: 07b4 bfbd c617 bbbd d74c b93d c7f3 94bd
000001e0: 31a3 12bd 96d2 113d 4657 d43c cc3c 843d
000001f0: acc2 133c f89d 22bc 87e3 4bbd 756a 6cbd
00000200: 43ff 20bd 2943 1e3d 66d3 cc3d 8d45 9e3d
00000210: 7ae2 983d ba9c 98bd e77d cd3d d17c 773c
00000220: 96a3 c83d 7868 fbbc 3f9d 0d3e b4e9 d4bd
00000230: 3dd2 c73c b281 d7bd 8422 02be 39ac 0a3d
00000240: bb4b bcbd 065d 6b3c 5819 a2bd 22e8 c03d
00000250: ac19 cfbd a908 923b 8ecc 66bd cca1 e4bd
00000260: beff 3fbd 0d26 063e dc66 01bd 66c8 ccbd
00000270: 08d5 bbbc 8c0e d3bc db44 8abd d0c6 b9bc
00000280: 2f4e f63c 5f99 c73d 36a7 1b3d 8381 9f3c
00000290: 7302 a0bb 95cd 64bd 78c9 4abd 32cd d3bd
000002a0: ded2 30bd 06f4 703c 1c3f 06be 3c54 a2bd
000002b0: 8b86 ba3d ea32 3dbc 4bfe 17bd a6c1 0bbd
000002c0: 5f77 593d aa2c e33c cc68 a73d cc89 adbd
000002d0: 23f0 2a3d 876f b63c 3878 d2bd b635 aa3d
000002e0: 3922 a63c 06bb 8bbd 85f5 db3d 1a50 c43d
000002f0: c9b1 4d3d 9c8e a43d e248 90bc 8133 ce3c
00000300: 3e9e bd3d 37f6 c3bd 9f37 8a3d 335e 8b3d
00000310: e49d 99bd 26f8 e4bc 09e2 113d e619 e33d
00000320: ccf5 01bd 031e 283d 7ab7 94bb 3823 6dbd
00000330: 5415 943c bb3a 0ebe 266a 823d 4322 133e
00000340: 99fd cabc e25c 543d 1f65 37be caa9 9e3c
00000350: 5ea5 c63d dcf2 78bd 6cb6 9c3d 9477 933d
00000360: 2997 b1bd 0e9f cbbc 1fdf 90bd 75ac ea3d
00000370: 0a8d a13d f175 cabd b098 99bd 1b99 dc3d
00000380: 51a1 c63d b640 13be 7b4a 91bd 4cdb 623c
00000390: 1667 723d b74b 103d 1a9f c73d ece8 d8bc
000003a0: 89a4 a4bb bf26 94bd 5797 43bd cb37 da3d
000003b0: fad3 3f3d 5d81 c0bd 0256 84bd 4295 3ebd
000003c0: c3b7 46bd 16a2 01be ecfc 053e 1524 193e
000003d0: 71ae 3c3d fb47 0fbe 5324 5fbd 0dd7 d53d
000003e0: bcd2 fa3c b9a2 84bd a5b4 f13c 460d a1bd
000003f0: 2154 03bd 1daa 9f3d 29c5 fd3b eaf0 b9bd
-0.04691693 0.022372045 0.09587667 0.020585626 -0.05187699 -0.034475334 0.024268216 0.0943975
0.03941453 0.019999206 -0.00028275067 -0.058949947 -0.019912839 -0.08569767 0.019541252 0.03995138
-0.066074334 0.09579505 0.0524423 0.07842917 0.0904366 -0.06670659 0.067990154 0.010521943
0.009352922 0.056869283 0.03159887 -0.119125515 -0.0039595766 0.012323381 0.05904656 0.0683771
0.031095156 0.009465017 -0.10956591 -0.10371166 0.07455159 0.02744016 -0.09654821 -0.002653116
0.047406312 -0.13201183 0.07829567 0.049197216 -0.05432501 -0.09367428 0.118982 -0.106758125
-0.072224945 -0.07968969 0.053611714 -0.09610356 -0.039589982 -0.08381864 -0.021476846 0.09355932
-0.013161295 0.09077318 0.071336895 0.007404394 -0.05998789 -0.06407392 0.08520087 0.06952536
0.035059486 -0.0073401458 0.09323178 -0.08952232 -0.11976776 0.067575544 -0.1253891 -0.017672347
0.061456066 -0.019728143 -0.094210915 -0.09299184 -0.0018596915 0.09835637 -0.00052482606 0.11146184
0.108979836 -0.05761378 -0.110370524 0.04375542 0.1037 -0.1297066 -0.004583578 0.014144602
-1.645135e-05 -0.12456011 -0.030409507 -0.10686801 0.10240769 0.11870778 -0.10325296 -0.036171984
0.02755449 0.039647035 -0.11124783 -0.08437456 0.0086161615 -0.0037894105 -0.0350032 0.046222508
0.059325494 -0.05098768 0.066682614 0.11042287 -0.02714562 -0.06873654 -0.011621128 0.1253021
0.079181135 0.038297646 0.01317707 -0.011321923 -0.09360509 -0.09135394 0.09047859 -0.07273059
-0.035800163 0.03560122 0.025920521 0.064569086 0.009018581 -0.009925358 -0.049777534 -0.057718713
-0.039305937 0.038638268 0.100012586 0.077281095 0.07465072 -0.07451768 0.100337796 0.015105442
0.097968265 -0.030689463 0.13829516 -0.10396138 0.024392242 -0.10522784 -0.12708479 0.03385565
-0.09194132 0.01436544 -0.0791499 0.09419276 -0.101123184 0.004456599 -0.056347422 -0.11163673
-0.046874754 0.13100453 -0.031592235 -0.099991605 -0.02292873 -0.025763772 -0.067514144 -0.022677809
0.030066578 0.0974605 0.03800126 0.019470936 -0.0048831045 -0.05586012 -0.04950854 -0.10341872
-0.04316985 0.014706617 -0.13110012 -0.07926223 0.09107693 -0.011547783 -0.037107747 -0.034120224
0.053092357 0.027731258 0.08174285 -0.08473548 0.04173292 0.022269977 -0.10276836 0.08311026
0.02027999 -0.06822781 0.107401885 0.09585591 0.050218377 0.08035013 -0.017612878 0.025171043
0.09258698 -0.09568446 0.0674889 0.068050765 -0.07500818 -0.027950358 0.035615955 0.11088924
-0.03172855 0.041044246 -0.0045384737 -0.057894915 0.018076576 -0.13889591 0.063679025 0.14368539
-0.024779128 0.051846392 -0.17909668 0.019368071 0.0969951 -0.060778484 0.07651982 0.07200542
-0.0867141 -0.024856117 -0.07073807 0.11458675 0.07888229 -0.09885777 -0.07499826 0.1077139
0.096987374 -0.14380154 -0.07094284 0.01384623 0.05918034 0.035228457 0.09747143 -0.026478253
-0.005024497 -0.07233953 -0.04775175 0.10655173 0.046833016 -0.09399674 -0.06461717 -0.046529062
-0.048515093 -0.12659487 0.13084763 0.1495517 0.046064798 -0.13992302 -0.054478 0.10441408
0.030618064 -0.064763494 0.029505083 -0.0786386 -0.032062653 0.077961184 0.0077444506 -0.09079154

model.transforms.0.encoder.noise_dist.transforms.0.ar_net.lstm.bias_ih_l0 f4 [256]
00000000: 5e3b 83bd ceea 663d 830a b2bc 3391 efba
00000010: f0b7 c0bd 2999 9dbd bddc 9dbd 85a1 b8bd
00000020: 9780 1c3d 2db8 0b3e f3b3 fb3a 4b31 d6bd
00000030: c6a4 e9bc 11cf cb3c 8f7e 04bd e929 84bd
00000040: 74fc 29bc 1260 32bd ca99 73bd b6b8 01be
00000050: ef61 76bd afc7 91bd 9510 783d 9b5b eebd
00000060: 74a2 cebd aa4c fb3c 2ec0 97bd a44b 983c
00000070: 9549 9a3d c8c3 19bd 1e6b 983c d902 003e
00000080: d760 02bd 1951 e2bd 4bcd 463d c07c a2bb
00000090: 1fc4 02be a8ae f0bc b7c3 f6bd 7a6a d93d
000000a0: a957 89bd f71b 973c 4c23 c3bc 2ff3 a43d
000000b0: 0078 8fbc 5692 433d 0bb1 31bd 6424 31bd
000000c0: 5e2b f63b 5080 fb3c 3192 223d 507b ebbd
000000d0: 5212 6f3d db8a e13d e17c a639 ebff c33d
000000e0: 1e0a 9b3d 0c2b bdbd 7bb6 47b9 1623 b6bb
000000f0: d8ce 84bd 3cfa a13d 7681 ecbd 00f5 083d
00000100: f61f e73d 8dad 12bd b506 233d 4df2 623d
00000110: f827 70bd 2d60 ba3d 2b8a a73d 5682 f8bc
00000120: da8d c23d 3e06 6e3d 0891 9fbc 85ce 99bc
00000130: 18b1 13bd 65cd 77bd 7c97 393c 9aee de3d
00000140: 5332 bfbd 1bd3 653d a64f bfbc 866a dd3d
00000150: 5413 923c e2cb 953b cd98 d93d 1256 0c3d
00000160: ff3d db3d ab7c 8c3d 7885 363d 9e33 b43d
00000170: a442 4b3d 3de6 26bd a916 263d 424c 953c
00000180: bfd6 6d3d 690f e33d 8147 7b3c 48c0 cebc
00000190: 4ad0 2b3c c9c9 953d 6eb3 acbc 8b26 b0bd
000001a0: 01d7 83bc e504 973d bbdc 0a3e 0711 3bbd
000001b0: 4228 cdbd 9a72 a03d 9655 b8bd 6074 a03b
000001c0: ba92 013a 25b7 163e 1f76 0bbd 4a6f ca3d
000001d0: e3af d7bd 12d3 bc3d feb5 bebc c0bc 92bd
000001e0: 96bc 143d 9590 313c c38b e5bc 1baf b03d
000001f0: 883a 9bbd f1d5 663d 8aac 543d a1c2 9a3d
00000200: 64ba a63d 5500 debc 0ad0 963d e608 25bd
00000210: 2781 b3bd 026c e53d aca4 1ebd b5eb a2bd
00000220: ad07 cf3d 03fb 1bbd 34e0 e5bd cfd6 8f3d
00000230: 7385 85bd 4c47 7c3d 0c2b bf3d 8db1 15bd
00000240: 8689 cdbd 2601 a33d bdbb e2bc 6f90 72bd
00000250: 8c87 e83d 33ba e6bd 4cb5 c7bd 7f0c af3d
00000260: d078 ffbb 3281 9bbc 7ab5 583d 1554 babd
00000270: cdc7 8f3d 8ea0 98bd ed27 2a3d b21a e23d
00000280: 01a0 b03b 2f9f 0fbd 5163 d6bd ccff 053e
00000290: ea32 d1bd 9808 cfbd c02c aa3d 6555 a1bd
000002a0: 5d5d a1bc 7b0e 93bd 719e 58bd 2283 a6bc
000002b0: 421d 89bd 602a ffbd 22e6 bf3c 1a86 d3bd
000002c0: f5f6 bb3d 8145 053d 8a60 8a3c aee9 dabc
000002d0: 48e0 4ebd f5a0 623d e061 5ebd 4f70 cb3d
000002e0: 9e9f 6b3d 7f18 a7bd 3246 7e3c 4713 b73d
000002f0: 2b64 cf3d 5103 6b3c 9795 52bd 67e5 8dbd
00000300: c6f9 d0bd 58b4 233d 33ec 90bc 6337 96bd
00000310: 91e6 a73d 6608 413d a1dc 363d e69a bf3a
00000320: 39ad a53d 9836 b4bd 9c7c e5bc 4a77 883c
00000330: ac67 49bd 4e46 64bd 458c 213d ec74 103d
00000340: 7a63 9cbd 9ba3 d0bd feef 90bc 640f 07bd
00000350: 5413 f93d be5b 31bd 4929 863d 8f88 bf3d
00000360: 386b 0b3e c7a2 c53d 0280 2fbc f24e 413d
00000370: 8c06 e5bc e163 313d 97b3 a8bd 5817 b4bd
00000380: 5036 e7bd c4f0 56bc 66b6 f23b 11c6 963d
00000390: f204 e1bd 76a4 86bc 13bf 8cbc 9529 52bc
000003a0: 317b 863d cf7f a1bd 7064 3a3d b839 c1bd
000003b0: 6fb0 b1bd 48ad fcbd 1f39 f7bb 5b76 943d
000003c0: 5b37 b0bd eea0 af3d f825 51bd 34f3 d0bc
000003d0: af18 edbb 9c2b a93d 1305 0e3d 615d bebd
000003e0: a832 b93d f990 693d 2db8 53bc d06c 9cbc
000003f0: 6998 933c 666f f5bd fb78 cdbd 54df b23c
-0.06407808 0.05637627 -0.021733528 -0.0018277526 -0.09410083 -0.076952286 -0.07708118 -0.090151824
0.03820857 0.13644476 0.0019203409 -0.10458621 -0.028520953 0.02487901 -0.03234726 -0.06453306
-0.010375131 -0.04354865 -0.059472837 -0.12668118 -0.06015199 -0.07118165 0.06056269 -0.11638566
-0.10089579 0.030676205 -0.07409702 0.018590756 0.07533566 -0.037540227 0.018605765 0.12501086
-0.031830635 -0.110506244 0.048535626 -0.004958719 -0.12770127 -0.029380158 -0.120490484 0.10616012
-0.06706173 0.018445952 -0.023820542 0.08054196 -0.017513275 0.04774698 -0.043381732 -0.043247595
0.007512494 0.030700833 0.0396902 -0.11498129 0.05836708 0.11012813 0.0003175503 0.09570297
0.07570289 -0.09236726 -0.00019046098 -0.005558382 -0.06484765 0.079090565 -0.1154813 0.033436775
0.11285393 -0.035810042 0.03980132 0.055406857 -0.058631867 0.09100375 0.0818065 -0.030335587
0.09499712 0.05811142 -0.019478336 -0.018775234 -0.03605756 -0.060498614 0.011327621 0.108853534
-0.093357705 0.05610953 -0.023353409 0.10811333 0.017831482 0.004571424 0.106248476 0.03426177
0.10705184 0.06859716 0.04456088 0.08798908 0.0496241 -0.040746916 0.040548954 0.01822484
0.058066126 0.11086924 0.015336872 -0.025238171 0.010486672 0.07313878 -0.021081652 -0.086011015
-0.016093733 0.073739804 0.13560764 -0.045670535 -0.10017444 0.078343585 -0.09000699 0.0048966855
0.00049428234 0.14718302 -0.034048196 0.09884508 -0.105315946 0.09219946 -0.02328014 -0.071649075
0.036312662 0.010837694 -0.028020745 0.08627149 -0.07579523 0.056356374 0.05192236 0.07556654
0.0814102 -0.027099768 0.07363899 -0.04029169 -0.08764868 0.112022415 -0.038731262 -0.07955114
0.10108886 -0.03808118 -0.11224404 0.07023393 -0.06519594 0.06159143 0.093343824 -0.03654628
-0.10035996 0.079592034 -0.027677411 -0.059219774 0.113539785 -0.112659834 -0.097513765 0.08547305
-0.0077963844 -0.018982504 0.052907445 -0.090980686 0.07020531 -0.074524984 0.041541982 0.11040248
0.0053901677 -0.03506392 -0.10468162 0.1308586 -0.10214789 -0.10109061 0.08309317 -0.07877616
-0.01969784 -0.07180496 -0.052885476 -0.0203262 -0.066950336 -0.12459254 0.023425166 -0.10328312
0.09177963 0.032536987 0.016891737 -0.026722755 -0.05050686 0.05532928 -0.05429256 0.099335305
0.05752527 -0.08158969 0.015519666 0.08939224 0.101265274 0.014344052 -0.05141219 -0.06928521
-0.102038905 0.03996691 -0.017690754 -0.07334783 0.08198274 0.04712715 0.044644002 0.0014618307
0.0808968 -0.087994754 -0.02801352 0.016658444 -0.049171135 -0.05573111 0.039440412 0.035267755
-0.07636161 -0.10187455 -0.017692562 -0.032973662 0.1216189 -0.043300383 0.06550843 0.09352218
0.1361512 0.09650188 -0.010711672 0.04719443 -0.027957223 0.043308143 -0.08237379 -0.08793515
-0.11289656 -0.013118926 0.0074069975 0.07361997 -0.10987271 -0.016435843 -0.017180955 -0.012827297
0.06566466 -0.07885706 0.04550594 -0.09434837 -0.0867623 -0.12337738 -0.007544651 0.07249137
-0.08604308 0.08575617 -0.0510616 -0.025506593 -0.0072356085 0.08260271 0.034672808 -0.09295154
0.09042865 0.057023022 -0.012922329 -0.019094855 0.01801701 -0.11984138 -0.10032841 0.021835007

model.transforms.0.encoder.noise_dist.transforms.0.ar_net.lstm.bias_hh_l0 f4 [256]
00000000: 0b6e 4bbd a657 31bd dcf5 e4bd 22eb bdbd
00000010: 42cb 42bd 71ed 3abb fa55 ebbd 5281 12be
00000020: b4bf 0c3e caf0 743d a329 543d 6761 b93d
00000030: b673 f83d c653 3d3d 5ede e23d 3561 1dbc
00000040: 4fc6 b4bd 42e8 85bd 93f5 9dbd 9187 68bd
00000050: c9b7 9d3d ece7 ae3d db65 dcbd ee00 0f3d
00000060: 1046 983d 6cd8 b3bd aef9 c53c 0cda da3c
00000070: 25b3 613c b80e 053e fb24 783d b8cd bfbd
00000080: 6716 2fbd fcf2 5a3d 2e82 6b3c 8c96 cdbd
00000090: a82e aabd a84a 833a 34b8 f03d bbe9 7dbd
000000a0: a292 b63d 405a 93bd f706 b6bd c818 993d
000000b0: 606d 09be c350 883d 1af1 a73d 9087 af3c
000000c0: 18ae f13c 39d4 163d ee69 aebc e4f7 1f3d
000000d0: cebb 003d e440 9d3d 4adf ce3d cf5c b33d
000000e0: d2ab 953d f1b1 db3c efe0 bdbd a385 d63c
000000f0: 0ba8 c6bd ee9e 95bc cf23 183c 95cd 08be
00000100: f1d7 0fbd e0d9 1a3d 800d 20bd 0524 1c3e
00000110: ccab 2d3d 3b95 963d e6e0 a13b 8c4d e4bd
00000120: 6508 013e 06f3 c5bd 2fd2 96bd 0f2a 243d
00000130: 4a40 98bd b329 1c3d 8a1e 03bd 8567 5cbd
00000140: 1071 57bb 782e 6b3b 65e9 b1bd 8ad1 02bd
00000150: c9b1 233b da41 11bd 3e3d 7a3d 4690 ce3d
00000160: 5ce5 623d 2970 d93d fb2f aa3d 825b 7bbd
00000170: fac7 d83c 21e2 cbbc 4a63 82bd 105e a43d
00000180: eb75 ef3c 8172 c6bc 4e85 b13d 6226 003e
00000190: ca6b a4bc c9f0 06be 947e fe3d 623b 7fbd
000001a0: 189f a03d be5e e93d 421e 813d 2add 74bd
000001b0: f954 1c3b 23e1 b6bd 61f4 e8bc 07f3 083e
000001c0: 831f 9e3d c9f9 6e3c e8d9 49bd 223d 983d
000001d0: b69b 6dbd ac79 b0bd 1963 d43b f79c 0cbd
000001e0: 8876 dfba 3bee 9dbc 0950 e33d e237 a53c
000001f0: c434 d33d cb86 c0bd 7e6a 083e bc38 3a3d
00000200: 35f4 053e ab91 babd 95f2 56bd abee 4a3d
00000210: 2bfc c33d 0c60 82bd 464a 69bc 4823 2dbd
00000220: faf2 f4bb 6cc0 afbd 23ea ffbc 0ddd 10be
00000230: b0f2 25bd 4d21 71bc 47eb 013e 2be3 6abb
00000240: 0890 863c 1d0e fb3c ed3f bd3d 33e9 91bd
00000250: 51e3 12bd 35da 3b3c 9ed7 883d 3734 98bd
00000260: be4a 883d 70a6 b3bd 9656 4dbd 4a50 ddba
00000270: 3501 b9bc 56a4 82bd 7fbd 373c 5205 f63d
00000280: 654b 70bd b5ac f9bc cabf 0cbe dc4a 473d
00000290: 8a1e a53d 5617 cb3d 8405 7abd 7bc3 f33d
000002a0: e6ef 04bc d5f3 903c 6ef0 053e 78ec 903d
000002b0: acd7 81bc 8f91 98bc aebb a23d a18b 503d
000002c0: cb9c d3bd 7098 42bd 528b bf3d 1271 b43d
000002d0: e403 ffbd 728f f23d 0840 bb3c 0a48 363d
000002e0: 2889 033e 25c2 913d bc6c d7bd d8a4 5bbd
000002f0: 9da4 e33d e77e d23d b31d abbd 286f 21bd
00000300: d319 3e3d 3dfc 9cbd 2064 15bd 760d 553d
00000310: 9438 3cbd 59f8 d2bd dd24 403d e75d bc3b
00000320: 38ca 963d 8abd 143d 9077 a33d 114f b9bd
00000330: 1eed 6bbd d151 e5bd dc16 debd 9774 a43c
00000340: 942a 923c 8562 e83d 1ab0 9d3d 9766 35bd
00000350: b004 da3d 630f e2bc 5705 adbc c370 9b3d
00000360: 41f3 c13d 2e82 6cbd 5344 53bd f942 e6bd
00000370: f237 11be b1fe 52bc 593e d9bd aa18 11bd
00000380: 7723 b1bd c3ff a6bc 1644 6e3d 6df4 efbd
00000390: 4274 b0bd f95a c43d 30b0 2e3d ac88 47bd
000003a0: 0af7 83bd d93f ea3d 67a1 a4bd 3c93 a8bd
000003b0: 1f4f 763b a2e6 cd3d d5ac a2bd 10e9 2a3d
000003c0: 33b8 8b3d 6147 933b 3ca6 b83d 14a3 cdbd
000003d0: f2f7 c7bc bd5f 7b3d eb0c c0bc bbd1 563d
000003e0: a848 b6bd 1c25 c63c 5046 8dbd 200e 7bbc
000003f0: b567 033c a469 cc3d 7870 cbbc ebfa 11bd
-0.049665492 -0.04329648 -0.111797065 -0.09273364 -0.047557123 -0.0028522874 -0.11491008 -0.14307144
0.13745004 0.059799947 0.05179752 0.09051781 0.12131445 0.04622247 0.110775694 -0.0096056955
-0.08826887 -0.0653844 -0.07712855 -0.05676991 0.0770107 0.08540329 -0.10761615 0.034912996
0.07435238 -0.087815136 0.024166908 0.026715301 0.013775622 0.12993896 0.060582142 -0.093654096
-0.042745974 0.053454384 0.014374299 -0.1003848 -0.0830968 0.0010016756 0.11753884 -0.06199048
0.08914687 -0.07194948 -0.08888047 0.0747543 -0.1342063 0.06656029 0.08200283 0.021426946
0.02950196 0.036823485 -0.021290746 0.039054766 0.031429105 0.076783925 0.10101183 0.08757936
0.07308163 0.026818248 -0.09271418 0.02618677 -0.097000204 -0.01826426 0.009285881 -0.13359673
-0.035118047 0.037805438 -0.039075375 0.15248115 0.042400166 0.07352682 0.00494014 -0.111476034
0.12600859 -0.09665494 -0.07364308 0.040079173 -0.07434137 0.038125705 -0.032011546 -0.05380966
-0.0032873787 0.0035885852 -0.086870946 -0.031938113 0.0024977794 -0.03546319 0.06109356 0.10086112
0.055394515 0.10617096 0.08309933 -0.061366566 0.026462544 -0.0248881 -0.06366594 0.080257535
0.029231032 -0.024224522 0.08668004 0.12514642 -0.02007093 -0.1317779 0.124264866 -0.06231249
0.07842845 0.11395024 0.06304599 -0.05978123 0.0023854359 -0.0892966 -0.028436841 0.13373958
0.07720854 0.014585921 -0.049280077 0.07433535 -0.058009826 -0.08616957 0.00648154 -0.03432938
-0.0017048875 -0.019278636 0.1109925 0.020168249 0.103127986 -0.0940071 0.13321874 0.045464262
0.13081439 -0.09109815 -0.052477438 0.049544018 0.095695816 -0.06365976 -0.0142389 -0.042269975
-0.007475254 -0.085816234 -0.031239575 -0.14146824 -0.040514648 -0.014717412 0.12687407 -0.003584097
0.016426101 0.030646378 0.092407085 -0.07124557 -0.035861317 0.011465599 0.06681751 -0.07431834
0.06654881 -0.0877198 -0.050131403 -0.001688489 -0.022583583 -0.06379001 0.011214613 0.120127335
-0.05866565 -0.030477861 -0.13745037 0.048655376 0.080624655 0.0991656 -0.061040416 0.11902519
-0.008113837 0.017694393 0.13079998 0.07076353 -0.01584991 -0.018624095 0.07945953 0.05091441
-0.1033264 -0.047508657 0.09352745 0.08810629 -0.12451914 0.11843766 0.02285768 0.044502296
0.1284529 0.07117108 -0.10518786 -0.053624004 0.11115382 0.10278111 -0.08355274 -0.039412647
0.046411347 -0.07665298 -0.03647244 0.05201479 -0.045952395 -0.10301275 0.046910156 0.0057484987
0.07362789 0.03631357 0.07981789 -0.09048284 -0.05759918 -0.11197246 -0.10844204 0.020075126
0.017842568 0.11346916 0.07699604 -0.04428729 0.10645425 -0.027595228 -0.02112071 0.07589867
0.09470225 -0.057741337 -0.05157883 -0.11243243 -0.14181498 -0.012878106 -0.10607595 -0.035423912
-0.086493425 -0.020385629 0.0581704 -0.117165424 -0.086159244 0.09587664 0.042648494 -0.048714325
-0.06443603 0.11437959 -0.080385976 -0.08231208 0.003758378 0.10053755 -0.07943121 0.041726172
0.068222426 0.004494593 0.09016082 -0.1004087 -0.024410222 0.0613706 -0.02344366 0.05244611
-0.08900577 0.024187617 -0.06898177 -0.015323192 0.008020331 0.09981087 -0.024833903 -0.035639685

model.transforms.0.encoder.noise_dist.transforms.0.ar_net.l_out.0.weight f4 [33, 64]
00000000: 03be 0cbe 3328 9dbd b6d8 813c 8ed1 cc3d
00000010: bdb5 a23d 7523 83bb 69dc 87bd 31d8 023e
00000020: 681a 813c d6f4 b83d d87a be3d 83aa 0e3e
00000030: f493 6a3d 0461 4a3b 5c9a 10bb d98b 7ebd
00000040: 7386 5e3d cb07 1dbc 718a a63d 061a ff3d
00000050: 9317 73bd 0931 fb3c 191f 25ba 3500 973c
00000060: 9ef6 963c 1781 133c c212 02be 3040 cebd
00000070: fd59 3a3b f732 19bd 5192 8e3d 2f6f fabd
00000080: 1287 d43c 81d0 763d 3a0b 0b3e accf dfbd
00000090: 16b4 d83c 641b c5bd 43a9 e7bd c6d4 fbbd
000000a0: ed3d 88bc 0085 993d 0bd5 7abc 125c f9bd
000000b0: 0451 96bd dd66 033e 8dd7 59bd d2f0 fd3d
000000c0: 970e 86bd 085e 93bd 36b9 733c 31d4 89bd
000000d0: 236a a2bd 7512 343d 6a65 343d 7d53 713d
000000e0: ea31 bdbb 21f0 9dbb c94f d2bd 4827 0d3e
000000f0: 0327 8f3d 70a4 00be 2ef9 69bd 7859 0a3d
00000100: e253 af3d 3358 e23d f8eb ddbd d51e 7a3b
00000110: 97dd 57bd 9454 04bd 8ede 9cbd daac 0dbc
00000120: c2d1 b33d e4b9 55bd fb2f 8a3d 6d66 ac3d
00000130: 3de8 a7bd 34ce 16bd 5294 7cbd 1e7b b43d
00000140: 4a05 af3d c167 67bd 2cb4 f9bd a907 ce3c
00000150: 9568 bd3d c9a6 663d dd09 7b3d 9e6e d83d
00000160: 6353 043e 05b8 bfbd d4f7 6e3d 3fe0 99bd
00000170: 1ba9 4e3d 4181 f4bd 9b56 a3bc 6d0b acbd
00000180: dd8a cfbd 779a ebbb e341 243d 31dd f43d
00000190: dffe 49bc 026c d43d 7748 da3d 4e73 183d
000001a0: 97ae dabd 1652 8a3d b2a7 ce3d ae06 5bbc
000001b0: 6011 84bd 4a0f 6e3d 5105 59bd c41d 0bbe
000001c0: e325 84bd 41d7 81bd 9541 82bb 1a2f 23bd
000001d0: c3a7 a7bd 2451 6f3d 4ca9 d5bd def0 a8bb
000001e0: ec21 693d 1266 04be 66bd dabd 3b5d ae3d
000001f0: 1ce0 8e3b 8feb 133c c942 fabd cf4b 9b3d
00000200: 81a6 9ebd cd86 1f3d b8e4 883d a2cb f23d
00000210: 0ee5 0abe 1843 e0bd e0cc 523d e6d9 d83d
00000220: a1c3 d6bd 6bc0 a43c 9d13 04be f030 b0bd
00000230: 0f40 e1bd d588 f83b 960a 90bb 5771 c9bd
00000240: 80c9 dbbd 6812 113d 9dbe cc3d f22e e9bd
00000250: 7da4 09bd a93f a8bd 27f5 0bbd 098f bebd
00000260: ce68 463d 1348 8c3d 3dac 663d f7db 91bd
00000270: 9f16 523d 0462 25bd 94f5 d3bd 77c1 9ebc
00000280: 3b7c a73c ae4b e9bd 8471 4a3d 3eb5 b03d
00000290: 814c dc3c 23d0 373d 6ecd 813d 53e3 eebd
000002a0: b4ba 80bd 9bb0 d63c a50f dcbd 6c8b 7f3c
000002b0: a89d cf3d bcb8 e7bc de38 da3d 1470 c83c
000002c0: 6168 bbbd a268 47bd 3d84 e23d 64b4 cbbd
000002d0: 24ac 953d eacc 88bd b697 973d 285c df3d
000002e0: 4996 a23d 48d6 efbd 04c8 073b e89a 6ebd
000002f0: 805b fb3d 56f8 cdbd 96c8 6dbd f314 d8bd
00000300: f933 babc 63d4 353d 9ce4 e53d cb82 843d
00000310: a366 4f3d 40d5 2c3d 8a1c 0f3c a533 aabd
00000320: c78f 9abb 25db d7bd c2c5 aabd 672b d73d
00000330: 30ed 783d 96ba ecbc cb6d d4ba 258c 7abc
00000340: c1e9 bf3d 0cec d43d 58de babd 2383 2ebd
00000350: 6f35 4d3d f68a dbbb debc 913d 443e 0d3d
00000360: f808 87bd b3d6 10be f7a6 923d 017b 83bd
00000370: 9a10 033e 168e 43bd e4f2 87bd fb9b 233d
00000380: f312 57bc 1057 04be 0074 9e3d c45b 313d
00000390: 8a5b d13d 17cb ab3d 0b50 253d f490 8bbd
000003a0: bdc5 ea3d d456 f93d f595 bcbc b83f c4bd
000003b0: 3d3a 1f3d 808f 923d d787 153d aa41 2cbd
000003c0: 6a4e a9bd 12d8 5ebd 3565 b2bd 7aca aabd
000003d0: 1f9c 103d fa6c 5c3c 3ab0 2d3d d972 fabc
000003e0: e7bc dbbd 2fb5 ffbd fb4c 9dbd 41fc 92bd
000003f0: 4ec9 d1bd e2cf 3f3d 9d34 67bd 07c1 dc3d
-0.13744359 -0.07673683 0.015850406 0.10000907 0.0794482 -0.0040020295 -0.06633837 0.12777783
0.015759662 0.09031074 0.09300774 0.13932233 0.057270005 0.003088058 -0.0022064662 -0.062145088
0.05432744 -0.0095843775 0.08131874 0.124561355 -0.059348654 0.03066303 -0.00062988844 0.018432716
0.018428143 0.009002945 -0.12702468 -0.100708365 0.0028434985 -0.03740212 0.069615014 -0.12228238
0.025943313 0.06025744 0.13578501 -0.10928282 0.02645306 -0.09624365 -0.11311581 -0.12296443
-0.016631091 0.07496071 -0.015309582 -0.12175764 -0.07339671 0.12832208 -0.05318408 0.123994485
-0.065457515 -0.071956694 0.014875701 -0.067299254 -0.079304 0.043962914 0.04404203 0.05891751
-0.0057737725 -0.0048198854 -0.10269124 0.13784516 0.06989863 -0.12562728 -0.057122402 0.03377673
0.08560921 0.11051979 -0.10836023 0.003816535 -0.05270156 -0.032307222 -0.076596364 -0.008647168
0.087802425 -0.052179232 0.06747433 0.08417974 -0.08198593 -0.036817744 -0.061664887 0.08812545
0.08545931 -0.05649543 -0.12192568 0.025150137 0.09248463 0.056311402 0.061288703 0.105679736
0.12922435 -0.09361271 0.058341816 -0.07513475 0.05045424 -0.11938716 -0.019938758 -0.08400617
-0.10133908 -0.0071900445 0.040101897 0.119562514 -0.012328832 0.10372163 0.10658353 0.037219338
-0.106778316 0.06753938 0.10090579 -0.013368292 -0.064486265 0.05812005 -0.052983586 -0.13585573
-0.06452539 -0.063398845 -0.003975103 -0.03983984 -0.08186295 0.05842699 -0.104326814 -0.0051556667
0.056917116 -0.12929562 -0.10680656 0.08513876 0.004360212 0.0090283295 -0.122197695 0.07582819
-0.07746602 0.038946915 0.0668425 0.11855246 -0.1356394 -0.10950297 0.051464915 0.10588436
-0.10486532 0.020111283 -0.12898107 -0.08603084 -0.10998546 0.007584671 -0.004395793 -0.09836071
-0.107317924 0.035417944 0.09997294 -0.11385907 -0.033604134 -0.08215267 -0.034169342 -0.093046255
0.048439793 0.068496846 0.056316603 -0.07122033 0.051291104 -0.040376678 -0.10349575 -0.01937936
0.02044498 -0.11391388 0.049424663 0.08628319 0.026891949 0.04487623 0.06338011 -0.116644524
-0.06285611 0.026207259 -0.107451715 0.015597206 0.101374924 -0.02828633 0.10655378 0.024467506
-0.09150768 -0.04868377 0.11060379 -0.09946516 0.07308224 -0.06679709 0.074019834 0.10906249
0.07938821 -0.11710793 0.0020718584 -0.0582532 0.122733116 -0.10057132 -0.05805262 -0.10550871
-0.02272986 0.044392 0.112252444 0.06470259 0.05063499 0.04219556 0.008734832 -0.08310632
-0.0047168466 -0.105398454 -0.083385006 0.10506325 0.060773075 -0.028897565 -0.0016207037 -0.015292202
0.09370757 0.10396585 -0.0912444 -0.04260553 0.050099786 -0.006699915 0.07116102 0.03448321
-0.065935075 -0.14144401 0.07160752 -0.064199455 0.12799302 -0.047742926 -0.066381246 0.039943676
-0.013127076 -0.12923837 0.07736969 0.043300405 0.10222538 0.08388346 0.040359538 -0.06814757
0.11463497 0.12174764 -0.023020724 -0.09582466 0.0388739 0.07156277 0.0365065 -0.04205481
-0.082669094 -0.05440528 -0.0871071 -0.083394006 0.03530514 0.013453716 0.04240439 -0.030572342
-0.1072939 -0.1248573 -0.076806985 -0.0717702 -0.10243474 0.046829112 -0.05644666 0.107790045

model.transforms.0.encoder.noise_dist.transforms.0.ar_net.l_out.0.bias f4 [33]
00000000: f6f0 843d 02af 2e3d 749a 033e 55fb 84bd
00000010: 17ec cfbc 2b01 903d 6be1 84bc b877 9abd
00000020: 83f9 d03c fcf2 aebd c67c c8bd 1962 b63c
00000030: 8add dc3d 3ff3 273d d894 b83d 6260 c73d
00000040: dc30 26bd 57e3 c4bd bf6a 803b aef6 52bb
00000050: 3ba4 893d 5108 5bb9 e821 b13d ead8 493d
00000060: 1ac5 d63d 3957 babd 0f0c 07bd dd5f 093e
00000070: da76 a6bd 8336 273d 7166 d63d 002e a5bc
00000080: 66fb c1bd
0.06491272 0.04264737 0.12851888 -0.0649325 -0.025381131 0.07031473 -0.016220769 -0.07542366
0.025509601 -0.08542439 -0.09789424 0.022263573 0.10784443 0.041003462 0.09012765 0.097351804
-0.04057394 -0.09613674 0.003918975 -0.003219049 0.067207776 -0.00020888566 0.08649045 0.04927913
0.10486813 -0.09098668 -0.032970484 0.13415475 -0.08128138 0.04082347 0.10468758 -0.020163536
-0.094717786

model.transforms.0.encoder.noise_dist.transforms.0.ar_net.l_out.1.first_token f4 [1, 1, 33]
00000000: 114b 143e f640 29ba 73e7 81bc f49d 61be
00000010: c873 743e 0024 7cbd 45bf 5fbe 9f1f 71be
00000020: 5f07 efbd 4be4 e5bd 78f1 243e 3206 47bd
00000030: 1973 263e f49b f43d 47eb 7f3e cd76 123e
00000040: f529 063e 3087 603e 7aac 923d 5a67 fd3c
00000050: 3a12 8b3d 5c0e e53d 761f 0bbd 65f2 44be
00000060: c403 f13d 52b0 06be 5ab0 8bbe eb4f 26be
00000070: ddab 3c3c 81d1 1abe 480a 37be 2e93 403e
00000080: 90cb 57be
0.1448176 -0.00064565183 -0.015857434 -0.2203291 0.23872292 -0.06155777 -0.21850307 -0.23547219
-0.11671328 -0.11225184 0.16107738 -0.048589893 0.16254844 0.11943808 0.24992095 0.14303131
0.13101943 0.2192657 0.071618035 0.03093307 0.06790586 0.111843795 -0.03396555 -0.19233091
0.11768296 -0.13153198 -0.27282983 -0.16241424 0.011515585 -0.15118982 -0.17875016 0.18806145
-0.21073747

model.transforms.0.encoder.noise_dist.transforms.0.autoregressive_net.lstm.weight_ih_l0 f4 [256, 35]
00000000: 1643 d83d 5277 d2bd e416 a6bd ec5a ff3d
00000010: b3d7 9dbc 831c babc 6cc8 143d 0a47 873d
00000020: 3c32 2abd 3a74 ebbd a6e9 a93c 950b d03d
00000030: f5fb d1bc dee5 e73d bbcf c0bc d148 053e
00000040: f77c 0b3d 2b9f e43d f392 d33d 53fb 513d
00000050: ede1 5fbc b595 75bd 1f0c b23d 8627 b53c
00000060: a6ac 223d 8464 a93c b9ef fcbd 91a0 853d
00000070: bb7c f73c 0764 143e 5227 4d3d fe10 f53c
00000080: f549 a53d d740 663d 7890 fd3d b4b6 c4bd
00000090: 4715 733c 2b1e 45bd e424 4c3c 4539 81bc
000000a0: 1325 e5bd c13d 453d e5f1 3abd c0cf e0bd
000000b0: a0fa 8dbc ccca 93bd eba3 c4bc 611e 07be
000000c0: 8e9a 95bd 4f3a 47bb a5af f0bd 19c1 07bd
000000d0: f93a 9fbc 2814 e9bd 922c 85bd 460a 943d
000000e0: efa6 833c 4ac5 aebd 159d 6b3d ee14 2bbd
000000f0: e562 ebbb 6897 fc3d 9c2d 32bc 9e5b cb3d
00000100: 4af0 01be 3e3a 00be 24e7 67bd 1581 823d
00000110: da04 e43d d1c5 5dbd 5815 a83d d6f1 6f3d
00000120: 1ce5 03bd 955d 023e 2501 5c3c 0360 cb3d
00000130: 98a4 d8bd 727c 5fbd 74dd 073d ced3 013e
00000140: 92dc 01be f15f 633d b469 ecbd d792 7b3d
00000150: 30a7 a8bd e72c 603c a8b4 913d d608 b93d
00000160: 1253 023d 1208 08bc 8e74 6fbd fd47 063d
00000170: f835 853d cc68 c2bd e6ea a23d d221 81bb
00000180: f1cc 88bd 023e 9b3d 4ede bc3c bee9 7d3c
00000190: ab73 9f3c 6f77 9abd fee7 9ebc 4961 45bc
000001a0: 799e cabd 3fbd d03c 1290 c1ba 8a73 d63c
000001b0: 0277 aebd 9182 1fbd e5f9 633d 45ae 00be
000001c0: 19aa cd3d 943c 15bd fa21 d23d a998 9c3d
000001d0: 2a05 d23c 2705 d43d 0b61 14bd 1744 883a
000001e0: 5ffc 823d df5f da3c 6d5d 80bd 2694 f5bd
000001f0: 788a 87bd 6f2c 7e3c e2d3 c6bd 1510 953d
00000200: ed1f 993d 0d65 563d 3791 7dbc f914 8dbd
00000210: 8775 f8bd 36c5 f83c eb5a b93d 189b c93b
00000220: 05dc 17bd 7202 313d ef50 913d efd2 f73d
00000230: 01dd 633b a58b cfbd fceb c63c 4b25 3bbd
00000240: e21f 443d 2c2d 09be 3aa3 d0bc e6cc 8ebd
00000250: 18c6 b9bd f48c ad3d d884 c3bc 3c4a 9ebc
00000260: e87b bcbc e883 f1bc 68ce 413d 9b4e 7cbd
00000270: 3fef 633d 83ed 483d a476 2abd 6683 063d
00000280: 8dbd febc 762e 86bd 5304 a23d d71e 1b3d
00000290: 5a4b 76bd 9db7 ccbd 9878 7cbd 0802 8abd
000002a0: c41a 003d 59be 55bb f848 dabd 4199 27bd
000002b0: 405f 843d 5c1c 12bd 7ace 7a3b 5547 d63d
000002c0: c09c afbd 745d dabd c6b7 013a 83b6 ab3d
000002d0: 2b93 06bc 87e5 f83d 4693 9e3d 2396 0cbc
000002e0: c1fb 313c 7ff8 cdbc 0f60 f13d b4eb e33c
000002f0: 375d 773d 1baa f93c 8b04 03be 803e 3dbd
00000300: a64f c9bc be76 123d 39ca 9fbd d6f9 223c
00000310: 39b2 c13d 4731 f6bc 0068 b53d 0653 58bd
00000320: 3781 333d fa5b aebd 3880 503d 3c59 d3bc
00000330: 047d 8abd 56b3 c83b 0b0d 653d 7d2d f4bd
00000340: 24b3 c4bd 66e8 ddbd a390 89bd e27f ed3d
00000350: 748f 51bc 1849 9a3d 17b1 d63d 2b01 a3bd
00000360: 2cea 7f3d bf02 8fbd 8db0 e6bd f5de 1fbc
00000370: cf5d 85bd 6532 f23d c67e ce3c fdd6 d43d
00000380: 2cba 15bb 9e0b 6f3d 5ffe b73d ef43 11be
00000390: 89c6 97bd 32d2 edbd e83a a1bd 8833 afbd
000003a0: 42fc db3d d305 893d 24dd b2bd 5e8a fbbd
000003b0: a8c0 efbd aa32 09b9 6b5d 703c 7257 8abd
000003c0: 2a00 e9bd d1bf 8c3d 37c1 3dbd fa60 69bd
000003d0: 357a e6bc 4c24 633c 4549 d8bc 3738 143c
000003e0: ba7c edbd 1c9b cd3c 465b bc3d 26fd 6f3d
000003f0: 2673 803d 44ff 083e 0bc6 a4bd 4845 b0bd
0.105596706 -0.10276665 -0.08109835 0.12468514 -0.019267892 -0.022718674 0.03632395 0.066053465
-0.041551813 -0.11496778 0.020741295 0.10158459 -0.025632838 0.113231406 -0.023536554 0.13016059
0.034054723 0.111631714 0.10330763 0.051265072 -0.013664705 -0.059957225 0.08693718 0.022113573
0.03971543 0.020677812 -0.12350411 0.06524766 0.030210843 0.14491282 0.050086327 0.02991533
0.08070747 0.05621418 0.12381071 -0.0960516 0.014836616 -0.048124474 0.012459967 -0.015774379
-0.11188712 0.048154596 -0.045640845 -0.10977125 -0.017331421 -0.07216415 -0.024003943 -0.13195182
-0.073048696 -0.0030399745 -0.117522515 -0.033143137 -0.0194373 -0.113807976 -0.06502642 0.07228522
0.016070811 -0.08533724 0.057522852 -0.041768007 -0.00718342 0.12333566 -0.010875132 0.09929584
-0.12689319 -0.12522218 -0.056616917 0.06372277 0.11133738 -0.05414373 0.08207196 0.058580242
-0.032200918 0.12731011 0.013428007 0.09930422 -0.10578269 -0.05456204 0.03317018 0.12678453
-0.12681797 0.05551142 -0.11543599 0.061419334 -0.082350135 0.013682581 0.071145356 0.090348884
0.031817503 -0.008302705 -0.058460765 0.032783497 0.06504434 -0.09492645 0.079549596 -0.0039407993
-0.066797145 0.075801864 0.023055222 0.015497623 0.019464334 -0.075423114 -0.019397732 -0.01204712
-0.098935075 0.025480865 -0.0014767668 0.02617814 -0.08518793 -0.038942877 0.05565824 -0.12566479
0.10042209 -0.036434725 0.10260387 0.07646305 0.025637228 0.10352545 -0.03622536 0.0010396269
0.06395792 0.026657043 -0.062678196 -0.11991148 -0.06618208 0.0155135235 -0.09708382 0.07278458
0.074767925 0.052342463 -0.015476516 -0.06888766 -0.121317916 0.030367475 0.09050544 0.006152522
-0.03707506 0.043215223 0.07095515 0.12100779 0.003476918 -0.10134057 0.024282448 -0.045689862
0.04788197 -0.13396138 -0.025468457 -0.06972675 -0.090709865 0.0847415 -0.023867056 -0.019322507
-0.023008302 -0.029481843 0.047315985 -0.0615984 0.055648085 0.049054634 -0.04161705 0.032840155
-0.031096244 -0.065518305 0.07910981 0.037871208 -0.060130455 -0.09995959 -0.061638445 -0.06738669
0.031275526 -0.0032614677 -0.10658449 -0.04091764 0.0646348 -0.035671577 0.0038270042 0.10462824
-0.085748196 -0.10662356 0.0004948344 0.08384421 -0.0082137985 0.12153154 0.07742934 -0.008580717
0.010863245 -0.025142906 0.117859 0.027822353 0.06039163 0.03047662 -0.12794702 -0.046202183
-0.024574112 0.035757773 -0.07802243 0.009947261 0.094578214 -0.030052794 0.08857727 -0.052813552
0.0438244 -0.08513637 0.05090353 -0.025799386 -0.06762126 0.006124894 0.055920642 -0.11922739
-0.09604481 -0.10835342 -0.067170404 0.11596657 -0.01279055 0.07533473 0.10482996 -0.07959207
0.062479183 -0.06982946 -0.11264143 -0.009757747 -0.06512033 0.11826018 0.025206935 0.10392568
-0.0022846563 0.05836069 0.08984064 -0.14186071 -0.074109145 -0.11612357 -0.078725636 -0.08554751
0.10741474 0.06690564 -0.087335855 -0.12282251 -0.11706668 -0.00013084212 0.01467071 -0.0675496
-0.113769844 0.068725236 -0.046326842 -0.05697725 -0.028134445 0.013863634 -0.026402125 0.009046606
-0.11596055 0.025098376 0.091970965 0.05859103 0.06271963 0.13378626 -0.08045586 -0.08606964
