checkpoints/sort_1/S_6_K_6/ArgmaxAR/16_05_2023__09_25/cktp/checkpoint_0004000.tar (torch, 796187 bytes, 89 tensors)

model.base_dist.loc f4 [1, 3, 1]
00000000: 1812 35bc bb98 56bc fb78 ee3c
-0.011051677 -0.013097937 0.029110422

model.base_dist.log_scale f4 [1, 3, 1]
00000000: e99d 5f3d 8965 633c 4411 993d
0.054593954 0.013879188 0.07473996

model.transforms.0.encoder.noise_dist.base_dist.net.weight f4 [6, 32, 1]
00000000: 01f8 39be d2aa 903d 77bc 6fbe 4c9d 88be
00000010: f49f 823c ed6a 1e3e e2f7 14be 6448 5a3d
00000020: cbb6 56be 3d7b ff3b f280 6ebe dc82 3cbe
00000030: 059c 553e 8e5a 8ebd e35e 38be 2290 443e
00000040: 62a2 2f3e c31b cabd 3c88 ad3d 8df9 923e
00000050: e37b 6abd 897c 4fbe 5524 353e c8c6 18be
00000060: 76bf b1bd c006 87bd e294 1abe 3d99 debd
00000070: f4bb 47be 49f6 863d c477 053d a162 3f3e
00000080: 543a 5a3d 806f d93d cea5 45be 71c4 53be
00000090: 968d 253e 760b 25bd b6cb 943d ac96 05be
000000a0: e188 be3d 0042 1b3e d141 28be ef5c 0ebd
000000b0: 9892 213e 265d 8dbd b7bf eebc 8c76 1a3e
000000c0: 8304 713d bd8d 563e 37c2 94bc 7212 f23d
000000d0: cd97 d6bd c12d 443c c314 8c3d 89d8 5fbe
000000e0: faae 6cbe 922d bfbd ae2e d53d fec2 27bc
000000f0: 7e49 40bd 3259 40be 6c7a f2bb 66f6 7a3d
00000100: 7381 16bd b849 143e a61c 04be d76c 9ebc
00000110: 7722 1ebe 2bbe 453e bb50 3abe 740b a83d
00000120: 8977 ecbc d2fc a5bd 1697 93be e187 55be
00000130: 9516 413e 9b29 b4bd 5cfe aebd fc49 8a3c
00000140: fc18 663e 20f7 4fbd e543 c43d 9eae e43d
00000150: 9730 9c3d e76e 7ebe 3b84 523e 1f83 e2bd
00000160: 8ea1 64bd 7c38 2fbe 374e 073d 3ed4 183e
00000170: 5ed9 31be 9193 27be 26a8 953d 6e69 473c
00000180: e831 00be 7ab2 b9bd 4954 b0bd 7ae7 a6bd
00000190: a722 e43c 21fb eebd 8a33 1cbe d386 083e
000001a0: aa48 1d3e 3f63 a4bd 404c febd 108b 1e3e
000001b0: eb3a 343e 0b87 263e b401 523d 1261 9dbd
000001c0: 2c64 79bc 280e 333d 096c 393e a3ce 90bd
000001d0: 092d 9e3c 771a e73d 7a58 06bd 753b 4cbd
000001e0: 41db 5e3d 187e e2bd 7219 b03d 7655 1a3e
000001f0: bf57 1a3e a41a d73d d066 0abe e270 ae3d
00000200: a7db fabc 5ebc c43c babb 3c3c 03ee d8bd
00000210: e580 0abe 0314 983d 2bc4 96bd bc71 85bd
00000220: 30bd a4bd 013a c93d 337c d5bd a569 293d
00000230: 069f 0f3e 9cfb 093d 4ab3 213d f80d 51bd
00000240: 4dab fcbc d553 fdbd 65e5 1d3e 45c7 353d
00000250: e8a2 8b3d a98b ef3d b9ea 3bbe 0571 2e3e
00000260: 8a4b 0bbe 1bd1 79bd 763f 9c3c 196c 5abd
00000270: d021 eb3c 19c4 c03d 4acd 823d 3223 02be
00000280: 30e6 73bd 9558 903d b924 ee3c 9000 f03c
00000290: fe7f 203e 3d78 1bbe 8fab 0abe 5cd0 c8bd
000002a0: b70a a9bd 54b0 e93a 4d61 d33d 6490 163e
000002b0: 0066 f1bd ee9d 7bbc 9556 193e 1c75 cc3d
000002c0: 399c 4cbd ca53 b9bd de30 073e fb96 e23d
000002d0: fd49 213d b81a febd 8841 fe3d 634d 0a3e
000002e0: 5489 a8bd 9ebb 0ebe 59c7 07be d357 e63c
000002f0: dd96 a8bb fb6b 2d3e 218d 443a 9aa6 ef3d
-0.18161012 0.070638314 -0.23411737 -0.26682508 0.015945412 0.15470476 -0.14547685 0.053291693
-0.20968167 0.0077966736 -0.23291376 -0.18409294 0.20860298 -0.06950866 -0.18004946 0.19195607
0.17151788 -0.098685764 0.0847325 0.28706017 -0.057247054 -0.2026235 0.17689641 -0.14919579
-0.086790964 -0.06593084 -0.15095857 -0.10869072 -0.19505292 0.06589944 0.03258492 0.18689968
0.053278282 0.1061697 -0.1930153 -0.20680405 0.16167292 -0.040294133 0.07265417 -0.13045758
0.09303451 0.15161896 -0.16431357 -0.034756597 0.15778577 -0.06902532 -0.029144151 0.15084285
0.058842193 0.20952506 -0.018159015 0.118199244 -0.104781725 0.011973799 0.068398975 -0.21859945
-0.23113623 -0.09334864 0.10409294 -0.010239361 -0.046945088 -0.18784025 -0.0073998477 0.06127014
-0.036744546 0.14481246 -0.12901554 -0.019339008 -0.15442835 0.19310825 -0.18194859 0.082053095
-0.028865593 -0.08104862 -0.28826207 -0.20852615 0.1885627 -0.08796998 -0.08544609 0.016880982
0.22470468 -0.050772786 0.09583262 0.11166118 0.07626455 -0.24846993 0.20558254 -0.110601656
-0.055818133 -0.17111391 0.033033576 0.14924714 -0.17368075 -0.16364886 0.073074624 0.0121711325
-0.12519038 -0.09067245 -0.08609826 -0.081496194 0.027848555 -0.11668993 -0.15254036 0.13332681
0.1535975 -0.08026742 -0.12416887 0.15482736 0.176006 0.16262452 0.051271155 -0.0768453
-0.015221637 0.043714672 0.18107618 -0.07070663 0.019308584 0.11284345 -0.03279922 -0.04986139
0.054408316 -0.11059207 0.08598603 0.15071663 0.15072535 0.10503128 -0.13515782 0.085176244
-0.030622317 0.024015602 0.011519367 -0.10592272 -0.13525732 0.07425692 -0.07361635 -0.06515834
-0.08043897 0.098255165 -0.1042408 0.041360516 0.14025506 0.03368722 0.039477624 -0.051038712
-0.030843401 -0.12369505 0.15419538 0.04437949 0.06818181 0.1169656 -0.18351258 0.17035301
-0.13603035 -0.060990434 0.01907323 -0.053325746 0.028702646 0.09412403 0.06386812 -0.12708738
-0.059545696 0.07048146 0.029070245 0.029297143 0.15673825 -0.15182586 -0.13542007 -0.098053664
-0.08253997 0.0017829039 0.10321293 0.14703518 -0.11787033 -0.015357478 0.14974435 0.09983274
-0.049953673 -0.090491846 0.13202235 0.110639535 0.0393772 -0.1240744 0.12414843 0.13506083
-0.08229318 -0.13938758 -0.13259639 0.02811805 -0.0051449374 0.16935723 0.00074978365 0.117016986

model.transforms.0.encoder.noise_dist.base_dist.net.bias f4 [6]
00000000: ab06 d8bc 97df 093e 30d1 cf3d 17e5 fbbb
00000010: dfd3 a13d ccf2 94bc
-0.026370367 0.13464199 0.10147321 -0.0076872217 0.07901739 -0.01818218

model.transforms.0.encoder.noise_dist.transforms.0.ar_net.lstm.weight_ih_l0 f4 [256, 35]
00000000: 56c8 bb3d 720f e7bd ea75 bdbd 3f35 0f3e
00000010: b516 f0bc 9396 65bb 0bfa 443d c589 8c3d
00000020: 6452 8abd b550 dcbd 43b8 783c 6c55 f43d
00000030: e898 2dbd 813c 073e e9fa 1c3b 0cb4 eb3d
00000040: 2ed5 5a3d 1676 0d3e 4aa2 b93d c2a0 0c3d
00000050: 9bb0 85bc d337 93bd f06f 973d 1ad2 b33c
00000060: ff04 683d 656f 47ba b554 e9bd 4b93 9f3d
00000070: 8918 243d 83b1 193e a931 2e3d 1d9a 5d3d
00000080: 5046 b63d e663 1e3d 5bcc e73d aeb7 d4bd
00000090: bc55 063c 2d21 68bd 8540 b53c d05c b6bb
000000a0: be56 cfbd 54b6 223d a902 14bd 2971 fdbd
000000b0: 4a1a 6bbc 4bb5 92bd 2d4c d3bc cf6b fcbd
000000c0: 4580 a4bd 5cf6 2cbc 822b efbd 2362 17bd
000000d0: 13bf fbbb d10c cfbd 2f55 62bd 5b0c 9e3d
000000e0: 234d 8f3c 8ea4 b2bd 6e75 7e3d ee1d 76bd
000000f0: 7339 a9bb 194c e13d 2dbd 05bc 008d d23d
00000100: 3a8b d4bd 0a2e e3bd 3c3a 7ebd e58a 953d
00000110: f205 e13d 4256 6bbd c9be 913d d3f2 653d
00000120: 713c d2bc b968 0e3e cc77 933c 93f6 c23d
00000130: a8f4 dabd 1392 17bd 66fa a93c 9176 053e
00000140: 665f 09be 6674 853d 72be e7bd 18e3 883d
00000150: 4f72 9fbd dde6 873c ad10 8a3d b0cb c83d
00000160: e4c7 1a3d ed9d 2cbc 2985 6dbd 0bc3 e43c
00000170: 17cc 843d 29a4 c8bd 89e3 a53d efc7 35ba
00000180: cf83 a9bd 1f25 8d3d fed4 b33c 7f60 c83c
00000190: 6de1 843c e730 85bd 3c00 90bc ad3a 07bd
000001a0: 5ea5 c6bd 4949 e53c e7dc 66bc bd05 3b3c
000001b0: b6fc 76bd f0a7 febc 4b00 823d ce19 01be
000001c0: e7bc be3d 7e88 49bd 0735 d33d 318d 963d
000001d0: 4643 ed3c 53e0 a73d 7f57 11bd 82cf 6d3c
000001e0: 0647 5a3d c0a0 413d c300 dfbc e1ad e7bd
000001f0: 8011 87bd 8bc6 363c 72ad b5bd 73f4 8e3d
00000200: 1142 7e3d d9b4 7d3d 1b6d 97bc 0e63 7ebd
00000210: a5f6 dfbd 5963 1c3d 0fda bb3d e74a 943c
00000220: 53c4 3bbd 8e5c 303d 95f8 543d 3a92 e23d
00000230: 1e2b 2dbb edd1 03be 69ca b23c 58da febc
00000240: aa81 573d a93d 08be cb74 82bc 465b c3bd
00000250: 76f5 c2bd a451 ad3d 5342 2e3b 9b2d 59bc
00000260: 5a87 4abd 0272 afbc cda7 433d b787 8cbd
00000270: b427 a63d 835b 503d 4fb3 22bd f74f 063d
00000280: e799 13bd 36e0 88bd 3d1f 913d a201 133d
00000290: 85dc 77bd 1a61 d4bd 7b14 5abd 21d7 83bd
000002a0: 9578 0e3d 851a a6bb b17c e1bd b4d4 57bd
000002b0: dc52 883d 9650 04bd 2b19 32bb 7efb 193e
000002c0: 3df1 2fbd 64e0 79bd 4e9b bcbc 5efe 223e
000002d0: 84e5 9dbd c9d6 823d 8189 153e 108c 08bb
000002e0: 8f5c 18bd 2b44 dfbd 21c2 ab3d 402b a73d
000002f0: 1007 493b 30b7 d6bc e2c1 8ebd ca15 cdbd
00000300: 4780 7abd f50b e43d 1f48 3fbc d52e 233d
00000310: a568 003e 8aae 193d c2b4 593c da85 e7bd
00000320: 6864 f53d 41bc 27be 8260 91bc af0b 92bd
00000330: a198 a9bd d2a5 a53c cbe1 92bc c1bc 59be
00000340: afe2 01be 05aa 64bd c4a2 15bd c8dd 0d3e
00000350: 55a9 943c c1d2 a23d ffd6 103e a50d bdbd
00000360: 10a2 0a3d 18eb 63bc 21b8 04be c00c 06bd
00000370: 1770 04be e201 e63d 6835 4e3d 152f ad3d
00000380: a8a1 63bc 479c 9e3d ef0c 7d3d 3e22 00be
00000390: 9d63 49bd 6c1f b1bd 2245 73bd e5e3 a1bd
000003a0: c54d 073e 1f20 d83b ae5f d7bd 63d3 cbbd
000003b0: f90e 22be 94b1 dcbc b022 0f3b 06a2 88bd
000003c0: 50a5 f0bd 5f77 263d 6303 d1bd a39c d2bd
000003d0: 04b0 8fbc 00f3 1b3c bf40 ddbc d62f e53b
000003e0: b89c d8bd 8fef da3c 33c3 bd3d 2af7 513d
000003f0: 895c ba3d 5589 e13d f817 a3bd d057 c3bd
0.091690704 -0.11282243 -0.09251006 0.13985156 -0.029307703 -0.0035032376 0.048090022 0.06862215
-0.06753996 -0.10757581 0.01518065 0.119303554 -0.04238215 0.13206674 0.0023953265 0.115089506
0.05342596 0.13814577 0.09064157 0.034332998 -0.016319564 -0.07188382 0.07394397 0.02195077
0.05664539 -0.00076078466 -0.1139311 0.07791766 0.04006246 0.15009122 0.04252783 0.054102052
0.0890013 0.03866949 0.113182746 -0.103865966 0.008199152 -0.056672264 0.022125492 -0.0055652633
-0.10123967 0.039724663 -0.03613535 -0.12375099 -0.0143495295 -0.07163485 -0.02579316 -0.1232525
-0.08032278 -0.0105567835 -0.1167822 -0.036958825 -0.00768269 -0.101098664 -0.05525702 0.077172
0.017492836 -0.087227926 0.06212371 -0.060087137 -0.005164319 0.110008426 -0.008162779 0.102808
-0.10378118 -0.11092766 -0.062067255 0.07301883 0.10987462 -0.05745531 0.071164675 0.05613978
-0.025663586 0.13907136 0.01800146 0.095196865 -0.10691196 -0.03700454 0.020749282 0.1303351
-0.13415298 0.06516342 -0.113156214 0.0668394 -0.077854745 0.016589576 0.06741462 0.09804475
0.037788287 -0.010535699 -0.05798832 0.027925035 0.064842395 -0.09796936 0.081000395 -0.00069343945
-0.082770936 0.06891846 0.021952149 0.024460075 0.016220773 -0.06503468 -0.017578237 -0.033014942
-0.0969951 0.027989047 -0.014090753 0.011414942 -0.060299598 -0.031085938 0.06347712 -0.126075
0.09313374 -0.049202435 0.103128485 0.07351149 0.028962743 0.08197083 -0.035483833 0.014514806
0.05329039 0.047272444 -0.027222043 -0.11312462 -0.06595135 0.011155735 -0.08870973 0.06980219
0.062074725 0.061940048 -0.018484643 -0.062106185 -0.109357156 0.038180683 0.09172451 0.018102122
-0.045841526 0.043057017 0.05199488 0.11063047 -0.0026423405 -0.12873049 0.021825032 -0.031109974
0.05261389 -0.13304771 -0.015924832 -0.095388934 -0.09519474 0.08462837 0.0026589825 -0.013255502
-0.049445488 -0.021416668 0.04776745 -0.06861823 0.081130415 0.050868522 -0.039721783 0.032791104
-0.036035445 -0.0668339 0.07086036 0.03589023 -0.06051304 -0.10370083 -0.053242188 -0.06437517
0.034782965 -0.0050690793 -0.11010111 -0.052693084 0.06656429 -0.032303415 -0.0027175646 0.15037343
-0.042954672 -0.06100501 -0.023023274 0.15917346 -0.07709792 0.06388623 0.14603235 -0.0020835437
-0.037197646 -0.10901674 0.083866365 0.08162546 0.0030674376 -0.026210397 -0.06970574 -0.100139216
-0.06115749 0.11135093 -0.01167491 0.039839584 0.12539919 0.03751997 0.013287725 -0.11304827
0.119820416 -0.16380407 -0.017746214 -0.07131135 -0.08281065 0.02022067 -0.017929932 -0.2126341
-0.12684129 -0.055826206 -0.03653218 0.13854134 0.01814715 0.07950354 0.14144515 -0.09231118
0.03384596 -0.013911031 -0.12960865 -0.032727003 -0.12933384 0.11230828 0.0503439 0.08456246
-0.013893522 0.07744651 0.061779913 -0.12513062 -0.049167264 -0.08648571 -0.059392102 -0.079047956
0.1321326 0.006595626 -0.10516296 -0.09952428 -0.15826024 -0.026940145 0.0021840744 -0.066715285
-0.11750281 0.040641185 -0.10205724 -0.10283782 -0.017539985 0.009518385 -0.027008412 0.006994228
-0.10576767 0.026725559 0.09265747 0.051261105 0.09099681 0.11012522 -0.07963556 -0.09538233

model.transforms.0.encoder.noise_dist.transforms.0.ar_net.lstm.weight_hh_l0 f4 [256, 64]
00000000: 5cc7 5bbd 8e81 a03c caeb cd3d 0c28 07bc
00000010: 584b a3bd 623d b13b f9cb 5b3d d89d 9d3d
00000020: 13f9 e13c 34d5 983c 11c5 9e3c 0760 55bd
00000030: bd02 4abc 3034 9abd 84bf 283c f716 473d
00000040: 7b56 81bd 23b3 ff3d da4c 873d 87c1 953d
00000050: 9e1f 943d 0239 85bd f1de 943d 7672 f5bb
00000060: 1bea 803c 8127 833d f663 db3c 3e08 fbbd
00000070: c6ea abbc 712a 9d3c 4474 2f3d c9ee b43d
00000080: a4a5 be3c d8fa 483c c4c1 e4bd c0b8 e8bd
00000090: a09b 913d af58 253d 71b9 e5bd a35d 16bc
000000a0: e647 923d e4fc cfbd 79bc 823d 1c7f 283d
000000b0: f687 12bd fb8e c4bd 992d f23d 2941 e9bd
000000c0: 17b7 98bd 9af7 9abd 4222 443d 036e e1bd
000000d0: a8a5 0fbd ebaa a2bd 4c5a ecbc de74 c93d
000000e0: 0a35 92bc 9931 cf3d 5b7f 8d3d ac0e ba3c
000000f0: 5e07 a1bd 7614 3cbd 6dea b33d dd1e 913d
00000100: fbd6 d33c 07e1 12bc 9588 b03d 5869 c3bd
00000110: 3078 01be b577 9b3d 74fc e7bd 11ad 81bc
00000120: 2272 7b3d 160a c2bc dc6b a2bd 7566 c7bd
00000130: 9c37 b039 b53c d33d 781a 01bc 6eb1 d63d
00000140: 8eee e73d 394b 5dbd ac21 f3bd 9bfc 3a3d
00000150: 52b0 c33d 2c19 f9bd 8b21 053b 34a9 1c3c
00000160: 397a 213b 9bfa d6bd 3497 09bd ff07 cdbd
00000170: 76d5 b43d c484 ff3d 8477 efbd 8cd0 02bd
00000180: e4bc a03c 3921 413d 969c e0bd c796 bbbd
00000190: 0226 183b b9ba 12bb fdde 37bd fcd9 223d
000001a0: 6624 763d 3d58 4bbd a8b1 563d 0c80 ec3d
000001b0: d058 bebc 1849 90bd ce99 65bc aa25 013e
000001c0: f586 aa3d 3fd3 3a3d 8433 773a 052d 12bc
000001d0: 125b c7bd d2f9 ccbd e30d c13d 9497 9cbd
000001e0: a5ac 34bd c998 583d 956d 953c 182f 3f3d
000001f0: 13a8 783b d38b 83bc 304f 3dbd 41e8 53bd
00000200: 8dad 08bd 5ad7 0e3d a91e c63d 432e 8a3d
00000210: 79d1 7a3d 32c6 68bd d359 dc3d f9bc 593c
00000220: 9ba7 c73d f54a e7bc 7ddd 103e 7116 cfbd
00000230: 33cd b73c 5039 e8bd c356 06be d389 203d
00000240: 52cb c6bd 0b85 c13c 8e21 a0bd 2696 bb3d
00000250: 43e1 ccbd 7ed9 a13a 9b8b 7cbd ae5e 02be
00000260: a7a6 55bd d673 033e d315 f5bc 35ca c2bd
00000270: 96bc 03bd 08b6 f3bc b0aa 83bd d4e8 94bc
00000280: fce4 263d 0931 be3d 4e9e 133d dcba 6d3c
00000290: 2419 a4bb 3b80 6fbd d45f 51bd cb92 c8bd
000002a0: 4e4e 22bd ef29 063d 867a 07be 294c a4bd
000002b0: 6ed6 b23d 6694 39bc 76cf 15bd 7bc8 12bd
000002c0: 1160 4d3d 8a8a df3c 100a ad3d d1d9 a7bd
000002d0: acfc 2f3d 729a 9b3c a8db d2bd e4a5 b53d
000002e0: 07b5 c23c 2f2e 90bd 992e e13d d1ac d63d
000002f0: fcb5 4a3d 5443 b03d 4b63 93bc 99a0 b63c
00000300: 344c 9c3d 64bd a5bd cb47 8d3d 9b11 3a3d
00000310: 1bfc 56bd 0da3 a4b9 d17b 803d 76f0 b63d
00000320: 2277 26bd 91af 333d 88d3 0f3c cfad 41bd
00000330: b692 053d 297a d7bd 1195 8c3d b296 eb3d
00000340: 7dd6 14bc 0958 6f3d 5cff 2dbe fbf1 703b
00000350: d132 a93d dd04 45bd f6e4 ad3d 6878 903d
00000360: efdb bdbd f82f b2bb 183d a6bd 5531 af3d
00000370: df1a 843d edb7 a5bd bc6a cabd fdfb 0a3e
00000380: dfaf 953d fb4f 03be 374f 7cbd 7ebc 493b
00000390: 58c9 893d 07c1 793d 1627 a53d 775a 42bd
000003a0: e4e1 4e3c e062 89bd 720f 8cbd 2d67 cb3d
000003b0: 82a1 803d 665f bdbd 7a1f 89bd 5d09 4ebd
000003c0: e636 41bd e63d d6bd cbac f03d 3977 083e
000003d0: 96cd 883d add3 0cbe 91a6 65bd c9b6 d53d
000003e0: 4879 893c b051 40bd 33ca 143c 5b80 97bd
000003f0: 7888 61bd c258 943d d28b 153c 530a acbd
-0.05365692 0.019593026 0.10054739 -0.008249294 -0.07973355 0.0054089287 0.05366132 0.07696122
0.027584588 0.01865635 0.019381078 -0.052093532 -0.012329754 -0.07529485 0.010299567 0.048605885
-0.06315323 0.124853395 0.06606455 0.07312303 0.07232593 -0.06505014 0.07269085 -0.0074904514
0.01573663 0.06404019 0.026781064 -0.122574314 -0.020985972 0.019185277 0.04283549 0.08834607
0.023272343 0.012266837 -0.1116977 -0.11363363 0.07109761 0.04036778 -0.11217011 -0.009177598
0.0714262 -0.10155657 0.063836046 0.041136846 -0.035774194 -0.09597584 0.11825103 -0.113893814
-0.074567966 -0.075667575 0.047884233 -0.11007311 -0.03507009 -0.07942756 -0.02885165 0.09836744
-0.017847557 0.10116882 0.06909057 0.022712074 -0.07862733 -0.04591795 0.087849475 0.07085965
0.025859347 -0.0089647835 0.08619801 -0.09541577 -0.12643504 0.07591192 -0.113274485 -0.015829595
0.061388142 -0.02368645 -0.07930729 -0.09736339 0.00033610768 0.10314313 -0.007879846 0.10483061
0.113247976 -0.054026816 -0.11871657 0.04565106 0.09555115 -0.12163004 0.0020314183 0.009561826
0.00246395 -0.10497018 -0.033591464 -0.10011291 0.08829777 0.12476495 -0.11692718 -0.031937167
0.01962132 0.047150824 -0.109673664 -0.09159618 0.0023216014 -0.0022389127 -0.044890393 0.039758667
0.060093306 -0.049644697 0.05241552 0.115478605 -0.023235708 -0.070451915 -0.014013721 0.12612024
0.08326522 0.045611616 0.00094299787 -0.008921866 -0.09734167 -0.10008587 0.09426477 -0.07646099
-0.04410996 0.052880082 0.01824073 0.04667577 0.0037941977 -0.016057884 -0.046218097 -0.051735166
-0.033368636 0.034873344 0.09673817 0.06747105 0.061234925 -0.05682964 0.1075932 0.0132896835
0.09748765 -0.028233984 0.14146991 -0.10111702 0.022436714 -0.113390565 -0.13119034 0.03919394
-0.09706749 0.02362301 -0.078189 0.09159498 -0.10003903 0.0012348143 -0.061656576 -0.1273143
-0.052160885 0.12837157 -0.029917633 -0.09511224 -0.03216227 -0.029749885 -0.064290404 -0.018177427
0.04074572 0.092866965 0.036039643 0.014509883 -0.00500788 -0.0584719 -0.05111678 -0.097936235
-0.03962546 0.032754835 -0.13230333 -0.08022339 0.087323055 -0.011326885 -0.036574803 -0.035835724
0.050140444 0.02728774 0.08449185 -0.08195842 0.042965576 0.018994544 -0.10295802 0.08869532
0.023767961 -0.07040059 0.10995216 0.10482181 0.04948996 0.08606592 -0.017991683 0.022293376
0.07631722 -0.08092764 0.06898459 0.045426946 -0.05248652 -0.00031402 0.06273616 0.08932583
-0.040640958 0.043868605 0.00877846 -0.047284897 0.032610618 -0.10521347 0.0686437 0.11503352
-0.009084341 0.058433566 -0.16991943 0.0036765325 0.082616456 -0.04810034 0.084909365 0.07054216
-0.09270465 -0.005437847 -0.081171215 0.08554331 0.06450438 -0.08091722 -0.09883639 0.13572688
0.073089354 -0.12823479 -0.061598983 0.0030782516 0.067278564 0.0609751 0.08064096 -0.047449555
0.012627099 -0.06708312 -0.068388835 0.099317886 0.06280805 -0.092467114 -0.06695457 -0.0503019
-0.047171496 -0.10461025 0.11751708 0.1332673 0.066798374 -0.13752623 -0.056067053 0.10435254
0.016781464 -0.046952903 0.009081411 -0.07397529 -0.055061787 0.07243492 0.009127574 -0.08400407

model.transforms.0.encoder.noise_dist.transforms.0.ar_net.lstm.bias_ih_l0 f4 [256]
00000000: 1c13 8bbd 8f33 713d a267 95bc 5d87 abbb
00000010: 66d1 d0bd 411f 09bd 7526 4bbd 75ad a7bd
00000020: 8af5 1f3d 016d 0c3e eadc c5bb b5d6 d2bd
00000030: dfa9 0abd 6f4d c63c 6665 0dbd fb93 82bd
00000040: c7a0 80bc a5af 17bd 023a 85bd 609f 03be
00000050: 27d0 49bd 3f14 9bbd 2b88 6e3d 89bc dabd
00000060: 529f e3bd 9b47 be3c ab8f 98bd 3b6f 803c
00000070: f1a5 9e3d 2eb9 2abd d8c1 103c cb55 133e
00000080: 2565 2bbd a8d7 e8bd 9720 413d 2647 47bc
00000090: e9b7 05be 4161 0bbd 2860 00be b46e de3d
000000a0: 156a 85bd 9a3a 8a3c 2598 e5bc e94d 993d
000000b0: 3e11 e7bc be60 353d d7bc 2ebd 9686 31bd
000000c0: 3dcc e03b 9c78 fb3c e4af 183d 99eb ffbd
000000d0: 6797 6d3d f8d9 e33d 069e 1b3b 4158 b93d
000000e0: c20d 923d fc52 c6bd bfae 113b 3cc1 04bb
000000f0: cddd 81bd 29a7 9b3d 450f f5bd e666 073d
00000100: 107e df3d 791d 14bd 63bd 233d 3a92 2e3d
00000110: ea5b 5fbd 7151 c03d 8740 853d 0c46 00bd
00000120: 4d69 b83d 37c2 6e3d 12b9 9dbc 20de 85bc
00000130: b29c 0fbd 4ed3 62bd 69c8 403c ef9d e33d
00000140: 071a b2bd 084e 483d 8f92 f0bc f8c4 de3d
00000150: 2269 ad3b 8f49 b63b d522 d03d 34ab 243d
00000160: 1965 e13d 73b5 983d ef8e 3e3d 9703 c13d
00000170: b629 4b3d ecb1 1fbd 0fa5 ea3c bbe8 1a3c
00000180: cfa7 863d 6fab e93d 4636 7f3c 1717 d4bc
00000190: fbb2 a63b faf2 833d b04d fbbc 327d b9bd
000001a0: 8e33 a3bc 4f75 873d e4dc 063e cb03 38bd
000001b0: be6b e7bd 5f96 a03d 6015 b6bd bd77 d93b
000001c0: baac 7f3b c88d 0f3e 35b9 0dbd 6c48 c33d
000001d0: 8171 dcbd 811a ba3d fb8d b7bc c9d1 91bd
000001e0: 9d97 0a3d 00d9 9a3c 9c07 fbbc 8563 bb3d
000001f0: a90c a5bd a1a9 663d cef1 2c3d 95cd a33d
00000200: 9857 a93d 1373 d7bc 9f69 963d 2d0b 0ebd
00000210: 10d6 aabd 9378 d93d fdb8 39bd 01cd 9dbd
00000220: a642 d03d 25a8 23bd 96c0 e5bd ac13 953d
00000230: 8994 7cbd c22f 7c3d fdbc c23d eb3b 1ebd
00000240: 1027 cbbd adf4 973d 4d87 c7bc 8a25 75bd
00000250: a92b f13d 66e0 e6bd cf63 c1bd 8f03 bc3d
00000260: a74a 4cbc 4bb0 99bc 316d 5c3d 9ddc bdbd
00000270: 922f 9a3d af5b 97bd 3289 373d 28b4 d83d
00000280: 5bda 6f3b dd07 0cbd d424 dabd 1e23 073e
00000290: 2c41 cebd 12a1 d2bd 4cfe a93d 9530 9ebd
000002a0: 4ff7 a2bc 1b93 94bd 4c98 62bd a120 9fbc
000002b0: 1219 87bd 483b f5bd 5d23 be3c 3854 d4bd
000002c0: c74e b83d aad0 093d 79e7 5d3c 2e3d eebc
000002d0: 2ee4 49bd 82d3 743d 7d13 4fbd 6fd6 c73d
000002e0: 8073 683d dc3c a7bd 060c 8c3c 5076 b63d
000002f0: 391b d33d 812b 683c d68e 49bd 5a38 88bd
00000300: 0cc3 d2bd ee77 2f3d b77a 78bc 0fde b1bd
00000310: 16f1 9e3d 9a8e b93d 1b6a 953d 8f76 113c
00000320: 5611 a23d 9dd4 b2bd 10b2 e4bc bc65 903c
00000330: b988 53bd aff2 65bd 03bf 193d 2578 0f3d
00000340: a87c a6bd 7308 c4bd 90a8 c7bc 633f 12bd
00000350: 30f7 073e d35f 4abd d939 873d d3ae c03d
00000360: 164c 053e 4b4a ba3d 296b 5ebc 6900 3f3d
00000370: 034b aebc bc83 213d d19b bfbd f064 8cbd
00000380: 8da2 fdbd 6419 8ebc 846f bf3b 6a90 8f3d
00000390: 5a83 e4bd dc95 abbc b0b8 d4bc 7fcc 29bc
000003a0: 28e0 743d 79ef b4bd 76c2 1c3d 1cb6 d4bd
000003b0: 7b8d c6bd 0679 01be 35fe 07bc f08c 913d
000003c0: 6eea b1bd 1cee a93d 6a12 5fbd a943 01bd
000003d0: c185 22bc dee0 a93d b5ce 1e3d 4023 c8bd
000003e0: 2b92 b23d 9ef5 4c3d 9c9c 53bc 9b66 8bbc
000003f0: c6f2 7c3c 71fe f6bd 8364 d9bd aac5 b93c
-0.06790754 0.05888706 -0.018237893 -0.0052346424 -0.101961896 -0.03347707 -0.049597222 -0.08187381
0.039052524 0.13713457 -0.006038298 -0.10294858 -0.033853408 0.024206845 -0.03452053 -0.06375881
-0.015701665 -0.037032742 -0.06505205 -0.12853765 -0.049270775 -0.07572221 0.05823533 -0.106804915
-0.11114372 0.023227504 -0.074492775 0.015678039 0.077464946 -0.041680507 0.008835278 0.14388196
-0.041844506 -0.11369258 0.04715022 -0.012162959 -0.13058437 -0.034028295 -0.1253668 0.10860959
-0.06514374 0.016873647 -0.02802665 0.07485563 -0.028206464 0.044281714 -0.04266056 -0.04334124
0.0068602846 0.03069716 0.037277117 -0.124961086 0.058005717 0.111255586 0.0023745312 0.09050036
0.0713153 -0.09683797 0.00222294 -0.0020256778 -0.06341133 0.07600243 -0.11965803 0.033057116
0.109127164 -0.03616092 0.039975535 0.04261992 -0.054531015 0.09390534 0.06506448 -0.031316802
0.090044595 0.058290686 -0.019253287 -0.016341269 -0.035061546 -0.055377297 0.0117665315 0.11114108
-0.086963706 0.04890254 -0.02936676 0.108774126 0.005292074 0.005562968 0.10162894 0.040202335
0.11005611 0.07456484 0.04652303 0.09424513 0.049600326 -0.03898804 0.02864316 0.009454901
0.06574976 0.114096515 0.015576905 -0.025889916 0.005087254 0.064428285 -0.030676693 -0.09057082
-0.019922044 0.06614172 0.131702 -0.044925492 -0.11299847 0.07841181 -0.08890796 0.0066365884
0.0039012865 0.14018929 -0.034600455 0.09535298 -0.10763837 0.090870865 -0.022406569 -0.071200915
0.033835996 0.018902302 -0.030643277 0.09149841 -0.08059055 0.056314114 0.04222279 0.07998196
0.0826866 -0.026299989 0.073443644 -0.034678627 -0.083416104 0.10618701 -0.045342434 -0.07705117
0.10168962 -0.039955277 -0.112183735 0.07279143 -0.06166509 0.061568983 0.09508703 -0.03863136
-0.0991956 0.07419715 -0.024356509 -0.059850253 0.11775906 -0.11273269 -0.09442865 0.09180366
-0.01246897 -0.01876082 0.05381507 -0.09270594 0.075286046 -0.07390534 0.044808574 0.10581237
0.0036598656 -0.034187187 -0.10651556 0.1319699 -0.10071024 -0.10284628 0.083004564 -0.0772411
-0.019893317 -0.07254621 -0.055321023 -0.019424738 -0.06596579 -0.119741976 0.023210222 -0.10367626
0.089994006 0.033646263 0.013543957 -0.029081907 -0.049289875 0.059772022 -0.050555695 0.09757697
0.056750774 -0.08165905 0.017095577 0.08909285 0.10307927 0.014170528 -0.049208485 -0.06651373
-0.102911085 0.042838983 -0.015165976 -0.086849324 0.07760827 0.09060402 0.07295629 0.008878364
0.07913463 -0.08731959 -0.027916938 0.017626636 -0.05164406 -0.056139644 0.03753568 0.035026688
-0.08129245 -0.09571924 -0.024372369 -0.03570498 0.13277888 -0.04940779 0.066028304 0.09408345
0.13017306 0.090962015 -0.013575354 0.04663125 -0.021276003 0.039432272 -0.093558915 -0.0685519
-0.1238452 -0.017346092 0.005842151 0.07009967 -0.11157866 -0.020945482 -0.025966972 -0.010363697
0.059784085 -0.08834738 0.03827139 -0.10386297 -0.09694954 -0.12643823 -0.008300354 0.0710696
-0.08687292 0.08297369 -0.05446092 -0.031558666 -0.009919585 0.08294843 0.03877135 -0.097723484
0.087192856 0.050038926 -0.012915757 -0.0170167 0.015438741 -0.120602496 -0.10614874 0.022677261

model.transforms.0.encoder.noise_dist.transforms.0.ar_net.lstm.bias_hh_l0 f4 [256]
00000000: 7b1d 5bbd e50e 27bd f1cc ddbd 4be5 c4bd
00000010: 42fe 62bd 1f64 263d 6b0c b3bd 7507 0abe
00000020: d39c 0d3e 0bc4 773d 5e90 333d fdbb bc3d
00000030: ef87 ed3d fe92 3a3d e96a de3d 45b1 10bc
00000040: fdae bfbd 2720 71bd be62 a9bd 3922 70bd
00000050: c900 b43d 5a9b a53d 0c2a e1bd c63e 363d
00000060: 3449 833d c219 c3bd 82bb c23c a4fd c23c
00000070: c44a 823c 57d1 003e fe1f 503d c527 99bd
00000080: ac1a 58bd b2e5 4d3d 09d0 543c c357 dcbd
00000090: 1816 b0bd 2bf9 6ebb 89bb e63d 12e1 73bd
000000a0: 3880 ba3d 8d92 96bd 29a4 bebd 8073 8d3d
000000b0: 7d60 14be eb37 813d 266b a93d 08c3 ae3c
000000c0: 4256 ec3c 67d0 163d 7a2e c2bc 9f2e ee3c
000000d0: cd81 fe3c fd8f 9f3d 9e15 d33d 25b5 a83d
000000e0: 76af 8c3d 9011 b73c 96ef b8bd 1676 f33c
000000f0: fdb6 c3bd 40eb aebc 8d6b a73b 2031 09be
00000100: d01b 1fbd f369 193d d256 1fbd 0b0c 0f3e
00000110: e677 3e3d 7f86 9c3d 825c 41bc 0a50 e6bd
00000120: 24ec f73d 1395 c5bd 3c5c 96bd 6722 2e3d
00000130: fa35 96bd ca23 313d 4352 01bd 1c09 53bd
00000140: 949c 4b3b 9b23 6dbb 233a bebd 6d1c 00bd
00000150: e285 24bc 2f32 0dbd 5b51 673d e8ba da3d
00000160: aa33 6f3d f1a8 e53d 8d34 ae3d b4bb 61bd
00000170: 5596 d83c 1a79 bdbc 3cc5 9abd 3968 923d
00000180: b533 173d ad02 acbc 3f03 b23d 1af7 fe3d
00000190: 28a7 d0bc 4fdc 0fbe d7d7 ea3d 79f4 88bd
000001a0: f5c7 983d 2acf d93d ef3c 723d edcf 71bd
000001b0: e406 2bbc 54bd b6bd 80f3 dfbc 12bb 0a3e
000001c0: a919 a53d bbc7 f83b f91c 4cbd 4416 913d
000001d0: ba1e 77bd 3d32 b3bd f102 f13b cfc6 0abd
000001e0: e206 89bb d5ba 37bc 36f1 dd3d 7a09 d03c
000001f0: a362 c93d e69c c0bd caf7 fc3d 894e 4c3d
00000200: ed42 073e 68ee b8bd 95bf 57bd 59ec 613d
00000210: 42a7 cc3d 7c53 8ebd becd aabc e1e5 22bd
00000220: 2043 e1bb da96 b3bd d86b ffbc bb3e 0ebe
00000230: 6e7c 17bd 3b7f 71bc 4bb4 033e 84c4 b9bb
00000240: 0c1a 903c 47dc ce3c 110d c43d a233 93bd
00000250: e19a 01bd aaa8 3a3c 1b29 8f3d 293d 8bbd
00000260: d471 7d3d 2f32 b3bd df9e 49bd 60ba 5fbb
00000270: c261 8fbc 715f 81bd 0f43 6d3c c89e ec3d
00000280: a961 77bd 3d7e f2bc 83a0 0ebe ffd7 4b3d
00000290: 4810 a83d dc7e c73d 9462 7abd 4be8 f63d
000002a0: 0b24 08bc 3fe1 8a3c ed71 033e 0bc5 923d
000002b0: 128f 73bc f5aa 61bc f94a a23d 83ef 4e3d
000002c0: f944 d7bd 4a0d 3ebd f5af b83d 2b9c af3d
000002d0: d385 fcbd a1a8 fb3d cedc d93c 4f14 2f3d
000002e0: 18be 023e c89d 913d 7832 d4bd ddde 5cbd
000002f0: ab5b e73d dc23 d23d 319a a6bd 3a15 16bd
00000300: 0187 3a3d 9b1a 97bd c90c 0bbd 43c0 1d3d
00000310: 6523 4ebd 09dc 73bd 390e 9a3d 2bb2 573c
00000320: 582e 933d 6481 173d 31aa a33d 4c53 b7bd
00000330: 290e 76bd 1f28 e6bd 6dfd e1bd ca7a a23c
00000340: f88b 533c b2fd f43d e401 903d 9396 40bd
00000350: e1df f03d ca0b 0abd a1c3 a8bc 0797 9c3d
00000360: e2b4 b53d ac99 81bd 42ff 5ebd 336a e7bd
00000370: 9860 0abe 553f 89bc 9326 f0bd c567 83bc
00000380: b48f c7bd c8a0 c9bc 39db 673d 142a f7bd
00000390: aaf2 b3bd b41e bb3d 8fb3 0a3d 9071 3dbd
000003a0: 4902 90bd 2fd0 d63d 9672 b3bd a00f bcbd
000003b0: dfa9 d2bb d3a1 c73d e438 a4bd 6816 253d
000003c0: 2005 8a3d eb66 e03a 05b0 b13d 1008 dabd
000003d0: 8ef4 ddbc 62ca 7c3d 7179 9ebc 1346 433d
000003e0: 25e9 bcbd 67ee 8c3c d842 8dbd da01 59bc
000003f0: 9a53 b23b 99da ca3d a21e fbbc c587 0ebd
-0.05349491 -0.04078569 -0.10830105 -0.09614047 -0.05541826 0.040622827 -0.08742603 -0.13479407
0.13829355 0.060489696 0.04383885 0.092155434 0.11598193 0.04555034 0.10860235 -0.008831327
-0.09359548 -0.058868553 -0.08270787 -0.058626387 0.08789212 0.080862716 -0.10994348 0.04449346
0.06410447 -0.09526397 0.023771051 0.023802586 0.015904792 0.12579857 0.05081176 -0.074782886
-0.05275981 0.050267883 0.012989053 -0.10758927 -0.08597964 -0.0036464434 0.11266238 -0.059540816
0.09106487 -0.07352171 -0.09308655 0.069067955 -0.14489932 0.06309494 0.0827239 0.021333233
0.028849725 0.03681984 -0.023703802 0.029074965 0.031067753 0.077911355 0.103068575 0.082376756
0.06869404 0.022347242 -0.090300724 0.029719394 -0.095563866 -0.02135241 0.0051092566 -0.13397646
-0.038844883 0.037454557 -0.038901158 0.13969438 0.046501063 0.076428406 -0.011801841 -0.11245735
0.12105587 -0.09647574 -0.07341811 0.042513277 -0.07334514 0.04324702 -0.03157259 -0.05152236
0.003106867 -0.0036184553 -0.092884324 -0.03127711 -0.010041686 -0.034471687 0.05647407 0.10680181
0.05839888 0.11213864 0.08506117 -0.05511065 0.026438871 -0.023129035 -0.07557151 0.07148785
0.036914546 -0.02099737 0.086920254 0.12449475 -0.025470331 -0.14048885 0.114669494 -0.066872545
0.07460014 0.106352165 0.059140142 -0.059036184 -0.010438655 -0.0892283 -0.02733779 0.13547924
0.08061535 0.007592169 -0.049832318 0.07084325 -0.060332038 -0.087498166 0.007355087 -0.033881005
-0.0041817287 -0.011213978 0.10837023 0.025395144 0.098332666 -0.09404926 0.123519495 0.049879584
0.13209124 -0.090298474 -0.05267294 0.05515704 0.099928394 -0.06949517 -0.020850059 -0.03977001
-0.006874457 -0.08769007 -0.031179354 -0.13891117 -0.0369839 -0.014739807 0.12861745 -0.0056691784
0.017590545 0.02525152 0.09572805 -0.071875826 -0.031641845 0.011392752 0.06990262 -0.06798775
0.061876133 -0.08749806 -0.049223777 -0.0034138188 -0.01750267 -0.06317032 0.01448132 0.115537226
-0.06039587 -0.02960121 -0.13928418 0.049766537 0.082062304 0.097409934 -0.061129168 0.12056025
-0.008309375 0.016953109 0.12836428 0.07166489 -0.014865654 -0.0137736695 0.07924456 0.050521385
-0.10511202 -0.046399392 0.09017936 0.085747086 -0.123302124 0.12288023 0.026594546 0.042743977
0.12767828 0.071101725 -0.10361189 -0.053923476 0.11296781 0.10260746 -0.081348784 -0.036641337
0.045538906 -0.073781215 -0.03394774 0.038513433 -0.050326724 -0.059536014 0.07522244 0.013165037
0.07186574 0.03698863 0.07991446 -0.089514345 -0.060072098 -0.11238121 -0.11034665 0.019833941
0.012911789 0.11962451 0.070316106 -0.0470186 0.117614515 -0.03370265 -0.020601096 0.07645994
0.08872391 -0.06328139 -0.05444265 -0.11299553 -0.1351341 -0.016753832 -0.117261074 -0.016040692
-0.09744206 -0.0246128 0.05660555 -0.12068573 -0.08786519 0.091367155 0.033862647 -0.04625088
-0.07031686 0.104889266 -0.0876209 -0.09182668 -0.0064289416 0.097476624 -0.080186635 0.04030457
0.06739259 0.0017120516 0.08676151 -0.10646069 -0.027094152 0.061716445 -0.019345017 0.04767425
-0.09224156 0.017203523 -0.06897515 -0.01324507 0.005442095 0.099049754 -0.030654255 -0.03479745

model.transforms.0.encoder.noise_dist.transforms.0.ar_net.l_out.0.weight f4 [33, 64]
00000000: f262 0abe 425e a2bd ff47 ab3c 6785 b83d
00000010: c101 a83d 4e69 67bc b3c0 9cbd 0c62 093e
00000020: 9d76 993c df11 bb3d 1705 b53d b2c6 123e
00000030: c6f7 6a3d 8c57 45bb 4eef 2439 1375 78bd
00000040: 71d3 403d 6d1a c4bc e128 ae3d 7f2d f63d
00000050: 6c7c 6fbd 24de da3c 9bc2 df3b c6b8 b33c
00000060: dfdb d0ba aaef a7b9 a28c 05be 4bd3 d0bd
00000070: 3fb5 a23c 928b 26bd 7e51 ac3d 80be 00be
00000080: 2e2f 043d c7cc 6b3d 6576 0a3e d4d7 dcbd
00000090: 3cdb fc3c f9be cdbd c347 f9bd f124 f1bd
000000a0: 0f13 5dbc 24a0 b73d cf1a 74bc 1d64 03be
000000b0: 1940 8ebd 45f3 033e 31db 58bd a2b6 fa3d
000000c0: 53e5 8dbd 3bea 8cbd 8f02 b83c ec11 8bbd
000000d0: ce3a 9abd e73a 3f3d 2628 333d 541d 843d
000000e0: d594 80bb c24a 45bc dc5c c8bd 72d6 0e3e
000000f0: 1c3f 943d 7259 fbbd 0ed9 44bd 252a fc3c
00000100: f82b b03d e16e dc3d 308f debd 940d e6b9
00000110: 2b3c 2cbd d864 31bd 3afb b3bd af27 97bb
00000120: 610c b63d e23c 53bd 7d8b 863d 2034 b13d
00000130: 416a a7bd 5e35 19bd e883 71bd ecfd b13d
00000140: 4906 a83d 4af0 89bd 7dec f7bd b22b b33c
00000150: 82ba c63d 4001 6a3d fab7 833d 6c97 d93d
00000160: 7be9 f23d 9093 c5bd 03cd 723d ea3f 9cbd
00000170: 9db8 573d ca85 f8bd 1f2f e0bb 0a63 b4bd
00000180: 0c6f cbbd 8d0c e6bb c80b 283d cca7 f43d
00000190: 083e 0abc 0d3b c93d 9ad9 d43d 6fec 293d
000001a0: 0655 e1bd 5128 993d 1712 cf3d 101c 5fbc
000001b0: 1f14 81bd 1bfa 703d c60b 5dbd 5cc1 0bbe
000001c0: 4e00 8cbd 580b 6bbd fd1f 8bbb 914d 23bd
000001d0: d65e a2bd 0630 823d faeb d1bd 053d a7bb
000001e0: 0402 6c3d 8cb9 06be 0900 d6bd 5fac ac3d
000001f0: c497 b13b 6693 3f3c 1c62 eebd dfb2 9a3d
00000200: 6bb9 9ebd 74a3 223d a6df 833d 3c7d 013e
00000210: 461b 09be eedf dbbd 8c68 683d 7592 d13d
00000220: bb7e d8bd 2766 aa3c 7f41 03be 6b89 b8bd
00000230: f7bb e2bd ee6d 303c eb00 b9bb e0d3 c9bd
00000240: cb8b d7bd b21b 133d 8389 c33d 8a5a e4bd
00000250: 9b75 07bd cff0 a5bd f011 28bd 3d16 c4bd
00000260: d10c 723d 5fc0 973d eab2 6b3d d76f 96bd
00000270: 44a4 3a3d 4e86 1abd c939 e1bd 831e 9cbc
00000280: 2a4c 983c 457d e9bd 93e7 4d3d 641c ae3d
00000290: 4e2b d63c 4612 373d 01a8 8d3d 7bc3 ecbd
000002a0: 3c65 84bd be47 853c 76b3 d9bd d1b7 993c
000002b0: 6ddc cb3d 23b2 e4bc 6bf2 dc3d 7ff4 d53c
000002c0: 3728 b6bd a511 54bd 4b29 e03d 8611 cabd
000002d0: dd4b 923d 613d 95bd d040 973d 5168 dc3d
000002e0: 46a0 a23d 6255 edbd 12a4 a3b9 ba53 68bd
000002f0: c87d f93d dac6 dfbd 3ec8 85bd 4237 d7bd
00000300: 3e23 d8bc 8fe1 4e3d c5c3 dd3d cd6e 913d
00000310: e05c 1d3d 368f 783d 0e28 e33c 6d8d bdbd
00000320: 8ae3 02bc 0049 debd 5adb 9ebd f3c3 cd3d
00000330: 40a4 7c3d 92e5 a8bc 6076 f2bb 53f7 95bc
00000340: 6e18 d33d fd3c 093e 9281 bbbd a0c8 0dbd
00000350: 5cf5 363d 0758 67bb e559 8b3d 06ba 073d
00000360: 94fd 44bd d731 06be a909 993d c013 6dbd
00000370: 4704 eb3d 4e98 36bd ee35 aebd 79cc 493d
00000380: 10b9 9cbc 0eb9 01be 29ba 9c3d 2be7 2e3d
00000390: 1628 c33d 720d be3d 5add 353d 6df8 9dbd
000003a0: bcc2 e93d 69b8 e23d 2810 dabc b6cd babd
000003b0: c9d1 0f3d 4731 8e3d 8fdf 113d 0115 2dbd
000003c0: 28e3 9cbd bb4a 77bd dc7b c2bd dfd3 afbd
000003d0: bb04 eb3c f92a 0c3c 54c5 273d 69bd 11bd
000003e0: 743d e1bd 2bb5 f0bd d3c2 abbd 5732 99bd
000003f0: 5be4 d9bd 9514 453d bea6 85bd 1458 e33d
-0.13514307 -0.079281345 0.020908354 0.090098195 0.082034595 -0.014124228 -0.07653942 0.13416308
0.018733317 0.09134268 0.088388614 0.14333609 0.0573652 -0.0030111996 0.00015729407 -0.060658526
0.047076646 -0.023938382 0.08503891 0.120203964 -0.058468267 0.026717253 0.0068286187 0.021938693
-0.0015934667 -0.00032031286 -0.13041928 -0.10196551 0.019861815 -0.04066045 0.08413981 -0.1257267
0.032271557 0.057568338 0.13521726 -0.107833534 0.030866258 -0.10046191 -0.121718906 -0.11774624
-0.013493313 0.08966091 -0.01489897 -0.12831159 -0.069458194 0.12885769 -0.052943412 0.12241866
-0.06928506 -0.068806134 0.022462158 -0.06790528 -0.07530747 0.046687033 0.04373946 0.064509064
-0.003923992 -0.012041749 -0.097833365 0.13948992 0.072386 -0.1227292 -0.048058562 0.030781815
0.086021364 0.10763336 -0.108671546 -0.00043879135 -0.04204957 -0.043309063 -0.08788152 -0.004612885
0.0888908 -0.051571734 0.06569574 0.0865252 -0.08174563 -0.03740441 -0.058963686 0.0869101
0.08204324 -0.067352846 -0.121056534 0.021871421 0.09703542 0.0571301 0.06431575 0.106245846
0.11860939 -0.09647286 0.059277546 -0.07629378 0.052666295 -0.12134893 -0.006841555 -0.08807953
-0.0993329 -0.007020539 0.04102686 0.11946067 -0.008437641 0.09825716 0.10393067 0.041485246
-0.11002545 0.07478393 0.10110872 -0.01361753 -0.06302666 0.05883227 -0.053966306 -0.1364798
-0.068359956 -0.057383865 -0.0042457567 -0.039868895 -0.07928245 0.06356816 -0.10250087 -0.0051037096
0.05761911 -0.13156718 -0.104492255 0.08431315 0.005419703 0.011692857 -0.11639807 0.07553648
-0.077502094 0.039706662 0.06439142 0.1264543 -0.1338931 -0.107360706 0.05674033 0.102330126
-0.10571047 0.020800663 -0.12817954 -0.090105854 -0.11071008 0.010768397 -0.0056458614 -0.09854865
-0.1052471 0.035915084 0.09547713 -0.111500815 -0.03307114 -0.08102571 -0.04103273 -0.09574554
0.059094254 0.07409739 0.057543673 -0.073455505 0.045566812 -0.03772574 -0.1099735 -0.019057518
0.018591005 -0.114008464 0.050269675 0.08501509 0.026143696 0.04469516 0.0691681 -0.115607224
-0.064646214 0.01626956 -0.106299326 0.018764408 0.09954152 -0.027916973 0.10788425 0.026117561
-0.08894389 -0.05177464 0.10945376 -0.098666236 0.07143376 -0.07287098 0.07385409 0.10762084
0.07940726 -0.11588551 -0.00031212025 -0.056720473 0.12182194 -0.109266 -0.06532334 -0.105085865
-0.026383992 0.05050808 0.10828356 0.07101212 0.03841865 0.06068345 0.02772906 -0.092554905
-0.00798882 -0.108537674 -0.07756682 0.1004714 0.06168008 -0.02061728 -0.0073993653 -0.01830641
0.10307394 0.13402171 -0.09155573 -0.03461516 0.044667587 -0.003530027 0.068042554 0.03313639
-0.048093393 -0.1310495 0.07472546 -0.057880163 0.11475425 -0.044578843 -0.0850638 0.049267266
-0.019131213 -0.12668249 0.07652695 0.042700928 0.0952913 0.09279908 0.04440055 -0.07713399
0.11414096 0.1107033 -0.026619032 -0.091212675 0.035112176 0.06942993 0.035613593 -0.04225636
-0.07660514 -0.060374003 -0.094962806 -0.08585333 0.02868878 0.008555167 0.04095967 -0.035581026
-0.109980494 -0.11753305 -0.08386769 -0.07480305 -0.106392585 0.04811533 -0.06525944 0.11100784

model.transforms.0.encoder.noise_dist.transforms.0.ar_net.l_out.0.bias f4 [33]
00000000: 640e 8b3d 0cd9 353d 51e3 013e f1eb 8fbd
00000010: f5cd f0bc 1901 893d 04cd 5cbc 7f23 8bbd
00000020: 4d2b e63c 2f1c b9bd c43e c6bd f241 c53c
00000030: 1094 dd3d 590f 193d db75 ba3d 6b38 c23d
00000040: 20ae 32bd 397e bcbd 19c7 a83b 8b40 c5bb
00000050: c504 863d fdaf 333c 530c d13d a4c6 483d
00000060: ddbf cf3d fc9f c2bd 4996 34bd dad8 073e
00000070: dbd2 a0bd 2006 323d d285 c33d 77b2 37bc
00000080: fabb b6bd
0.06789854 0.044396445 0.1268437 -0.07027424 -0.029395083 0.066896625 -0.013476614 -0.0679388
0.02809682 -0.09038579 -0.0967994 0.024079297 0.10819256 0.037368152 0.091045104 0.09483417
-0.04362309 -0.092037626 0.0051506874 -0.006019657 0.065438785 0.010967252 0.10207429 0.049017563
0.10144017 -0.09503171 -0.044088636 0.13266316 -0.078527175 0.043462873 0.095470086 -0.011211983
-0.089225724

model.transforms.0.encoder.noise_dist.transforms.0.ar_net.l_out.1.first_token f4 [1, 1, 33]
00000000: 6f51 063e ba0a d73c 387b c9bb 0b64 6dbe
00000010: d972 823e ad94 abbd c848 62be b079 79be
00000020: 5b19 d2bd d9f1 11be 7594 8d3d 9f09 55bd
00000030: 7ba9 263e a7b5 033e 53de 7b3e e36c 113e
00000040: bbf4 043e 5971 543e 6e0d a53d 1b47 123d
00000050: 0d34 7e3d 7fde a73d a956 52bd 7d9f 29be
00000060: 1185 f83d b078 0dbe 94c0 80be dd55 3cbe
00000070: a72f 1d3c d531 1bbe 6a4a 26be 592f 4b3e
00000080: 2530 47be
0.13117002 0.026250232 -0.006148722 -0.23182695 0.25478247 -0.08377967 -0.22098076 -0.24362826
-0.102587424 -0.14252414 0.069130816 -0.05201113 0.16275589 0.12862264 0.24596529 0.14201693
0.12983982 0.20746364 0.08059202 0.035712343 0.06206136 0.08196735 -0.051352177 -0.16564746
0.121347554 -0.1381557 -0.25146925 -0.18392129 0.009593881 -0.15155728 -0.16239324 0.1984228
-0.1945196

model.transforms.0.encoder.noise_dist.transforms.0.autoregressive_net.lstm.weight_ih_l0 f4 [256, 35]
00000000: 56c8 bb3d 720f e7bd ea75 bdbd 3f35 0f3e
00000010: b516 f0bc 9396 65bb 0bfa 443d c589 8c3d
00000020: 6452 8abd b550 dcbd 43b8 783c 6c55 f43d
00000030: e898 2dbd 813c 073e e9fa 1c3b 0cb4 eb3d
00000040: 2ed5 5a3d 1676 0d3e 4aa2 b93d c2a0 0c3d
00000050: 9bb0 85bc d337 93bd f06f 973d 1ad2 b33c
00000060: ff04 683d 656f 47ba b554 e9bd 4b93 9f3d
00000070: 8918 243d 83b1 193e a931 2e3d 1d9a 5d3d
00000080: 5046 b63d e663 1e3d 5bcc e73d aeb7 d4bd
00000090: bc55 063c 2d21 68bd 8540 b53c d05c b6bb
000000a0: be56 cfbd 54b6 223d a902 14bd 2971 fdbd
000000b0: 4a1a 6bbc 4bb5 92bd 2d4c d3bc cf6b fcbd
000000c0: 4580 a4bd 5cf6 2cbc 822b efbd 2362 17bd
000000d0: 13bf fbbb d10c cfbd 2f55 62bd 5b0c 9e3d
000000e0: 234d 8f3c 8ea4 b2bd 6e75 7e3d ee1d 76bd
000000f0: 7339 a9bb 194c e13d 2dbd 05bc 008d d23d
00000100: 3a8b d4bd 0a2e e3bd 3c3a 7ebd e58a 953d
00000110: f205 e13d 4256 6bbd c9be 913d d3f2 653d
00000120: 713c d2bc b968 0e3e cc77 933c 93f6 c23d
00000130: a8f4 dabd 1392 17bd 66fa a93c 9176 053e
00000140: 665f 09be 6674 853d 72be e7bd 18e3 883d
00000150: 4f72 9fbd dde6 873c ad10 8a3d b0cb c83d
00000160: e4c7 1a3d ed9d 2cbc 2985 6dbd 0bc3 e43c
00000170: 17cc 843d 29a4 c8bd 89e3 a53d efc7 35ba
00000180: cf83 a9bd 1f25 8d3d fed4 b33c 7f60 c83c
00000190: 6de1 843c e730 85bd 3c00 90bc ad3a 07bd
000001a0: 5ea5 c6bd 4949 e53c e7dc 66bc bd05 3b3c
000001b0: b6fc 76bd f0a7 febc 4b00 823d ce19 01be
000001c0: e7bc be3d 7e88 49bd 0735 d33d 318d 963d
000001d0: 4643 ed3c 53e0 a73d 7f57 11bd 82cf 6d3c
000001e0: 0647 5a3d c0a0 413d c300 dfbc e1ad e7bd
000001f0: 8011 87bd 8bc6 363c 72ad b5bd 73f4 8e3d
00000200: 1142 7e3d d9b4 7d3d 1b6d 97bc 0e63 7ebd
00000210: a5f6 dfbd 5963 1c3d 0fda bb3d e74a 943c
00000220: 53c4 3bbd 8e5c 303d 95f8 543d 3a92 e23d
00000230: 1e2b 2dbb edd1 03be 69ca b23c 58da febc
00000240: aa81 573d a93d 08be cb74 82bc 465b c3bd
00000250: 76f5 c2bd a451 ad3d 5342 2e3b 9b2d 59bc
00000260: 5a87 4abd 0272 afbc cda7 433d b787 8cbd
00000270: b427 a63d 835b 503d 4fb3 22bd f74f 063d
00000280: e799 13bd 36e0 88bd 3d1f 913d a201 133d
00000290: 85dc 77bd 1a61 d4bd 7b14 5abd 21d7 83bd
000002a0: 9578 0e3d 851a a6bb b17c e1bd b4d4 57bd
000002b0: dc52 883d 9650 04bd 2b19 32bb 7efb 193e
000002c0: 3df1 2fbd 64e0 79bd 4e9b bcbc 5efe 223e
000002d0: 84e5 9dbd c9d6 823d 8189 153e 108c 08bb
000002e0: 8f5c 18bd 2b44 dfbd 21c2 ab3d 402b a73d
000002f0: 1007 493b 30b7 d6bc e2c1 8ebd ca15 cdbd
00000300: 4780 7abd f50b e43d 1f48 3fbc d52e 233d
00000310: a568 003e 8aae 193d c2b4 593c da85 e7bd
00000320: 6864 f53d 41bc 27be 8260 91bc af0b 92bd
00000330: a198 a9bd d2a5 a53c cbe1 92bc c1bc 59be
00000340: afe2 01be 05aa 64bd c4a2 15bd c8dd 0d3e
00000350: 55a9 943c c1d2 a23d ffd6 103e a50d bdbd
00000360: 10a2 0a3d 18eb 63bc 21b8 04be c00c 06bd
00000370: 1770 04be e201 e63d 6835 4e3d 152f ad3d
00000380: a8a1 63bc 479c 9e3d ef0c 7d3d 3e22 00be
00000390: 9d63 49bd 6c1f b1bd 2245 73bd e5e3 a1bd
000003a0: c54d 073e 1f20 d83b ae5f d7bd 63d3 cbbd
000003b0: f90e 22be 94b1 dcbc b022 0f3b 06a2 88bd
000003c0: 50a5 f0bd 5f77 263d 6303 d1bd a39c d2bd
000003d0: 04b0 8fbc 00f3 1b3c bf40 ddbc d62f e53b
000003e0: b89c d8bd 8fef da3c 33c3 bd3d 2af7 513d
000003f0: 895c ba3d 5589 e13d f817 a3bd d057 c3bd
0.091690704 -0.11282243 -0.09251006 0.13985156 -0.029307703 -0.0035032376 0.048090022 0.06862215
-0.06753996 -0.10757581 0.01518065 0.119303554 -0.04238215 0.13206674 0.0023953265 0.115089506
0.05342596 0.13814577 0.09064157 0.034332998 -0.016319564 -0.07188382 0.07394397 0.02195077
0.05664539 -0.00076078466 -0.1139311 0.07791766 0.04006246 0.15009122 0.04252783 0.054102052
0.0890013 0.03866949 0.113182746 -0.103865966 0.008199152 -0.056672264 0.022125492 -0.0055652633
-0.10123967 0.039724663 -0.03613535 -0.12375099 -0.0143495295 -0.07163485 -0.02579316 -0.1232525
-0.08032278 -0.0105567835 -0.1167822 -0.036958825 -0.00768269 -0.101098664 -0.05525702 0.077172
0.017492836 -0.087227926 0.06212371 -0.060087137 -0.005164319 0.110008426 -0.008162779 0.102808
-0.10378118 -0.11092766 -0.062067255 0.07301883 0.10987462 -0.05745531 0.071164675 0.05613978
-0.025663586 0.13907136 0.01800146 0.095196865 -0.10691196 -0.03700454 0.020749282 0.1303351
-0.13415298 0.06516342 -0.113156214 0.0668394 -0.077854745 0.016589576 0.06741462 0.09804475
0.037788287 -0.010535699 -0.05798832 0.027925035 0.064842395 -0.09796936 0.081000395 -0.00069343945
-0.082770936 0.06891846 0.021952149 0.024460075 0.016220773 -0.06503468 -0.017578237 -0.033014942
-0.0969951 0.027989047 -0.014090753 0.011414942 -0.060299598 -0.031085938 0.06347712 -0.126075
0.09313374 -0.049202435 0.103128485 0.07351149 0.028962743 0.08197083 -0.035483833 0.014514806
0.05329039 0.047272444 -0.027222043 -0.11312462 -0.06595135 0.011155735 -0.08870973 0.06980219
0.062074725 0.061940048 -0.018484643 -0.062106185 -0.109357156 0.038180683 0.09172451 0.018102122
-0.045841526 0.043057017 0.05199488 0.11063047 -0.0026423405 -0.12873049 0.021825032 -0.031109974
0.05261389 -0.13304771 -0.015924832 -0.095388934 -0.09519474 0.08462837 0.0026589825 -0.013255502
-0.049445488 -0.021416668 0.04776745 -0.06861823 0.081130415 0.050868522 -0.039721783 0.032791104
-0.036035445 -0.0668339 0.07086036 0.03589023 -0.06051304 -0.10370083 -0.053242188 -0.06437517
0.034782965 -0.0050690793 -0.11010111 -0.052693084 0.06656429 -0.032303415 -0.0027175646 0.15037343
-0.042954672 -0.06100501 -0.023023274 0.15917346 -0.07709792 0.06388623 0.14603235 -0.0020835437
-0.037197646 -0.10901674 0.083866365 0.08162546 0.0030674376 -0.026210397 -0.06970574 -0.100139216
-0.06115749 0.11135093 -0.01167491 0.039839584 0.12539919 0.03751997 0.013287725 -0.11304827
0.119820416 -0.16380407 -0.017746214 -0.07131135 -0.08281065 0.02022067 -0.017929932 -0.2126341
-0.12684129 -0.055826206 -0.03653218 0.13854134 0.01814715 0.07950354 0.14144515 -0.09231118
0.03384596 -0.013911031 -0.12960865 -0.032727003 -0.12933384 0.11230828 0.0503439 0.08456246
-0.013893522 0.07744651 0.061779913 -0.12513062 -0.049167264 -0.08648571 -0.059392102 -0.079047956
0.1321326 0.006595626 -0.10516296 -0.09952428 -0.15826024 -0.026940145 0.0021840744 -0.066715285
-0.11750281 0.040641185 -0.10205724 -0.10283782 -0.017539985 0.009518385 -0.027008412 0.006994228
-0.10576767 0.026725559 0.09265747 0.051261105 0.09099681 0.11012522 -0.07963556 -0.09538233
