checkpoints/pair_2/S_6_K_6/GMCD/15_05_2023__15_39/cktp/checkpoint_0003000.tar (torch, 625035 bytes, 45 tensors)

linear_encoding_layer.category_prior f4 [6]
00000000: 6058 e5bf 6058 e5bf 6058 e5bf 6058 e5bf
00000010: 6058 e5bf 6058 e5bf
-1.7917595 -1.7917595 -1.7917595 -1.7917595 -1.7917595 -1.7917595

linear_encoding_layer.fixed_encoder.bias_scale_matrix f4 [6, 10]
00000000: b991 12c1 07ba 8e3f fe91 11c0 7a0f d2bf
00000010: 0ce7 4640 2ab4 cfbf 2ab4 cfbf 2ab4 cfbf
00000020: 2ab4 cfbf 2ab4 cfbf eb93 c73f 7c24 15c1
00000030: 87f4 4dc0 82b5 5b3c e00a debf 2ab4 cfbf
00000040: 2ab4 cfbf 2ab4 cfbf 2ab4 cfbf 2ab4 cfbf
00000050: 4d06 9040 eda3 a93f 631b 1a3e d63f 3a40
00000060: 21ef 0741 2ab4 cfbf 2ab4 cfbf 2ab4 cfbf
00000070: 2ab4 cfbf 2ab4 cfbf 63bb 983f 0bd8 1d40
00000080: bde4 253f faaf d140 2f5b e6c0 2ab4 cfbf
00000090: 2ab4 cfbf 2ab4 cfbf 2ab4 cfbf 2ab4 cfbf
000000a0: a0cc a5bf 1326 74bf 1a49 1541 69da 56c0
000000b0: 5f66 aabf 2ab4 cfbf 2ab4 cfbf 2ab4 cfbf
000000c0: 2ab4 cfbf 2ab4 cfbf 1a91 5f40 7594 8940
000000d0: ca57 9dc0 b6ba c9c0 aaec 35c0 2ab4 cfbf
000000e0: 2ab4 cfbf 2ab4 cfbf 2ab4 cfbf 2ab4 cfbf
-9.160577 1.1150521 -2.2745357 -1.6410973 3.107852 -1.6226857 -1.6226857 -1.6226857
-1.6226857 -1.6226857 1.5592016 -9.321407 -3.2180498 0.013409974 -1.7347069 -1.6226857
-1.6226857 -1.6226857 -1.6226857 -1.6226857 4.500769 1.3253151 0.1504951 2.9101462
8.495881 -1.6226857 -1.6226857 -1.6226857 -1.6226857 -1.6226857 1.1932186 2.4663112
0.6480215 6.5527315 -7.198631 -1.6226857 -1.6226857 -1.6226857 -1.6226857 -1.6226857
-1.2953072 -0.95370597 9.330347 -3.3570807 -1.3312491 -1.6226857 -1.6226857 -1.6226857
-1.6226857 -1.6226857 3.4932313 4.299372 -4.9169664 -6.304042 -2.8425698 -1.6226857
-1.6226857 -1.6226857 -1.6226857 -1.6226857

linear_encoding_layer.fixed_encoder.fixed_embedding.weight f4 [6, 10]
00000000: b991 12c1 07ba 8e3f fe91 11c0 7a0f d2bf
00000010: 0ce7 4640 2ab4 cfbf 2ab4 cfbf 2ab4 cfbf
00000020: 2ab4 cfbf 2ab4 cfbf eb93 c73f 7c24 15c1
00000030: 87f4 4dc0 82b5 5b3c e00a debf 2ab4 cfbf
00000040: 2ab4 cfbf 2ab4 cfbf 2ab4 cfbf 2ab4 cfbf
00000050: 4d06 9040 eda3 a93f 631b 1a3e d63f 3a40
00000060: 21ef 0741 2ab4 cfbf 2ab4 cfbf 2ab4 cfbf
00000070: 2ab4 cfbf 2ab4 cfbf 63bb 983f 0bd8 1d40
00000080: bde4 253f faaf d140 2f5b e6c0 2ab4 cfbf
00000090: 2ab4 cfbf 2ab4 cfbf 2ab4 cfbf 2ab4 cfbf
000000a0: a0cc a5bf 1326 74bf 1a49 1541 69da 56c0
000000b0: 5f66 aabf 2ab4 cfbf 2ab4 cfbf 2ab4 cfbf
000000c0: 2ab4 cfbf 2ab4 cfbf 1a91 5f40 7594 8940
000000d0: ca57 9dc0 b6ba c9c0 aaec 35c0 2ab4 cfbf
000000e0: 2ab4 cfbf 2ab4 cfbf 2ab4 cfbf 2ab4 cfbf
-9.160577 1.1150521 -2.2745357 -1.6410973 3.107852 -1.6226857 -1.6226857 -1.6226857
-1.6226857 -1.6226857 1.5592016 -9.321407 -3.2180498 0.013409974 -1.7347069 -1.6226857
-1.6226857 -1.6226857 -1.6226857 -1.6226857 4.500769 1.3253151 0.1504951 2.9101462
8.495881 -1.6226857 -1.6226857 -1.6226857 -1.6226857 -1.6226857 1.1932186 2.4663112
0.6480215 6.5527315 -7.198631 -1.6226857 -1.6226857 -1.6226857 -1.6226857 -1.6226857
-1.2953072 -0.95370597 9.330347 -3.3570807 -1.3312491 -1.6226857 -1.6226857 -1.6226857
-1.6226857 -1.6226857 3.4932313 4.299372 -4.9169664 -6.304042 -2.8425698 -1.6226857
-1.6226857 -1.6226857 -1.6226857 -1.6226857

linear_encoding_layer.encoder_layers.0.bias_scale_matrix f4 [6, 10]
00000000: b991 12c1 07ba 8e3f fe91 11c0 7a0f d2bf
00000010: 0ce7 4640 2ab4 cfbf 2ab4 cfbf 2ab4 cfbf
00000020: 2ab4 cfbf 2ab4 cfbf eb93 c73f 7c24 15c1
00000030: 87f4 4dc0 82b5 5b3c e00a debf 2ab4 cfbf
00000040: 2ab4 cfbf 2ab4 cfbf 2ab4 cfbf 2ab4 cfbf
00000050: 4d06 9040 eda3 a93f 631b 1a3e d63f 3a40
00000060: 21ef 0741 2ab4 cfbf 2ab4 cfbf 2ab4 cfbf
00000070: 2ab4 cfbf 2ab4 cfbf 63bb 983f 0bd8 1d40
00000080: bde4 253f faaf d140 2f5b e6c0 2ab4 cfbf
00000090: 2ab4 cfbf 2ab4 cfbf 2ab4 cfbf 2ab4 cfbf
000000a0: a0cc a5bf 1326 74bf 1a49 1541 69da 56c0
000000b0: 5f66 aabf 2ab4 cfbf 2ab4 cfbf 2ab4 cfbf
000000c0: 2ab4 cfbf 2ab4 cfbf 1a91 5f40 7594 8940
000000d0: ca57 9dc0 b6ba c9c0 aaec 35c0 2ab4 cfbf
000000e0: 2ab4 cfbf 2ab4 cfbf 2ab4 cfbf 2ab4 cfbf
-9.160577 1.1150521 -2.2745357 -1.6410973 3.107852 -1.6226857 -1.6226857 -1.6226857
-1.6226857 -1.6226857 1.5592016 -9.321407 -3.2180498 0.013409974 -1.7347069 -1.6226857
-1.6226857 -1.6226857 -1.6226857 -1.6226857 4.500769 1.3253151 0.1504951 2.9101462
8.495881 -1.6226857 -1.6226857 -1.6226857 -1.6226857 -1.6226857 1.1932186 2.4663112
0.6480215 6.5527315 -7.198631 -1.6226857 -1.6226857 -1.6226857 -1.6226857 -1.6226857
-1.2953072 -0.95370597 9.330347 -3.3570807 -1.3312491 -1.6226857 -1.6226857 -1.6226857
-1.6226857 -1.6226857 3.4932313 4.299372 -4.9169664 -6.304042 -2.8425698 -1.6226857
-1.6226857 -1.6226857 -1.6226857 -1.6226857

linear_encoding_layer.encoder_layers.0.fixed_embedding.weight f4 [6, 10]
00000000: b991 12c1 07ba 8e3f fe91 11c0 7a0f d2bf
00000010: 0ce7 4640 2ab4 cfbf 2ab4 cfbf 2ab4 cfbf
00000020: 2ab4 cfbf 2ab4 cfbf eb93 c73f 7c24 15c1
00000030: 87f4 4dc0 82b5 5b3c e00a debf 2ab4 cfbf
00000040: 2ab4 cfbf 2ab4 cfbf 2ab4 cfbf 2ab4 cfbf
00000050: 4d06 9040 eda3 a93f 631b 1a3e d63f 3a40
00000060: 21ef 0741 2ab4 cfbf 2ab4 cfbf 2ab4 cfbf
00000070: 2ab4 cfbf 2ab4 cfbf 63bb 983f 0bd8 1d40
00000080: bde4 253f faaf d140 2f5b e6c0 2ab4 cfbf
00000090: 2ab4 cfbf 2ab4 cfbf 2ab4 cfbf 2ab4 cfbf
000000a0: a0cc a5bf 1326 74bf 1a49 1541 69da 56c0
000000b0: 5f66 aabf 2ab4 cfbf 2ab4 cfbf 2ab4 cfbf
000000c0: 2ab4 cfbf 2ab4 cfbf 1a91 5f40 7594 8940
000000d0: ca57 9dc0 b6ba c9c0 aaec 35c0 2ab4 cfbf
000000e0: 2ab4 cfbf 2ab4 cfbf 2ab4 cfbf 2ab4 cfbf
-9.160577 1.1150521 -2.2745357 -1.6410973 3.107852 -1.6226857 -1.6226857 -1.6226857
-1.6226857 -1.6226857 1.5592016 -9.321407 -3.2180498 0.013409974 -1.7347069 -1.6226857
-1.6226857 -1.6226857 -1.6226857 -1.6226857 4.500769 1.3253151 0.1504951 2.9101462
8.495881 -1.6226857 -1.6226857 -1.6226857 -1.6226857 -1.6226857 1.1932186 2.4663112
0.6480215 6.5527315 -7.198631 -1.6226857 -1.6226857 -1.6226857 -1.6226857 -1.6226857
-1.2953072 -0.95370597 9.330347 -3.3570807 -1.3312491 -1.6226857 -1.6226857 -1.6226857
-1.6226857 -1.6226857 3.4932313 4.299372 -4.9169664 -6.304042 -2.8425698 -1.6226857
-1.6226857 -1.6226857 -1.6226857 -1.6226857

z_0_layer.extActFixed.bias_scale_matrix f4 [6, 10]
00000000: b991 12c1 07ba 8e3f fe91 11c0 7a0f d2bf
00000010: 0ce7 4640 2ab4 cfbf 2ab4 cfbf 2ab4 cfbf
00000020: 2ab4 cfbf 2ab4 cfbf eb93 c73f 7c24 15c1
00000030: 87f4 4dc0 82b5 5b3c e00a debf 2ab4 cfbf
00000040: 2ab4 cfbf 2ab4 cfbf 2ab4 cfbf 2ab4 cfbf
00000050: 4d06 9040 eda3 a93f 631b 1a3e d63f 3a40
00000060: 21ef 0741 2ab4 cfbf 2ab4 cfbf 2ab4 cfbf
00000070: 2ab4 cfbf 2ab4 cfbf 63bb 983f 0bd8 1d40
00000080: bde4 253f faaf d140 2f5b e6c0 2ab4 cfbf
00000090: 2ab4 cfbf 2ab4 cfbf 2ab4 cfbf 2ab4 cfbf
000000a0: a0cc a5bf 1326 74bf 1a49 1541 69da 56c0
000000b0: 5f66 aabf 2ab4 cfbf 2ab4 cfbf 2ab4 cfbf
000000c0: 2ab4 cfbf 2ab4 cfbf 1a91 5f40 7594 8940
000000d0: ca57 9dc0 b6ba c9c0 aaec 35c0 2ab4 cfbf
000000e0: 2ab4 cfbf 2ab4 cfbf 2ab4 cfbf 2ab4 cfbf
-9.160577 1.1150521 -2.2745357 -1.6410973 3.107852 -1.6226857 -1.6226857 -1.6226857
-1.6226857 -1.6226857 1.5592016 -9.321407 -3.2180498 0.013409974 -1.7347069 -1.6226857
-1.6226857 -1.6226857 -1.6226857 -1.6226857 4.500769 1.3253151 0.1504951 2.9101462
8.495881 -1.6226857 -1.6226857 -1.6226857 -1.6226857 -1.6226857 1.1932186 2.4663112
0.6480215 6.5527315 -7.198631 -1.6226857 -1.6226857 -1.6226857 -1.6226857 -1.6226857
-1.2953072 -0.95370597 9.330347 -3.3570807 -1.3312491 -1.6226857 -1.6226857 -1.6226857
-1.6226857 -1.6226857 3.4932313 4.299372 -4.9169664 -6.304042 -2.8425698 -1.6226857
-1.6226857 -1.6226857 -1.6226857 -1.6226857

z_0_layer.extActFixed.fixed_embedding.weight f4 [6, 10]
00000000: b991 12c1 07ba 8e3f fe91 11c0 7a0f d2bf
00000010: 0ce7 4640 2ab4 cfbf 2ab4 cfbf 2ab4 cfbf
00000020: 2ab4 cfbf 2ab4 cfbf eb93 c73f 7c24 15c1
00000030: 87f4 4dc0 82b5 5b3c e00a debf 2ab4 cfbf
00000040: 2ab4 cfbf 2ab4 cfbf 2ab4 cfbf 2ab4 cfbf
00000050: 4d06 9040 eda3 a93f 631b 1a3e d63f 3a40
00000060: 21ef 0741 2ab4 cfbf 2ab4 cfbf 2ab4 cfbf
00000070: 2ab4 cfbf 2ab4 cfbf 63bb 983f 0bd8 1d40
00000080: bde4 253f faaf d140 2f5b e6c0 2ab4 cfbf
00000090: 2ab4 cfbf 2ab4 cfbf 2ab4 cfbf 2ab4 cfbf
000000a0: a0cc a5bf 1326 74bf 1a49 1541 69da 56c0
000000b0: 5f66 aabf 2ab4 cfbf 2ab4 cfbf 2ab4 cfbf
000000c0: 2ab4 cfbf 2ab4 cfbf 1a91 5f40 7594 8940
000000d0: ca57 9dc0 b6ba c9c0 aaec 35c0 2ab4 cfbf
000000e0: 2ab4 cfbf 2ab4 cfbf 2ab4 cfbf 2ab4 cfbf
-9.160577 1.1150521 -2.2745357 -1.6410973 3.107852 -1.6226857 -1.6226857 -1.6226857
-1.6226857 -1.6226857 1.5592016 -9.321407 -3.2180498 0.013409974 -1.7347069 -1.6226857
-1.6226857 -1.6226857 -1.6226857 -1.6226857 4.500769 1.3253151 0.1504951 2.9101462
8.495881 -1.6226857 -1.6226857 -1.6226857 -1.6226857 -1.6226857 1.1932186 2.4663112
0.6480215 6.5527315 -7.198631 -1.6226857 -1.6226857 -1.6226857 -1.6226857 -1.6226857
-1.2953072 -0.95370597 9.330347 -3.3570807 -1.3312491 -1.6226857 -1.6226857 -1.6226857
-1.6226857 -1.6226857 3.4932313 4.299372 -4.9169664 -6.304042 -2.8425698 -1.6226857
-1.6226857 -1.6226857 -1.6226857 -1.6226857

z_0_layer.mixture_weights.transformer.first.weight f4 [64, 5]
00000000: 1aaf 0b3e 2ded debd 4309 4b3e 9ecc acbd
00000010: 86fa 983e 3379 cf3d 0bfc 35bd e8ff bfbe
00000020: 153e 153e 207a f6be ffbe 5d3d d985 0e3e
00000030: 5ee8 adbd 66ee cb3e 88ec b9bd 829a b83d
00000040: 6522 223e 43f2 84be e8ae 3bbe aedb e13e
00000050: 799d e4be 8884 15be 4918 14be 2c91 d33e
00000060: 04c3 1abc 609b 343e 3249 1bbd 54e6 6fbe
00000070: 8d96 86be 9d2e 3abe 4f7f f7be d8d9 a9be
00000080: c313 923d 29cd 9c3e 03c7 b9bb c829 7fbe
00000090: e44d 7a3e 13ed 60be 53b7 0bbd b7ba 69be
000000a0: 8af7 bfbd cfda e3be 6a1f 2c3e 2e02 d93d
000000b0: 559c de3d ac0b 8d3e 4f27 5f3e f044 003d
000000c0: 8eb1 303d 679c fc3b d649 883e 8551 c83e
000000d0: a80f cf3e a536 aa3e ef2a 0ebe 5fdf 08bb
000000e0: a12f d9bd 7e5d 893e 3150 163d 61b9 e83e
000000f0: 78d6 013e b77b c1be 1590 4c3e 444c c43e
00000100: 29ae c13e d41c ec3b 6c49 cf3d 1233 e6be
00000110: 0232 6cbe 95aa 6e3e 38dd eabe 638a ea3e
00000120: b01f a6be 4ada 803e 81b1 14bd 3ff6 af3d
00000130: 4784 5c3d 5f75 e8be 9638 c3bd 476a a1be
00000140: ecfd f83e 0f49 e2bd f4fe f7be 94bd e53d
00000150: 48c9 823e 0759 39be 3f3d a8bc f0f1 6d3e
00000160: 3fd6 8cbe 66fa 75be d57e 96bd 243f cebe
00000170: 0c36 9d3e dd4f 043c 77b0 a43e c37f 923e
00000180: 6a13 ebbe e139 a3be c322 b3be 1e6f e8bd
00000190: 9d3a 5ebe 96ec 8ebd ddac f4be 7580 413e
000001a0: 912c 4b3e 8ca2 6a3e bbea 963e d360 c13e
000001b0: 2c14 f8be b100 8f3d 2516 ab3e fe82 8fbe
000001c0: e163 44be b5c6 03bd 70b8 a6be b321 a5bd
000001d0: 8aab bbbd 676e f33e 773e 99bd 9adf 983e
000001e0: 2b98 ab3e 8095 363e b75e a9be 16a0 b73e
000001f0: 2631 843e 777f 90be 2bc6 51be a467 863e
00000200: 2f1f e7be d112 95be 2846 bdbe b618 183e
00000210: de8d 48be cffe bfbe 76fc 3e3e c60b 483e
00000220: fb6c 833e 5100 ccbe 402e ed3e 8727 f6bd
00000230: daa0 d4be d53d 973b 18cb 8a3e f5df 6d3e
00000240: 810e 80bd 9eef b83e 831f ccbe d2da c83e
00000250: 092b e93e 802d babe c797 133c 96dd 53bd
00000260: 4132 c2be 53b9 013c 730d 44be f63d eebe
00000270: 9174 aebe de69 87bd 210d d43e 3945 e63d
00000280: 0a55 87be 5669 ac3e a201 aa3d 88aa ebbe
00000290: b471 cd3d 5b37 a33e 3341 86be 6cf1 dd3c
000002a0: f861 83be bfd0 bebe 158b 5cbe 0371 843d
000002b0: e6c6 a73e 1498 d5bd ec5e d0be a8bf 383d
000002c0: a3f2 b8be e17a 3d3d 9f68 933e bc59 563e
000002d0: 705a 59be b99f 3fbd b868 323e 7ce3 123e
000002e0: a40a dabe 5c2a 59be 7ca2 d2bd bc6d 503e
000002f0: feec a73e 9eb9 0c3e 5813 e83d 40b7 febe
00000300: 51ad 803e 1e2b 8b3d ebbb 05be bf1f 74be
00000310: bb87 623e 9722 85be a51a 643e 02fd b33e
00000320: 7871 afbe 0f7e b5be fd1d 58be bbcd c1be
00000330: 2c8a 01be 17ec 983e 7c6d 8e3e 7093 05be
00000340: 13ee 78bd a1a6 5dbe e611 81be 0073 f6bd
00000350: c560 8dbc bc6d 6bbe 99ef b5be 05ca eb3d
00000360: 43fa 103a 781e 54be d59d 243e 7901 d43e
00000370: 0290 ed3d a441 afbe 1239 dd3e ce67 9a3e
00000380: 6bf3 97bc ae7e 1fbe 62c9 05be 9122 db3e
00000390: 2028 9f3e fd95 46be d61a e2bb 4087 023e
000003a0: 6a64 da3d 374b 8ebd c7c9 5fbe 5fab 5abd
000003b0: 146d 22be be7a 37be 52fd 66be 4902 42be
000003c0: 8711 3bbe 84b0 0f3e e504 acbe 764c d5be
000003d0: 6c26 cc3e eb86 743e 568f 843e c355 3f3e
000003e0: 5804 f1bd 46ab 92be ccaa a8be 2fff 2cbd
000003f0: 0e25 8e3d 0bbe d2be 9113 8fbe 5ab9 5c3e
0.13641015 -0.108850814 0.19827752 -0.08437465 0.29878634 0.10130539 -0.04442982 -0.37499928
0.14574464 -0.4814005 0.054137226 0.13918246 -0.08491586 0.3983032 -0.09078318 0.09013845
0.15833433 -0.2596608 -0.1832844 0.44112915 -0.44651392 -0.14601338 -0.14462389 0.41321695
-0.009445909 0.17637396 -0.0379116 -0.23427707 -0.26286736 -0.18181844 -0.48339316 -0.33174014
0.071326755 0.30625275 -0.005669476 -0.24918282 0.24443775 -0.21965437 -0.03411038 -0.22825132
-0.09373386 -0.44502875 0.16808859 0.10596119 0.10869662 0.27547967 0.21792339 0.031315744
0.04313808 0.0077090743 0.26618832 0.39124694 0.40441632 0.33244815 -0.13883565 -0.0020885093
-0.106047876 0.2682914 0.03669757 0.45453933 0.1267947 -0.377897 0.19976838 0.38339436
0.37828186 0.007205585 0.10121426 -0.4496084 -0.23065951 0.2330726 -0.45871902 0.45808706
-0.3244605 0.2516654 -0.036302093 0.085918896 0.053837087 -0.45402047 -0.09532277 -0.31526396
0.48631227 -0.11049091 -0.484367 0.112178 0.2554419 -0.18100367 -0.020537017 0.23236823
-0.27507207 -0.240213 -0.0734841 -0.40282547 0.30705297 0.0080756815 0.32165882 0.286131
-0.4591325 -0.31880096 -0.3498746 -0.11349319 -0.21702047 -0.06978719 -0.47788134 0.18896659
0.1984122 0.22913569 0.2947596 0.37769184 -0.4845289 0.06982554 0.33415332 -0.28029627
-0.19178726 -0.032171924 -0.3256259 -0.08063068 -0.09163578 0.47545168 -0.07482617 0.29858094
0.33514532 0.17830467 -0.33080074 0.35864323 0.25818747 -0.28222248 -0.20485751 0.26250947
-0.4514098 -0.29115918 -0.36967587 0.14853176 -0.19585368 -0.3749909 0.18650994 0.19535741
0.25669083 -0.3984399 0.46324348 -0.12019258 -0.4152897 0.0046155252 0.27108073 0.23229964
-0.062527664 0.36120313 -0.39867792 0.39229447 0.45540646 -0.3636284 0.0090083545 -0.051724993
-0.37928966 0.00791772 -0.19145755 -0.46531647 -0.34073308 -0.066119894 0.41416267 0.11243672
-0.26432067 0.33674115 0.08301093 -0.46028543 0.10031453 0.3187817 -0.26221618 0.027092658
-0.25660682 -0.37268636 -0.2153743 0.06466868 0.32768935 -0.10429397 -0.4069742 0.045104653
-0.36122617 0.046259765 0.28790757 0.20932668 -0.21225905 -0.046783183 0.1742276 0.14344591
-0.42586243 -0.21207565 -0.10284898 0.2035436 0.32797998 0.13742682 0.113318145 -0.49749184
0.2513223 0.06795333 -0.13059966 -0.23840235 0.2212209 -0.26002952 0.22275789 0.35153967
-0.34266257 -0.35447738 -0.2110519 -0.37852272 -0.12650365 0.29867622 0.27817905 -0.13044524
-0.06077392 -0.21645595 -0.25208968 -0.12033653 -0.017258057 -0.22991079 -0.3553436 0.115131415
0.0005530456 -0.20714748 0.16075833 0.41407374 0.11599733 -0.34229767 0.43207604 0.30157322
-0.018548688 -0.15575668 -0.13065103 0.4279981 0.310853 -0.19393153 -0.0069001717 0.12746906
0.10663684 -0.0694794 -0.21854316 -0.05338609 -0.15861923 -0.17917916 -0.22557572 -0.18946184
-0.18268405 0.14032179 -0.33597484 -0.41659898 0.39873064 0.23879592 0.25890607 0.18685059
-0.11768407 -0.28646296 -0.32942808 -0.04223555 0.06940661 -0.41160616 -0.27944615 0.21555081

z_0_layer.mixture_weights.transformer.first.bias f4 [64]
00000000: d3c6 24be 76ff 7fbe 24e3 293e 0946 fb3d
00000010: 013f ea3d 7600 c9be 93d3 0dbe bbd3 13be
00000020: dabf ff3a 98c4 ce3e 16fc 9dbe dc50 d2ba
00000030: db46 243e a9a6 803e 87be dcbe 7635 403c
00000040: 7535 b23e 7841 97be 6387 883e a794 84bd
00000050: 3a5e cf3e c08a bfbe cf2a a93d ca16 a53e
00000060: 95d5 a13e 2a21 60be 5245 b6be be9c 2f3c
00000070: 1c6f 61be 731a 923e e33e 7dbe 84f3 f33c
00000080: e5f7 c6be 897d 2d3b 60d4 bf3e e6ac 7a3e
00000090: 7a07 363e f382 81be 28e1 cc3e 26db 56be
000000a0: 9040 ca3e f725 bcbe 6241 63be c340 0abe
000000b0: 5957 a93d 7956 753e 1436 b53d 1937 3cbe
000000c0: 4c2f b5be 892b 04be 1cc5 63be 35d8 86be
000000d0: 3c4d 8c3e 964f 8e3d 7845 6fbe 16fb 473e
000000e0: 0c49 99be c82b 83be 079f 49bd 87e3 913e
000000f0: 6b08 783e 3c76 9cbe 6abd 98be d565 153e
-0.1609147 -0.24999794 0.16590554 0.122692175 0.11437798 -0.39258164 -0.1385024 -0.14436238
0.0019512132 0.40384364 -0.3085639 -0.0016045826 0.16042654 0.25127152 -0.4311411 0.011731496
0.3480641 -0.29542136 0.26665792 -0.06473666 0.40501577 -0.37410545 0.08260118 0.3224395
0.31608263 -0.21887651 -0.35599762 0.010718523 -0.22015041 0.28535804 -0.2473102 0.029779203
-0.38861004 0.002647253 0.37466717 0.24480018 0.1777629 -0.2529522 0.4001553 -0.20982036
0.39502382 -0.36747715 -0.2219291 -0.13501267 0.08268613 0.23958768 0.08848205 -0.18380393
-0.35387647 -0.12907232 -0.2224316 -0.26336828 0.27402675 0.069487736 -0.23366344 0.19529375
-0.29938543 -0.2561934 -0.049223926 0.28493902 0.24221961 -0.30558956 -0.2983201 0.14589627

z_0_layer.mixture_weights.transformer.mlp.0.weight f4 [256, 64]
00000000: 7601 4bbc 3993 1d3d 8007 3c3d 423b c8bd
00000010: 7a4a 95bc 8dea 28bc 26bd 763c df1e 4c3d
00000020: 25c0 9abd c23a 0f3d 14a6 d23d 7326 cfbd
00000030: d2ed 393d 1d73 013e 618d 073d b2d2 663d
00000040: f5d6 95bc 1531 233d 93c8 a23c 08e8 503d
00000050: ff58 97bd 5b03 af3d 2937 40bd bc0a f3bd
00000060: 5b19 a93d 4bcc d0bc 6461 02be c590 37be
00000070: 54cc b5bd 4159 bcbd 7508 99bd 82b4 d0bd
00000080: d3ba 573b e9f9 453d e784 bbbd 24bb 08bd
00000090: 465e e53d d162 fdbd 2ba2 863d 02ca b3bb
000000a0: c69e b83b 89bc 59bd 7c64 393d 5e8d 30bc
000000b0: 0ab2 16bc fd68 e23d d5a0 0dbe fb6d a83d
000000c0: 6966 543d 3f85 e7bc f0fc 353a b9cf b23d
000000d0: c232 293d 296a abbd 77b4 70bd f82d 65bd
000000e0: c094 a13c ac82 803b 1890 143d 2aee 473d
000000f0: d0c8 12be ca3f e63c a236 bf3b d3e4 143b
00000100: 39fb e1bd 9db2 a4bd f416 dbbc e282 523d
00000110: f6d1 77bd fe3e 4ebd 1687 ba3b dbdd 303c
00000120: 2499 3ebc d522 153b d936 a9bd e4b0 b03d
00000130: bd79 4cbb de24 403d 2683 9fbd df28 14bd
00000140: 8c4b cd3c 10f2 8dbd f26e 80bc c9eb c8bd
00000150: 99e6 78bd 4914 73bd 86c3 96bd 876f 833d
00000160: ea52 a03d 4110 02be 557c 0bbd 6ffa 6ebd
00000170: d1c8 15be ad18 78bd bbd2 8a3d 72e7 9bbc
00000180: 03ed 873b de8d c23d b040 833d 4e51 9a3d
00000190: 136d bebd 5fc2 ef3c 37cc e43d cc1c 293d
000001a0: 5862 21bd 995b af3d e9d7 1bbd 1d3c 463d
000001b0: 940c cbbd 4a5a d1bd 40ed debd 9d07 80bd
000001c0: 23ff 89bd be96 15be 334c b2bd ebf2 42bd
000001d0: 7582 e73d 63e2 a93d 72d5 8b3c 0c1c 3fbd
000001e0: fdd8 03bd c2cc ac3d 3b7d a2bd f70e eebd
000001f0: d995 89bd d32e c43d c6d1 a33d 26b9 02be
00000200: c80a fa3d 2b01 9bbd 5aa5 7abd 6562 9abd
00000210: 3aec d43d fc2b 983d 88ab b93d 2a92 5d3c
00000220: 557b 48bd e8a5 703d 116b 33bd 9413 dbbd
00000230: d642 67bd 608f 8c3d 3371 ccbd 727c dcbd
00000240: 055e fa3d ccc8 11bd c06a 963c 2524 203e
00000250: e3b7 393a 61fb a63c 1fb5 903d c51d d63d
00000260: 98ba ddbd 0fdf 303d 1364 86bd dd19 c1bd
00000270: f91c a9bc 8a2a 853d 5cd5 ecbd bb7b 2dbd
00000280: 6829 0dbd 8d0d 463d 5c4d 323d 9917 773d
00000290: 4e71 c83d 3670 753d 497d abbc b29c 863b
000002a0: 2439 ab3d 6524 773d 0f63 aebd bb54 353c
000002b0: e0b9 813d 85b9 1c3d 4df6 003c 6733 26b9
000002c0: 9623 533d 98fb 14bd c2d9 d43d 67e0 bebd
000002d0: dab1 01be 1065 bbbb 55eb 1d3d 920e 703d
000002e0: eb89 89bd e681 643c c5ed 02be 6d8c 223d
000002f0: 60e0 703d 0c6a a3bd c5f8 243b 0f8f 753d
00000300: 3d47 f0ba 86ca 673d 1364 bebd b146 1f3d
00000310: 304d 2f3d a30c 213d 59c7 acbc a37c bb3b
00000320: 2c60 cb3d 5ea6 bdbd 5ea8 69bc ffef 0ebd
00000330: 3c0c 88bd 0420 83bd de02 ff3c 72d1 b33d
00000340: ffa9 afbd 2fc7 fb3d eed4 2f3d 103e babd
00000350: b44a e83d e44a 3dbc c6dc 563d 5da6 e03d
00000360: c9e2 84bb f207 733d f19f 69bd dc2e 543d
00000370: 0d44 4bbd ab6d debd 9d70 aabd f835 33be
00000380: c7d3 d8b9 d834 d6bb 1d74 4abd da33 5abd
00000390: dcb0 9b3c ea22 1a3d c335 1dbd 07ca d03d
000003a0: 15eb 87bc d654 73bd 32b4 473d ba16 123d
000003b0: 9605 90bd b529 8d3c a847 ef3c 9367 2b3d
000003c0: 4a9a 13bd 2ec9 10be 8b25 d6bd e7c4 863d
000003d0: 9b99 e63d 10d3 dd3d 2b51 f93c e014 aa3d
000003e0: 639b 3e3d 7b7d ab3d 578b 833d f27d aabd
000003f0: cc2e 88bc 7f04 13be d3fe 073d e72d 39bd
-0.012390485 0.03847048 0.04590559 -0.097769275 -0.01822399 -0.0103098275 0.015059745 0.04983413
-0.0755618 0.034968145 0.10285583 -0.101147555 0.04539282 0.12641568 0.033093814 0.05635328
-0.018290976 0.03984173 0.019871032 0.051002532 -0.073900215 0.08545562 -0.046927605 -0.11867282
0.08256789 -0.02548804 -0.12732464 -0.17926319 -0.08876863 -0.09196711 -0.07472316 -0.10190679
0.0032917752 0.048334036 -0.091562085 -0.033381596 0.11199622 -0.12372363 0.065739 -0.0054867277
0.0056341616 -0.053158317 0.045261845 -0.010775892 -0.009197721 0.11055181 -0.13830884 0.08224102
0.05185548 -0.028261779 0.00069422927 0.08731026 0.041308172 -0.08369858 -0.058765855 -0.055952042
0.01972425 0.0039218273 0.03627023 0.048811115 -0.14334416 0.028106589 0.00583537 0.0022719398
-0.11034245 -0.0804188 -0.026744343 0.05139435 -0.06050297 -0.050353043 0.005692373 0.010795082
-0.011633191 0.0022756357 -0.082624145 0.08627489 -0.0031200491 0.04691016 -0.077886865 -0.03617179
0.025060438 -0.069309354 -0.015677903 -0.098105974 -0.06076679 -0.059345517 -0.07361512 0.064177565
0.078283146 -0.12701513 -0.03405412 -0.0583443 -0.14627387 -0.060570408 0.06778475 -0.01903126
0.004148127 0.09499715 0.064088225 0.07535039 -0.09298148 0.029267488 0.111717634 0.04128723
-0.03940043 0.08562393 -0.038047705 0.048397172 -0.099145085 -0.102222994 -0.108850956 -0.06251452
-0.067381166 -0.14608285 -0.0870594 -0.047594946 0.113041796 0.08295133 0.017069552 -0.046657607
-0.032189358 0.08437492 -0.07934042 -0.11623948 -0.06718034 0.095792435 0.079989955 -0.12765941
0.122090876 -0.07568582 -0.061192848 -0.075382985 0.10396619 0.07430264 0.0906592 0.013523618
-0.048945744 0.05875197 -0.04380328 -0.106970936 -0.056460224 0.06863284 -0.099825285 -0.107659236
0.12224964 -0.035591885 0.01836145 0.15638788 0.0007084591 0.020383539 0.07065796 0.10454897
-0.108266056 0.043181475 -0.065620564 -0.09428761 -0.020643698 0.06502254 -0.115641326 -0.042354327
-0.034463316 0.048352767 0.043530807 0.06032524 0.09787236 0.059921466 -0.020933764 0.004108035
0.08360508 0.060337443 -0.08514988 0.011067565 0.06334281 0.038262863 0.007871223 -0.00015850143
0.05154761 -0.03637275 0.103930965 -0.09320145 -0.12665501 -0.0057188347 0.03855451 0.058607645
-0.06715759 0.013946986 -0.12786014 0.0396847 0.05880773 -0.07979211 0.0025172692 0.059950884
-0.0018331778 0.056589626 -0.092964314 0.038885776 0.04279822 0.039318692 -0.02109115 0.005721645
0.09930453 -0.09260248 -0.014261333 -0.034896847 -0.066429585 -0.06402591 0.031129297 0.08780183
-0.08577346 0.12293851 0.042927675 -0.09093869 0.113423735 -0.0115535 0.05245664 0.10969231
-0.004055355 0.05933375 -0.057037298 0.0518025 -0.049625445 -0.10860761 -0.083222605 -0.17501056
-0.00041356517 -0.006537061 -0.04942714 -0.053272106 0.019005232 0.037630953 -0.03838135 0.10194784
-0.016591588 -0.059407078 0.048755832 0.035666205 -0.070323154 0.017231802 0.029208973 0.041846823
-0.036035813 -0.14139244 -0.104563795 0.06580525 0.11259767 0.108312726 0.030434212 0.08304763
0.046534907 0.08373543 0.06423061 -0.083248034 -0.016623877 -0.14357184 0.033202004 -0.04520979

z_0_layer.mixture_weights.transformer.mlp.0.bias f4 [256]
00000000: 43d5 3b3d 7617 93bd cd7b 5a3c 0526 b2bd
00000010: c6db 88bd 9990 a5bd 7acc c23c 35e1 903c
00000020: 43c3 bbbd b3f6 553d 453c 9cbd f2e5 a6bc
00000030: 76f4 1cbe a8e7 c6bd 07b9 1dbd 7338 05be
00000040: c251 08be a9a4 a6bc b188 d8bb 2402 93bd
00000050: 2ecf e3bd ebd3 433d 3169 913c 61df 873d
00000060: 5ea2 3a3d 027f a6bc 0d1e 05be e268 01be
00000070: 494e 833d f2c7 27bd dfc6 e5bd 393c c33c
00000080: 4cce 9cbd bc3d e5bd 3f0c a7bd 8a28 2a3c
00000090: 8169 b0bd 7228 003d 9452 dc3d a00c 09bd
000000a0: 0110 803d 9edb 2bbe 91f2 1abe ecda 0abe
000000b0: a2e2 1dbd e4ad 6cbd bda0 3b3c 2850 1d3d
000000c0: 2d06 f0bd 8f45 963d 0aa2 f83b bcdb 0cbe
000000d0: 6b5a 3b3d 1bd8 16bc 3a2c cebd 500a a2bc
000000e0: 18fa 34bd f1b8 83bd 1999 e0bd 0d5f 13bd
000000f0: 3700 01bd ec38 dabc 7d12 b23d f1d9 24be
00000100: b4ee 2abd 0991 ddbd 482d 773d 92f9 1cbe
00000110: 67a5 b23d a3ab ac3d 1bda ebbd ca1f 81bd
00000120: d81b 29be e54a 513d 79ae 42bb f7a9 c6bd
00000130: 4e36 94bb 5d02 63bd 1152 ad39 592e 0abe
00000140: 0a25 cbbd 73a4 04bd b829 643d 3e0a b3bd
00000150: 6e9f 1bbd 92c1 38bd 7e05 853c 6f3c a03d
00000160: bb01 32bd d6e3 6ebc c404 96bd 3f2d 873d
00000170: dc0a bf3d 3722 683d aa56 e53d bc78 463d
00000180: be4b 0ebe 7a21 ebbc 3fbd 0abe 706c 933d
00000190: 63e6 89bc 6a53 21be e555 bfbc 858d 303c
000001a0: e15f 5b3c db07 f83c dad8 dcbd 6e51 6abd
000001b0: 0cd6 9d3c e5e0 6cbc 5cbb 11be df9f 49bc
000001c0: c4df be3d 5276 abbd 7856 e5bd dbbb e7bd
000001d0: a881 89bc 0fe8 37bd f7eb 10be 885c 9e3d
000001e0: 8e0d c83c 4ae7 9b39 845d 11be 9581 093d
000001f0: 064a 803a 08be 04be 02d0 4c3d 4643 203d
00000200: f4e5 c0bc 3b78 fbbd 00c0 28be f4a3 7c3d
00000210: 841e 49bb f1ca 883d 9595 843c 2255 023d
00000220: cd02 16be 21e3 933d d1f0 c9bd b1ea 80bc
00000230: acf5 f2bb f8e6 973c a6dd dabd 6e06 c8bd
00000240: 2f82 8d3d 636c a23d b3a5 b2bd cb8c c0bd
00000250: d0af 2bbd 7014 16be fece a5bb c37f 823d
00000260: 1420 dbbd 8e1a 0cbd ae12 70bd 7f49 883d
00000270: 8e53 11bd 31f3 05be 2c4a a3bd 2b80 cbbd
00000280: add7 25be 0c65 04be f093 01be 0ce6 f9bd
00000290: 478f c8bd 6f08 8dbd 5d32 2abd 320f 56bd
000002a0: 837d 57bd a806 aabc 8f42 d2bd 2d7d 5c3c
000002b0: 49de 23bb d27c 71bd 8d3d 5c3d 4319 53bc
000002c0: ab9f c2bd 3e8a 1fbc fc03 87bd 6d5a 993c
000002d0: b1d7 7dbb 391f c1bd 4289 31bd 3665 18be
000002e0: fded 1a3d a1ab 1dbd 5d28 05be 8410 8f3b
000002f0: 8a9f ba3d a907 e7bd d04d c6bd 7996 643d
00000300: 3733 f13c a2f6 0c3c 576e cbbd b1f6 06be
00000310: 3374 94bd 99ef 6c3d fbfa 583d 9190 95bd
00000320: 67b6 ef3a fb1d ae3d e33b a9bc 2eca 83bd
00000330: 52da 14bd 5a1a 73bd 1852 cdbd cc9f b9bc
00000340: e429 bf3c 2a7e cbbd 424a 0abe eae3 b33c
00000350: 5df9 21be a922 f63b 405b e83d e79f 293d
00000360: 05ff b7bd bb80 a93d ffbe b6bc 05ef 83bd
00000370: 66f8 143d e3ad 4cbd 7e87 6dbd a8d0 c3bd
00000380: aa48 cabd 23c3 53bd 6464 86bd 9689 87bd
00000390: 7e7b 053d 408c f0bb 2d67 323d e7e6 c4bd
000003a0: 8c39 73bc 4f49 c7bc 1252 e73d da87 f2bd
000003b0: 38a5 9d3d c1fb 713d c2e5 e33c bc55 c6bd
000003c0: 4873 623d 3bb7 13be c4cc 953d fa6e 4f3d
000003d0: 8837 72bc 1a6b 9f3b 6dbc 68bd eccd 803d
000003e0: 96af c7bd cf17 f0bd 2b46 e6bb fc97 383b
000003f0: fc16 5a3c 81c3 81bc 902d e03d 4de0 6c3d
0.04585768 -0.07182209 0.0133351805 -0.08698658 -0.066825435 -0.080842204 0.023779143 0.017685512
-0.091681026 0.052237224 -0.07628683 -0.020373318 -0.1532763 -0.09712154 -0.038506534 -0.13009815
-0.13312438 -0.020342188 -0.0066080918 -0.07178143 -0.11123501 0.047809523 0.017750354 0.06634403
0.045565 -0.020324234 -0.12999745 -0.12637666 0.06411416 -0.040962167 -0.11219572 0.023832427
-0.076565355 -0.111934155 -0.08156633 0.010385642 -0.08613873 0.03128857 0.10757938 -0.033459306
0.062530525 -0.16782996 -0.15131594 -0.13560075 -0.038546212 -0.057783023 0.011451897 0.03840652
-0.11719928 0.07337486 0.007587676 -0.13755697 0.045740526 -0.009206797 -0.10067029 -0.019780308
-0.04418382 -0.06431759 -0.10966701 -0.03597932 -0.031494346 -0.02663847 0.086949326 -0.16098763
-0.04173155 -0.10818679 0.060345918 -0.15329579 0.08722954 0.084311746 -0.1151621 -0.063048914
-0.16514528 0.051096816 -0.0029706045 -0.09700387 -0.004523075 -0.055422176 0.00033058276 -0.13494243
-0.09919174 -0.032383393 0.05570385 -0.08742188 -0.03799384 -0.045106478 0.01623797 0.07824027
-0.04345868 -0.0145806875 -0.07325128 0.06600427 0.09328243 0.056673255 0.111981705 0.048454985
-0.13896081 -0.028702486 -0.13548754 0.07198417 -0.01683349 -0.15754476 -0.023356387 0.010775928
0.0133895585 0.030277183 -0.10783549 -0.057206564 0.019267105 -0.014457916 -0.14231628 -0.012306183
0.09320024 -0.08372177 -0.11198133 -0.113151275 -0.016785458 -0.044899043 -0.14152513 0.07732493
0.024420526 0.00029736228 -0.1419583 0.033570845 0.0009787686 -0.12963116 0.05000306 0.039126657
-0.02354715 -0.122787915 -0.16479492 0.061679795 -0.0030688355 0.06679333 0.016184608 0.03181947
-0.14649506 0.07221056 -0.09860385 -0.01573691 -0.0074145403 0.018542752 -0.10686807 -0.09766851
0.06909596 0.079308294 -0.08723011 -0.09401854 -0.041915715 -0.14656234 -0.005060076 0.06372025
-0.10699478 -0.034205012 -0.058611564 0.06654643 -0.035480075 -0.13081051 -0.079731315 -0.099365555
-0.16195555 -0.12929171 -0.1265409 -0.12202081 -0.09792953 -0.06886374 -0.041551936 -0.052260585
-0.05260993 -0.020755127 -0.10266601 0.013457579 -0.0025004318 -0.05895693 0.053769637 -0.012884441
-0.095031105 -0.009737549 -0.06592557 0.018719876 -0.0038733298 -0.094297834 -0.04334379 -0.14882359
0.03782462 -0.038493756 -0.13003679 0.0043659825 0.09112461 -0.11280758 -0.0968281 0.055807564
0.029443366 0.008603724 -0.09933155 -0.13180043 -0.07248726 0.057845686 0.05297373 -0.073029645
0.0018288613 0.08501812 -0.020658439 -0.06435047 -0.03634102 -0.059351303 -0.10025424 -0.022659205
0.023335405 -0.09936173 -0.1350489 0.021959264 -0.15817781 0.007511456 0.113455296 0.04141226
-0.08984188 0.082765065 -0.02230787 -0.06442074 0.036369704 -0.04997052 -0.057990544 -0.095612824
-0.09877141 -0.05169977 -0.06562117 -0.06618039 0.032588474 -0.007340938 0.043555427 -0.096143536
-0.014845263 -0.024326948 0.112949505 -0.11842318 0.076975286 0.05907798 0.027819518 -0.09684321
0.055285722 -0.14425366 0.073144466 0.050642945 -0.0147837475 0.0048650624 -0.05682032 0.062892765
-0.09750287 -0.11723291 -0.0070274076 0.0028166762 0.013311144 -0.015840294 0.1094619 0.057831097

z_0_layer.mixture_weights.transformer.mlp.2.weight f4 [128, 256]
00000000: 9ce3 2ebc fd84 553c c0a9 3a3d ddb8 3c3d
00000010: 898e 95bc 3c11 4cbc 50a6 2b3d 81e1 d3bc
00000020: ca44 1d3d 1bec 2c3d 5b68 25bd b5b1 943d
00000030: 700c 5d3d d529 40bd 4e18 963c b281 8f3c
00000040: 05e1 50bd fab3 823d 5731 02bd 4862 d2bc
00000050: 2ba8 5f3d b530 6f3d cc40 0f3d 756f 13bc
00000060: 0ac6 41bc c9ac 893b 7c0e 23bd 42ec 5abd
00000070: 762d 92bc a882 06bd 7175 633d 1d3e 203d
00000080: f785 6bbd a7da adbc 6c48 d8bc 5d15 99bc
00000090: 9241 2dbd 6113 d73c 5267 613d effc d33a
000000a0: 6b77 f6bc 5354 cb3c cda2 343d cbe3 1c3d
000000b0: c499 31bb f471 1ebd ad47 143d b172 6d3b
000000c0: 009e 4b3a 1e60 febc 211f 87bd 24c2 783c
000000d0: 4494 a4bc 4868 3ebd 71e0 00bd 3016 7b3d
000000e0: 6a93 babc a6c6 7dbd 9bdb 1dbd b9b8 2a3d
000000f0: 617c f2bc 8ba4 5fbd 934a 6fbb 57b8 30bd
00000100: c80f bc3c 59df d7bc 4cca 253d 032c 813d
00000110: 5a15 15bd 2643 143d 7408 5dbd fe24 6a3d
00000120: dc5f 2e3b b89f 3f3d 206b efbb b3e5 36bd
00000130: 8628 c43c a864 d539 ff2a 703d f52f 193d
00000140: 26a0 8a3d 4862 d8bc c2bf 623d 8027 05bb
00000150: 37a3 a7bc aed7 ef3c f1f7 213d d385 4abc
00000160: 8a39 4dbd d644 48bc f91e 013d 81b9 5b3d
00000170: 8424 0e3d 4cd2 5dbc 4eb9 dd3c 8044 07bd
00000180: c55f b4bc 69e3 abba cb6a 2bbc ff46 e53b
00000190: 9554 213b eff4 8f3c 2182 babc 9597 04bd
000001a0: b4d4 95bd 4028 45bc 4df1 043d bda9 293d
000001b0: c90f c0bc 8003 6e3c 889b 263d 5d92 8ebc
000001c0: c8d1 98bc abbf c93c a7d2 23bd c8f3 5abd
000001d0: b35a 3b3d 434a 10b9 c855 4b3c 69dc 58bd
000001e0: 203f cc3c 73a7 ec3b db89 9c3c e7ac e23c
000001f0: b224 8bbd 7b3d 893b 8d2a 523c e09b 383c
00000200: 799c f73c 310e da39 78b2 5a3d c441 3dbd
00000210: 6d84 82bd 4ab8 143d 21be 68bd ad4a 013d
00000220: 2eab e5bb 2eb9 4f3d 9ef6 f7bb 913b 4e3d
00000230: a536 293d 9d19 c43b 437a 903d b7c4 8d3d
00000240: 14d5 823d 9545 643c 9863 95bb 82fb 18bd
00000250: 142a 84bd bacd 81bd eafe 48bb c1e4 f2bc
00000260: 5c8d 953c 7913 453d b50f c73c 51cc 773d
00000270: 271e 5f3d 94dc 243d 3ef4 92bd 107c 9a3c
00000280: 6f85 333d e3ac 40bd 9e48 74bc 7c0f 123c
00000290: a568 473d 73c3 dbbc 7146 73bd 1caa 88bb
000002a0: 3788 58bd 304c 3a3c 60fe 35bd e879 fe3c
000002b0: 96e5 ca3c 81da 783b 41de db3c c363 0cbd
000002c0: 08a3 093d 53af e73b b158 09bd e09a afbb
000002d0: 9f75 323d 541b 363d 33e9 a0bc 4900 6dbd
000002e0: bb5c 37bd ac48 09bc 293a bebc 7072 433d
000002f0: e107 3e3c 7da2 25bd 9313 383d ff08 dbbc
00000300: 8ff5 793d 7e7a 6f3c 8d45 823d cfbc fb3c
00000310: 5ada 043d b178 d43b 3b9f 06bd 4537 34bc
00000320: 9c1b 153d c650 da3c a779 2f3d a3d3 613d
00000330: 9dc2 c9bc 8f23 c43c c403 b73b e1e5 433c
00000340: de6e 5b3d d34e be3c 896b 623d 79d3 fa3c
00000350: 20dd 46bd fe84 85bc dfd7 e2bc 00b1 56bd
00000360: 249a 583c 8e7c d1bc 0a32 28bd ca5c e8bc
00000370: b527 54bd 868b 55bd caec 443d 9cb7 98ba
00000380: 4c3e 173d cdc2 e83c fc82 6cbd 91a2 6fbd
00000390: 5850 603d 49c1 6abd 5068 18bd 52f7 e43c
000003a0: 5de2 eabb e288 e13b 0c41 06bc 426a bf3c
000003b0: e5c8 293c b150 6cbb fa76 dbbc edbc 99bc
000003c0: 3e5d 96bc 1b92 4b3d 501f 1bbc 23da 28bd
000003d0: 188d 64bc 51fd cd3b 59ad 75bd 96f8 743d
000003e0: d2e3 0dbd e37d e4bc d8c6 343d e310 1bbc
000003f0: 61f1 22bc ea6d 033d 1f7a 1cbb f5a4 ec3c
-0.0106743835 0.013032195 0.045572042 0.046074737 -0.018256443 -0.012455281 0.041906655 -0.025864365
0.03839568 0.042217355 -0.040382724 0.072604574 0.05396694 -0.046914894 0.018322136 0.017517898
-0.050995845 0.06381984 -0.031785335 -0.02568163 0.054603737 0.05839606 0.034973904 -0.008998741
-0.011827001 0.004201506 -0.039808735 -0.05344797 -0.017843943 -0.032839447 0.055531923 0.039121736
-0.057500806 -0.021222426 -0.026401721 -0.018686945 -0.04229886 0.026254358 0.055030175 0.0016173403
-0.03008624 0.024820482 0.04410057 0.038303178 -0.0027099708 -0.038682893 0.036201168 0.0036231691
0.0007767379 -0.031051692 -0.06597734 0.0151830055 -0.02009023 -0.04648617 -0.031464044 0.061300457
-0.02277537 -0.061957024 -0.03853951 0.04168007 -0.029600324 -0.05460028 -0.0036512956 -0.04314455
0.022956744 -0.026351618 0.04047613 0.06307223 -0.036397316 0.03619685 -0.05396314 0.057164185
0.002660743 0.04678318 -0.0073064715 -0.044652652 0.023945104 0.0004070152 0.058634754 0.03739925
0.06768827 -0.026414052 0.055358656 -0.0020317733 -0.02046357 0.029277649 0.039543096 -0.012361008
-0.0501037 -0.012223443 0.03152368 0.053643707 0.034702793 -0.013538908 0.0270659 -0.03302431
-0.022018323 -0.0013114038 -0.010462473 0.006996989 0.0024617065 0.017572848 -0.022767128 -0.032371122
-0.073159605 -0.012033522 0.032456685 0.04142164 -0.023445027 0.014527202 0.04067567 -0.017403776
-0.018654719 0.024627527 -0.039995816 -0.053455144 0.045740794 -0.00013760575 0.012410589 -0.052944575
0.024932444 0.00722211 0.019108703 0.027670337 -0.067941085 0.0041882372 0.012827528 0.011267632
0.03022598 0.00041590774 0.053392857 -0.046205297 -0.063729145 0.036308564 -0.056821946 0.031565357
-0.0070089316 0.05071371 -0.007567241 0.050349776 0.04131188 0.0059844987 0.070545696 0.06922286
0.06388298 0.013932605 -0.0045589916 -0.03734923 -0.06453338 -0.06338067 -0.0030669519 -0.029650094
0.018255882 0.048114274 0.024299482 0.060497586 0.054472115 0.040249422 -0.07175492 0.018857986
0.043828424 -0.047039878 -0.014909891 0.008914825 0.04868378 -0.026826596 -0.05939335 -0.0041706692
-0.05286428 0.011370704 -0.044432044 0.031063989 0.024767678 0.0037972035 0.026839377 -0.034274828
0.033602744 0.007070461 -0.03353185 -0.0053590387 0.043569203 0.044459656 -0.019642448 -0.0578616
-0.04476617 -0.008379143 -0.023221092 0.047716558 0.011598558 -0.040438164 0.044940542 -0.026737688
0.0610252 0.014616607 0.06360922 0.03072968 0.0324348 0.006484114 -0.032866698 -0.010999505
0.036403283 0.026649844 0.042840626 0.055133473 -0.024628932 0.023942737 0.0055851657 0.011956663
0.053572528 0.023230946 0.055278335 0.030618416 -0.048550725 -0.016298767 -0.027690826 -0.052414894
0.013220344 -0.025572088 -0.041063346 -0.028364558 -0.05179568 -0.052135013 0.048077382 -0.00116514
0.036924645 0.0284132 -0.057742104 -0.058504645 0.05476412 -0.057313237 -0.037208855 0.027949963
-0.007168098 0.006882773 -0.008194219 0.023366097 0.010362838 -0.0036058838 -0.02679013 -0.018766845
-0.018355008 0.049699884 -0.009467915 -0.041223656 -0.013949655 0.006286301 -0.05997977 0.059807383
-0.034641095 -0.027892059 0.044134945 -0.009464475 -0.0099452445 0.032087244 -0.00238765 0.028887251

z_0_layer.mixture_weights.transformer.mlp.2.bias f4 [128]
00000000: 3da9 58bd 600d 67bb 205a 1fbd ef4e 50bd
00000010: 3974 82bd d999 cbbc 74c6 87bd d9a0 1e3d
00000020: be6d 4dbc bc49 413d 43ab a53d 465f 6dbd
00000030: a254 103d a972 0abc 2804 4b3d d8e3 693d
00000040: f3af 1b3c 1fd8 f4bb d5c9 513d 4e3a 413c
00000050: 2d08 8e3d ca07 3fbd 6ae6 193d c53b 6dbb
00000060: 003e 5fbd 4e5c 023d 1cf5 a23c 7138 05bc
00000070: 194f 21bb 9030 883d c5f0 d93c ee72 a83c
00000080: a430 613d d4ae 98bb a6be cd3c bced 60bc
00000090: 5446 1b3c cfec e43c c921 88ba 7dba 003c
000000a0: ed6f 0cbd 090c 273d 7799 663c 638d aebc
000000b0: c384 333c 567c a83c f75f 59bc 734c 4b3b
000000c0: aed4 0d3d 9501 1fbd dcab a83c c946 46bb
000000d0: 1953 4bbd c94d 523d 696b 223c 184a 24bd
000000e0: 00b7 153d 516c a73c 5cfd 4dbc 52cc 9c3b
000000f0: 3f0e 45bd cc53 0cbd 09f5 68bd 7820 073d
00000100: d140 2abd 4a64 18bd d9f4 04bd 9555 0a3c
00000110: 8c22 ccbc 3c29 d0bc a51b f03c 06fe 5abc
00000120: b0b6 183d 2a82 853c ace1 e4b9 5d03 d03c
00000130: d185 8e3c 69d7 21bd 0fa8 813d 1ab3 033d
00000140: 2ef6 5ebd d0c7 983c 707f 113d 64cb ac3c
00000150: 951d ebbb 0e58 6bbd 4825 a5bc a84e 7ebd
00000160: 0b95 4ebd 6b72 8b3d 4247 0ebd 908c 323d
00000170: 20e9 ebbc 8d46 663d eb97 563c 1951 e63c
00000180: 5bfd 133c 9aba c73a b9d7 aebc e8c6 2d3d
00000190: 0e51 8dbc 1fa6 60bd 4d15 033d d514 62bd
000001a0: 9ecc 84bd 2f43 45bd 0807 66bb 33d5 db3b
000001b0: 6760 4abd c33c 1fbd 32fd 39bd 8c83 9d3c
000001c0: 9f3d 823d e99e 71bb 15e5 153c 6ed3 623c
000001d0: 89ce 513d 11fe 91bc a76e 8fbd 6e24 e93b
000001e0: b42b 903d 5f5d efbc ddea b639 2c22 d3bb
000001f0: c6e7 8c3c b2bf e23b a791 00bd a423 67bd
-0.052895773 -0.0035255775 -0.03890431 -0.050856527 -0.06369824 -0.024853634 -0.06629649 0.038727615
-0.012538372 0.04718946 0.08089306 -0.057952188 0.035236962 -0.008450189 0.04956451 0.057102054
0.009502399 -0.0074720527 0.051217873 0.011793686 0.06935153 -0.046638288 0.037573256 -0.0036198955
-0.054502487 0.03182631 0.019892268 -0.008131132 -0.0024613796 0.066498876 0.026604066 0.020562615
0.054978028 -0.004659513 0.025115322 -0.013728555 0.009477217 0.02794495 -0.0010386045 0.007856962
-0.03428643 0.040782962 0.014074675 -0.021307653 0.010956946 0.0205671 -0.013267509 0.003102091
0.034626655 -0.038819868 0.020589761 -0.0030254594 -0.049639795 0.051343713 0.009913304 -0.040109724
0.036551476 0.020437391 -0.012572613 0.004785099 -0.04810929 -0.034259602 -0.05687431 0.03298995
-0.04156572 -0.037205018 -0.032460067 0.008443256 -0.024918817 -0.025410287 0.029310057 -0.013366228
0.0372836 0.016297419 -0.00043655687 0.025392229 0.017397793 -0.03951207 0.06330883 0.032153226
-0.054433994 0.018649966 0.035521924 0.021093078 -0.0071751573 -0.057457022 -0.020159379 -0.06208673
-0.050435107 0.06808933 -0.034735925 0.043591082 -0.028797686 0.056219626 0.0130977435 0.028114842
0.009032573 0.0015238107 -0.021343099 0.04242602 -0.017250564 -0.054845925 0.032002736 -0.05519565
-0.0648434 -0.048159774 -0.0035099406 0.006708765 -0.049408343 -0.038876306 -0.04540748 0.019227766
0.063594095 -0.00368684 0.009148856 0.013844354 0.051222358 -0.017821344 -0.07003527 0.0071149385
0.07039586 -0.029219327 0.00034888732 -0.0064432826 0.017200362 0.0069198245 -0.031388905 -0.056430474

z_0_layer.mixture_weights.transformer.axial_pos_emb.weights_0 f4 [1, 1, 1, 64]
00000000: 718f 3a3f 3b1e 38bf 5fcd a93f 77dd cd3f
00000010: b1f9 3b3f a1b5 2abf 54de 313f 8923 2fbf
00000020: b847 63be 414a 003f ce1d febe 36b5 1abf
00000030: 5c91 cb3f 6b1b 82be fa86 e7bf f65a 243f
00000040: 8c8d dc3e 906f 003f 909d ab3f 1ced 753f
00000050: 5554 473e 49d5 d6be 0625 25be c381 bd3e
00000060: ab54 55bf 2384 0fbf e63d 0dbf 3b6f 143f
00000070: f2be 803f 4473 253d 29db 933f e5ac ea3f
00000080: fe18 373e 1f20 d53d f05d ed3e 0fff c9be
00000090: ed85 8f3f 84ab 99bf 05ae 11c0 45c0 44bf
000000a0: e395 0b40 43a5 af3e 0052 9b3f 419c 673f
000000b0: 6f32 fabf 2fb9 b03e 9b33 29bf 3a9d 1840
000000c0: 6211 523f e637 163f b86e d73f ff84 913e
000000d0: e603 64bf 8ffb 47bf 4270 ab3e 3f1d ab3f
000000e0: 22e1 0a3e ecfa 54bf 8f0b be3d 7517 713f
000000f0: 695c 96bf 552b 453f fff5 8cbf 4274 973f
0.72875124 -0.7192113 1.3265799 1.6083211 0.73427874 -0.66683394 0.6947987 -0.684136
-0.22195327 0.501133 -0.49632114 -0.60432756 1.5903735 -0.25411543 -1.8088067 0.64201295
0.43076742 0.5017023 1.3407459 0.96064925 0.19465764 -0.419596 -0.16127405 0.37013063
-0.8333232 -0.56061 -0.55172575 0.57982224 1.0058272 0.04039313 1.1551257 1.8334013
0.17880628 0.10406517 0.4636073 -0.39452407 1.1212746 -1.2005467 -2.2762463 -0.7685588
2.1810234 0.34305772 1.21344 0.904728 -1.9546641 0.34516284 -0.6609437 2.3845963
0.82057774 0.58679044 1.6830664 0.2842178 -0.8906845 -0.7811822 0.33484083 1.33683
0.13562444 -0.83195376 0.092795484 0.9417642 -1.1746951 0.77019244 -1.1012572 1.1832354

z_0_layer.mixture_weights.transformer.axial_pos_emb.weights_1 f4 [1, 1, 6, 64]
00000000: abd1 acbf ca6d 973e 88ac 40be b349 6fbd
00000010: b272 243f 6d97 0240 9c56 0d3e 9c1d 2c3f
00000020: d972 f83e 9212 e9be 5f59 c93e f986 8f3f
00000030: 111e 26c0 933e 9a3e 1d93 f4be 3520 743f
00000040: 0dcc 4d3f fce8 c23e d4f8 9d3c 9c07 913d
00000050: b05b 963e 4e90 cb3e 7581 1ec0 5edf 23bf
00000060: 79f8 973e 615a 6c3f ebd5 efbe cae5 24bf
00000070: 47af 763e fe5f e2be e58a aabd 2a5d d4be
00000080: 9ef3 843f 11c9 a9bf 1774 b2be 1629 6b3f
00000090: 8ebc d13f 5189 a43e 4562 76bf 5a64 3f3f
000000a0: a33b 96be 9ff6 25bf ab05 b13e 5d7a e23e
000000b0: 951c c13f e545 6d3e b9e9 83be f9ea 33bd
000000c0: 0dcf 7d3f 322c 953c f469 043f 0245 81bf
000000d0: 043c 893e d4d7 a53e 1601 0abf 2abc cc3f
000000e0: 43a5 1a3e 4cc1 863f 9c99 e8be 0aa6 e5bd
000000f0: 483b fdbd 28f4 a4bf dafd 5bbe 47ed 8abf
00000100: caa9 81bf bff6 0b40 b70e a0be 5f67 aabd
00000110: b179 c93e 202f 80bf 3028 473a 4c72 35bf
00000120: 052f 4cbf 89c9 ca3e 70d5 073f 14a6 8c3e
00000130: a020 933f 78a6 a2bd 4c76 5ebf c0c3 b23f
00000140: 9363 63bf 576b 393e bef8 acbd 0db2 80be
00000150: c002 5d3f a619 d5bf 5b5e b73e f2d7 af3f
00000160: e753 0840 eb82 b93e 630e 0640 02e6 513e
00000170: c0f3 a6bf 8963 a8bd 5a97 bf3e caf1 233e
00000180: 5039 11be 15f1 4bbd e15e 963e 774c 9dbe
00000190: 6a50 fa3f 76b5 b6be 875a 473d 59c6 0a3f
000001a0: 3bab bf3f 157d bb3f fc5e c9bf aa5a f63e
000001b0: 08a4 1dbf cfc4 1d3d faa5 5fbe c12d b23e
000001c0: 0e40 a73f 08a6 063f ce81 173d 8b25 e03d
000001d0: dfec a53f b07f 9abe 7722 733f 20c6 353f
000001e0: 5520 2b3f e255 28bf 69c7 833f 42b1 1bbc
000001f0: cfe4 863f cd06 88bd 0957 c5bf c763 953f
00000200: 7053 f9bb a7a5 703f bbeb b7bf 2cec d43f
00000210: abc5 f93e e6a3 993e e342 c03e e8c8 35bf
00000220: 5a3b cb3f a7aa 833f 0997 4a3e 47a5 e0be
00000230: c2a8 6abb c0c2 dbbf abf5 cb3e f216 2d3f
00000240: 3816 593f 83fa b0bf dd70 05bf 8dc9 c23e
00000250: 3956 3c3f d36d 34bf b179 7cbd 6269 32bf
00000260: 10f5 2dbf 9768 5d3f 5626 40bf afcc bc3f
00000270: cf9a 553e 8863 03be e7dd 17bf fde5 4e3f
00000280: 92ec fd3f 4f4c 29bf d99b a33f 0806 a8bf
00000290: 0bc5 933f fb4e 493e 40fa 0b3f fc18 03bf
000002a0: 70aa 493f dd6e 813f 6611 cbbe a571 d63f
000002b0: bb2e aabf b192 a03e 2da0 2d3f 145d 72bf
000002c0: f8bd b6bf 7a10 6a3f 2117 f53e aa1d 0ebf
000002d0: 80de 65bf e238 8e3e df54 8dbf 2cb6 3b3f
000002e0: 2d1f 8bbf 7d5d b6be a517 f3bd dbd8 583f
000002f0: aae3 803f 2f92 663d e2b9 5cbe d64b 253e
00000300: 4599 91bf f8c5 943e 23ae 423f 2889 aabe
00000310: 7fef 5cbf 61b2 5cbf 3035 2d3f d8f8 cc3f
00000320: 4033 49be 0dcc f2bf bba2 89be ed18 443f
00000330: 3cc8 bcbe 35f9 fe3d 4060 72bf cff7 9d3f
00000340: f2e1 c7bd acbd fabe 4fc5 c0bd 365d 16bf
00000350: 9c7a 51bd af3e 843f 9028 b0bf ee7a 9a3f
00000360: fa35 033f 0aa3 843f dfd1 acbe bb11 393f
00000370: 4b1d 3a3e 7152 ad3e 3db9 bc3f 6a93 663f
00000380: 317a 68bf 5ef0 6d3e 9a2c a3bf 5fdb 38ba
00000390: 57dc 82bf d2bf 96bf 2671 883f 83be fe3e
000003a0: d51d a13e 941c 4c3f 0131 be3f bd93 48bf
000003b0: 475a 26bd d95b e93d 421f 673e cea6 bcbd
000003c0: 619c 47bd ae31 b0be 0b41 c63f cced 7e3f
000003d0: 569c 2a3f 9ede 083f b78c 11be 2b48 183f
000003e0: 04cb 643f ed73 7fbd 25c0 973e c225 a03f
000003f0: bc03 f2be 95a1 d0be 06a3 bbbf a9d0 5f3f
-1.3501486 0.2957595 -0.18815815 -0.058419894 0.6423751 2.0404923 0.1380257 0.6723268
0.48525122 -0.4552198 0.39325997 1.1213065 -2.595585 0.30125865 -0.4776849 0.95361644
0.8038948 0.38068378 0.01928369 0.070815295 0.29366827 0.39758533 -2.4766514 -0.64012706
0.29681757 0.9232541 -0.46842894 -0.6441313 0.240903 -0.4421386 -0.08327273 -0.4147733
1.0386846 -1.3264486 -0.34854195 0.9185957 1.6385667 0.32136014 -0.962437 0.747625
-0.29342374 -0.6482944 0.34574637 0.4423398 1.5086848 0.23171194 -0.25764254 -0.04392526
0.9914406 0.01820955 0.5172417 -1.0099185 0.268036 0.32391226 -0.53907907 1.5994923
0.15102105 1.052774 -0.45429695 -0.1121331 -0.123648226 -1.288701 -0.21483555 -1.0853661
-1.012994 2.1869352 -0.31261227 -0.08320498 0.39350656 -1.0014381 0.0007597236 -0.7087753
-0.79759246 0.39606884 0.53060055 0.27470458 1.1494331 -0.07941908 -0.86899257 1.3965988
-0.88823813 0.18107353 -0.08445881 -0.25135842 0.8633232 -1.6648452 0.35814175 1.3737776
2.130121 0.36232695 2.094628 0.20497897 -1.3043137 -0.0822211 0.3742016 0.16010204
-0.14182019 -0.04979046 0.29369262 -0.307224 1.955579 -0.3568532 0.048670318 0.54208905
1.497413 1.4647547 -1.5732112 0.48116046 -0.61578417 0.03851777 -0.21840659 0.34800532
1.3066423 0.52597094 0.036989026 0.10944661 1.2962912 -0.30175543 0.94974464 0.7100544
0.6684621 -0.65756047 1.029523 -0.009502711 1.0538577 -0.06641922 -1.5417186 1.1671075
-0.0076088235 0.94002765 -1.4368814 1.6634574 0.4878362 0.30007857 0.3755103 -0.71009684
1.5877488 1.0286454 0.19784178 -0.43876097 -0.0035806154 -1.7168808 0.39835867 0.67613137
0.8479953 -1.382645 -0.5212534 0.38044396 0.73569065 -0.7048008 -0.06163949 -0.6969205
-0.6795206 0.86487716 -0.75058496 1.4749964 0.20859836 -0.12830937 -0.5932297 0.80819684
1.983782 -0.6613206 1.2781936 -1.312684 1.1544508 0.19659035 0.54678726 -0.5121
0.7877569 1.0111958 -0.3966171 1.6753432 -1.3295511 0.31361917 0.67822534 -0.94673276
-1.4276724 0.9143139 0.47869208 -0.55514014 -0.89792633 0.27777773 -1.1041526 0.7332485
-1.0868889 -0.356182 -0.11869744 0.84705895 1.0069478 0.056291755 -0.21555284 0.1614221
-1.1374899 0.29057288 0.7604696 -0.33307767 -0.8630294 -0.86209685 0.6765928 1.6013441
-0.19648457 -1.8968521 -0.26881966 0.76600534 -0.36871517 0.12449876 -0.94678116 1.234125
-0.097598925 -0.48972833 -0.09412634 -0.5873598 -0.05114232 1.033163 -1.3762379 1.2068765
0.51254237 1.0362256 -0.3375387 0.7229268 0.18175237 0.3385196 1.474403 0.90068686
-0.9081145 0.23236224 -1.2747986 -0.0007051732 -1.0223492 -1.1777289 1.065953 0.49754724
0.31468073 0.79731107 1.4858705 -0.7835043 -0.04061344 0.11394472 0.22570518 -0.09211503
-0.04873312 -0.34412903 1.54886 0.995816 0.666448 0.53464687 -0.14213835 0.5948512
0.8937228 -0.062366415 0.29638782 1.2511523 -0.47268474 -0.40748277 -1.4659126 0.87427765
