checkpoints/sort_1/S_6_K_6/ArgmaxAR/16_05_2023__00_06/cktp/checkpoint_0003000.tar (torch, 496923 bytes, 113 tensors)

model.base_dist.loc f4 [1, 3, 1]
0	0xbdacbb3c	-0.084341496
1	0xbcebaa7e	-0.02876782
2	0x3ca23e43	0.01980508

model.base_dist.log_scale f4 [1, 3, 1]
0	0xbcaf5856	-0.021404427
1	0x3dafcbd3	0.08583798
2	0x3d52d240	0.05147004

model.transforms.0.encoder.noise_dist.base_dist.net.weight f4 [6, 32, 1]
0	0xbe1a51d8	-0.15070283
1	0x3dbd98c7	0.092576556
2	0xbe82e605	-0.25566116
3	0xbe9666cc	-0.29375303
4	0x3e00279e	0.12515113
5	0x3d24ddb8	0.04025051
6	0xbe2eaa01	-0.17057039
7	0x3bfbc3ec	0.007683268
8	0xbe50e88a	-0.20401207
9	0x3dd1c892	0.10243334
10	0xbe4a7913	-0.19772749
11	0xbe4cba8e	-0.1999304
12	0x3e64dfe1	0.22351028
13	0xbd94b58f	-0.07261192
14	0xbde68240	-0.11255312
15	0x3e8d826a	0.2763856
16	0x3e68b8f4	0.22726804
17	0xbd1dc9ff	-0.038522717
18	0x3dcec87c	0.10096833
19	0x3e8e5604	0.278
20	0xbd6319de	-0.05544459
21	0xbde48ae7	-0.11159306
22	0x3e728c99	0.23686446
23	0xbe857f8b	-0.2607387
24	0xbdf0611b	-0.117372714
25	0xbd46b5dc	-0.04851328
26	0xbc75472b	-0.014970581
27	0xbcfff655	-0.03124539
28	0xbe6a6140	-0.2288866
29	0x3d18ee97	0.037336912
30	0x3cb60f80	0.022224188
31	0x3e71cf9d	0.23614354
32	0xbccc4971	-0.024937363
33	0x3d41b0aa	0.04728762
34	0xbe7ef475	-0.2489794
35	0xbe365d3f	-0.17809008
36	0x3e1e1dbe	0.15441033
37	0xbd00bc97	-0.031429853
38	0x3dd476b4	0.10374203
39	0xbdd4f52c	-0.10398325
40	0x3db208ea	0.086931065
41	0x3e7b9cf4	0.24571592
42	0xbded02ab	-0.115727745
43	0xbd2695d4	-0.04067023
44	0x3e046afe	0.1293144
45	0xbdfb04f7	-0.12256806
46	0xbd9a5c85	-0.07537178
47	0x3de68e83	0.11257651
48	0x3d255580	0.040364742
49	0x3e41f7ad	0.18942137
50	0xbc2714de	-0.010197846
51	0x3de2da9a	0.11076851
52	0xbda51c8b	-0.08062085
53	0x3dac465e	0.08411859
54	0x3dc81383	0.097693466
55	0xbe415765	-0.18880995
56	0xbe85da82	-0.2614327
57	0xbde11f90	-0.10992348
58	0x3e51e3e0	0.20497084
59	0x3a9c268e	0.0011913346
60	0x39de2b7c	0.00042375538
61	0xbe48d1d2	-0.1961129
62	0x3cc19935	0.023632625
63	0x3d8c9b00	0.068655014
64	0x3ded2809	0.11579902
65	0x3e5a83ac	0.21339291
66	0xbd960484	-0.0732508
67	0x3a47917c	0.00076129264
68	0xbdf915af	-0.12162339
69	0x3e0e3c56	0.13890204
70	0xbe6b2287	-0.2296239
71	0x3bd50c33	0.0065016984
72	0xbcc7375d	-0.024318391
73	0xbb3ebd3b	-0.002910449
74	0xbe7ac577	-0.2448939
75	0xbe6180d5	-0.22021802
76	0x3e21e99d	0.15811773
77	0x3cc789a0	0.024357617
78	0x3c153b9d	0.009108451
79	0x3d09dd34	0.03365822
80	0x3e7273dc	0.2367701
81	0xbd5832d4	-0.05278285
82	0x3d9cd195	0.07657162
83	0x3dab2507	0.08356672
84	0x3e41c79d	0.18923803
85	0xbe692d5b	-0.22771208
86	0x3e3bef14	0.1835292
87	0xbe1624d6	-0.1466249
88	0xbd0d5d34	-0.034512714
89	0xbdf009eb	-0.11720642
90	0x3cd42f71	0.025901528
91	0x3e63fb60	0.2226386
92	0xbe5de22e	-0.21668312
93	0xbdebb71e	-0.11509536
94	0x3e41db12	0.18931225
95	0xbd41ff94	-0.04736288
96	0xbe019cf1	-0.12657525
97	0xbdd06e01	-0.101772316
98	0xbddf17d7	-0.10893219
99	0xbda8d29b	-0.08243295
100	0x3cd8f743	0.026485091
101	0xbdd807c6	-0.10548358
102	0xbe10d6bd	-0.14144416
103	0x3e1ba2dd	0.15198846
104	0x3e27a383	0.16370969
105	0xbd8fcea4	-0.070218354
106	0xbe13d752	-0.14437607
107	0x3e25c869	0.16189732
108	0x3e38dcdf	0.18053006
109	0x3e22f8d1	0.15915228
110	0x3d48dadb	0.04903684
111	0xbd8fc715	-0.07020394
112	0xbccf74f1	-0.025324317
113	0x3d343c62	0.044002898
114	0x3e3d833f	0.18507098
115	0xbd9c0928	-0.07618934
116	0x3cbc2633	0.022967434
117	0x3e287501	0.16450883
118	0xbcd2ec58	-0.025747463
119	0xbd441ddc	-0.04788004
120	0x3d417f5c	0.0472406
121	0xbdea0366	-0.114264295
122	0x3e04bf5e	0.12963626
123	0x3e2cbaaf	0.16868089
124	0x3e2aba43	0.16672616
125	0x3db6efc2	0.08932449
126	0xbe2b394d	-0.16721077
127	0x3daee7f0	0.08540332
128	0x3c433c86	0.011916285
129	0x3d1afe42	0.037840135
130	0x3cd01706	0.025401603
131	0xbde0666d	-0.10957036
132	0xbdee8289	-0.11645991
133	0x3d334962	0.043771155
134	0xbda4ff1c	-0.08056471
135	0xbdb4299b	-0.08796998
136	0xbd8d0c2a	-0.06887086
137	0x3df72778	0.12068075
138	0xbe0095a4	-0.12557083
139	0x3d14fdce	0.03637486
140	0x3e0ac57d	0.13551898
141	0x3d8305a7	0.063975625
142	0x3d96d071	0.07363976
143	0xbd125c31	-0.03573245
144	0xbcc876c9	-0.024470704
145	0xbdf70279	-0.120610185
146	0x3e16a3c8	0.14710915
147	0x3d1e3026	0.038620137
148	0x3d8dcbc5	0.069236316
149	0x3e0e2e78	0.13884914
150	0xbe461e17	-0.19347416
151	0x3e24dac8	0.16099083
152	0xbdf66e63	-0.12032773
153	0xbd2a4048	-0.04156521
154	0x3b676754	0.003530939
155	0xbd329092	-0.043594904
156	0x3ca45710	0.020061046
157	0x3deb4217	0.11487215
158	0x3d99353d	0.074808575
159	0xbe0f78ad	-0.14010878
160	0xbd8314f5	-0.064004816
161	0x3d831b14	0.06401649
162	0x3b886f91	0.0041636904
163	0x3ca01249	0.019539969
164	0x3e281dcb	0.16417615
165	0xbe040152	-0.12891129
166	0xbe10d856	-0.14145026
167	0xbde9e30f	-0.11420261
168	0xbdc42fe5	-0.09579448
169	0x3c2c4881	0.010515333
170	0x3d845e16	0.06463258
171	0x3e06be0e	0.13158438
172	0xbdd8437b	-0.10559746
173	0xbd19e89e	-0.037575357
174	0x3e08a08e	0.13342497
175	0x3ddcc075	0.10778896
176	0xbd5bf0b7	-0.05369636
177	0xbdfebe8f	-0.1243869
178	0x3e1234b6	0.1427792
179	0x3ded8114	0.11596885
180	0x3cf51e4e	0.029921677
181	0xbdd6da72	-0.10490884
182	0x3e033e80	0.1281681
183	0x3e0ee64d	0.1395504
184	0xbdaabfdc	-0.083373755
185	0xbe1c48e8	-0.15262187
186	0xbe1528dd	-0.1456637
187	0x3c940e84	0.018073328
188	0x3b116ea2	0.0022191186
189	0x3e14a384	0.14515501
190	0xbc5152f8	-0.012776129
191	0x3dfafba5	0.12255029

model.transforms.0.encoder.noise_dist.base_dist.net.bias f4 [6]
0	0xbbbfa493	-0.005848476
1	0x3e01922d	0.12653418
2	0x3dff737c	0.12473199
3	0xbc059286	-0.00815261
4	0x3dbd7b34	0.09252015
5	0xbc10ae5f	-0.008830636

model.transforms.0.encoder.noise_dist.transforms.0.ar_net.lstm.weight_ih_l0 f4 [128, 35]
0	0x3de92f03	0.1138592
1	0xbe244ec6	-0.16045675
2	0xbe12a6c5	-0.1432143
3	0x3e3d1f7b	0.1846904
4	0xbd843a6c	-0.064564556
5	0xbba3e5e4	-0.0050017703
6	0x3d9a006e	0.07519613
7	0x3d893aaa	0.067006424
8	0xbd569764	-0.05239047
9	0xbe1729cf	-0.14762042
10	0x3d4e0fc5	0.050308008
11	0x3e1b04cf	0.15138553
12	0xbdb68050	-0.089111924
13	0x3e367b5d	0.17820497
14	0x3ceffbfd	0.029294962
15	0x3e2507ad	0.1611621
16	0x3d1bbe9b	0.038023572
17	0x3e2bddb9	0.16783799
18	0x3e00ec63	0.12590174
19	0x3ca3ac1e	0.019979533
20	0xbd0c8399	-0.03430519
21	0xbdb6a61e	-0.08918403
22	0x3dbd63a9	0.09247524
23	0x3d1e5f60	0.038665175
24	0x3dfc1478	0.123085916
25	0xbcbc1882	-0.022960905
26	0xbe02c7b8	-0.12771499
27	0x3e035300	0.1282463
28	0x3d7932c2	0.060839422
29	0x3e341ce0	0.1758914
30	0x3d512a55	0.05106576
31	0x3ddeead3	0.10884633
32	0x3dc63cb3	0.09679546
33	0x3d555c5b	0.05209003
34	0x3e298d3d	0.16557784
35	0xbe1754fc	-0.14778513
36	0x3d939d04	0.07207683
37	0x3c812bc4	0.01576794
38	0x3c761a84	0.01502097
39	0x3d32ac9d	0.043621648
40	0xbe48b2b3	-0.19599418
41	0x3d34b31c	0.044116125
42	0xbd814e1c	-0.06313726
43	0xbde5d299	-0.11221809
44	0xbd160da3	-0.0366341
45	0xbe04ead9	-0.12980212
46	0xbd47857a	-0.048711278
47	0xbde3d8a2	-0.11125304
48	0xbe09dcde	-0.1346316
49	0xbdb69d9f	-0.089167826
50	0xbe1b7db5	-0.15184672
51	0xbd858908	-0.06520277
52	0xbdcec6a7	-0.10096484
53	0xbdfac008	-0.12243658
54	0xbd0439c4	-0.032281652
55	0x3e0a9a2f	0.13535379
56	0x3c042ada	0.008066857
57	0xbdaa6aa7	-0.083211236
58	0x3db6876b	0.08912548
59	0xbe1c8c9b	-0.15288012
60	0x3d642402	0.055698402
61	0x3e02a143	0.12756829
62	0xbd8b0675	-0.06788341
63	0x3e0204ab	0.12697093
64	0xbe1810c7	-0.1485015
65	0xbe31fabb	-0.17380802
66	0xbe3a253b	-0.18178265
67	0x3dacfb7b	0.084464036
68	0x3e72390d	0.23654576
69	0xbda01bd4	-0.07817808
70	0x3dd9fbbf	0.1064372
71	0x3e0b7c8a	0.13621727
72	0xbd7ddc15	-0.061977465
73	0x3e18bea9	0.14916481
74	0xbb88d336	-0.004175569
75	0x3e0aa16a	0.13538137
76	0xbe25a07b	-0.161745
77	0xbd664486	-0.056217693
78	0x3d1455e0	0.03621471
79	0x3e259726	0.1617094
80	0xbe1f8631	-0.15578534
81	0x3d84e01b	0.06488057
82	0xbe29666f	-0.16542982
83	0x3d905014	0.07046524
84	0xbdd22520	-0.10260987
85	0x3d172692	0.036902018
86	0x3d95fdd5	0.07323805
87	0x3e17701f	0.14788865
88	0x3d18ac40	0.037273645
89	0xbcf6ee7f	-0.03014302
90	0xbdf00da3	-0.11721351
91	0x3d90b67f	0.07066058
92	0x3dba4030	0.09094274
93	0xbde73d48	-0.11290985
94	0x3e08e674	0.13369161
95	0xbd0e2cc4	-0.03471066
96	0xbdbd419a	-0.09241028
97	0x3e06a6d3	0.13149576
98	0x3cbbc067	0.022918893
99	0x3bd2bd97	0.0064312923
100	0x3d2c90b0	0.042130172
101	0xbd4811bf	-0.04884505
102	0xbcf902e3	-0.030396884
103	0xbd09d597	-0.03365096
104	0xbde37bb3	-0.11107578
105	0x3d35cb95	0.044383604
106	0xbc3b40e0	-0.011429042
107	0x3a927c26	0.0011175915
108	0xbc68e9a1	-0.014215858
109	0xbd7fd70e	-0.06246095
110	0x3e2726a0	0.16323328
111	0xbe0f840f	-0.1401522
112	0x3dcd6ccc	0.10030517
113	0xbd478bf4	-0.048717454
114	0x3e362ce7	0.17790566
115	0x3e112d8f	0.14177535
116	0x3d8e607e	0.06951998
117	0x3e115c20	0.14195299
118	0x3c9b6ba3	0.018972224
119	0x3d095b7c	0.033534512
120	0x3ce91cdc	0.028456144
121	0x3d0e829d	0.03479253
122	0xbd6a725f	-0.05723798
123	0xbe4b1361	-0.19831611
124	0xbdef69cd	-0.11690102
125	0x3d73b947	0.059502866
126	0xbe28b07f	-0.16473578
127	0x3d4a4aa4	0.04938759
128	0x3d7e3786	0.06206467
129	0x3df8605b	0.12127753
130	0xbd6cae18	-0.057783216
131	0xbd79bc6b	-0.060970705
132	0xbddf22c3	-0.10895302
133	0x3ddc271c	0.10749647
134	0x3e3d678b	0.1849653
135	0xb9b683cb	-0.00034811939
136	0xbd2fcfcd	-0.042922784
137	0x3c130449	0.00897319
138	0x3e0c4d3d	0.13701339
139	0x3dd1eaf0	0.10249889
140	0xbb91b9b0	-0.0044471845
141	0xbe1e66ea	-0.15468946
142	0x3d0e3c82	0.034725673
143	0xbd0556ab	-0.032553356
144	0x3d96d1dc	0.07364246
145	0xbe27d942	-0.16391471
146	0xbc6f188f	-0.014593258
147	0xbde78945	-0.11305479
148	0xbdf756e7	-0.12077122
149	0x3e0265c1	0.12734129
150	0xbd22a87a	-0.039711453
151	0xbcecf8a6	-0.028927159
152	0xbd13257c	-0.03592442
153	0xbbf2a10d	-0.0074044527
154	0x3d61df1b	0.05514441
155	0xbddbb520	-0.10727906
156	0x3daf24a7	0.08551913
157	0x3daa2f75	0.08309833
158	0xbda2f555	-0.079569496
159	0x3ce20c4a	0.02759375
160	0xbd77af4b	-0.060469907
161	0xbdcbfa62	-0.09959866
162	0x3db4f1ca	0.0883518
163	0x3d6a6cfa	0.057232834
164	0xbdcffcb0	-0.10155618
165	0xbe2b1123	-0.16705756
166	0xbd8cbcae	-0.06871925
167	0xbd96d0f9	-0.07364077
168	0x3d8663e8	0.06562024
169	0xbc23ce24	-0.009997878
170	0xbe229dd4	-0.15880519
171	0xbd35f646	-0.044424318
172	0x3dc48bc4	0.09596971
173	0xbcfab29a	-0.030602742
174	0xbc4ba423	-0.01242927
175	0x3e24e4ab	0.16102855
176	0xbdf4d47a	-0.11954589
177	0xbdef44ba	-0.116830304
178	0xbd105e2f	-0.03524607
179	0x3e360942	0.17776969
180	0xbd99867f	-0.07496356
181	0x3e0b7881	0.13620187
182	0x3e17ae20	0.14812517
183	0xbca1c5b1	-0.019747587
184	0xbd4817b5	-0.048850734
185	0xbdaab440	-0.08335161
186	0x3df1937a	0.11795707
187	0x3d76e94d	0.060281087
188	0x3d3bc96e	0.045846395
189	0x3c52fca5	0.012877618
190	0xbdf392bc	-0.11893222
191	0xbda77ef8	-0.08178514
192	0xbd8d0a7f	-0.068867676
193	0x3d9f34f9	0.077737756
194	0xbd82f4bc	-0.06394336
195	0xbc24f38a	-0.01006783
196	0x3e3c753c	0.18404096
197	0x3ccfa9e2	0.025349561
198	0x3e389518	0.18025625
199	0xbdff073f	-0.12452554
200	0x3dca43d5	0.09876219
201	0xbe06e95e	-0.1317496
202	0x3cee3297	0.029076857
203	0xbdc8a634	-0.09797326
204	0xbdea908b	-0.11453351
205	0x3d434393	0.047671866
206	0x3d48f479	0.049061272
207	0xbe17a1b3	-0.14807777
208	0xbdadc8a8	-0.08485538
209	0xbdc66239	-0.09686703
210	0xbdc0804c	-0.09399471
211	0x3e1bda8c	0.15220088
212	0xbcb524cd	-0.022112275
213	0x3dd63fe3	0.10461404
214	0x3e23708c	0.15960902
215	0xbe01a13d	-0.12659164
216	0x3d9d6208	0.076847136
217	0xbdd8516a	-0.105624035
218	0xbe24b0bd	-0.16083045
219	0xbcf4d147	-0.029884947
220	0xbdcf59cb	-0.101245485
221	0x3e13de17	0.1444019
222	0x3d1b702d	0.037948776
223	0x3de95cd4	0.11394659
224	0x3bf3b985	0.007437887
225	0x3dbadab1	0.09123743
226	0x3e110ccd	0.1416504
227	0xbe4bef06	-0.19915399
228	0xbde4f23f	-0.11179017
229	0xbe1c3164	-0.15253216
230	0xbe108682	-0.1411381
231	0xbded9313	-0.11600318
232	0x3e401ef5	0.18761809
233	0x3e09c999	0.1345581
234	0xbe07daea	-0.13267103
235	0xbe16f684	-0.14742476
236	0xbe1ceaba	-0.15323916
237	0xbc6c0b79	-0.014407032
238	0x3b9b45a5	0.004738527
239	0xbde3ccb1	-0.11123026
240	0xbe1ff932	-0.15622404
241	0x3db95247	0.09048896
242	0xbd341c62	-0.04397238
243	0xbd920c66	-0.07131271
244	0xbd432264	-0.04764022
245	0x3d2b6070	0.041840017
246	0x3a94b11d	0.0011344288
247	0x3d02e09b	0.03195248
248	0xbe31f6e2	-0.17379335
249	0x3e15d710	0.14632821
250	0x3dca75ce	0.09885751
251	0xbbead475	-0.00716644
252	0x3e1f15f8	0.15535724
253	0x3e3b8608	0.18312848
254	0xbe5365aa	-0.2064425
255	0xbdd5f23a	-0.10446592

model.transforms.0.encoder.noise_dist.transforms.0.ar_net.lstm.weight_hh_l0 f4 [128, 32]
0	0x3c81ccb7	0.015844686
1	0x3e13b4c6	0.14424428
2	0xbe08a16b	-0.13342826
3	0x3c6d1c50	0.014472082
4	0xbd5cc8a7	-0.053902294
5	0x3ce5bbbf	0.028043626
6	0xbe189434	-0.14900285
7	0xbc1586fc	-0.009126421
8	0xbdf58f0f	-0.11990177
9	0xbe08521c	-0.13312572
10	0x3db24c89	0.08706004
11	0x3dc47f91	0.09594644
12	0x3e168ebd	0.14702888
13	0x3d26cd4f	0.04072314
14	0x3c7291be	0.014805255
15	0x3e12a05d	0.14318986
16	0x3e10f165	0.14154585
17	0x3de2efca	0.110808924
18	0xbd8981f7	-0.06714242
19	0x3b80e6f8	0.0039337836
20	0xbe47864c	-0.19484824
21	0x3e26fa87	0.16306506
22	0x3c935406	0.017984401
23	0x3ccce25d	0.025010282
24	0xbdeec8fe	-0.1165943
25	0x3daa6392	0.08319773
26	0x3da3e710	0.08003056
27	0x3db20cac	0.08693823
28	0xbdd71edf	-0.10503935
29	0x3deca034	0.11553994
30	0xbe02bda6	-0.12767658
31	0x3df54afb	0.11977192
32	0x3e22be03	0.15892796
33	0x3d541af6	0.051783524
34	0x3e3fdd60	0.18736792
35	0x3dafd23c	0.08585021
36	0x3c738d5c	0.014865246
37	0x3cfa7cfe	0.030577179
38	0x3e1be1b2	0.15222815
39	0xbe2184f2	-0.15773371
40	0xbe033363	-0.12812571
41	0x3b9a3950	0.004706539
42	0xbe152d76	-0.14568123
43	0x3d8c9a96	0.068654224
44	0x3d967fbf	0.073485844
45	0xbd13725c	-0.035997733
46	0x3b25cdb5	0.0025299613
47	0xbe058d64	-0.13042217
48	0x3e27253f	0.16322802
49	0x3e2cfa93	0.16892461
50	0x3e0f5a9f	0.13999413
51	0xbdec5512	-0.115396634
52	0xbe059f26	-0.13048992
53	0xbd4580e0	-0.048218608
54	0x3cef2349	0.02919163
55	0xbddbed8f	-0.1073867
56	0x3dc2680a	0.094925
57	0x3cae50de	0.021278795
58	0x3c790f29	0.015201368
59	0x3d9b076d	0.07569776
60	0xbe0e30af	-0.13885759
61	0xbe0d1c83	-0.13780408
62	0x3df23244	0.11825994
63	0xbddb5e7c	-0.10711381
64	0x3cbf02dc	0.023316793
65	0xbc1ef782	-0.009702565
66	0x3c9f8b90	0.019475728
67	0x3d92d83c	0.0717015
68	0xbe0de4f0	-0.13856864
69	0x3dc33163	0.09530904
70	0x3e31ffaf	0.17382692
71	0x3e3f225d	0.18665452
72	0x3c405ac5	0.011740391
73	0xbcf76b11	-0.03020242
74	0xbc539856	-0.012914738
75	0xbdaf4dcf	-0.08559763
76	0x3dee9b1a	0.11650677
77	0x3d8a6b29	0.067587204
78	0xbd0a72a5	-0.03380074
79	0xbe21bfd4	-0.15795833
80	0xbc7b0a53	-0.015322286
81	0xbdfe4dc0	-0.124171734
82	0x3d2a65a7	0.04160085
83	0x3d6c6201	0.05771065
84	0xbe1459ba	-0.14487353
85	0xbda4ad4b	-0.080408655
86	0xbe2febae	-0.17179748
87	0xbdfe3e17	-0.124141864
88	0xbd09b45c	-0.03361927
89	0xba993d57	-0.0011691254
90	0xbe262775	-0.16225989
91	0xbd623820	-0.055229306
92	0xbe23a698	-0.15981519
93	0xbd25e47d	-0.040501107
94	0x3dd4ab45	0.103842296
95	0xbd6c390e	-0.0576716
96	0x3df467c7	0.119338565
97	0x3dff5a02	0.124683395
98	0x3e237124	0.15961128
99	0xbd274007	-0.040832546
100	0x3d84a062	0.06475903
101	0xbb11d10b	-0.0022249843
102	0xbe2b9379	-0.16755475
103	0x3d825d58	0.0636546
104	0xbe4929ec	-0.19644898
105	0xbe041ce9	-0.12901653
106	0x3d1431b5	0.036180217
107	0x3d0ac2be	0.033877127
108	0x3c040e2d	0.00806002
109	0x3e0a0abe	0.1348066
110	0xbdc2579c	-0.094893664
111	0xbb4f8081	-0.0031662288
112	0x3da16548	0.07880646
113	0x3d91d236	0.07120173
114	0xbe07676f	-0.1322305
115	0x3e132b2b	0.14371936
116	0xbd394c12	-0.045238562
117	0x3e1f0db8	0.15532577
118	0x3d92cb14	0.0716764
119	0x3cb9fb49	0.02270283
120	0xbbc6174b	-0.006045257
121	0xbe09f2c5	-0.13471515
122	0xbca6ce22	-0.020361964
123	0x3e354e2b	0.177056
124	0x3e0d434f	0.13795207
125	0xbe01c533	-0.12672882
126	0x3dd5fe77	0.10448926
127	0xb8c90f65	-9.587294e-05
128	0x3e238776	0.15969643
129	0xbd99db87	-0.07512575
130	0x3de8fbb5	0.11376134
131	0x3de392d6	0.11111991
132	0xbdd30742	-0.10304119
133	0x3e09e8c5	0.13467701
134	0x3d06fc41	0.03295541
135	0x3d258fee	0.040420465
136	0x3dadb32b	0.08481439
137	0xbbcfd6f5	-0.0063427635
138	0xbddaeb26	-0.10689382
139	0x3e042285	0.12903793
140	0x3c82e73f	0.015979407
141	0xbe227600	-0.15865326
142	0xbd9d1d6a	-0.07671626
143	0x3d4c0b69	0.04981557
144	0x3dd352b0	0.10318506
145	0xbde33ad3	-0.11095204
146	0xbd5db129	-0.05412403
147	0x3c4b321d	0.012402085
148	0x3d91c19e	0.07117008
149	0xbe1d6454	-0.15370303
150	0x3d3471e8	0.044053942
151	0x3dfee1b9	0.12445397
152	0x3d566af8	0.052348107
153	0xbd97d2b4	-0.07413235
154	0xbdd4c254	-0.10388628
155	0x3d80bfd9	0.06286592
156	0xbcfb20c4	-0.030655272
157	0xbe2163c9	-0.15760721
158	0x3e022353	0.12708788
159	0x3d8778ab	0.066148125
160	0xbc9687ae	-0.018375244
161	0xbb83854b	-0.0040136925
162	0x3c5a55e3	0.013326141
163	0x3b3d14de	0.002885155
164	0x3cf91d92	0.030409608
165	0xbdcbf456	-0.09958713
166	0x3d735a6f	0.059412416
167	0xbde4b32f	-0.11166989
168	0x3d7c48f4	0.06159301
169	0x3d6d514f	0.05793887
170	0x3d0ed756	0.03487333
171	0x3c4dfc86	0.012572413
172	0x3dbd2bad	0.09236846
173	0xbd7d320d	-0.06181531
174	0xbdc06be9	-0.09395582
175	0xbe4cc244	-0.19995981
176	0xbd96df08	-0.073667586
177	0xbdba5bb1	-0.0909952
178	0x3e769d1b	0.24083368
179	0x3b2b00be	0.0026092972
180	0xbe125772	-0.1429117
181	0x3e22fe92	0.15917423
182	0xbdfba320	-0.12286973
183	0xbe151f07	-0.14562617
184	0xbce87dff	-0.028380392
185	0xbdc854a9	-0.09781773
186	0x3e31dab1	0.1736858
187	0x3dd970c1	0.10617209
188	0x3e28dfbb	0.16491596
189	0xbd9592a8	-0.07303363
190	0xbe166327	-0.14686261
191	0x3d5d8f73	0.054091882
192	0x3de28699	0.11060829
193	0x3dbfaed1	0.093595155
194	0xbdb77f56	-0.08959834
195	0x3de62ae6	0.11238651
196	0x3df30e72	0.118679896
197	0x3e2f66c6	0.17129049
198	0xbe151411	-0.14558436
199	0x3d2f231c	0.042758092
200	0x3cbb87a0	0.02289182
201	0x3d08bf1f	0.033385392
202	0x3d809d67	0.06280022
203	0x3db4960c	0.08817682
204	0xbda0da3c	-0.07854125
205	0xbd3d378c	-0.04619555
206	0xbe07726a	-0.13227239
207	0xbbfbc5b8	-0.007683482
208	0x3d7ddbe4	0.061977282
209	0xbdda3bb1	-0.106559165
210	0xbcd90c83	-0.026495224
211	0xbde41c0e	-0.111381635
212	0xbbc90446	-0.0061345426
213	0xbd250805	-0.04029085
214	0x3c89cf7e	0.016822573
215	0x3dfcaabe	0.12337254
216	0xbe206f2a	-0.15667406
217	0xbd18b202	-0.037279136
218	0xbdbf1306	-0.093298
219	0xbe22c64b	-0.15895955
220	0xbe302aa7	-0.1720377
221	0x3e468f1a	0.19390526
222	0xbdb3e9c1	-0.087848194
223	0xbe0b22f5	-0.13587554
224	0x3d5d76c9	0.05406836
225	0xbdee8a2e	-0.116474494
226	0x3c1f25dd	0.009713617
227	0xbc80294b	-0.01564469
228	0x3de84ce5	0.113427915
229	0xbe08b00f	-0.13348411
230	0xbd239f38	-0.039946765
231	0xbe24b617	-0.16085087
232	0x3c88fdd1	0.016722592
233	0x3c20a444	0.009804789
234	0x3dac58a7	0.084153466
235	0xbde22d0d	-0.11043749
236	0x3cbda390	0.023149282
237	0x3e074f81	0.13213922
238	0xbdc72b70	-0.09725082
239	0x3e108fe3	0.14117388
240	0x3e0306bb	0.12795536
241	0x3b6b9bbb	0.0035950977
242	0xbdae3116	-0.08505456
243	0xbd8dd9b8	-0.06926292
244	0xbe1495f2	-0.14510325
245	0xbd09ed21	-0.03367341
246	0x3e1c31df	0.152534
247	0x3deb797f	0.11497783
248	0x3a8593a4	0.0010191095
249	0xbdbb0759	-0.09132261
250	0xbcf0bfde	-0.029388364
251	0xbe22e28a	-0.1590673
252	0x3d083936	0.033257686
253	0xbc1134d3	-0.008862692
254	0xbcb700f0	-0.022339314
255	0xbdaf5d64	-0.08562735

model.transforms.0.encoder.noise_dist.transforms.0.ar_net.lstm.bias_ih_l0 f4 [128]
0	0x3e3c3e5f	0.18383168
1	0xbe023bcc	-0.12718123
2	0xbcb9785f	-0.022640405
3	0xbe097af5	-0.1342581
4	0x3dc002c1	0.09375525
5	0xbcc53ac1	-0.024075868
6	0x3da045cc	0.07825813
7	0x3c49fff0	0.012329087
8	0xbbfe220e	-0.0077555245
9	0xbc5f3bcb	-0.013625096
10	0x3d7fc49e	0.062443368
11	0xbcaab6af	-0.020839063
12	0xbca61b95	-0.020276824
13	0xbd9b0190	-0.075686574
14	0x3e315e66	0.17321166
15	0x3e1939d1	0.14963461
16	0x3de361d5	0.11102644
17	0x3e0d56db	0.13802664
18	0x3da8b009	0.08236701
19	0xbda3a1ff	-0.07989883
20	0xbdb331e0	-0.08749747
21	0x3df22f94	0.11825481
22	0x3e3177df	0.17330883
23	0xbcbc7393	-0.023004329
24	0xbe053eb3	-0.13012199
25	0x3e3795af	0.17928194
26	0x3e1b51ef	0.15167974
27	0xbd8a7fb8	-0.06762642
28	0x3cc309dd	0.023808414
29	0xbe129ffe	-0.14318845
30	0x3dad35ba	0.08457513
31	0xbe2eff0e	-0.17089483
32	0xbe0f7f92	-0.14013508
33	0x3df99dd1	0.12188304
34	0x3e40bb72	0.18821505
35	0x3d9292ea	0.07156928
36	0x3ce5b27d	0.028039211
37	0xbd90cf62	-0.07070805
38	0xbe0e8460	-0.13917685
39	0xbe1b8c25	-0.1519018
40	0x3d3f17b1	0.046653453
41	0xbb2bd327	-0.0026218386
42	0xbdf4be38	-0.11950344
43	0x3e1b5e9b	0.15172808
44	0x3d4fc067	0.0507206
45	0x3d490b63	0.049083125
46	0x3d227800	0.039665222
47	0xbde91c81	-0.1138239
48	0xbe15d009	-0.1463014
49	0x3ce602da	0.028077532
50	0xbe436929	-0.19083084
51	0x3de91220	0.1138041
52	0x3dc921c9	0.09820897
53	0xbe06fd1a	-0.13182488
54	0x3e115b91	0.14195086
55	0xbc6d5439	-0.014485412
56	0x3c03f0a9	0.008052983
57	0x3d13a14b	0.036042493
58	0x3cb42f33	0.021995163
59	0x3d947e9e	0.07250713
60	0xbd0efac3	-0.034907114
61	0xbd2a9cf9	-0.041653607
62	0x3e2d03ec	0.16896027
63	0xbe0edaa1	-0.13950588
64	0xbd516ab4	-0.05112715
65	0x3da7e739	0.08198399
66	0xbdb34672	-0.08753671
67	0x3d902bf8	0.070396364
68	0xbb2e23b1	-0.0026571567
69	0x3a110400	0.0005531907
70	0x3de805bf	0.11329221
71	0xbd7d4abc	-0.06183885
72	0xbd8d0d9b	-0.06887361
73	0x3e1e6043	0.15466408
74	0xbe3b525d	-0.18293138
75	0xbe23060e	-0.15920278
76	0x3d668719	0.056281183
77	0x3df78af1	0.12087048
78	0x3dc2c4e6	0.09510212
79	0xbd1d30a7	-0.038376477
80	0x3d00ac97	0.031414595
81	0x3e171e81	0.1475773
82	0xbc0c27d9	-0.008554422
83	0xbd0c5e16	-0.034269415
84	0x3d8ef37b	0.06980034
85	0x3e11a844	0.14224344
86	0xbe2a38d7	-0.16623245
87	0xbe0dc574	-0.13844854
88	0x3db14b22	0.086569086
89	0xbd8de21f	-0.06927895
90	0x3dccb8ba	0.09996171
91	0x3cff535c	0.031167679
92	0xbcea47e9	-0.028598743
93	0x3dea62b4	0.114446074
94	0xbc52202c	-0.012825053
95	0xbd1328c3	-0.035927545
96	0xbbc0a076	-0.0058785034
97	0x3e00d41d	0.12580915
98	0x3de8e66c	0.113720745
99	0xbd3cb0b4	-0.046066955
100	0x3df8cf09	0.12148864
101	0xbdf65ae2	-0.12029053
102	0x3cfcf8a4	0.03088028
103	0x3cd9005d	0.026489431
104	0xbdcdfda6	-0.10058145
105	0x3d7f8bcf	0.06238919
106	0x3ad6f9a8	0.0016401308
107	0xbd79ef7d	-0.06101941
108	0x3e1efdcc	0.15526503
109	0x3dd15bbe	0.102225766
110	0x3e061e23	0.13097434
111	0xbe34abc9	-0.17643656
112	0x3e039967	0.12851487
113	0x3e3bf73b	0.1835603
114	0xbddbd1f3	-0.10733404
115	0x3dcfe114	0.10150352
116	0x3d18672d	0.03720777
117	0xbc2de1f3	-0.0106129525
118	0xbe0b3ccc	-0.13597411
119	0xbd953f1f	-0.0728743
120	0xbce82ff1	-0.028343173
121	0xbd5932c8	-0.053026944
122	0xbe1d8c1e	-0.15385482
123	0xbcafc450	-0.021455914
124	0x3d867110	0.06564534
125	0x3c261d40	0.01013881
126	0xbdc1fb99	-0.094718166
127	0x38d30410	0.00010062021

model.transforms.0.encoder.noise_dist.transforms.0.ar_net.lstm.bias_hh_l0 f4 [128]
0	0xbd66f53c	-0.056386217
1	0x3d80e732	0.06294097
2	0xbc3db95a	-0.011579836
3	0x3dba82e6	0.09106998
4	0xbd802298	-0.06256598
5	0x3e382870	0.17984176
6	0xbe140133	-0.14453582
7	0xbd0aa174	-0.03384538
8	0xbdb6eb4e	-0.089315996
9	0x3e3f092c	0.18655843
10	0x3dc6f3c1	0.09714461
11	0xbddc2539	-0.10749287
12	0x3d07c4b2	0.033146568
13	0x3d1b0fae	0.03785675
14	0xbdab7b5e	-0.0837314
15	0x3b978257	0.004623692
16	0xbd32a317	-0.043612566
17	0xbda3ce03	-0.07998278
18	0xbd4a0e8a	-0.04933027
19	0x3e328b6f	0.17436002
20	0xbd51f0b5	-0.051254947
21	0xbd530081	-0.051514152
22	0x3dc5081e	0.09620689
23	0xbe312d01	-0.17302324
24	0x3e10a33e	0.14124772
25	0x3caca562	0.021074954
26	0x3e158c56	0.14604315
27	0x3e025028	0.1272589
28	0x3da040f0	0.07824886
29	0x3e0f892b	0.14017169
30	0x3da25a25	0.0792735
31	0xbcfff93a	-0.03124677
32	0x3dafe7e4	0.085891515
33	0xbe2664dc	-0.16249412
34	0x3e0deb45	0.1385928
35	0x3e01b618	0.1266712
36	0x3e370ca0	0.1787591
37	0x3d6b2fcf	0.05741864
38	0x3d81eef7	0.06344407
39	0x3e3d942c	0.18513554
40	0x3bb9efbb	0.00567433
41	0x3d91919d	0.07107852
42	0x3e11ff6b	0.1425759
43	0xbe2b0370	-0.1670053
44	0xbdc2ff39	-0.09521336
45	0x3d5fecd1	0.054669205
46	0x3d18f9fd	0.037347782
47	0xbd90f90a	-0.070787504
48	0xbb1cced3	-0.0023926988
49	0xbc8059ef	-0.015667884
50	0xbd7c288c	-0.061562106
51	0x3e28febb	0.16503422
52	0x3d9ea8dc	0.07747051
53	0xbe28d23f	-0.16486453
54	0xbe0b9706	-0.1363183
55	0x3df82175	0.121157564
56	0xbe2475b4	-0.16060525
57	0xbda37a37	-0.07982295
58	0x3c3284f9	0.010895961
59	0xbd13f9dd	-0.03612696
60	0x3e0449e3	0.1291881
61	0x3dfb206c	0.12262043
62	0x3e1fc481	0.15602304
63	0x3d3aa086	0.045563243
64	0xbe20f238	-0.15717399
65	0x3e07ff1b	0.13280909
66	0x3e1db97d	0.1540279
67	0xbd9319be	-0.07182644
68	0xbd80877c	-0.062758416
69	0xbd5cee1c	-0.053938016
70	0x3de1b5eb	0.11021026
71	0x3dc786f2	0.09742536
72	0x3e08ec4b	0.13371389
73	0x3dde2344	0.1084657
74	0xbdb2283b	-0.086990796
75	0xbe1d827e	-0.1538181
76	0x3d918e05	0.07107166
77	0x3e037ced	0.12840624
78	0xbe051b5c	-0.12998718
79	0x3c8cfc08	0.017210022
80	0xbe3737e9	-0.17892422
81	0xbd74772d	-0.059683967
82	0xbe07cf3b	-0.13262646
83	0xbd17b1ce	-0.037034802
84	0xbcabc760	-0.020969093
85	0xbd7a5227	-0.061113503
86	0xbb99dde1	-0.0046956395
87	0xbe17e909	-0.1483499
88	0x3dbce449	0.092232294
89	0x3cfd0cf0	0.030889958
90	0x3db531c5	0.088473834
91	0xbe2f2009	-0.17102064
92	0x3e0c81eb	0.13721435
93	0x3e2c4f34	0.16827089
94	0xbdeb7ab5	-0.11498014
95	0x3df7839f	0.120856516
96	0x3e2b95b9	0.16756333
97	0xbe30e834	-0.17276078
98	0x3dfc51d2	0.123202935
99	0xbd93f5e9	-0.07224638
100	0xbd5cddeb	-0.053922575
101	0xbd5fc1ac	-0.05462806
102	0xbc9acd5b	-0.01889675
103	0xbd6b1a6b	-0.05739824
104	0xbd9b1dc5	-0.075740375
105	0xbd7bcc03	-0.061473858
106	0xbc0065eb	-0.007836799
107	0xbdb3e48b	-0.087838255
108	0xbbae92d2	-0.005327561
109	0xbd7a82b9	-0.061159823
110	0xbcf7f672	-0.030268881
111	0x3dfd1571	0.12357605
112	0xbe2aa60b	-0.16664903
113	0x3c4fa8a2	0.012674483
114	0x3dc175b0	0.09446275
115	0x3e04c7fe	0.12966916
116	0xbd4726b2	-0.048620887
117	0x3d179f2a	0.037017025
118	0xbca7c30f	-0.020478753
119	0x3defa96a	0.11702235
120	0xbcd49018	-0.025947616
121	0x3dd349d8	0.10316819
122	0x3e1ae853	0.15127687
123	0xbd6b8798	-0.05750236
124	0xbd9375f4	-0.07200232
125	0xbdfae25a	-0.122502044
126	0xbd38adce	-0.045087628
127	0x3de09f33	0.10967865

model.transforms.0.encoder.noise_dist.transforms.0.ar_net.lstm.weight_ih_l1 f4 [128, 32]
0	0x3e0dad5d	0.13835664
1	0xbe15d760	-0.1463294
2	0x3d4fcdf8	0.050733536
3	0x3b715425	0.0036823836
4	0x3ccf7044	0.025322087
5	0xbe2ff706	-0.17184076
6	0xbdedcf9d	-0.11611865
7	0x3df4843c	0.11939284
8	0x3d345264	0.044023886
9	0xbe29e205	-0.16590126
10	0x3e2bfd0a	0.16795745
11	0x3d5bfc03	0.053707134
12	0x3e2207b4	0.15823251
13	0xbbb3eca1	-0.005490855
14	0x3e019a72	0.12656572
15	0xbd5fd684	-0.054647937
16	0xbdfe8dbb	-0.12429377
17	0x3b0c2188	0.002138229
18	0x3e0f0b6d	0.13969202
19	0x3d77ac7f	0.06046724
20	0x3e0f96e8	0.1402241
21	0x3de2900b	0.1106263
22	0xbe238ee7	-0.15972482
23	0x3db4df70	0.0883168
24	0x3ddd24c1	0.10798026
25	0x3db36e7f	0.0876131
26	0xbe331d36	-0.17491612
27	0xbd27328c	-0.04081969
28	0x3dc38b48	0.0954805
29	0x3e22c215	0.15894349
30	0xbd7e13b8	-0.062030524
31	0x3df45f01	0.11932183
32	0xbc6f9d68	-0.014624931
33	0x3d9d0880	0.07667637
34	0xbe2096e1	-0.15682556
35	0xbdbe33ab	-0.09287199
36	0xbd9fa795	-0.077956356
37	0xbdc5f435	-0.096657194
38	0x3cf523b0	0.029924244
39	0x3d33e760	0.04392183
40	0xbc84a293	-0.016190803
41	0x3c7682e4	0.015045855
42	0x3e1cf1a2	0.1532655
43	0xbe37f1ad	-0.17963286
44	0x3e099f49	0.13439669
45	0x3e1ec084	0.15503126
46	0x3e151d4b	0.14561956
47	0x3e1f4cc5	0.15556629
48	0x3e22c82f	0.15896676
49	0x3ddb54db	0.10709544
50	0x3de49c2e	0.111626014
51	0xbda658af	-0.08122384
52	0xbd8e65d6	-0.069530174
53	0x3d668878	0.05628249
54	0xbd11ed88	-0.035626918
55	0x3d52110a	0.05128578
56	0x3d8d3f38	0.06896824
57	0x3d98a5b2	0.07453479
58	0x3c98e2c9	0.018662827
59	0x3cf775c8	0.03020753
60	0x3d092bbb	0.03348897
61	0x3d7e29c0	0.062051535
62	0x3de356e9	0.11100561
63	0xbd96ce8b	-0.07363614
64	0x3e0ed317	0.13947712
65	0x3cbc7aae	0.023007717
66	0x3e23e9a0	0.1600709
67	0xbdb3e190	-0.08783257
68	0xbe1cc4b2	-0.15309408
69	0x3d983ed7	0.07433861
70	0xbdfe6949	-0.12422425
71	0x3ddc965b	0.107708655
72	0x3df6197f	0.12016582
73	0x3d85b180	0.06527996
74	0xbb2836a9	-0.0025667346
75	0xbcda9f46	-0.026687276
76	0x3dcbf1bf	0.09958219
77	0x3dc6f2fa	0.09714313
78	0x3d49093a	0.049081065
79	0xbd66f0c6	-0.056381963
80	0xbc0212e0	-0.00793907
81	0xbd74279d	-0.05960809
82	0x3d0cd87a	0.034386136
83	0x3d697508	0.056996375
84	0x3df98a92	0.12184633
85	0xbd80966d	-0.062786914
86	0x3d56d01f	0.052444573
87	0xbdfd54d9	-0.12369699
88	0xbdcafde5	-0.09911708
89	0x3e1f1554	0.1553548
90	0xbdfa24c6	-0.12214045
91	0x3c724854	0.014787752
92	0xbda08100	-0.07837105
93	0x3d388f39	0.045058463
94	0x3d0703f0	0.03296274
95	0xbccccd1c	-0.025000148
96	0xbe2ddd6e	-0.16979
97	0x3de74a2b	0.11293443
98	0x3a49ae49	0.0007693512
99	0x3d453f56	0.048156105
100	0x3dc31572	0.09525575
101	0x3da1098a	0.078631476
102	0xbd0674c2	-0.032826193
103	0x3d6cb0d0	0.05778581
104	0xbd470fbf	-0.048599
105	0xbe328f0e	-0.17437384
106	0x3e09b485	0.13447769
107	0x3e0a303a	0.1349496
108	0xbd6e2e2e	-0.05814951
109	0x3e2e05e8	0.1699444
110	0xbdcd2dd3	-0.10018506
111	0x3da67a3c	0.08128783
112	0xbd4858fd	-0.04891299
113	0x3dcdcf57	0.100493126
114	0x3dbfb435	0.09360544
115	0xbe3c597e	-0.18393514
116	0xbdfe9245	-0.124302424
117	0xbb64aba0	-0.0034892336
118	0x3d393554	0.045216873
119	0xbd71ed00	-0.05906391
120	0xbe19985e	-0.1499953
121	0xbe110edf	-0.14165829
122	0x3dffb4f5	0.12485687
123	0xbd589691	-0.052877966
124	0x3da6e04e	0.081482515
125	0x3d3e3725	0.04643931
126	0x3d47eabd	0.04880785
127	0x3e23c69d	0.15993734
128	0xbda16c5d	-0.07881997
129	0x3ce6c025	0.028167794
130	0x3d4e69d6	0.0503939
131	0x3d81e593	0.06342616
132	0xbda2f316	-0.07956521
133	0xbd85ac07	-0.06526952
134	0x3cdf56ab	0.027263006
135	0x3e31d980	0.17368126
136	0x3da20c84	0.079125434
137	0x3c47704e	0.012172772
138	0xbd1d765e	-0.038442962
139	0xbde05ecf	-0.10955583
140	0x3b4a5e9d	0.0030879148
141	0xbdcf70ad	-0.10128913
142	0x3d88f6db	0.06687709
143	0x3cf2ef29	0.029655056
144	0xbdbd5a11	-0.092456944
145	0x3e476654	0.19472629
146	0x3d8e312d	0.06942973
147	0x3db18c01	0.08669282
148	0x3e369631	0.17830731
149	0xbddb3543	-0.10703518
150	0x3dd0265b	0.10163566
151	0x3c0f93de	0.008763282
152	0xbc14277f	-0.00904262
153	0x3d1f5392	0.03889806
154	0x3da830c5	0.08212427
155	0xbe2adeaf	-0.1668651
156	0x3d28bd2b	0.04119603
157	0x3d21736c	0.039416716
158	0x3d399927	0.045312073
159	0x3d90406d	0.07043538
160	0x3d9296f8	0.07157701
161	0x3c09a515	0.008401175
162	0xbe26f6bf	-0.16305064
163	0xbe222696	-0.15835032
164	0x3de85c58	0.11345738
165	0x3d22f6ea	0.039786257
166	0xbe12ce9a	-0.14336625
167	0x3c82309f	0.015892325
168	0x3d74372b	0.059622925
169	0xbe2c1cfc	-0.16807932
170	0x3dd7d29f	0.1053822
171	0x3dab7aea	0.08373053
172	0xbdc0f159	-0.094210334
173	0xbe0bb6a9	-0.13643898
174	0x3e228e59	0.15874614
175	0xbe2b7a7a	-0.1674594
176	0xbdd73ebf	-0.10510015
177	0xbdc885c0	-0.09791136
178	0x3d8ac1d3	0.0677525
179	0xbe034ec7	-0.1282302
180	0xbd041362	-0.032245047
181	0xbe16dbdc	-0.14732307
182	0xbc121879	-0.008916968
183	0x3e136324	0.14393288
184	0xbcb99e69	-0.022658544
185	0x3e05e347	0.1307498
186	0x3ddfcd7c	0.10927865
187	0x3c07b868	0.008283712
188	0xbdaa55f7	-0.08317178
189	0xbd4eed14	-0.050519064
190	0x3e02abef	0.127609
191	0x3dedff71	0.11620987
192	0x3d1a7220	0.037706494
193	0xbc2b4d28	-0.010455407
194	0x3dd3e433	0.1034626
195	0xbe19bd21	-0.15013553
196	0xbe6ef639	-0.23336114
197	0x3e36d2ed	0.178539
198	0xbe6c58b3	-0.23080711
199	0xbdcb1eda	-0.09917994
200	0x3ddf3371	0.108984835
201	0x3d4cc211	0.049989764
202	0xbdfa5082	-0.12222387
203	0xbe1cdb79	-0.15318097
204	0x3c2e1de6	0.0106272455
205	0x3e1b3d48	0.15160096
206	0x3d677072	0.05650372
207	0x3e0d517c	0.13800615
208	0x3e2d260f	0.1690905
209	0xbd04751d	-0.03233825
210	0xbdbdbcdd	-0.092645384
211	0x3cf977c3	0.030452615
212	0x3e0a4b48	0.1350528
213	0xbe044d0e	-0.12920019
214	0x3bb07968	0.0053855665
215	0x3d63b6d0	0.055594265
216	0x3cfb1f90	0.030654699
217	0xbe250eb9	-0.16118897
218	0xbcb0a03f	-0.021560786
219	0xbe30e6a7	-0.17275487
220	0x3e3605de	0.17775676
221	0x3e31f6f7	0.17379366
222	0xbe4d09dd	-0.20023294
223	0xbdd1d14d	-0.10244999
224	0x3cb00468	0.021486476
225	0x3db9d753	0.09074273
226	0xbe20e585	-0.15712555
227	0xbe1082a7	-0.1411234
228	0x3bc66d4a	0.0060555087
229	0x3add1578	0.001686736
230	0xbd591a6e	-0.05300372
231	0x3cf9a3b2	0.030473564
232	0x3daf97b0	0.08573854
233	0xbd6944f9	-0.056950543
234	0x3d86a3a7	0.06574183
235	0x3e23af93	0.15984945
236	0xbd1bc28b	-0.038027328
237	0xbdb63ec6	-0.08898692
238	0xbb9105dc	-0.0044257473
239	0x3e1a04a4	0.15040833
240	0x3dfac13b	0.12243887
241	0x3da74585	0.08167557
242	0xba8c5206	-0.0010705597
243	0xbcd7d6c4	-0.026347525
244	0xbe05d19b	-0.1306824
245	0xbe0bf5d3	-0.13667993
246	0x3de95892	0.113938466
247	0xbdf6135f	-0.120154135
248	0xbd1383bc	-0.036014304
249	0x3d5ec2b5	0.054384906
250	0x3d48e2fe	0.0490446
251	0x3d588c7f	0.052868363
252	0x3ceef675	0.029170254
253	0xbc845432	-0.016153429
254	0xbdb41351	-0.08792747
255	0xbd9b8298	-0.07593268

model.transforms.0.encoder.noise_dist.transforms.0.ar_net.lstm.weight_hh_l1 f4 [128, 32]
0	0x3e2c32ff	0.16816328
1	0x3d6693b2	0.056293197
2	0x3e297215	0.16547425
3	0x3e2cbd16	0.16869006
4	0x3dead35b	0.11466094
5	0x3e28e129	0.16492142
6	0xbdadc134	-0.08484116
7	0xbd8401cf	-0.064456575
8	0x3d5112f4	0.051043466
9	0x3e0ed428	0.13948119
10	0x3e0f50fa	0.13995734
11	0xbde63777	-0.11241048
12	0x3cefb1b0	0.029259533
13	0x3cd552e3	0.0260405
14	0x3da8192f	0.082079284
15	0xbdc7e56a	-0.09760554
16	0xbd464670	-0.04840702
17	0xbd8a00bb	-0.067384206
18	0x3dd3ee95	0.1034824
19	0xbda56ac3	-0.08077004
20	0x3e127c97	0.1430534
21	0xbc312cef	-0.010813936
22	0x3e3e448b	0.18580835
23	0x3dc6a1ef	0.09698855
24	0xbc2b6f02	-0.010463478
25	0x3d49b403	0.04924394
26	0xbd321890	-0.043480456
27	0x3da11418	0.07865161
28	0x3d5dbabe	0.05413317
29	0x3dd214ec	0.10257897
30	0x3dc4e1d4	0.09613386
31	0xbcafa0f9	-0.021439062
32	0xbdfc6b68	-0.123251736
33	0xbdd75273	-0.10513773
34	0xbdc15f9b	-0.094420634
35	0xbddec3c1	-0.10877181
36	0x3d91fd65	0.07128409
37	0x3cf257df	0.029582916
38	0xbc2c8b4f	-0.010531261
39	0x3ce8ff1b	0.028441956
40	0x3d30215f	0.043000575
41	0x3dff5a60	0.124684095
42	0x3dbbcc9e	0.09169887
43	0xbe032cbc	-0.12810034
44	0x3cad83cf	0.021181015
45	0x3dfaaf63	0.122404836
46	0xbdb31968	-0.0874508
47	0x3e20d45d	0.1570601
48	0xbe2017c2	-0.15634063
49	0xbe119856	-0.14218268
50	0xbddf5d8a	-0.10906513
51	0xbd95af73	-0.07308855
52	0xbe35c39b	-0.17750399
53	0x3d955972	0.07292451
54	0xbd58ffaf	-0.052978214
55	0xbbcc88d6	-0.006241898
56	0x3dc844d2	0.097787514
57	0xbe2d7460	-0.16938925
58	0x3e22644e	0.15858576
59	0xbc1849b2	-0.009294914
60	0xbd8eb9e6	-0.06969051
61	0x3e08055b	0.13283293
62	0xbe2ab470	-0.16670394
63	0x3c56f723	0.013120445
64	0xbe2bc086	-0.1677266
65	0x3e181bf8	0.14854419
66	0xbca30a5c	-0.0199024
67	0xbd9a8c79	-0.07546324
68	0xbd6edea4	-0.058317795
69	0x3e0a44b3	0.13502769
70	0xbce42ceb	-0.02785345
71	0x3dfacca3	0.122460626
72	0x3da58f86	0.080840155
73	0xbe5e1ce6	-0.21690711
74	0xbe4b3448	-0.19844162
75	0x3de4feab	0.111813866
76	0xbdfcda96	-0.123463795
77	0x3e3b35fd	0.18282314
78	0x3cbf0d14	0.023321666
79	0x3dfc7c09	0.12328345
80	0xbe36dc53	-0.17857485
81	0xbe203e36	-0.15648732
82	0xbd3cad6f	-0.046063837
83	0x3d706aef	0.05869573
84	0xbc668a02	-0.01407099
85	0x3d43678c	0.047706172
86	0xbe257308	-0.16157162
87	0x3dc33e4d	0.09533367
88	0x3d5f4827	0.05451217
89	0x3cea2017	0.028579755
90	0x3cf910cf	0.030403523
91	0x3c097719	0.0083902115
92	0xbb6436cd	-0.0034822703
93	0x3c6e782a	0.0145550165
94	0xbe151e79	-0.14562406
95	0x3e012c71	0.1261461
96	0xbe3dcc5d	-0.1853499
97	0xbdaed564	-0.08536795
98	0x3ceac360	0.028657615
99	0xbdee2057	-0.11627262
100	0x3e4dc064	0.20092922
101	0xbddfacfb	-0.10921665
102	0x3da08368	0.07837564
103	0x3d438537	0.047734465
104	0x3e0f17a3	0.1397386
105	0xbe11262b	-0.14174716
106	0xbdcfd091	-0.10147203
107	0x3d1d471f	0.038397904
108	0x3d9c0ffa	0.07620235
109	0xbd4c3a93	-0.04986055
110	0x3e1aa53a	0.15102091
111	0x3a98aa15	0.0011647368
112	0x3e4550df	0.19269131
113	0x3dbb4740	0.09144449
114	0xbe15b9b5	-0.14621623
115	0x3d8320d6	0.06402747
116	0xbda61220	-0.08108926
117	0x3b583707	0.0032991783
118	0x3da350d1	0.07974399
119	0x3e2fa1f3	0.17151622
120	0xbcdeff8b	-0.027221462
121	0xbddc8f71	-0.10769547
122	0xbda7e6d5	-0.081983246
123	0xbd5687b8	-0.052375525
124	0xbe12d8e0	-0.14340544
125	0xbc9e143f	-0.019296763
126	0x3e0b69c0	0.13614559
127	0xbcc16395	-0.023607055
128	0x3d31218c	0.043244883
129	0xbe56b773	-0.20968418
130	0x3caaabe4	0.020833917
131	0x3d12a70d	0.035803843
132	0x3e70eeda	0.23528615
133	0xbc5273b1	-0.012844966
134	0x3e195b60	0.14976263
135	0x3ca17e8a	0.019713659
136	0xbe04fdc1	-0.12987424
137	0x3e58a417	0.21156345
138	0xbd8c1601	-0.068401344
139	0xbe0febb0	-0.14054751
140	0xbda21dff	-0.079158776
141	0xbd8a7131	-0.06759871
142	0x3d0ef70d	0.034903575
143	0xbdcf7e8c	-0.10131559
144	0x3d9d8a14	0.07692352
145	0x3e4daad6	0.200847
146	0x3d99f258	0.075169265
147	0xbcb9cea4	-0.022681542
148	0x3d891275	0.066929735
149	0xbdd002f5	-0.10156814
150	0xbdcb524c	-0.09927806
151	0xbe04f7b5	-0.12985118
152	0x3d50d0ac	0.050980255
153	0x3af8b6ca	0.0018975374
154	0xbd908c23	-0.07057979
155	0xbdaf5104	-0.085603744
156	0x3e5db651	0.2165158
157	0x3e80a3bc	0.2512492
158	0x3db309f1	0.087421305
159	0x3d9fdf25	0.07806233
160	0xbe0bf1f9	-0.13666524
161	0x3e1c1ea7	0.15246068
162	0xbd0709d5	-0.03296836
163	0x3e3e1b54	0.18565112
164	0x3d358f5a	0.044326164
165	0x3d907086	0.07052712
166	0xbcf33311	-0.029687436
167	0x3dc09fd8	0.09405488
168	0x3d093e05	0.033506412
169	0x3d8033f6	0.06259911
170	0x3e3485f7	0.17629229
171	0xbb8444c0	-0.004036516
172	0x3e17d108	0.14825833
173	0xbddd81fb	-0.108158074
174	0x3d43db64	0.04781665
175	0x3cca1348	0.024667397
176	0x3df82c35	0.12117807
177	0xbd93e64a	-0.072216585
178	0xbe399fd1	-0.18127371
179	0x3da6a347	0.081366114
180	0xbc60eefe	-0.013728855
181	0x3e35e37a	0.17762557
182	0x3e1e9c11	0.15489222
183	0x3e03bde8	0.12865412
184	0xbe32b24e	-0.1745083
185	0x3e1069b7	0.14102827
186	0xbe078155	-0.1323293
187	0x3dd74d7b	0.10512825
188	0xbd4bfb0b	-0.04979996
189	0x3e13834e	0.14405558
190	0x3e1f2a41	0.15543462
191	0x3df4661c	0.11933538
192	0x3d8694b5	0.06571332
193	0x3aeb7a34	0.0017965497
194	0x3c963165	0.0183341
195	0x3e345bab	0.17613094
196	0xbdff5c2a	-0.12468751
197	0xbe3b7c60	-0.18309164
198	0x3dc6f850	0.097153306
199	0x3d8661ec	0.06561646
200	0xbdf00fbc	-0.11721751
201	0x3da02f76	0.078215525
202	0x3dab3776	0.08360188
203	0x3db4a93a	0.0882134
204	0xbdb1a1a1	-0.086734064
205	0xbe22bb0c	-0.15891665
206	0x3d79acc1	0.060955767
207	0xbddbde4e	-0.10735761
208	0x3e25f8eb	0.16208236
209	0xbb9dc061	-0.004814193
210	0xbdaf2845	-0.08552603
211	0x3e385deb	0.18004577
212	0x3d9a9397	0.07547682
213	0xbd8ac143	-0.06775143
214	0xbe296055	-0.16540654
215	0x3c4a2b7c	0.012339469
216	0xbdb406ff	-0.08790397
217	0x3d9757ae	0.073897704
218	0x3e002539	0.125142
219	0x3c5157bd	0.012777266
220	0x3cb35de8	0.021895364
221	0xbdeb7cca	-0.11498411
222	0xbd94f931	-0.07274092
223	0xbe1dd1ae	-0.15412018
224	0x3d4e3c50	0.050350487
225	0x3dfcbd11	0.12340749
226	0xbe053b69	-0.13010944
227	0x3c9e1146	0.019295346
228	0xbc400a57	-0.011721215
229	0xbdc8f7e5	-0.09812907
230	0x3dc31e63	0.0952728
231	0x3e2b2d4e	0.16716501
232	0xbe28189f	-0.16415642
233	0xbd4284f8	-0.04749009
234	0x3ca63f44	0.02029384
235	0x3ded68fd	0.115922906
236	0x3d809cc8	0.06279904
237	0x3e0b15f0	0.13582587
238	0xbe24d5e8	-0.16097224
239	0xbd89abde	-0.06722234
240	0xbd91f12e	-0.071260795
241	0xbdf64e74	-0.120266825
242	0x3ddfb1d9	0.109225936
243	0x3be9a6e2	0.0071304897
244	0xbda92dcb	-0.082606874
245	0x3dbae02a	0.09124787
246	0x3d8f724c	0.07004222
247	0xbdb52df4	-0.088466555
248	0xbe14267a	-0.14467803
249	0xbd2ea9aa	-0.042642273
250	0xbd0b89aa	-0.034066834
251	0x3d828150	0.06372321
252	0x3bbe21bb	0.005802361
253	0xbc4add49	-0.01238186
254	0x3c95d544	0.01829017
255	0x3e026f0e	0.12737677

model.transforms.0.encoder.noise_dist.transforms.0.ar_net.lstm.bias_ih_l1 f4 [128]
0	0xbdd61d03	-0.10454752
1	0x3c1cb069	0.009563544
2	0x3cdd7c6a	0.027036864
3	0x3df9d67a	0.12199111
4	0x3bf685ec	0.007523289
5	0xbc63efa9	-0.01391212
6	0xbcd0ebe9	-0.025503116
7	0x3d90ff9a	0.07080002
8	0xbd23ff84	-0.0400386
9	0x3e430390	0.19044328
10	0xbd161af6	-0.036646806
11	0x3e0f9dc1	0.14025022
12	0x3e22a22a	0.15882173
13	0xbdb820fb	-0.089906655
14	0xbe081aeb	-0.13291518
15	0xbdbbb89e	-0.09166072
16	0x3e06c46b	0.13160865
17	0x3e2360c9	0.1595489
18	0x3d104e66	0.035231017
19	0xbdc39b05	-0.09551052
20	0x3e0229e4	0.12711293
21	0x3dc7105c	0.09719917
22	0x3e338ea7	0.17534886
23	0xbda55a8b	-0.0807391
24	0x3e181bb9	0.14854325
25	0x3e3cb6fc	0.18429178
26	0x3e367fe1	0.1782222
27	0x3d62f8c1	0.05541301
28	0xbe397bb7	-0.181136
29	0xbddc3d69	-0.107539006
30	0x3c1fe480	0.0097590685
31	0x3d63d7f7	0.055625882
32	0x3e1ee9db	0.15518896
33	0x3db4bb51	0.0882479
34	0xbdd585ae	-0.10425888
35	0xbc7b07b4	-0.015321661
36	0x3d92e9dd	0.07173512
37	0xbd8d0433	-0.068855666
38	0x3e2ab3b0	0.16670108
39	0xbe0bb86c	-0.1364457
40	0xbd888b0a	-0.066671446
41	0xbe1568e5	-0.14590795
42	0x3c823afb	0.015897265
43	0xbd490a8c	-0.049082324
44	0x3d3247c3	0.04352547
45	0x3dbd59e7	0.09245663
46	0x3e1849f2	0.14871958
47	0xbc070e23	-0.008243117
48	0x3dfa5fcd	0.12225304
49	0x3e38be37	0.18041311
50	0x3daef611	0.08543027
51	0xbce2568a	-0.027629156
52	0xbdb20e2d	-0.0869411
53	0x3bb7977e	0.005602776
54	0xbda1778e	-0.07884131
55	0x3e163243	0.14667611
56	0xbcf485a4	-0.029848881
57	0x3db3419d	0.08752749
58	0xbd94852d	-0.07251964
59	0x3e41be3f	0.1892023
60	0x3cb3353a	0.021875966
61	0xbdbf631c	-0.093450755
62	0xbd991421	-0.074745424
63	0x3d7be2d4	0.061495617
64	0xbe1dce07	-0.15410624
65	0x3c843416	0.016138118
66	0x3d477b82	0.04870177
67	0x3de1f16e	0.11032377
68	0x3e007180	0.12543297
69	0xbc16baf8	-0.00919985
70	0xbde7f89f	-0.113267176
71	0x3e192744	0.14956385
72	0xbe2afeac	-0.16698712
73	0x3c984034	0.018585302
74	0x3cb4b6d4	0.022059835
75	0x3e01313f	0.12616442
76	0x3b8fe76c	0.0043916013
77	0x3d38f464	0.045154944
78	0xbe02e19c	-0.12781376
79	0xbdfdfbfd	-0.124015786
80	0x3d276857	0.04087099
81	0xbc380d67	-0.011233664
82	0x3dfc6907	0.1232472
83	0x3b47e526	0.0030501573
84	0x3dc1da76	0.09465496
85	0x3e27a1fd	0.16370387
86	0xbd9d2884	-0.07673743
87	0x3c0c265a	0.008554066
88	0x3de77f3a	0.113035634
89	0xbddfc20a	-0.10925682
90	0x3de7dd0d	0.11321459
91	0xbe2ca780	-0.16860771
92	0x3dff2623	0.12458446
93	0x3dc3c54c	0.09559116
94	0x3e2d3edc	0.1691851
95	0xbc910cc7	-0.017706288
96	0xbd0e8dbd	-0.03480314
97	0x3cf9f584	0.030512579
98	0x3d022fc6	0.03178384
99	0x3e1dccc3	0.15410142
100	0x3e153c85	0.14573868
101	0xbdafee51	-0.08590377
102	0x3d85bfd1	0.06530727
103	0xbd583f5f	-0.05279481
104	0x3dd77748	0.10520798
105	0xbc3246a6	-0.010881102
106	0xbcfba4c5	-0.030718217
107	0xbdb6ea9a	-0.089314654
108	0xbd701f58	-0.05862364
109	0xbd8558db	-0.065110885
110	0xbd9c2f25	-0.076261796
111	0xbd261bd7	-0.040553894
112	0x3d9c7a93	0.07640567
113	0x3e10a9c4	0.1412726
114	0xbdafcb94	-0.08583751
115	0xbdbf1853	-0.09330811
116	0x3dc6931e	0.09696029
117	0xbc9f456a	-0.019442279
118	0xbcc4800c	-0.023986839
119	0xbdc87c52	-0.09789337
120	0xbdfd4a16	-0.123676464
121	0x3d647077	0.055771317
122	0xbd92c479	-0.071663804
123	0x3e05b3eb	0.13056915
124	0x3e19a4e1	0.15004303
125	0x3e17f1f5	0.14838393
126	0xbe100e2f	-0.1406791
127	0x3dc59620	0.09647775

model.transforms.0.encoder.noise_dist.transforms.0.ar_net.lstm.bias_hh_l1 f4 [128]
0	0xbdbe1833	-0.092819594
1	0x3e10057c	0.14064592
2	0xbde95131	-0.11392439
3	0xbc2d510c	-0.010578405
4	0x3e213c07	0.15745555
5	0x3d3ecd29	0.046582375
6	0xbe07b84e	-0.132539
7	0xbddf5ba3	-0.1090615
8	0x3da8a755	0.08235041
9	0x3d022efd	0.031783093
10	0xbd3a8d2f	-0.0455448
11	0x3d8119d2	0.06303753
12	0xbdfbd9de	-0.12297414
13	0xbc8aa0d5	-0.016922394
14	0x3db0df49	0.08636338
15	0xbdf3186a	-0.11869891
16	0x3dd36583	0.10322096
17	0x3e42f0dc	0.19037193
18	0x3db9a054	0.09063783
19	0xbdae3201	-0.08505631
20	0xbdb401d1	-0.08789409
21	0x3e348193	0.17627554
22	0x3cdd2b48	0.026998177
23	0xbe0d4032	-0.1379402
24	0xbe10d9c2	-0.14145568
25	0xbc36e8b7	-0.011163882
26	0xbd9e6836	-0.077347204
27	0xbd12bc95	-0.035824377
28	0xbd4a3679	-0.049368355
29	0x3e086337	0.13319097
30	0xbe056831	-0.13028027
31	0x3e687f33	0.22704773
32	0x3d7376f9	0.059439633
33	0x3e25b7d0	0.161834
34	0x3c870a7f	0.016484497
35	0xbe06b883	-0.13156323
36	0x3e630ce2	0.22172883
37	0xbb848fc0	-0.0040454566
38	0xbdf14c38	-0.11782116
39	0x3e0309c0	0.12796688
40	0x3e243a0a	0.16037765
41	0xbdf5bddc	-0.119991034
42	0x3e198a35	0.14994128
43	0xbdfa84a2	-0.12232329
44	0xbe11792a	-0.14206377
45	0xbd0909b7	-0.03345653
46	0x3bb1f70b	0.005431061
47	0x3d91c7d7	0.071181946
48	0x3dd69f3f	0.104795925
49	0xbdea7e4a	-0.11449869
50	0x3d425a2f	0.047449287
51	0x3dea8b8f	0.114524
52	0xbd9aae36	-0.07552759
53	0x3e0c6e93	0.13714056
54	0x3dd5c8ef	0.10438716
55	0xbe257f06	-0.16161737
56	0xbce21022	-0.027595583
57	0x3d78439d	0.060611356
58	0x3d83c4bc	0.064340085
59	0xbdf05971	-0.117358096
60	0xbe2dcb52	-0.16972092
61	0x3e222a40	0.1583643
62	0x3d54aa57	0.05192026
63	0x3befdbe7	0.0073199156
64	0xbd8947e9	-0.06703169
65	0xbdf542c0	-0.11975622
66	0x3e11c1c7	0.14234076
67	0x3e167b44	0.1469546
68	0xbd7ebfd5	-0.062194664
69	0xbe22bb95	-0.1589187
70	0xbe262390	-0.16224504
71	0x3d8fcd69	0.07021601
72	0xbd3b3497	-0.04570445
73	0xbcdbe573	-0.026842808
74	0x3d190b13	0.037364077
75	0xbe36cf8f	-0.17852615
76	0xbcbce0e3	-0.023056453
77	0x3dd82834	0.10554543
78	0xbdf344ca	-0.11878355
79	0x3e10a184	0.14124113
80	0x3d085ecd	0.033293534
81	0x3dbbbebb	0.09167238
82	0xbe287368	-0.16450274
83	0x3e152f86	0.1456891
84	0xbdc37ffc	-0.095458955
85	0x3d7f0a0b	0.062265437
86	0xbe14cc82	-0.14531139
87	0x3d60c057	0.05487093
88	0xbd974815	-0.073867954
89	0xbdbd2609	-0.0923577
90	0x3d7574a4	0.05992569
91	0x3d8f60da	0.07000895
92	0xbd20af0b	-0.039229434
93	0xbde03543	-0.10947659
94	0x3d21d457	0.039509144
95	0xbdee8bbc	-0.11647746
96	0x3dcb8c85	0.09938911
97	0xbdfe90a8	-0.12429935
98	0x3cf07326	0.029351782
99	0x3d519a0d	0.051172305
100	0x3e114c06	0.14189157
101	0x3da53c6e	0.08068167
102	0x3d8b401c	0.06799337
103	0xbe041040	-0.12896824
104	0xbdf370bf	-0.11886739
105	0x3cd69904	0.02619601
106	0xbd0d1bb4	-0.034450248
107	0xbda15deb	-0.078792416
108	0xbe2037ad	-0.15646239
109	0xbd1cedae	-0.038312607
110	0xbd867fd0	-0.06567347
111	0xbdecf737	-0.1157059
112	0xbdf4cf71	-0.11953629
113	0x3d8ce590	0.06879723
114	0x3e1823ea	0.1485745
115	0xbda57b36	-0.08080141
116	0x3e1457d4	0.14486629
117	0x3dde7646	0.108624026
118	0xbbf3c15d	-0.007438822
119	0x3d18a06e	0.037262373
120	0x3de57cb3	0.11205425
121	0xbd3e99bc	-0.04653333
122	0x3e0e5677	0.13900171
123	0xbdf82e6e	-0.12118231
124	0x3d19d7a5	0.03755917
125	0xbda180d7	-0.078859024
126	0x3e16a78c	0.14712352
127	0x3de635d0	0.11240733
