checkpoints/sort_1/S_6_K_6/ArgmaxAR/16_05_2023__00_24/cktp/checkpoint_0002000.tar (torch, 796123 bytes, 89 tensors)

model.base_dist.loc f4 [1, 3, 1]
-0.0071926615 -0.011507778 0.027971257
00000000: 6bb0 ebbb 1f8b 3cbc fa23 e53c

model.base_dist.log_scale f4 [1, 3, 1]
0.061571732 0.012058463 0.06545481
00000000: a432 7c3d dc90 453c 2c0d 863d

model.transforms.0.encoder.noise_dist.base_dist.net.weight f4 [6, 32, 1]
-0.17649831 0.06627531 -0.2291605 -0.26255327 0.02157705 0.1471174 -0.14042535 0.047464002
-0.2037616 0.0056366576 -0.22777328 -0.17774451 0.20403402 -0.06416749 -0.17442776 0.18964384
0.16652495 -0.09456747 0.078594446 0.2825291 -0.0578285 -0.19790736 0.17221653 -0.14669387
-0.082747206 -0.061130982 -0.15584591 -0.112312555 -0.1901786 0.07250387 0.024138013 0.18335658
0.07231583 0.07433674 -0.16256009 -0.17882971 0.14732762 -0.05643101 0.092922635 -0.12343084
0.11648048 0.13992673 -0.136253 -0.01032156 0.1314474 -0.039007027 -0.0004480105 0.11368899
0.027504236 0.1796672 -0.03842142 0.092404544 -0.07761215 0.03622552 0.041680858 -0.19103287
-0.20613302 -0.0648743 0.11932545 -0.020414723 -0.015687132 -0.1539808 -0.022302207 0.02846313
-0.029797325 0.14197013 -0.12354225 -0.01423018 -0.15103336 0.18714297 -0.17766416 0.08290414
-0.022709604 -0.08766272 -0.2833746 -0.20382604 0.18334115 -0.08256065 -0.07932783 0.011969521
0.21994865 -0.040842578 0.090395406 0.10618163 0.07963402 -0.24431586 0.20011841 -0.10651935
-0.050989196 -0.16810359 0.042228825 0.17145124 -0.16928846 -0.16188444 0.07043856 0.00688157
-0.1269383 -0.09074484 -0.08809366 -0.0833693 0.031205261 -0.11766515 -0.1556514 0.14270969
0.15447219 -0.085020155 -0.12604934 0.15535839 0.1782648 0.1678981 0.05216023 -0.07697584
-0.0140830595 0.04367312 0.18600184 -0.070060074 0.02021186 0.113631964 -0.031544298 -0.052358944
0.0545147 -0.11273254 0.09932574 0.16847572 0.15047508 0.10742917 -0.15153222 0.087749265
-0.028486863 0.024692329 0.014627552 -0.10413143 -0.13151047 0.0691652 -0.07178728 -0.07385634
-0.07772499 0.11602669 -0.101706885 0.045949787 0.13774824 0.036090054 0.04395606 -0.052285604
-0.033267796 -0.11369155 0.15478164 0.04189642 0.06702605 0.12180498 -0.19010665 0.1756485
-0.13581109 -0.0596536 0.026131451 -0.050120763 0.0322082 0.094102964 0.07595459 -0.12970142
-0.05946907 0.072903305 0.028926456 0.029203828 0.1666293 -0.15535091 -0.13730912 -0.10479588
-0.083197854 0.004582317 0.103542 0.14903699 -0.11813573 -0.015927054 0.15286142 0.10184604
-0.04932292 -0.10743049 0.13470584 0.111039594 0.042485885 -0.1250509 0.12680683 0.13673241
-0.083200775 -0.14000197 -0.13352317 0.032465715 -0.005209871 0.17197877 -0.0006512235 0.11945465
00000000: f9bb 34be 5abb 873d 0da9 6abe 626d 86be
00000010: 5bc2 b03c f2a5 163e aacb 0fbe 9d69 423d
00000020: e2a6 50be b6b3 b83b 663d 69be a802 36be
00000030: 4bee 503e 3f6a 83bd 319d 32be ff31 423e
00000040: 8485 2a3e 97ac c1bd 20f6 a03d a7a7 903e
00000050: 94dd 6cbd 3aa8 4abe 8859 303e eb36 16be
00000060: 5e77 a9bd 7b64 7abd 1296 1fbe 2004 e6bd
00000070: 2ebe 42be e97c 943d 15bd c53c d4c1 3b3e
00000080: 521a 943d dc3d 983d 2776 26be 231f 37be
00000090: 0ddd 163e 3424 67bd 394e be3d 4fc9 fcbd
000000a0: 518d ee3d f448 0f3e e885 0bbe c31b 29bc
000000b0: 269a 063e d5c5 1fbd f4e2 eab9 c6d5 e83d
000000c0: 9050 e13c aefa 373e c75f 1dbd 983e bd3d
000000d0: 1ef3 9ebd 3661 143d 8cb9 2a3d 1f9e 43be
000000e0: 8914 53be d1dc 84bd e760 f43d c73c a7bc
000000f0: 4d82 80bc 25ad 1dbe 1eb3 b6bc 832b e93c
00000100: 8519 f4bc 9e60 113e b803 fdbd b325 69bc
00000110: 7da8 1abe 68a2 3f3e 98ed 35be a5c9 a93d
00000120: 7e09 babc 8388 b3bd 7a16 91be c6b7 50be
00000130: c8bd 3b3e 8f15 a9bd a176 a2bd cf1b 443c
00000140: 383a 613e 8c4a 27bd 3a21 b93d c175 d93d
00000150: 2917 a33d f02d 7abe d7eb 4c3e d126 dabd
00000160: 0cda 50bd 5923 2cbe 22f8 2c3d ea90 2f3e
00000170: f459 2dbe 09c5 25be 1742 903d cb7e e13b
00000180: 1dfc 01be 6ed8 b9bd 736a b4bd 86bd aabd
00000190: 2da2 ff3c 6dfa f0bd 1563 1fbe 7d22 123e
000001a0: f52d 1e3e 0c1f aebd 1413 01be 4516 1f3e
000001b0: 0c8b 363e 7bed 2b3e f7a5 553d 82a5 9dbd
000001c0: a2bc 66bc 96e2 323d 4477 3e3e a87b 8fbd
000001d0: 5893 a53c e0b7 e83d 9834 01bd 5576 56bd
000001e0: ce4a 5f3d 51e0 e6bd 4b6b cb3d e684 2c3e
000001f0: 2416 1a3e d303 dc3d 432b 1bbe e3b5 b33d
00000200: 485d e9bc 9147 ca3c 66a8 6f3c dc42 d5bd
00000210: aeaa 06be 7ca6 8d3d 3605 93bd fe41 97bd
00000220: 482e 9fbd 679f ed3d b34b d0bd d835 3c3d
00000230: e00d 0d3e 2ad3 133d 450b 343d 6e29 56bd
00000240: d043 08bd 1ed7 e8bd 147f 1e3e 959b 2b3d
00000250: f444 893d e474 f93d 51ab 42be 33dd 333e
00000260: 1012 0bbe 5557 74bd a011 d63c 6e4b 4dbd
00000270: bfec 033d 0eb9 c03d 158e 9b3d 73d0 04be
00000280: d795 73bd 544e 953d 2df7 ec3c de3c ef3c
00000290: dfa0 2a3e 4f14 1fbe c39a 0cbe 399f d6bd
000002a0: a363 aabd 4327 963b d40d d43d 279d 183e
000002b0: 25f1 f1bd 7479 82bc b487 1c3e a894 d03d
000002c0: d506 4abd 8404 dcbd 54f0 093e ba68 e33d
000002d0: ae05 2e3d 580d 00be a6d9 013e 9503 0c3e
000002e0: 2b65 aabd ad5c 0fbe 4cba 08be c5fa 043d
000002f0: 91b7 aabb 341b 303e dfb6 2aba a4a4 f43d

model.transforms.0.encoder.noise_dist.base_dist.net.bias f4 [6]
-0.030923381 0.12640697 0.09608716 -0.0042859735 0.07985287 -0.013499398
00000000: 0853 fdbc d470 013e 58c9 c43d 5a71 8cbb
00000010: e789 a33d 942c 5dbc

model.transforms.0.encoder.noise_dist.transforms.0.ar_net.lstm.weight_ih_l0 f4 [256, 35]
0.10231504 -0.106861055 -0.08909936 0.1336562 -0.01802673 -0.014231558 0.037281163 0.076080166
-0.05996094 -0.113065355 0.0059460397 0.11122269 -0.026968287 0.12113561 -0.01011771 0.12510663
0.03796055 0.12669094 0.10331451 0.04661189 -0.009823953 -0.065824464 0.08412425 0.014795525
0.045224 0.0119958995 -0.12764646 0.06743927 0.032500036 0.15033564 0.04705551 0.041912317
0.07615771 0.040579334 0.122656286 -0.09901391 0.022138324 -0.05281378 0.019678447 -0.0007209393
-0.10549562 0.03552109 -0.031981185 -0.12052533 -0.017172394 -0.0800933 -0.02824483 -0.1177427
-0.08440193 -0.015134892 -0.11260426 -0.041117433 -0.010410957 -0.09692048 -0.051292304 0.07957504
0.019347329 -0.08272376 0.056411486 -0.06367818 -0.00075693894 0.1043312 -0.013135741 0.09897885
-0.103329435 -0.11173399 -0.06600776 0.0671991 0.11002316 -0.054240875 0.07710887 0.060058165
-0.01715395 0.1279448 0.026559059 0.08442121 -0.114323586 -0.03816306 0.030360753 0.12591267
-0.13044444 0.05691463 -0.11250051 0.058094822 -0.08736481 0.023944205 0.05285031 0.08723956
0.04776485 0.00079055066 -0.05672491 0.03311901 0.07233388 -0.10184548 0.07292012 0.007117885
-0.08889067 0.061623145 0.014548551 0.01873206 0.01798242 -0.076605506 -0.02692486 -0.026182903
-0.088410504 0.035824414 -0.0093854265 0.02326346 -0.06350088 -0.022150194 0.056706272 -0.13353512
0.102773875 -0.043836687 0.09682073 0.06138027 0.025701962 0.09589452 -0.04196992 0.005601121
0.060026057 0.042132147 -0.033284817 -0.10713539 -0.06003797 0.016168017 -0.08832932 0.07813805
0.049112264 0.055944793 -0.010685519 -0.07052847 -0.11795058 0.033632163 0.09135828 0.014291062
-0.05149473 0.030629285 0.052300684 0.11200515 0.0015082142 -0.10612831 0.026237441 -0.033316404
0.058293246 -0.13770658 -0.02197254 -0.07822736 -0.092194915 0.08095159 -0.022516452 -0.015290488
-0.028788695 -0.026857428 0.041390687 -0.06269493 0.07566106 0.0481205 -0.035287246 0.037481267
-0.031375322 -0.065270856 0.07738409 0.025341244 -0.065762684 -0.09624712 -0.06317526 -0.071356066
0.031392895 -0.0033373537 -0.11206247 -0.056717884 0.059838105 -0.040815882 -0.0008401016 0.1437181
-0.05502054 -0.06847327 -0.02653457 0.14764625 -0.06934071 0.07384267 0.12950614 0.0032185814
-0.034487154 -0.08792828 0.08568296 0.057476733 0.011683212 -0.018213553 -0.07808435 -0.08810109
-0.059209228 0.09990675 -0.02033865 0.027142152 0.12317884 0.02810481 0.028262638 -0.10493573
0.10887591 -0.14854977 -0.006837499 -0.06594642 -0.09644421 0.016825665 -0.011022682 -0.19619556
-0.115848035 -0.061083607 -0.035074286 0.13879798 0.012723594 0.07713219 0.1425616 -0.093653984
0.032954454 -0.018241651 -0.12723581 -0.032742452 -0.11825668 0.11005136 0.05077125 0.08319862
-0.015123272 0.078774 0.056689933 -0.1291708 -0.04725634 -0.084243655 -0.056052204 -0.07481327
0.13270964 0.014921165 -0.107013755 -0.09837822 -0.15835607 -0.026448257 0.0020339568 -0.07063119
-0.103181526 0.037998147 -0.10253543 -0.09934414 -0.013038929 0.014092304 -0.024753528 0.011640286
-0.11367306 0.031029796 0.08713341 0.04745387 0.084964685 0.117289856 -0.08219559 -0.082897484
00000000: 8c8a d13d f8d9 dabd ba79 b6bd 2cdd 083e
00000010: cbac 93bc 7b2b 69bc 22b4 183d ebcf 9b3d
00000020: 9a99 75bd cf8e e7bd ffd6 c23b b9c8 e33d
00000030: 99ec dcbc f215 f83d c0c4 25bc f41b 003e
00000040: 867c 1b3d 45bb 013e 8f96 d33d 1cec 3e3d
00000050: a5f4 20bc face 86bd 5649 ac3d ee68 723c
00000060: cd3c 393d 738a 443c c1b5 02be 9a1d 8a3d
00000070: c21e 053d 96f1 193e 47bd 403d 40ac 2b3d
00000080: 93f8 9b3d 8436 263d 3833 fb3d cec7 cabd
00000090: 6e5b b53c 4353 58bd b234 a13c 6bfd 3cba
000000a0: 160e d8bd 907e 113d b4fe 02bd fcd5 f6bd
000000b0: 1fad 8cbc f507 a4bd b461 e7bc 1623 f1bd
000000c0: ebda acbd 57f8 77bc 109d e6bd c16a 28bd
000000d0: b892 2abc 3f7e c6bd e117 52bd 3df8 a23d
000000e0: 4a7e 9e3c 136b a9bd bb0f 673d b569 82bd
000000f0: 506d 46ba 99ab d53d 4b37 57bc 6cb5 ca3d
00000100: 629e d3bd cad4 e4bd 142f 87bd af9f 893d
00000110: d353 e13d ae2b 5ebd 41eb 9d3d 8dff 753d
00000120: 7186 8cbc f603 033e 6292 d93c 07e5 ac3d
00000130: 7c22 eabd de50 1cbd 1db7 f83c 40ef 003e
00000140: 3a93 05be 511f 693d ab66 e6bd d6f4 6d3d
00000150: 52ec b2bd a326 c43c 9179 583d a8aa b23d
00000160: 13a5 433d f53c 4f3a 6158 68bd cda7 073d
00000170: c923 943d 5d94 d0bd 2557 953d 263d e93b
00000180: 500c b6bd 8d68 7c3d 0c5d 6e3c fa73 993c
00000190: de4f 933c 59e3 9cbd 8691 dcbc 877d d6bc
000001a0: 9110 b5bd 9fbc 123d 55c5 19bc 0393 be3c
000001b0: c00c 82bd 5374 b5bc d644 683d 6ebd 08be
000001c0: 1c7b d23d 198e 33bd f249 c63d e169 7b3d
000001d0: ec8c d23c 5964 c43d a7e8 2bbd 9c89 b73b
000001e0: e2dd 753d c292 2c3d a955 08bd cd69 dbbd
000001f0: 60ea 75bd ca72 843c 01e6 b4bd d806 a03d
00000200: f129 493d 5e26 653d 5112 2fbc 3b71 90bd
00000210: 1390 f1bd e1c1 093d 0d1a bb3d 0f25 6a3c
00000220: 23ec 52bd 44ea fa3c 3e39 563d f562 e53d
00000230: 45af c53a cd59 d9bd e7ef d63c c876 08bd
00000240: e6c4 6e3d f402 0dbe c2ff b3bc ab35 a0bd
00000250: b0d0 bcbd f2c9 a53d 6c74 b8bc f484 7abc
00000260: 45d6 ebbc 1c04 dcbc 4889 293d 3366 80bd
00000270: 30f4 9a3d 001a 453d 5c89 10bd f585 193d
00000280: 6983 00bd baac 85bd 8d7b 9e3d 7198 cf3c
00000290: 96ae 86bd 361d c5bd 0862 81bd 2123 92bd
000002a0: d695 003d 81b7 5abb 0281 e5bd 0351 68bd
000002b0: cd18 753d 8e2e 27bd 443a 5cba d62a 133e
000002c0: 385d 61bd b73b 8cbd 075f d9bc 9430 173e
000002d0: 8102 8ebd d33a 973d 429d 043e d6ee 523b
000002e0: 6742 0dbd be13 b4bd 8c7a af3d b96c 6b3d
000002f0: f16a 3f3c 9734 95bc b0ea 9fbd 586e b4bd
00000300: 6085 72bd e99b cc3d 3e9d a6bc 3859 de3c
00000310: 3045 fc3d 0f3c e63c 0c87 e73c 8be8 d6bd
00000320: 55fa de3d 6e1d 18be 190d e0bb eb0e 87bd
00000330: 8b84 c5bd fad5 893c 7b98 34bc 7de7 48be
00000340: bc41 edbd ce32 7abd 0eaa 0fbd 0f21 0e3e
00000350: 9f76 503c 7bf7 9d3d abfb 113e a9cd bfbd
00000360: 40fb 063d 846f 95bc 1b4a 02be f31c 06bd
00000370: 8f30 f2bd 9c62 e13d 84f5 4f3d 0a64 aa3d
00000380: 9ac7 77bc 4354 a13d b433 683d 5a45 04be
00000390: dd8f 41bd f087 acbd ff96 65bd b337 99bd
000003a0: 09e5 073e e777 743c 072a dbbd 857a c9bd
000003b0: 1828 22be 04aa d8bc 224c 053b 16a7 90bd
000003c0: d650 d3bd f2a3 1b3d 18fe d1bd f174 cbbd
000003d0: 3ba1 55bc 68e3 663c e9c7 cabc e6b6 3e3c
000003e0: 6ccd e8bd 3332 fe3c 0073 b23d fd5e 423d
000003f0: f701 ae3d aa35 f03d 2956 a8bd 28c6 a9bd

model.transforms.0.encoder.noise_dist.transforms.0.ar_net.lstm.weight_hh_l0 f4 [256, 64]
-0.04982724 0.021036312 0.09799703 -0.0026623912 -0.0719149 -0.007597727 0.0418062 0.080777146
0.031101711 0.01912587 0.012680934 -0.05269612 -0.013715219 -0.078420416 0.011488648 0.04890513
-0.06388129 0.10864551 0.065589786 0.07300578 0.080379546 -0.06555909 0.07643248 -0.0005535753
0.012544492 0.06111042 0.027059022 -0.12404753 -0.014524972 0.017921599 0.044613197 0.08140635
0.026257966 0.01179434 -0.11249006 -0.10966092 0.07259642 0.038148053 -0.106831305 -0.007454596
0.065760724 -0.114998266 0.06885181 0.040791832 -0.039941076 -0.09437953 0.11926015 -0.11234023
-0.07547953 -0.07421555 0.05173073 -0.10714815 -0.03812988 -0.080676936 -0.024737172 0.098056704
-0.01631421 0.09775001 0.069884814 0.018242903 -0.070541784 -0.04853674 0.089476496 0.07249888
0.026894365 -0.007636006 0.08644333 -0.09322954 -0.12537786 0.07229012 -0.11588641 -0.016342515
0.06075786 -0.023835057 -0.08256682 -0.09718817 -0.00025050974 0.10267524 -0.0068152403 0.10432438
0.112338275 -0.05319934 -0.11503906 0.045874514 0.0974191 -0.12207431 0.002124082 0.014267148
0.0026059416 -0.10919059 -0.033004917 -0.09850416 0.08693714 0.12334576 -0.115319245 -0.034424867
0.02032328 0.046185073 -0.109813996 -0.09024685 0.0023430947 -0.002144453 -0.042682882 0.04047831
0.05641025 -0.050733186 0.053901654 0.11703959 -0.025845824 -0.070594914 -0.014303529 0.12637204
0.08255988 0.04594018 0.0020517826 -0.009756865 -0.09798787 -0.09821103 0.0953306 -0.07702493
-0.043262992 0.049750127 0.019824283 0.048671026 0.0049944287 -0.015141014 -0.046681516 -0.05170738
-0.03261989 0.0375309 0.09754941 0.0847521 0.07058124 -0.076750055 0.09366276 0.016779453
0.09988306 -0.027328903 0.13146637 -0.10111286 0.021400956 -0.114235625 -0.12772685 0.040920362
-0.09590379 0.0072448803 -0.081517644 0.0920126 -0.09410445 0.0013358955 -0.061167844 -0.11831927
-0.053089865 0.12381314 -0.03005089 -0.09556679 -0.020123351 -0.02853762 -0.06488509 -0.02828598
0.042134028 0.093430035 0.038419176 0.018539937 -0.0058713816 -0.05867657 -0.044271268 -0.098727055
-0.043440707 0.015819302 -0.1263805 -0.08038959 0.08718564 -0.0109174 -0.03701841 -0.034512587
0.05057919 0.028753515 0.08641625 -0.0788855 0.04260681 0.017604535 -0.10205989 0.08651372
0.022558589 -0.07341205 0.11117352 0.10024806 0.053127486 0.08295124 -0.018504217 0.023258256
0.07901867 -0.09250029 0.06084797 0.0420178 -0.053291265 -0.0017693931 0.058386024 0.09465886
-0.037927203 0.04071484 0.0111811785 -0.04761021 0.03033091 -0.11141835 0.06968278 0.10864057
-0.01566577 0.059874203 -0.17226906 0.0012273466 0.08658959 -0.050746243 0.08691516 0.07289433
-0.09371866 -0.0058356924 -0.078545935 0.089413844 0.063818984 -0.088076845 -0.09030001 0.13058814
0.07491194 -0.13259843 -0.06990465 2.361314e-05 0.06702448 0.058742102 0.075707346 -0.0394314
0.007886765 -0.046558462 -0.0731273 0.10892962 0.05609973 -0.09348147 -0.06873649 -0.05048254
-0.05309685 -0.103716455 0.114615515 0.12871401 0.05903942 -0.13191515 -0.051853724 0.10529519
0.023244495 -0.04817377 0.016913688 -0.06693075 -0.05239868 0.07840318 0.0074961158 -0.086781435
00000000: a617 4cbd 5854 ac3c abb2 c83d 837b 2ebb
00000010: 1e48 93bd 5af6 f8bb fa3c 2b3d 7d6e a53d
00000020: 04c9 fe3c dbad 9c3c b1c3 4f3c e3d7 57bd
00000030: ccb5 60bc e29a a0bd e23a 3c3c bf50 483d
00000040: 32d4 82bd 8a81 de3d f053 863d 0e84 953d
00000050: 089e a43d d843 86bd a288 9c3d cf1d 11ba
00000060: 6a87 4d3c eb4e 7a3d e2aa dd3c a20c febd
00000070: 26fa 6dbc 51d0 923c 54bc 363d 5fb8 a63d
00000080: f21a d73c 0c3d 413c 3061 e6bd e895 e0bd
00000090: 6fad 943d 2241 1c3d 5fca dabd af45 f4bb
000000a0: 8fad 863d 3684 ebbd 2e02 8d3d 5615 273d
000000b0: 4199 23bd 0e4a c1bd aa3e f43d a212 e6bd
000000c0: 0395 9abd 53fe 97bd 9ae3 533d 7d70 dbbd
000000d0: 142e 1cbd f339 a5bd 9ca5 cabc f4d1 c83d
000000e0: 61a5 85bc 2831 c83d c51f 8f3d 2472 953c
000000f0: 3678 90bd 76ce 46bd 743f b73d 4b7a 943d
00000100: 9251 dc3c 7637 fabb 3309 b13d 21ef bebd
00000110: 0e63 00be d80c 943d db55 edbd bde0 85bc
00000120: 3cdd 783d bd41 c3bc cb18 a9bd 970a c7bd
00000130: d956 83b9 6547 d23d 6152 dfbb 05a8 d53d
00000140: 9c11 e63d 8de7 59bd 9999 ebbd eae6 3b3d
00000150: aa83 c73d 1902 fabd 2f34 0b3b c2c0 693c
00000160: 72c8 2a3b 519f dfbd 2a30 07bd 8dbc c9bd
00000170: 190c b23d b49c fc3d 7f2c ecbd 1701 0dbd
00000180: 027d a63c 8f2c 3d3d 29e6 e0bd 57d3 b8bd
00000190: 9b8e 193b f489 0cbb 3fd4 2ebd 96cc 253d
000001a0: 6f0e 673d 9acd 4fbd fbc7 5c3d 74b2 ef3d
000001b0: 9fba d3bc 1194 90bd 5959 6abc ac67 013e
000001c0: 2815 a93d c52b 3c3d 3377 063b 42db 1fbc
000001d0: ddad c8bd dd22 c9bd b13c c33d 3fbf 9dbd
000001e0: 8934 31bd cac6 4b3d 8966 a23c 455b 473d
000001f0: 4ea8 a33b 0412 78bc 1e35 3fbd 1ecb 53bd
00000200: 6f9c 05bd 00ba 193d fcc7 c73d 8292 ad3d
00000210: e68c 903d 222f 9dbd 43d2 bf3d 1075 893c
00000220: 7d8f cc3d dde0 dfbc 1f9f 063e 4214 cfbd
00000230: 0f51 af3c 5ef4 e9bd d4ca 02be 1c9c 273d
00000240: 3569 c4bd 7666 ed3b b9f2 a6bd 1a71 bc3d
00000250: d5b9 c0bd 3719 af3a 228b 7abd 6051 f2bd
00000260: c274 59bd be91 fd3d 492d f6bc 85b8 c3bd
00000270: bad9 a4bc bac7 e9bc 79e2 84bd 00b8 e7bc
00000280: bb94 2c3d 3f58 bf3d 6d5d 1d3d 11e1 973c
00000290: b864 c0bb d856 70bd ca55 35bd 6931 cabd
000002a0: e2ee 31bd 7b97 813c e469 01be 4ca3 a4bd
000002b0: 638e b23d e5de 32bc 9ea0 17bd 125d 0dbd
000002c0: 202c 4f3d 7e8c eb3c 01fb b03d b98e a1bd
000002d0: 7a84 2e3d 6337 903c c704 d1bd 1b2e b13d
000002e0: cacc b83c 0f59 96bd f1ae e33d db4e cd3d
000002f0: 359c 593d 57e2 a93d 2896 97bc 1988 be3c
00000300: 8ad4 a13d cb70 bdbd b93b 793d db1a 2c3d
00000310: f147 5abd fbea e7ba 2f26 6f3d 81dc c13d
00000320: 8e59 1bbd 9bc4 263d 4331 373c ec02 43bd
00000330: 8778 f83c 4e2f e4bd d8b5 8e3d f27e de3d
00000340: 8055 80bc a73e 753d 4d67 30be ebde a03a
00000350: e255 b13d 4bdb 4fbd 9300 b23d 9f49 953d
00000360: 92ef bfbd 5639 bfbb b1dc a0bd 9b1e b73d
00000370: 87b3 823d a261 b4bd 36ef b8bd e6b8 053e
00000380: 6e6b 993d e2c7 07be 2b2a 8fbd d514 c637
00000390: 2144 893d 8f9b 703d 740c 9b3d d282 21bd
000003a0: 7d37 013c 16b4 3ebd c4c3 95bd 7e16 df3d
000003b0: d5c8 653d 3773 bfbd b8c5 8cbd c8c6 4ebd
000003c0: 157c 59bd 4b69 d4bd 8abb ea3d 9bcd 033e
000003d0: 52d3 713d c414 07be 9264 54bd 01a5 d73d
000003e0: 3d6b be3c dc51 45bd 938e 8a3c fd12 89bd
000003f0: 00a0 56bd d991 a03d faa1 f53b 77ba b1bd

model.transforms.0.encoder.noise_dist.transforms.0.ar_net.lstm.bias_ih_l0 f4 [256]
-0.06261925 0.06065343 -0.016724948 0.00045704204 -0.09602865 -0.041335717 -0.04999701 -0.081218444
0.041216124 0.13660344 -0.0020662053 -0.10254224 -0.032625325 0.025517121 -0.03298981 -0.06410827
-0.014264286 -0.03198899 -0.06311764 -0.12851249 -0.04804438 -0.07490447 0.061051887 -0.105894186
-0.10894319 0.02377293 -0.073399626 0.017512446 0.086704 -0.040116638 0.013244294 0.1400088
-0.038879704 -0.11375036 0.04898388 -0.007380928 -0.1275591 -0.030299395 -0.12403822 0.11192177
-0.06183208 0.019201564 -0.025144875 0.07688246 -0.023643874 0.04545227 -0.04124515 -0.04278826
0.0071167834 0.033689704 0.03931011 -0.121992745 0.059087094 0.11124919 0.0044857985 0.09828643
0.076041326 -0.09604296 0.0029675406 -0.0016440488 -0.06263357 0.07921138 -0.11868381 0.033849727
0.11031944 -0.036798067 0.040074643 0.040177774 -0.057273846 0.09615436 0.069629975 -0.028735531
0.09280631 0.058674403 -0.02135923 -0.016177759 -0.0343534 -0.053437628 0.011174736 0.11096311
-0.087501675 0.055485513 -0.0274294 0.10943604 0.007382829 0.0059677656 0.10417682 0.043459494
0.11152731 0.074862935 0.04655573 0.09192387 0.0591305 -0.038819857 0.032812014 0.011474182
0.06581553 0.11546077 0.015594217 -0.020666543 0.00808805 0.064915255 -0.03358471 -0.09047053
-0.017469963 0.067988195 0.13221952 -0.046438508 -0.110637836 0.079372115 -0.08838813 0.006906022
0.0055279373 0.14260715 -0.03378249 0.09872279 -0.10722085 0.094097674 -0.021682773 -0.0712978
0.032792002 0.02132313 -0.028664947 0.09168469 -0.07808234 0.055763002 0.043191288 0.080587424
0.08359447 -0.026163168 0.07369037 -0.03385312 -0.08298515 0.10737919 -0.04503931 -0.077405535
0.10199887 -0.03957483 -0.11275298 0.07205351 -0.062046155 0.061396543 0.09532889 -0.038086683
-0.0995438 0.07444012 -0.025086164 -0.05960546 0.11773169 -0.11298034 -0.09461332 0.09169542
-0.012251491 -0.019045537 0.053660776 -0.09255021 0.074578345 -0.07401872 0.044506583 0.1069754
0.004421391 -0.034149718 -0.10571395 0.13208942 -0.100804836 -0.10362364 0.083078645 -0.07718253
-0.020591902 -0.07336842 -0.05411147 -0.019542752 -0.06702124 -0.120485455 0.023172736 -0.103732355
0.09034047 0.03361104 0.014532536 -0.028643267 -0.050115094 0.059089445 -0.050065022 0.09796643
0.05774225 -0.08143285 0.016648952 0.089083396 0.10318591 0.014203171 -0.049050752 -0.06658894
-0.09850992 0.04456135 -0.012214346 -0.08160288 0.080734946 0.08499069 0.07094227 0.00938701
0.083112605 -0.087656386 -0.026442995 0.018380068 -0.05107641 -0.055653222 0.038620032 0.034691934
-0.08025411 -0.09034969 -0.021448985 -0.0358352 0.13322313 -0.04809952 0.06678145 0.10314804
0.13079986 0.0918116 -0.012375773 0.04726377 -0.020844618 0.041345492 -0.08836709 -0.07245212
-0.12093886 -0.017287135 0.007854538 0.0726379 -0.10934631 -0.018279407 -0.021066213 -0.007437985
0.06533916 -0.08249633 0.04211146 -0.100249365 -0.091948666 -0.12553608 -0.0056351284 0.07292532
-0.08615873 0.084491044 -0.052569393 -0.03007348 -0.0072126254 0.08385788 0.038777158 -0.09158928
0.092158645 0.052131146 -0.009880599 -0.015809303 0.020222325 -0.11877384 -0.10457157 0.023562716
00000000: 853e 80bd bb6f 783d c202 89bc 259f ef39
00000010: abaa c4bd a44f 29bd aac9 4cbd db55 a6bd
00000020: 3dd2 283d c6e1 0b3e 2c69 07bb aa01 d2bd
00000030: 22a2 05bd 4809 d13c 5320 07bd 324b 83bd
00000040: c0b4 69bc e306 03bd d243 81bd c798 03be
00000050: 2fca 44bd 8467 99bd 8b11 7a3d 0ddf d8bd
00000060: 9b1d dfbd 73bf c23c 8b52 96bd 4376 8f3c
00000070: de91 b13d 5851 24bd 98fe 583c 785e 0f3e
00000080: 5340 1fbd f3f5 e8bd 52a3 483d b6db f1bb
00000090: da9e 02be 7036 f8bc c007 febd 3e37 e53d
000000a0: a343 7dbd 994c 9d3c a0fc cdbc 8d74 9d3d
000000b0: ccb0 c1bc 292c 3a3d adf0 28bd be42 2fbd
000000c0: e833 e93b 37fe 093d a303 213d 55d7 f9bd
000000d0: 4f05 723d 9ed6 e33d 9bfd 923b 654a c93d
000000e0: 8ebb 9b3d 2cb2 c4bd 127b 423b 207d d7ba
000000f0: 0746 80bd 9339 a23d 7f10 f3bd 03a6 0a3d
00000100: 29ef e13d 92b9 16bd 4f25 243d 7391 243d
00000110: fb97 6abd 94ec c43d 299a 8e3d c766 ebbc
00000120: 3c11 be3d 9254 703d 8df9 aebc 3887 84bc
00000130: 27b6 0cbd 6ae1 5abd 3d16 373c a140 e33d
00000140: 1434 b3bd c744 633d 9fb3 e0bc 0120 e03d
00000150: a9eb f13b 3f8d c33b a85a d53d 9502 323d
00000160: 6e68 e43d bd51 993d 39b1 3e3d 9542 bc3d
00000170: d332 723d 9201 1fbd e465 063d 35fe 3b3c
00000180: 4bca 863d b276 ec3d e37e 7f3c e24c a9bc
00000190: be83 043c 4af2 843d 1f90 09bd 9d48 b9bd
000001a0: 2b1d 8fbc 653d 8b3d 8e64 073e 4e36 3ebd
000001b0: 1796 e2bd d98d a23d d604 b5bd e94b e23b
000001c0: b323 b53b 9c07 123e 825f 0abd 2d2f ca3d
000001d0: 9b96 dbbd 48b6 c03d 12a0 b1bc 9504 92bd
000001e0: e850 063d d8ad ae3c c0d2 eabc 2fc5 bb3d
000001f0: a2e9 9fbd bf67 643d 59e9 303d 050b a53d
00000200: 9433 ab3d 2454 d6bc faea 963d 92a9 0abd
00000210: 1ef4 a9bd 9fe9 db3d 247b 38bd cb86 9ebd
00000220: c9e4 d03d 3819 22bd 09eb e6bd ca90 933d
00000230: 1c24 7ebd f17a 7b3d cb3b c33d c800 1cbd
00000240: 9fdd cbbd 1074 983d 8081 cdbc db24 74bd
00000250: 501d f13d 3d62 e7bd a1c4 c1bd cfca bb3d
00000260: 7aba 48bc 6305 9cbc 67cb 5b3d f78a bdbd
00000270: 88bc 983d 2097 97bd 894c 363d eb15 db3d
00000280: 51e1 903b 93e0 0bbd 8e80 d8bd 7342 073e
00000290: c472 cebd a238 d4bd 2325 aa3d e011 9ebd
000002a0: 59b0 a8bc 2f42 96bd fda3 5dbd 1f18 a0bc
000002b0: 6f42 89bd 14c1 f6bd c0d4 bd3c a171 d4bd
000002c0: 6d04 b93d bbab 093d e019 6e3c 49a5 eabc
000002d0: 7c45 4dbd c607 723d fb10 4dbd a0a2 c83d
000002e0: 2383 6c3d 44c6 a6bd 6263 883c 5b71 b63d
000002f0: 2253 d33d 6bb4 683c 71e9 48bd c85f 88bd
00000300: 92bf c9bd f685 363d ae1e 48bc 691f a7bd
00000310: 5d58 a53d 990f ae3d 2e4a 913d f9cb 193c
00000320: f136 aa3d 3185 b3bd fb9e d8bc cc91 963c
00000330: 7f35 51bd a2f4 63bd 0a30 1e3d 2119 0e3d
00000340: 445c a4bd 4209 b9bd c8b5 afbc eec7 12bd
00000350: a56b 083e 0104 45bd b6c4 883d 483f d33d
00000360: 66f0 053e b807 bc3d c1c3 4abc a897 413d
00000370: 55c2 aabc e459 293d cef9 b4bd c761 94bd
00000380: cbae f7bd c09d 8dbc 52b0 003c 2ec3 943d
00000390: f5f0 dfbd b2be 95bc 0d93 acbc 57ba f3bb
000003a0: 8ad0 853d d6f3 a8bd 117d 2c3d 8a4f cdbd
000003b0: 954f bcbd 888c 00be e2a6 b8bb df59 953d
000003c0: fd73 b0bd a409 ad3d 0153 57bd a95c f6bc
000003d0: e357 ecbb aebd ab3d ccd4 1e3d 2993 bbbd
000003e0: acbd bc3d 7887 553d 3ce2 21bc 8382 81bc
000003f0: 4aa9 a53c b33f f3bd 9f29 d6bd 9906 c13c

model.transforms.0.encoder.noise_dist.transforms.0.ar_net.lstm.bias_hh_l0 f4 [256]
-0.048206583 -0.0390193 -0.10678811 -0.090448834 -0.049484875 0.03276418 -0.08782586 -0.13413836
0.14045745 0.059958726 0.047810894 0.09256178 0.11721015 0.04686057 0.110133015 -0.009180797
-0.092158094 -0.05382479 -0.08077346 -0.058601376 0.08911841 0.081680454 -0.10712685 0.045404118
0.066305004 -0.094718635 0.024864288 0.025637005 0.025143845 0.12736256 0.055220705 -0.078655966
-0.04979501 0.050210096 0.014822606 -0.102807224 -0.082954355 8.242506e-05 0.113990985 -0.05622874
0.09437653 -0.07119383 -0.090204716 0.07109478 -0.14033665 0.06426561 0.08413937 0.021886311
0.0291062 0.039812356 -0.021670906 0.03204338 0.03214908 0.07790496 0.10517992 0.09016282
0.07342006 0.023142397 -0.08955612 0.030101055 -0.09478613 -0.018143395 0.006083507 -0.13318373
-0.037652504 0.03681741 -0.03880205 0.1372523 0.043758232 0.07867743 -0.0072363717 -0.10987609
0.123817585 -0.09609195 -0.07552393 0.042676672 -0.07263695 0.04518669 -0.03216442 -0.05170021
0.0025689725 0.002964505 -0.09094694 -0.030615281 -0.0079509225 -0.034066863 0.059021838 0.11005885
0.059870064 0.112436734 0.0850941 -0.057431847 0.035969008 -0.02296091 -0.07140278 0.07350707
0.03698052 -0.019633092 0.08693742 0.12971798 -0.022469567 -0.14000171 0.11176175 -0.06677225
0.07705212 0.10819864 0.059657864 -0.0605492 -0.00807788 -0.088268 -0.026817977 0.13574879
0.08224205 0.010010148 -0.049014352 0.074213065 -0.059914697 -0.08427136 0.008078878 -0.033977956
-0.0052256584 -0.008793145 0.110348515 0.025581403 0.10084088 -0.09460037 0.12448793 0.050485115
0.13299854 -0.09016167 -0.05242606 0.055982545 0.10035935 -0.06830299 -0.02054702 -0.040124282
-0.0065652523 -0.087309614 -0.031748403 -0.13964887 -0.037364963 -0.014912225 0.12885934 -0.005124506
0.017242283 0.025494559 0.094998516 -0.07163106 -0.03166944 0.011145039 0.06971795 -0.06809599
0.062093608 -0.087782726 -0.04937807 -0.0032579927 -0.018210575 -0.0632837 0.014179328 0.116700254
-0.05963441 -0.029563745 -0.13848272 0.049886223 0.08196771 0.09663257 -0.061055038 0.12061882
-0.009007935 0.01613093 0.1295741 0.071547 -0.015921077 -0.014517056 0.07920705 0.050465137
-0.10476556 -0.046434615 0.091167875 0.08618589 -0.12412726 0.12219762 0.027085278 0.043133557
0.12866983 0.071327925 -0.104058355 -0.053932853 0.11307445 0.10264004 -0.08119111 -0.036716357
0.04994003 -0.07205856 -0.030996112 0.04375972 -0.04720029 -0.06514934 0.07320842 0.013673683
0.075843714 0.036651816 0.08138834 -0.08876098 -0.059504446 -0.11189483 -0.10926237 0.019499186
0.013950067 0.12499405 0.07323954 -0.047148816 0.1180583 -0.03239438 -0.019847903 0.08552453
0.08935074 -0.062431656 -0.053242933 -0.11236317 -0.13470262 -0.014840683 -0.11206925 -0.01994088
-0.09453572 -0.024553843 0.058617942 -0.11814749 -0.08563284 0.09403307 0.038763367 -0.04332511
-0.06476181 0.11074032 -0.08378077 -0.08821307 -0.0014279187 0.09837894 -0.077521525 0.04216011
0.06810678 0.00322943 0.08865286 -0.10497545 -0.024387214 0.06262578 -0.019339196 0.053808436
-0.08727577 0.019295776 -0.06593997 -0.012037689 0.010225629 0.10087841 -0.029077033 -0.033911914
00000000: 4474 45bd b4d2 1fbd bab3 dabd 3d3d b9bd
00000010: a7b0 4abd bc33 063d 0bde b3bd 915b 09be
00000020: 14d4 0f3e 4897 753d 5bd5 433d 0891 bd3d
00000030: e00b f03d def0 3f3d 6b8d e13d 0e6b 16bc
00000040: 62bd bcbd 6277 5cbd 8e6c a5bd ff07 70bd
00000050: b783 b63d 1548 a73d 5265 dbbd abf9 393d
00000060: ebca 873d d8fb c1bd 31b0 cb3c b204 d23c
00000070: 77fa cd3c 556b 023e 1b2f 623d 6116 a1bd
00000080: daf5 4bbd 1aa9 4d3d 84da 723c 988c d2bd
00000090: f9e3 a9bd 9edb ac38 1b74 e93d 1b50 66bd
000000a0: 7b48 c13d 12ce 91bd 40bd b8bd 249a 913d
000000b0: 69b4 0fbe b09d 833d 4351 ac3d ec4a b33c
000000c0: 2070 ee3c 4812 233d 2f87 b1bc eb3f 033d
000000d0: c1ae 033d a38c 9f3d 9268 d73d 49a7 b83d
000000e0: 425d 963d 2095 bd3c 3369 b7bd 7d96 f63c
000000f0: 3b1f c2bd 75a1 94bc 2858 c73b 5161 08be
00000100: 8339 1abd dacd 163d e6ee 1ebd de8b 0c3e
00000110: d53b 333d a221 a13d 161f edbb b706 e1bd
00000120: 1394 fd3d dbcb c4bd 4aac 9abd bccd 2e3d
00000130: aec2 94bd ae15 393d d7be 03bd 99c3 53bd
00000140: 355c 283b 2448 423b 6442 babd e6cc fabc
00000150: 9644 02bc b289 0bbd e2c0 713d 8966 e13d
00000160: 503a 753d 3b45 e63d d145 ae3d a83d 6bbd
00000170: 3d54 133d 8518 bcbc 9f3b 92bd e08a 963d
00000180: e378 173d 94d5 a0bc 3f0c b23d cad4 043e
00000190: 1912 b8bc 9c5c 0fbe 58e3 e43d e4bf 88bd
000001a0: 80cd 9d3d 4097 dd3d ce5b 743d 7002 78bd
000001b0: 1659 04bc dac5 b4bd 60b1 dbbc bb01 0b3e
000001c0: 856e a83d 9b01 243c 46c3 48bd 05fd 973d
000001d0: 1d69 75bd 7696 acbd 455d 043c 782c 0bbd
000001e0: 003c abbb 2011 10bc 67fe e13d 1790 d13c
000001f0: aa85 ce3d d7bd c1bd 87f3 fe3d 7bc9 4e3d
00000200: c530 083e afa6 b8bd b5bc 56bd f44d 653d
00000210: 3489 cd3d 70e2 8bbd 3952 a8bc 5c59 24bd
00000220: 5421 d7bb 62cf b2bd 9d0a 02bd 1d00 0fbe
00000230: 010c 19bd 6852 74bc b4f3 033e 79eb a7bb
00000240: b03f 8d3c f7d9 d03c 958e c23d 4eb3 92bd
00000250: d1b7 01bd af99 363c 49c8 8e3d e975 8bbd
00000260: de55 7e3d 6ec7 b3bd a940 4abd 0c84 55bb
00000270: 582e 95bc e29a 81bd 6a50 683c 8b00 ef3d
00000280: 3643 74bd ab2f f2bc 6ace 0dbe 7f55 4c3d
00000290: b0de a73d 4ce7 c53d d914 7abd 0007 f73d
000002a0: 0596 13bc 0325 843c 13af 043e 3c87 923d
000002b0: eb6c 82bc f2d8 6dbc 4e37 a23d 88b4 4e3d
000002c0: 538f d6bd 3932 3ebd 39b6 ba3d 3a82 b03d
000002d0: 6f36 febd bf42 fa3d f2e1 dd3c d0ac 303d
000002e0: 06c2 033e 6014 923d 8c1c d5bd b2e8 5cbd
000002f0: 9493 e73d f134 d23d 8647 a6bd e463 16bd
00000300: eb8d 4c3d 7093 93bd 8feb fdbc 643d 333d
00000310: 1755 41bd 046d 85bd 4cee 953d 9507 603c
00000320: f353 9b3d 3720 163d eeae a63d 51c8 b5bd
00000330: efba 73bd 1e29 e5bd f3c4 dfbd c2bc 9f3c
00000340: d28e 643c e1fc ff3d 9dfe 953d 1e1f 41bd
00000350: 8dc8 f13d f8af 04bd 1298 a2bc 7c27 af3d
00000360: 85fd b63d 56b8 7fbd 4315 5abd a91e e6bd
00000370: 7cef 09be 5626 73bc 9084 e5bd 0e5b a3bc
00000380: f29b c1bd 2425 c9bc 5e19 703d 50f7 f1bd
00000390: 4560 afbd 6994 c03d 56c6 1e3d ac75 31bd
000003a0: d7a1 84bd d2cb e23d 4195 abbd 0ea9 b4bd
000003b0: 0029 bbba e67a c93d 9bc3 9ebd 14b0 2c3d
000003c0: 917b 8b3d d8a4 533b a18f b53d 5efd d6bd
000003d0: b2c7 c7bc f241 803d 3c6d 9ebc 3c66 5c3d
000003e0: a4bd b2bd 2d12 9e3c 890b 87bd ba39 45bc
000003f0: 6689 273c 5799 ce3d f532 eebc 38e7 0abd

model.transforms.0.encoder.noise_dist.transforms.0.ar_net.l_out.0.weight f4 [33, 64]
-0.13515964 -0.07927296 0.020917937 0.090064585 0.0820157 -0.013959083 -0.076404676 0.13410749
0.01871503 0.0913424 0.08842231 0.14333531 0.0573718 -0.002984126 0.00015436532 -0.060663674
0.04709108 -0.023839543 0.08504121 0.120202795 -0.058510933 0.026728328 0.0068106065 0.021889072
-0.0015818281 -0.000286698 -0.13042417 -0.101977125 0.01978827 -0.040641006 0.08410401 -0.12567648
0.032242287 0.057578523 0.1352225 -0.10784175 0.030868992 -0.10044418 -0.121733345 -0.11777911
-0.013480194 0.08966926 -0.014910242 -0.1283165 -0.06943633 0.12885462 -0.05293938 0.12241833
-0.06928015 -0.06880365 0.02244682 -0.067910194 -0.07529794 0.046680447 0.043730065 0.06450743
-0.003943673 -0.012015893 -0.09785149 0.13948734 0.072362624 -0.12273929 -0.0480674 0.030784803
0.08599788 0.10764628 -0.108659185 -0.00047573124 -0.04206939 -0.043131396 -0.08768148 -0.0046782605
0.08887117 -0.05157213 0.06573083 0.08652417 -0.08173744 -0.037362907 -0.058968812 0.08690215
0.08205894 -0.06720855 -0.12105341 0.021869784 0.09698631 0.057143304 0.06429715 0.1061918
0.11862249 -0.0964348 0.059272196 -0.0763096 0.05258176 -0.12132467 -0.0068824003 -0.08800676
-0.09936503 -0.0070083435 0.04103596 0.1194487 -0.008434551 0.0982759 0.103914976 0.041451894
-0.11000978 0.07479275 0.10109661 -0.013623318 -0.062996514 0.058828052 -0.05396123 -0.1364801
-0.0683537 -0.057380565 -0.004264534 -0.03987606 -0.07926884 0.06355253 -0.10251234 -0.00510568
0.057592966 -0.13153973 -0.1045158 0.08430989 0.005382179 0.011673659 -0.11641062 0.07554024
-0.07752782 0.039723773 0.06441622 0.12641667 -0.13393721 -0.10716258 0.056949932 0.10225567
-0.10573462 0.020798294 -0.12814458 -0.09010632 -0.110699855 0.010809255 -0.0056551793 -0.09855369
-0.105226904 0.036076505 0.09548555 -0.11149156 -0.033128873 -0.081012696 -0.041050646 -0.0957955
0.059110306 0.07413153 0.05753676 -0.07346557 0.045489967 -0.037699938 -0.11001296 -0.018978713
0.01856039 -0.11399416 0.050279558 0.0850007 0.026140997 0.044712186 0.06915358 -0.11564645
-0.06462495 0.016280644 -0.10630766 0.018753847 0.09957512 -0.027921855 0.10788813 0.026117604
-0.08893269 -0.051779788 0.10943679 -0.09866979 0.07145157 -0.07288326 0.07383749 0.10761625
0.07937727 -0.11586004 -0.00033372946 -0.056723393 0.12177881 -0.10928369 -0.065334 -0.10508023
-0.02631356 0.05046278 0.10823204 0.07111052 0.038500033 0.060140636 0.027173473 -0.09233937
-0.007928466 -0.10853452 -0.07766004 0.10047398 0.061654653 -0.02074567 -0.00737857 -0.018284407
0.10302328 0.13358419 -0.09157018 -0.034621604 0.04480939 -0.0035668253 0.06809211 0.03328133
-0.048134107 -0.1311554 0.07474215 -0.057838313 0.11498184 -0.04464609 -0.084948786 0.049036738
-0.01904456 -0.12671913 0.07649866 0.042738415 0.0952883 0.0927441 0.04444426 -0.07703206
0.11408829 0.11067612 -0.026588932 -0.091189794 0.035025835 0.069442935 0.035599988 -0.042255644
-0.07662781 -0.06037482 -0.09491026 -0.08583728 0.028641751 0.008602229 0.04099969 -0.03557244
-0.10990054 -0.117606185 -0.08380038 -0.07479338 -0.10627677 0.04817236 -0.065223545 0.11099552
00000000: 4a67 0abe dd59 a2bd 185c ab3c c873 b83d
00000010: d9f7 a73d a3b4 64bc 0e7a 9cbd 7953 093e
00000020: 4350 993c b911 bb3d c216 b53d 7ec6 123e
00000030: b1fe 6a3d 5491 43bb 20dd 2139 797a 78bd
00000040: 94e2 403d 254b c3bc 162a ae3d e22c f63d
00000050: 29a9 6fbd 5ef5 da3c 822b df3b b650 b33c
00000060: 5855 cfba f44f 96b9 ea8d 05be 62d9 d0bd
00000070: 031b a23c 2f77 26bd b93e ac3d 56b1 00be
00000080: 7d10 043d 75d7 6b3d c477 0a3e 23dc dcbd
00000090: f8e0 fc3c aeb5 cdbd 554f f9bd 2d36 f1bd
000000a0: 08dc 5cbc 84a4 b73d 164a 74bc 6765 03be
000000b0: a234 8ebd 77f2 033e f7d6 58bd 76b6 fa3d
000000c0: c0e2 8dbd eee8 8cbd 65e2 b73c 8014 8bbd
000000d0: ce35 9abd ff33 3f3d 4c1e 333d 791c 843d
000000e0: ed39 81bb 4fde 44bc 5d66 c8bd c5d5 0e3e
000000f0: db32 943d bd5e fbbd 52e2 44bd 6930 fc3c
00000100: a81f b03d a775 dc3d b588 debd 916b f9b9
00000110: f450 2cbd 8caa 30bd 5992 b3bd 184c 99bb
00000120: 1702 b63d 4c3d 53bd e39d 863d 9633 b13d
00000130: f565 a7bd d909 19bd 4889 71bd c1f9 b13d
00000140: 840e a83d a3a4 89bd daea f7bd 4328 b33c
00000150: c2a0 c63d 190f 6a3d 39ae 833d 167b d93d
00000160: 59f0 f23d 9c7f c5bd 67c7 723d 3548 9cbd
00000170: f95f 573d 1279 f8bd c285 e1bb e33c b4bd
00000180: e57f cbbd 3fa6 e5bb 5315 283d 85a1 f43d
00000190: 1231 0abc e044 c93d 60d1 d43d 76c9 293d
000001a0: cf4c e1bd f12c 993d bd0b cf3d 5634 5fbc
000001b0: 5104 81bd aff5 703d 7306 5dbd 70c1 0bbe
000001c0: 06fd 8bbd e207 6bbd 81bd 8bbb 1455 23bd
000001d0: b457 a2bd d427 823d fdf1 d1bd 8c4d a7bb
000001e0: 9ae6 6b3d 5ab2 06be 610c d6bd aaaa ac3d
000001f0: fd5c b03b e042 3f3c b168 eebd d7b4 9a3d
00000200: e8c6 9ebd 65b5 223d a7ec 833d 5f73 013e
00000210: d626 09be 0e78 dbbd 5544 693d 6c6b d13d
00000220: 648b d8bd 2f61 aa3c 5538 03be aa89 b8bd
00000230: 9bb6 e2bd 4d19 313c 154f b9bb 84d6 c9bd
00000240: 3481 d7bd f5c4 133d ee8d c33d b055 e4bd
00000250: 24b2 07bd fce9 a5bd b924 28bd 6e30 c4bd
00000260: a61d 723d 46d2 973d aaab 6b3d 1e75 96bd
00000270: b053 3a3d 406b 1abd 7a4e e1bd 3f79 9bbc
00000280: f60b 983c c575 e9bd f0f1 4d3d d914 ae3d
00000290: a525 d63c 2024 373d 64a0 8d3d 0cd8 ecbd
000002a0: 165a 84bd fc5e 853c d5b7 d9bd aba1 993c
000002b0: 0aee cb3d 60bc e4bc 74f4 dc3d 96f4 d53c
000002c0: 5822 b6bd 0b17 54bd 6520 e03d 6313 cabd
000002d0: 3355 923d d243 95bd 1c38 973d e965 dc3d
000002e0: 8d90 a23d 0748 edbd 69f8 aeb9 ca56 68bd
000002f0: 2b67 f93d 21d0 dfbd d5cd 85bd 4e34 d7bd
00000300: 898f d7bc 0fb2 4e3d c3a8 dd3d 64a2 913d
00000310: 36b2 1d3d 0756 763d e79a de3c 6c1c bdbd
00000320: 66e6 01bc 5947 debd 3a0c 9fbd 4dc5 cd3d
00000330: 9789 7c3d d3f2 a9bc eec7 f1bb 2ec9 95bc
00000340: dffd d23d 4bca 083e 2689 bbbd 62cf 0dbd
00000350: 0d8a 373d 66c1 69bb e073 8b3d 0152 083d
00000360: 4528 45bd 9a4d 06be 6a12 993d dee7 6cbd
00000370: 997b eb3d d2de 36bd a1f9 adbd bfda 483d
00000380: 5603 9cbc a9c2 01be 54ab 9c3d 7a0e 2f3d
00000390: 8326 c33d 9ef0 bd3d 2f0b 363d fcc2 9dbd
000003a0: 1fa7 e93d 29aa e23d 08d1 d9bc b7c1 babd
000003b0: 4077 0f3d 1938 8e3d 4bd1 113d 4114 2dbd
000003c0: 0bef 9cbd 964b 77bd 4f60 c2bd 75cb afbd
000003d0: 1ba2 ea3c 5df0 0c3c 4aef 273d 68b4 11bd
000003e0: 8913 e1bd 83db f0bd 899f abbd 462d 99bd
000003f0: a3a7 d9bd 6150 453d ec93 85bd 9f51 e33d

model.transforms.0.encoder.noise_dist.transforms.0.ar_net.l_out.0.bias f4 [33]
0.06788381 0.044370193 0.12681325 -0.070191465 -0.029383898 0.06691729 -0.013446909 -0.06800554
0.02809682 -0.09041406 -0.09675433 0.02353305 0.108432345 0.03741511 0.09148756 0.09585926
-0.042179637 -0.092081375 0.003127792 -0.0017340665 0.06710358 0.0057717073 0.097840145 0.04743653
0.10225633 -0.093283586 -0.040533688 0.13516472 -0.07915614 0.04166291 0.09574445 -0.013852712
-0.09036555
00000000: ab06 8b3d 85bd 353d 55db 013e 8bc0 8fbd
00000010: 80b6 f0bc ef0b 893d 6d50 5cbc 7d46 8bbd
00000020: 4d2b e63c 022b b9bd 2227 c6bd 62c8 c03c
00000030: c711 de3d 9640 193d d45d bb3d dc51 c43d
00000040: 8ec4 2cbd 2995 bcbd a4fb 4c3b 9e49 e3ba
00000050: 9a6d 893d 9720 bd3b 6a60 c83d cf4c 423d
00000060: c46b d13d 770b bfbd a706 26bd 9f68 0a3e
00000070: 9d1c a2bd baa6 2a3d ab15 c43d 7cf6 62bc
00000080: 9311 b9bd

model.transforms.0.encoder.noise_dist.transforms.0.ar_net.l_out.1.first_token f4 [1, 1, 33]
0.1327925 0.003273528 -0.010291025 -0.2110721 0.2515087 -0.06464121 -0.21990399 -0.25547087
-0.10584786 -0.13601214 0.106608145 -0.060857132 0.16091539 0.13160354 0.24952811 0.15339018
0.13254638 0.20528898 0.073957615 0.0321084 0.062720284 0.0940719 -0.053515133 -0.1809612
0.13480295 -0.13734409 -0.25346267 -0.1717892 -0.0019810924 -0.14913887 -0.17202723 0.18278462
-0.21560423
00000000: c2fa 073e b088 563b b09b 28bc 4923 58be
00000010: c0c5 803e 9c62 84bd 832e 61be 14cd 82be
00000020: c3c6 d8bd c446 0bbe 5f55 da3d 5445 79bd
00000030: 01c7 243e 14c3 063e 4c84 7f3e 5112 1d3e
00000040: 3dba 073e 4637 523e 1777 973d 1984 033d
00000050: 7e73 803d c5a8 c03d af32 5bbd e54d 39be
00000060: c909 0a3e eea3 0cbe dcc5 81be 82e9 2fbe
00000070: 37d5 01bb dcb7 18be e827 30be e42b 3b3e
00000080: 5bc7 5cbe

model.transforms.0.encoder.noise_dist.transforms.0.autoregressive_net.lstm.weight_ih_l0 f4 [256, 35]
0.10231504 -0.106861055 -0.08909936 0.1336562 -0.01802673 -0.014231558 0.037281163 0.076080166
-0.05996094 -0.113065355 0.0059460397 0.11122269 -0.026968287 0.12113561 -0.01011771 0.12510663
0.03796055 0.12669094 0.10331451 0.04661189 -0.009823953 -0.065824464 0.08412425 0.014795525
0.045224 0.0119958995 -0.12764646 0.06743927 0.032500036 0.15033564 0.04705551 0.041912317
0.07615771 0.040579334 0.122656286 -0.09901391 0.022138324 -0.05281378 0.019678447 -0.0007209393
-0.10549562 0.03552109 -0.031981185 -0.12052533 -0.017172394 -0.0800933 -0.02824483 -0.1177427
-0.08440193 -0.015134892 -0.11260426 -0.041117433 -0.010410957 -0.09692048 -0.051292304 0.07957504
0.019347329 -0.08272376 0.056411486 -0.06367818 -0.00075693894 0.1043312 -0.013135741 0.09897885
-0.103329435 -0.11173399 -0.06600776 0.0671991 0.11002316 -0.054240875 0.07710887 0.060058165
-0.01715395 0.1279448 0.026559059 0.08442121 -0.114323586 -0.03816306 0.030360753 0.12591267
-0.13044444 0.05691463 -0.11250051 0.058094822 -0.08736481 0.023944205 0.05285031 0.08723956
0.04776485 0.00079055066 -0.05672491 0.03311901 0.07233388 -0.10184548 0.07292012 0.007117885
-0.08889067 0.061623145 0.014548551 0.01873206 0.01798242 -0.076605506 -0.02692486 -0.026182903
-0.088410504 0.035824414 -0.0093854265 0.02326346 -0.06350088 -0.022150194 0.056706272 -0.13353512
0.102773875 -0.043836687 0.09682073 0.06138027 0.025701962 0.09589452 -0.04196992 0.005601121
0.060026057 0.042132147 -0.033284817 -0.10713539 -0.06003797 0.016168017 -0.08832932 0.07813805
0.049112264 0.055944793 -0.010685519 -0.07052847 -0.11795058 0.033632163 0.09135828 0.014291062
-0.05149473 0.030629285 0.052300684 0.11200515 0.0015082142 -0.10612831 0.026237441 -0.033316404
0.058293246 -0.13770658 -0.02197254 -0.07822736 -0.092194915 0.08095159 -0.022516452 -0.015290488
-0.028788695 -0.026857428 0.041390687 -0.06269493 0.07566106 0.0481205 -0.035287246 0.037481267
-0.031375322 -0.065270856 0.07738409 0.025341244 -0.065762684 -0.09624712 -0.06317526 -0.071356066
0.031392895 -0.0033373537 -0.11206247 -0.056717884 0.059838105 -0.040815882 -0.0008401016 0.1437181
-0.05502054 -0.06847327 -0.02653457 0.14764625 -0.06934071 0.07384267 0.12950614 0.0032185814
-0.034487154 -0.08792828 0.08568296 0.057476733 0.011683212 -0.018213553 -0.07808435 -0.08810109
-0.059209228 0.09990675 -0.02033865 0.027142152 0.12317884 0.02810481 0.028262638 -0.10493573
0.10887591 -0.14854977 -0.006837499 -0.06594642 -0.09644421 0.016825665 -0.011022682 -0.19619556
-0.115848035 -0.061083607 -0.035074286 0.13879798 0.012723594 0.07713219 0.1425616 -0.093653984
0.032954454 -0.018241651 -0.12723581 -0.032742452 -0.11825668 0.11005136 0.05077125 0.08319862
-0.015123272 0.078774 0.056689933 -0.1291708 -0.04725634 -0.084243655 -0.056052204 -0.07481327
0.13270964 0.014921165 -0.107013755 -0.09837822 -0.15835607 -0.026448257 0.0020339568 -0.07063119
-0.103181526 0.037998147 -0.10253543 -0.09934414 -0.013038929 0.014092304 -0.024753528 0.011640286
-0.11367306 0.031029796 0.08713341 0.04745387 0.084964685 0.117289856 -0.08219559 -0.082897484
00000000: 8c8a d13d f8d9 dabd ba79 b6bd 2cdd 083e
00000010: cbac 93bc 7b2b 69bc 22b4 183d ebcf 9b3d
00000020: 9a99 75bd cf8e e7bd ffd6 c23b b9c8 e33d
00000030: 99ec dcbc f215 f83d c0c4 25bc f41b 003e
00000040: 867c 1b3d 45bb 013e 8f96 d33d 1cec 3e3d
00000050: a5f4 20bc face 86bd 5649 ac3d ee68 723c
00000060: cd3c 393d 738a 443c c1b5 02be 9a1d 8a3d
00000070: c21e 053d 96f1 193e 47bd 403d 40ac 2b3d
00000080: 93f8 9b3d 8436 263d 3833 fb3d cec7 cabd
00000090: 6e5b b53c 4353 58bd b234 a13c 6bfd 3cba
000000a0: 160e d8bd 907e 113d b4fe 02bd fcd5 f6bd
000000b0: 1fad 8cbc f507 a4bd b461 e7bc 1623 f1bd
000000c0: ebda acbd 57f8 77bc 109d e6bd c16a 28bd
000000d0: b892 2abc 3f7e c6bd e117 52bd 3df8 a23d
000000e0: 4a7e 9e3c 136b a9bd bb0f 673d b569 82bd
000000f0: 506d 46ba 99ab d53d 4b37 57bc 6cb5 ca3d
00000100: 629e d3bd cad4 e4bd 142f 87bd af9f 893d
00000110: d353 e13d ae2b 5ebd 41eb 9d3d 8dff 753d
00000120: 7186 8cbc f603 033e 6292 d93c 07e5 ac3d
00000130: 7c22 eabd de50 1cbd 1db7 f83c 40ef 003e
00000140: 3a93 05be 511f 693d ab66 e6bd d6f4 6d3d
00000150: 52ec b2bd a326 c43c 9179 583d a8aa b23d
00000160: 13a5 433d f53c 4f3a 6158 68bd cda7 073d
00000170: c923 943d 5d94 d0bd 2557 953d 263d e93b
00000180: 500c b6bd 8d68 7c3d 0c5d 6e3c fa73 993c
00000190: de4f 933c 59e3 9cbd 8691 dcbc 877d d6bc
000001a0: 9110 b5bd 9fbc 123d 55c5 19bc 0393 be3c
000001b0: c00c 82bd 5374 b5bc d644 683d 6ebd 08be
000001c0: 1c7b d23d 198e 33bd f249 c63d e169 7b3d
000001d0: ec8c d23c 5964 c43d a7e8 2bbd 9c89 b73b
000001e0: e2dd 753d c292 2c3d a955 08bd cd69 dbbd
000001f0: 60ea 75bd ca72 843c 01e6 b4bd d806 a03d
00000200: f129 493d 5e26 653d 5112 2fbc 3b71 90bd
00000210: 1390 f1bd e1c1 093d 0d1a bb3d 0f25 6a3c
00000220: 23ec 52bd 44ea fa3c 3e39 563d f562 e53d
00000230: 45af c53a cd59 d9bd e7ef d63c c876 08bd
00000240: e6c4 6e3d f402 0dbe c2ff b3bc ab35 a0bd
00000250: b0d0 bcbd f2c9 a53d 6c74 b8bc f484 7abc
00000260: 45d6 ebbc 1c04 dcbc 4889 293d 3366 80bd
00000270: 30f4 9a3d 001a 453d 5c89 10bd f585 193d
00000280: 6983 00bd baac 85bd 8d7b 9e3d 7198 cf3c
00000290: 96ae 86bd 361d c5bd 0862 81bd 2123 92bd
000002a0: d695 003d 81b7 5abb 0281 e5bd 0351 68bd
000002b0: cd18 753d 8e2e 27bd 443a 5cba d62a 133e
000002c0: 385d 61bd b73b 8cbd 075f d9bc 9430 173e
000002d0: 8102 8ebd d33a 973d 429d 043e d6ee 523b
000002e0: 6742 0dbd be13 b4bd 8c7a af3d b96c 6b3d
000002f0: f16a 3f3c 9734 95bc b0ea 9fbd 586e b4bd
00000300: 6085 72bd e99b cc3d 3e9d a6bc 3859 de3c
00000310: 3045 fc3d 0f3c e63c 0c87 e73c 8be8 d6bd
00000320: 55fa de3d 6e1d 18be 190d e0bb eb0e 87bd
00000330: 8b84 c5bd fad5 893c 7b98 34bc 7de7 48be
00000340: bc41 edbd ce32 7abd 0eaa 0fbd 0f21 0e3e
00000350: 9f76 503c 7bf7 9d3d abfb 113e a9cd bfbd
00000360: 40fb 063d 846f 95bc 1b4a 02be f31c 06bd
00000370: 8f30 f2bd 9c62 e13d 84f5 4f3d 0a64 aa3d
00000380: 9ac7 77bc 4354 a13d b433 683d 5a45 04be
00000390: dd8f 41bd f087 acbd ff96 65bd b337 99bd
000003a0: 09e5 073e e777 743c 072a dbbd 857a c9bd
000003b0: 1828 22be 04aa d8bc 224c 053b 16a7 90bd
000003c0: d650 d3bd f2a3 1b3d 18fe d1bd f174 cbbd
000003d0: 3ba1 55bc 68e3 663c e9c7 cabc e6b6 3e3c
000003e0: 6ccd e8bd 3332 fe3c 0073 b23d fd5e 423d
000003f0: f701 ae3d aa35 f03d 2956 a8bd 28c6 a9bd
