checkpoints/sort_1/S_6_K_6/CNF/16_05_2023__12_42/cktp/checkpoint_0001000.tar (torch, 316885 bytes, 140 tensors)

cnf.flow_layers.0.category_prior f4 [6]
-1.7917595 -1.7917595 -1.7917595 -1.7917595 -1.7917595 -1.7917595
00000000: 6058 e5bf 6058 e5bf 6058 e5bf 6058 e5bf
00000010: 6058 e5bf 6058 e5bf

cnf.flow_layers.0.embed_layer.weight f4 [6, 64]
-1.0277756 0.86169785 -1.3938527 -1.0855033 -1.1632662 1.2403052 -1.003659 -0.14629468
-0.8687363 0.39209113 -0.63629335 -0.20987059 0.9494218 -0.7730763 -0.28480124 -0.4905623
-1.4510939 -0.51727986 -0.85607207 0.4935393 0.0893722 -0.11198953 1.1242548 0.9574481
0.41325915 -0.54514265 0.14783764 2.8125474 0.08379011 1.176307 0.32074717 1.7890072
-0.8435943 1.8873756 -0.22520767 -0.21274534 -1.3379195 0.038705844 -0.28969622 -0.6457642
1.221273 0.49300522 -1.2569833 -0.74518293 -0.94242275 -0.9197153 -0.92633134 -0.16063446
-1.0814122 0.24693137 -1.5855974 1.7987071 -0.006478279 1.6587512 -0.52651906 1.1934102
0.6881837 -1.1269637 -0.6561631 -0.49875468 -1.9304825 0.74524206 -0.7455852 -0.1689831
1.1270368 -0.69131744 -1.5680757 -0.26022476 -0.83623534 1.6714038 -0.24377419 1.0365357
2.0790398 -1.0312711 0.2132102 -0.19099116 -0.32855973 0.41700473 0.21270283 2.2075014
0.82523245 0.13941494 0.021741562 0.8790841 0.53744376 -0.7449113 0.2711435 0.23501745
2.2006204 1.1099858 -0.05336799 1.078621 -1.5849515 -0.27114728 -1.063475 -1.6551582
0.040765695 -0.26603332 0.1831089 0.6480143 0.9287383 -0.952385 0.22894813 1.1256349
-0.43667397 -0.56437486 -0.57406855 -0.55052024 -0.056652054 -0.44831702 -0.11560647 1.2463633
0.5837978 -0.28803125 0.50010717 0.78864354 0.5845242 1.587983 -0.48590598 0.86431867
-0.7004818 -1.0337338 0.2107368 -0.7595947 -1.0059122 1.8876477 1.1119885 -1.4628396
-0.037174474 0.24315996 0.62321514 -1.4756023 0.8369425 -0.2866819 0.7927365 -0.18285769
-0.23254994 0.24663574 -0.073230274 0.3434789 0.1643233 0.21786949 -1.4352691 -1.735452
1.1159244 -2.046427 -0.20611359 1.7655549 2.1743941 -0.6986198 1.3308301 -0.47200903
0.5511916 0.012095353 0.23398118 0.7869353 2.500369 0.021342289 -0.3286182 -0.88014877
0.03779756 1.5553769 0.33002564 -0.06283928 0.55093336 -1.5713567 0.67727965 -1.1899174
0.68387705 1.25554 1.1672424 -0.09800838 -1.074005 1.0259476 0.1822068 -0.010914426
0.36192465 0.3348764 -0.8504826 -0.7088967 0.58460146 -0.21009013 -0.6391877 1.2548851
0.053369287 1.1558528 1.7520877 -1.4061742 -0.2048026 -0.94116175 -1.4568976 0.6894356
0.94090194 0.63449347 -0.19654185 0.7340177 -1.3309486 0.2767275 -0.65155894 -1.1566521
1.6686583 1.364964 0.89216226 0.36349565 0.48844206 -0.718878 -1.3858439 1.7975131
-1.0256408 -0.40323097 -0.32578734 0.89955544 -1.1922486 0.41751045 0.5429299 0.91652095
-0.52812225 0.7281649 -0.30133522 -0.19205686 -0.14936025 0.6533515 -0.1603655 -1.1187426
-0.7592055 -0.8455943 0.049162354 -2.4089463 -1.1143657 -0.36589968 -0.054022152 -0.103216544
-0.86758286 0.07890521 0.8972739 0.18087451 1.3531176 0.66723543 1.2571826 1.3904119
-0.2949327 0.67305773 0.26413345 -0.19056587 -1.6751963 1.4592178 1.3066502 0.34246093
0.8009361 1.3650737 0.41649333 0.07462564 -1.5728748 0.25281692 1.093742 -1.5229062
00000000: 278e 83bf 3b98 5c3f c469 b2bf c6f1 8abf
00000010: e8e5 94bf 52c2 9e3f e677 80bf 46ce 15be
00000020: 8165 5ebf 2bc0 c83e 1fe4 22bf 51e8 56be
00000030: 4f0d 733f 54e8 45bf 78d1 91be fb2a fbbe
00000040: 72bd b9bf 746c 04bf 8a27 5bbf 2fb1 fc3e
00000050: c608 b73d c45a e5bd 95e7 8f3f 521b 753f
00000060: b496 d33e 788e 0bbf c062 173e c700 3440
00000070: 269a ab3d 3a91 963f f938 a43e 30fe e43f
00000080: ccf5 57bf 8695 f13f d79c 66be ead9 59be
00000090: f240 abbf 058a 1e3d 1053 94be cd50 25bf
000000a0: ac52 9c3f 2e6b fc3e d4e4 a0bf 4fc4 3ebf
000000b0: 9e42 71bf 7672 6bbf 0d24 6dbf 5c7d 24be
000000c0: b76b 8abf 94db 7c3e dbf4 cabf 093c e63f
000000d0: be47 d4bb f651 d43f f4c9 06bf aac1 983f
000000e0: cf2c 303f 5940 90bf 4efa 27bf c65c ffbe
000000f0: 0d1a f7bf 2fc8 3e3f acde 3ebf e809 2dbe
00000100: be42 903f 2efa 30bf b4b6 c8bf 2e3c 85be
00000110: 8513 56bf 8ff0 d53f f19f 79be 34ad 843f
00000120: fd0e 0540 b100 84bf c653 5a3e 3093 43be
00000130: fb38 a8be a581 d53e c5ce 593e b447 0d40
00000140: 6f42 533f cac2 0e3e 5c1b b23c a80b 613f
00000150: ea95 093f 82b2 3ebf 52d3 8a3e 6aa8 703e
00000160: f7d6 0c40 0414 8e3f 6598 5abd 4110 8a3f
00000170: b1df cabf d1d3 8abe f31f 88bf 39dc d3bf
00000180: eef9 263d 8535 88be e680 3b3e 44e4 253f
00000190: cbc1 6d3f 81cf 73bf 6171 6a3e ce14 903f
000001a0: bb93 dfbe df7a 10bf 28f6 12bf e5ee 0cbf
000001b0: fc0b 68bd cf89 e5be 16c3 ecbd d588 9f3f
000001c0: c673 153f d578 93be 0607 003f 8be4 493f
000001d0: 61a3 153f 0743 cb3f abc8 f8be fd43 5d3f
000001e0: c652 33bf 6451 84bf 63cb 573e cc74 42bf
000001f0: bbc1 80bf 719e f13f a455 8e3f 543e bbbf
00000200: 4344 18bd edfe 783e 078b 1f3f 89e0 bcbf
00000210: dd41 563f f8c7 92be c7f0 4a3f 0c3f 3bbe
00000220: 9221 6ebe 148e 7c3e c1f9 95bd 77dc af3e
00000230: 5e44 283e 2e19 5f3e e6b6 b7bf 4b23 debf
00000240: 9cd6 8e3f a9f8 02c0 710f 53be b4fd e13f
00000250: 4629 0b40 bfd8 32bf a458 aa3f 2bab f1be
00000260: e51a 0d3f 962b 463c c398 6f3e 9874 493f
00000270: 0c06 2040 06d6 ae3c a540 a8be 6e51 61bf
00000280: 9dd1 1a3d 9716 c73f 1ff9 a83e e1b1 80bd
00000290: f809 0d3f 3722 c9bf 3362 2d3f 374f 98bf
000002a0: 9112 2f3f 89b5 a03f 3368 953f 9eb8 c8bd
000002b0: ff78 89bf 4052 833f 6b94 3a3e 6cd2 32bc
000002c0: 304e b93e eb74 ab3e 3ab9 59bf 417a 35bf
000002d0: 71a8 153f de21 57be cea1 23bf 13a0 a03f
000002e0: c199 5a3d fcf2 933f 6944 e03f 84fd b3bf
000002f0: c6b7 51be faef 70bf 9f7b babf da7e 303f
00000300: f3de 703f 2a6e 223f 4442 49be 96e8 3b3f
00000310: 865c aabf 3aaf 8d3e 91cc 26bf 2d0d 94bf
00000320: 9896 d53f 24b7 ae3f bf64 643f 1a1c ba3e
00000330: 1415 fa3e 6308 38bf 5563 b1bf e914 e63f
00000340: 3348 83bf 4a74 cebe 99cd a6be 4449 663f
00000350: 9a9b 98bf eec3 d53e 74fd 0a3f 1ea1 6a3f
00000360: 0533 07bf 0469 3a3f 9c48 9abe 8eaa 44be
00000370: e5f1 18be 0b42 273f db36 24be f532 8fbf
00000380: 4b5b 42bf de78 58bf 775e 493d 2d2c 1ac0
00000390: 89a3 8ebf 3457 bbbe 5546 5dbd 3263 d3bd
000003a0: e919 5ebf 0e99 a13d beb3 653f 2b37 393e
000003b0: f532 ad3f f1cf 2a3f 5ceb a03f 04f9 b13f
000003c0: 6b01 97be 834d 2c3f 803c 873e b323 43be
000003d0: d56c d6bf a6c7 ba3f 5040 a73f 0a57 af3e
000003e0: 260a 4d3f bcba ae3f 9d3e d53e 54d5 983d
000003f0: f653 c9bf 3871 813e bdff 8b3f 97ee c2bf

cnf.flow_layers.0.flow_layers.0.pred_net.layer.weight f4 [8, 64]
0.058730505 -0.033086028 0.018138792 -0.15884164 -0.007699544 -0.0671023 -0.010983136 0.21945877
-0.15658711 -0.023282502 0.275688 -0.20998603 0.052621935 0.3045985 0.1744759 0.17303292
-0.050707933 0.13464537 0.05779559 0.2440966 -0.20023678 0.0722317 -0.19494575 -0.25238577
0.30017972 0.10957867 -0.1318127 -0.27698478 -0.08134507 -0.10224307 -0.08833049 -0.13667011
0.110723354 0.10089437 -0.14368689 -0.046290465 0.27931297 -0.29611465 0.23223577 0.01617879
0.015206992 -0.18455341 0.13342908 0.028898431 -0.050694574 0.25662032 -0.23505595 0.27030867
0.22142914 -0.086754985 -0.015376169 0.15542145 0.14056544 -0.24855284 -0.23400316 -0.26002175
-0.16451387 -0.06557193 0.13288176 0.11545619 -0.17399047 0.16676179 0.13136923 0.049484827
-0.27201092 -0.15247907 -0.120273635 0.05007414 -0.06206537 0.0021778494 0.043640774 0.11766879
-0.045345277 -0.027724361 -0.194325 0.1282829 0.019207032 0.19907707 -0.14273165 -0.069704235
0.14825425 -0.14461136 0.024936954 -0.1398089 -0.017300671 -0.08878817 -0.13998109 0.07973918
0.26021975 -0.23620456 0.024041038 0.023640886 -0.2175686 -0.09834553 0.21624127 0.042356636
0.014620288 0.28818431 0.10079235 0.27242446 -0.14133386 0.082382895 0.14043464 0.13485228
0.026114771 0.24511625 -0.1852367 0.06952053 -0.3147742 -0.2533313 -0.24625579 -0.20844893
-0.121014714 -0.23506597 -0.22596975 -0.06407583 0.18179789 0.27350312 0.060884118 -0.03417111
-0.23831642 0.101809934 -0.2086186 -0.27723765 -0.15960176 0.26428714 0.2034101 -0.20490292
0.25668895 -0.14744611 -0.18430936 -0.24348508 0.21294677 0.25741124 0.19478254 0.15659586
-0.09291544 0.1548569 -0.15637892 -0.31612492 -0.05697011 0.21425356 -0.19401084 -0.2184216
0.18248561 -0.2315653 -0.012034428 0.320833 0.15551776 -0.128728 0.19013768 0.3170615
-0.10154551 0.040868547 -0.16587208 -0.08726035 -0.050955184 0.19808292 -0.25942576 -0.023479056
-0.13479836 0.17136513 0.15582554 0.2006199 0.27380666 0.042190965 -0.053906094 0.051514078
0.27831334 0.14767128 -0.24067307 -0.05689302 0.070368126 0.06523665 0.072098576 -0.086542286
0.039460536 -0.111481175 0.12538771 -0.14548557 -0.1654641 0.0616406 -0.026276834 0.16024555
-0.23760706 0.040908143 -0.2643595 0.0954793 0.180761 -0.15645084 0.0027250568 0.24274288
-0.030605225 0.10987792 -0.2381949 0.038438562 0.009568939 0.13182802 -0.17132817 0.08385328
0.22316684 -0.1909231 0.03633961 -0.1779528 -0.116008565 -0.11373862 0.19565764 0.24868459
-0.18733364 0.26718324 0.17139721 0.025467953 0.13111813 -0.0019248149 0.042207785 0.22397389
0.056604963 0.22429195 -0.0464723 0.22973368 -0.038992565 -0.13317457 -0.035566468 -0.26584822
-0.14359778 -0.01181688 -0.18871596 -0.17150149 0.103182174 0.050449617 -0.14779322 0.31640604
-0.059837937 -0.20445102 0.005172621 0.13817571 -0.11346996 -0.015676033 0.10883766 0.15988941
0.023062786 -0.22683823 -0.24296668 0.28089252 0.10664947 0.305681 0.16277021 0.069817334
-0.1330146 0.103998534 0.039280154 -0.12950583 -0.053555287 -0.17807451 0.17691171 -0.09633552
00000000: 668f 703d 3785 07bd ce97 943c 62a7 22be
00000010: 754c fcbb ee6c 89bd 9cf2 33bc cdb9 603e
00000020: 5f58 20be f2ba bebc fa26 8d3e 9406 57be
00000030: 198a 573d 56f4 9b3e cfa9 323e 8b2f 313e
00000040: 1fb3 4fbd 7ae0 093e 12bb 6c3d 76f4 793e
00000050: df0a 4dbe 37ee 933d dc9f 47be b538 81be
00000060: 28b1 993e c86a e03d e9f9 06be f3d0 8dbe
00000070: 3e98 a6bd d164 d1bd 9ee6 b4bd 40f3 0bbe
00000080: edc2 e23d b5a1 ce3d a822 13be 129b 3dbd
00000090: 1c02 8f3e 579c 97be 37cf 6d3e 6289 843c
000000a0: bf26 793c 92fb 3cbe a2a1 083e 67bc ec3c
000000b0: 1da5 4fbd bd63 833e 82b2 70be e665 8a3e
000000c0: 52be 623e 99ac b1bd 54ec 7bbc cd26 1f3e
000000d0: 63f0 0f3e a384 7ebe 869e 6fbe 9221 85be
000000e0: 5376 28be 934a 86bd 2812 083e 4c74 ec3d
000000f0: 8f2a 32be 9ac3 2a3e a885 063e 9ab0 4a3d
00000100: 0445 8bbe 7923 1cbe 0652 f6bd 8b1a 4d3d
00000110: 4238 7ebd 40ba 0e3b abc0 323d 56fc f03d
00000120: f8bb 39bd 331e e3bc 22fd 46be 985c 033e
00000130: 1158 9d3c dcda 4b3e 3f28 12be 18c1 8ebd
00000140: f6cf 173e 0015 14be 9548 cc3c 102a 0fbe
00000150: 23ba 8dbc 92d6 b5bd 3457 0fbe 4c4e a33d
00000160: 863b 853e 9cdf 71be b6f1 c43c 88aa c13c
00000170: 4eca 5ebe 6269 c9bd 5a6e 5d3e 277e 2d3d
00000180: ef89 6f3c e58c 933e 386c ce3d 387b 8b3e
00000190: d3b9 10be 5db8 a83d 19ce 0f3e b716 0a3e
000001a0: a5ee d53c c1ff 7a3e b1ae 3dbe c860 8e3d
000001b0: 152a a1be a4b4 81be 7a2a 7cbe a373 55be
000001c0: 90d6 f7bd 22b5 70be 9d64 67be 303a 83bd
000001d0: 3a29 3a3e 9a08 8c3e a061 793d 01f7 0bbd
000001e0: 3809 74be ba81 d03d 1da0 55be 18f2 8dbe
000001f0: a56e 23be a550 873e bd4a 503e 12d2 51be
00000200: bc6c 833e 1dfc 16be 98bb 3cbe 2754 79be
00000210: b80e 5a3e 68cb 833e 1375 473e aa5a 203e
00000220: 734a bebd cf92 1e3e cc21 20be 20db a1be
00000230: 7d59 69bd 4965 5b3e c7aa 46be e9a9 5fbe
00000240: 82dd 3a3e 741f 6dbe 0d2c 45bc 3944 a43e
00000250: 0c40 1f3e 46d1 03be 74b3 423e e355 a23e
00000260: 18f7 cfbd c765 273d 5fda 29be 8eb5 b2bd
00000270: 62b6 50bd 40d6 4a3e 74d3 84be 2657 c0bc
00000280: 9508 0abe 577a 2f3e bb90 1f3e 4e6f 4d3e
00000290: 6330 8c3e 6fd0 2c3d a3cc 5cbd 6d00 533d
000002a0: 167f 8e3e 2437 173e 0073 76be a808 69bd
000002b0: 2a1d 903d cb9a 853d 6ba8 933d 153d b1bd
000002c0: 5fa1 213d 3e50 e4bd a365 003e 2bfa 14be
000002d0: 6c6f 29be db7a 7c3d 8442 d7bc 6917 243e
000002e0: 444f 73be 4c8f 273d 215a 87be a78a c33d
000002f0: 6919 393e a634 20be de96 323b 9791 783e
00000300: cfb7 fabc ad07 e13d 5de9 73be c171 1d3d
00000310: 0ac7 1c3c edfd 063e a770 2fbe 45bb ab3d
00000320: d985 643e 5881 43be d8d8 143d 4239 36be
00000330: e695 edbd cbef e8bd 7a5a 483e 2ca7 7e3e
00000340: 64d4 3fbe 3ecc 883e c082 2f3e 2ba2 d03c
00000350: d543 063e 124a fcba 12e2 2c3d 6959 653e
00000360: 9bda 673d caac 653e bd59 3ebd 4e3f 6b3e
00000370: abb6 1fbd ea5e 08be 25ae 11bd 421d 88be
00000380: 4c0b 13be 969b 41bc c23e 41be 169e 2fbe
00000390: 2d51 d33d 42a4 4e3d 1b57 17be f9ff a13e
000003a0: a018 75bd 9c5b 51be 177f a93b ef7d 0d3e
000003b0: f062 e8bd 066b 80bc 47e6 de3d 0dba 233e
000003c0: 2bee bc3c 4848 68be 42cc 78be 25d1 8f3e
000003d0: 0a6b da3d 3882 9c3e 3cad 263e 64fc 8e3d
000003e0: fb34 08be 2ffd d43d 3ae4 203d 2d9d 04be
000003f0: ca5c 5bbd 2a59 36be 5828 353e 8f4b c5bd

cnf.flow_layers.0.flow_layers.0.pred_net.layer.bias f4 [8]
-0.01830415 0.031207854 -0.028298588 0.0038904021 -0.021073174 -0.018619273 -0.0145328585 -0.018698541
00000000: 96f2 95bc 9da7 ff3c 71d2 e7bc 1ef6 7e3b
00000010: a6a1 acbc 7287 98bc 3a1b 6ebc af2d 99bc

cnf.flow_layers.1.bias f4 [1, 1, 4]
-0.019758793 -0.08028431 0.81354934 -0.6217622
00000000: 31dd a1bc 1a6c a4bd c544 503f cf2b 1fbf

cnf.flow_layers.1.scales f4 [1, 1, 4]
-0.18317026 -0.31606886 -0.50737613 -0.45099667
00000000: fc90 3bbe c7d3 a1be 67e3 01bf 09e9 e6be

cnf.flow_layers.2.log_s f4 [4]
-0.19194381 -0.07977812 0.012088915 0.22843243
00000000: eb8c 44be b662 a3bd 9610 463c 31ea 693e

cnf.flow_layers.2.u f4 [4, 4]
0.0 -0.0668093 -0.16166717 0.45890173 0.0 0.0 0.12949936 0.25363785
0.0 0.0 0.0 -0.072038375 0.0 0.0 0.0 0.0
00000000: 0000 0000 50d3 88bd 148c 25be 2bf5 ea3e
00000010: 0000 0000 0000 0000 7b9b 043e d2dc 813e
00000020: 0000 0000 0000 0000 0000 0000 db88 93bd
00000030: 0000 0000 0000 0000 0000 0000 0000 0000

cnf.flow_layers.2.sign_s f4 [4]
-1.0 1.0 1.0 -1.0
00000000: 0000 80bf 0000 803f 0000 803f 0000 80bf

cnf.flow_layers.2.l_mask f4 [4, 4]
0.0 0.0 0.0 0.0 1.0 0.0 0.0 0.0
1.0 1.0 0.0 0.0 1.0 1.0 1.0 0.0
00000000: 0000 0000 0000 0000 0000 0000 0000 0000
00000010: 0000 803f 0000 0000 0000 0000 0000 0000
00000020: 0000 803f 0000 803f 0000 0000 0000 0000
00000030: 0000 803f 0000 803f 0000 803f 0000 0000

cnf.flow_layers.2.eye f4 [4, 4]
1.0 0.0 0.0 0.0 0.0 1.0 0.0 0.0
0.0 0.0 1.0 0.0 0.0 0.0 0.0 1.0
00000000: 0000 803f 0000 0000 0000 0000 0000 0000
00000010: 0000 0000 0000 803f 0000 0000 0000 0000
00000020: 0000 0000 0000 0000 0000 803f 0000 0000
00000030: 0000 0000 0000 0000 0000 0000 0000 803f

cnf.flow_layers.3.scaling_factor f4 [4]
0.0 0.0 0.0026467142 0.019334406
00000000: 0000 0000 0000 0000 7f74 2d3b 3063 9e3c

cnf.flow_layers.3.mixture_scaling_factor f4 [4, 4]
0.0 0.0 0.0 0.0 0.0 0.0 0.0 0.0
0.037178136 0.030854229 0.003614835 0.062225264 0.06536505 0.1039936 0.033645794 0.06500106
00000000: 0000 0000 0000 0000 0000 0000 0000 0000
00000010: 0000 0000 0000 0000 0000 0000 0000 0000
00000020: 1a48 183d 02c2 fc3c dee6 6c3b ebdf 7e3d
00000030: 1dde 853d 99fa d43d 2cd0 093d 471f 853d

cnf.flow_layers.3.mask f4 [1, 4]
1.0 1.0 0.0 0.0
00000000: 0000 803f 0000 803f 0000 0000 0000 0000

cnf.flow_layers.3.nn.input_layer.0.weight f4 [32, 4]
-0.32511023 -0.42222577 -0.18988901 -0.16503578 0.2878823 0.21709906 -0.2981146 -0.18057567
0.4401664 -0.44512427 -0.11633891 0.18155068 -0.43482667 -0.4761854 0.24177313 -0.24853265
0.45256704 0.35486564 0.40559673 -0.36449283 -0.17122889 0.2688189 -0.40253955 0.028706789
0.36178958 0.13526091 0.24578804 -0.22780585 0.049768683 -0.33932772 0.16349345 -0.0055238605
0.31613156 -0.13611719 -0.27546114 0.41300082 0.40578756 0.237982 -0.3223753 -0.2898612
-0.05754384 -0.43142405 0.14535135 0.33947825 0.42692694 -0.16351993 -0.36099225 -0.43032742
-0.040543914 0.45709813 -0.09387058 0.4133892 -0.07146818 -0.38009787 0.11683518 -0.17950207
-0.22496428 0.5005005 -0.3177765 -0.4503653 0.45683184 -0.04045995 -0.07754177 -0.23758936
-0.2095569 -0.3105365 -0.014064789 -0.20180523 0.45106876 -0.02125793 0.11801916 -0.29933274
0.015875552 -0.11458171 0.0017409325 -0.27105016 -0.15357105 0.0055439183 0.29685062 -0.09011686
0.33255115 0.47113797 -0.39599925 -0.0051859617 -0.2223506 0.4141692 -0.26440352 0.088769674
-0.3594971 -0.4887996 0.39216143 -0.49202782 0.09553621 0.13868532 0.011669755 -0.31009167
-0.26239863 -0.3796624 -0.30772245 -0.12004578 0.32868144 -0.17946678 0.018113554 -0.15134281
0.041439004 0.47922283 0.017397106 -0.3347776 -0.40407333 -0.22300789 0.43576068 -0.22648281
-0.51620334 -0.06306137 0.029507935 0.47585958 0.1154585 0.042205136 -0.41242522 -0.1588645
-0.069040984 -0.00011063406 0.14237928 0.22811568 0.010854648 0.06272822 0.1035735 0.45174158
00000000: d974 a6be fa2d d8be 4472 42be 24ff 28be
00000010: 4f65 933e 374f 5e3e 7aa2 98be d4e8 38be
00000020: 7e5d e13e 54e7 e3be 1843 eebd 6ce8 393e
00000030: 9aa1 debe 93ce f3be 6093 773e 587f 7ebe
00000040: deb6 e73e f3b0 b53e 60aa cf3e ce9e babe
00000050: a056 2fbe a2a2 893e aa19 cebe 802a eb3c
00000060: 7c3c b93e d681 0a3e dcaf 7b3e f045 69be
00000070: 3fda 4b3d 5dbc adbe d46a 273e 8001 b5bb
00000080: ffdb a13e 4e62 0bbe 3e09 8dbe d874 d33e
00000090: 63c3 cf3e 8eb1 733e 600e a5be b068 94be
000000a0: 17b3 6bbd 9de3 dcbe fcd6 143e 18d0 ad3e
000000b0: 2b96 da3e c571 27be fad3 b8be e053 dcbe
000000c0: 6011 26bd c408 ea3e 383f c0bd c0a7 d33e
000000d0: e95d 92bd 309c c2be 4847 ef3d 64cf 37be
000000e0: 095d 66be cd20 003f 9ab3 a2be 4896 e6be
000000f0: dde5 e93e 55b9 25bd 38ce 9ebd a04a 73be
00000100: 1696 56be a4fe 9ebe 0070 66bc 08a6 4ebe
00000110: 7cf2 e63e 1c25 aebc 08b4 f13d 2442 99be
00000120: 720d 823c d1a9 eabd 0030 e43a 16c7 8abe
00000130: bb41 1dbe c2a9 b53b cefc 973e 308f b8bd
00000140: 2544 aa3e ff38 f13e 6ac0 cabe 00ef a9bb
00000150: e0af 63be fc0d d43e e65f 87be e0cc b53d
00000160: 0110 b8be f143 fabe 62c9 c83e 12eb fbbe
00000170: 7da8 c33d 8603 0e3e 8032 3f3c 56c4 9ebe
00000180: 1d59 86be 1c63 c2be cc8d 9dbe 90da f5bd
00000190: ef48 a83e 24c6 37be e062 943c 9cf9 1abe
000001a0: f2bb 293d b25c f53e 6084 8e3c f867 abbe
000001b0: b3e2 cebe 2e5c 64be 061c df3e 1ceb 67be
000001c0: e725 04bf 5226 81bd a0ba f13c dea3 f33e
000001d0: 8275 ec3d 4bdf 2c3d 6629 d3be 60ad 22be
000001e0: 5c65 8dbd 3504 e8b8 e0cb 113e 2897 693e
000001f0: b2d7 313c a777 803d 581e d43d ac4a e73e

cnf.flow_layers.3.nn.input_layer.0.bias f4 [32]
-0.040809505 0.3957493 -0.48295397 0.16574427 -0.17926806 -0.41724965 0.09362223 0.21255451
-0.25453666 -0.23743212 0.20554131 0.22525224 -0.37435403 -0.014008478 -0.06240473 0.38076332
0.31991285 -0.2894619 -0.14340213 -0.052658442 -0.4819661 0.01614541 0.3572589 0.44890597
0.10254516 0.18994102 0.06626717 0.14846878 0.11907119 0.30034256 0.32317927 0.20109244
00000000: de27 27bd a79f ca3e be45 f7be deb8 293e
00000010: 0c92 37be bfa1 d5be 03bd bf3d e4a7 593e
00000020: a152 82be 6821 73be 6c79 523e 86a8 663e
00000030: 55ab bfbe d183 65bc 1a9c 7fbd 69f3 c23e
00000040: 9ecb a33e 5a34 94be 02d8 12be 61b0 57bd
00000050: 43c4 f6be 6143 843c a3ea b63e 01d7 e53e
00000060: 3203 d23d e67f 423e 15b7 873d 3308 183e
00000070: 99db f33d 80c6 993e c177 a53e 2deb 4d3e

cnf.flow_layers.3.nn.input_layer.2.weight f4 [32, 32]
-0.16892417 -0.1624702 0.035899602 -0.1002983 -0.069102526 -0.07972714 -0.034116223 0.1443534
-0.059113234 0.01600484 -0.11196507 -0.1654046 -0.0971243 -0.15084167 -0.10415509 -0.033533726
0.08330126 0.033689357 0.13953052 0.17424135 0.10367234 0.07728096 -0.08599958 0.12696747
0.07371743 -0.18004106 0.14218701 -0.12626684 0.118712485 0.14245589 0.07664252 -0.15425952
0.074597694 0.035952438 0.052711695 0.025547178 -0.14841416 -0.09610291 -0.023841346 0.04833231
0.17569856 -0.035571408 -0.036711536 0.06569889 -0.173498 0.1107327 -0.08992993 -0.10624054
-0.13396227 0.16076037 0.16764507 0.08449007 -0.04620937 0.14557752 -0.0011741791 -0.06436899
-0.019180316 0.1851287 -0.14072432 -0.13495967 0.10472241 0.14904708 -0.1373954 -0.108104765
-0.03490426 0.05554357 0.14183396 -0.09753242 -0.09332042 0.061695904 0.12945527 -0.014273894
-0.016013484 -0.05229492 0.15863182 -0.1191669 -0.118667684 0.15008362 0.04130532 -0.09097607
-0.17970501 -0.019047208 0.0163936 -0.01092597 0.019182676 0.13589256 0.16829458 0.027595347
-0.08360789 -0.042032126 -0.14041083 -0.026096003 0.12196315 0.09353614 -0.14304447 0.13066572
-0.021825839 -0.046113804 0.15299766 0.05354107 -0.10929092 -0.17228766 -0.13312173 0.16483007
-0.079847395 0.06493352 -0.04822345 0.14895028 0.119708285 0.09560892 -0.069162704 0.085936666
0.10459819 -0.086207405 -0.03556199 0.08681173 0.13199176 -0.099014826 0.04134651 0.10580421
0.14172953 0.04861466 0.15085039 -0.18022001 -0.20226572 0.018323854 -0.026998414 0.08011649
0.04295929 0.020328343 -0.13359046 -0.02169621 0.035389643 0.035847656 -0.05607918 0.09713896
-0.061785135 0.1930794 0.008324328 0.1601199 0.008926829 -0.14893225 0.022414505 0.11875401
0.08712677 0.12520765 -0.03541542 0.038430367 -0.0046876646 -0.056339756 -0.061348718 0.17718756
-0.098823555 -0.02294738 0.17108214 -0.09341436 -0.1381294 -0.14992735 0.16517493 -0.07485399
0.11308417 -0.045582168 -0.020850012 -0.027488116 -0.16673751 -0.18537837 -0.13314022 0.052438233
-0.17774183 0.13715798 -0.13427 0.05162764 -0.04001365 0.11259155 -0.15912145 0.08458538
0.041906897 -0.118189976 0.020466521 0.07705494 0.016567668 -0.17496313 0.1527905 -0.009222243
-0.08089857 0.14638212 0.02808807 -0.07458411 -0.15758449 0.16053876 0.08764584 -0.082867704
0.054642327 0.111049876 0.023411488 0.03957006 -0.14536086 -0.19296333 -0.012655604 -0.11315444
-0.17091203 -0.010650983 -0.06634115 0.098129086 -0.158621 -0.068548374 -0.1476195 0.0058553773
0.10735164 0.09868606 0.05856711 -0.17736466 -0.096428625 -0.0797987 0.025739236 -0.048193127
0.14506613 0.13204376 -0.0735708 -0.075041905 0.11699615 -0.10457491 -0.005190533 -0.14508367
0.15435801 0.067988746 -0.122864306 0.0039705583 0.14511904 0.037794024 0.13746262 -0.10705711
0.025054717 -0.085114315 -0.04728552 0.0739215 -0.11588124 -0.023504673 0.09695472 -0.10779887
-0.062154856 0.11441435 0.15506135 -0.15114635 0.14271386 -0.095572405 0.00882958 -0.09342205
-0.15083903 -0.08306581 0.018268961 -0.009233892 -0.0030483885 0.012722316 0.17082612 0.046603758
00000000: 75fa 2cbe 975e 26be 760b 133d 3269 cdbd
00000010: a085 8dbd fc47 a3bd 74bd 0bbd 61d1 133e
00000020: b820 72bd 951c 833c f14d e5bd d35f 29be
00000030: 1be9 c6bd 3d76 1abe 444f d5bd a95a 09bd
00000040: da99 aa3d dafd 093d 17e1 0e3e 536c 323e
00000050: 2a52 d43d 7b45 9e3d 8c20 b0bd c303 023e
00000060: 2af9 963d af5c 38be 7999 113e 184c 01be
00000070: 881f f33d f5df 113e c1f6 9c3d 35f6 1dbe
00000080: adc6 983d dd42 133d 38e8 573d 5148 d13c
00000090: e2f9 17be 9ad1 c4bd ed4e c3bc 1af8 453d
000000a0: 53ea 333e 53b3 11bd d65e 16bd 248d 863d
000000b0: 76a9 31be d3c7 e23d 2f2d b8bd a494 d9bd
000000c0: 682d 09be 5e9e 243e 26ab 2b3e 2109 ad3d
000000d0: 0946 3dbd 4612 153e eae6 99ba e4d3 83bd
000000e0: 0a20 9dbc 6192 3d3e 091a 10be de32 0abe
000000f0: b478 d63d cc9f 183e 61b1 0cbe 0866 ddbd
00000100: c5f7 0ebd a881 633d ec3c 113e 14bf c7bd
00000110: c71e bfbd d8b4 7c3d ec8f 043e 0ddd 69bc
00000120: b62e 83bc 3333 56bd 6170 223e c70d f4bd
00000130: 0b08 f3bd 85af 193e c42f 293d a951 babd
00000140: 9704 38be e408 9cbc df4b 863c d702 33bc
00000150: fd24 9d3c 6b27 0b3e 6a55 2c3e a30f e23c
00000160: 9d3a abbd e129 2cbd dbc7 0fbe 49c7 d5bc
00000170: d1c7 f93d e08f bf3d 407a 12be 3ccd 053e
00000180: 1acc b2bc d4e1 3cbd 6bab 1c3e e24d 5b3d
00000190: ebd3 dfbd 2d6c 30be 1051 08be 37c9 283e
000001a0: 0887 a3bd defb 843d f485 45bd 6c86 183e
000001b0: 9e29 f53d 9cce c33d 2da5 8dbd 90ff af3d
000001c0: 9337 d63d 828d b0bd 73a9 11bd 59ca b13d
000001d0: d928 073e 49c8 cabd f55a 293d e1af d83d
000001e0: 8c21 113e 2a20 473d 8678 1a3e 988b 38be
000001f0: bf1e 4fbe e81b 963c c72b ddbc 1d14 a43d
00000200: 15f6 2f3d a087 a63c f0cb 08be 40bc b1bc
00000210: bbf4 103d fed4 123d 48b3 65bd cbf0 c63d
00000220: 6912 7dbd 9bb6 453e c362 083c 79f6 233e
00000230: d641 123c b281 18be a09e b73c 4d35 f33d
00000240: 856f b23d 6f36 003e c20f 11bd 2969 1d3d
00000250: fb9a 99bb 84c4 66bd cb48 7bbd a870 353e
00000260: 0164 cabd 25fc bbbc 2830 2f3e 0750 bfbd
00000270: cb71 0dbe 8e86 19be 9e23 293e 0c4d 99bd
00000280: ac98 e73d 5eb4 3abd a5cd aabc c22e e1bc
00000290: 3dbd 2abe d4d3 3dbe e955 08be 79c9 563d
000002a0: f401 36be 2473 0c3e 137e 09be 8177 533d
000002b0: 5ae5 23bd 6696 e63d bcf0 22be 1a3b ad3d
000002c0: 91a6 2b3d 960d f2bd 68a9 a73c fbce 9d3d
000002d0: ebb8 873c 8929 33be 1d75 1c3e e418 17bc
000002e0: 26ae a5bd 32e5 153e f418 e63c 8ebf 98bd
000002f0: d45d 21be 4664 243e aa7f b33d 8bb6 a9bd
00000300: a2d0 5f3d 1e6e e33d 73c9 bf3c 3714 223d
00000310: 7ad9 14be 2e98 45be 7359 4fbc 84bd e7bd
00000320: 9003 2fbe 7681 2ebc dedd 87bd e7f7 c83d
00000330: 8b6d 22be 1763 8cbd 9129 17be 77de bf3b
00000340: 2ddb db3d eb1b ca3d 11e4 6f3d 159f 35be
00000350: 5f7c c5bd 806d a3bd 17db d23c 2866 45bd
00000360: 378c 143e 7b36 073e 4aac 96bd 92af 99bd
00000370: ad9b ef3d 5f2b d6bd 5915 aabb d090 14be
00000380: 0710 1e3e af3d 8b3d 48a0 fbbd 751b 823b
00000390: 169a 143e e8cd 1a3d 00c3 0c3e c240 dbbd
000003a0: 8d3f cd3c 6a50 aebd 76ae 41bd 2864 973d
000003b0: 2553 edbd df8c c0bc 3290 c63d a7c5 dcbd
000003c0: 1796 7ebd 1252 ea3d 67c8 1e3e 1cc6 1abe
000003d0: 9523 123e 77bb c3bd f1a9 103c 0f54 bfbd
000003e0: 8c75 1abe 681e aabd caa8 953c c049 17bc
000003f0: 79c7 47bb 4371 503c 0bed 2e3e 95e3 3e3d

cnf.flow_layers.3.nn.input_layer.2.bias f4 [32]
0.023769872 -0.00031278835 -0.085030526 -0.08182277 -0.16856934 0.08140071 0.13289584 -0.03967174
0.07028172 0.13614924 0.106691636 -0.08001323 0.09696736 0.112128064 -0.015485949 0.006461534
-0.14338227 -0.09486598 0.10147797 0.09974745 -0.020583723 0.17531301 -0.120868966 0.16784205
-0.17355578 0.14515215 -0.11010635 -0.15343149 -0.07041073 0.16354744 -0.029551022 0.06511134
00000000: 09b9 c23c befd a3b9 7c24 aebd b292 a7bd
00000010: 719d 2cbe 6ab5 a63d d915 083e d67e 22bd
00000020: ddef 8f3d b56a 0b3e 2581 da3d fadd a3bd
00000030: d396 c63d 66a3 e53d c7b8 7dbc 47bb d33b
00000040: cdd2 12be 1849 c2bd afd3 cf3d 6448 cc3d
00000050: 329f a8bc 4185 333e 268a f7bd c9de 2b3e
00000060: 9bb8 31be c4a2 143e 707f e1bd 251d 1dbe
00000070: 8033 90bd fb78 273e fc14 f2bc 1859 853d

cnf.flow_layers.3.nn.transformer_layers.0.self_attn.in_proj_weight f4 [96, 32]
-0.024350865 0.21973354 -0.061290786 -0.21756065 -0.044957675 0.05730587 -0.088300265 0.04885362
0.119122386 0.05643785 0.12739156 -0.19481646 0.119880304 -0.2568585 -0.17887427 -0.029080147
0.14346753 -0.060426313 0.23055947 -0.0074111805 -0.10750718 -0.12402124 0.0348228 -0.04196537
0.07334872 -0.24803038 0.037305217 0.17616463 -0.08047086 0.031076288 -0.06274154 0.16904482
0.017678166 0.16809323 0.0002786904 -0.22031811 -0.06616316 0.08446232 -0.06364212 0.016598796
0.12695064 -0.2258712 -0.21451257 0.03367071 0.1678147 0.034995697 -0.10223909 0.06827532
0.16404286 -0.20812337 0.19230016 -0.0052669556 -0.08413012 -0.30012897 0.101173505 -0.13099813
0.049637374 -0.23984538 0.13459042 -0.15075673 0.1261724 -0.08494064 0.107706256 0.087943636
0.2275064 0.04422412 0.23550375 -0.21217136 0.18902053 0.08371039 -0.18941131 -0.05235606
0.15027465 0.09515173 -0.24487673 -0.035172973 -0.214781 0.06678361 -0.202135 -0.101610176
0.23785791 0.1533847 0.21162657 0.007120089 -0.20945463 0.052317012 0.22027987 0.08893532
0.14089088 -0.08722875 0.14210781 0.04562832 -0.13647312 0.03796661 -0.086369485 0.07568835
0.065012865 -0.049311724 0.081221335 -0.09805571 0.14441092 -0.23715103 -0.25726748 0.101040386
-0.0650557 -0.12883055 -0.17997307 -0.03424927 -0.10333708 0.16086861 -0.11075059 -0.029796362
0.026167482 -0.054515984 -0.13677838 0.094934 -0.16722855 -0.105 0.087165415 -0.078892834
-0.03745482 -0.2819619 -0.14473933 0.06576082 0.15679874 0.06907817 0.16677715 0.0785783
0.12373974 -0.08983607 -0.07053571 -0.17446902 0.03153757 -0.032276925 -0.12464093 0.12637813
0.031514138 -0.02170568 -0.0628331 -0.17003338 0.13973874 -0.25246248 -0.24269195 0.03540124
-0.08903328 0.1760027 0.017875513 -0.048263013 -0.046140946 -0.08269095 -0.024072656 -0.038979746
-0.17085172 -0.055564027 -0.24635355 -0.1312738 -0.030818557 0.1297765 -0.06087131 0.16727331
-0.14071162 0.09537482 0.13602155 -0.12590753 0.094481595 -0.20357338 -0.0408436 0.11933508
-0.13825272 -0.22750133 0.08004261 -0.23912685 0.16561596 -0.122570224 -0.078921646 -0.14564793
0.086214885 0.13949497 0.09078808 -0.09947188 -0.06761252 0.02164719 0.07944285 -0.0685864
-0.22627765 0.08623259 -0.13373095 0.020366145 -0.048498623 -0.22189158 0.12158467 0.028513469
-0.062006876 0.22888814 0.194561 0.069053434 -0.09313137 -0.22482479 -0.04042088 0.12211665
-0.22456129 0.122640416 -0.038053572 0.053577337 -0.17260331 -0.119805135 -0.07417899 -0.07913482
0.14338747 0.21747836 0.06378222 -0.010216849 0.031738877 -0.17819667 0.14947271 -0.2578167
0.17985179 -0.18157665 -0.08307624 -0.1696423 -0.1084016 0.078494385 0.042921737 -0.14351098
0.23202568 0.02859282 -0.01958557 -0.18377073 0.20418799 -0.24423383 -0.12865755 -0.03032796
-0.17993437 0.16560453 -0.091954336 -0.1288937 0.09611665 -0.17387316 0.072460696 -0.09551203
0.14885466 -0.032494634 0.1678777 0.16289002 0.082726434 -0.17601472 -0.16085118 -0.181297
-0.20165533 0.07328356 -0.008021366 0.17710587 0.15725671 -0.18436314 -0.07356002 0.14439492
00000000: 777b c7bc d401 613e 0c0c 7bbd 38c8 5ebe
00000010: 8a25 38bd 8fb9 6a3d c5d6 b4bd bc1a 483d
00000020: 70f6 f33d 602b 673d ef72 023e f77d 47be
00000030: ce83 f53d f582 83be d12a 37be 7d39 eebc
00000040: 27e9 123e 9581 77bd c817 6c3e 7dd9 f2bb
00000050: b92c dcbd d9fe fdbd 5aa2 0e3d e1e3 2bbd
00000060: db37 963d adfb 7dbe 5bcd 183d 8064 343e
00000070: e8cd a4bd b393 fe3c a37e 80bd 161a 2d3e
00000080: cdd1 903c a220 2c3e 311d 9239 129b 61be
00000090: 8d80 87bd 95fa ac3d cd56 82bd 33fa 873c
000000a0: 59ff 013e c84a 67be 2fa9 5bbe 4cea 093d
000000b0: 9ed7 2b3e a657 0f3d ba62 d1bd eed3 8b3d
000000c0: dafa 273e 4b1e 55be 55ea 443e 6d96 acbb
000000d0: 6a4c acbd 81aa 99be 0e34 cf3d 6024 06be
000000e0: 8f50 4b3d 079a 75be 12d2 093e f95f 1abe
000000f0: 5633 013e 5cf5 adbd 1995 dc3d cb1b b43d
00000100: 70f7 683e 5a24 353d e527 713e 7343 59be
00000110: 998e 413e 5a70 ab3d 0af5 41be 4f73 56bd
00000120: 99e1 193e e9de c23d f7c0 7abe 8911 10bd
00000130: 8def 5bbe d8c5 883d 7afc 4ebe ff18 d0bd
00000140: 0691 733e e110 1d3e a3b4 583e a34f e93b
00000150: 467b 56be 5d4a 563d 0c91 613e b923 b63d
00000160: b345 103e fda4 b2bd b684 113e c3e4 3a3d
00000170: 9cbf 0bbe e082 1b3d 7ce2 b0bd 7e02 9b3d
00000180: 7725 853d 17fb 49bd 5f57 a63d 6fd1 c8bd
00000190: 75e0 133e b8d7 72be 90b8 83be 43ee ce3d
000001a0: ec3b 85bd 28ec 03be dc4a 38be f648 0cbd
000001b0: 64a2 d3bd beba 243e 35d1 e2bd 8017 f4bc
000001c0: 305d d63c 274c 5fbd a20f 0cbe c26c c23d
000001d0: f63d 2bbe 3d0a d7bd c883 b23d 9192 a1bd
000001e0: 3a6a 19bd 4f5d 90be 8c36 14be 9cad 863d
000001f0: d98f 203e db78 8d3d a1c7 2a3e a9ed a03d
00000200: 436b fd3d f9fb b7bd 0775 90bd 02a8 32be
00000210: 8a2d 013d cf34 04bd be43 ffbd 4569 013e
00000220: f814 013d 1cd0 b1bc a4ae 80bd 3b1d 2ebe
00000230: ac17 0f3e c342 81be 3d84 78be e400 113d
00000240: 1557 b6bd 0d3a 343e ab6f 923c 70af 45bd
00000250: 4afe 3cbd df59 a9bd 0534 c5bc 3aa9 1fbd
00000260: c1f3 2ebe 1b97 63bd 1b44 7cbe a46c 06be
00000270: 3377 fcbc 21e4 043e 3254 79bd b249 2b3e
00000280: b516 10be e053 c33d 3c49 0b3e e7ed 00be
00000290: 917f c13d 8a75 50be 9e4b 27bd f365 f43d
000002a0: 1f92 0dbe 1cf6 68be 61ed a33d abdd 74be
000002b0: 3b97 293e 1906 fbbd aca1 a1bd bb24 15be
000002c0: 6e91 b03d c5d7 0e3e 1aef b93d eab7 cbbd
000002d0: 6f78 8abd 7355 b13c efb2 a23d 0777 8cbd
000002e0: 54b5 67be b69a b03d c4f0 08be e7d6 a63c
000002f0: 7ea6 46bd 8c37 63be 6201 f93d 1495 e93c
00000300: ecfa 7dbd a761 6a3e 003b 473e e36b 8d3d
00000310: a9bb bebd 7838 66be 5d90 25bd 4b18 fa3d
00000320: 65f3 65be e62a fb3d 10de 1bbd e973 5b3d
00000330: ecbe 30be 655c f5bd 28eb 97bd 7011 a2bd
00000340: 2ad4 123e a6b2 5e3e 41a0 823d 9264 27bc
00000350: a000 023d 3079 36be 600f 193e 8d00 84be
00000360: 112b 383e 3bef 39be e023 aabd b6b6 2dbe
00000370: a801 debd aac1 a03d b4ce 2f3d 8bf4 12be
00000380: 2498 6d3e 7d3b ea3c eb71 a0bc 652e 3cbe
00000390: a816 513e 6f18 7abe cebe 03be 5872 f8bc
000003a0: b740 38be 3c94 293e 8e52 bcbd b6fc 03be
000003b0: ced8 c43d ce0b 32be 4666 943d d09b c3bd
000003c0: 5b6d 183e 1819 05bd 22e8 2b3e a4cc 263e
000003d0: 7a6c a93d 343d 34be 2cb6 24be eca5 39be
000003e0: bc7e 4ebe b115 963d 0c6c 03bc 3e5b 353e
000003f0: e707 213e b1c9 3cbe a3a6 96bd 43dc 133e

cnf.flow_layers.3.nn.transformer_layers.0.self_attn.in_proj_bias f4 [96]
-0.081720605 -0.08750015 -0.07937946 -0.0316942 -0.0075134235 -0.08512595 -0.08403723 -0.05871265
0.036670584 0.051539056 -0.026209563 -0.062638514 0.17846206 0.033130635 0.040833503 -0.08505537
0.12241235 -0.062923804 0.049098317 -0.07569731 -0.045194674 -0.01971019 -0.04472749 -0.082364224
0.005962122 -0.023528054 -0.010847816 0.030146345 -0.01253818 -0.018085103 -0.05076262 0.016147345
-4.2272444e-07 -1.8009722e-06 1.9213314e-07 3.0706829e-06 -1.8634057e-06 -1.3883193e-06 1.4968446e-06 -5.4701354e-07
-2.1945716e-06 3.5487415e-06 3.928653e-06 1.2615651e-06 4.097715e-06 -2.20205e-06 7.4250347e-06 2.5310712e-06
4.2147954e-06 -6.8478607e-06 2.8919324e-06 -1.8615086e-06 -2.3132677e-06 3.2723326e-06 1.6632436e-06 -1.4911245e-06
4.1988783e-06 1.8016857e-06 -3.4296754e-06 -3.3762965e-06 5.711898e-06 9.427754e-06 2.1149658e-06 -2.7203075e-06
0.009131602 0.00010835296 -0.0010214521 -0.006864532 0.0069347923 0.011785886 -0.0017311233 -0.0046670344
-0.0011711131 0.010532887 -0.004382474 0.00034360692 0.0030619937 0.0076948334 0.0049539935 0.011975271
0.0009880066 -0.0038306566 -0.0057222703 0.006818108 0.0031683084 -0.013462079 -0.013030928 -0.0031028849
-0.006701026 0.0029366252 -0.003818747 0.005682802 -0.000335353 0.014493334 0.0098393895 -0.0041942764
00000000: 225d a7bd 4733 b3bd b391 a2bd c7d1 01bd
00000010: 2a33 f6bb 8456 aebd b61b acbd ad7c 70bd
00000020: e533 163d 9e1a 533d 70b5 d6bc 9f48 80bd
00000030: c2be 363e fdb3 073d 0841 273d 8331 aebd
00000040: 53b3 fa3d 32de 80bd 511b 493d 3107 9bbd
00000050: 0d1e 39bd 4477 a1bc 2c34 37bd 93ae a8bd
00000060: e85d c33b e8bd c0bc 0abb 31bc 78f5 f63c
00000070: f06c 4dbc 3627 94bc 77ec 4fbd 7047 843c
00000080: cef2 e2b4 efb8 f1b5 284d 4e34 ee11 4e36
00000090: 221a fab5 4a56 bab5 30e7 c835 7cd6 12b5
000000a0: 7446 13b6 ea26 6e36 dfd2 8336 0c53 a935
000000b0: 1b7f 8936 eec6 13b6 9024 f936 79db 2936
000000c0: d16c 8d36 adc6 e5b6 0513 4236 f3d8 f9b5
000000d0: a33d 1bb6 3f9a 5b36 9d3c df35 a622 c8b5
000000e0: 17e4 8c36 73d1 f135 6029 66b6 5594 62b6
000000f0: d5a8 bf36 e52b 1e37 d6ee 0d36 878e 36b6
00000100: b79c 153c 8d3b e338 3fe2 85ba deef e0bb
00000110: 413d e33b 9719 413c dce6 e2ba eced 98bb
00000120: 0980 99ba 2192 2c3c db9a 8fbb 2426 b439
00000130: bbab 483b f124 fc3b 1c55 a23b ed33 443c
00000140: 0080 813a c10b 7bbb e281 bbbb 6f6a df3b
00000150: 65a3 4f3b 0d90 5cbc ac7f 55bc c559 4bbb
00000160: 4894 dbbb 6574 403b f143 7abb cc36 ba3b
00000170: 51d2 afb9 7375 6d3c 6435 213c 2470 89bb

cnf.flow_layers.3.nn.transformer_layers.0.self_attn.out_proj.weight f4 [32, 32]
0.0082710385 -0.16749728 -0.1812542 -0.056632634 0.07384526 0.14876086 0.038503982 -0.12975137
-0.08017937 0.06585512 -0.09056886 0.22361177 -0.18299109 0.11262276 0.051039957 0.0061035194
-0.12608221 0.019935872 -0.16302016 0.08465021 0.026782472 0.084333986 0.1159368 0.05727395
0.16527103 0.09099469 0.054109138 0.010211454 0.05050414 0.013193967 0.07638954 0.01346345
-0.012079848 0.1379994 -0.11761853 0.13176814 0.01619342 -0.12926698 0.19559006 -0.02346047
0.033450063 -0.042124446 0.00052569684 -0.11926895 0.08393191 0.065170825 0.09767193 0.044957437
0.0076180594 -0.039904136 0.034379605 0.09681365 0.13123576 -0.09799255 0.07661072 -0.01979102
-0.11719199 0.075747065 -0.0920109 0.1797115 -0.013904568 -0.037575014 0.21924664 -0.065720044
-0.08709232 -0.15892994 0.11410016 0.044155546 0.17571391 -0.10459422 -0.08214525 0.0346022
0.0818955 -0.1471276 0.1722879 -0.025839819 -0.15679449 0.02244135 -0.094455354 -0.020452572
0.0409037 0.10115029 -0.029406184 0.080448404 -0.17429955 0.020269847 0.110440336 -0.0078132
-0.18709928 -0.016220924 -0.04675407 0.10347731 -0.0463146 0.045953553 -0.13562153 0.075873755
0.008822229 -0.0438012 -0.034085304 0.1154115 0.06815836 -0.0012768884 0.022169685 -0.055939108
0.112202555 0.14728884 -0.10130341 -0.07635681 -0.009954108 0.03560173 0.13272347 0.031341173
0.16471528 0.010890278 -0.1311521 0.014098685 -0.07381475 -0.0858161 0.12896465 0.000511013
-0.14431316 0.106540225 -0.056758437 -0.06959928 -0.059873253 -0.03505088 -0.008477358 0.17324679
-0.056147244 -0.04837692 -0.15496568 0.14911534 0.038869224 0.17640908 0.061025858 -0.14125216
0.052289374 -0.1419135 0.038149826 -0.2092716 -0.057033204 0.1306948 -0.006216304 0.08117437
0.16444393 0.16359659 -0.16278557 -0.1035734 0.07440266 -0.096427254 -0.08899892 -0.11422315
-0.106028356 0.13818777 0.1747716 -0.13042267 -0.14504927 -0.03210025 -0.13850346 -0.15560241
-0.050399497 -0.012931919 -0.08466062 0.019847978 -0.050725415 0.10120431 -0.010385967 0.0015512375
0.20082985 0.060899008 -0.04100548 -0.13689964 0.05051232 0.058549363 0.105599865 -0.17460322
0.0036169188 0.12868261 -0.17497952 0.0991607 -0.10688984 0.13588041 -0.022321243 -0.078081064
-0.17037605 0.0054046772 0.12403307 -0.15278079 -0.16469972 0.15026051 0.08855561 -0.012909239
-0.0033209922 0.08041435 0.17110305 -0.05768288 -0.14820068 0.13755535 0.000567663 0.15738346
0.077188484 0.14252183 -0.05712192 0.04230679 -0.028202837 -0.040430672 0.15940708 -0.045898914
-0.16073708 0.042064514 0.04283659 0.15273315 0.14392737 -0.056822985 -0.043626957 0.14173721
-0.038205624 -0.12945712 -0.13694961 0.15511835 -0.19840942 0.12221328 -0.12325418 0.11368247
0.045319628 0.063948885 -0.15722418 -0.025768148 0.011430881 0.029255325 0.12483859 0.06797337
-0.036270566 0.11661792 0.12934536 -0.044754565 0.12584491 -0.08201055 0.12989426 -0.11267725
0.0847461 -0.09683627 0.08063381 0.10952574 -0.10488773 -0.035966266 0.16159056 -0.09971198
0.12144537 0.02379167 0.043070022 -0.028640494 -0.098799534 0.041890875 0.035294555 0.032073755
00000000: 4083 073c 6884 2bbe b39a 39be 9ff7 67bd
00000010: 2f3c 973d c454 183e 5ab6 1d3d 8bdd 04be
00000020: 1535 a4bd 0ddf 863d 2b7c b9bd 7cfa 643e
00000030: 0462 3bbe c3a6 e63d 460f 513d 0800 c83b
00000040: b21b 01be 8e50 a33c c2ee 26be 175d ad3d
00000050: ea66 db3c 4cb7 ac3d 4670 ed3d 1798 6a3d
00000060: cf3c 293e 6d5b ba3d 8ba1 5d3d f14d 273c
00000070: 6edd 4e3d 822b 583c 1f72 9c3d cd95 5c3c
00000080: 8eea 45bc b74f 0d3e fce1 f0bd 3aee 063e
00000090: 10a8 843c 905e 04be c348 483e 2c30 c0bc
000000a0: ef02 093d af8a 2cbd ebce 093a 4743 f4bd
000000b0: 7ee4 ab3d 4878 853d 3908 c83d 4a25 383d
000000c0: eaa0 f93b 8572 23bd a1d1 0c3d 3c46 c63d
000000d0: ab62 063e 51b0 c8bd 15e6 9c3d c720 a2bc
000000e0: 5b02 f0bd 4721 9b3d 3670 bcbd 4b06 383e
000000f0: fccf 63bc 42e8 19bd 3182 603e 3b98 86bd
00000100: 755d b2bd 88be 22be 58ad e93d 72dc 343d
00000110: 59ee 333e 7f35 d6bd c53b a8bd 09bb 0d3d
00000120: d4b8 a73d 9ea8 16be 3d6c 303e 07ae d3bc
00000130: bc8e 20be ecd6 b73c cf71 c1bd 278c a7bc
00000140: a38a 273d e227 cf3d 3de5 f0bc 22c2 a43d
00000150: 957b 32be f30c a63c 8b2e e23d f002 00bc
00000160: f496 3fbe bee1 84bc 3281 3fbd e9eb d33d
00000170: 61b4 3dbd cb39 3c3d 5fe0 0abe b363 9b3d
00000180: 1c8b 103c e368 33bd 089d 0bbd dd5c ec3d
00000190: 9c96 8b3d 445d a7ba 339d b53c 6820 65bd
000001a0: 74ca e53d e3d2 163e 2a78 cfbd f660 9cbd
000001b0: 8e16 23bc 1fd3 113d a9e8 073e 9a5f 003d
000001c0: 1fab 283e 236d 323c bc4c 06be 2cfe 663c
000001d0: 302c 97bd 5ac0 afbd 4f0f 043e 80f5 053a
000001e0: d4c6 13be c331 da3d 897b 68bd 118a 8ebd
000001f0: a83d 75bd 8391 0fbd 9ee4 0abc 9b67 313e
00000200: a7fa 65bd e126 46bd 53af 1ebe b1b1 183e
00000210: 5635 1f3d 95a4 343e 40f6 793d 68a4 10be
00000220: 622d 563d c651 11be fe42 1c3d 4b4b 56be
00000230: a69b 69bd dcd4 053e 23b2 cbbb c03e a63d
00000240: fd63 283e dd85 273e 43b1 26be 4a1e d4bd
00000250: 6c60 983d a77b c5bd 1145 b6bd d4ed e9bd
00000260: 6525 d9bd 1881 0d3e 54f7 323e 858d 05be
00000270: cc87 14be 8d7b 03bd dad3 0dbe 3d56 1fbe
00000280: b46f 4ebd 66e0 53bc 8c62 adbd 3a98 a23c
00000290: 74c5 4fbd 3544 cf3d e729 2abc e552 cb3a
000002a0: 57a6 4d3e 3d71 793d 5df5 27bd 6b2f 0cbe
000002b0: 02e6 4e3d 75d1 6f3d be44 d83d 30cb 32be
000002c0: d409 6d3b 60c5 033e d52d 33be c414 cb3d
000002d0: 0fe9 dabd 3c24 0b3e 0adb b6bc f7e8 9fbd
000002e0: 0f77 2ebe b819 b13b 0d05 fe3d 9172 1cbe
000002f0: 0ba7 28be e4dd 193e a55c b53d 4681 53bc
00000300: 01a5 59bb 47b0 a43d a335 2f3e e244 6cbd
00000310: ebc1 17be 4fdb 0c3e 38cf 143a 2129 213e
00000320: ff14 9e3d 3ef1 113e adf8 69bd e249 2d3d
00000330: a309 e7bc a29a 25bd 9c3b 233e 8000 3cbd
00000340: 4398 24be d74b 2c3d 6c75 2f3d 1466 1c3e
00000350: b261 133e 38bf 68bd 2eb2 32bd 8f23 113e
00000360: 807d 1cbd 6890 04be 853c 0cbe 58d7 1e3e
00000370: d72b 4bbe f54a fa3d b06c fcbd 5bd2 e83d
00000380: 13a1 393d a2f7 823d 60ff 20be b917 d3bc
00000390: 9748 3b3c dda8 ef3c 60ab ff3d 9f35 8b3d
000003a0: 7290 14bd 60d5 ee3d 1c73 043e 9050 37bd
000003b0: 7ddd 003e 26f5 a7bd 0003 053e 54c3 e6bd
000003c0: 5d8f ad3d 1852 c6bd 5723 a53d 084f e03d
000003d0: 61cf d6bd 5d51 13bd ff77 253e cb35 ccbd
000003e0: 5ab8 f83d c0e6 c23c 316a 303d 789f eabc
000003f0: 6957 cabd c495 2b3d 0691 103d c55f 033d

cnf.flow_layers.3.nn.transformer_layers.0.self_attn.out_proj.bias f4 [32]
-0.00019999969 0.012711513 -0.0045947176 -0.0019411048 0.003645501 -0.00216919 -0.00094084855 0.002692033
-0.007120469 0.0011709753 -0.0031710444 0.00063556526 -0.008089725 0.016833642 -0.009981476 -0.0040970617
-0.006954395 -0.029571367 0.0027538228 -0.008624458 0.0096200565 0.0098744845 0.013335145 0.0010492093
-0.012892914 0.0021335233 0.005253724 -0.007859594 0.008823281 0.012302124 0.0001516096 -0.007947412
00000000: 02b7 51b9 f343 503c 498f 96bb ab6c feba
00000010: 5ce9 6e3b f828 0ebb 47a3 76ba d26c 303b
00000020: d352 e9bb 697b 993a 4cd1 4fbb 109c 263a
00000030: c48a 04bc b5e6 893c 5889 23bc a540 86bb
00000040: b2e1 e3bb a73f f2bc 7b79 343b 994d 0dbc
00000050: 719d 1d3c 97c8 213c a77b 5a3c 9f85 893a
00000060: cd3c 53bc 95d2 0b3b 6e27 ac3b 87c5 00bc
00000070: 868f 103c d98e 493c 64f9 1e39 dd35 02bc

cnf.flow_layers.3.nn.transformer_layers.0.linear1.weight f4 [64, 32]
0.03263197 0.056275036 -0.0010764598 0.14771329 0.065862566 -0.1415564 -0.18011431 -0.02878083
0.060368713 -0.07251556 -0.20786092 0.14022535 0.022737712 0.07052334 -0.06841645 0.041299973
-0.029339202 0.13272788 -0.061359424 0.14342827 -0.062468123 -0.04262904 0.13096 0.0032999732
0.1244697 -0.033003617 0.10735622 -0.19942667 0.17206442 -0.06954815 0.22085941 0.043155275
-0.13086443 -0.1292734 0.034021277 0.047770694 -0.101608 0.12244594 -0.054146077 0.16816433
-0.025167445 -0.14511108 -0.009060815 -0.08083212 0.08500157 -0.00939158 0.15948528 -0.11409998
0.1549886 -0.2112586 0.11638323 -0.16828313 0.07606359 -0.065066114 -0.17595908 0.16853717
0.072434664 0.077986404 -0.06344674 -0.06305717 -0.070687205 -0.1549365 0.054969404 0.02734326
-0.0149256 -0.16916405 0.004925738 0.10725627 0.051056173 -0.1723105 0.050312977 0.20278363
-0.023066973 -0.0026874817 -0.045598783 -0.0035818403 0.15877263 0.14520645 0.11565789 -0.0934568
0.09013621 0.108676486 0.17122997 -0.07214964 0.009265979 0.14578855 0.08020805 -0.028014913
0.00258897 -0.0351881 0.07239024 -0.08852552 -0.17680867 0.008917766 -0.11485587 -0.1923428
0.15060757 -0.10341099 0.120261066 -0.092826314 -0.15490988 -0.035251684 0.06087671 0.034308735
0.10848702 -0.016564386 -0.12294577 0.13032936 0.025098873 -0.12346406 -0.035855312 0.06655309
-0.004986553 0.028448055 0.059325986 0.065195166 0.072610885 -0.11297669 0.07966993 0.028068298
-0.035758354 0.025395395 0.013920381 -0.1224319 -0.16552165 0.1291917 -0.109022394 0.12488674
0.06337417 0.07284876 -0.014419548 -0.028292213 -0.04016488 -0.18294322 -0.04379357 0.19055608
0.064080566 -0.058693912 -0.14562702 -0.041321598 -0.08858748 0.09887678 0.0875776 0.058388874
0.008500371 -0.012952708 -0.07891574 0.00024480783 0.07690253 0.07519474 0.06970036 -0.05754996
0.09412099 -0.14618556 0.086161844 0.021346115 0.0800853 0.15447336 0.009769905 0.05159467
0.086061805 -0.107624575 -0.14267462 0.13232414 0.064764194 0.064909965 0.027662901 -0.052713994
0.084183276 -0.061815698 -0.01875425 0.014740474 0.01986242 0.1266966 -0.1036178 -0.12634256
-0.14968902 -0.16018222 -0.17531951 -0.078191 -0.08874066 0.12569696 -0.09006302 -0.08067219
-0.077150576 0.13772722 -0.15300156 0.022707734 -0.051322483 -0.0812332 -0.051035404 0.14300641
0.0050547794 0.09558503 0.18979187 -0.041194424 0.079151414 0.010693666 0.063283384 -0.04526432
0.09890974 0.010323098 0.18767641 0.20194688 -0.039446827 -0.20241362 -0.022916822 0.034458045
-0.0016212382 0.035634227 0.17926295 0.15864442 -0.06323551 -0.19954175 0.13207896 -0.2170339
-0.043128 -0.057103146 -0.0684302 -0.021993848 0.034395017 0.10876558 0.018680735 0.05273091
-0.102160916 -0.031731144 -0.070532136 -0.14093897 0.059385855 -0.074227616 0.019607624 -0.121955276
-0.18711033 -0.09187858 -0.020600094 -0.05083509 0.09565339 0.0938208 -0.08935511 0.004645499
0.08244616 0.012789583 -0.09639097 0.05949092 0.12703548 0.066709526 0.005502694 -0.10731344
0.1840524 -0.099217586 0.16903202 0.0972418 -0.05084663 -0.27837777 0.1271903 0.0055755707
00000000: 1aa9 053d a780 663d ff17 8dba 2742 173e
00000010: f4e2 863d 29f4 10be e36f 38be c6c5 ebbc
00000020: 2f45 773d 0a83 94bd 7ed9 54be 3c97 0f3e
00000030: 7044 ba3c 8a6e 903d ec1d 8cbd 292a 293d
00000040: c458 f0bc d1e9 073e 0554 7bbd dcde 123e
00000050: 93de 7fbd ca9b 2ebd 611a 063e 5d44 583b
00000060: f8e9 fe3d cd2e 07bd 94dd db3d 8136 4cbe
00000070: a831 303e 436f 8ebd f828 623e 96c3 303d
00000080: 5301 06be 3f60 04be e559 0b3d 34ab 433d
00000090: db17 d0bd f0c4 fa3d 47c8 5dbd 4533 2c3e
000000a0: f52b cebc 0098 14be d073 14bc 4f8b a5bd
000000b0: 4e15 ae3d 24df 19bc 1c50 233e 40ad e9bd
000000c0: 55b5 1e3e 2d54 58be 555a ee3d 6a52 2cbe
000000d0: 3ac7 9b3d 6241 85bd 9e2e 34be 0295 2c3e
000000e0: a058 943d 56b7 9f3d 5df0 81bd 1e24 81bd
000000f0: 74c4 90bd ada7 1ebe 9927 613d f9fe df3c
00000100: 818a 74bc 5739 2dbe 1668 a13b 2da9 db3d
00000110: 4720 513d 2a72 30be fb14 4e3d 83a6 4f3e
00000120: f3f6 bcbc 7620 30bb cac5 3abd 4fbd 6abb
00000130: 4b95 223e 00b1 143e 0bde ec3d 4766 bfbd
00000140: 5599 b83d c791 de3d e956 2f3e 31c3 93bd
00000150: 55d0 173c 9849 153e 1e44 a43d 887f e5bc
00000160: b5ab 293b 6621 10bd 5641 943d de4c b5bd
00000170: 550d 35be d21b 123c 8e39 ebbd 83f5 44be
00000180: df38 1a3e 24c9 d3bd 6f4b f63d b91b bebd
00000190: b2a0 1ebe 1264 10bd db59 793d 5187 0c3d
000001a0: 712e de3d 09b2 87bc feca fbbd 0f75 053e
000001b0: 279c cd3c bada fcbd 05dd 12bd fd4c 883d
000001c0: 3d66 a3bb e50b e93c ceff 723d 0b85 853d
000001d0: 04b5 943d 5360 e7bd fd29 a33d 7def e53c
000001e0: 5a77 12bd 010a d03c 4f12 643c 93bd fabd
000001f0: 827e 29be d44a 043e 2247 dfbd 9fc4 ff3d
00000200: 51ca 813d bb31 953d f83f 6cbc 12c5 e7bc
00000210: ee83 24bd 7855 3bbe e360 33bd 2221 433e
00000220: ac3c 833d 0769 70bd 401f 15be d640 29bd
00000230: 5a6d b5bd e97f ca3d e25b b33d 2c29 6f3d
00000240: 2445 0b3c 9837 54bc 939e a1bd 8d59 8039
00000250: 137f 9d3d b3ff 993d 10bf 8e3d 82b9 6bbd
00000260: 81c2 c03d abb1 15be 9f75 b03d 0cde ae3c
00000270: c303 a43d 442e 1e3e f411 203c ef54 533d
00000280: 2c41 b03d 466a dcbd 4c19 12be fb7f 073e
00000290: 17a3 843d 84ef 843d 4f9d e23c a1ea 57bd
000002a0: 4868 ac3d 7532 7dbd 83a2 99bc 0782 713c
000002b0: 84b6 a23c c1bc 013e 9235 d4bd f25f 01be
000002c0: 1448 19be cf06 24be f586 33be 9a22 a0bd
000002d0: aabd b5bd b4b6 003e f672 b8bd 7637 a5bd
000002e0: 1f01 9ebd 5d08 0d3e 71ac 1cbe 9205 ba3c
000002f0: 8637 52bd 985d a6bd 800a 51bd 4670 123e
00000300: 90a2 a53b 16c2 c33d cd58 423e 7cbb 28bd
00000310: 231a a23d 7c34 2f3c b89a 813d 1467 39bd
00000320: 3191 ca3d 3622 293c 3f2e 403e 2acb 4e3e
00000330: ff92 21bd 8445 4fbe 0fbc bbbc e123 0d3d
00000340: ba7f d4ba 32f5 113d b590 373e af73 223e
00000350: 9e81 81bd ac54 4cbe b53f 073e 223e 5ebe
00000360: fca6 30bd fde4 69bd 2225 8cbd 712c b4bc
00000370: cae1 0c3d 7dc0 de3d 5708 993c 5efc 573d
00000380: be39 d1bd 84f8 01bd 2773 90bd 4e52 10be
00000390: 953e 733d a604 98bd 2ba0 a03c b0c3 f9bd
000003a0: da99 3fbe d62a bcbd 87c1 a8bc 7538 50bd
000003b0: ede5 c33d 1f25 c03d d0ff b6bd 4539 983b
000003c0: 88d9 a83d 668b 513c a168 c5bd c0ac 733d
000003d0: 9715 023e 019f 883d f14f b43b 26c7 dbbd
000003e0: 3b78 3c3e 9732 cbbd bb16 2d3e b526 c73d
000003f0: 8e44 50bd 8887 8ebe 2d3e 023e 47b3 b63b

cnf.flow_layers.3.nn.transformer_layers.0.linear1.bias f4 [64]
-0.06343611 0.13820809 0.082541905 0.012246672 0.16399324 0.0996607 0.012916322 0.13430673
0.09487885 0.0149011295 -0.05563053 0.04649485 0.114629954 0.12425189 0.0859681 -0.1154725
0.04753125 -0.041563135 -0.022007663 -0.033288453 -0.10340997 -0.10293261 -0.15146577 0.14973024
0.1767152 0.1593647 0.05765659 0.021850862 -0.0572585 0.13831472 -0.15739276 0.1201749
-0.048707064 -0.12759608 -0.13996203 -0.08313391 -0.008170825 -0.12747449 -0.078082845 0.012917545
-0.076092206 -0.04010838 -0.059971344 -0.13533995 0.11629531 0.06336783 -0.079210155 0.117732316
-0.0880919 0.06005734 0.081905834 0.031190861 0.068092376 0.10238102 -0.054402642 0.14312764
-0.10983271 0.03664871 0.035754416 0.062093746 0.030904375 -0.03783039 0.16819605 0.05354064
00000000: cbea 81bd 6c86 0d3e bb0b a93d 44a6 483c
00000010: d8ed 273e e91a cc3d fb9e 533c b487 093e
00000020: d84f c23d de23 743c d7dc 63bd 6271 3e3d
00000030: 1cc3 ea3d c677 fe3d 0b10 b03d d97c ecbd
00000040: 21b0 423d 1b3e 2abd 6a49 b4bc 7959 08bd
00000050: 9bc8 d3bd 55ce d2bd d819 1bbe e252 193e
00000060: d4f4 343e 8030 233e 5129 6c3d 9400 b33c
00000070: e487 6abd 60a2 0d3e 912b 21be 421e f63d
00000080: 0f81 47bd 8ca8 02be 3552 0fbe 1d42 aabd
00000090: edde 05bc ac88 02be e6e9 9fbd 1ca4 533c
000000a0: 3bd6 9bbd af48 24bd 83a4 75bd 8e96 0abe
000000b0: 3c2c ee3d fec6 813d ef38 a2bd a41d f13d
000000c0: 8769 b4bd affe 753d 3fbe a73d fa83 ff3c
000000d0: 0474 8b3d 24ad d13d 4ed5 5ebd 0d90 123e
000000e0: f9ef e0bd f51c 163d 3973 123d 0356 7e3d
000000f0: 2c2b fd3c 0af4 1abd 963b 2c3e 6e4d 5b3d
