checkpoints/sort_1/S_6_K_6/ArgmaxAR/15_05_2023__23_01/cktp/checkpoint_0002000.tar (torch, 496923 bytes, 113 tensors)

model.base_dist.loc f4 [1, 3, 1]
-0.09106812 -0.027688084 0.01570909
00000000: ec81 babd 1fd2 e2bc 59b0 803c

model.base_dist.log_scale f4 [1, 3, 1]
-0.007053457 0.074388936 0.06925681
00000000: b020 e7bb 3a59 983d 84d6 8d3d

model.transforms.0.encoder.noise_dist.base_dist.net.weight f4 [6, 32, 1]
-0.13738513 0.10047935 -0.2511333 -0.29494986 0.11776453 0.050174896 -0.18118085 0.0032830401
-0.20931897 0.09858775 -0.20070718 -0.20585114 0.2253222 -0.05800773 -0.10613374 0.2763239
0.23077114 -0.054269284 0.09984517 0.27991003 -0.030078342 -0.12067158 0.23503442 -0.261911
-0.115225285 -0.04643253 -0.031474736 -0.029287124 -0.23669642 0.051285133 0.03488158 0.22866097
-0.0041187154 0.043947358 -0.23325032 -0.16767156 0.13954085 -0.031895153 0.104637474 -0.09718101
0.094492696 0.23253036 -0.107128285 -0.032528196 0.11848196 -0.09881045 -0.05818272 0.09978619
0.030713549 0.1708221 -0.019724676 0.099485695 -0.052482553 0.091702804 0.08278033 -0.17664751
-0.24760868 -0.09440877 0.19027856 -0.0056608184 0.008048507 -0.18112913 0.023456927 0.0525111
0.058437463 0.1712616 -0.09077868 0.0059804334 -0.095732026 0.11375548 -0.18613742 0.018975973
-0.0060509173 0.010399369 -0.22863232 -0.19231161 0.14896871 -0.03515998 -0.01794216 0.034619942
0.2187824 -0.0068352106 0.07846187 0.077491276 0.10389517 -0.19152096 0.19327275 -0.14314003
-0.04304499 -0.12848037 0.072666585 0.20949917 -0.1824533 -0.14954375 0.12653024 -0.018944206
-0.13416292 -0.10264703 -0.11357586 -0.08509925 0.031095942 -0.111568674 -0.14091901 0.15374005
0.16353656 -0.06661928 -0.14730632 0.16143596 0.1839071 0.15614778 0.04464013 -0.06773984
-0.02302353 0.050750226 0.18957467 -0.07386904 0.015143671 0.16675992 -0.021720883 -0.05073525
0.04401249 -0.11949116 0.14248815 0.17262769 0.16651045 0.08850161 -0.17060712 0.08974395
0.013262974 0.035913285 0.025557885 -0.10972181 -0.119564705 0.046775624 -0.08121846 -0.08388823
-0.06958299 0.12172875 -0.12566783 0.03759452 0.13616312 0.06610158 0.07360884 -0.03594282
-0.024977949 -0.121633485 0.14763252 0.039193533 0.07370909 0.14326994 -0.19311734 0.16136825
-0.12069947 -0.04193326 0.007972158 -0.046010144 0.020427482 0.11898552 0.07616525 -0.14148958
-0.06716512 0.06977074 0.003260854 0.016414424 0.16706872 -0.13096678 -0.14718603 -0.12391447
-0.10047489 0.013103248 0.061825495 0.127068 -0.103385285 -0.039305095 0.13433139 0.110988565
-0.050221078 -0.13265051 0.14411408 0.12020166 0.0356892 -0.112410635 0.13062201 0.13723472
-0.08687055 -0.1554001 -0.1637312 0.02098448 -0.0025762636 0.14967558 -0.006981688 0.12342419
00000000: b0ae 0cbe 1ec8 cd3d 8b94 80be ab03 97be
00000010: 882e f13d 3184 4d3d 7987 39be 4628 573b
00000020: b657 56be 60e8 c93d 2f86 4dbe a4ca 52be
00000030: ddba 663e 8399 6dbd a55c d9bd 547a 8d3e
00000040: 454f 6c3e 7849 5ebd a07b cc3d 5e50 8f3e
00000050: db66 f6bc a922 f7bd ddac 703e 3319 86be
00000060: 3cfb ebbd 0930 3ebd a7eb 00bd 8deb efbc
00000070: 8c60 72be 5c10 523d fddf 0e3d 1a26 6a3e
00000080: 4af6 86bb 2502 343d 2cd9 6ebe 18b2 2bbe
00000090: cce3 0e3e 7ea4 02bd 2c4c d63d d606 c7bd
000000a0: 6385 c13d 701c 6e3e 1366 dbbd 493c 05bd
000000b0: aba6 f23d 225d cabd 0151 6ebd b45c cc3d
000000c0: fb9a fb3c fdeb 2e3e a595 a1bc 28bf cb3d
000000d0: f2f7 56bd aece bb3d bc88 a93d 16e3 34be
000000e0: 218d 7dbe 6359 c1bd 62d8 423e 637e b9bb
000000f0: e3dd 033c ea79 39be be28 c03c e115 573d
00000100: 1f5c 6f3d 335f 2f3e 2cea b9bd 83f7 c33b
00000110: 270f c4bd a2f8 e83d cf9a 3ebe 8073 9b3c
00000120: c646 c6bb 1d62 2a3c 971e 6abe 56ed 44be
00000130: 418b 183e e903 10bd 70fb 92bc a4cd 0d3d
00000140: 7e08 603e e7f9 dfbb 9eb0 a03d bfb3 9e3d
00000150: fec6 d43d 121e 44be 4be9 453e 4d93 12be
00000160: f24f 30bd 5c90 03be 38d2 943d f386 563e
00000170: 0ad5 3abe ff21 19be 2591 013e e130 9bbc
00000180: 0162 09be 9b38 d2bd 769a e8bd 8448 aebd
00000190: ebbc fe3c 1e7e e4bd 134d 10be 086e 1d3e
000001a0: 2176 273e b06f 88bd 78d7 16be 784f 253e
000001b0: 2552 3c3e 34e5 1f3e 92d8 363d 2fbb 8abd
000001c0: d89b bcbc 78df 4f3d dd1f 423e a748 97bd
000001d0: 291d 783c 1dc3 2a3e feef b1bc c4cf 4fbd
000001e0: 7146 343d c8b7 f4bd 6ae8 113e 50c5 303e
000001f0: b781 2a3e 5540 b53d a2b3 2ebe adcb b73d
00000200: f24c 593c cf19 133d c55e d13c d4b5 e0bd
00000210: 57de f4bd cc97 3f3d dd55 a6bd 98cd abbd
00000220: 8781 8ebd ec4c f93d 11af 00be b6fc 193d
00000230: 586e 0b3e 4460 873d 3bc0 963d c738 13bd
00000240: 8e9e ccbc fa1a f9bd fb2c 173e 6689 203d
00000250: cbf4 963d 5bb5 123e 8dc0 45be b83d 253e
00000260: 4931 f7bd 36c2 2bbd a79d 023c 2275 3cbd
00000270: 8957 a73c aeae f33d 87fc 9b3d a5e2 10be
00000280: de8d 89bd f6e3 8e3d 0db4 553b 8b77 863c
00000290: 1014 2b3e 281c 06be efb7 16be dfc6 fdbd
000002a0: c7c5 cdbd 01af 563c bb3c 7d3d 1d1e 023e
000002b0: aabb d3bd 61fe 20bd 2b8e 093e f94d e33d
000002c0: 9eb4 4dbd 89d5 07be a492 133e 4a2c f63d
000002d0: d72e 123d 8c37 e6bd c7c1 053e 4287 0c3e
000002e0: 30e9 b1bd 3421 1fbe 27a9 27be a5e7 ab3c
000002f0: 88d6 28bb 8e44 193e a5c6 e4bb d2c5 fc3d

model.transforms.0.encoder.noise_dist.base_dist.net.bias f4 [6]
-0.0034319372 0.12486466 0.111035 -0.008386609 0.091048904 -0.008253628
00000000: 5aea 60bb 0bb9 ff3d 5166 e33d fd67 09bc
00000010: d977 ba3d 3a3a 07bc

model.transforms.0.encoder.noise_dist.transforms.0.ar_net.lstm.weight_ih_l0 f4 [128, 35]
0.1168388 -0.15846696 -0.14074872 0.18412155 -0.062169634 -0.006959139 0.07365239 0.06833116
-0.05223295 -0.14865525 0.04796064 0.14955759 -0.08623605 0.1763943 0.026549987 0.16252346
0.0329962 0.16736059 0.12800503 0.02237398 -0.03404705 -0.088084646 0.09464343 0.038680036
0.119985186 -0.020154526 -0.1297475 0.12582438 0.05877166 0.17525722 0.05199783 0.10632422
0.095507525 0.055397924 0.16679758 -0.15933423 0.06304651 -0.0017194945 -0.0023936639 0.016826589
-0.18813261 0.05807441 -0.064425185 -0.12555878 -0.012765913 -0.12088215 -0.031844966 -0.12176191
-0.11753875 -0.06771451 -0.16777252 -0.07217397 -0.09256843 -0.13644743 -0.05079508 0.14520526
0.0040965243 -0.099122465 0.05422243 -0.13103247 0.043532927 0.14290597 -0.05574213 0.1364952
-0.15032287 -0.1846332 -0.15741566 0.08241266 0.20493324 -0.078297265 0.10577141 0.13651173
-0.0629995 0.14872137 -0.005068465 0.1356962 -0.16140445 -0.05627834 0.035992835 0.16214466
-0.1557529 0.06528755 -0.16584165 0.07093345 -0.10180353 0.036529254 0.072671905 0.14807238
0.036832843 -0.030833317 -0.117179446 0.070584 0.09049978 -0.113397956 0.13448718 -0.03524333
-0.091950186 0.13193062 0.023105528 0.0059196623 0.041829277 -0.047906794 -0.030411035 -0.035594366
-0.11115929 0.042964026 -0.011750678 -0.00086381217 -0.020190155 -0.06935433 0.16370146 -0.13809751
0.101763666 -0.051688977 0.18219486 0.13871811 0.07213235 0.14097556 0.02220751 0.038175836
0.025979621 0.025169883 -0.055556938 -0.20030428 -0.120898575 0.06149263 -0.16452375 0.047193866
0.054050077 0.12591392 -0.059381858 -0.058431435 -0.10772186 0.10740458 0.179075 -0.0031833593
-0.03687538 0.008942718 0.12454019 0.103823185 -0.005472813 -0.15259431 0.031764954 -0.042909794
0.06727918 -0.16766816 -0.013299199 -0.110888496 -0.12146698 0.1316278 -0.036161542 -0.025380319
-0.035854835 -0.0047509107 0.061919004 -0.10864047 0.07629416 0.077491514 -0.080599666 0.023461401
-0.053729355 -0.10027969 0.08595418 0.049859196 -0.09378438 -0.16782974 -0.066817656 -0.07463951
0.06520582 -0.0031297952 -0.15960494 -0.03877109 0.08680887 -0.04097929 -0.007759058 0.1470373
-0.13043524 -0.13219185 -0.04107266 0.1555709 -0.06375082 0.1472301 0.14352617 -0.030193383
-0.035442002 -0.07027944 0.13003157 0.045681212 0.059828244 0.03141102 -0.13108277 -0.08099393
-0.05327917 0.06465047 -0.0811369 -0.007916966 0.1781098 0.012455841 0.15661441 -0.10256023
0.08432731 -0.11846032 0.04296106 -0.08854159 -0.13232371 0.03559056 0.06852633 -0.14322105
-0.11705133 -0.10241183 -0.102455154 0.1444019 -0.033585656 0.09524831 0.14052561 -0.121330045
0.084244065 -0.10616736 -0.17081372 -0.018279152 -0.09409496 0.15336813 0.029895473 0.124111146
0.022102324 0.08281519 0.13012563 -0.19120559 -0.12038476 -0.1655373 -0.13352653 -0.11924067
0.17868829 0.10901943 -0.11502371 -0.15677413 -0.14407125 -0.006326798 0.009390494 -0.119532384
-0.16453342 0.10681362 -0.045804303 -0.10075936 -0.048255287 0.019312663 -0.020406354 0.006420491
-0.17911561 0.103808545 0.12216776 0.018657112 0.1421586 0.15914102 -0.1743251 -0.07912205
00000000: 2e49 ef3d 2a45 22be 6f20 10be 5c8a 3c3e
00000010: 96a5 7ebd 7d09 e4bb 10d7 963d 35f1 8b3d
00000020: 38f2 55bd 1539 18be 6072 443d a025 193e
00000030: 879c b0bd b5a0 343e 5c7f d93c 8d6c 263e
00000040: 0627 073d 9360 2b3e c013 033e a349 b73c
00000050: eb74 0bbd b965 b4bd 6ad4 c13d f56e 1e3d
00000060: cbba f53d 1b1b a5bc 87dc 04be 1bd8 003e
00000070: 8dba 703d a176 333e adfb 543d 83c0 d93d
00000080: 7399 c33d efe8 623d fccc 2a3e 8328 23be
00000090: 871e 813d a960 e1ba 04df 1cbb ead7 893c
000000a0: d6a5 40be 6fdf 6d3d 5af1 83bd 7b92 00be
000000b0: 1f28 51bc 1091 f7bd de6f 02bd 4f5e f9bd
000000c0: 28b8 f0bd e8ad 8abd 8fcc 2bbe f2cf 93bd
000000d0: 8494 bdbd e0b8 0bbe 800e 50bd b0b0 143e
000000e0: 233c 863b b800 cbbd 5718 5e3d 602d 06be
000000f0: 954f 323d f155 123e dc51 64bd 66c5 0b3e
00000100: 3dee 19be 7c10 3dbe 9231 21be f8c7 a83d
00000110: 05da 513e 515a a0bd ae9e d83d bbc9 0b3e
00000120: e205 81bd 6a4a 183e 5e15 a6bb f2f3 0a3e
00000130: 3547 25be 1e84 66bd 396d 133d 4009 263e
00000140: b07d 1fbe 7bb5 853d 65d2 29be 8e45 913d
00000150: 5e7e d0bd b39f 153d 02d5 943d 49a0 173e
00000160: 09de 163d 2796 fcbc c7fb efbd 588e 903d
00000170: f357 b93d 303d e8bd 02b7 093e 4f5b 10bd
00000180: 6150 bcbd d218 073e ce47 bd3c baf9 c13b
00000190: 2d55 2b3d ea39 44bd 9020 f9bc 66cb 11bd
000001a0: 7ba7 e3bd 0cfb 2f3d ea85 40bc 7471 62ba
000001b0: d365 a5bc a509 8ebd 5ba1 273e 6f69 0dbe
000001c0: 7869 d03d d2b7 53bd 4a91 3a3e 1f0c 0e3e
000001d0: 20ba 933d e65b 103e 86ec b53c 445e 1c3d
000001e0: 37d3 d43c 1231 ce3c ac8f 63bd 911c 4dbe
000001f0: ac99 f7bd b2df 7b3d ea78 28be 5b4e 413d
00000200: 9d63 5d3d 94ef 003e 643a 73bd cd55 6fbd
00000210: 479d dcbd eff6 db3d 705f 373e e89f 50bb
00000220: a30a 17bd 7a84 123c ed0e ff3d 40a1 d43d
00000230: 4855 b3bb af41 1cbe f81b 023d 2ec2 2fbd
00000240: abc9 893d 34b1 2bbe e2e4 59bc 8219 e3bd
00000250: aec3 f8bd 70c9 063e 201e 14bd 63ea cfbc
00000260: 85dc 12bd 87ad 9bbb c89e 7d3d e57e debd
00000270: 1d40 9c3d dfb3 9e3d 7011 a5bd 2032 c03c
00000280: 5013 5cbd 705f cdbd bf08 b03d 2839 4c3d
00000290: 0612 c0bd 8fdb 2bbe b2d7 88bd 99dc 98bd
000002a0: a18a 853d 401d 4dbb 7a6f 23be 6fce 1ebd
000002b0: d9c8 b13d e6d9 27bd b23f febb f290 163e
000002c0: d190 05be 4d5d 07be ce3b 28bd fa4d 1f3e
000002d0: ca8f 82bd 7dc3 163e 86f8 123e 1d58 f7bc
000002e0: a22b 11bd abee 8fbd ff26 053e 391c 3b3d
000002f0: 760e 753d d7a8 003d 903a 06be 25e0 a5bd
00000300: 423b 5abd 7767 843d 1a2b a6bd 2ab6 01bc
00000310: 6a62 363e 9513 4c3c 875f 203e 190b d2bd
00000320: ccb3 ac3d 539b f2bd f0f7 2f3d 4b55 b5bd
00000330: de7f 07be 68c7 113d 8857 8c3d 8aa8 12be
00000340: 9cb8 efbd 4bbd d1bd 02d4 d1bd 17de 133e
00000350: 1d91 09bd 8c11 c33d f2e5 0f3e e37b f8bd
00000360: 2788 ac3d 466e d9bd cbe9 2ebe 29be 95bc
00000370: dcb4 c0bd 890c 1d3e 5ae7 f43c fc2d fe3d
00000380: ef0f b53c 039b a93d a73f 053e 66cb 43be
00000390: 498c f6bd 9c82 29be 2ebb 08be 7434 f4bd
000003a0: 10fa 363e 9445 df3d 8d91 ebbd 6689 20be
000003b0: 6a87 13be 0751 cfbb 96da 193c 65cd f4bd
000003c0: 737b 28be 19c1 da3d 4b9d 3bbd ec5a cebd
000003d0: 56a7 45bd 9735 9e3c 3a2b a7bc fb62 d23b
000003e0: 156a 37be 9399 d43d 1733 fa3d cdd6 983c
000003f0: 0692 113e ddf5 223e 4782 32be be0a a2bd

model.transforms.0.encoder.noise_dist.transforms.0.ar_net.lstm.weight_hh_l0 f4 [128, 32]
0.0155196395 0.14635278 -0.13311847 0.011436212 -0.055276655 0.030987084 -0.15021443 -0.017291116
-0.11818773 -0.12907296 0.087236896 0.09558192 0.14730841 0.04089713 0.016748052 0.14203675
0.14183229 0.112479486 -0.06415375 0.0035958546 -0.1954746 0.16536011 0.017863683 0.026237737
-0.11615422 0.08237905 0.08289765 0.08579149 -0.10244147 0.11584584 -0.13013035 0.118506916
0.15669543 0.06898566 0.19163418 0.06809899 0.014637196 0.04314303 0.1457084 -0.17351905
-0.121732526 0.014720016 -0.14184752 0.06494089 0.074888796 -0.033585176 0.017567903 -0.14041115
0.16504093 0.18028079 0.15178779 -0.11480296 -0.1368705 -0.039893936 0.028638074 -0.11069669
0.0967149 0.017879756 0.030669138 0.06920115 -0.12747225 -0.13659176 0.10579552 -0.11574618
0.023316542 -0.00930471 0.019485366 0.071309075 -0.13832322 0.0956553 0.17334905 0.1856561
0.011875157 -0.029879758 -0.012992997 -0.08556907 0.11653843 0.067611374 -0.03362951 -0.15806665
-0.0154457325 -0.12374493 0.041752867 0.0576802 -0.14511074 -0.07923646 -0.17171824 -0.12410112
-0.033714432 -0.0011865549 -0.16238475 -0.05529875 -0.15933582 -0.040533945 0.103569746 -0.057910345
0.11859635 0.13249414 0.1603065 -0.0479824 0.06258747 0.00419494 -0.17058386 0.048015982
-0.19259799 -0.12049763 0.037528656 0.03282996 0.008716669 0.13536493 -0.09102509 -0.0067137205
0.07938056 0.07525276 -0.124195844 0.14325215 -0.047499813 0.16152188 0.07149446 0.02321286
-0.0049961177 -0.13546936 -0.012588599 0.17460217 0.14435856 -0.12597479 0.09830716 -0.0037655982
0.15872738 -0.06512561 0.1142432 0.10618172 -0.10404809 0.14550258 0.025864583 0.015863635
0.09030876 0.0073305126 -0.109611444 0.12769571 0.01762079 -0.15779714 -0.072478995 0.04774021
0.103102274 -0.10349481 -0.041803107 0.0117009375 0.06482707 -0.14288723 0.04337747 0.118926294
0.054398753 -0.07352959 -0.10064757 0.05945635 -0.01956563 -0.15731621 0.11869592 0.059066936
-0.018528841 -0.0014955299 0.013028951 0.00082804245 0.031304635 -0.09821277 0.05828815 -0.11621119
0.06327126 0.059737086 0.0344256 0.012437537 0.0924261 -0.061619792 -0.09292797 -0.20143263
-0.0741947 -0.08905929 0.24311371 0.0026615055 -0.14360021 0.16368128 -0.12228379 -0.14613
-0.028389903 -0.09755868 0.17496856 0.10584432 0.16713706 -0.07306231 -0.14871877 0.052688327
0.109983645 0.10726876 -0.08871483 0.10541836 0.11916619 0.17983884 -0.15141654 0.022672547
0.027525319 0.04286522 0.06096865 0.08726486 -0.07712168 -0.044887982 -0.12776366 -0.011583412
0.061411884 -0.10010967 -0.016850501 -0.11200914 -0.01337802 -0.026591927 0.01650022 0.11968245
-0.15587883 -0.03795788 -0.08908252 -0.16266766 -0.1626882 0.1939529 -0.09702845 -0.14102344
0.055073712 -0.12074151 0.010108356 -0.01660663 0.117495395 -0.13543145 -0.036510937 -0.15820578
0.014140835 0.006783722 0.0865172 -0.10916169 0.021434719 0.13174006 -0.09730437 0.14145213
0.12759365 0.0023826233 -0.090585366 -0.06792711 -0.14281522 -0.035072956 0.15446292 0.11460154
-0.0018778783 -0.09200944 -0.029425872 -0.1576751 0.030766074 -0.009470902 -0.02114179 -0.083355956
00000000: 1646 7e3c 81dd 153e 3550 08be f35e 3b3c
00000010: c669 62bd a0d8 fd3c d0d1 19be 19a6 8dbc
00000020: 690c f2bd b42b 04be 42a9 b23d 74c0 c33d
00000030: 04d8 163e c083 273d 3633 893c 1572 113e
00000040: 7c3c 113e a55b e63d 0b63 83bd 6ea8 6b3b
00000050: 7e2a 48be 2954 293e dc56 923c 86f0 d63c
00000060: 44e2 edbd 59b6 a83d 3ec6 a93d 73b3 af3d
00000070: d5cc d1bd 9540 ed3d e440 05be c1b3 f23d
00000080: c474 203e 5b48 8d3d c03b 443e 7c77 8b3d
00000090: dad0 6f3c bfb6 303d 9534 153e faae 31be
000000a0: e74e f9bd 392c 713c 7a40 11be bbff 843d
000000b0: 4c5f 993d 9c90 09bd 90ea 8f3c f1c7 0fbe
000000c0: 7d00 293e 879b 383e 426e 1b3e d01d ebbd
000000d0: c827 0cbe d367 23bd 659a ea3c f2b4 e2bd
000000e0: 7612 c63d 9178 923c d83d fb3c 55b9 8d3d
000000f0: 1688 02be b6de 0bbe 52ab d83d 550c edbd
00000100: 5502 bf3c c872 18bc c69f 9f3c 7e0a 923d
00000110: 9aa4 0dbe ede6 c33d 6a82 313e a21c 3e3e
00000120: 0590 423c 65c6 f4bc 94e0 54bc d63e afbd
00000130: b3ab ee3d d577 8a3d 19bf 09bd 39dc 21be
00000140: 1910 7dbc fb6d fdbd 0e05 2b3d 1342 6c3d
00000150: e997 14be ba46 a2bd e8d6 2fbe ba28 febd
00000160: 2518 0abd 2d86 9bba 3048 26be f180 62bd
00000170: ee28 23be ec06 26bd 601c d43d 6633 6dbd
00000180: a5e2 f23d 8bac 073e 6327 243e 3189 44bd
00000190: dc2d 803d b575 893b 89ad 2ebe 68ac 443d
000001a0: 6838 45be 76c7 f6bd a6b7 193d b578 063d
000001b0: 5cd0 0e3c 1b9d 0a3e 5d6b babd c5fe dbbb
000001c0: 4692 a23d 1e1e 9a3d 645a febd b1b0 123e
000001d0: 2a8f 42bd fe65 253e b06b 923d e528 be3c
000001e0: 79b6 a3bb 7bb8 0abe 6940 4ebc e9ca 323e
000001f0: bbd2 133e 89ff 00be 4455 c93d 41c8 76bb
00000200: 6e89 223e 9360 85bd 57f8 e93d cd75 d93d
00000210: 2a17 d5bd a1fe 143e f6e1 d33c 74f4 813c
00000220: cdf3 b83d cc34 f03b f77b e0bd aac2 023e
00000230: 7a59 903c 9395 21be de6f 94bd 3d8b 433d
00000240: 4927 d33d 16f5 d3bd bc39 2bbd 4ab5 3f3c
00000250: 0ec4 843d 0851 12be 93ac 313d a18f f33d
00000260: 3ad1 5e3d af96 96bd 5020 cebd 8088 733d
00000270: 1a48 a0bc 8017 21be d916 f33d 2cf0 713d
00000280: ccc9 97bc a805 c4ba 6277 553c fd10 593a
00000290: 4a39 003d c723 c9bd 8ebf 6e3d 2200 eebd
000002a0: 5d94 813d e0ae 743d dc01 0d3d d0c6 4b3c
000002b0: e549 bd3d 0965 7cbd 0551 bebd 5b44 4ebe
000002c0: 64f3 97bd b864 b6bd cdf2 783e a76c 2e3b
000002d0: ef0b 13be 119c 273e ec6f fabd 1aa3 15be
000002e0: f191 e8bc d8cc c7bd f52a 333e e8c4 d83d
000002f0: fa25 2b3e b1a1 95bd bc49 18be b7cf 573d
00000300: 1b3f e13d b9af db3d 1fb0 b5bd 95e5 d73d
00000310: 670d f43d ac27 383e f00c 1bbe c7bb b93c
00000320: c77c e13c 7193 2f3d 43ba 793d ebb7 b23d
00000330: f9f1 9dbd 76dc 37bd 7ad4 02be 5ac8 3dbc
00000340: 078b 7b3d 4c06 cdbd 100a 8abc 0c65 e5bd
00000350: 7c2f 5bbc 50d7 d9bc 782b 873c 131c f53d
00000360: b39e 1fbe b979 1bbd e570 b6bd 5a92 26be
00000370: bc97 26be 979b 463e dab6 c6bd 7368 10be
00000380: f994 613d 5347 f7bd 859d 253c a10a 88bc
00000390: 6da1 f03d 8bae 0abe 7e8c 15bd b200 22be
000003a0: f6ae 673c fc49 de3b ee2f b13d 2a90 dfbd
000003b0: dd97 af3c dee6 063e 8347 c7bd d4d8 103e
000003c0: e9a7 023e c925 1c3b d284 b9bd 5e1d 8bbd
000003d0: 273e 12be a9a8 0fbd 872b 1e3e 36b4 ea3d
000003e0: 2423 f6ba 726f bcbd 870e f1bc 9575 21be
000003f0: 2209 fc3c d82b 1bbc 8c31 adbc 87b6 aabd

model.transforms.0.encoder.noise_dist.transforms.0.ar_net.lstm.bias_ih_l0 f4 [128]
0.18428999 -0.1368593 -0.02281899 -0.13618124 0.092156924 -0.033228163 0.07108069 -0.009511899
-0.008269659 -0.020678386 0.063890524 -0.019608691 -0.020976223 -0.07554599 0.17272267 0.1482039
0.113480605 0.13588573 0.07438118 -0.078850605 -0.08897618 0.11382608 0.1728143 -0.022051882
-0.12732449 0.17953163 0.15102153 -0.06867699 0.014787103 -0.14240465 0.08160236 -0.17073199
-0.14012863 0.12431798 0.188244 0.07468704 0.0294706 -0.07041549 -0.13646485 -0.15272588
0.04668564 -0.0026528577 -0.11984645 0.15153942 0.050800323 0.04970344 0.039745484 -0.11177184
-0.146301 0.028370643 -0.18937396 0.114251465 0.09801293 -0.12970468 0.14216623 -0.013940113
0.008224628 0.03588491 0.02392408 0.07293711 -0.034862205 -0.041569777 0.16923304 -0.13938373
-0.0508602 0.08054782 -0.0880177 0.07096219 -0.0023914308 -0.00070080487 0.11405697 -0.06022309
-0.06884998 0.15251125 -0.18186176 -0.15923236 0.056036554 0.12069744 0.09484732 -0.03801474
0.031906947 0.14657204 -0.010227787 -0.03422162 0.06979792 0.14130352 -0.16607344 -0.13808468
0.08669765 -0.06984199 0.09987828 0.031679954 -0.029387066 0.11462029 -0.011290203 -0.035932157
-0.005303377 0.11917512 0.113526054 -0.048047576 0.119567275 -0.12589902 0.026099779 0.015325695
-0.0994238 0.057485975 0.0023418874 -0.05982002 0.15448737 0.10225982 0.1321471 -0.17750148
0.13055332 0.18193431 -0.11873466 0.10193886 0.03626435 -0.015043444 -0.1369743 -0.07111755
-0.025767155 -0.052085526 -0.15377489 -0.021901146 0.0625467 0.011197746 -0.09651894 -0.00064968446
00000000: 84b6 3c3e d824 0cbe e4ee babc 1873 0bbe
00000010: c5bc bc3d 411a 08bd c192 913d ccd7 1bbc
00000020: 777d 07bc b865 a9bc 09d9 823d 68a2 a0bc
00000030: 54d6 abbc dbb7 9abd 36de 303e c3c2 173e
00000040: 8568 e83d a125 0b3e 2955 983d 6d7c a1bd
00000050: 2539 b6bd a61d e93d 3bf6 303e 26a6 b4bc
00000060: 5a61 02be 24d7 373e 63a5 1a3e 86a6 8cbd
00000070: 9b45 723c 86d2 11be 231f a73d 5ed4 2ebe
00000080: e17d 0fbe 6d9a fe3d 09c3 403e 85f5 983d
00000090: 546c f13c ff35 90bd 71bd 0bbe 2c64 1cbe
000000a0: 7139 3f3d 91db 2dbb 0e72 f5bd 262d 1b3e
000000b0: 0014 503d d695 4b3d 29cc 223d a2e8 e4bd
000000c0: eecf 15be 8d69 e83c 3feb 41be acfc e93d
000000d0: 01bb c83d 4ed1 04be 0694 113e 1265 64bc
000000e0: 97c0 063c 0efc 123d 6ffc c33c 0d60 953d
000000f0: accb 0ebd 1245 2abd 6d4b 2d3e 9cba 0ebe
00000100: c952 50bd 41f6 a43d a042 b4bd a054 913d
00000110: 8db9 1cbb 38b6 37ba b396 e93d 7dac 76bd
00000120: 3801 8dbd e92b 1c3e f839 3abe cf0d 23be
00000130: 9686 653d 3830 f73d 503f c23d 58b5 1bbd
00000140: dcb0 023d fb16 163e 7392 27bc f82b 0cbd
00000150: 36f2 8e3d dfb1 103e 280f 2abe 1266 0dbe
00000160: 8a8e b13d 5109 8fbd fc8c cc3d d7c2 013d
00000170: 25bd f0bc 0bbe ea3d 8bfa 38bc 992d 13bd
00000180: f3c7 adbb 1612 f43d 5980 e83d 89cd 44bd
00000190: b0df f43d aceb 00be 34cf d53c a018 7b3c
000001a0: b59e cbbd 6a76 6b3d 5a7a 193b d605 75bd
000001b0: f031 1e3e 996d d13d 9251 073e f3c2 35be
000001c0: c5af 053e fd4c 3a3e 282b f3bd 52c5 d03d
000001d0: ed89 143d c778 76bc fe42 0cbe 14a6 91bd
000001e0: a415 d3bc a257 55bd 2a77 1dbe 086a b3bc
000001f0: 7c18 803d c076 373c b9ab c5bd 964f 2aba

model.transforms.0.encoder.noise_dist.transforms.0.ar_net.lstm.bias_hh_l0 f4 [128]
-0.055927657 0.05326315 -0.011758429 0.08914683 -0.06416431 0.17068957 -0.15171316 -0.055686306
-0.08983012 0.17950512 0.098591745 -0.10626248 0.032447107 0.03799734 -0.08422052 0.0031929223
-0.04115846 -0.082123354 -0.057316195 0.175408 -0.052733496 -0.05594277 0.0957126 -0.17207058
0.14404522 0.021324672 0.14538494 0.12620826 0.06922768 0.1409555 0.076300725 -0.03108382
0.08589789 -0.1600594 0.13862175 0.1297891 0.1801906 0.05771124 0.06615615 0.18431146
0.0057064877 0.07104753 0.14223294 -0.16719396 -0.095133506 0.05528952 0.037428044 -0.06873544
-0.0023924066 -0.015374754 -0.06010519 0.16548137 0.07727447 -0.16274433 -0.13610293 0.12170291
-0.16043358 -0.07998044 0.012824894 -0.03569696 0.12923309 0.12270417 0.1562958 0.04568535
-0.15690722 0.1313729 0.15354685 -0.071260616 -0.062492713 -0.055192005 0.11097502 0.09904109
0.13373773 0.10631288 -0.08592132 -0.15384768 0.070827 0.12823313 -0.13024208 0.017571753
-0.17843187 -0.06068933 -0.13430014 -0.036987007 -0.020971576 -0.06205311 -0.0045366054 -0.14798604
0.09236086 0.030327035 0.0883904 -0.17050837 0.13642602 0.16844493 -0.11344531 0.12085198
0.16813844 -0.17939483 0.123008244 -0.07422703 -0.055843905 -0.06023651 -0.02367725 -0.06856205
-0.074582726 -0.06637712 -0.007135048 -0.08663892 -0.0061053014 -0.061125748 -0.029096179 0.12251136
-0.16461058 0.011048619 0.083062135 0.1301043 -0.04956431 0.032586507 -0.021478923 0.1187791
-0.023371598 0.10410953 0.1513568 -0.0579476 -0.07510096 -0.12144311 -0.046888538 0.10892831
00000000: 6614 65bd 762a 5a3d 6da6 40bc 9d92 b63d
00000010: 9468 83bd 3fc9 2e3e b25a 1bbe 5317 64bd
00000020: dbf8 b7bd 31d0 373e 78ea c93d 25a0 d9bd
00000030: 42e7 043d 19a3 1b3d cf7b acbd 5940 513b
00000040: c695 28bd 4a30 a8bd 63c4 6abd 289e 333e
00000050: 14ff 57bd 3f24 65bd f804 c43d 4533 30be
00000060: 9780 133e 14b1 ae3c cadf 143e bd3c 013e
00000070: 3ec7 8d3d a356 103e 8e43 9c3d 7fa3 febc
00000080: 3ceb af3d 9de6 23be dcf2 0d3e 6fe7 043e
00000090: e283 383e 9f62 6c3d e07c 873d 25bc 3c3e
000000a0: 7dfd ba3b 5e81 913d 83a5 113e e534 2bbe
000000b0: 5bd5 c2bd 4477 623d 264e 193d 2bc5 8cbd
000000c0: ecc9 1cbb 64e6 7bbc dc30 76bd f373 293e
000000d0: 1442 9e3d 73a6 26be 915e 0bbe 603f f93d
000000e0: b348 24be c9cc a3bd 811f 523c fa36 12bd
000000f0: ae55 043e 534c fb3d 020c 203e 9020 3b3d
00000100: 49ac 20be 9e86 063e 633b 1d3e 16f1 91bd
00000110: 5cf8 7fbd 0311 62bd df46 e33d 0ed6 ca3d
00000120: 8bf2 083e 91ba d93d 84f7 afbd 3f8a 1dbe
00000130: bf0d 913d 8c4f 033e 2e5e 05be a3f2 8f3c
00000140: d8b6 36be 6095 78bd fa85 09be b07f 17bd
00000150: 95cc abbc 672b 7ebd cea7 94bb a789 17be
00000160: b127 bd3d 6770 f83c 0706 b53d bf99 2ebe
00000170: 43b3 0b3e d47c 2c3e 0456 e8bd 3e81 f73d
00000180: 7c2c 2c3e 47b3 37be bfeb fb3d 5704 98bd
00000190: 94bc 64bd 8fba 76bd cbf6 c1bc 436a 8cbd
000001a0: d4be 98bd baf0 87bd 1fcd e9bb bf6f b1bd
000001b0: fb0e c8bb fe5e 7abd 1c5b eebc 3ce7 fa3d
000001c0: ad8f 28be 4405 353c 7b1c aa3d 103a 053e
000001d0: f203 4bbd 6e79 053d 91f4 afbc 7542 f33d
000001e0: cb75 bfbc 6137 d53d 47fd 1a3e 765a 6dbd
000001f0: 88ce 99bd 2ab7 f8bd 320e 40bd ce15 df3d

model.transforms.0.encoder.noise_dist.transforms.0.ar_net.lstm.weight_ih_l1 f4 [128, 32]
0.13830118 -0.14533767 0.05102026 0.0023492093 0.024381379 -0.1662566 -0.12026429 0.11004578
0.046302836 -0.16063595 0.1673896 0.052835684 0.15893374 -0.0052621537 0.12918094 -0.05571514
-0.1241671 0.0071984273 0.14377902 0.05986194 0.13702694 0.114865646 -0.16002943 0.08684987
0.10902272 0.08642867 -0.173875 -0.041091993 0.10102413 0.15913016 -0.06584613 0.114377335
-0.015083932 0.07583458 -0.15783547 -0.09734176 -0.07992932 -0.09599152 0.027393172 0.04304286
-0.01568096 0.01529973 0.15281259 -0.1791373 0.13480543 0.15515333 0.14652593 0.15344967
0.15895088 0.10830399 0.11294631 -0.08185804 -0.068448596 0.058916464 -0.035430554 0.05502002
0.06874763 0.074761 0.021751363 0.030415937 0.03435096 0.062022842 0.11053938 -0.07341909
0.14014351 0.020682758 0.16061799 -0.08646453 -0.14698207 0.07088548 -0.121192425 0.11769406
0.11730555 0.0579314 -0.0039292485 -0.02542438 0.099167965 0.09711708 0.048430793 -0.053541526
-0.009032444 -0.061522063 0.024148228 0.057694085 0.122050904 -0.06269166 0.05352189 -0.12505017
-0.1025387 0.15441623 -0.12567747 0.014575392 -0.08282441 0.044239722 0.035166085 -0.021655392
-0.17011039 0.11790615 0.00096244743 0.047050256 0.09470029 0.08153304 -0.035195142 0.047281288
-0.04689165 -0.16974537 0.13367784 0.13452096 -0.057700202 0.17022985 -0.0989723 0.08020323
-0.04888155 0.10234184 0.098475486 -0.18410131 -0.1254416 0.00022002823 0.04500197 -0.06041579
-0.14917322 -0.14136112 0.12562975 -0.05392334 0.08459051 0.04658241 0.04678194 0.15785757
-0.07944069 0.038269017 0.050816808 0.058711924 -0.08024375 -0.061300233 0.024395796 0.16257823
0.08153536 0.017339822 -0.040150516 -0.109981686 0.003727415 -0.10085612 0.068884574 0.028393017
-0.09262177 0.19750758 0.075552315 0.08643819 0.17663875 -0.1002122 0.10144893 0.006359777
-0.00842251 0.038937572 0.08447592 -0.16896199 0.04525457 0.03949476 0.042271435 0.067891434
0.07081349 0.01304357 -0.16308726 -0.15700376 0.10682854 0.04535615 -0.1489257 0.006444542
0.06469809 -0.16104679 0.10249534 0.08228762 -0.092908636 -0.13602826 0.16008684 -0.16928755
-0.10457372 -0.09373679 0.079167806 -0.12926921 -0.035763822 -0.14261985 -0.010299329 0.14079724
-0.019292308 0.13191724 0.11384305 0.006953294 -0.07721287 -0.04990204 0.12354085 0.11117204
0.04229365 -0.023236923 0.10376396 -0.13866578 -0.20624045 0.16829653 -0.21873452 -0.08318389
0.100623414 0.034709945 -0.12167856 -0.1495277 0.0064530903 0.15048483 0.051525466 0.14463376
0.16564396 -0.038093228 -0.11578106 0.035580214 0.13756418 -0.13851674 0.00992502 0.04584113
0.019709451 -0.16354214 -0.036614034 -0.16444042 0.16673721 0.1707002 -0.19148904 -0.095587656
0.021890668 0.08381308 -0.15762994 -0.13852459 0.005924081 -0.0029392624 -0.049935587 0.038574032
0.08411156 -0.062347386 0.066760555 0.1603101 -0.038764685 -0.08947834 -0.0070831785 0.15148753
0.122495264 0.07901733 -0.00612395 -0.02617254 -0.12899242 -0.14052592 0.114231884 -0.118892096
-0.036837567 0.054590363 0.04941606 0.05503554 0.024588728 -0.01622134 -0.084573075 -0.07340723
00000000: d39e 0d3e 66d3 14be 9ffa 503d 31f5 193b
00000010: 75bb c73c 2c3f 2abe 204d f6bd af5f e13d
00000020: 0ba8 3d3d c07d 24be 2e68 2b3e 3b6a 583d
00000030: 87bf 223e 256e acbb 0248 043e 8f35 64bd
00000040: 524b febd c9e0 eb3b cf3a 133e cb31 753d
00000050: ca50 0c3e ae3e eb3d c1de 23be 58de b13d
00000060: 4e47 df3d 8401 b13d 4a0c 32be 1450 28bd
00000070: bde5 ce3d 04f3 223e 56da 86bd aa3e ea3d
00000080: 9922 77bc 294f 9b3d 9f9f 21be 1e5b c7bd
00000090: fcb1 a3bd 3497 c4bd a567 e03c b64d 303d
000000a0: 5b75 80bc b8ab 7a3c e77a 1c3e c56f 37be
000000b0: 6f0a 0a3e 84e0 1e3e e50a 163e e921 1d3e
000000c0: 05c4 223e 7bce dd3d 6550 e73d 30a5 a7bd
000000d0: c72e 8cbd 6452 713d a11f 11bd ac5c 613d
000000e0: 8fcb 8c3d 4c1c 993d ea2f b23c d82a f93c
000000f0: 98b3 0c3d aa0b 7e3d 7862 e23d bf5c 96bd
00000100: c881 0f3e e36e a93c 0b79 243e 5114 b1bd
00000110: 7882 16be 682c 913d bc33 f8bd 9509 f13d
00000120: e43d f03d 7a49 6d3d edc0 80bb ca46 d0bc
00000130: 9318 cb3d 52e5 c63d 5e5f 463d 5c4e 5bbd
00000140: d1fc 13bc 8ffe 7bbd 81d2 c53c a250 6c3d
00000150: d3f5 f93d 7c64 80bd c539 5b3d 270d 00be
00000160: cfff d1bd 4a1f 1e3e 98b1 00be a0cd 6e3c
00000170: d89f a9bd b634 353d 500a 103d a666 b1bc
00000180: 6b31 2ebe c878 f13d c14c 7c3a c5b7 403d
00000190: 3af2 c13d cbfa a63d c828 10bd 06aa 413d
000001a0: 7511 40bd bbd1 2dbe d8e2 083e ddbf 093e
000001b0: 0c57 6cbd bc50 2e3e fdb1 cabd 9741 a43d
000001c0: 0538 48bd 9998 d13d 84ad c93d 0e85 3cbe
000001d0: c373 00be 61b7 6639 fc53 383d 8c76 77bd
000001e0: ddc0 18be f8c0 10be 16a5 003e b8de 5cbd
000001f0: ca3d ad3d 32cd 3e3d 6b9e 3f3d 6aa5 213e
00000200: cdb1 a2bd f9bf 1c3d 4925 503d ea7b 703d
00000210: d656 a4bd f415 7bbd b1d9 c73c e87a 263e
00000220: 03fc a63d 3e0c 8e3c de74 24bd 143e e1bd
00000230: a647 743b a78d cebd 5b13 8d3d 7998 e83c
00000240: 7cb0 bdbd 6d3f 4a3e 2cbb 9a3d 8106 b13d
00000250: cae0 343e 0e3c cdbd 75c4 cf3d ad65 d03b
00000260: 91fe 09bc 017d 1f3d b601 ad3d 5f04 2dbe
00000270: db5c 393d 42c5 213d d024 2d3d aa0a 8b3d
00000280: aa06 913d b3b4 553c 5900 27be 98c5 20be
00000290: ecc8 da3d 5fc7 393d fb7f 18be bd2c d33b
000002a0: 6f80 843d 73e9 24be 14e9 d13d 6986 a83d
000002b0: e246 bebd fe4a 0bbe ceed 233e b759 2dbe
000002c0: bf2a d6bd 13f9 bfbd bb22 a23d 265f 04be
000002d0: 167d 12bd f00a 12be 84be 28bc 272d 103e
000002e0: e70a 9ebc 5015 073e 8c26 e93d 75d8 e33b
000002f0: c821 9ebd 1566 4cbd fc02 fd3d 2bae e33d
00000300: 1b3c 2d3d 5c5b bebc 3382 d43d 67fe 0dbe
00000310: b230 53be ed55 2c3e f1fb 5fbe 515c aabd
00000320: a613 ce3d 042c 0e3d 9c32 f9bd ca1d 19be
00000330: 7274 d33b b218 1a3e 5e0c 533d df1a 143e
00000340: 929e 293e a507 1cbd 9f1e edbd 8fbc 113d
00000350: a0dd 0c3e 55d7 0dbe 8d9c 223c e9c3 3b3d
00000360: b775 a13c 9777 27be 99f8 15bd 1263 28be
00000370: 29bd 2a3e 09cc 2e3e b415 44be 76c3 c3bd
00000380: 0f54 b33c 31a6 ab3d be69 21be 64d9 0dbe
00000390: cb1e c23b a4a0 40bb 4289 4cbd ceff 1d3d
000003a0: ae42 ac3d f95f 7fbd c2b9 883d 5528 243e
000003b0: b8c7 1ebd 6c40 b7bd 021a e8bb 8c1f 1b3e
000003c0: ccde fa3d d7d3 a13d 6aab c8bb cb67 d6bc
000003d0: 9716 04be 07e6 0fbe 68f2 e93d b37d f3bd
000003e0: fde2 16bd 259a 5f3d 7f68 4a3d f26c 613d
000003f0: 4d6e c93c 9ee2 84bc a634 adbd 8856 96bd

model.transforms.0.encoder.noise_dist.transforms.0.ar_net.lstm.weight_hh_l1 f4 [128, 32]
0.16749501 0.05315163 0.1667417 0.1689923 0.11541524 0.16347237 -0.087645605 -0.065228775
0.050454207 0.14619705 0.14123902 -0.11422593 0.030060511 0.028766971 0.08042347 -0.09720781
-0.048480067 -0.0699287 0.10098273 -0.07801716 0.13698672 -0.009504009 0.18555257 0.09916991
-0.009329348 0.048485324 -0.042587675 0.07505295 0.05585909 0.1048751 0.095606506 -0.029249297
-0.12330659 -0.106051676 -0.093639694 -0.108153604 0.071003534 0.029786294 -0.01040162 0.029047066
0.041117746 0.12396388 0.09278822 -0.12836899 0.021624826 0.12227313 -0.08758592 0.1567222
-0.15591091 -0.14302017 -0.10804363 -0.07441748 -0.17745453 0.07243133 -0.053060442 -0.003312921
0.09993551 -0.17069392 0.15864171 -0.010757336 -0.06866438 0.13360576 -0.16558109 0.0058811177
-0.1679963 0.14664455 -0.019068817 -0.07596364 -0.056701314 0.13423795 -0.031294752 0.12178494
0.08002746 -0.2083043 -0.19764495 0.109515406 -0.12338327 0.18564472 0.021933226 0.12386839
-0.17846166 -0.15788834 -0.04941522 0.060952052 -0.022792596 0.048913322 -0.16103187 0.095065504
0.056293633 0.026761936 0.031303503 0.0027777893 -0.0029233333 0.017548835 -0.14589058 0.11921238
-0.1856011 -0.08639698 0.029068781 -0.116407014 0.20164971 -0.10972049 0.07594593 0.04738266
0.13938653 -0.13392681 -0.10101101 0.037306063 0.07638328 -0.047195308 0.15037513 0.0014865743
0.19272713 0.090824865 -0.14794026 0.06546648 -0.08729708 0.0038408122 0.07995312 0.17117105
-0.026735319 -0.10835855 -0.08154218 -0.0554127 -0.14287259 -0.017908363 0.13599373 -0.026302738
0.042447854 -0.2114011 0.02185001 0.035551794 0.23645368 -0.013918149 0.14360894 0.0190495
-0.13092266 0.2218318 -0.06745886 -0.14271915 -0.07897686 -0.06197023 0.033441458 -0.10091425
0.077260695 0.1996275 0.07148451 -0.019682417 0.056544837 -0.10049802 -0.09893313 -0.12921625
0.053093296 0.00047283343 -0.06947633 -0.09217185 0.21731679 0.25378746 0.08718615 0.07198801
-0.13803324 0.1511886 -0.032519523 0.18672682 0.04345571 0.06926549 -0.031874858 0.09398236
0.0333364 0.06556195 0.17721313 -0.0039430405 0.14946763 -0.105767794 0.047655903 0.023960264
0.121101886 -0.07291976 -0.18212838 0.08312553 -0.014026001 0.17745957 0.15377814 0.1315744
-0.17433526 0.14249136 -0.13234037 0.10504586 -0.04702717 0.14312091 0.15527976 0.11841522
0.064528726 -0.0030746358 0.019915944 0.17578286 -0.12242769 -0.18521021 0.09230904 0.063557446
-0.11729012 0.08543074 0.08458515 0.08561687 -0.08588176 -0.15513599 0.057444356 -0.105638266
0.1613875 -0.008721583 -0.08851194 0.18472226 0.0683408 -0.06477395 -0.16547394 0.012449397
-0.08882092 0.072666414 0.12693793 0.008002967 0.02432709 -0.11132494 -0.07459424 -0.15932336
0.050678566 0.12485952 -0.13097306 0.019846033 -0.013278377 -0.0973396 0.099373154 0.1675644
-0.16342351 -0.054790672 0.019789146 0.11788481 0.06297681 0.13191599 -0.15954404 -0.0677304
-0.07146297 -0.1192067 0.11226196 0.004921594 -0.074729644 0.08992635 0.06959305 -0.08892286
-0.14671372 -0.04096385 -0.03506455 0.06867813 0.005462688 -0.015305665 0.018522684 0.13295683
00000000: d083 2b3e 86b5 593d 56be 2a3e 510c 2d3e
00000010: d35e ec3d 4d65 273e 8a7f b3bd aa96 85bd
00000020: 12a9 4e3d aeb4 153e f6a0 103e 49ef e9bd
00000030: 7641 f63c b6a8 eb3c 0fb5 a43d e314 c7bd
00000040: 0993 46bd c736 8fbd 09d0 ce3d 76c7 9fbd
00000050: 3f46 0c3e b4b6 1bbc 7e01 3e3e 9819 cb3d
00000060: 1fda 18bc 8c98 463d 6a70 2ebd 5cb5 993d
00000070: 80cc 643d c2c8 d63d 58cd c33d 399c efbc
00000080: 2a88 fcbd 9f31 d9bd 2bc6 bfbd a37f ddbd
00000090: 4d6a 913d 6302 f43c 8e6b 2abc 1df4 ed3c
000000a0: 156b 283d c6e0 fd3d c007 be3d 2973 03be
000000b0: 8c26 b13c 566a fa3d 3f60 b3bd c97b 203e
000000c0: 1ca7 1fbe e173 12be fb45 ddbd 3168 98bd
000000d0: a4b6 35be e156 943d e855 59bd 971d 59bb
000000e0: fdaa cc3d 63ca 2ebe f972 223e 8a3f 30bc
000000f0: e99f 8cbd f3cf 083e 178e 29be 64b6 c03b
00000100: 3907 2cbe fd29 163e 3536 9cbc d392 9bbd
00000110: a33f 68bd ac75 093e ed2e 00bd 626a f93d
00000120: 70e5 a33d b94d 55be 7063 4abe 9d49 e03d
00000130: 5eb0 fcbd a619 3e3e 4fad b33c b6ae fd3d
00000140: a7be 36be 7bad 21be 9d67 4abd dca8 793d
00000150: 8ab7 babc 5659 483d 8ae5 24be b4b1 c23d
00000160: 2794 663d d93b db3c 1a38 003d 920b 363b
00000170: 6595 3fbb 93c2 8f3c 5764 15be 9f25 f43d
00000180: 370e 3ebe e6f0 b0bd a721 ee3c cd66 eebd
00000190: 437d 4e3e 23b5 e0bd 8a89 9b3d 5214 423d
000001a0: 58bb 0e3e 1c24 09be dcde cebd 3ece 183d
000001b0: d66e 9c3d de4f 41bd f0fb 193e 28d9 c23a
000001c0: 435a 453e 6302 ba3d a77d 17be 4a13 863d
000001d0: d0c8 b2bd 23b6 7b3b 76be a33d 7747 2f3e
000001e0: 0704 dbbc 16eb ddbd 96ff a6bd 6df8 62bd
000001f0: 314d 12be 8fb4 92bc f141 0b3e d778 d7bc
00000200: cddd 2d3d 8879 58be cbfe b23c c29e 113d
00000210: ea20 723e f308 64bc 390e 133e b20d 9c3c
00000220: 9710 06be e027 633e df27 8abd f824 12be
00000230: 9fbe a1bd 7fd4 7dbd e9f9 083d 21ac cebd
00000240: db3a 9e3d 276b 4c3e 7966 923d 053d a1bc
00000250: 8f9b 673d e8d1 cdbd 749d cabd 4451 04be
00000260: 5b78 593d a1e6 f739 9b49 8ebd 98c4 bcbd
00000270: 4b88 5e3e 6ef0 813e a78e b23d 736e 933d
00000280: 9658 0dbe 2fd1 1a3e 3133 05bd 5135 3f3e
00000290: 9dfe 313d 11db 8d3d 368f 02bd d379 c03d
000002a0: c08b 083d 5845 863d 5c77 353e 9f34 81bb
000002b0: 0b0e 193e c99c d8bd d632 433d 5148 c43c
000002c0: 4404 f83d f556 95bd dd7f 3abe b83d aa3d
000002d0: 50cd 65bc f6b7 353e 0478 1d3e 71bb 063e
000002e0: f184 32be 41e9 113e 3c84 07be 4922 d73d
000002f0: 909f 40bd 4a8e 123e a801 1f3e ae83 f23d
00000300: a327 843d d47f 49bb c326 a33c 6c00 343e
00000310: 5ebb fabd bfa7 3dbe 860c bd3d 682a 823d
00000320: cd35 f0bd 50f6 ae3d fb3a ad3d e657 af3d
00000330: c7e2 afbd f8db 1ebe c64a 6b3d e058 d8bd
00000340: c442 253e f8e4 0ebc bf45 b5bd d527 3d3e
00000350: 43f6 8b3d 34a8 84bd 0072 29be 8ef8 4b3c
00000360: bee7 b5bd 21d2 943d 04fc 013e e01e 033c
00000370: 9b49 c73c 55fe e3bd ddc4 98bd aa25 23be
00000380: 5494 4f3d 59b6 ff3d cd1d 06be 2694 a23c
00000390: 8d8d 59bc fc59 c7bd 2784 cb3d 0196 2b3e
000003a0: 7e58 27be 2f6c 60bd d91c a23c 976d f13d
000003b0: fcf9 803d fc14 073e 835f 23be 3cb6 8abd
000003c0: 2d5b 92bd a422 f4bd 99e9 e53d 5345 a13b
000003d0: db0b 99bd 4e2b b83d cd86 8e3d 301d b6bd
000003e0: 1f3c 16be b6c9 27bd d89f 0fbd 1fa7 8c3d
000003f0: 5900 b33b 9dc4 7abc e2bc 973c d625 083e

model.transforms.0.encoder.noise_dist.transforms.0.ar_net.lstm.bias_ih_l1 f4 [128]
-0.10382967 0.00939645 0.02528966 0.122662276 0.008462745 -0.011094312 -0.030066367 0.069999635
-0.04136699 0.1709639 -0.035060257 0.13976812 0.16026397 -0.0933789 -0.1318981 -0.09071963
0.13207524 0.1591101 0.03399715 -0.09533575 0.11537275 0.097375065 0.17675306 -0.079228684
0.15015738 0.18277831 0.17719413 0.05163308 -0.18102112 -0.10911461 0.010514564 0.043198444
0.15580568 0.08868994 -0.10382713 -0.014811997 0.072742105 -0.06842993 0.16864443 -0.13716908
-0.065135896 -0.13874017 0.016428689 -0.04822056 0.044529866 0.09295078 0.14981528 -0.007059138
0.12210876 0.1806775 0.08437482 -0.027524356 -0.08234519 0.006019581 -0.07828031 0.1481336
-0.029214568 0.088658184 -0.07184649 0.19234867 0.02232488 -0.09242702 -0.07423065 0.066628955
-0.15466987 0.01633955 0.04675912 0.11259201 0.12551786 -0.010841198 -0.111615494 0.14868923
-0.1656037 0.013065515 0.02338362 0.1271763 0.006313477 0.044133976 -0.12800613 -0.12423268
0.04079359 -0.01046935 0.123731904 0.002873226 0.09794291 0.16344939 -0.07817817 0.0085096825
0.11386168 -0.106444664 0.11158558 -0.16577017 0.123985134 0.09396783 0.17012858 -0.014304729
-0.034103762 0.030807042 0.030133622 0.15480158 0.1472496 -0.08313979 0.060362708 -0.053539947
0.10404419 -0.029302288 -0.029182557 -0.089656286 -0.05710247 -0.06835832 -0.075079344 -0.039147533
0.07678913 0.14110868 -0.08709808 -0.09280043 0.08651655 -0.01892264 -0.022618884 -0.095903434
-0.12222677 0.05466426 -0.072636776 0.12752444 0.1501755 0.14696546 -0.14003877 0.083599724
00000000: a6a4 d4bd 91f3 193c 432c cf3c 5c36 fb3d
00000010: 53a7 0a3c ebc4 35bc be4d f6bc f85b 8f3d
00000020: 6f70 29bd 2911 2f3e 589b 0fbd 601f 0f3e
00000030: 3d1c 243e 703d bfbd 4c10 07be 37cb b9bd
00000040: bb3e 073e c2ed 223e 9840 0b3d 643f c3bd
00000050: 8c48 ec3d 946c c73d c1fe 343e a642 a2bd
00000060: dbc2 193e 3d2a 3b3e 6172 353e 357d 533d
00000070: 9a5d 39be 7b77 dfbd 4745 2c3c daf0 303d
00000080: 868b 1f3e 12a3 b53d 51a3 d4bd 05ae 72bc
00000090: d0f9 943d fe24 8cbd 20b1 2c3e 0d76 0cbe
000000a0: f865 85bd e711 0ebe 7595 863c ec82 45bd
000000b0: f364 363d fb5c be3d 2d69 193e 5750 e7bb
000000c0: 2814 fa3d 8603 393e b5cc ac3d c27a e1bc
000000d0: 98a4 a8bd e83f c53b 6d51 a0bd 56b0 173e
000000e0: 6453 efbc 6c92 b53d 4124 93bd 0df7 443e
000000f0: abe2 b63c 614a bdbd 3d06 98bd c374 883d
00000100: c761 1ebe 85da 853c 7e86 3f3d a496 e63d
00000110: c187 003e 489f 31bc aa96 e4bd fd41 183e
00000120: 0494 29be be10 563c 018f bf3c 813a 023e
00000130: 49e1 ce3b d4c5 343d 0a14 03be b46d febd
00000140: 2e17 273d a387 2bbc 2767 fd3d bc4c 3c3b
00000150: 4b96 c83d 475f 273e e01b a0bd 326c 0b3c
00000160: 5030 e93d a9ff d9bd fb86 e43d a8bf 29be
00000170: ebeb fd3d 3572 c03d 3036 2e3e 625e 6abc
00000180: 63b0 0bbd 0d5f fc3c c9da f63c 4e84 1e3e
00000190: 99c8 163e 3245 aabd e33e 773d b44c 5bbd
000001a0: 1f15 d53d 5a0b f0bc 4210 efbc b79d b7bd
000001b0: 48e4 69bd 72ff 8bbd 33c3 99bd 2a59 20bd
000001c0: 9f43 9d3d cb7e 103e 7a60 b2bd 270e bebd
000001d0: 972f b13d a703 9bbc 3d4b b9bc 0569 c4bd
000001e0: 0752 fabd a2e7 5f3d 97c2 94bd c495 023e
000001f0: 9bc7 193e 1d7e 163e 5366 0fbe 5536 ab3d

model.transforms.0.encoder.noise_dist.transforms.0.ar_net.lstm.bias_hh_l1 f4 [128]
-0.09210174 0.14047883 -0.115671605 -0.009907206 0.15839502 0.049400143 -0.13710214 -0.10986189
0.08102204 0.012303787 -0.04395825 0.06255568 -0.121531956 -0.020394657 0.08738039 -0.11775782
0.10368748 0.18993314 0.08940398 -0.084881544 -0.099634215 0.17645161 0.028402286 -0.13642985
-0.13984156 -0.0126776965 -0.07837527 -0.03960431 -0.049253628 0.13161545 -0.12952486 0.21462017
0.060056303 0.16227593 0.0169163 -0.13105361 0.22273582 -0.003619659 -0.115877725 0.1272435
0.16191335 -0.1128233 0.15047292 -0.121461496 -0.14105937 -0.03296227 0.0065266923 0.07236589
0.104651645 -0.11423421 0.046393905 0.114628814 -0.07093168 0.13755715 0.10494816 -0.16015987
-0.02696127 0.06174221 0.06501323 -0.114212036 -0.16927207 0.15938826 0.052434888 0.012453246
-0.06759548 -0.1195547 0.14039768 0.14922264 -0.062109664 -0.1605602 -0.1605934 0.069341704
-0.044321164 -0.032362584 0.03868789 -0.17751427 -0.021134606 0.10452434 -0.118975915 0.14102432
0.033216134 0.09243662 -0.16401783 0.14551218 -0.092171006 0.062010888 -0.14675207 0.054826554
-0.07304191 -0.08954555 0.05829659 0.07284613 -0.039828684 -0.11109991 0.040452577 -0.113075905
0.100088604 -0.1240049 0.02770158 0.05187253 0.14340249 0.083445646 0.063048825 -0.12971331
-0.12003118 0.007774842 -0.032914586 -0.07913405 -0.15494122 -0.04156011 -0.06449102 -0.114299595
-0.11915282 0.06863322 0.1473139 -0.08029373 0.13442262 0.10914369 -0.006070858 0.039252196
0.11350395 -0.047640387 0.13802862 -0.124226905 0.037691683 -0.080277614 0.14776385 0.0995293
00000000: d69f bcbd afd9 0f3e 3ce5 ecbd d551 22bc
00000010: 4e32 223e ce57 4a3d 8164 0cbe 45ff e0bd
00000020: e2ee a53d d395 493c 910d 34bd 311d 803d
00000030: bfe5 f8bd b212 a7bc 7df4 b23d 032b f1bd
00000040: 1a5a d43d d57d 423e 6f19 b73d 60d6 adbd
00000050: 060d ccbd bbaf 343e e9ab e83c 44b4 0bbe
00000060: a032 0fbe 1db6 4fbc 3783 a0bd 2138 22bd
00000070: 2cbe 49bd 33c6 063e 2aa2 04be 64c5 5b3e
00000080: 99fd 753d a92b 263e 0d94 8a3c eb32 06be
00000090: dc14 643e cd37 6dbb 4d51 edbd 1f4c 023e
000000a0: 9dcc 253e e70f e7bd 9315 1a3e cec0 f8bd
000000b0: de71 10be 7203 07bd dddd d53b 9134 943d
000000c0: 9a53 d63d a0f3 e9bd 8907 3e3d 83c2 ea3d
000000d0: a144 91bd c8db 0c3e 10ef d63d f300 24be
000000e0: e2dd dcbc 66e5 7c3d a825 853d 00e8 e9bd
000000f0: a855 2dbe ad36 233e f7c5 563d b308 4c3c
00000100: 806f 8abd 18d9 f4bd 69c4 0f3e d2cd 183e
00000110: b466 7ebd e569 24be 9972 24be 0603 8e3d
00000120: 1c8a 35bd a18e 04bd 3177 1e3d 4dc6 35be
00000130: 7b22 adbc db10 d63d a5a9 f3bd ae68 103e
00000140: a40d 083d 694f bd3d 4af4 27be 2501 153e
00000150: 27c4 bcbd 21ff 7d3d 2d46 16be cf91 603d
00000160: ff96 95bd a863 b7bd 68c8 6e3d 5a30 953d
00000170: 6723 23bd 5a88 e3bd 9ab1 253d 5794 e7bd
00000180: 41fb cc3d 48f6 fdbd 6dee e23c 4a78 543d
00000190: 1ad8 123e 8de5 aa3d be1f 813d 91d3 04be
000001a0: e8d2 f5bd 1ac4 fe3b 72d1 06bd 0811 a2bd
000001b0: e9a8 1ebe ef3a 2abd de13 84bd e815 eabd
000001c0: 6506 f4bd 938f 8c3d 74d9 163e 0a71 a4bd
000001d0: 15a6 093e ba86 df3d 0cee c6bb e9c6 203d
000001e0: c274 e83d 9122 43bd 6057 0d3e ad6a febd
000001f0: 9862 1a3d 9768 a4bd 684f 173e 05d6 cb3d

model.transforms.0.encoder.noise_dist.transforms.0.ar_net.l_out.0.weight f4 [33, 32]
-0.16014704 0.1675689 0.010728341 0.019811729 -0.11497696 0.041871578 0.037403896 -0.12107143
-0.04670351 -0.099813126 -0.049418714 0.09746707 -0.16146724 0.16415386 -0.10058562 0.16493875
-0.032389686 -0.15075356 0.0068037724 0.03939946 0.07529191 -0.11243162 -0.06644157 0.15987614
0.020368988 0.1628288 -0.0127832815 -0.10775029 -0.08504994 -0.1557847 -0.15782961 -0.022935964
-0.04893169 -0.11050644 0.048851654 -0.09076044 0.1452175 -0.06052028 0.1252395 -0.0038185245
0.11947106 -0.14999811 -0.14572053 0.14321637 0.077221945 0.052460615 0.12812227 -0.111614965
0.11921974 -0.0094371475 0.0318216 -0.17451791 0.035994217 0.030693972 0.05473126 0.053588733
-0.04630725 0.1618669 0.09348617 -0.09798146 -0.024818592 0.10046523 -0.13603394 0.15175137
0.049983602 -0.18400747 0.093403995 -0.007669857 -0.034817863 -0.014159496 0.13895704 0.08845733
0.102789655 0.042570993 -0.17613739 -0.078508765 -0.14274482 -0.11718941 0.13965036 0.14096224
0.1123239 -0.058550153 -0.076717116 0.083902314 -0.0011005886 -0.10563663 0.13900214 0.18763785
-0.054463103 -0.11567061 0.04350548 0.028654099 -0.082451746 -0.010543049 0.06206059 0.079621285
-0.12375136 0.03754397 -0.13397194 0.17248169 0.15570627 -0.15572314 -0.020568246 0.00480825
-0.007875646 -0.12750226 -0.11464209 -0.1329688 -0.0677205 -0.12136344 -0.12976962 -0.064095825
0.003249704 -0.03529912 -0.01346852 -0.056226816 0.14915705 0.06506362 -0.0008806716 -0.08831088
0.01745361 -0.085827045 0.03714125 -0.025622563 -0.17815809 -0.08503598 0.11416695 0.06216212
-0.054462004 0.15131545 0.032312434 0.116364546 0.06565793 0.08788198 -0.041068263 -0.16650063
-0.034156304 0.067829676 -0.09855723 -0.097989835 0.022972478 0.076447114 -0.14478612 0.082959436
0.18726858 0.15370956 0.035772678 0.06105694 0.0025489924 0.030113164 0.08782487 0.01279205
-0.16916782 0.05257607 -0.011333369 -0.11303353 0.08877292 -0.08972954 0.09251071 -0.022605218
0.12122183 0.10059411 0.16926715 0.094666526 0.020202074 0.0753807 0.052193068 0.018236535
0.16007273 0.06394043 0.052663833 -0.04430701 -0.0448139 -0.14944379 0.16813247 -0.15623647
0.11561315 -0.027115922 0.029869342 -0.12963231 -0.115533836 0.074029244 -0.1363444 0.025677491
0.13108763 -0.027472923 -0.1104241 0.08903107 -0.07974568 -0.060790397 0.05972871 -0.12844194
-0.09938707 0.022244083 -0.1885388 -0.028736198 0.15631783 0.057025228 -0.15813278 0.0006354272
0.044858325 0.0022343523 -0.13206579 0.112786114 -0.017303249 0.12919661 0.1378229 0.1685696
-0.033366382 0.138957 -0.0744038 0.052413158 -0.019831926 0.009048829 0.14892136 0.095124274
-0.092047915 -0.16407423 0.009443915 0.16732645 0.14790545 -0.14037399 -0.005795952 -0.0117923515
0.08421718 0.007480986 -0.14658827 0.13677533 -0.068911046 -0.07417455 0.113448165 -0.14373045
-0.14652875 0.028819928 -0.1107272 -0.12267072 0.07969326 0.05324075 -0.004672759 0.07765623
-0.026721992 0.05087511 -0.107574485 0.05566759 -0.12913308 0.06343926 -0.18868977 -0.0747726
0.036506996 -0.043229416 -0.10720768 -0.04327949 -0.05964747 -0.10888264 0.10470876 -0.068274006
00000000: 96fd 23be 2f97 2b3e ecc5 2f3c 354c a23c
00000010: 0a79 ebbd 8881 2b3d d434 193d 4cf4 f7bd
00000020: 2e4c 3fbd d36a ccbd 476b 4abd d19c c73d
00000030: ab57 25be f317 283e d5ff cdbd b4e5 283e
00000040: 0cab 04bd 245f 1abe 2ef2 de3b 5461 213d
00000050: a532 9a3d 8d42 e6bd 8512 88bd 92b6 233e
00000060: dddc a63c 98bc 263e f870 51bc 2fac dcbd
00000070: aa2e aebd 0686 1fbe 169e 21be 34e4 bbbc
00000080: 996c 48bd 3351 e2bd ac18 483d 9ce0 b9bd
00000090: e5b3 143e 1de4 77bd c93e 003e 3640 7abb
000000a0: 3ead f43d 1b99 19be c337 15be 50a7 123e
000000b0: 8a26 9e3d f1e0 563d 7c32 033e 6396 e4bd
000000c0: 7b29 f43d 449e 1abc 5e57 023d d3b4 32be
000000d0: ac6e 133d ed71 fb3c e32d 603d dc7f 5b3d
000000e0: acac 3dbd 70c0 253e ad75 bf3d 81aa c8bd
000000f0: 5c50 cbbc b7c0 cd3d 7b4c 0bbe b664 1b3e
00000100: 9bbb 4c3d 746c 3cbe 984a bf3d 6c53 fbbb
00000110: 2d9d 0ebd 3bfd 67bc c14a 0e3e 1e29 b53d
00000120: 6283 d23d ec5e 2e3d 5c5d 34be 34c9 a0bd
00000130: b32b 12be 0001 f0bd 8100 0f3e 6858 103e
00000140: 130a e63d 49d2 6fbd dd1d 9dbd fad4 ab3d
00000150: a041 90ba 0458 d8bd 9456 0e3e 2324 403e
00000160: b414 5fbd b6e4 ecbd cd32 323d 00bc ea3c
00000170: 76dc a8bd c1bc 2cbc 3f33 7e3d 7c10 a33d
00000180: 5a71 fdbd b5c7 193d f12f 09be 0a9f 303e
00000190: 7771 1f3e e375 1fbe bd7e a8bc 868e 9d3b
000001a0: db08 01bc f48f 02be 79c9 eabd f928 08be
000001b0: 0cb1 8abd 658d f8bd 54e2 04be ac44 83bd
000001c0: fcf8 543b cf95 10bd 11ab 5cbc 174e 66bd
000001d0: a0bc 183e 1340 853d dfdc 66ba 56dc b4bd
000001e0: e0fa 8e3c 17c6 afbd 6c21 183d 69e6 d1bc
000001f0: 136f 36be 5827 aebd 5dd0 e93d b59d 7e3d
00000200: 8d13 5fbd 70f2 1a3e 0b5a 043d 8950 ee3d
00000210: aa77 863d 78fb b33d 3237 28bd 247f 2abe
00000220: 7be7 0bbd 49ea 8a3d 5fd8 c9bd e5ae c8bd
00000230: c730 bc3c 4e90 9c3d d042 14be a3e6 a93d
00000240: 56c3 3f3e 0a66 1d3e 5f86 123d d816 7a3d
00000250: ff0c 273b e2af f63c 87dd b33d bf95 513c
00000260: 543a 2dbe 015a 573d 98af 39bc 207e e7bd
00000270: 94ce b53d 1fc4 b7bd 4176 bd3d 942e b9bc
00000280: 2743 f83d 4904 ce3d 5e54 2d3e 86e0 c13d
00000290: d27e a53c 3261 9a3d 66c8 553d c964 953c
000002a0: 1bea 233e 33f3 823d 08b6 573d 447b 35bd
000002b0: c88e 37bd cb07 19be eb2a 2c3e 74fc 1fbe
000002c0: 96c6 ec3d 3622 debc 8db0 f43c 55be 04be
000002d0: 019d ecbd a59c 973d de9d 0bbe 9a59 d23c
000002e0: d63b 063e e50e e1bc 0826 e2bd ec55 b63d
000002f0: b451 a3bd 5aff 78bd 18a6 743d 4986 03be
00000300: 738b cbbd 3939 b63c 5110 41be 2d68 ebbc
00000310: c811 203e 4993 693d 8fed 21be cc92 263a
00000320: 5dbd 373d 366e 123b 413c 07be 68fc e63d
00000330: 8bbf 8dbc 1e4c 043e 7221 0d3e 829d 2c3e
00000340: 30ab 08bd be4a 0e3e 0561 98bd 2eaf 563d
00000350: 9076 a2bc 8a41 143c d77e 183e 84d0 c23d
00000360: 9e83 bcbd 1303 28be a7ba 1a3c a057 2b3e
00000370: 8774 173e 33be 0fbe f8eb bdbb b534 41bc
00000380: 0f7a ac3d 0f23 f53b 3c1b 16be d50e 0c3e
00000390: 3c21 8dbd d4e8 97bd 8357 e83d 132e 13be
000003a0: a20b 16be c517 ec3c f1c4 e2bd c93a fbbd
000003b0: 3836 a33d f912 5a3d f21d 99bb 3b0a 9f3d
000003c0: 14e8 dabc 6b62 503d 0350 dcbd b303 643d
000003d0: 763b 04be 71ec 813d e437 41be 6022 99bd
000003e0: 5c88 153d 5411 31bd b38f dbbd d645 31bd
000003f0: e850 74bd ddfd debd 8c71 d63d 3ed3 8bbd

model.transforms.0.encoder.noise_dist.transforms.0.ar_net.l_out.0.bias f4 [33]
0.16640107 0.038321774 -0.095735595 0.014468162 -0.137393 0.08829285 0.13737512 0.016397068
0.08668384 -0.07221099 0.115513556 -0.07350221 0.052870326 0.13370544 0.051559635 0.06774815
0.089821436 0.10035722 0.04468263 -0.10607531 -0.07129934 0.06093538 0.03958939 0.08642585
0.0074874293 -0.10374663 0.1003868 -0.059964072 -0.035299797 0.01020877 -0.048289854 0.10059251
-0.07794684
00000000: 0b65 2a3e 4bf7 1c3d 0611 c4bd df0b 6d3c
00000010: c0b0 0cbe e2d2 b43d 10ac 0c3e 2553 863c
00000020: 4c87 b13d 5be3 93bd 5f92 ec3d 5488 96bd
00000030: 8e8e 583d 14ea 083e 3230 533d 8bbf 8a3d
00000040: 4df4 b73d 1688 cd3d 2205 373d 033e d9bd
00000050: 6305 92bd 6197 793d 7c28 223d 0900 b13d
00000060: 1c59 f53b 1d79 d4bd 9897 cd3d e39c 75bd
00000070: 8596 10bd af42 273c 95cb 45bd 7203 ce3d
00000080: 98a2 9fbd
