checkpoints/sort_2/S_6_K_6/ArgmaxAR/15_05_2023__21_00/cktp/checkpoint_0002500.tar (torch, 796123 bytes, 89 tensors)

model.base_dist.loc f4 [1, 3, 1]
0	0xbb68c7b5	-0.0035519425
1	0xbc4c1a6d	-0.012457472
2	0x3d06bdc0	0.032895803

model.base_dist.log_scale f4 [1, 3, 1]
0	0x3d88badf	0.06676268
1	0x3c44ff65	0.012023781
2	0x3d9b9052	0.07595886

model.transforms.0.encoder.noise_dist.base_dist.net.weight f4 [6, 32, 1]
0	0xbe34ef25	-0.17669351
1	0x3d8bb684	0.068219215
2	0xbe6ed486	-0.23323259
3	0xbe884bc0	-0.26620293
4	0x3c61d1fd	0.013782975
5	0x3e1af282	0.15131572
6	0xbe15c249	-0.14624895
7	0x3d4694a6	0.048481606
8	0xbe540281	-0.2070408
9	0xbbaea76f	-0.0053300182
10	0xbe6bc17e	-0.2302303
11	0xbe363e0e	-0.1779711
12	0x3e535be8	0.20640528
13	0xbd7e6a76	-0.062113248
14	0xbe2ee15a	-0.17078152
15	0x3e4535b6	0.1925877
16	0x3e2e09bb	0.169959
17	0xbdbff159	-0.09372205
18	0x3daa2fc4	0.08309892
19	0x3e91b80e	0.28460735
20	0xbd63fe11	-0.05566222
21	0xbe4557d4	-0.19271785
22	0x3e338ea2	0.17534879
23	0xbe185f71	-0.14880158
24	0xbdaa1969	-0.08305628
25	0xbd81c289	-0.06335933
26	0xbe1db0f5	-0.15399535
27	0xbddc8f09	-0.10769469
28	0xbe480923	-0.19534735
29	0x3d8c9721	0.06864763
30	0x3cd331d8	0.025780603
31	0x3e3b10c6	0.18268117
32	0x3d87dc07	0.06633764
33	0x3db037a3	0.08604362
34	0xbe308eb8	-0.17241943
35	0xbe421438	-0.18953025
36	0x3e1d5807	0.15365611
37	0xbd58930c	-0.05287461
38	0x3db12016	0.08648698
39	0xbe088438	-0.13331687
40	0x3dd92e9c	0.10604593
41	0x3e16fd6e	0.14745113
42	0xbe15caea	-0.14628187
43	0xbcbc9115	-0.0230184
44	0x3e112ad0	0.14176488
45	0xbd4f5915	-0.050622065
46	0xbc597f6b	-0.013275008
47	0x3e01b297	0.12665783
48	0x3d1b3c5f	0.03789937
49	0x3e3ee394	0.18641502
50	0xbd02d282	-0.031939037
51	0x3dd54020	0.104126215
52	0xbdaf1636	-0.08549158
53	0x3cad6eb1	0.021170946
54	0x3d548731	0.05188674
55	0xbe4c6a15	-0.19962342
56	0xbe5c41f0	-0.21509528
57	0xbd98f4f7	-0.07468598
58	0x3de8338c	0.11337957
59	0xbc985320	-0.018594325
60	0xbcd6cad0	-0.026219755
61	0xbe26d6d1	-0.16292883
62	0xbcd16861	-0.025562467
63	0x3d1b5ddb	0.037931304
64	0xbd07f07e	-0.033188336
65	0x3e0f5343	0.13996606
66	0xbdfbece9	-0.123010464
67	0xbc494a66	-0.012285804
68	0xbe233887	-0.15939532
69	0x3e4499cb	0.19199292
70	0xbe3748da	-0.17898884
71	0x3da0aa2c	0.07844958
72	0xbcbcd47b	-0.023050537
73	0xbdc81ff8	-0.097717226
74	0xbe8f6cfe	-0.28012842
75	0xbe4f496c	-0.20242852
76	0x3e360bc0	0.1777792
77	0xbdb7181a	-0.08940144
78	0xbda2fd76	-0.079585
79	0x3bcb6b47	0.006207857
80	0x3e5c3b6b	0.21507041
81	0xbd1c3d42	-0.038144358
82	0x3db706a4	0.089368135
83	0x3dd02fb5	0.101653494
84	0x3da79866	0.081833646
85	0xbe77b5d0	-0.2419045
86	0x3e4c8bad	0.19975157
87	0xbdc98c2c	-0.09841189
88	0xbd3e8e64	-0.046522513
89	0xbe2a745e	-0.16645953
90	0x3d3bcd35	0.045849998
91	0x3e2fe630	0.17177653
92	0xbe2bfdc5	-0.16796024
93	0xbe2c5945	-0.16830929
94	0x3d90ce0c	0.0707055
95	0x3b4eedd4	0.0031574862
96	0xbe0392c0	-0.1284895
97	0xbdb8e5ae	-0.09028183
98	0xbdbad12f	-0.0912193
99	0xbdaca0f7	-0.08429139
100	0x3d0a49fc	0.033761963
101	0xbdef981e	-0.11698936
102	0xbe1df250	-0.15424466
103	0x3e0c3a3a	0.13694087
104	0x3e1dc115	0.15405686
105	0xbda92e96	-0.08260839
106	0xbe00dfd9	-0.12585391
107	0x3e20ff9a	0.15722504
108	0x3e374049	0.17895617
109	0x3e2be2dc	0.16785759
110	0x3d56e1af	0.052461322
111	0xbd99fc50	-0.07518828
112	0xbc76e113	-0.01506831
113	0x3d45b2b6	0.048266135
114	0x3e3c305a	0.1837782
115	0xbd8caf9f	-0.068694346
116	0x3cb56b31	0.02214584
117	0x3dea5ae9	0.11443121
118	0xbcfb6fc3	-0.03069294
119	0xbd5d27a5	-0.053992886
120	0x3d555efd	0.05209254
121	0xbde88ac5	-0.11354593
122	0x3dc6fe1d	0.09716437
123	0x3e2bd71d	0.16781278
124	0x3e18ba78	0.14914882
125	0x3ddfe1b2	0.1093172
126	0xbe1d2d07	-0.15349208
127	0x3db2ae53	0.08724656
128	0xbce270c6	-0.027641665
129	0x3cc76a36	0.024342638
130	0x3c53651e	0.012902526
131	0xbdd6bd4d	-0.10485325
132	0xbe0570fd	-0.13031383
133	0x3d8c6dbf	0.0685687
134	0xbd977f8c	-0.073973745
135	0xbd99147a	-0.07474609
136	0xbd9c38d6	-0.07628028
137	0x3dda8a22	0.10670878
138	0xbdd217a9	-0.10258419
139	0x3d4aa928	0.049477726
140	0x3e0ea058	0.13928354
141	0x3d1ce950	0.03830844
142	0x3d3c0718	0.045905203
143	0xbd515cd1	-0.051113907
144	0xbd07e2f6	-0.03317543
145	0xbddc9b8f	-0.10771858
146	0x3e1f7c45	0.15574749
147	0x3d2d7216	0.04234513
148	0x3d86edb4	0.06588307
149	0x3dfc7ded	0.12328706
150	0xbe4214d8	-0.18953264
151	0x3e30802e	0.17236397
152	0xbe0a5645	-0.13509472
153	0xbd76d79b	-0.06026421
154	0x3cb75dbb	0.022383561
155	0xbd49999f	-0.04921877
156	0x3cfd052c	0.030886255
157	0x3dc08c68	0.0940178
158	0x3d95da43	0.07317021
159	0xbe027374	-0.12739354
160	0xbd6becbf	-0.057598826
161	0x3d97c03a	0.07409711
162	0x3cfc27e2	0.030780736
163	0x3ceb6c10	0.028738052
164	0x3e30826a	0.17237249
165	0xbe257a8f	-0.16160034
166	0xbe09bfbf	-0.13452052
167	0xbddce33d	-0.1078553
168	0xbda652b5	-0.08121244
169	0x3c04e420	0.00811103
170	0x3dd8034b	0.10547503
171	0x3e1bea16	0.15226015
172	0xbdf09030	-0.117462516
173	0xbc6860c8	-0.014183231
174	0x3e1d8f09	0.15386595
175	0x3dd2a555	0.10285441
176	0xbd4efe9f	-0.050535794
177	0xbdd1ee7c	-0.102505654
178	0x3e08a8ee	0.13345692
179	0x3de3e997	0.11128538
180	0x3d296a66	0.041361235
181	0xbdf7cd49	-0.12099702
182	0x3dfe04d8	0.124032676
183	0x3e09d67a	0.13460723
184	0xbdabdfb0	-0.083922744
185	0xbe0ee237	-0.13953482
186	0xbe082f94	-0.132994
187	0x3d094617	0.03351411
188	0xbb282b50	-0.0025660582
189	0x3e32c34b	0.17457311
190	0xbbf1ca05	-0.007378819
191	0x3df36f2b	0.11886438

model.transforms.0.encoder.noise_dist.base_dist.net.bias f4 [6]
0	0xbcf34ad9	-0.029698776
1	0x3e034f44	0.12823206
2	0x3dc6387a	0.09678741
3	0xbbb3e4f4	-0.00548994
4	0x3da719a6	0.08159189
5	0xbc594951	-0.013262109

model.transforms.0.encoder.noise_dist.transforms.0.ar_net.lstm.weight_ih_l0 f4 [256, 35]
0	0x3dcba8ce	0.09944306
1	0xbde074b0	-0.109597564
2	0xbdb167c2	-0.08662368
3	0x3e0e9325	0.13923319
4	0xbcb127a6	-0.021625351
5	0xbc859360	-0.016305625
6	0x3d228656	0.039678894
7	0x3d98ad8b	0.07454976
8	0xbd7213d7	-0.059100952
9	0xbddd3f07	-0.10803037
10	0x3bb17073	0.0054150163
11	0x3de6259a	0.11237641
12	0xbceafd42	-0.028685216
13	0x3df0c69d	0.117566325
14	0xbc219d99	-0.009864234
15	0x3df8e6d8	0.12153405
16	0x3d453e06	0.048154853
17	0x3e005014	0.12530547
18	0x3dda64d8	0.10663766
19	0x3d34deb4	0.0441577
20	0xbc2053a1	-0.009785564
21	0xbd8c5670	-0.06852424
22	0x3da83d34	0.082147986
23	0x3c94c202	0.018158916
24	0x3d2e19cf	0.04250508
25	0x3c81f222	0.015862528
26	0xbe02faae	-0.12790939
27	0x3d8dcd40	0.06923914
28	0x3d1340c8	0.035950452
29	0x3e1ba41c	0.15199322
30	0x3d3394e1	0.043843154
31	0x3d2fe127	0.04293933
32	0x3dae0784	0.08497527
33	0x3d2daaf1	0.04239935
34	0x3df71f6b	0.120665394
35	0xbdce4725	-0.100721635
36	0x3c795fea	0.015220622
37	0xbd62f4ef	-0.055409368
38	0x3caf84fb	0.021425715
39	0x3a86a427	0.001027231
40	0xbdd256c5	-0.10270456
41	0x3d084e23	0.033277642
42	0xbcd98f34	-0.026557542
43	0xbe02e152	-0.12781265
44	0xbc95b66d	-0.018275464
45	0xbdaa12df	-0.083043806
46	0xbcdfba3d	-0.027310485
47	0xbde7bf94	-0.113158375
48	0xbdabb104	-0.083833724
49	0xbc4f5847	-0.012655324
50	0xbde38af3	-0.11110487
51	0xbd480a29	-0.048837814
52	0xbbf9ff58	-0.0076293163
53	0xbdc66510	-0.09687245
54	0xbd47c42b	-0.048771065
55	0x3da56faa	0.08077939
56	0x3ca4e47c	0.020128481
57	0xbda53850	-0.080673814
58	0x3d62ddf2	0.055387445
59	0xbd80a269	-0.06280977
60	0x386e14db	5.6763045e-05
61	0x3dcb5b80	0.099295616
62	0xbc8d455d	-0.017244989
63	0x3dc74e74	0.097317606
64	0xbdd97dcc	-0.10619697
65	0xbde6fc93	-0.112786435
66	0xbd8983eb	-0.067146145
67	0x3d879bcc	0.06621513
68	0x3dd58504	0.10425761
69	0xbd570676	-0.052496396
70	0x3d944739	0.07240147
71	0x3d6d2afa	0.057902314
72	0xbcb1c3a8	-0.021699741
73	0x3e047205	0.1293412
74	0x3c8ce201	0.01719761
75	0x3dc0cf7f	0.09414577
76	0xbddbaf1c	-0.10726759
77	0xbd3018c7	-0.04299238
78	0x3cbfbd96	0.023405831
79	0x3e01d188	0.12677586
80	0xbe00face	-0.12595674
81	0x3d75d615	0.060018618
82	0xbdf18ed7	-0.11794823
83	0x3d838aac	0.06422934
84	0xbda8fd69	-0.08251459
85	0x3c9902cc	0.018678091
86	0x3d924cd8	0.07143563
87	0x3db9867d	0.09058855
88	0x3d1fef01	0.03904629
89	0xbbe881a1	-0.007095531
90	0xbd5f2f67	-0.054488566
91	0x3cef4752	0.029208813
92	0x3d840629	0.064464875
93	0xbdc4302c	-0.095795006
94	0x3d967fcc	0.07348594
95	0xbbb6944b	-0.005571877
96	0xbda1f6d2	-0.07908405
97	0x3d90376f	0.07041823
98	0x3ca9edbf	0.020743249
99	0x3c8e5484	0.017374285
100	0x3c9387d0	0.018009096
101	0xbd8c0ed9	-0.068387695
102	0xbc8ed263	-0.017434305
103	0xbc9af53c	-0.018915765
104	0xbdba9cc1	-0.0911193
105	0x3d1cc48c	0.03827338
106	0xbb97d307	-0.0046333107
107	0x3cc7437c	0.024324171
108	0xbd7a1ed6	-0.061064564
109	0xbc72f9df	-0.014830082
110	0x3d6e483a	0.05817435
111	0xbe07c6e3	-0.13259463
112	0x3dd91973	0.10600557
113	0xbd186e76	-0.03721472
114	0x3dc3a1e7	0.09552365
115	0x3d5a5857	0.053306904
116	0x3cddeaf6	0.027089577
117	0x3dc15f88	0.09442049
118	0xbd219ba5	-0.039455075
119	0x3b83d6a8	0.0040233918
120	0x3d7b4626	0.061346196
121	0x3cef1667	0.029185487
122	0xbd02fe68	-0.031980902
123	0xbdd729d3	-0.10506024
124	0xbd783b18	-0.06060323
125	0x3c8028ff	0.015644548
126	0xbdb23c31	-0.08702887
127	0x3da4c63e	0.08045624
128	0x3d1f2b39	0.03885958
129	0x3d6ed885	0.058311958
130	0xbc8fe935	-0.017567256
131	0xbd96d4f0	-0.07364833
132	0xbdf8224d	-0.12115917
133	0x3ced80fb	0.028992167
134	0x3da6476a	0.0811909
135	0x3c50a2d0	0.01273413
136	0xbd638bb5	-0.055553157
137	0x3cfc0111	0.030762227
138	0x3d30a0ba	0.04312203
139	0x3de283f6	0.11060326
140	0x3c01681c	0.007898357
141	0xbdc8e510	-0.09809315
142	0x3ce676bf	0.028132794
143	0xbd3cb2ef	-0.046069082
144	0x3d874e02	0.06606676
145	0xbe0be721	-0.13662387
146	0xbd0e0bbf	-0.03467917
147	0xbd8b13db	-0.067908965
148	0xbdc14697	-0.09437292
149	0x3d9daaa9	0.076985665
150	0xbcb9764f	-0.022639422
151	0xbcde57b1	-0.027141424
152	0xbc829066	-0.015937995
153	0xbd0d49d5	-0.03449424
154	0x3cf1d718	0.02952151
155	0xbd5d8239	-0.054079268
156	0x3d92b90a	0.071642
157	0x3d33f4a7	0.04393449
158	0xbce7b855	-0.028286139
159	0x3d52c59e	0.051457994
160	0xbd5fdac3	-0.054651987
161	0xbd62a7a1	-0.055335645
162	0x3dacc9a2	0.08436896
163	0x3ccf877c	0.025333159
164	0xbda7fbf1	-0.08202351
165	0xbdb172f2	-0.08664502
166	0xbd92e716	-0.071729824
167	0xbd97e2a2	-0.07416274
168	0x3ccc374b	0.02492871
169	0xbb62001a	-0.0034484924
170	0xbdd6f6cf	-0.10496294
171	0xbd813d66	-0.06310539
172	0x3d83e648	0.06440407
173	0xbd55aaf9	-0.052165005
174	0x3be9630d	0.0071224035
175	0x3e0ecc18	0.13945043
176	0xbd56e65d	-0.052465785
177	0xbd8ed5e6	-0.06974392
178	0xbcd24bc7	-0.0256709
179	0x3e17a85e	0.1481032
180	0xbd9400c0	-0.072267056
181	0x3d9cbb44	0.076529056
182	0x3e05f00f	0.13079856
183	0x3bfc21f8	0.007694479
184	0xbd0ccb09	-0.034373317
185	0xbddc8c63	-0.10768964
186	0x3dbb57e2	0.09147622
187	0x3d87ba38	0.06627315
188	0x3c360afb	0.011111016
189	0xbcaaf3e5	-0.020868251
190	0xbd9bd24f	-0.076084726
191	0xbdc425fa	-0.09577556
192	0xbd7936bb	-0.06084321
193	0x3dd0874f	0.10182058
194	0xbca2972a	-0.019847471
195	0x3d0d3951	0.03447849
196	0x3e022149	0.1270801
197	0x3cf4176a	0.029796321
198	0x3c95bc53	0.018278277
199	0xbdcbc1b9	-0.09949059
200	0x3ddb570d	0.10709963
201	0xbe1ccd3c	-0.15312666
202	0xbc401210	-0.011723056
203	0xbd8e6f62	-0.06954838
204	0xbddea18d	-0.10870657
205	0x3bb56405	0.005535605
206	0xbc80102a	-0.015632708
207	0xbe486a7c	-0.1957187
208	0xbe14e80f	-0.14541648
209	0xbd77a423	-0.060459267
210	0xbd11b987	-0.035577323
211	0x3e0a5465	0.13508756
212	0x3c8e9775	0.017406205
213	0x3da543cf	0.08069574
214	0x3e15c715	0.14626725
215	0xbdcd71da	-0.10031481
216	0x3d037332	0.03209228
217	0xbc8789a4	-0.016545124
218	0xbdfeefaa	-0.12448056
219	0xbcf438a8	-0.029812172
220	0xbdf5820b	-0.11987694
221	0x3de17369	0.11008341
222	0x3d67214a	0.05642823
223	0x3da05f41	0.07830668
224	0xbcb3929c	-0.021920495
225	0x3da46541	0.08027125
226	0x3d8351dd	0.064120986
227	0xbe0af717	-0.1357082
228	0xbd289af4	-0.0411634
229	0xbda562d1	-0.08075488
230	0xbd2f71d5	-0.042833168
231	0xbd99b4b4	-0.075051695
232	0x3e099f41	0.13439657
233	0x3c31f0e0	0.010860652
234	0xbde0acc4	-0.109704524
235	0xbdb7afaa	-0.08969052
236	0xbe26c957	-0.16287743
237	0xbd008017	-0.031372156
238	0x3a22bc40	0.0006207861
239	0xbda0ea42	-0.07857181
240	0xbddc759f	-0.10764622
241	0x3cfeebfc	0.031118385
242	0xbdc4fb4d	-0.09618244
243	0xbdda01b2	-0.106448546
244	0xbc58a86f	-0.013223751
245	0x3c8d34ca	0.017237086
246	0xbcc4b073	-0.024009919
247	0x3c566fd6	0.013088187
248	0xbddba85d	-0.10725472
249	0x3d1327e6	0.035926722
250	0x3db19e26	0.086727425
251	0x3d417053	0.04722626
252	0x3db03425	0.08603696
253	0x3df04bab	0.117331825
254	0xbda9f9b2	-0.08299579
255	0xbd99e1cb	-0.0751377

model.transforms.0.encoder.noise_dist.transforms.0.ar_net.lstm.weight_hh_l0 f4 [256, 64]
0	0xbd45c6e0	-0.048285365
1	0x3c9dad5e	0.019247707
2	0x3dc0dd59	0.09417219
3	0xbb95ffcf	-0.004577614
4	0xbd9ce16c	-0.07660183
5	0xbbfc0042	-0.0076904604
6	0x3d2579e7	0.04039946
7	0x3da7b7c3	0.08189347
8	0x3cf4087d	0.029789204
9	0x3ca6eb11	0.02037576
10	0x3c4b98da	0.012426579
11	0xbd5a4008	-0.05328372
12	0xbc614549	-0.013749429
13	0xbda685f6	-0.0813102
14	0x3c49d166	0.012317991
15	0x3d40861a	0.04700289
16	0xbd84ed94	-0.06490627
17	0x3dde677a	0.1085958
18	0x3d87ff8d	0.06640539
19	0x3d925c1f	0.07146477
20	0x3da823af	0.08209931
21	0xbd887151	-0.066622384
22	0x3d9bae93	0.07601657
23	0xbac7128a	-0.001518802
24	0x3c61a6f5	0.013772716
25	0x3d68f38a	0.056872882
26	0x3cdb6cf5	0.026785353
27	0xbdfc7e47	-0.12328773
28	0xbc864ad0	-0.016393095
29	0x3c816019	0.015792893
30	0x3d46e523	0.048558366
31	0x3da4c91d	0.08046172
32	0x3cdfce24	0.027319975
33	0x3c1a5375	0.009419312
34	0xbdec5dfc	-0.115413636
35	0xbde85533	-0.113443755
36	0x3d96666f	0.073437564
37	0x3d21a3f0	0.039462984
38	0xbdd413ee	-0.10355364
39	0xbb7b6f1b	-0.0038365785
40	0x3d88bddb	0.06676837
41	0xbddd0cae	-0.10793434
42	0x3d8ba211	0.06818021
43	0x3d273109	0.040818248
44	0xbd24a53e	-0.04019665
45	0xbdc0cf66	-0.09414558
46	0x3df2a42f	0.11847722
47	0xbde75829	-0.11296112
48	0xbd9d80ba	-0.07690568
49	0xbd9c7401	-0.076393135
50	0x3d5df19a	0.054185487
51	0xbddf6960	-0.109087706
52	0xbd19741d	-0.03746425
53	0xbda569c3	-0.08076813
54	0xbcd6c6c0	-0.026217818
55	0x3dce3684	0.10068992
56	0xbc470158	-0.0121463165
57	0x3dc6896e	0.096941814
58	0x3d8dfc69	0.06932909
59	0x3ce8f7cd	0.028438473
60	0xbd917c93	-0.07103839
61	0xbd3b2bba	-0.045695998
62	0x3db60440	0.088875294
63	0x3d91af09	0.071134634
64	0x3cd67b17	0.02618174
65	0xbb71f39e	-0.0036918889
66	0x3dbecbd1	0.09316219
67	0xbdccf4d3	-0.10007634
68	0xbe03fec5	-0.12890156
69	0x3da2736f	0.079321735
70	0xbdd68600	-0.10474777
71	0xbcd5511b	-0.02603965
72	0x3d6c168d	0.057638694
73	0xbcb5771c	-0.022151522
74	0xbda643b4	-0.08118382
75	0xbdc487c6	-0.09596209
76	0x3a648c7d	0.0008718444
77	0x3dd639e8	0.104602635
78	0xbbba9d28	-0.005695004
79	0x3ddcb7ad	0.10777221
80	0x3de60b24	0.11232594
81	0xbd4b35d5	-0.049611885
82	0xbde61db2	-0.11236133
83	0x3d34b12c	0.044114277
84	0x3dbdd00e	0.09268199
85	0xbdf5cc92	-0.12001909
86	0xbad93943	-0.0016572851
87	0x3c24d207	0.01005984
88	0x3b64bf90	0.003490422
89	0xbdddca06	-0.108295485
90	0xbd05b3ac	-0.03264205
91	0xbdd0428a	-0.10168941
92	0x3dadfafd	0.08495138
93	0x3e011050	0.12603879
94	0xbdeadad7	-0.11467522
95	0xbd066cdf	-0.03281867
96	0x3c9865ad	0.01860317
97	0x3d3c562d	0.04598062
98	0xbde3754f	-0.11106359
99	0xbdb70171	-0.08935822
100	0x3bd73831	0.006567978
101	0xba526e95	-0.0008027342
102	0xbd34703b	-0.044052344
103	0x3d1f1bdc	0.03884493
104	0x3d5cce79	0.053907845
105	0xbd4e15f8	-0.05031392
106	0x3d6bbfd5	0.057555992
107	0x3dedcbe1	0.116111524
108	0xbcad129c	-0.021127038
109	0xbd8fade4	-0.07015589
110	0xbc3d95ba	-0.011571342
111	0x3e0440a3	0.12915282
112	0x3da1d19f	0.0790131
113	0x3d32031d	0.04346
114	0x3b49b378	0.0030777138
115	0xbc56705a	-0.01308831
116	0xbdc48706	-0.09596066
117	0xbdc4f41b	-0.09616872
118	0x3dc2847a	0.09497924
119	0xbda20473	-0.07911005
120	0xbd34d227	-0.04414573
121	0x3d4bae5a	0.04972682
122	0x3c9ee5cc	0.019396685
123	0x3d4d0857	0.05005678
124	0x3ba3e0aa	0.0050011473
125	0xbc9db2e6	-0.019250344
126	0xbd447c24	-0.047969952
127	0xbd51699a	-0.0511261
128	0xbd12acd2	-0.035809346
129	0x3d28ed71	0.041242067
130	0x3dcad910	0.09904683
131	0x3db1c7e8	0.08680707
132	0x3d86af81	0.065764435
133	0xbd934ebd	-0.071927525
134	0x3dd1de74	0.10247508
135	0x3c7c80e4	0.015411589
136	0x3dc6cb35	0.097067274
137	0xbced448a	-0.028963346
138	0x3e094fab	0.13409297
139	0xbdd1dc1b	-0.1024706
140	0x3cb69f40	0.022292733
141	0xbde26f40	-0.110563755
142	0xbe026aca	-0.1273605
143	0x3d31368e	0.043264918
144	0xbdc0153f	-0.09379052
145	0x3cb1517a	0.021645296
146	0xbda53086	-0.08065896
147	0x3dbcf15a	0.09225722
148	0xbdc45b48	-0.09587723
149	0x3a733e4c	0.00092789973
150	0xbd82439a	-0.0636055
151	0xbdf304c5	-0.11866144
152	0xbd3ffcbf	-0.046871897
153	0x3dfcea5a	0.123493865
154	0xbcfdec39	-0.030996429
155	0xbdc2e8d1	-0.095170625
156	0xbce30418	-0.027711913
157	0xbcd1f7be	-0.025630828
158	0xbd8ae0f9	-0.067811914
159	0xbcb5a5e1	-0.022173824
160	0x3d18828e	0.03723388
161	0x3dc3f3a7	0.09567957
162	0x3d1dd10d	0.038529444
163	0x3c8837e3	0.016628211
164	0xbc0120b2	-0.00788133
165	0xbd68f331	-0.05687255
166	0xbd2b2b34	-0.04178925
167	0xbdd004e4	-0.10157183
168	0xbd343f97	-0.044005957
169	0x3c5ddc53	0.013541299
170	0xbe006463	-0.12538294
171	0xbda4c2a2	-0.08044936
172	0x3dbb46e7	0.09144383
173	0xbc28b541	-0.010297121
174	0xbd1797cf	-0.03701001
175	0xbd0d8fcb	-0.03456096
176	0x3d5cc540	0.05389905
177	0x3cc8e0da	0.02452128
178	0x3dad36a7	0.0845769
179	0xbd9c2e5e	-0.07626031
180	0x3d314151	0.04327518
181	0x3c9c8efd	0.01911115
182	0xbdd62f8e	-0.10458289
183	0x3dae6e13	0.08517089
184	0x3ca53316	0.020165961
185	0xbd9321f6	-0.07184212
186	0x3ddea863	0.10871961
187	0x3dcefc63	0.10106733
188	0x3d4a3ddc	0.0493754
189	0x3daa3b5a	0.08312102
190	0xbca303e3	-0.019899314
191	0x3cd0eb8b	0.02550294
192	0x3d9e5e44	0.077328235
193	0xbdbf279d	-0.093337275
194	0x3d840c4e	0.064476594
195	0x3d1dd6f8	0.03853509
196	0xbd73446b	-0.05939142
197	0x3bb16fba	0.00541493
198	0x3d77d8bb	0.060509425
199	0x3dc0b66f	0.094097964
200	0xbd221b72	-0.039576955
201	0x3d220935	0.03955956
202	0x3c5d4368	0.01350484
203	0xbd3a63a1	-0.04550517
204	0x3d053ecc	0.03253059
205	0xbde1ea25	-0.11030988
206	0x3d8827b9	0.066482015
207	0x3dddc926	0.10829382
208	0xbc4faaef	-0.012675031
209	0x3d6901ca	0.05688647
210	0xbe2ba6a4	-0.16762787
211	0x3b1444e9	0.0022624081
212	0x3da67991	0.08128656
213	0xbd4b8d2a	-0.04969517
214	0x3dba6c8c	0.09102735
215	0x3d97500a	0.07388313
216	0xbdbe6abb	-0.09297701
217	0xbbe2e77e	-0.0069245687
218	0xbda68d53	-0.08132424
219	0x3dbaeecd	0.09127579
220	0x3d80c41b	0.06287404
221	0xbdb05363	-0.08609655
222	0xbdb628f0	-0.08894527
223	0x3e0ac7dc	0.13552803
224	0x3d99756c	0.074930996
225	0xbe04e900	-0.12979507
226	0xbd8790bc	-0.06619403
227	0xbb7862f4	-0.0037900778
228	0x3d821c4e	0.06353055
229	0x3d6d701e	0.05796825
230	0x3d947d3b	0.07250448
231	0xbd2d184c	-0.0422595
232	0x3c0d419e	0.008621601
233	0xbd2fce1a	-0.042921163
234	0xbd991e15	-0.07476441
235	0x3ddbda1f	0.10734963
236	0x3d5dd340	0.05415654
237	0xbdbfc999	-0.093646236
238	0xbd8c3c5a	-0.06847449
239	0xbd5106c3	-0.05103184
240	0xbd57c4c0	-0.05267787
241	0xbdd52d9a	-0.104090884
242	0x3dea2feb	0.11434921
243	0x3e0527e3	0.13003497
244	0x3d85208c	0.065003484
245	0xbe026c3a	-0.12736598
246	0xbd575b70	-0.052577436
247	0x3dd702f6	0.10498612
248	0x3cb3b542	0.021937016
249	0xbd3f25c7	-0.046666887
250	0x3c820bd2	0.015874777
251	0xbd8b4553	-0.06800332
252	0xbd5dac9d	-0.054119695
253	0x3da8e43e	0.08246659
254	0x3c125f5e	0.00893387
255	0xbdb02ebd	-0.086026646

model.transforms.0.encoder.noise_dist.transforms.0.ar_net.lstm.bias_ih_l0 f4 [256]
0	0xbd84d51c	-0.0648596
1	0x3d810348	0.06299454
2	0xbc989c02	-0.018629078
3	0x3b005092	0.0019579274
4	0xbdba2fa8	-0.09091121
5	0xbd29c59d	-0.041448224
6	0xbd4bdbcd	-0.049770165
7	0xbda5fc14	-0.08104721
8	0x3d30c550	0.043156922
9	0x3e0bf40e	0.13667318
10	0xbb443c9c	-0.0029943353
11	0xbdd1663b	-0.10224577
12	0xbd01aab9	-0.031656954
13	0x3cd263b6	0.025682312
14	0xbd075466	-0.033039473
15	0xbd85253d	-0.06501243
16	0xbc5486b5	-0.01297157
17	0xbd02fa49	-0.03197697
18	0xbd85e3a0	-0.06537557
19	0xbe042829	-0.12905945
20	0xbd549ae6	-0.051905535
21	0xbd98809a	-0.07446404
22	0x3d763710	0.060111105
23	0xbdd481fb	-0.10376354
24	0xbdded87a	-0.108811334
25	0x3cbd42ee	0.023103204
26	0xbd95a39a	-0.07306595
27	0x3c7029c9	0.0146584
28	0x3db22464	0.08698347
29	0xbd22340f	-0.03960043
30	0x3c4016c5	0.011724179
31	0x3e0f935b	0.14021055
32	0xbd1cc32f	-0.03827208
33	0xbdea4330	-0.11438596
34	0x3d453f3d	0.04815601
35	0xbbc6df6a	-0.0060691135
36	0xbe048984	-0.12943083
37	0xbceb0c87	-0.028692497
38	0xbdfc6f9e	-0.12325977
39	0x3de6be27	0.112667374
40	0xbd7e2220	-0.062044263
41	0x3ca0b53c	0.01961767
42	0xbce7316c	-0.028221808
43	0x3d9cd10d	0.07657061
44	0xbcd072bc	-0.025445335
45	0x3d349734	0.04408951
46	0xbd29963c	-0.04140304
47	0xbd2eb775	-0.042655427
48	0x3bbc8c7b	0.0057540513
49	0x3d02fe40	0.031980753
50	0x3d17816a	0.036988653
51	0xbdfa6104	-0.122255355
52	0x3d7b4815	0.06134804
53	0x3de12f86	0.109953925
54	0x3ba6f988	0.0050956644
55	0x3dc20fe0	0.09475684
56	0x3d989489	0.07450206
57	0xbdc28c6d	-0.0949944
58	0x3b690ebf	0.0035561768
59	0xb9e8ea5c	-0.000444251
60	0xbd7a6694	-0.061132982
61	0x3d9d3489	0.07676036
62	0xbdf1ffd6	-0.11816375
63	0x3d106139	0.03524897
64	0x3de39808	0.11112982
65	0xbd1e98ee	-0.038720064
66	0x3d20913e	0.039201014
67	0x3d21c14c	0.039490983
68	0xbd5e2a7d	-0.05423974
69	0x3dc3d0dd	0.09561322
70	0x3d8f0ee2	0.069852605
71	0xbcfb66ee	-0.03068873
72	0x3dc01f07	0.09380918
73	0x3d7213b7	0.059100833
74	0xbc9c73ba	-0.019098151
75	0xbc84a735	-0.016193012
76	0xbd083b93	-0.03325994
77	0xbd5b1ffa	-0.053497292
78	0x3c33d925	0.010977064
79	0x3de45514	0.1114904
80	0xbdb4224a	-0.087956026
81	0x3d597fb6	0.05310031
82	0xbceb3d3a	-0.028715719
83	0x3dde0ceb	0.10842308
84	0x3c45f5b2	0.012082504
85	0x3bf3e7ce	0.0074434048
86	0x3ddcf375	0.10788623
87	0x3d367c62	0.044552214
88	0x3dec0d97	0.115260296
89	0x3d9857cd	0.07438622
90	0x3d47e5fc	0.048803315
91	0x3dbfe585	0.09369949
92	0x3d86520e	0.065586194
93	0xbd17b2e3	-0.037035834
94	0x3d096fb3	0.03355379
95	0x3c366e39	0.011134678
96	0x3d845503	0.06461527
97	0x3defce07	0.117092185
98	0x3c821d8b	0.015883228
99	0xbca80414	-0.020509757
100	0x3c18c181	0.009323479
101	0x3d81b2f1	0.063329585
102	0xbd0aa84b	-0.033851903
103	0xbdb9267d	-0.09040544
104	0xbca9939d	-0.02070027
105	0x3d8d5399	0.069007106
106	0x3e0414f2	0.12898615
107	0xbd373a29	-0.0447332
108	0xbde84b42	-0.11342479
109	0x3da1a83e	0.07893418
110	0xbdb3d9a2	-0.087817445
111	0x3bf39f9e	0.0074347993
112	0x3b720fe8	0.003693575
113	0x3e11b44f	0.14228939
114	0xbd0d9813	-0.034568857
115	0x3dce8e47	0.10085731
116	0xbddd47c1	-0.108047016
117	0x3dbfec06	0.0937119
118	0xbc9ecdce	-0.019385245
119	0xbd90dd43	-0.07073452
120	0x3d07620f	0.0330525
121	0x3cc7953a	0.024363149
122	0xbcea0b78	-0.028569922
123	0x3dbf82ec	0.09351143
124	0xbd9e31a1	-0.0772431
125	0x3d6a0d97	0.057141867
126	0x3d32db70	0.043666303
127	0x3daa2a5c	0.08308861
128	0x3da998a8	0.0828107
129	0xbce000d4	-0.027344145
130	0x3d9853a4	0.07437828
131	0xbd0614b5	-0.03273459
132	0xbda8f81c	-0.08250448
133	0x3ddbe09f	0.107362024
134	0xbd36d1f0	-0.044633806
135	0xbd9ddb3d	-0.07707832
136	0x3dd10707	0.102064185
137	0xbd1f0a1a	-0.038827993
138	0xbde5c129	-0.11218483
139	0x3d943dca	0.07238348
140	0xbd7fcf9b	-0.062453847
141	0x3d7bd693	0.06148393
142	0x3dc37da2	0.09545447
143	0xbd199332	-0.037493892
144	0xbdcc64f0	-0.0998019
145	0x3d97d364	0.074133664
146	0xbccbcbf8	-0.024877533
147	0xbd73e980	-0.059548855
148	0x3dee3602	0.11631395
149	0xbde82208	-0.11334616
150	0xbdc4cbdc	-0.096091956
151	0x3dbca22a	0.09210618
152	0xbc4ddd10	-0.012564912
153	0xbc9afa1a	-0.018918086
154	0x3d58daef	0.052943166
155	0xbdbbe1d1	-0.091739304
156	0x3d98db83	0.074637435
157	0xbd97b5db	-0.07407733
158	0x3d363c0f	0.04449087
159	0x3dd9f315	0.10642067
160	0x3b95d3d3	0.0045723706
161	0xbd0b9294	-0.034075335
162	0xbdd7a29d	-0.10529063
163	0x3e082075	0.13293631
164	0xbdcf5c61	-0.10125042
165	0xbdd3631e	-0.103216395
166	0x3da9256e	0.08259092
167	0xbd9e56dc	-0.07731411
168	0xbca6a7e4	-0.020343728
169	0xbd97fe44	-0.07421544
170	0xbd62b8f1	-0.055352155
171	0xbca51dfe	-0.020155903
172	0xbd87c0ad	-0.06628547
173	0xbdf945ef	-0.12171542
174	0x3cba829a	0.022767354
175	0xbdd4c09f	-0.10388302
176	0x3db96692	0.09052767
177	0x3d08a65d	0.03336178
178	0x3c6c9c4e	0.014441563
179	0xbcee163e	-0.02906334
180	0xbd56653b	-0.052342635
181	0x3d6f40a6	0.058411263
182	0xbd55780f	-0.05211645
183	0x3dc90e7c	0.09817216
184	0x3d6a5af3	0.057215642
185	0xbda5741e	-0.08078788
186	0x3c8b6fd2	0.017021094
187	0x3db5b2dd	0.08872006
188	0x3dd501b7	0.10400718
189	0x3c5f7943	0.013639751
190	0xbd498112	-0.049195357
191	0xbd8b9dfd	-0.06817243
192	0xbdcd9770	-0.1003865
193	0x3d3e1a75	0.04641195
194	0xbc85c428	-0.016328886
195	0xbda2d923	-0.07951572
196	0x3daac01c	0.08337423
197	0x3daa9971	0.08330048
198	0x3d901bcd	0.070365526
199	0x3c1c74b7	0.009549311
200	0x3dacf3e5	0.08444957
201	0xbdb3cae5	-0.087789334
202	0xbcd85ee0	-0.026412427
203	0x3c9a86ad	0.018863047
204	0xbd4cddec	-0.05001633
205	0xbd604de9	-0.0547618
206	0x3d1c20a4	0.038117066
207	0x3d0c9cb1	0.03432912
208	0xbda1f312	-0.0790769
209	0xbdb70dbd	-0.08938167
210	0xbcc04c9c	-0.02347403
211	0xbd15e79e	-0.03659784
212	0x3e056b7e	0.13029286
213	0xbd43682b	-0.047706764
214	0x3d8aaffa	0.06771846
215	0x3dd2fe19	0.103023715
216	0x3e064d6f	0.13115476
217	0x3dbb2ac3	0.091390155
218	0xbc3e9179	-0.011631363
219	0x3d3794ee	0.044819765
220	0xbcbdf50f	-0.023188142
221	0x3d2c69d3	0.04209311
222	0xbdb8921c	-0.09012243
223	0xbd92fe3b	-0.07177397
224	0xbdf71107	-0.120637946
225	0xbc92e699	-0.017932223
226	0x3be2b87f	0.0069189663
227	0x3d94b82b	0.0726169
228	0xbde36ae5	-0.11104373
229	0xbc85bf9e	-0.016326722
230	0xbcb89e1e	-0.022536334
231	0xbbd68970	-0.0065471455
232	0x3d832405	0.064033546
233	0xbda954ed	-0.082681514
234	0x3d229cc2	0.039700277
235	0xbdd067ba	-0.10176034
236	0xbdbee1e3	-0.09320428
237	0xbe019e1e	-0.12657973
238	0xbbbcf28f	-0.00576622
239	0x3d941f91	0.07232583
240	0xbdb31293	-0.08743777
241	0x3daa4df8	0.083156526
242	0xbd5edb66	-0.054408453
243	0xbcfb8d2e	-0.030706968
244	0xbb87da30	-0.004145883
245	0x3da9613c	0.08270499
246	0x3d22c85e	0.039741866
247	0xbdbff3b3	-0.09372654
248	0x3db8d478	0.090249
249	0x3d58b01c	0.052902326
250	0xbc1e55a6	-0.009663975
251	0xbc626d74	-0.013820041
252	0x3cb363d2	0.021898184
253	0xbdf684d8	-0.12037057
254	0xbdd454b9	-0.10367722
255	0x3cc9d647	0.024638308

model.transforms.0.encoder.noise_dist.transforms.0.ar_net.lstm.bias_hh_l0 f4 [256]
0	0xbd4ea17d	-0.050446976
1	0xbd163bec	-0.03667824
2	0xbdde9a2d	-0.108692504
3	0xbdb62a70	-0.08894813
4	0xbd35baab	-0.044367474
5	0x3d05bdc5	0.03265168
6	0xbdb3673a	-0.08759923
7	0xbe092eb8	-0.13396728
8	0x3e11d0e9	0.14239849
9	0x3d75e07d	0.06002854
10	0x3d400805	0.046882648
11	0x3dbe2c77	0.09285825
12	0x3df20790	0.11817849
13	0x3d409e1b	0.04702578
14	0x3de1736d	0.11008344
15	0xbc253c4f	-0.0100851795
16	0xbdba179e	-0.09086536
17	0xbd5c6ab5	-0.0538127
18	0xbdaa0c35	-0.083031096
19	0xbd724538	-0.059148043
20	0x3dae9b3a	0.08525701
21	0x3da82f03	0.08212092
22	0xbddd5281	-0.10806752
23	0x3d42b3da	0.0475348
24	0x3d881007	0.06643682
25	0xbdc35aec	-0.09538826
26	0x3cce6c2c	0.025198065
27	0x3cbaa355	0.02278296
28	0x3cd044c8	0.025423422
29	0x3e02f2a5	0.12787874
30	0x3d5bf4f7	0.053700414
31	0xbda0ac92	-0.07845415
32	0xbd4978ad	-0.04918735
33	0x3d4b0ea0	0.049574494
34	0x3c654a14	0.013994712
35	0xbdcfdcb5	-0.101495184
36	0xbdadb96f	-0.08482634
37	0x3add6d06	0.0016893453
38	0x3deb0c43	0.11476948
39	0xbd63422b	-0.055483025
40	0x3dc0d932	0.09416427
41	0xbd90f3da	-0.07077761
42	0xbdbf0a92	-0.09328188
43	0x3d90f6a1	0.07078291
44	0xbe118cb1	-0.14213826
45	0x3d80d322	0.062902704
46	0x3dabfe80	0.083981514
47	0x3cb4616f	0.022019116
48	0x3ce34635	0.027743438
49	0x3d1c1251	0.038103405
50	0xbcc48b26	-0.023992132
51	0x3d022cb5	0.031780917
52	0x3d0cf17d	0.03440999
53	0x3d9ce588	0.07660967
54	0x3dd8a86a	0.105789974
55	0x3db16cc4	0.086633235
56	0x3d93363d	0.071880795
57	0x3cc62c1b	0.024190953
58	0xbdb634a1	-0.08896757
59	0x3d00355a	0.03130088
60	0xbdbf0c75	-0.09328548
61	0xbca8b552	-0.020594273
62	0x3bd86274	0.0066035334
63	0xbe06f27f	-0.13178442
64	0xbd16e7dc	-0.036842212
65	0x3d0eee79	0.034895394
66	0xbd2282fb	-0.039675694
67	0x3e0bd7c3	0.13656525
68	0x3d3fa953	0.04679234
69	0x3da005eb	0.07813629
70	0xbbe5d420	-0.0070138127
71	0xbde50698	-0.11182898
72	0x3dffa212	0.12482084
73	0xbdc3ec4d	-0.09566555
74	0xbd960ada	-0.073262885
75	0x3d2ebdeb	0.04266159
76	0xbd928556	-0.07154338
77	0x3d38d71e	0.045127027
78	0xbd048e16	-0.032362066
79	0xbd519a76	-0.051172696
80	0x3b0a9544	0.0021146098
81	0x3a17d525	0.0005791954
82	0xbdbce4de	-0.092233405
83	0xbd018c97	-0.031628218
84	0xbb5512c8	-0.0032512415
85	0xbd057e78	-0.032591313
86	0x3d807934	0.06273118
87	0x3de3a36c	0.111151546
88	0x3d824254	0.06360307
89	0x3de54b4b	0.111960016
90	0x3db2e022	0.08734156
91	0xbd63f7eb	-0.055656355
92	0x3d2dc5b9	0.04242489
93	0xbcad7b25	-0.021176884
94	0xbd90b6d0	-0.07066119
95	0x3d95d8d4	0.07316747
96	0x3d128e47	0.035780217
97	0xbc937851	-0.018001707
98	0x3db2a3da	0.087226585
99	0x3e04fdf1	0.12987496
100	0xbcadf347	-0.021234168
101	0xbe10fc3d	-0.14158721
102	0x3de4574f	0.11149465
103	0xbd889db9	-0.06670708
104	0x3d972fe4	0.07382181
105	0x3ddfad6c	0.109217495
106	0x3d671d4e	0.05642443
107	0xbd71064b	-0.058843892
108	0xbc3203f7	-0.010865203
109	0xbdb5ab7e	-0.088706
110	0xbcd704ac	-0.026247345
111	0x3e0b8c5a	0.13627759
112	0x3da4acc1	0.08040763
113	0x3c1ecc8d	0.009692323
114	0xbd4bfbd8	-0.049800724
115	0x3d9c5c1f	0.07634758
116	0xbd78cb4d	-0.060740758
117	0xbdad60b8	-0.08465713
118	0x3c2a019b	0.010376359
119	0xbd08dda1	-0.033414487
120	0xbba2b271	-0.0049651195
121	0xbbbc8532	-0.005753183
122	0x3de23050	0.11044371
123	0x3ce08764	0.02740831
124	0x3dd03dab	0.10168012
125	0xbdbeeb03	-0.09322169
126	0x3dffecab	0.12496313
127	0x3d590838	0.052986354
128	0x3e076356	0.13221487
129	0xbdbb11d2	-0.09134258
130	0xbd53eb71	-0.051738206
131	0x3d69e2cc	0.057101056
132	0x3dce8536	0.10084002
133	0xbd8beb6c	-0.068320125
134	0xbca4ffee	-0.020141568
135	0xbd23026c	-0.03979723
136	0xbbd4fc38	-0.0064997934
137	0xbdb147c9	-0.0865627
138	0xbcff6d44	-0.031180032
139	0xbe0ea985	-0.13931854
140	0xbd1ab77a	-0.037772633
141	0xbc72e389	-0.014824756
142	0x3e041489	0.12898459
143	0xbb947f4f	-0.004531778
144	0x3c8b22b2	0.016984317
145	0x3cce577c	0.0251882
146	0x3dc2fbf1	0.0952071
147	0xbd9295ba	-0.07157464
148	0xbd078649	-0.03308705
149	0x3c309b48	0.010779209
150	0x3d8bc10e	0.06823932
151	0xbd8a9e8a	-0.0676852
152	0x3d7d0d5a	0.06178031
153	0xbdb384a0	-0.087655306
154	0xbd4d3121	-0.05009568
155	0xbb206257	-0.0024472678
156	0xbc94b2cc	-0.018151663
157	0xbd81b99d	-0.06334231
158	0x3c680dec	0.0141634755
159	0x3dedddb5	0.11614553
160	0xbd73a4eb	-0.05948345
161	0xbcf1938c	-0.029489301
162	0xbe0d5f66	-0.13805923
163	0x3d4fcdb3	0.05073328
164	0x3da6f513	0.08152213
165	0x3dc6bcd0	0.09703982
166	0xbd7c1435	-0.06154271
167	0x3df6c204	0.12048724
168	0xbc0f84ba	-0.008759672
169	0x3c7a6a15	0.015284081
170	0x3e0369d8	0.12833345
171	0x3d9145da	0.07093401
172	0xbc78cafa	-0.015185112
173	0xbc81001d	-0.015747124
174	0x3da162dd	0.07880185
175	0x3d4e16dc	0.05031477
176	0xbdd62d2e	-0.10457836
177	0xbd3f3798	-0.046683878
178	0x3dba86bc	0.0910773
179	0x3dafa618	0.08576602
180	0xbe01631a	-0.1263546
181	0x3df8df54	0.121519715
182	0x3ccd13b9	0.025033819
183	0x3d31849c	0.043339357
184	0x3e0337f4	0.12814313
185	0x3d936686	0.07197289
186	0xbdd4597c	-0.1036863
187	0xbd5e65ae	-0.054296188
188	0x3de94229	0.11389572
189	0x3dd10da4	0.1020768
190	0xbda69363	-0.081335805
191	0xbd1ce036	-0.03829976
192	0x3d44de66	0.04806366
193	0xbd8fc93a	-0.07020803
194	0xbd0fd017	-0.03511056
195	0x3d3bc9f3	0.04584689
196	0xbd3685a3	-0.04456104
197	0xbd88e325	-0.066839494
198	0x3d94bff1	0.072631724
199	0x3c62b05d	0.013835994
200	0x3d9e10e3	0.07718065
201	0x3d1594f0	0.03651899
202	0x3da6beff	0.08141898
203	0xbdb4cb31	-0.08827818
204	0xbd6f6365	-0.0584444
205	0xbde3559e	-0.111003146
206	0xbde0cc9d	-0.10976527
207	0x3c9cc3f3	0.019136405
208	0x3c77d7a3	0.015127095
209	0x3e00fc2e	0.12596199
210	0x3d91d8fc	0.071214646
211	0xbd443ed4	-0.04791148
212	0x3debc84b	0.11512812
213	0xbd031413	-0.032001566
214	0xbc9aeabf	-0.018910764
215	0x3daee64d	0.0854002
216	0x3db7b7d0	0.08970606
217	0xbd80b91d	-0.062853076
218	0xbd57089f	-0.052498456
219	0xbdeb1ffb	-0.11480709
220	0xbe0c55ce	-0.13704607
221	0xbc66e6b8	-0.014093094
222	0xbde91cde	-0.11382459
223	0xbc9dcd54	-0.019262947
224	0xbdc0fe2d	-0.0942348
225	0xbcce6e07	-0.02519895
226	0x3d6c4466	0.057682417
227	0xbdf20253	-0.118168496
228	0xbdb2da35	-0.08733026
229	0x3dc4943d	0.09598587
230	0x3d18c0a6	0.0372931
231	0xbd2dcf8c	-0.04243426
232	0xbd874e26	-0.066067025
233	0x3de26abb	0.110555135
234	0xbdb08569	-0.08619196
235	0xbdb7c13e	-0.08972405
236	0xbb2fe1f7	-0.0026837566
237	0x3dc757a8	0.09733516
238	0xbd9f0862	-0.07765271
239	0x3d2a3b7b	0.04156063
240	0x3d88dcfb	0.06682774
241	0x3af8655e	0.0018951108
242	0x3db1cb88	0.08681399
243	0xbdd8499e	-0.10560916
244	0xbcaea865	-0.021320531
245	0x3d7bcaf5	0.06147285
246	0xbc968678	-0.018374667
247	0x3d53a51d	0.051671136
248	0xbdb6a6d8	-0.08918542
249	0x3ca46373	0.020066952
250	0xbd869a02	-0.065723434
251	0xbc24a20b	-0.0100484
252	0x3c42fe75	0.011901488
253	0x3dcb5432	0.09928168
254	0xbce6e00c	-0.028183006
255	0xbd067f7a	-0.032836415

model.transforms.0.encoder.noise_dist.transforms.0.ar_net.l_out.0.weight f4 [33, 64]
0	0xbe09d1fe	-0.13459012
1	0xbda3095d	-0.0796077
2	0x3ca4b3a3	0.020105189
3	0x3dba878f	0.09107887
4	0x3db5f486	0.0888453
5	0xbc4fbc5c	-0.012679186
6	0xbd9c41d8	-0.07629746
7	0x3e082d3c	0.13298506
8	0x3ca1e41d	0.019762093
9	0x3dbd58cf	0.092454545
10	0x3db4f1e9	0.08835203
11	0x3e13572a	0.14388719
12	0x3d69e217	0.05710038
13	0xbb0327dc	-0.0020012772
14	0x39b05867	0.000336352
15	0xbd7823b1	-0.060580913
16	0x3d3d6446	0.046238206
17	0xbcc48706	-0.023990165
18	0x3dac465d	0.08411858
19	0x3df214d0	0.11820376
20	0xbd6cf3f8	-0.057849854
21	0x3cd81756	0.026378315
22	0x3bba36cb	0.0056828014
23	0x3cab9143	0.02094329
24	0xbba05530	-0.0048929676
25	0xb96621a1	-0.00021947037
26	0xbe046f2d	-0.12933035
27	0xbdd696af	-0.10477959
28	0x3ca04df8	0.019568428
29	0xbd276ec7	-0.04087713
30	0x3db02b15	0.08601967
31	0xbdffcae8	-0.12489873
32	0x3d07b44f	0.03313094
33	0x3d6a35ff	0.0571804
34	0x3e0ba1ab	0.1363589
35	0xbddc29db	-0.10750171
36	0x3cfcbbbb	0.030851236
37	0xbdcd2042	-0.10015918
38	0xbdfb67c0	-0.12275648
39	0xbdee400a	-0.11633308
40	0xbc39d1da	-0.011341536
41	0x3dba1fa4	0.09088066
42	0xbc74c3e8	-0.014939286
43	0xbe03253e	-0.12807176
44	0xbd8e9fd3	-0.06964078
45	0x3e035cb9	0.1282834
46	0xbd59153d	-0.05299877
47	0x3df8138f	0.121131055
48	0xbd8fdbe3	-0.07024362
49	0xbd890de1	-0.066921
50	0x3cb8b964	0.022549339
51	0xbd8ab7f0	-0.067733645
52	0xbd9a23e1	-0.075263746
53	0x3d3d4492	0.046207972
54	0x3d33c49c	0.043888673
55	0x3d87ee06	0.06637196
56	0xbb2d5a37	-0.0026451477
57	0xbc4bc14a	-0.01243622
58	0xbdc8cf3d	-0.098051526
59	0x3e0f1a38	0.13974845
60	0x3d95c231	0.0731243
61	0xbdfae043	-0.12249806
62	0xbd4590c8	-0.048233777
63	0x3ceec310	0.029145747
64	0x3daf47b3	0.085585974
65	0x3dd90469	0.10596544
66	0xbde09844	-0.10966542
67	0xba96dddf	-0.0011510215
68	0xbd2b52bc	-0.04182695
69	0xbd1fe150	-0.039033234
70	0xbdacd9e3	-0.08439996
71	0xbbd826fe	-0.006596445
72	0x3db67ed3	0.089109086
73	0xbd510a1c	-0.05103503
74	0x3d8978b0	0.067124724
75	0x3db10ca8	0.08644992
76	0xbda5758e	-0.080790624
77	0xbd0f73b6	-0.03502246
78	0xbd74c9fb	-0.059762936
79	0x3dadab2d	0.08479915
80	0x3dab329a	0.08359261
81	0xbd89e5a4	-0.067332536
82	0xbdf50c66	-0.119652554
83	0x3cbe2f3e	0.023215886
84	0x3dbeb0c4	0.09311059
85	0x3d6fb471	0.05852169
86	0x3d856682	0.065136924
87	0x3ddc48f2	0.10756101
88	0x3df1d275	0.118077196
89	0xbdc45616	-0.09586732
90	0x3d6bf050	0.057602227
91	0xbd9a9088	-0.075470984
92	0x3d530ed3	0.05152781
93	0xbdf46e90	-0.119351506
94	0xbc2e9832	-0.010656403
95	0xbdb04707	-0.086072974
96	0xbdd0b5ce	-0.101909265
97	0xbbd48972	-0.0064861113
98	0x3d27885b	0.040901523
99	0x3df3a834	0.118973166
100	0xbc184536	-0.009293845
101	0x3dc9a5a4	0.098460466
102	0x3dd2cce6	0.102929875
103	0x3d240ac2	0.040049322
104	0xbddb492b	-0.10707315
105	0x3d9862a2	0.07440688
106	0x3dc8ecae	0.09810768
107	0xbc7c86e9	-0.015413024
108	0xbd7cbca6	-0.061703347
109	0x3d6e762d	0.05821817
110	0xbd5a7fdc	-0.053344592
111	0xbe0cdce7	-0.13756143
112	0xbd8c411c	-0.06848356
113	0xbd682467	-0.05667534
114	0xbba5215a	-0.005039376
115	0xbd313e02	-0.043272026
116	0xbda4b3c2	-0.080420986
117	0x3d83db9d	0.06438372
118	0xbdd4e1b6	-0.103946134
119	0xbb6a392e	-0.0035739648
120	0x3d684a5e	0.056711547
121	0xbe04c84a	-0.12967029
122	0xbdd686ee	-0.104749545
123	0x3daeebae	0.08541046
124	0x3b8b49f0	0.0042507574
125	0x3c452f10	0.012035146
126	0xbded8c53	-0.1159903
127	0x3d9b7be3	0.07591989
128	0xbda10c95	-0.07863728
129	0x3d246177	0.040132012
130	0x3d83a765	0.06428412
131	0x3e0225fe	0.12709805
132	0xbe0cc9b8	-0.13748825
133	0xbde21074	-0.110382944
134	0x3d6139fc	0.05498694
135	0x3dd7cf4c	0.105375856
136	0xbdd859f3	-0.105640315
137	0x3c99661d	0.01872545
138	0xbe04342c	-0.12910527
139	0xbdbaab17	-0.09114664
140	0xbde453e2	-0.11148812
141	0x3c1f12ca	0.0097090695
142	0xbbbab784	-0.0056981463
143	0xbdcb55fb	-0.09928509
144	0xbdd95763	-0.10612371
145	0x3d246382	0.04013396
146	0x3dc50b6f	0.096213214
147	0xbddfb465	-0.109230794
148	0xbcfe9557	-0.03107707
149	0xbda69204	-0.08133319
150	0xbd22fa98	-0.039789766
151	0xbdc079af	-0.09398209
152	0x3d8198f9	0.06328005
153	0x3d9577c6	0.072982356
154	0x3d72587e	0.059166424
155	0xbd8f7d97	-0.07006376
156	0x3d361dae	0.0444619
157	0xbd23a9ec	-0.039956972
158	0xbddf9519	-0.1091711
159	0xbca461fe	-0.020066258
160	0x3ca5ae30	0.02022466
161	0xbdea0b84	-0.11427978
162	0x3d4b428d	0.049624015
163	0x3daf4b6b	0.08559307
164	0x3ccf34ad	0.025293672
165	0x3d36e7cc	0.044654652
166	0x3d8f9abe	0.070119366
167	0xbdef5df6	-0.116878435
168	0xbd8b4779	-0.06800742
169	0x3c801fa5	0.01564009
170	0xbdd82a0b	-0.10554894
171	0x3ca97a95	0.020688334
172	0x3dc7162a	0.09721024
173	0xbce4ef95	-0.027946273
174	0x3ddc30f8	0.107515275
175	0x3cd6d37c	0.02622389
176	0xbdb3d5ca	-0.087810114
177	0xbd58789b	-0.052849393
178	0x3dde256d	0.10846982
179	0xbdc6292f	-0.09675824
180	0x3d92a185	0.07159714
181	0xbd91e309	-0.07123382
182	0x3d9818f8	0.074266374
183	0x3dd948c7	0.10609584
184	0x3da19e16	0.078914806
185	0xbdeda1c4	-0.1160312
186	0x38193a87	3.653255e-05
187	0xbd6f125e	-0.058367126
188	0x3dfa8c30	0.1223377
189	0xbddb476e	-0.107069835
190	0xbd8532bb	-0.06503817
191	0xbdd4846f	-0.10376822
192	0xbcce69c7	-0.025196923
193	0x3d54aed9	0.05192456
194	0x3de0acd1	0.10970462
195	0x3d8f3343	0.06992199
196	0x3d0db408	0.03459552
197	0x3d7087c1	0.058723215
198	0x3cd9a99e	0.026570138
199	0xbdbc6a74	-0.09199992
200	0xbc0eff5e	-0.0087278765
201	0xbddd22e5	-0.10797671
202	0xbd9fce5b	-0.07803031
203	0x3dcfdcea	0.10149558
204	0x3d7af274	0.061266378
205	0xbcc54b90	-0.024083883
206	0xbbd2fd08	-0.006438855
207	0xbc6c5aad	-0.014425916
208	0x3dd311d3	0.10306134
209	0x3e047208	0.12934124
210	0xbdbddfcd	-0.09271202
211	0xbd115f92	-0.035491534
212	0x3d3a026b	0.045412462
213	0xbb846ee8	-0.0040415414
214	0x3d86e5f7	0.06586831
215	0x3cf66b28	0.030080393
216	0xbd426353	-0.047458004
217	0xbe04e881	-0.12979318
218	0x3d97318f	0.073824994
219	0xbd6f8b8a	-0.058482684
220	0x3deed718	0.116621196
221	0xbd34b78f	-0.044120368
222	0xbdae74bb	-0.08518358
223	0x3d3eb3d2	0.04655821
224	0xbc9b8ff7	-0.018989546
225	0xbe01f14f	-0.12689708
226	0x3d9a485e	0.07533334
227	0x3d2e37ad	0.042533565
228	0x3dc8e0fc	0.09808537
229	0x3dbd0c02	0.09230806
230	0x3d374457	0.04474291
231	0xbd99f353	-0.075171135
232	0x3de8645d	0.11347268
233	0x3ddef950	0.10887396
234	0xbcc7fcc7	-0.024412526
235	0xbdbd6384	-0.09247497
236	0x3d16ccf5	0.036816556
237	0x3d91b825	0.07115201
238	0x3d131909	0.035912547
239	0xbd24aaf5	-0.0402021
240	0xbd9dc3d5	-0.077033676
241	0xbd7c1d53	-0.061551403
242	0xbdbe905d	-0.09304879
243	0xbdaeb3cc	-0.08530387
244	0x3cf44aa8	0.029820755
245	0x3bd84c56	0.006600897
246	0x3d2d4ec3	0.04231144
247	0xbd191a43	-0.03737856
248	0xbde205c3	-0.11036255
249	0xbdf29d67	-0.11846428
250	0xbda9ad5f	-0.08285021
251	0xbd9905cb	-0.07471808
252	0xbdda477c	-0.10658166
253	0x3d351437	0.04420873
254	0xbd86b11c	-0.0657675
255	0x3de28939	0.110613294

model.transforms.0.encoder.noise_dist.transforms.0.ar_net.l_out.0.bias f4 [33]
0	0x3d8c36a5	0.0684636
1	0x3d32896a	0.04358808
2	0x3e01d9a4	0.1268068
3	0xbd8fe450	-0.07025969
4	0xbcf126cb	-0.029437443
5	0x3d89af41	0.0672288
6	0xbc591c4a	-0.013251374
7	0xbd8c9f1a	-0.06866284
8	0x3ce5c71a	0.02804904
9	0xbdbbe49d	-0.09174464
10	0xbdc6ebe5	-0.09712962
11	0x3cb02daf	0.021506159
12	0x3ddeee06	0.10885243
13	0x3d202116	0.039094053
14	0x3dbc7bca	0.092032984
15	0x3dc704a0	0.09717679
16	0xbd301dbb	-0.042997103
17	0xbdc0874e	-0.09400807
18	0x3b7756a1	0.0037740844
19	0x3a74abfc	0.0009333489
20	0x3d94042a	0.07227357
21	0x3a5adf1b	0.00083492853
22	0x3dc9cd97	0.09853666
23	0x3d438638	0.047735423
24	0x3dd02e52	0.10165085
25	0xbdbe98d4	-0.093064934
26	0xbd2ba6e1	-0.041907195
27	0x3e0a4f40	0.13506794
28	0xbd9f77f8	-0.07786554
29	0x3d27f666	0.04100647
30	0x3dc52cd7	0.09627693
31	0xbc2f46b7	-0.010698012
32	0xbdb98831	-0.090591796

model.transforms.0.encoder.noise_dist.transforms.0.ar_net.l_out.1.first_token f4 [1, 1, 33]
0	0x3e081d5b	0.13292448
1	0x3bdb96fc	0.0067013483
2	0xbc08a356	-0.008339724
3	0xbe5c9500	-0.21541214
4	0x3e8148ed	0.2525095
5	0xbd8a9bab	-0.067679726
6	0xbe62e137	-0.22156225
7	0xbe814f1f	-0.25255677
8	0xbddb2f32	-0.10702361
9	0xbe08142f	-0.1328895
10	0x3dbbeb1f	0.09175705
11	0xbd625e5e	-0.055265777
12	0x3e254fd5	0.16143735
13	0x3e0394ab	0.12849681
14	0x3e7e0a63	0.2480865
15	0x3e177014	0.14788848
16	0x3e081d84	0.1329251
17	0x3e55b866	0.20871124
18	0x3d9a7eee	0.07543741
19	0x3d1169bb	0.035501223
20	0x3d7597a6	0.059959076
21	0x3dc7bc58	0.097527206
22	0xbd4e2402	-0.05032731
23	0xbe325d2c	-0.17418355
24	0x3df93253	0.12167802
25	0xbe0909c1	-0.13382627
26	0xbe84958c	-0.25895345
27	0xbe38a21a	-0.18030587
28	0x3bc45513	0.005991587
29	0xbe14728f	-0.14496826
30	0xbe1d2ba2	-0.15348676
31	0x3e443f68	0.19164813
32	0xbe4f054f	-0.20216869

model.transforms.0.encoder.noise_dist.transforms.0.autoregressive_net.lstm.weight_ih_l0 f4 [256, 35]
0	0x3dcba8ce	0.09944306
1	0xbde074b0	-0.109597564
2	0xbdb167c2	-0.08662368
3	0x3e0e9325	0.13923319
4	0xbcb127a6	-0.021625351
5	0xbc859360	-0.016305625
6	0x3d228656	0.039678894
7	0x3d98ad8b	0.07454976
8	0xbd7213d7	-0.059100952
9	0xbddd3f07	-0.10803037
10	0x3bb17073	0.0054150163
11	0x3de6259a	0.11237641
12	0xbceafd42	-0.028685216
13	0x3df0c69d	0.117566325
14	0xbc219d99	-0.009864234
15	0x3df8e6d8	0.12153405
16	0x3d453e06	0.048154853
17	0x3e005014	0.12530547
18	0x3dda64d8	0.10663766
19	0x3d34deb4	0.0441577
20	0xbc2053a1	-0.009785564
21	0xbd8c5670	-0.06852424
22	0x3da83d34	0.082147986
23	0x3c94c202	0.018158916
24	0x3d2e19cf	0.04250508
25	0x3c81f222	0.015862528
26	0xbe02faae	-0.12790939
27	0x3d8dcd40	0.06923914
28	0x3d1340c8	0.035950452
29	0x3e1ba41c	0.15199322
30	0x3d3394e1	0.043843154
31	0x3d2fe127	0.04293933
32	0x3dae0784	0.08497527
33	0x3d2daaf1	0.04239935
34	0x3df71f6b	0.120665394
35	0xbdce4725	-0.100721635
36	0x3c795fea	0.015220622
37	0xbd62f4ef	-0.055409368
38	0x3caf84fb	0.021425715
39	0x3a86a427	0.001027231
40	0xbdd256c5	-0.10270456
41	0x3d084e23	0.033277642
42	0xbcd98f34	-0.026557542
43	0xbe02e152	-0.12781265
44	0xbc95b66d	-0.018275464
45	0xbdaa12df	-0.083043806
46	0xbcdfba3d	-0.027310485
47	0xbde7bf94	-0.113158375
48	0xbdabb104	-0.083833724
49	0xbc4f5847	-0.012655324
50	0xbde38af3	-0.11110487
51	0xbd480a29	-0.048837814
52	0xbbf9ff58	-0.0076293163
53	0xbdc66510	-0.09687245
54	0xbd47c42b	-0.048771065
55	0x3da56faa	0.08077939
56	0x3ca4e47c	0.020128481
57	0xbda53850	-0.080673814
58	0x3d62ddf2	0.055387445
59	0xbd80a269	-0.06280977
60	0x386e14db	5.6763045e-05
61	0x3dcb5b80	0.099295616
62	0xbc8d455d	-0.017244989
63	0x3dc74e74	0.097317606
64	0xbdd97dcc	-0.10619697
65	0xbde6fc93	-0.112786435
66	0xbd8983eb	-0.067146145
67	0x3d879bcc	0.06621513
68	0x3dd58504	0.10425761
69	0xbd570676	-0.052496396
70	0x3d944739	0.07240147
71	0x3d6d2afa	0.057902314
72	0xbcb1c3a8	-0.021699741
73	0x3e047205	0.1293412
74	0x3c8ce201	0.01719761
75	0x3dc0cf7f	0.09414577
76	0xbddbaf1c	-0.10726759
77	0xbd3018c7	-0.04299238
78	0x3cbfbd96	0.023405831
79	0x3e01d188	0.12677586
80	0xbe00face	-0.12595674
81	0x3d75d615	0.060018618
82	0xbdf18ed7	-0.11794823
83	0x3d838aac	0.06422934
84	0xbda8fd69	-0.08251459
85	0x3c9902cc	0.018678091
86	0x3d924cd8	0.07143563
87	0x3db9867d	0.09058855
88	0x3d1fef01	0.03904629
89	0xbbe881a1	-0.007095531
90	0xbd5f2f67	-0.054488566
91	0x3cef4752	0.029208813
92	0x3d840629	0.064464875
93	0xbdc4302c	-0.095795006
94	0x3d967fcc	0.07348594
95	0xbbb6944b	-0.005571877
96	0xbda1f6d2	-0.07908405
97	0x3d90376f	0.07041823
98	0x3ca9edbf	0.020743249
99	0x3c8e5484	0.017374285
100	0x3c9387d0	0.018009096
101	0xbd8c0ed9	-0.068387695
102	0xbc8ed263	-0.017434305
103	0xbc9af53c	-0.018915765
104	0xbdba9cc1	-0.0911193
105	0x3d1cc48c	0.03827338
106	0xbb97d307	-0.0046333107
107	0x3cc7437c	0.024324171
108	0xbd7a1ed6	-0.061064564
109	0xbc72f9df	-0.014830082
110	0x3d6e483a	0.05817435
111	0xbe07c6e3	-0.13259463
112	0x3dd91973	0.10600557
113	0xbd186e76	-0.03721472
114	0x3dc3a1e7	0.09552365
115	0x3d5a5857	0.053306904
116	0x3cddeaf6	0.027089577
117	0x3dc15f88	0.09442049
118	0xbd219ba5	-0.039455075
119	0x3b83d6a8	0.0040233918
120	0x3d7b4626	0.061346196
121	0x3cef1667	0.029185487
122	0xbd02fe68	-0.031980902
123	0xbdd729d3	-0.10506024
124	0xbd783b18	-0.06060323
125	0x3c8028ff	0.015644548
126	0xbdb23c31	-0.08702887
127	0x3da4c63e	0.08045624
128	0x3d1f2b39	0.03885958
129	0x3d6ed885	0.058311958
130	0xbc8fe935	-0.017567256
131	0xbd96d4f0	-0.07364833
132	0xbdf8224d	-0.12115917
133	0x3ced80fb	0.028992167
134	0x3da6476a	0.0811909
135	0x3c50a2d0	0.01273413
136	0xbd638bb5	-0.055553157
137	0x3cfc0111	0.030762227
138	0x3d30a0ba	0.04312203
139	0x3de283f6	0.11060326
140	0x3c01681c	0.007898357
141	0xbdc8e510	-0.09809315
142	0x3ce676bf	0.028132794
143	0xbd3cb2ef	-0.046069082
144	0x3d874e02	0.06606676
145	0xbe0be721	-0.13662387
146	0xbd0e0bbf	-0.03467917
147	0xbd8b13db	-0.067908965
148	0xbdc14697	-0.09437292
149	0x3d9daaa9	0.076985665
150	0xbcb9764f	-0.022639422
151	0xbcde57b1	-0.027141424
152	0xbc829066	-0.015937995
153	0xbd0d49d5	-0.03449424
154	0x3cf1d718	0.02952151
155	0xbd5d8239	-0.054079268
156	0x3d92b90a	0.071642
157	0x3d33f4a7	0.04393449
158	0xbce7b855	-0.028286139
159	0x3d52c59e	0.051457994
160	0xbd5fdac3	-0.054651987
161	0xbd62a7a1	-0.055335645
162	0x3dacc9a2	0.08436896
163	0x3ccf877c	0.025333159
164	0xbda7fbf1	-0.08202351
165	0xbdb172f2	-0.08664502
166	0xbd92e716	-0.071729824
167	0xbd97e2a2	-0.07416274
168	0x3ccc374b	0.02492871
169	0xbb62001a	-0.0034484924
170	0xbdd6f6cf	-0.10496294
171	0xbd813d66	-0.06310539
172	0x3d83e648	0.06440407
173	0xbd55aaf9	-0.052165005
174	0x3be9630d	0.0071224035
175	0x3e0ecc18	0.13945043
176	0xbd56e65d	-0.052465785
177	0xbd8ed5e6	-0.06974392
178	0xbcd24bc7	-0.0256709
179	0x3e17a85e	0.1481032
180	0xbd9400c0	-0.072267056
181	0x3d9cbb44	0.076529056
182	0x3e05f00f	0.13079856
183	0x3bfc21f8	0.007694479
184	0xbd0ccb09	-0.034373317
185	0xbddc8c63	-0.10768964
186	0x3dbb57e2	0.09147622
187	0x3d87ba38	0.06627315
188	0x3c360afb	0.011111016
189	0xbcaaf3e5	-0.020868251
190	0xbd9bd24f	-0.076084726
191	0xbdc425fa	-0.09577556
192	0xbd7936bb	-0.06084321
193	0x3dd0874f	0.10182058
194	0xbca2972a	-0.019847471
195	0x3d0d3951	0.03447849
196	0x3e022149	0.1270801
197	0x3cf4176a	0.029796321
198	0x3c95bc53	0.018278277
199	0xbdcbc1b9	-0.09949059
200	0x3ddb570d	0.10709963
201	0xbe1ccd3c	-0.15312666
202	0xbc401210	-0.011723056
203	0xbd8e6f62	-0.06954838
204	0xbddea18d	-0.10870657
205	0x3bb56405	0.005535605
206	0xbc80102a	-0.015632708
207	0xbe486a7c	-0.1957187
208	0xbe14e80f	-0.14541648
209	0xbd77a423	-0.060459267
210	0xbd11b987	-0.035577323
211	0x3e0a5465	0.13508756
212	0x3c8e9775	0.017406205
213	0x3da543cf	0.08069574
214	0x3e15c715	0.14626725
215	0xbdcd71da	-0.10031481
216	0x3d037332	0.03209228
217	0xbc8789a4	-0.016545124
218	0xbdfeefaa	-0.12448056
219	0xbcf438a8	-0.029812172
220	0xbdf5820b	-0.11987694
221	0x3de17369	0.11008341
222	0x3d67214a	0.05642823
223	0x3da05f41	0.07830668
224	0xbcb3929c	-0.021920495
225	0x3da46541	0.08027125
226	0x3d8351dd	0.064120986
227	0xbe0af717	-0.1357082
228	0xbd289af4	-0.0411634
229	0xbda562d1	-0.08075488
230	0xbd2f71d5	-0.042833168
231	0xbd99b4b4	-0.075051695
232	0x3e099f41	0.13439657
233	0x3c31f0e0	0.010860652
234	0xbde0acc4	-0.109704524
235	0xbdb7afaa	-0.08969052
236	0xbe26c957	-0.16287743
237	0xbd008017	-0.031372156
238	0x3a22bc40	0.0006207861
239	0xbda0ea42	-0.07857181
240	0xbddc759f	-0.10764622
241	0x3cfeebfc	0.031118385
242	0xbdc4fb4d	-0.09618244
243	0xbdda01b2	-0.106448546
244	0xbc58a86f	-0.013223751
245	0x3c8d34ca	0.017237086
246	0xbcc4b073	-0.024009919
247	0x3c566fd6	0.013088187
248	0xbddba85d	-0.10725472
249	0x3d1327e6	0.035926722
250	0x3db19e26	0.086727425
251	0x3d417053	0.04722626
252	0x3db03425	0.08603696
253	0x3df04bab	0.117331825
254	0xbda9f9b2	-0.08299579
255	0xbd99e1cb	-0.0751377
