checkpoints/pair_2/S_6_K_6/GMCD/15_05_2023__15_26/cktp/checkpoint_0002000.tar (torch, 624971 bytes, 45 tensors)

linear_encoding_layer.category_prior f4 [6]
00000000: 6058 e5bf 6058 e5bf 6058 e5bf 6058 e5bf
00000010: 6058 e5bf 6058 e5bf
-1.7917595 -1.7917595 -1.7917595 -1.7917595 -1.7917595 -1.7917595

linear_encoding_layer.fixed_encoder.bias_scale_matrix f4 [6, 10]
00000000: b991 12c1 07ba 8e3f fe91 11c0 7a0f d2bf
00000010: 0ce7 4640 2ab4 cfbf 2ab4 cfbf 2ab4 cfbf
00000020: 2ab4 cfbf 2ab4 cfbf eb93 c73f 7c24 15c1
00000030: 87f4 4dc0 82b5 5b3c e00a debf 2ab4 cfbf
00000040: 2ab4 cfbf 2ab4 cfbf 2ab4 cfbf 2ab4 cfbf
00000050: 4d06 9040 eda3 a93f 631b 1a3e d63f 3a40
00000060: 21ef 0741 2ab4 cfbf 2ab4 cfbf 2ab4 cfbf
00000070: 2ab4 cfbf 2ab4 cfbf 63bb 983f 0bd8 1d40
00000080: bde4 253f faaf d140 2f5b e6c0 2ab4 cfbf
00000090: 2ab4 cfbf 2ab4 cfbf 2ab4 cfbf 2ab4 cfbf
000000a0: a0cc a5bf 1326 74bf 1a49 1541 69da 56c0
000000b0: 5f66 aabf 2ab4 cfbf 2ab4 cfbf 2ab4 cfbf
000000c0: 2ab4 cfbf 2ab4 cfbf 1a91 5f40 7594 8940
000000d0: ca57 9dc0 b6ba c9c0 aaec 35c0 2ab4 cfbf
000000e0: 2ab4 cfbf 2ab4 cfbf 2ab4 cfbf 2ab4 cfbf
-9.160577 1.1150521 -2.2745357 -1.6410973 3.107852 -1.6226857 -1.6226857 -1.6226857
-1.6226857 -1.6226857 1.5592016 -9.321407 -3.2180498 0.013409974 -1.7347069 -1.6226857
-1.6226857 -1.6226857 -1.6226857 -1.6226857 4.500769 1.3253151 0.1504951 2.9101462
8.495881 -1.6226857 -1.6226857 -1.6226857 -1.6226857 -1.6226857 1.1932186 2.4663112
0.6480215 6.5527315 -7.198631 -1.6226857 -1.6226857 -1.6226857 -1.6226857 -1.6226857
-1.2953072 -0.95370597 9.330347 -3.3570807 -1.3312491 -1.6226857 -1.6226857 -1.6226857
-1.6226857 -1.6226857 3.4932313 4.299372 -4.9169664 -6.304042 -2.8425698 -1.6226857
-1.6226857 -1.6226857 -1.6226857 -1.6226857

linear_encoding_layer.fixed_encoder.fixed_embedding.weight f4 [6, 10]
00000000: b991 12c1 07ba 8e3f fe91 11c0 7a0f d2bf
00000010: 0ce7 4640 2ab4 cfbf 2ab4 cfbf 2ab4 cfbf
00000020: 2ab4 cfbf 2ab4 cfbf eb93 c73f 7c24 15c1
00000030: 87f4 4dc0 82b5 5b3c e00a debf 2ab4 cfbf
00000040: 2ab4 cfbf 2ab4 cfbf 2ab4 cfbf 2ab4 cfbf
00000050: 4d06 9040 eda3 a93f 631b 1a3e d63f 3a40
00000060: 21ef 0741 2ab4 cfbf 2ab4 cfbf 2ab4 cfbf
00000070: 2ab4 cfbf 2ab4 cfbf 63bb 983f 0bd8 1d40
00000080: bde4 253f faaf d140 2f5b e6c0 2ab4 cfbf
00000090: 2ab4 cfbf 2ab4 cfbf 2ab4 cfbf 2ab4 cfbf
000000a0: a0cc a5bf 1326 74bf 1a49 1541 69da 56c0
000000b0: 5f66 aabf 2ab4 cfbf 2ab4 cfbf 2ab4 cfbf
000000c0: 2ab4 cfbf 2ab4 cfbf 1a91 5f40 7594 8940
000000d0: ca57 9dc0 b6ba c9c0 aaec 35c0 2ab4 cfbf
000000e0: 2ab4 cfbf 2ab4 cfbf 2ab4 cfbf 2ab4 cfbf
-9.160577 1.1150521 -2.2745357 -1.6410973 3.107852 -1.6226857 -1.6226857 -1.6226857
-1.6226857 -1.6226857 1.5592016 -9.321407 -3.2180498 0.013409974 -1.7347069 -1.6226857
-1.6226857 -1.6226857 -1.6226857 -1.6226857 4.500769 1.3253151 0.1504951 2.9101462
8.495881 -1.6226857 -1.6226857 -1.6226857 -1.6226857 -1.6226857 1.1932186 2.4663112
0.6480215 6.5527315 -7.198631 -1.6226857 -1.6226857 -1.6226857 -1.6226857 -1.6226857
-1.2953072 -0.95370597 9.330347 -3.3570807 -1.3312491 -1.6226857 -1.6226857 -1.6226857
-1.6226857 -1.6226857 3.4932313 4.299372 -4.9169664 -6.304042 -2.8425698 -1.6226857
-1.6226857 -1.6226857 -1.6226857 -1.6226857

linear_encoding_layer.encoder_layers.0.bias_scale_matrix f4 [6, 10]
00000000: b991 12c1 07ba 8e3f fe91 11c0 7a0f d2bf
00000010: 0ce7 4640 2ab4 cfbf 2ab4 cfbf 2ab4 cfbf
00000020: 2ab4 cfbf 2ab4 cfbf eb93 c73f 7c24 15c1
00000030: 87f4 4dc0 82b5 5b3c e00a debf 2ab4 cfbf
00000040: 2ab4 cfbf 2ab4 cfbf 2ab4 cfbf 2ab4 cfbf
00000050: 4d06 9040 eda3 a93f 631b 1a3e d63f 3a40
00000060: 21ef 0741 2ab4 cfbf 2ab4 cfbf 2ab4 cfbf
00000070: 2ab4 cfbf 2ab4 cfbf 63bb 983f 0bd8 1d40
00000080: bde4 253f faaf d140 2f5b e6c0 2ab4 cfbf
00000090: 2ab4 cfbf 2ab4 cfbf 2ab4 cfbf 2ab4 cfbf
000000a0: a0cc a5bf 1326 74bf 1a49 1541 69da 56c0
000000b0: 5f66 aabf 2ab4 cfbf 2ab4 cfbf 2ab4 cfbf
000000c0: 2ab4 cfbf 2ab4 cfbf 1a91 5f40 7594 8940
000000d0: ca57 9dc0 b6ba c9c0 aaec 35c0 2ab4 cfbf
000000e0: 2ab4 cfbf 2ab4 cfbf 2ab4 cfbf 2ab4 cfbf
-9.160577 1.1150521 -2.2745357 -1.6410973 3.107852 -1.6226857 -1.6226857 -1.6226857
-1.6226857 -1.6226857 1.5592016 -9.321407 -3.2180498 0.013409974 -1.7347069 -1.6226857
-1.6226857 -1.6226857 -1.6226857 -1.6226857 4.500769 1.3253151 0.1504951 2.9101462
8.495881 -1.6226857 -1.6226857 -1.6226857 -1.6226857 -1.6226857 1.1932186 2.4663112
0.6480215 6.5527315 -7.198631 -1.6226857 -1.6226857 -1.6226857 -1.6226857 -1.6226857
-1.2953072 -0.95370597 9.330347 -3.3570807 -1.3312491 -1.6226857 -1.6226857 -1.6226857
-1.6226857 -1.6226857 3.4932313 4.299372 -4.9169664 -6.304042 -2.8425698 -1.6226857
-1.6226857 -1.6226857 -1.6226857 -1.6226857

linear_encoding_layer.encoder_layers.0.fixed_embedding.weight f4 [6, 10]
00000000: b991 12c1 07ba 8e3f fe91 11c0 7a0f d2bf
00000010: 0ce7 4640 2ab4 cfbf 2ab4 cfbf 2ab4 cfbf
00000020: 2ab4 cfbf 2ab4 cfbf eb93 c73f 7c24 15c1
00000030: 87f4 4dc0 82b5 5b3c e00a debf 2ab4 cfbf
00000040: 2ab4 cfbf 2ab4 cfbf 2ab4 cfbf 2ab4 cfbf
00000050: 4d06 9040 eda3 a93f 631b 1a3e d63f 3a40
00000060: 21ef 0741 2ab4 cfbf 2ab4 cfbf 2ab4 cfbf
00000070: 2ab4 cfbf 2ab4 cfbf 63bb 983f 0bd8 1d40
00000080: bde4 253f faaf d140 2f5b e6c0 2ab4 cfbf
00000090: 2ab4 cfbf 2ab4 cfbf 2ab4 cfbf 2ab4 cfbf
000000a0: a0cc a5bf 1326 74bf 1a49 1541 69da 56c0
000000b0: 5f66 aabf 2ab4 cfbf 2ab4 cfbf 2ab4 cfbf
000000c0: 2ab4 cfbf 2ab4 cfbf 1a91 5f40 7594 8940
000000d0: ca57 9dc0 b6ba c9c0 aaec 35c0 2ab4 cfbf
000000e0: 2ab4 cfbf 2ab4 cfbf 2ab4 cfbf 2ab4 cfbf
-9.160577 1.1150521 -2.2745357 -1.6410973 3.107852 -1.6226857 -1.6226857 -1.6226857
-1.6226857 -1.6226857 1.5592016 -9.321407 -3.2180498 0.013409974 -1.7347069 -1.6226857
-1.6226857 -1.6226857 -1.6226857 -1.6226857 4.500769 1.3253151 0.1504951 2.9101462
8.495881 -1.6226857 -1.6226857 -1.6226857 -1.6226857 -1.6226857 1.1932186 2.4663112
0.6480215 6.5527315 -7.198631 -1.6226857 -1.6226857 -1.6226857 -1.6226857 -1.6226857
-1.2953072 -0.95370597 9.330347 -3.3570807 -1.3312491 -1.6226857 -1.6226857 -1.6226857
-1.6226857 -1.6226857 3.4932313 4.299372 -4.9169664 -6.304042 -2.8425698 -1.6226857
-1.6226857 -1.6226857 -1.6226857 -1.6226857

z_0_layer.extActFixed.bias_scale_matrix f4 [6, 10]
00000000: b991 12c1 07ba 8e3f fe91 11c0 7a0f d2bf
00000010: 0ce7 4640 2ab4 cfbf 2ab4 cfbf 2ab4 cfbf
00000020: 2ab4 cfbf 2ab4 cfbf eb93 c73f 7c24 15c1
00000030: 87f4 4dc0 82b5 5b3c e00a debf 2ab4 cfbf
00000040: 2ab4 cfbf 2ab4 cfbf 2ab4 cfbf 2ab4 cfbf
00000050: 4d06 9040 eda3 a93f 631b 1a3e d63f 3a40
00000060: 21ef 0741 2ab4 cfbf 2ab4 cfbf 2ab4 cfbf
00000070: 2ab4 cfbf 2ab4 cfbf 63bb 983f 0bd8 1d40
00000080: bde4 253f faaf d140 2f5b e6c0 2ab4 cfbf
00000090: 2ab4 cfbf 2ab4 cfbf 2ab4 cfbf 2ab4 cfbf
000000a0: a0cc a5bf 1326 74bf 1a49 1541 69da 56c0
000000b0: 5f66 aabf 2ab4 cfbf 2ab4 cfbf 2ab4 cfbf
000000c0: 2ab4 cfbf 2ab4 cfbf 1a91 5f40 7594 8940
000000d0: ca57 9dc0 b6ba c9c0 aaec 35c0 2ab4 cfbf
000000e0: 2ab4 cfbf 2ab4 cfbf 2ab4 cfbf 2ab4 cfbf
-9.160577 1.1150521 -2.2745357 -1.6410973 3.107852 -1.6226857 -1.6226857 -1.6226857
-1.6226857 -1.6226857 1.5592016 -9.321407 -3.2180498 0.013409974 -1.7347069 -1.6226857
-1.6226857 -1.6226857 -1.6226857 -1.6226857 4.500769 1.3253151 0.1504951 2.9101462
8.495881 -1.6226857 -1.6226857 -1.6226857 -1.6226857 -1.6226857 1.1932186 2.4663112
0.6480215 6.5527315 -7.198631 -1.6226857 -1.6226857 -1.6226857 -1.6226857 -1.6226857
-1.2953072 -0.95370597 9.330347 -3.3570807 -1.3312491 -1.6226857 -1.6226857 -1.6226857
-1.6226857 -1.6226857 3.4932313 4.299372 -4.9169664 -6.304042 -2.8425698 -1.6226857
-1.6226857 -1.6226857 -1.6226857 -1.6226857

z_0_layer.extActFixed.fixed_embedding.weight f4 [6, 10]
00000000: b991 12c1 07ba 8e3f fe91 11c0 7a0f d2bf
00000010: 0ce7 4640 2ab4 cfbf 2ab4 cfbf 2ab4 cfbf
00000020: 2ab4 cfbf 2ab4 cfbf eb93 c73f 7c24 15c1
00000030: 87f4 4dc0 82b5 5b3c e00a debf 2ab4 cfbf
00000040: 2ab4 cfbf 2ab4 cfbf 2ab4 cfbf 2ab4 cfbf
00000050: 4d06 9040 eda3 a93f 631b 1a3e d63f 3a40
00000060: 21ef 0741 2ab4 cfbf 2ab4 cfbf 2ab4 cfbf
00000070: 2ab4 cfbf 2ab4 cfbf 63bb 983f 0bd8 1d40
00000080: bde4 253f faaf d140 2f5b e6c0 2ab4 cfbf
00000090: 2ab4 cfbf 2ab4 cfbf 2ab4 cfbf 2ab4 cfbf
000000a0: a0cc a5bf 1326 74bf 1a49 1541 69da 56c0
000000b0: 5f66 aabf 2ab4 cfbf 2ab4 cfbf 2ab4 cfbf
000000c0: 2ab4 cfbf 2ab4 cfbf 1a91 5f40 7594 8940
000000d0: ca57 9dc0 b6ba c9c0 aaec 35c0 2ab4 cfbf
000000e0: 2ab4 cfbf 2ab4 cfbf 2ab4 cfbf 2ab4 cfbf
-9.160577 1.1150521 -2.2745357 -1.6410973 3.107852 -1.6226857 -1.6226857 -1.6226857
-1.6226857 -1.6226857 1.5592016 -9.321407 -3.2180498 0.013409974 -1.7347069 -1.6226857
-1.6226857 -1.6226857 -1.6226857 -1.6226857 4.500769 1.3253151 0.1504951 2.9101462
8.495881 -1.6226857 -1.6226857 -1.6226857 -1.6226857 -1.6226857 1.1932186 2.4663112
0.6480215 6.5527315 -7.198631 -1.6226857 -1.6226857 -1.6226857 -1.6226857 -1.6226857
-1.2953072 -0.95370597 9.330347 -3.3570807 -1.3312491 -1.6226857 -1.6226857 -1.6226857
-1.6226857 -1.6226857 3.4932313 4.299372 -4.9169664 -6.304042 -2.8425698 -1.6226857
-1.6226857 -1.6226857 -1.6226857 -1.6226857

z_0_layer.mixture_weights.transformer.first.weight f4 [64, 5]
00000000: e73f 033e 4581 d5bd 0de8 303e d0d1 73bd
00000010: bc18 8a3e b880 ee3d 9fc3 37bd f264 babe
00000020: 85c6 0b3e 23dc e4be 1fe2 523d a0b2 c83d
00000030: 8d35 b0bd 716b c63e 88c5 83bd dc73 e33d
00000040: 2a05 1d3e 14bd 85be 0cca 37be e1dc da3e
00000050: 8363 e2be 5c95 cfbd 7075 eabd 03bb c83e
00000060: aa35 28bc 3031 1a3e a2cf 26bd 1092 72be
00000070: 946e 83be 81c2 47be cd15 e7be a9b9 9ebe
00000080: ecbd a13d 4b70 8f3e 7acd 603a 1ff8 67be
00000090: e41a 623e b561 47be 0cfe 6abd 0a39 69be
000000a0: d8c4 b6bd db49 d9be 6d49 343e d843 dd3d
000000b0: dd3e bf3d 6ef4 873e 2860 583e a447 de3c
000000c0: 09dc 303d c1ad 8a3c 4f4c 833e bcad bd3e
000000d0: 2a29 c13e f11e 983e 6a0d f1bd bca6 16bc
000000e0: de14 e9bd 2495 833e 2840 fb3c 4749 df3e
000000f0: 90aa 0d3e 31aa c2be b40f 3d3e a7a1 cc3e
00000100: 94f7 bf3e 9b8b 3bbc 04be b73d 1fda e6be
00000110: b5c5 60be 181b 643e d1f8 e2be d2da d63e
00000120: 9802 9ebe a2f6 653e 5900 06bd 1878 ac3d
00000130: 8251 3d3d 660e e4be 8984 bebd 918e 9abe
00000140: fd32 e33e 0d80 dbbd 2f63 ecbe 1401 f63d
00000150: 9df4 673e 650d 3cbe 8fb2 c9bc c8ba 603e
00000160: 7087 8abe 513b 6ebe 6ef0 64bd 9da1 bcbe
00000170: 7e59 993e e6ab ce3c 2be8 9a3e 17de 823e
00000180: dd3f d7be 28df 9cbe a3eb a4be 5716 febd
00000190: d35f 51be 5da0 85bd b617 eebe 041b 403e
000001a0: ee3b 4b3e 31ef 4a3e dbba 8e3e 3d6f bc3e
000001b0: 3678 f1be 3cf8 8c3d d177 a93e 4e82 93be
000001c0: bec9 46be c736 f9bc 00a5 9bbe 25d3 8ebd
000001d0: a425 b8bd 56c4 e73e 5c62 83bd 01f3 8d3e
000001e0: 8296 a73e de8c 333e a0dc abbe fff0 ad3e
000001f0: 18ee 873e 82ad 91be 1478 4cbe c362 893e
00000200: d0d3 dfbe de75 98be 9b3a afbe 0c29 0f3e
00000210: d669 3fbe f238 bbbe c7fc 333e 2cbd 553e
00000220: 7048 6b3e b43d c8be 200f e23e acbe b3bd
00000230: 1f56 d2be 294a 1dbc 286f 8d3e 425a 623e
00000240: 42c9 5bbd 46dc b23e b92f c3be 0a9f bf3e
00000250: 58f8 e63e 6e91 b0be b3a2 da3c 1dd2 8fbd
00000260: 998f babe 833f a73a 585f 37be 7022 dabe
00000270: 58f3 acbe 9ee7 13bd 0d8b cf3e 7b54 013e
00000280: 1250 87be ea60 ac3e 19c1 8f3d 7081 e4be
00000290: 34af 9e3d 5a05 9e3e d880 80be 3185 d03c
000002a0: 568e 80be 34aa b9be cf89 58be 0403 583d
000002b0: fd9d 9e3e 304f d3bd c8ec c4be 2f1d a23c
000002c0: 2e68 b0be d72e 2d3d 2d4e 8d3e 3818 4f3e
000002d0: 6f48 5cbe 728b 52bd a40b 2f3e d458 003e
000002e0: d0f7 d0be e635 79be ef23 e3bd 0b83 423e
000002f0: a5cf af3e 84de 223e c205 ff3d 4820 e8be
00000300: c9e7 753e 50d3 c13d c0f9 fcbd 35ce 76be
00000310: 506e 403e 29e1 83be 743d 613e 4f03 ae3e
00000320: 71f4 a5be 42b9 a2be 0479 57be 616e bdbe
00000330: 080d e1bd 8ab8 923e 0a54 6b3e 4858 09be
00000340: 4c2a 77bd e880 4dbe 3919 8fbe 6b79 e2bd
00000350: 6639 83bc defd 57be b941 acbe 4af4 e73d
00000360: c082 063b da34 3cbe a2ac 1f3e 1232 cb3e
00000370: 11fa bf3d b85a a2be d67a d63e e71c 943e
00000380: bdcb 0dbd 3a36 1ebe f445 0bbe 7ad9 d23e
00000390: 5873 913e 6d3c 47be 653b b53b 011c fd3d
000003a0: e93e ed3d 8dc6 78bd 1cea 60be 7e86 6ebd
000003b0: 61e5 16be c5f7 33be 7e40 6abe ea4c 4dbe
000003c0: f9fb 39be af14 113e 9357 afbe 9ba2 cebe
000003d0: b5b4 c63e 0db0 5b3e cf70 823e 0fa4 383e
000003e0: 9f42 e5bd 087a 8cbe 18ab a4be f57f 29bd
000003f0: 2fbd 993d 06a9 cbbe 57f8 91be 0094 643e
0.12817346 -0.10425047 0.1727602 -0.059526265 0.26971996 0.11645645 -0.044864293 -0.3640514
0.13649948 -0.446992 0.051485177 0.09799695 -0.08603964 0.38753846 -0.064341605 0.11106083
0.15334001 -0.26120818 -0.17948169 0.42746642 -0.44216546 -0.1013591 -0.11448181 0.3920518
-0.010266701 0.15057826 -0.040725358 -0.23688531 -0.25670302 -0.19507791 -0.4513382 -0.31001022
0.07897553 0.2801536 0.000857554 -0.22653244 0.2208057 -0.19470866 -0.057371184 -0.22775665
-0.08924264 -0.4243916 0.17606135 0.10803956 0.09338162 0.26553673 0.2113043 0.02713377
0.043178592 0.016928555 0.25644156 0.3704661 0.37726718 0.29711106 -0.11770137 -0.009195026
-0.11380933 0.25699723 0.03067024 0.43610594 0.13834596 -0.3802047 0.18463022 0.3996708
0.37493575 -0.011446859 0.089717895 -0.45088288 -0.21950419 0.2227596 -0.44330457 0.41963822
-0.30861354 0.22457364 -0.032715175 0.084213436 0.04622031 -0.44542235 -0.09302623 -0.30186895
0.44374838 -0.10717783 -0.4616942 0.120119244 0.22651906 -0.18364485 -0.024621276 0.21946251
-0.27056456 -0.23264815 -0.055893354 -0.3684205 0.2995109 0.025228452 0.30255255 0.25560066
-0.4204091 -0.30639005 -0.32211027 -0.12406605 -0.2044671 -0.065247275 -0.46502465 0.18760306
0.1984708 0.19817807 0.27876934 0.36803618 -0.47162026 0.068832844 0.33099225 -0.28810352
-0.19412896 -0.030421628 -0.30399323 -0.069738664 -0.089915544 0.4526698 -0.06415245 0.2772446
0.32732016 0.17534205 -0.3356676 0.33972928 0.2654884 -0.28452688 -0.19967681 0.26833162
-0.43716288 -0.29777426 -0.342244 0.13980502 -0.18692717 -0.36566883 0.17576896 0.20872945
0.22976851 -0.39109576 0.44152164 -0.08776602 -0.4108133 -0.009600201 0.27623868 0.22104743
-0.05365873 0.3493368 -0.38122347 0.37426025 0.45111346 -0.34485954 0.02668891 -0.07022498
-0.3643768 0.0012760017 -0.17907465 -0.426044 -0.33779407 -0.03610956 0.40535775 0.12629883
-0.26428276 0.3366769 0.07019252 -0.44630003 0.07748261 0.30863458 -0.250983 0.025454136
-0.25108594 -0.36262667 -0.2114632 0.05273725 0.3097991 -0.10317838 -0.384619 0.019789306
-0.34454483 0.042280998 0.27598706 0.20224082 -0.21512006 -0.051402517 0.17094284 0.12533885
-0.40814066 -0.24336967 -0.11090838 0.18995301 0.34338108 0.15905195 0.1245227 -0.4533713
0.240142 0.09464133 -0.123523235 -0.24102099 0.18792081 -0.2575772 0.21996099 0.339869
-0.32413056 -0.31781965 -0.21042258 -0.36998275 -0.10988814 0.28656417 0.22981277 -0.13412583
-0.06034307 -0.20068705 -0.2794893 -0.11058315 -0.01601858 -0.21092936 -0.33643892 0.11325891
0.002052471 -0.18379536 0.15593198 0.39686638 0.09373868 -0.31709838 0.4189059 0.289283
-0.034618128 -0.15450373 -0.13600904 0.41181546 0.28408313 -0.19456644 0.005530762 0.12358857
0.11584265 -0.060736228 -0.21964306 -0.05823373 -0.14735939 -0.17574985 -0.22876164 -0.20048872
-0.18162526 0.14168046 -0.342465 -0.40358433 0.38809744 0.21453877 0.2547669 0.18031333
-0.111943476 -0.27436852 -0.32161784 -0.041381795 0.07506787 -0.39777392 -0.2850978 0.22322083

z_0_layer.mixture_weights.transformer.first.bias f4 [64]
00000000: c13c 22be 98a5 80be 834f 283e 6b88 003e
00000010: b6ed e93d 27d2 cabe 8509 0ebe 5658 18be
00000020: 419d 143b b5f6 cd3e 23fe 9fbe ab86 0abb
00000030: 8dff 263e 41f0 803e 927a ddbe 14eb 673c
00000040: de7f b33e 4ec9 97be c0de 883e f1bb 82bd
00000050: 7a08 cf3e 4562 c0be 5c9e a73d 4f39 a53e
00000060: ecee a23e b9fc 60be 5503 b7be 1f91 383c
00000070: 5162 62be 0562 923e d74f 79be 5a06 0d3d
00000080: 6ab6 c7be 0190 ad3a 20bc c03e 63a7 7a3e
00000090: ea63 373e baa4 82be 01d9 ca3e b37e 5abe
000000a0: 9a9c cb3e dc28 bcbe 2891 64be 83ff 0cbe
000000b0: 1b58 ac3d f35d 753e aa85 bd3d 2cc8 37be
000000c0: 7c1c b5be eb9d 05be eb25 63be 19e3 87be
000000d0: 8cfc 8c3e a816 8d3d 543c 71be 9880 4b3e
000000e0: c321 9abe ef23 83be 3f36 39bd 70b3 913e
000000f0: 05db 733e 84e8 9bbe 4322 9abe 728e 143e
-0.15843488 -0.25126338 0.16436581 0.1255204 0.11422293 -0.3961346 -0.13870819 -0.14877447
0.0022676738 0.40227285 -0.31248578 -0.0021137397 0.16308422 0.251833 -0.43257576 0.014155168
0.35058492 -0.2964577 0.26732445 -0.06383503 0.40436155 -0.37574974 0.081845015 0.32270285
0.31822908 -0.21971406 -0.3574473 0.011265068 -0.22107817 0.28590408 -0.24346863 0.034429885
-0.39006358 0.0013241769 0.37643528 0.24477915 0.17909208 -0.255163 0.39618686 -0.21337394
0.39767915 -0.36749923 -0.22320998 -0.13769345 0.08415242 0.2396162 0.0925401 -0.17947453
-0.35373294 -0.13048522 -0.22182433 -0.2654045 0.27536428 0.06889087 -0.2355817 0.19873273
-0.30103883 -0.25613353 -0.04521775 0.28457212 0.23814018 -0.30450833 -0.30104265 0.14507464

z_0_layer.mixture_weights.transformer.mlp.0.weight f4 [256, 64]
00000000: e528 8ebc fbc9 233d 44e6 2a3d 300d e3bd
00000010: 580f afbc fa5c 3cbc 30a3 553c aff6 6e3d
00000020: ebc8 a3bd adb1 f83c 47ff fb3d 2178 ddbd
00000030: 7642 6d3d 8c77 063e 7805 213d 19b7 893d
00000040: 2649 9ebc 0606 453d 12c5 b33b 401b 9c3d
00000050: 098f b0bd 9ba5 7e3d 7f1e 78bd fbe8 debd
00000060: 93af cb3d 294c ccbb 2a45 dbbd 2653 22be
00000070: 32cf 8abd 5417 91bd 6343 5bbd e139 a5bd
00000080: 801d d63c d47b 743d d7f3 bfbd 79e3 13bd
00000090: 8e39 e13d d1bf f8bd 200c a23d 7bdf 373b
000000a0: bb1a 473c 9a64 63bd 3fdd 883d 37e6 f3bb
000000b0: d7bc 40bc 6ad5 e63d 260d 02be 6f5e af3d
000000c0: 785d 613d f6f2 94bc 5db4 23bc 7d27 b73d
000000d0: d512 7d3d 7748 b7bd 7cc0 a0bd 7cf5 a6bd
000000e0: 19b0 eabb e6e2 493b 65c4 413d 9784 813d
000000f0: 789f 02be b35e 363d b4ed b83c 9020 9d3c
00000100: c01f eabd c640 bebd 83c8 98bc 508b 3b3d
00000110: 141b 57bd 4c79 24bd e430 ad3b eec0 1d3c
00000120: fbcb 26bc aea1 be3b 1207 9dbd 75c1 be3d
00000130: fcb6 ac3c 0bf6 243d a322 bbbd 3131 f7bc
00000140: 930f ed3c c5b2 8abd 96c4 31ba 89ee ecbd
00000150: 85a0 7dbd dfdf 62bd a1ac 94bd 0f95 973d
00000160: cb31 ba3d 785e e8bd 815b a4bc b9bd 34bd
00000170: bc19 07be e916 3dbd 6666 a83d 2cbf 95bb
00000180: a2cf 9a3c e55a cb3d 75c7 523d 35ca 983d
00000190: 1098 adbd e771 073d 4b75 ef3d 183b 083d
000001a0: b837 20bd 560c b73d 7124 24bd 05af 353d
000001b0: ac05 c5bd 51c4 eabd 1cb6 e6bd 9e8b 83bd
000001c0: f5b5 9ebd 2506 19be 905a abbd 11c3 2bbd
000001d0: 4e17 c93d 8d8c a23d 55cf 363c 9421 63bd
000001e0: 8c7e 20bd 84e8 be3d 77c7 85bd 8915 d0bd
000001f0: 2f80 56bd c3ab e23d e661 c23d 29d8 e6bd
00000200: 5b87 033e 8f0f a7bd b66a 55bd 5a1f c4bd
00000210: 2902 e43d 6815 b13d e1a7 b63d 83a6 953c
00000220: 1b6d 44bd 10f9 8a3d cfab 1fbd 2ef5 dbbd
00000230: 7d62 49bd 972d 723d 8959 debd 6824 d6bd
00000240: be92 f23d 40e9 49bd fec0 fb3c 91e3 093e
00000250: 680e 363c 4f2b 873c 49ce 863d b5bd ea3d
00000260: ff96 c2bd d0f1 683d 0c88 54bd 6f03 a5bd
00000270: 32bb e3bb 6a2e a13d 3dd6 d0bd ba06 ebbc
00000280: 11cd bcbc e24a 6b3d 2338 003d 8d68 6f3d
00000290: c6e5 ce3d 9f7f 5e3d 04d7 bebc 5046 cf3b
000002a0: 2dbd ad3d 8069 833d ba6e adbd 827a 3a3c
000002b0: 9df3 953d 7432 1a3d 2657 733a 2a9e 063c
000002c0: 6b26 3b3d ae9e 11bd 69b6 e83d 0d0b c2bd
000002d0: 8fca 07be 1453 14ba dd9a f73c c5a9 433d
000002e0: 396c 96bd d1ef cd3c 1392 e7bd 1ac7 5f3d
000002f0: 6ff4 963d 85fd 84bd 4615 8e3c 531c 993d
00000300: 459c c9ba 1d8e 6c3d 5a88 b9bd 4fe1 1a3d
00000310: c91b 3d3d 347b e23c cc60 f6bc 6a31 6f3a
00000320: fdda d33d 40fd e8bd 79d3 1cbc 7361 04bd
00000330: 283a 54bd b4e0 8dbd 4f9c bb3c 2eaa a43d
00000340: bda0 a4bd 5555 f03d 4518 683d 00d9 b5bd
00000350: 54e0 db3d ef14 72bc ba9b 463d 615a f23d
00000360: b7ee 313c 2f52 9e3d 1067 19bd 2dfe 933d
00000370: 1803 ebbc f802 b3bd af74 7dbd 2446 1dbe
00000380: e025 d538 3fc7 00bc 9f76 85bd 5170 98bd
00000390: 1226 c03c cf49 5d3d 7ba9 27bd 42f8 e93d
000003a0: 57cc 02bd d0fc 70bd 5b10 813d cfd3 133d
000003b0: 5fe0 86bd 6a1a 903c e50e e73c ab5d 363d
000003c0: d378 02bd 02cb 1abe a947 cbbd 0d5b 873d
000003d0: 2194 de3d 5375 d13d 81b4 a13c 09d5 853d
000003e0: 41f1 d33c c0db ae3d 4d72 9b3d e115 8cbd
000003f0: c3f1 d5b9 49b9 01be f89a 4e3d 539a e3bc
-0.017353484 0.039987545 0.041723505 -0.110865 -0.021369621 -0.011496777 0.013039395 0.058340725
-0.079973064 0.03035816 0.1230455 -0.108139284 0.05792471 0.13131541 0.039311856 0.06724376
-0.01932199 0.048101448 0.005486139 0.07622385 -0.08621032 0.062169652 -0.06057596 -0.10884281
0.099455975 -0.006234665 -0.107065514 -0.15852031 -0.067778006 -0.070845276 -0.05353106 -0.0806768
0.026137114 0.059688404 -0.09372681 -0.036105607 0.10997306 -0.12145961 0.07912469 0.0028056789
0.012152369 -0.055515863 0.06682824 -0.007443215 -0.011763773 0.11271174 -0.12700328 0.08562934
0.05502078 -0.018182259 -0.009991732 0.08943079 0.061785538 -0.089493684 -0.078492135 -0.08152291
-0.0071621058 0.0030805408 0.047306437 0.06324118 -0.12756145 0.044523906 0.022574283 0.019180566
-0.11431837 -0.09289698 -0.018650299 0.045787156 -0.052516058 -0.04015474 0.005285369 0.009628518
-0.010180469 0.0058176136 -0.07667364 0.09314243 0.021083347 0.040273707 -0.09137466 -0.030174823
0.02893809 -0.06772379 -0.0006781308 -0.115689345 -0.06192066 -0.05538928 -0.07259489 0.074014775
0.090915285 -0.113461435 -0.020063164 -0.044126246 -0.1319341 -0.046164427 0.08222656 -0.0045699086
0.018897835 0.09929446 0.05145975 0.07460443 -0.08476269 0.03306761 0.11692294 0.03325948
-0.039115638 0.089379 -0.040073816 0.044356365 -0.096202224 -0.11463226 -0.11265203 -0.06423114
-0.07749549 -0.1494375 -0.08366883 -0.041934077 0.09818898 0.07936964 0.01115783 -0.055451944
-0.039183185 0.093216926 -0.065321855 -0.101603575 -0.05236834 0.11067917 0.09491329 -0.11271698
0.12844603 -0.081572644 -0.05210372 -0.09576292 0.111332245 0.08646661 0.08918739 0.018267876
-0.047955614 0.06785786 -0.03898221 -0.10740124 -0.04916619 0.05912551 -0.10856921 -0.10456163
0.11844395 -0.04929471 0.030731674 0.13465716 0.011111833 0.016500143 0.065823145 0.11461965
-0.095014565 0.056871235 -0.051887557 -0.080572955 -0.0069498057 0.07870181 -0.10197113 -0.02868973
-0.023047002 0.05744446 0.031303536 0.058449317 0.101024196 0.054320928 -0.023295887 0.0063255206
0.08483348 0.06416607 -0.08468385 0.011381747 0.07321856 0.037645772 0.00092827005 0.00821642
0.045690935 -0.03555172 0.11362917 -0.09474764 -0.13260864 -0.00056581316 0.030225212 0.047769327
-0.073448606 0.025138767 -0.11307158 0.054633237 0.07370841 -0.064936675 0.017344128 0.074761055
-0.0015381655 0.057752717 -0.0905921 0.037812527 0.046169076 0.027646638 -0.030075453 0.000912449
0.10344503 -0.113764286 -0.009571903 -0.032319497 -0.051813275 -0.06927624 0.022901682 0.08040272
-0.08038471 0.11735026 0.05666377 -0.0887928 0.107361466 -0.014775499 0.048488356 0.11833645
0.010860137 0.07730519 -0.037451804 0.072262146 -0.028687999 -0.087408006 -0.061878856 -0.15358788
0.00010163686 -0.007860004 -0.06516766 -0.07443298 0.023455653 0.054025467 -0.040933114 0.114243045
-0.031933155 -0.05883485 0.06301948 0.03609067 -0.06585764 0.01759072 0.028205344 0.044522922
-0.03185351 -0.15116504 -0.099257775 0.066091634 0.10868097 0.10227456 0.019739391 0.06534774
0.025871875 0.08538008 0.075901605 -0.068401106 -0.00040806652 -0.12668337 0.05044076 -0.027783548

z_0_layer.mixture_weights.transformer.mlp.0.bias f4 [256]
00000000: 5ff5 803d cce2 68bd 6c64 e63c 61ff 8dbd
00000010: 59a8 53bd 1f53 88bd e972 093d 3c82 e53c
00000020: 813b aabd 448e 963d e787 80bd dd9a 00bc
00000030: 7f74 04be 7a70 aabd 16b6 a2bc d0e9 e7bd
00000040: e4c8 f5bd 9c00 d1ba 1317 f03b d840 6abd
00000050: dcc7 c0bd 9796 8d3d bf7c 183d 74e5 ae3d
00000060: b0f6 8d3d 42d9 0dbc 0f64 ecbd 20f3 e1bd
00000070: 7f28 a63d e7f2 edbc 022c c6bd ab09 1e3d
00000080: 3bce 87bd 2f47 b9bd 0dc8 99bd 3b6f db3c
00000090: 1395 92bd 526e 203d 3969 ef3d 4983 93bc
000000a0: 63b9 a03d fcad 18be 81b9 0cbe 230f f0bd
000000b0: 5ca3 0dbc 6788 32bd 6597 ac3c 1b97 633d
000000c0: 2f1f d6bd 3a74 af3d ef37 943c 9fb5 f1bd
000000d0: 07fb 5d3d d6a3 aa3a 8fdd 9fbd fe5f 24bc
000000e0: 51b7 abbc 771e 48bd f0ad b8bd 748a 8dbc
000000f0: f769 adbb f911 4fbc b53c d23d 1f93 0ebe
00000100: 84b1 04bd 6782 c1bd 44db 8f3d 0c71 0bbe
00000110: 4431 cc3d 1320 bf3d d054 cbbd 976f 5dbd
00000120: 7ce2 12be 6d07 773d 8556 193c 0c3c b4bd
00000130: 430d 843c 10cc 1ebd c1c1 003c cb84 ecbd
00000140: 65eb b6bd d0b9 65bc 4417 9a3d 3fb0 9ebd
00000150: e20b 2abc 80a6 c0bc e321 043d cde7 b63d
00000160: a277 cabc 6455 88ba 59cf 76bd 0886 af3d
00000170: 8e82 d43d 56c6 9e3d 791c f73d 5462 843d
00000180: 273e 01be 9fdf 9bbc f3c0 eabd b2b6 b73d
00000190: 9376 033c 7cc2 06be ae99 e9bb e4c3 123d
000001a0: c15d d03c 00de 363d 5185 adbd 1deb 20bd
000001b0: 4a52 163d 674b 91ba d491 04be 763c 13bb
000001c0: 6892 dd3d 3cce 60bd 5833 bbbd 2e3a b9bd
000001d0: ed0f 04ba 58b5 d3bc 7273 e0bd 9308 c53d
000001e0: 9f20 193d f188 483c 718b ffbd b575 583d
000001f0: 3426 593c fef5 f8bd f292 763d c0ba 513d
00000200: 21a3 83bb 6f6b d9bd 1962 17be 4e84 9f3d
00000210: 3a05 773c 7eab a83d 13b7 053d 936a 403d
00000220: 4755 05be 3a1a ac3d 9ff3 bebd cd92 21bb
00000230: 12ad 563c 3c2d f63c c673 bbbd cdb2 afbd
00000240: debd 9f3d 221a b43d 6dee 8ebd 3810 b4bd
00000250: c9a3 debc f0c6 04be d0fd c43c e247 a23d
00000260: 9e37 aebd b3ae 81bc 7fc3 35bd 9280 983d
00000270: 9e8b 69bc 6b0d f8bd a9dd 90bd 8bd8 b0bd
00000280: c41b 0dbe 18fb d9bd 1b86 c2bd dd74 d1bd
00000290: 835c a7bd 8c03 59bd 5b43 debc 2e29 14bd
000002a0: 0acc 05bd 8ec9 e1bb 4f42 b8bd 9d4c fc3c
000002b0: 4411 3b3c 78a9 24bd 5cd6 873d 8c19 9c3c
000002c0: 9772 9fbd c6a3 493c 987e 66bd b0fb 0d3d
000002d0: c3c5 473c 8aac aebd b572 d8bc b276 08be
000002e0: 541b 853d f519 d8bc a9c0 f6bd 12f2 da3c
000002f0: 41bb d53d bb48 cebd 72b8 94bd 0a14 8c3d
00000300: c2ae 2d3d 2a3d f03c 06d2 b5bd 6ec1 f4bd
00000310: 2b86 6ebd 336b 913d 8535 843d 12ed 64bd
00000320: 552d 493c 7b5d cd3d 9890 6bbb 4b64 40bd
00000330: 2b6a a0bc 0281 49bd d800 aebd 9879 1fbc
00000340: c9e5 1b3d 7f50 b5bd 9771 01be a510 0f3d
00000350: ca62 10be bc82 b93c 2a3f 033e 2368 563d
00000360: 0b2d a4bd 5bc6 cb3d 6240 63bc a6ce 5ebd
00000370: ad7f 573d 8066 23bd 4556 34bd aedb 9abd
00000380: 95d8 bdbd 7666 20bd 7766 4cbd 1cb9 39bd
00000390: 112e 373d 62fa b93b 4efd 853d 9cb4 aebd
000003a0: e775 a33b 110b 3bbc 0497 fb3d 2cd3 c0bd
000003b0: 07b4 c73d 3f31 9d3d 2471 003d b886 acbd
000003c0: 8683 9d3d 4f40 01be 2cbc a83d bc20 8f3d
000003d0: 43dc e5bb bcc1 333c 18aa 2dbd d87b 953d
000003e0: 7701 a7bd e6b3 bdbd a5c1 983a 1ccf 9f3c
000003f0: 50aa cc3c 68b9 533b be91 ed3d fbce 963d
0.06296801 -0.056856915 0.028124057 -0.06933475 -0.05167422 -0.06656479 0.033556852 0.028016202
-0.08312131 0.07351354 -0.06275921 -0.007849422 -0.12935065 -0.083222345 -0.019862216 -0.11323893
-0.120012075 -0.0015945616 0.0073269694 -0.057190746 -0.0941312 0.06913488 0.037228342 0.085398585
0.069318175 -0.008657755 -0.11542522 -0.110327005 0.08113193 -0.029046489 -0.096763626 0.03858344
-0.06631132 -0.0904678 -0.0750886 0.026786437 -0.0715734 0.03916771 0.116899915 -0.018006938
0.0784786 -0.1491012 -0.13742639 -0.11721637 -0.008644905 -0.043587115 0.021068284 0.055564027
-0.104551665 0.0856709 0.018093077 -0.118022196 0.054194476 0.0013018798 -0.07805931 -0.010032652
-0.020961436 -0.04885718 -0.09017551 -0.017277934 -0.005292173 -0.012638562 0.10265485 -0.1392331
-0.032395855 -0.094487004 0.070242435 -0.13617343 0.09970334 0.093322895 -0.09928286 -0.0540615
-0.1434421 0.060309816 0.009359007 -0.088005155 0.016119605 -0.038768828 0.0078586945 -0.11548766
-0.08931617 -0.014021352 0.07523969 -0.0774846 -0.01037881 -0.023516893 0.03225888 0.08930931
-0.024715248 -0.0010401425 -0.060256336 0.08570486 0.10376464 0.07752673 0.120659776 0.06464067
-0.12621365 -0.01902753 -0.114625834 0.08970393 0.008023876 -0.13160127 -0.0071289157 0.035831347
0.02543533 0.04464531 -0.08472694 -0.03928672 0.03669957 -0.0011085094 -0.12946254 -0.0022466457
0.108189404 -0.05488418 -0.091406524 -0.090443 -0.00050377735 -0.025843307 -0.109595194 0.09620776
0.037384626 0.012239681 -0.12477768 0.05284663 0.013253737 -0.12156294 0.06019873 0.05120349
-0.004017249 -0.106161945 -0.14783515 0.07788907 0.01507693 0.082358345 0.032645296 0.046976637
-0.13020812 0.0840344 -0.09323811 -0.002465415 0.013102787 0.030050866 -0.091529414 -0.085790254
0.07799886 0.08794047 -0.0697907 -0.08792156 -0.027177708 -0.12966514 0.024046808 0.07923867
-0.08506702 -0.015830373 -0.044375893 0.07446398 -0.014254479 -0.12111934 -0.07073528 -0.08635052
-0.13780123 -0.106435955 -0.09498235 -0.10227368 -0.08171942 -0.0529819 -0.027131727 -0.036172085
-0.03266529 -0.0068904823 -0.08997022 0.03079825 0.011417691 -0.04020068 0.06632683 0.01905515
-0.07785528 0.012307113 -0.056273073 0.034663856 0.012193146 -0.08529003 -0.026421884 -0.13326529
0.06499353 -0.026379565 -0.12048466 0.026726756 0.104361065 -0.10072466 -0.07261743 0.0683976
0.04240299 0.02932604 -0.088779494 -0.11950956 -0.05823342 0.07100525 0.064555205 -0.05589015
0.012278874 0.100275956 -0.003594434 -0.046970647 -0.019581875 -0.049195297 -0.08496255 -0.00973358
0.038060937 -0.08853244 -0.12640987 0.034927983 -0.14100185 0.022645347 0.12817064 0.052345406
-0.08016404 0.09949943 -0.0138703305 -0.054396294 0.052611995 -0.039892673 -0.044027586 -0.07561432
-0.09269825 -0.039160214 -0.049902406 -0.04534255 0.044721667 0.0056756 0.06542455 -0.08530542
0.0049884203 -0.011416213 0.12284663 -0.09415278 0.09751134 0.076754086 0.0313579 -0.08424133
0.07691102 -0.12622188 0.08239016 0.069886655 -0.0070147826 0.010971483 -0.042398542 0.07299012
-0.08154576 -0.092628285 0.001165439 0.019507937 0.024983555 0.0032306556 0.11600064 0.07363697

z_0_layer.mixture_weights.transformer.mlp.2.weight f4 [128, 256]
00000000: 16a1 0ebc df97 5b3c c6f9 3f3d e3af 453d
00000010: 2fcc 96bc 4ad9 1ebc a312 373d 93ec e8bc
00000020: 5de6 2e3d b9c6 2e3d 48c5 16bd ee12 903d
00000030: ffde 5e3d ec85 41bd 404a 973c 76b8 873c
00000040: bdf3 3cbd 04f1 823d 9ea0 00bd 7599 d3bc
00000050: 487a 683d 5d97 6c3d 27f8 133d d558 cfbb
00000060: 693f 3bbc 1952 b73b 8b13 25bd b9cc 5fbd
00000070: d7c6 80bc 9769 0cbd 3b8f 5a3d e961 1b3d
00000080: 5cda 54bd 3e2e 8cbc f146 04bd 417e 8dbc
00000090: 5ae0 2cbd e781 f83c f384 633d a4b2 5d3b
000000a0: c287 f2bc d6cf d33c c1c7 383d 98cf 253d
000000b0: d36d f6ba dfde 10bd 2faf 203d 8cf7 473b
000000c0: de5e 88b9 0639 e8bc b5f5 7abd 7ac0 803c
000000d0: 316e c7bc 2ef8 31bd 00c4 efbc 0f31 6c3d
000000e0: 6b91 b6bc 9f73 74bd 6a25 14bd a76d 373d
000000f0: dd92 d9bc 0a16 51bd 93c6 66bb a6b9 24bd
00000100: b1a3 d53c 69be bcbc 10bc 193d 51ef 813d
00000110: 5e3b 0dbd 4b49 0c3d 811e 5bbd b4fb 5a3d
00000120: f9db 2e3b 6cff 373d 6278 5abb 79ab 35bd
00000130: 51e9 e23c 4663 9a3b fb30 793d fa82 213d
00000140: 9db2 893d 7789 b0bc 9f8d 643d 2236 ff3a
00000150: d5c5 9abc e2d3 fe3c ebc1 293d 0c66 04bc
00000160: 259c 5abd 2da6 55bc a843 e83c f8b2 5a3d
00000170: 1ece 1b3d 4771 58bc 1a29 b83c 1b39 04bd
00000180: 7b13 9cbc a8ae 72bb 51bf e0bb 1176 093c
00000190: b440 333b e0a1 a63c aa83 c1bc 3162 06bd
000001a0: f962 8bbd dc1a 3ebc 0bf2 073d 20ab 2d3d
000001b0: 0647 bebc 00d5 423c 14d3 183d da40 4ebc
000001c0: 1df7 86bc 82a0 d43c 3d6b 1fbd 886e 50bd
000001d0: 6a65 463d 050d ba3a 423f 713c 3a85 52bd
000001e0: 6e72 e53c 97ec cf3b dd7d 8e3c 6411 e53c
000001f0: 48a2 85bd 877c c43a 6fcc 853c f373 603c
00000200: 4e78 fa3c 2219 2b3b 9fa2 593d 99ed 39bd
00000210: b6ca 7abd c89f 173d 00de 61bd 5efc 0d3d
00000220: 6562 c4bb c582 473d 469f 37bc d0a9 433d
00000230: d849 303d f626 ef3b 3e24 883d a7c4 8a3d
00000240: 6841 793d 987c 193c af24 c8ba 8d52 21bd
00000250: 5a4c 84bd 74ef 79bd d0d0 49bb 10cc e9bc
00000260: 6e2a 9f3c 2d8a 493d b7f3 c03c 0441 743d
00000270: acfa 683d d1e0 1c3d 8532 87bd 56ef c73c
00000280: b798 373d 0ba2 35bd 4b15 5abc cb84 1c3c
00000290: 9cc2 453d f2fc d0bc 5cb9 6abd ec4b 3dbb
000002a0: 0b96 50bd d457 533c 23fa 36bd 4e5f f13c
000002b0: 97e7 d33c 65fa 033c 9fb1 fa3c c34d 02bd
000002c0: 88ea 183d 0c62 f43b 1cdb 00bd 7910 04bb
000002d0: 308f 3d3d 3105 363d ae33 96bc 8f6d 5fbd
000002e0: d07b 33bd d842 e6bb a6cb 92bc b49c 4f3d
000002f0: c98f 6b3c 20a3 2abd b561 413d 4d08 b7bc
00000300: b3f6 733d da37 833c 2fd7 7e3d cc39 eb3c
00000310: 7851 0f3d deaf 263c 05a6 e7bc 7ae7 39bc
00000320: 122d 103d 706f c93c f9e4 333d fe6e 613d
00000330: 5b86 b2bc a55b ac3c 908f 843b b06e 823c
00000340: dac0 6a3d 2fc9 d13c 93b8 593d 2950 113d
00000350: 2a73 3ebd a32d 53bc cbb0 b1bc 32de 4cbd
00000360: 87cc 3b3c f691 c5bc 218b 29bd bfd2 d2bc
00000370: 8b6f 3fbd 231d 47bd c9b6 4e3d 50e3 bd3a
00000380: 7842 0a3d 5d94 db3c b2c3 5fbd a2f2 68bd
00000390: 5ea6 613d 23bb 69bd 560e 10bd 95d0 e83c
000003a0: 298a ecbb 27bc e23b 4b62 4ebc 7d97 dc3c
000003b0: 57bd 3f3c b1f5 aeb9 23f1 a9bc 7f5a 7abc
000003c0: 02da 82bc b240 573d 59c3 3bbc 8212 18bd
000003d0: cba5 84bc c304 2c3c 7ef7 6bbd 6aad 783d
000003e0: fc42 05bd 5291 cdbc 86d2 473d 1905 00bc
000003f0: c19e 43bc b32c 093d 4594 c73a fc02 ee3c
-0.008705398 0.013402908 0.046869062 0.04826344 -0.01840791 -0.00969536 0.044695508 -0.02843312
0.04270016 0.042669985 -0.036809236 0.070348606 0.054411884 -0.04724686 0.018468022 0.01656745
-0.046130884 0.06393626 -0.031403176 -0.02583001 0.05675724 0.05776154 0.03612533 -0.0063277283
-0.011428692 0.0055945036 -0.04030184 -0.054638598 -0.015719814 -0.034280386 0.05335925 0.03793517
-0.051966056 -0.017111894 -0.032294217 -0.017272117 -0.042206146 0.03033538 0.055546712 0.0033828402
-0.02960575 0.02585594 0.045112375 0.04048118 -0.0018801041 -0.035368796 0.039229568 0.003051254
-0.00026010623 -0.028347503 -0.06126948 0.01571678 -0.024344536 -0.043449573 -0.029268265 0.057663973
-0.022286138 -0.059680577 -0.036168493 0.044782307 -0.026559288 -0.05104641 -0.0035213574 -0.04021611
0.02607903 -0.023040013 0.037532866 0.06344474 -0.034480445 0.034249585 -0.053495888 0.0534627
0.0026681407 0.044921324 -0.0033335914 -0.044352982 0.027699145 0.0047115413 0.060837727 0.03943155
0.06723521 -0.021549923 0.055799123 0.0019471089 -0.018893162 0.031106893 0.0414447 -0.0080809705
-0.053371567 -0.013040108 0.028352574 0.053393334 0.038038366 -0.013210601 0.022480536 -0.032281023
-0.019052258 -0.0037030373 -0.006858744 0.008389966 0.0027351798 0.02034086 -0.023622353 -0.032808486
-0.06805987 -0.011603083 0.033189815 0.042399526 -0.023227226 0.0118916035 0.037310675 -0.012588704
-0.016475255 0.025955442 -0.03892063 -0.05088666 0.04843656 0.0014194554 0.0147245545 -0.051396586
0.028008666 0.0063453424 0.017394 0.027962394 -0.06525093 0.0014990725 0.016332833 0.013699519
0.030574944 0.002610751 0.053133603 -0.045392606 -0.061228476 0.037017614 -0.055143356 0.034664504
-0.005993175 0.048708696 -0.011207407 0.047769368 0.043039173 0.0072983457 0.06647538 0.0677579
0.060853392 0.009368084 -0.0015269722 -0.039385367 -0.064598754 -0.061019376 -0.0030794628 -0.028539687
0.019429412 0.04920404 0.023553712 0.059632316 0.056879684 0.03830034 -0.06601433 0.024406116
0.044823375 -0.04434399 -0.013310741 0.009553145 0.048281297 -0.025511239 -0.05730568 -0.0028884364
-0.050924342 0.012899358 -0.044672143 0.02946439 0.025867267 0.008055304 0.030602274 -0.03181244
0.03733304 0.007457977 -0.03145896 -0.002015142 0.046279132 0.044438545 -0.01833519 -0.054547843
-0.04381925 -0.0070270114 -0.017919373 0.050686553 0.014377543 -0.041659474 0.04721232 -0.022342825
0.059561443 0.016017843 0.062216934 0.028714083 0.034989804 0.010173766 -0.028277406 -0.011346692
0.035199232 0.02458927 0.043919537 0.05503749 -0.021792581 0.021039793 0.0040454343 0.01592192
0.057312824 0.025608627 0.05315454 0.035476837 -0.046496548 -0.012889299 -0.021690747 -0.05001659
0.011462337 -0.024117451 -0.04139245 -0.025735257 -0.046737235 -0.04861177 0.050467286 0.00144873
0.033754796 0.026804144 -0.05462999 -0.056872018 0.0550903 -0.057063233 -0.03516992 0.028419772
-0.0072186184 0.006919402 -0.012596677 0.026927704 0.011702857 -0.0003337092 -0.020744866 -0.015280365
-0.015973095 0.052551933 -0.011460149 -0.037127025 -0.016192337 0.010499182 -0.057609074 0.060712256
-0.032534584 -0.025093708 0.048784755 -0.007813715 -0.011939705 0.033489894 0.0015226683 0.029054157

z_0_layer.mixture_weights.transformer.mlp.2.bias f4 [128]
00000000: 2a81 4ebd f5cf a5bb 0d89 24bd 38c8 45bd
00000010: 5b9b 85bd 92a5 c8bc a4fb 81bd 9ed5 1b3d
00000020: caf7 4fbc b3db 3f3d 7864 9e3d b5af 6cbd
00000030: dd7c 0f3d 8326 0cbc 8ff1 383d b450 6d3d
00000040: 52df 203c 652b 09bc 2f5a 4b3d 598b 7d3c
00000050: 1f00 863d f4e4 38bd 81d0 173d 823e 9abb
00000060: da5a 54bd 9143 0f3d cb8e a73c 43fa 4cbc
00000070: 135a 7fbb b189 843d a3cb ed3c 5fdb a03c
00000080: a483 6b3d 992c b3bb e140 c53c 5c55 46bc
00000090: 3c32 263c c144 d33c d674 0fb9 71e7 ba3b
000000a0: 501e 0fbd d559 293d 46a8 4b3c dd46 b7bc
000000b0: 6621 273c 4f31 a13c ba0e 55bc 28e5 a23b
000000c0: db9e 163d 5a72 26bd 3ecf a13c 3f4d 19bb
000000d0: a342 51bd 83cd 4e3d c65f 2b3c 6388 2abd
000000e0: 86ea 113d d93a ab3c a40b 45bc 59c9 a83b
000000f0: 1f52 35bd 38d3 03bd 75e8 55bd 292b 0c3d
00000100: 2835 30bd 51f7 13bd 3160 0abd 422f 2e3c
00000110: a2a6 bdbc c5f7 e0bc 52ef ef3c 946e 4abc
00000120: 5428 1e3d d64f aa3c 4d7d 2dbb e7b9 c03c
00000130: 3406 5c3c 0e2e 1bbd b9c1 743d 2825 023d
00000140: 9715 54bd 5979 a03c b468 113d d90c ae3c
00000150: ad8a 0abc 8bae 6ebd ab1b bbbc 2129 77bd
00000160: 8493 48bd 57a9 843d 3a29 0ebd 5442 343d
00000170: daaa cabc dfaf 593d 89c3 8e3c f47d eb3c
00000180: dc57 163c 9de5 8d3b 056b babc d51d 2d3d
00000190: 9157 88bc d5ee 54bd 147b f53c 4be3 5cbd
000001a0: 9a0f 82bd c456 48bd 1393 86bb 8036 cb3b
000001b0: 143c 52bd 9cc6 13bd 62e7 2bbd a0e8 a53c
000001c0: 40b5 7d3d c5a7 87bb ccdf 163c ed30 393c
000001d0: 5137 623d ea50 9fbc ed2e 90bd e3d8 013c
000001e0: bfd0 873d 580b d8bc 2e77 bb3a 642e c3bb
000001f0: fe35 6d3c 1c17 a83b 13ef 03bd 60e2 5fbd
-0.05041615 -0.005060191 -0.040169764 -0.048286647 -0.06523772 -0.024493013 -0.06346825 0.038045518
-0.012693355 0.04684038 0.07734007 -0.057784755 0.03503119 -0.008554104 0.045152243 0.057938293
0.009818869 -0.0083721625 0.049646553 0.015475118 0.06542992 -0.04514022 0.03706408 -0.0047071585
-0.051844455 0.034976546 0.020453831 -0.012510839 -0.00389636 0.06471575 0.029027766 0.019635854
0.05749859 -0.005467963 0.024078788 -0.012105312 0.010143813 0.02578962 -0.00013681068 0.0057038595
-0.034941018 0.041345436 0.012430256 -0.022372657 0.010200834 0.019676832 -0.013003999 0.004971165
0.03677259 -0.040636398 0.019752141 -0.002339199 -0.05108894 0.05048896 0.010459846 -0.041633975
0.03562405 0.020902084 -0.012026701 0.0051509556 -0.04426777 -0.032183856 -0.05222364 0.03422085
-0.043019444 -0.03612453 -0.03378314 0.010631384 -0.023150746 -0.027461896 0.029288922 -0.012355465
0.03861268 0.020790022 -0.002647239 0.023526145 0.013429213 -0.037885718 0.05975506 0.031773716
-0.051778402 0.019589113 0.035500243 0.02124636 -0.008455914 -0.058271926 -0.022840342 -0.060341958
-0.048968807 0.064776115 -0.034707285 0.044008568 -0.024739671 0.05314624 0.017427223 0.028746583
0.009176221 0.0043303506 -0.022756109 0.04226478 -0.016643317 -0.05198558 0.029965915 -0.0539277
-0.06350632 -0.04891087 -0.004106888 0.0062015653 -0.051326826 -0.03607808 -0.04196871 0.020252526
0.06194043 -0.0041398727 0.009208631 0.011303169 0.055228535 -0.019447763 -0.070402004 0.007925245
0.06631612 -0.026372597 0.0014302486 -0.005956458 0.014478205 0.005129708 -0.03221042 -0.054659247

z_0_layer.mixture_weights.transformer.axial_pos_emb.weights_0 f4 [1, 1, 1, 64]
00000000: fa31 3b3f 2971 38bf f29a a93f 2e3a ce3f
00000010: 87ef 3b3f 7d9e 2bbf dad0 313f ab44 30bf
00000020: bdf4 62be 94c6 ff3e f00f 00bf 9ad6 1abf
00000030: 71e8 cb3f d3d1 81be 07b6 e7bf c3f9 243f
00000040: f5d7 dd3e 9c2b 003f 69b3 ab3f 3128 763f
00000050: c0a8 463e ceac d7be 3aeb 25be 48a4 bd3e
00000060: 0dc8 54bf 03bb 0fbf e59c 0dbf fd92 143f
00000070: 98a0 803f b6af 273d 1b59 943f 4945 eb3f
00000080: ed9b 353e 7b6a d23d b045 ee3e d101 cabe
00000090: 6db1 8f3f f4f3 99bf 16ef 11c0 26a9 45bf
000000a0: 69c1 0b40 5ea2 af3e 1228 9b3f 8eec 663f
000000b0: 6902 fabf f9bc b03e af29 28bf 28e4 1840
000000c0: ce1a 523f 59db 153f 9882 d73f 1b7a 903e
000000d0: 4cac 63bf b222 48bf c274 aa3e ee8d ab3f
000000e0: ab2f 093e 04f7 54bf f73f c63d 65ff 703f
000000f0: 21e2 96bf 3072 453f 374f 8dbf 5e59 973f
0.73123133 -0.7204767 1.325041 1.6111505 0.73412365 -0.6703871 0.6945931 -0.6885478
-0.22163673 0.4995619 -0.5002432 -0.60483706 1.593031 -0.25355396 -1.8102425 0.64443606
0.43328825 0.5006654 1.3414127 0.9615508 0.1940031 -0.42124027 -0.16203013 0.370394
-0.83117753 -0.5614473 -0.5531753 0.58036786 1.0049009 0.040939055 1.1589693 1.8380519
0.17735262 0.10274216 0.46537542 -0.3945451 1.1226021 -1.2027574 -2.2802176 -0.77211225
2.1836798 0.34303564 1.2121603 0.90204704 -1.9531986 0.34519175 -0.65688604 2.3889256
0.8207215 0.5853782 1.6836729 0.2821816 -0.8893478 -0.7817794 0.33292204 1.3402689
0.1339709 -0.83189416 0.09680169 0.941397 -1.1787759 0.7712736 -1.10398 1.1824148

z_0_layer.mixture_weights.transformer.axial_pos_emb.weights_1 f4 [1, 1, 6, 64]
00000000: 33a1 acbf bc4d 943e 53e7 53be ce8d 50bd
00000010: 1d11 293f d2e5 0140 7a7e 0f3e 3662 303f
00000020: a59b f13e 57b4 edbe ba42 ce3e c9cb 8d3f
00000030: 77d7 26c0 a4bb 9a3e 6332 f2be e2ee 733f
00000040: ecf4 4c3f c5c3 c43e d60b 8a3c 603b 853d
00000050: 850c 953e 40b1 c73e cb1b 1fc0 9d05 23bf
00000060: 9794 933e de78 6e3f 59d6 ebbe ff8c 25bf
00000070: c7ac 793e 73bc ecbe 28c7 58bd 789a d0be
00000080: 3c1f 853f b050 abbf 4a7a aebe 82a5 653f
00000090: 82e6 d13f b9bc 973e 144d 74bf ed6f 403f
000000a0: de24 8dbe 0f22 27bf 09b2 b83e e8ee e23e
000000b0: ccc7 bf3f 4d61 6b3e bdd0 83be b03c 80bd
000000c0: 1ce6 7d3f dbc5 e03b 1b4c 103f b101 83bf
000000d0: cee2 843e 595e a43e 2d52 0bbf 40af ce3f
000000e0: 1f79 1e3e bbf8 863f 5c34 e0be b84c d2bd
000000f0: de10 c7bd 950b a5bf 07e2 58be db2d 8abf
00000100: df2e 80bf 75f5 0c40 ec3b a2be 3ffd 8bbd
00000110: a378 cb3e 301d 83bf ae2a 6ab7 a633 35bf
00000120: d864 4fbf 8a3c c73e e154 083f 72ac 8b3e
00000130: 9ff7 933f 3ad1 91bd 63d2 5dbf cca5 b33f
00000140: ab71 63bf 08f4 3e3e 073d a2bd 9820 7bbe
00000150: 7ed3 5f3f b87b d5bf d637 bf3e 5463 b03f
00000160: c4de 0740 18bb b63e 2ebd 0540 e084 633e
00000170: aba9 a8bf 6781 a9bd 2727 ca3e 25db 203e
00000180: a49f 1cbe 5559 40bd 60f2 943e 53cd a6be
00000190: 4b1f f83f 4c6f c1be a9d9 603d 6e7b 093f
000001a0: 9dff c03f 8d94 bc3f dc76 cabf 4c53 f83e
000001b0: 20df 21bf 867f b83c 088d 67be a9ac ae3e
000001c0: 79d0 a63f 175e 063f 984b de3c ce4f e53d
000001d0: b422 a63f 54f8 96be bfa2 743f 59eb 333f
000001e0: 230b 2d3f f719 2bbf 6b9f 833f 18a1 78bc
000001f0: 4652 863f 60f2 81bd c66e c5bf 5a88 973f
00000200: 0123 fa3b af7c 713f 8a29 b8bf 1532 d73f
00000210: 89a7 f53e e05a 9c3e 67c7 bf3e 9fc2 37bf
00000220: 1180 cd3f 6740 833f ac6e 423e f236 debe
00000230: 21a4 9dbb 075c dcbf 464d cf3e cf47 2b3f
00000240: c969 5a3f 6f0a b2bf 65eb 06bf c95a c53e
00000250: 2595 3a3f 89c8 32bf 4cfb 81bd ed77 35bf
00000260: 22b9 2fbf a9f6 5e3f b14e 43bf d821 bd3f
00000270: 6389 5e3e 4132 f7bd c256 1bbf 7d72 4f3f
00000280: e098 ff3f 1687 2abf d631 a53f 3f73 a9bf
00000290: 3cf0 933f 5292 4a3e 55d0 0a3f 8d40 03bf
000002a0: aba3 453f 8914 813f 6b6e cfbe c920 d63f
000002b0: ace3 a9bf 354b a73e c900 333f f3aa 6ebf
000002c0: 832f b7bf 5491 6d3f b24e eb3e 9627 0bbf
000002d0: db06 68bf 8ec7 903e 3c85 8ebf b428 393f
000002e0: cc44 8dbf 3495 afbe 3442 06be e47f 573f
000002f0: f746 7f3f 2136 7e3d 4db8 58be 04c4 183e
00000300: 66e5 92bf dd13 923e 82dc 483f f410 aebe
00000310: 2f10 60bf b10f 5abf 57b3 2d3f d56e cb3f
00000320: 9974 42be 2e85 f5bf 8376 92be a683 473f
00000330: 6340 b3be 2a1d 093e 289a 72bf 8433 9c3f
00000340: e4dd cdbd efb3 f9be bd57 babd d21f 16bf
00000350: c57d 4cbd f907 853f 9c72 b2bf 587e 9a3f
00000360: e415 053f eb65 843f d82b b0be 1241 373f
00000370: 94a1 463e 20b7 b23e a00f bb3f 36f1 673f
00000380: 8f5b 69bf a699 593e a296 a3bf a685 603c
00000390: 9ca3 82bf 205a 94bf 5aee 863f 50a0 023f
000003a0: c545 983e f272 4b3f 0b5f be3f 910d 4dbf
000003b0: d89c 82bc 2e7b fa3d eafb 6f3e d63d a1bd
000003c0: db0e 1abd e84d b0be 97d3 c13f 407e 803f
000003d0: f796 2c3f ce87 0a3f 9a71 17be 8eea 183f
000003e0: 3608 653f 6980 4abd f040 983e 2f86 9f3f
000003f0: 9217 fcbe 5bb4 d1be 2566 bbbf f25f 5c3f
-1.3486694 0.28965557 -0.20693712 -0.050916485 0.6604174 2.029652 0.1401309 0.6889986
0.4718906 -0.4642665 0.40285283 1.1077815 -2.606901 0.30221283 -0.47304067 0.9528638
0.8006122 0.3843061 0.016851347 0.065054655 0.29111114 0.3900242 -2.4860713 -0.6368044
0.28824303 0.9315318 -0.46061972 -0.6466827 0.24382316 -0.46237525 -0.052924305 -0.4074285
1.0400157 -1.3383999 -0.34077674 0.8970567 1.639847 0.2963617 -0.9543011 0.75170785
-0.2756719 -0.65286344 0.3607333 0.44322896 1.4982848 0.22986336 -0.25745192 -0.06261575
0.99179244 0.0068595237 0.5636613 -1.0234891 0.25954288 0.32103232 -0.54422265 1.6147232
0.15475892 1.0544657 -0.43789947 -0.10268539 -0.09720014 -1.289416 -0.21179973 -1.0795244
-1.0014304 2.2024815 -0.31686342 -0.06835412 0.39740476 -1.0243282 -1.3957424e-05 -0.70781934
-0.8101325 0.38913375 0.53254515 0.27280003 1.1559943 -0.07119985 -0.8664915 1.4034972
-0.8884532 0.18647778 -0.07921796 -0.24524152 0.87432086 -1.6678381 0.37347287 1.3780313
2.1229715 0.35689616 2.0896716 0.22218657 -1.3176779 -0.08276635 0.39482996 0.15708597
-0.15295273 -0.046960194 0.29091167 -0.32578525 1.938455 -0.37780225 0.054895077 0.53703964
1.5078007 1.4732834 -1.5817523 0.4850105 -0.63231087 0.022521745 -0.22612393 0.34116104
1.3032371 0.5248732 0.027135655 0.11196862 1.297934 -0.29486334 0.9556083 0.7028099
0.6759512 -0.66836494 1.0283026 -0.0151751265 1.0493858 -0.063450575 -1.542443 1.1838486
0.0076335673 0.9433088 -1.4387677 1.6812159 0.47979382 0.30538082 0.3745682 -0.71781343
1.6054708 1.0254029 0.1898753 -0.43401295 -0.0048108255 -1.7215585 0.40488642 0.66906446
0.85317665 -1.3909434 -0.52702934 0.38545826 0.72883826 -0.6983724 -0.06346759 -0.7088612
-0.68641865 0.87095124 -0.7629195 1.4775953 0.21732096 -0.12070132 -0.60679257 0.8103407
1.9968529 -0.66612375 1.2905834 -1.3238295 1.1557689 0.1978238 0.5422414 -0.5127037
0.7720286 1.0084392 -0.4051393 1.6728755 -1.3272605 0.32674566 0.69923073 -0.932296
-1.4311374 0.9279988 0.45958477 -0.5435728 -0.9063546 0.28277248 -1.113441 0.72327733
-1.103662 -0.3429352 -0.13111192 0.8417952 0.9971766 0.06206334 -0.21164055 0.14918524
-1.1476257 0.2853078 0.7846147 -0.3399731 -0.87524694 -0.85180193 0.67851776 1.5893198
-0.18989791 -1.9181268 -0.28606042 0.77935255 -0.3501006 0.13390031 -0.94766474 1.2203221
-0.10052088 -0.4877009 -0.09098766 -0.58642304 -0.04992463 1.0393058 -1.3941226 1.2069807
0.5198653 1.0343603 -0.3440845 0.71583664 0.19397575 0.34905338 1.4614143 0.90602434
-0.9115533 0.21250018 -1.2780344 0.013703739 -1.020618 -1.1590004 1.0541489 0.5102587
0.2974073 0.7947227 1.4872755 -0.80098826 -0.01594393 0.12230526 0.23435941 -0.078731224
-0.037611824 -0.34434438 1.5142697 1.0038528 0.67417854 0.5411347 -0.1478943 0.597329
0.89465654 -0.049438868 0.29737043 1.2462825 -0.49236733 -0.40957913 -1.4640547 0.860839
