checkpoints/pair_2/S_6_K_6/ArgmaxAR/16_05_2023__09_57/cktp/checkpoint_0002000.tar (torch, 796123 bytes, 89 tensors)

model.base_dist.loc f4 [1, 3, 1]
00000000: 486c 91bc 6cd5 7ebc 6c46 223b
-0.017751828 -0.015553813 0.0024761213

model.base_dist.log_scale f4 [1, 3, 1]
00000000: 44d8 173d 414d c93c be31 2a3d
0.03707148 0.02457297 0.041551344

model.transforms.0.encoder.noise_dist.base_dist.net.weight f4 [6, 32, 1]
00000000: cbd3 e3bd 699c cb3d a4de 4dbe a635 8abe
00000010: a46e 9e3d 1240 a53d 1ef2 13be 0b2b c43c
00000020: 800d 3cbe 087a 1a3d 910d 66be 8961 19be
00000030: aec8 573e d2c1 34bc a0b4 e6bd 46de 603e
00000040: 7809 3e3e dfe0 a0bd 9c9b 9c3d b2cf 943e
00000050: e7ef 81bd 16f5 62be 3a66 323e 4422 37be
00000060: 3287 a8bd f2af 3ebd f7db d8bd 2995 bcbd
00000070: c658 4fbe 2bb3 b93d 64e0 a7bc 0004 363e
00000080: 8ef6 1f3d f694 bd3d acb4 5fbe cebf 4ebe
00000090: 8093 093e df76 a6bc 4087 9a3d 276d ddbd
000000a0: a474 8a3d c32d 193e 99ce 2ebe 5e62 35bd
000000b0: 4174 263e 3a46 33bd 3702 2bbd 52b0 093e
000000c0: ede6 5f3d 22c5 173e 87c6 b2bc 2d4d 093e
000000d0: 7f5d 8abd ad02 e2bc 3469 ac3d 919a 4dbe
000000e0: 1fe4 6abe eb13 b6bd b968 d33d 556c 10bd
000000f0: d83c 58bd fedd 1fbe bc45 88bc 5f88 4b3d
00000100: aa0c 003d e297 503e 1456 e6bd 8581 2bbd
00000110: 4d82 8ebd b640 f73d c691 50be a874 b23c
00000120: cab6 dcbb cee9 5cbd b91e 98be b1a2 32be
00000130: d7d3 523e 959e 103d b90a 16bc cb3a 7f3d
00000140: 4b2c 8a3e 092e 1dbc 4e6e c13d 00c6 fa3d
00000150: f103 863d 526e 88be e02c 5b3e 27c9 31be
00000160: d55e 93bd 9956 38be d19d d53d e36e 663e
00000170: 8532 56be 99b1 14be 9ab5 b53c 8366 5a3c
00000180: a8a1 f7bd 6824 c4bd 7f3a a9bd 6f9b b5bd
00000190: 324b 1f3d ee62 00be 26e0 21be aef7 123e
000001a0: a5f1 203e 85a9 b2bd d103 fdbd 0adb 193e
000001b0: 864e 363e 09a0 193e a546 713d 68eb 8fbd
000001c0: fb51 8bbc 81db 2a3d a260 423e ecb5 8bbd
000001d0: 458e 503c e6b9 fc3d bbab 1ebd c727 5fbd
000001e0: eed9 693d 4c70 e1bd da70 d43d cafe 2e3e
000001f0: 7acf 233e e7f1 bb3d cd50 16be d50e ba3d
00000200: de12 2dbc 3581 cc3c 5dd0 063d f658 dabd
00000210: 7c5a eebd 0ac7 253d 4faf 90bd 847e a9bd
00000220: 6da3 82bd ed9d e13d 7e8a c6bd 3e04 443d
00000230: 34f8 0b3e 1b24 163d 081b 763d 8f6b 37bd
00000240: 6553 e7bc ab94 cabd 39b8 203e ad82 193d
00000250: d84c 873d 7d55 0b3e 8f21 46be 5d67 2b3e
00000260: 181d 07be 6d89 6abd 04a1 763d 206f e9bc
00000270: eb1c 043d c6f9 cc3d 1027 963d c90a 07be
00000280: 0018 90bd 9ba8 853d bb86 e83c 55f6 ce3c
00000290: 3152 233e c0db 0ebe a440 0bbe b483 d6bd
000002a0: 8d40 c3bd 2a84 20bc ebed d03d e841 0a3e
000002b0: 8a44 f2bd 26f2 04bd ac16 0b3e a004 d13d
000002c0: 8e2a 4abd 7b15 f2bd 4db0 0d3e 91a8 e53d
000002d0: b780 263d c4e2 ebbd 266c 063e de04 0d3e
000002e0: a2e1 abbd c3f7 11be 2332 15be 922f a03c
000002f0: 650c e9bb d714 293e 5b6d 0f3b 9c9b f73d
-0.11124381 0.09941942 -0.20104462 -0.26994056 0.07735947 0.08068861 -0.14447829 0.023946306
-0.18364525 0.037714034 -0.22466113 -0.14978613 0.21072647 -0.0110325385 -0.1126492 0.2195979
0.185583 -0.07855391 0.07646868 0.2906471 -0.06344586 -0.22163805 0.17421809 -0.17884165
-0.082289115 -0.046554513 -0.1058883 -0.092081375 -0.20248708 0.09067377 -0.02049274 0.17774963
0.039053492 0.09256928 -0.21846265 -0.20190355 0.13435173 -0.020320354 0.07545328 -0.10811835
0.06760529 0.14958863 -0.17070998 -0.044283263 0.16255285 -0.043768145 -0.04175016 0.13446167
0.054663587 0.14821294 -0.02182318 0.13408346 -0.06756114 -0.027589167 0.084185034 -0.20078494
-0.22938584 -0.08890518 0.10322709 -0.035259563 -0.0527924 -0.15612027 -0.016634814 0.0496906
0.031262077 0.20370439 -0.11246887 -0.041871566 -0.06958447 0.120728895 -0.20368108 0.021784142
-0.0067356573 -0.05393391 -0.2971094 -0.17444874 0.20588623 0.035307486 -0.00915783 0.06231193
0.26986918 -0.009593495 0.09444867 0.12244797 0.065437205 -0.26646668 0.21403837 -0.1736189
-0.07195822 -0.18001784 0.10430492 0.22503237 -0.20917709 -0.14520873 0.022181321 0.013330105
-0.1209138 -0.095772564 -0.0826311 -0.08867537 0.03889007 -0.12537739 -0.15808162 0.14352295
0.1571718 -0.087237395 -0.123542435 0.15024963 0.17803392 0.15002455 0.058905263 -0.07027322
-0.017006865 0.04171324 0.18982175 -0.06821808 0.012729232 0.12340145 -0.038737994 -0.054481294
0.0570926 -0.11007747 0.10373087 0.17089382 0.15997115 0.091769986 -0.1467926 0.0908486
-0.01056358 0.024963954 0.032913554 -0.10661499 -0.11638352 0.04047302 -0.070646875 -0.08276084
-0.06378827 0.1101645 -0.09694384 0.04785561 0.136689 0.036655527 0.060084373 -0.04478031
-0.028238008 -0.098916374 0.15695275 0.037478138 0.06606454 0.1360683 -0.19348739 0.16738649
-0.13194692 -0.057259966 0.06021215 -0.028495371 0.03225414 0.10008578 0.07331669 -0.13187708
-0.07035828 0.065262996 0.028384557 0.025263945 0.15949322 -0.13951015 -0.13598877 -0.10474339
-0.095337965 -0.009797135 0.10201629 0.13501704 -0.11829479 -0.032457493 0.13582867 0.1020596
-0.04935699 -0.11820503 0.13836785 0.11213792 0.040650096 -0.115178615 0.13127193 0.13771388
-0.083926454 -0.1425467 -0.14569907 0.019553933 -0.0071120732 0.16511856 0.002188525 0.12090227

model.transforms.0.encoder.noise_dist.base_dist.net.bias f4 [6]
00000000: 401c b8bc ea8c f93d 3f13 f53d fa22 553b
00000010: c66e c23d e8db 4ebc
-0.022474408 0.1218508 0.119665615 0.0032522068 0.094937846 -0.012625672

model.transforms.0.encoder.noise_dist.transforms.0.ar_net.lstm.weight_ih_l0 f4 [256, 35]
00000000: 4a80 d93d 2756 cebd 5821 a6bd 3441 f93d
00000010: 5f17 a3bc c3ca b7bc c8d7 133d 1fe5 883d
00000020: 5d0c 2bbd 9679 eabd 46d5 ab3c 8e82 cf3d
00000030: d26c bfbc a069 e83d 867d d2bc a90a 053e
00000040: 6b3d fa3c a220 e43d c082 d23d f9ed 4f3d
00000050: 5da0 63bc fa4f 76bd 9e9d b13d 7908 b93c
00000060: c58a 223d 742a a33c 2d8f fcbd c4f3 843d
00000070: 9790 f63c f936 153e 73d2 513d 6d0b fd3c
00000080: 65fd aa3d df27 643d 03e2 fc3d 473a c6bd
00000090: 55ba 743c e1fe 48bd 5cb2 4f3c 2056 83bc
000000a0: e6d8 e3bd dafb 453d 6a5b 3bbd 2089 e1bd
000000b0: 7118 8dbc af03 92bd 393f c4bc ed0e 07be
000000c0: fae7 94bd c142 3ebb 2d73 f1bd 5e8e 05bd
000000d0: 9260 9abc a0bb e9bd d6d0 85bd 7b25 943d
000000e0: 8900 833c e988 afbd 9373 6c3d d22f 2abd
000000f0: 6a8b f8bb e867 fd3d 1cd8 28bc 445d cc3d
00000100: 9ea7 01be 5fbd ffbd 13aa 66bd 27a0 833d
00000110: ac19 e53d f543 5fbd 9609 aa3d 290a 763d
00000120: 8028 fdbc c240 013e 1269 683c 3aec c93d
00000130: e722 dabd d7f0 5cbd edaa 093d 1563 013e
00000140: f707 03be dd38 603d 6a93 e9bd 74b5 783d
00000150: ef2e acbd 1071 6c3c 7d3f 903d 851a b93d
00000160: 809c 053d cb30 efbb 6b92 6fbd 7a86 083d
00000170: 7393 863d 465e c3bd 0898 a03d ee35 5ebb
00000180: 765f 8abd f3ca 993d 0e99 b73c baa9 883c
00000190: 096a a73c b632 9cbd a1b8 9bbc 0140 47bc
000001a0: 52e6 c9bd 8804 d03c 7c13 0fbb ea6a dc3c
000001b0: 58f2 adbd 4f40 20bd 6613 633d 80d2 00be
000001c0: e02e ce3d 75dd 18bd fb18 d33d 2eac 993d
000001d0: 2a42 d03c a720 d53d 5bb2 14bd 7472 b53a
000001e0: 7d24 833d 5d43 a53c 17ce 84bd 67ef f5bd
000001f0: 1220 87bd c9e1 623c 8fa6 c6bd 9e25 953d
00000200: 72a6 993d d130 583d 3f24 72bc cc6e 8dbd
00000210: 50d2 f8bd a911 fa3c c930 bb3d 4479 d83b
00000220: 9a50 16bd b3c7 1c3d 7ef2 8f3d 7360 f93d
00000230: 9a22 d23a f054 d4bd b1f9 b63c 9fff 41bd
00000240: 8026 3b3d 3a88 08be 63ae c5bc e46d 90bd
00000250: 6ce1 b6bd 186b af3d b0c0 dabc 4c6a 93bc
00000260: dbe6 c6bc 06a5 e7bc 1aac 473d 45dc 80bd
00000270: 4b7e 623d 9e03 473d 67d6 32bd 8379 fb3c
00000280: 8a39 05bd 07fb 87bd 7251 9f3d 5c61 203d
00000290: e715 6dbd a53f cfbd a81d 75bd 1f34 89bd
000002a0: 16c9 013d f61e 21bc e950 debd 9aa5 1ebd
000002b0: e1b0 863d 3219 17bd fba5 723b 0202 e13d
000002c0: c5b0 a0bd 9285 d0bd 713d c8ba 5950 bc3d
000002d0: 985a 85bc 69db eb3d 452a a73d 7d24 62bb
000002e0: b2cf c53b faa3 0cbd a2e6 e63d 9da8 083d
000002f0: 476a 5a3d f3c0 ba3c 3da7 f7bd 90cd 48bd
00000300: 2931 f8bc 47e9 303d fd34 8ebd 5a32 2f3c
00000310: 27f9 c83d f3f5 bcbc 8921 aa3d e981 78bd
00000320: ea34 523d 0d26 bfbd 4ce3 303d 1285 03bd
00000330: 8135 81bd 1490 063c 0f84 433d 9aec 04be
00000340: 974c cabd 6dd9 d2bd 7763 82bd bfbb 003e
00000350: ad03 2cbc 65cc 843d 67c5 df3d 20de aebd
00000360: c634 6b3d c785 85bd 26ca d5bd 6731 5dbc
00000370: b940 98bd 78dd e73d 012a 0a3d 0c15 cb3d
00000380: d00f 35bc 3bf5 803d 1777 ab3d 2c33 18be
00000390: 5d98 8fbd 6f00 e4bd db0b a3bd 2f88 a7bd
000003a0: 7231 e53d 4a5a 7f3d e1ce bcbd 43cb f1bd
000003b0: 72ef f8bd d8cc e1bb 1cd9 133c 06d0 88bd
000003c0: 2e1a d9bd 8f5f 843d 07b7 53bd 05ba 65bd
000003d0: 9b8a bfbc a1dd 823c 64d4 c1bc 22ef 263c
000003e0: d165 f0bd 275c e23c bc93 b73d 0cee 663d
000003f0: 34d4 833d 3615 0b3e 5a7e a8bd 0791 bcbd
0.10620172 -0.10075026 -0.081118286 0.1217064 -0.019908605 -0.022435552 0.036094457 0.066843264
-0.041759837 -0.11448972 0.02097572 0.10132323 -0.02336732 0.11348271 -0.02569462 0.12992348
0.030546864 0.11139037 0.10278845 0.050764058 -0.013893214 -0.060134865 0.08672641 0.022587048
0.039683122 0.019917704 -0.12331996 0.06491807 0.030098243 0.14571752 0.05122609 0.030889237
0.083491124 0.055702087 0.12347796 -0.09679084 0.014937003 -0.049071196 0.0126768015 -0.016032279
-0.111253545 0.048335887 -0.045741476 -0.11012483 -0.017223569 -0.07129609 -0.023955928 -0.13189287
-0.072708085 -0.0029031488 -0.11789546 -0.032606475 -0.018844876 -0.1141274 -0.06533973 0.07233711
0.015991466 -0.085710354 0.057727408 -0.04154951 -0.007584979 0.12373334 -0.010305431 0.099787265
-0.12661597 -0.124872915 -0.05631454 0.06427031 0.11186537 -0.05450817 0.083026096 0.060068283
-0.030903101 0.1262236 0.014185207 0.0985951 -0.10651188 -0.05394062 0.033610273 0.12635453
-0.12796007 0.05474173 -0.1140507 0.060719922 -0.084073894 0.014431253 0.070433594 0.09038261
0.032619953 -0.0072995177 -0.058489244 0.03333137 0.065710925 -0.095394656 0.07841498 -0.0033906656
-0.06756489 0.075094126 0.02241185 0.016682494 0.020436304 -0.0762686 -0.019008936 -0.012161256
-0.09858383 0.025392786 -0.0021831682 0.02690645 -0.08493489 -0.03912383 0.05543842 -0.125803
0.100675344 -0.037320573 0.10307499 0.07503544 0.025422174 0.104066186 -0.036302906 0.0013843314
0.06403444 0.020173723 -0.06484621 -0.12008553 -0.06597914 0.013847777 -0.09699737 0.072825655
0.0750245 0.05278093 -0.01477915 -0.069058985 -0.12149489 0.030526 0.091401644 0.006606253
-0.03669796 0.038276386 0.070286736 0.12176599 0.0016032041 -0.10367763 0.022335859 -0.04736292
0.045691013 -0.13333216 -0.024131006 -0.0705221 -0.089297146 0.085653484 -0.026703209 -0.017995022
-0.024280002 -0.028276931 0.048748113 -0.06292013 0.055296224 0.048587434 -0.0436615 0.03069759
-0.032525577 -0.066396765 0.07779206 0.03915535 -0.057882216 -0.10119561 -0.059842736 -0.066993944
0.03168591 -0.009834042 -0.10855276 -0.03873215 0.06576706 -0.036889262 0.0037025202 0.10986711
-0.07846216 -0.101817265 -0.00152771 0.091950126 -0.01627855 0.115164585 0.08162359 -0.0034506612
0.006036722 -0.034336068 0.112744585 0.033363927 0.05332401 0.022797083 -0.12092445 -0.049024165
-0.030296879 0.04319122 -0.069437005 0.010693157 0.09813147 -0.023066496 0.083071776 -0.060670767
0.051319994 -0.093334295 0.043185517 -0.032109328 -0.06309033 0.008213062 0.047733363 -0.12980881
-0.098778896 -0.10295377 -0.06366628 0.1257162 -0.010498923 0.06484298 0.109263234 -0.08538461
0.057423376 -0.06519657 -0.104389474 -0.013500548 -0.0743422 0.11321539 0.033731464 0.09916124
-0.011051133 0.06296774 0.08372324 -0.1486327 -0.07011483 -0.11132895 -0.079612456 -0.08180272
0.111910716 0.062341966 -0.092191465 -0.11806347 -0.121550456 -0.0068908744 0.009023931 -0.06680302
-0.106006965 0.06463539 -0.05168822 -0.056085605 -0.023381522 0.015974822 -0.023660846 0.01018885
-0.1173817 0.027631832 0.08963725 0.056379363 0.06436959 0.1358231 -0.08227225 -0.09207349

model.transforms.0.encoder.noise_dist.transforms.0.ar_net.lstm.weight_hh_l0 f4 [256, 64]
00000000: d4ac 3fbd a9ef b83c fbce c43d ff57 bd3c
00000010: 8ec2 54bd c321 14bd 59ad b83c 5cae c43d
00000020: 81a4 243d e253 a43c 2ed5 0abb b6c1 72bd
00000030: 5ff9 a4bc 6bd5 b0bd 410d a03c aded 263d
00000040: 217e 87bd 7688 c53d a7fd 513d de8d a43d
00000050: daac b93d c024 89bd 5f2a 8a3d 2ade 543c
00000060: f429 273c 55a8 623d ef60 033d e1bd eebd
00000070: 9b3b 23bb 6dcd 443c 3018 793d 413a 873d
00000080: d581 023d 98c2 153c 5db9 debd f687 d4bd
00000090: 66bb 963d e49d dd3c 9ee7 c2bd 4c4d 2dbb
000000a0: 7e73 3c3d f95d 09be 072e a53d 6f3f 4c3d
000000b0: ebf6 66bd 96bd bfbd 673c f23d d2d2 d9bd
000000c0: 3c55 93bd afe4 a5bd d1eb 5c3d e8a3 c1bd
000000d0: b0be 21bd 4445 aabd eef1 aebc 8d71 be3d
000000e0: 3726 56bc 8a2a b73d 4f2a 943d c667 f23b
000000f0: d0c7 71bd 54f4 81bd 631f ad3d 7d2a 8e3d
00000100: 66b6 0e3d 6a1e f2bb a2f9 bf3d 78c0 b9bd
00000110: 2119 f7bd a7a5 8b3d 4508 ffbd ef94 94bc
00000120: 8925 783d 320a a1bc ea93 bfbd 8e0f bebd
00000130: 3c1d c7ba 8611 ca3d 8547 29ba db80 e43d
00000140: 99b4 df3d 2dfd 68bd 96e2 debd 087b 343d
00000150: ebad d23d cdea 04be 7ba6 8dbb e724 673c
00000160: 831c 113a a80a 00be 2f6c fabc 37ec dbbd
00000170: 0c2e d23d 039e f33d 12eb d4bd e13c 13bd
00000180: fb7d dd3c b357 223d 751c e4bd ed54 adbd
00000190: 11b8 0b3c f013 66bb d9ee 0ebd e702 3c3d
000001a0: 140d 783d b240 4dbd f529 883d 3669 e13d
000001b0: 0c51 d8bc baa0 8cbd 3a1c 3ebc 41f8 ff3d
000001c0: 497d a23d 4f00 1a3d 7c1f 5b3c 9211 47bc
000001d0: 3845 bfbd f21b babd dfc5 b83d cf7d 94bd
000001e0: 558f 12bd 041a 123d 5d66 d43c 23e1 853d
000001f0: b1f7 093c eb73 20bc 4700 4abd cb49 6cbd
00000200: b2b5 1fbd 6f77 1d3d d501 cf3d 56b0 a03d
00000210: 9ef7 973d 2085 98bd b9cf c93d 7550 7c3c
00000220: a073 c83d fe29 fcbc 5785 0c3e dbca d4bd
00000230: b122 c83c 8d1e d7bd a476 02be f3f7 0d3d
00000240: 34e6 bbbd 5f55 723c d5e3 9fbd afd4 c43d
00000250: 11f6 cfbd e768 853b 93cf 65bd ce7b e2bd
00000260: 9ef6 32bd cbd3 043e a129 01bd a42f cbbd
00000270: 42a0 abbc d52e d3bc 35ee 8abd 32b0 c3bc
00000280: 4d71 f63c e503 c73d 0956 1b3d 7a5e 983c
00000290: 9aab afbb 2023 63bd 0f48 42bd 7de5 d3bd
000002a0: ff29 2abd 74b5 563c 6e2f 04be b9d8 a2bd
000002b0: c094 b73d 37eb 3abc af2a 18bd 3778 0ebd
000002c0: a15f 5b3d 5580 d63c 16e2 a83d c683 acbd
000002d0: 736f 2a3d bc50 c13c ffe0 d2bd 318c aa3d
000002e0: 9335 a93c cca4 8dbd 27ff dc3d 0564 c63d
000002f0: 6614 4e3d 9304 a63d 0468 97bc d683 cd3c
00000300: 52a7 bd3d 9c23 c3bd 4df4 863d 16fa 8d3d
00000310: d4a9 9abd ade7 ebbc ea8a 103d 90ef e53d
00000320: 9c2b fbbc 37bd 263d 1f8a a3bb a06a 6fbd
00000330: 0269 913c 4f5c 0fbe b796 803d 47ef 113e
00000340: 77b2 cdbc 7747 513d 3d9c 39be 33af 8f3c
00000350: 042f c83d 1cb6 78bd 5e8c 9e3d 2a7d 943d
00000360: 8a46 b5bd 33e5 c6bc 936c 90bd a4dd ec3d
00000370: 84b2 9e3d cd40 cbbd 53c0 96bd 52f0 da3d
00000380: 7e33 c83d 6242 13be 4e2e 8fbd 3894 6c3c
00000390: fd4e 703d ae57 0c3d 51da c53d 25bc d5bc
000003a0: ea16 09bc 7a19 94bd b0c1 44bd 0382 dd3d
000003b0: 2452 393d a40a c1bd e88d 85bd 52cc 37bd
000003c0: 95d9 47bd 4789 00be de7c 053e fba1 1a3e
000003d0: 6a39 3a3d a8da 10be 2996 5abd f00a d43d
000003e0: 5667 fa3c 900f 84bd fc8f f23c a380 a5bd
000003f0: 4cbd fbbc 4161 a03d 9c2e 003c d0fc b8bd
-0.04679568 0.022575216 0.09609791 0.023113249 -0.051943354 -0.03616501 0.022543596 0.09603569
0.040195946 0.02005953 -0.0021184194 -0.05926677 -0.02013844 -0.08634456 0.01953757 0.04075401
-0.06615854 0.096451685 0.051267292 0.080348715 0.09066172 -0.06696463 0.06746363 0.012992421
0.0102028735 0.055336315 0.032074865 -0.1165731 -0.0024907354 0.012011868 0.060814083 0.06602908
0.0318621 0.009140633 -0.10875199 -0.10377495 0.07359962 0.027052827 -0.09516834 -0.0026443778
0.04600858 -0.13414754 0.0806542 0.049865182 -0.056387823 -0.093623325 0.11827927 -0.10635914
-0.071939915 -0.081002586 0.05393583 -0.09455091 -0.039488494 -0.083139926 -0.021355595 0.09299002
-0.013070635 0.089436606 0.07234632 0.0073976247 -0.059028447 -0.0634543 0.08453252 0.06941698
0.034841917 -0.0073888795 0.093737856 -0.090699136 -0.1206534 0.06818705 -0.12452749 -0.018137423
0.06058267 -0.019658182 -0.09354384 -0.092803106 -0.0015191208 0.098666236 -0.00064574956 0.1115739
0.10923118 -0.056882072 -0.108830616 0.044062644 0.102870785 -0.12980194 -0.0043228245 0.014107919
0.00055355596 -0.12504065 -0.030569164 -0.10738414 0.10262689 0.11895373 -0.103963986 -0.03594673
0.027037611 0.039634418 -0.1113824 -0.08463464 0.008527772 -0.0035107099 -0.03489575 0.045901205
0.060559347 -0.050110526 0.06648628 0.110063955 -0.026405834 -0.06866594 -0.011603409 0.124985225
0.079340525 0.03759795 0.013374206 -0.012150185 -0.09339374 -0.090873614 0.09022116 -0.072505586
-0.035781223 0.03566934 0.025927717 0.06537082 0.008420871 -0.009793262 -0.04931667 -0.057687562
-0.038991638 0.03844398 0.10107771 0.078461334 0.07420276 -0.074472666 0.09854073 0.015400042
0.09787679 -0.030781742 0.1372274 -0.10390254 0.024430605 -0.10503874 -0.1274057 0.03466029
-0.09174767 0.014790862 -0.078071274 0.09610879 -0.10154355 0.004071343 -0.05610616 -0.1105877
-0.043692224 0.12971418 -0.03153384 -0.09921196 -0.02095044 -0.025779167 -0.06783716 -0.023887727
0.030083323 0.0971754 0.037923846 0.018599737 -0.0053610327 -0.05545342 -0.047432 -0.10346506
-0.041543957 0.013104785 -0.12908718 -0.07951493 0.08963919 -0.011408619 -0.03715008 -0.034782615
0.053557996 0.02618424 0.082462475 -0.08423571 0.041610193 0.023598067 -0.10296821 0.08327521
0.020655429 -0.06916198 0.10790854 0.09687046 0.050312422 0.08106341 -0.018482216 0.025087278
0.092604294 -0.09528276 0.065895654 0.06932466 -0.075519234 -0.028796995 0.03528873 0.112273335
-0.030660443 0.040707793 -0.0049908306 -0.058451295 0.017750267 -0.14000057 0.062787466 0.14251433
-0.025109513 0.051093545 -0.18126006 0.017539596 0.097745925 -0.060720548 0.07741617 0.07250436
-0.08851345 -0.024279213 -0.07051959 0.11565712 0.07748893 -0.09924469 -0.07360902 0.10690369
0.09775446 -0.14380792 -0.06991254 0.014439635 0.05866908 0.034263305 0.09660781 -0.02609069
-0.00836728 -0.07231422 -0.048036277 0.108158134 0.04524435 -0.09425858 -0.06521207 -0.04487259
-0.048791487 -0.12552367 0.13035914 0.15100853 0.04546491 -0.1414591 -0.05336586 0.10353649
0.030566853 -0.06448281 0.029609673 -0.08081176 -0.030729912 0.0783105 0.007823613 -0.09032595

model.transforms.0.encoder.noise_dist.transforms.0.ar_net.lstm.bias_ih_l0 f4 [256]
00000000: a646 83bd 8d86 663d 0420 b0bc 1fc0 e5ba
00000010: ae9f c1bd f6d5 97bd 6eee 96bd 0e82 b6bd
00000020: 3d60 1e3d fd29 0a3e f98e 863a 3ce0 d6bd
00000030: 5fa7 f2bc bf15 cd3c 35b8 03bd cc3d 84bd
00000040: 7bf6 2ebc 9740 2bbd ff30 6fbd 0804 02be
00000050: f8c9 71bd 9301 91bd 8c08 6e3d e33a eebd
00000060: ef26 cfbd 9b4d fa3c 2521 9abd eeb8 973c
00000070: d9a2 9e3d cdee 18bd aedf 7f3c a249 013e
00000080: 04a8 09bd c393 e3bd 6b0f 443d 9cfa cfbb
00000090: 80eb 03be c805 febc c03f f5bd ea01 db3d
000000a0: b5c1 8bbd aee9 a63c e4bf c1bc 706d a23d
000000b0: 1db1 8bbc 4de1 443d b2af 31bd 6bfb 31bd
000000c0: af1c f73b b96e 043d 521f 1c3d 1557 efbd
000000d0: 0fff 6f3d b6dd df3d e14d e4b9 ef7d c23d
000000e0: 33c2 993d 6d2e babd 2f78 fbb7 c3be debb
000000f0: 3fc6 84bd dff7 9f3d 4039 edbd b94e 073d
00000100: dc5b e73d 5bae 14bd 69d4 233d 40e5 643d
00000110: e069 6abd b15e be3d db70 ae3d fcfd f8bc
00000120: 7bfb c43d 0c30 6c3d 1b05 9fbc 9c7f 9bbc
00000130: ca6f 17bd 0d23 7bbd 746d 313c c09c de3d
00000140: 61ac bfbd c5e7 603d cde1 aabc a98b dc3d
00000150: 84c6 9d3c ffa4 a43b 7420 d53d 0bb6 0c3d
00000160: c1cb d63d 2850 8c3d ef7f 333d 754a b43d
00000170: 31eb 483d 4fe4 25bd b6d9 243d 6e35 933c
00000180: a5b4 673d 99f3 e13d 0e98 723c 4e6b e1bc
00000190: a981 1e3c ac71 933d ab04 a0bc fa21 b0bd
000001a0: 0884 69bc 8158 993d eb11 0c3e 9532 39bd
000001b0: 0042 cabd f7fa a03d 7eb1 b8bd cd31 953b
000001c0: bdcf cd39 16fe 163e 85d3 0ebd cf55 c53d
000001d0: f0fb d4bd bdf2 b83d e777 c0bc 08db 92bd
000001e0: 6785 133d 0538 3f3c 4903 e9bc c4f5 b03d
000001f0: e800 9bbd 1fba 653d 6a1b 553d e9cb 993d
00000200: df73 a63d 0e79 debc cfec 953d db46 25bd
00000210: 3a2f b3bd 3f29 e53d b980 1fbd 3dcd a2bd
00000220: b98b cf3d b186 1cbd a8d2 e5bd ee2f 903d
00000230: 5671 85bd a563 7c3d 2fc3 c03d d314 16bd
00000240: 8b7e cdbd 39dd a13d fd15 e6bc d7f0 72bd
00000250: afe5 e83d 8fe0 e6bd 8d40 c7bd 29db af3d
00000260: 8635 01bc 0335 9ebc b814 583d 8425 bbbd
00000270: 666d 903d c9a1 98bd d7c5 273d 4490 e13d
00000280: 9fc1 ad3b 0b4f 0fbd 4eb2 d7bd 2e0d 073e
00000290: 7d00 d1bd 0f3a cebd 9043 aa3d e84f a1bd
000002a0: 7ad1 a2bc 23d1 94bd b2f4 57bd 08c4 a6bc
000002b0: 18fd 89bd b4b1 febd 6b56 bd3c b87c d3bd
000002c0: 8992 bb3d fa96 033d 4bb1 883c d819 ddbc
000002d0: 9355 53bd 4fc0 643d 847d 5ebd df82 ca3d
000002e0: 8f84 6b3d ae60 a7bd 3ff6 7f3c 25d6 b63d
000002f0: b7ab cf3d e462 693c 48bb 52bd abba 8dbd
00000300: 6778 d1bd b972 233d f322 8ebc f0a9 91bd
00000310: 13c5 a63d 6033 4d3d 5087 4a3d 5549 273b
00000320: b019 a73d 4139 b7bd 05d8 dfbc b13b 853c
00000330: 1cae 4bbd aacc 63bd 4769 223d 50ed 0f3d
00000340: 82f6 9cbd 1cc6 cbbd b49d 83bc b127 07bd
00000350: 34bb fa3d 2a65 2ebd 0d81 843d 9f56 bf3d
00000360: b268 0b3e 0703 c53d 1af7 3fbc 9f94 413d
00000370: 980c dabc 71b9 333d 4ada aebd 9394 b1bd
00000380: 3e08 ebbd 3758 5fbc 15c9 df3b 4a73 953d
00000390: 9dae e2bd 49c2 8fbc bf8d 74bc 8485 4cbc
000003a0: 53e2 823d e144 9abd 5749 3a3d d4c0 c4bd
000003b0: c7a5 b2bd 4a4f fcbd ab87 fbbb 604d 933d
000003c0: 1e42 b0bd ea9d b03d 7333 57bd a947 d7bc
000003d0: 827c d8bb 68b0 a63d 33b7 0c3d df69 bfbd
000003e0: 6def b73d a0d7 703d 4fb9 52bc f5f1 a7bc
000003f0: 308f 943c b93c f6bd e894 cfbd 5ef1 ae3c
-0.064099595 0.05628066 -0.021499641 -0.001752857 -0.094542846 -0.07413857 -0.073696956 -0.08911525
0.038666 0.1349258 0.0010265998 -0.10491988 -0.029620824 0.025034783 -0.032158095 -0.06457099
-0.010678883 -0.041809645 -0.058396336 -0.1269685 -0.059030503 -0.070803784 0.05811362 -0.116323255
-0.10114848 0.030554583 -0.07525853 0.018520799 0.077459045 -0.037337113 0.015617294 0.12625745
-0.033607498 -0.11112168 0.047866266 -0.0063470136 -0.12882805 -0.031008616 -0.1197505 0.106937245
-0.06824056 0.020375099 -0.02365107 0.0793103 -0.017052228 0.048066426 -0.043380447 -0.04345266
0.007541261 0.032332156 0.038115807 -0.116865315 0.058592852 0.1093096 -0.00043545573 0.09496676
0.07507744 -0.09090886 -2.9977497e-05 -0.006797643 -0.06483125 0.078109495 -0.11583185 0.03303406
0.11296818 -0.03629909 0.039997492 0.055882692 -0.057229877 0.09295405 0.08517619 -0.030394547
0.096182786 0.05766301 -0.019411614 -0.018981747 -0.036971845 -0.061312724 0.010829318 0.108697414
-0.093590505 0.054908533 -0.020859623 0.107688256 0.019259699 0.005024552 0.104065806 0.034353297
0.10488082 0.06851226 0.04382318 0.08803264 0.04905242 -0.040500935 0.040246688 0.017969813
0.05656876 0.11032791 0.0148067605 -0.027516987 0.009674468 0.071994156 -0.019533476 -0.086002305
-0.01425267 0.07487584 0.1367871 -0.045214254 -0.0987587 0.07860368 -0.09018229 0.004553056
0.00039255424 0.14745364 -0.03486969 0.09635507 -0.10399616 0.09030674 -0.023494674 -0.07170683
0.036015894 0.011671071 -0.02844395 0.08640626 -0.07568532 0.056085702 0.052028097 0.07509596
0.081275694 -0.027157333 0.07320558 -0.040350776 -0.08749242 0.11189508 -0.03894112 -0.07949302
0.10134072 -0.03821439 -0.1122182 0.07040392 -0.06515758 0.061618466 0.09412228 -0.036640953
-0.10033902 0.07903523 -0.028086657 -0.059311714 0.11371934 -0.112733 -0.09729109 0.08586723
-0.007886296 -0.019312387 0.052754134 -0.09138015 0.07052116 -0.07452733 0.04096016 0.110138446
0.0053026224 -0.03498749 -0.10532056 0.13188621 -0.10205171 -0.100696675 0.08313668 -0.07876569
-0.019875277 -0.07266452 -0.052723594 -0.020357147 -0.06737727 -0.12436238 0.023112496 -0.103265226
0.09158809 0.032126404 0.016686102 -0.026989862 -0.05159528 0.055847462 -0.05431892 0.09888243
0.057499465 -0.08172737 0.0156226745 0.089275636 0.10140174 0.014244769 -0.051448137 -0.0692037
-0.10228043 0.03990433 -0.01735065 -0.07112491 0.08143058 0.050097823 0.04944545 0.0025525887
0.081591964 -0.08946467 -0.027324686 0.016263815 -0.04972659 -0.055615105 0.03965118 0.03513843
-0.07664205 -0.09949896 -0.01606641 -0.032996837 0.122427374 -0.042576946 0.06469927 0.093426935
0.13614157 0.09619718 -0.011716628 0.047260877 -0.026617333 0.043878023 -0.08537729 -0.086709164
-0.114761814 -0.013631872 0.006829391 0.0729738 -0.11068461 -0.017548697 -0.014926373 -0.0124830045
0.06390824 -0.07532669 0.0454801 -0.096070915 -0.08723026 -0.12319811 -0.007676085 0.071924925
-0.08606361 0.0862387 -0.0525393 -0.026279287 -0.0066066394 0.081391156 0.0343544 -0.09346365
0.08981214 0.058799386 -0.012861564 -0.020501116 0.018134683 -0.12023301 -0.101358235 0.021355327

model.transforms.0.encoder.noise_dist.transforms.0.ar_net.lstm.bias_hh_l0 f4 [256]
00000000: 9684 4bbd e7bb 31bd 3a7b e4bd dfc3 bdbd
00000010: bf9a 44bd dbb2 21b8 ab67 e4bd 9871 11be
00000020: 9237 0d3e 1ab8 6e3d 7980 503d 76b2 b83d
00000030: 0733 f63d 27f7 3d3d 8941 e33d 9700 1ebc
00000040: 9365 b5bd 8758 82bd 2ec1 9bbd beb4 69bd
00000050: c803 a03d 08ae af3d e169 e1bd 6842 0f3d
00000060: 95c1 973d 3318 b4bd c375 bc3c 5647 da3c
00000070: 9b3e 823c f443 053e 50e7 6b3d 2240 bdbd
00000080: 935d 36bd af6d 583d 8f8a 603c 696e d0bd
00000090: 537d acbd c94e 24ba 2b3c f23d eaba 7abd
000000a0: 9628 b43d da66 8fbd 1bae b5bd 0993 963d
000000b0: 7ff4 08be 4df8 883d c1f1 a73d 81d9 ad3c
000000c0: 72ea f13c c882 1d3d aa4f bbbc 7340 183d
000000d0: 8ba8 013d bf93 9b3d 7154 cd3d d3da b13d
000000e0: e763 943d 7aa4 e73c d08c bdbd b15e cc3c
000000f0: 729f c6bd 6ea8 9dbc 8f65 123c 2637 09be
00000100: 1e60 0fbd 12d9 183d cc3f 1fbd c6a0 1c3e
00000110: e469 333d bf93 9a3d b025 083c 7c6c e4bd
00000120: 443f 023e 25de c6bd 2caf 96bd 8951 233d
00000130: a61f 9abd 0bd4 183d 1029 05bd 210b 5dbd
00000140: 9db2 66bb 9278 1c3b f0cd acbd 3c8f 04bd
00000150: c2a5 803b ba66 0fbd 824c 713d 4ac0 ce3d
00000160: e900 5a3d a643 d93d 3cad a83d da2d 7bbd
00000170: 0819 d43c 4fde c9bc c801 83bd 69d8 a33d
00000180: be31 e33c 91e1 cabc 5e6f b03d f8a1 fb3d
00000190: 2213 abbc cd1c 08be 23d5 003e 3e32 7fbd
000001a0: 5564 a43d 5ab2 eb3d 9d88 833d b8fe 72bd
000001b0: 5c1c 793b c658 b6bd e663 eabc ef98 083e
000001c0: 2fea 9d3d 9768 733c 4e37 4dbd a723 933d
000001d0: c433 68bd 015a b4bd 4f5b cd3b 80d9 0cbd
000001e0: 642e 03bb 8b1a 97bc 3072 e23d 8052 a63c
000001f0: 646e d33d aa14 c1bd 3786 083e 5e4b 383d
00000200: ecd0 053e caaf babd 14b9 58bd b6b0 4a3d
00000210: 184e c43d cfa2 82bd 66ba 6cbc 56e6 2cbd
00000220: 04b2 ecbb 4606 b0bd 08b4 ffbc 82b0 10be
00000230: 67ca 25bd 12b0 70bc 55b7 023e b916 71bb
00000240: f2bb 863c 507e f63c 5f69 bc3d 6119 92bd
00000250: 1827 12bd 1aa7 3a3c 5d4c 893d 8d65 97bd
00000260: 951b 883d 6353 b4bd 58f7 4dbd 23d7 08bb
00000270: c46a b6bc 91a5 82bd 2a35 2e3c e47a f53d
00000280: 38a7 70bd 550c f9bc 4267 0dbe 8080 4b3d
00000290: f750 a53d dfe5 cb3d d5d7 79bd f8c8 f33d
000002a0: 24d8 07bc 34e9 893c e61a 063e 45dc 903d
000002b0: e556 85bc dbae 96bc c217 a23d 579e 503d
000002c0: 3701 d4bd f746 44bd 731f bf3d 06e5 b33d
000002d0: 419f 00be 219f f33d d308 bb3c 476d 343d
000002e0: 6382 033e f679 913d bd36 d7bd ff1e 5cbd
000002f0: 29ec e33d d54a d23d 9130 abbd ad19 21bd
00000300: 891c 3d3d 161d 9dbd 78ff 13bd 5128 5e3d
00000310: a37b 3ebd d9e2 ccbd 8ccf 533d e01b e03b
00000320: af36 983d 29b8 0e3d b6e0 a43d f41d babd
00000330: 8e33 6ebd 0115 e5bd 5ca8 ddbd 5265 a33c
00000340: 6ede 8f3c 0440 ed3d b204 a13d e47e 35bd
00000350: 90ac db3d 5222 dcbc 4aa6 b3bc d33e 9b3d
00000360: 51ee c13d b7c1 6dbd 1762 57bd 2320 e6bd
00000370: b3d8 0fbe 7ba8 49bc 0c65 dfbd 2313 0cbd
00000380: 65f5 b4bd 7d33 abbc 69e6 6b3d 3447 f1bd
00000390: ed1d b2bd 7f13 c23d 53ec 373d aa1f 46bd
000003a0: e88f 87bd c77a f13d e7ae a4bd 581a acbd
000003b0: dba2 573b a044 ce3d bef1 a2bd 1797 283d
000003c0: 70ad 8b3d f917 a33b 739f b53d 3438 cfbd
000003d0: edd0 c2bc 7569 763d 9ea8 c2bc a6b8 543d
000003e0: e38b b7bd 5fb2 d43c 7a26 8dbd 360c 89bc
000003f0: 5355 053c 519c cb3d 23e0 d3bc e0f1 13bd
-0.04968699 -0.04339209 -0.11156316 -0.09265875 -0.04799914 -3.8551963e-05 -0.111525856 -0.14203489
0.1379073 0.05828104 0.05090377 0.09018414 0.120214514 0.04637828 0.11096484 -0.009643695
-0.08857264 -0.063645415 -0.076052055 -0.057057135 0.07813221 0.08578116 -0.11006523 0.03497544
0.0740997 -0.08793678 0.023005372 0.026645344 0.015898993 0.13014203 0.057593644 -0.09240748
-0.044522833 0.052838977 0.01370491 -0.10177309 -0.08422341 -0.00062678434 0.118278824 -0.06121341
0.08796804 -0.07002039 -0.088710986 0.073522635 -0.13374518 0.066879846 0.08200408 0.021221878
0.029530738 0.0384548 -0.022865135 0.03717084 0.031654876 0.0759654 0.100258715 0.086843155
0.07245617 0.02827667 -0.092553735 0.024947496 -0.096983805 -0.019245353 0.008935346 -0.13399944
-0.035003774 0.03731639 -0.0388792 0.15295705 0.043802157 0.075477116 0.008309767 -0.11153504
0.12719446 -0.097103395 -0.0735763 0.03987268 -0.07525568 0.037311595 -0.032509863 -0.05396569
-0.0035201677 0.0023875576 -0.08437717 -0.03236316 0.00392601 -0.035010077 0.058910854 0.1009527
0.053223524 0.10608606 0.08236167 -0.061323024 0.025890842 -0.024642138 -0.06396824 0.08000261
0.02773368 -0.024765762 0.086149916 0.122867525 -0.020883147 -0.13292237 0.12581305 -0.062303774
0.08026949 0.11508627 0.06422541 -0.05932495 0.0038011288 -0.08903651 -0.028612088 0.1333959
0.077106826 0.014856479 -0.05010157 0.071845345 -0.056689993 -0.088062294 0.0062669883 -0.03438711
-0.0020016665 -0.018445274 0.11056936 0.020303011 0.1032379 -0.094277695 0.13332449 0.04499375
0.13067979 -0.0911556 -0.05291088 0.04948493 0.09585208 -0.063787095 -0.014448738 -0.042211853
-0.0072233696 -0.085949466 -0.031213775 -0.14129832 -0.04047623 -0.014690416 0.12765248 -0.0036787225
0.016447041 0.030089527 0.091997854 -0.07133747 -0.035681814 0.011392379 0.06704018 -0.07392416
0.06645886 -0.08804967 -0.050284714 -0.0020880185 -0.022267707 -0.063792355 0.0106327925 0.1198633
-0.058753222 -0.030401388 -0.13808921 0.049683094 0.080720834 0.09955954 -0.06099685 0.11903566
-0.008291278 0.016834833 0.13096198 0.07073263 -0.016276786 -0.018393924 0.07914688 0.050932255
-0.10351794 -0.04791924 0.0933217 0.08783917 -0.1256075 0.11895586 0.022831356 0.044049527
0.12842707 0.0710334 -0.105084874 -0.053740498 0.11129028 0.10268179 -0.08358873 -0.039331127
0.04616979 -0.07671563 -0.036132306 0.054237667 -0.046504628 -0.10004205 0.051711604 0.0068392605
0.07432305 0.034843598 0.08050673 -0.09087744 -0.058154635 -0.11185647 -0.108231276 0.019945774
0.017562117 0.11584476 0.07862224 -0.044310465 0.10726273 -0.026871834 -0.021929879 0.07580342
0.09469283 -0.05804607 -0.05258378 -0.11236598 -0.14047508 -0.012308235 -0.10907945 -0.034197938
-0.08835868 -0.020898575 0.057592783 -0.11781159 -0.08697114 0.09476375 0.04490311 -0.04837004
-0.06619245 0.11790996 -0.080411725 -0.08403462 0.0032903466 0.10071683 -0.07956265 0.041159716
0.0682019 0.004977223 0.08868303 -0.10118142 -0.023781264 0.060159165 -0.023762044 0.051933907
-0.08962228 0.02596396 -0.068921044 -0.016729455 0.008138019 0.09941924 -0.025863713 -0.03611934

model.transforms.0.encoder.noise_dist.transforms.0.ar_net.l_out.0.weight f4 [33, 64]
00000000: d205 0cbe 2732 9dbd 0b0d 7f3c a6e4 d33d
00000010: af6f a63d 38e5 acbb 1182 8cbd 1de2 033e
00000020: 5947 8c3c e194 b93d cd5a b93d ca76 0e3e
00000030: 80e3 683d 6278 243b a8b7 09bb cc51 7dbd
00000040: a96c 5d3d 834d 32bc e37a a23d 36b4 ff3d
00000050: 4041 6dbd 0dfb f73c bc25 54ba 8677 9f3c
00000060: ea42 a43c 29f1 0a3c 45a0 01be cc4b cebd
00000070: 9c14 8c3b 6f21 1bbd 04ca 903d 630c fdbd
00000080: 6895 de3c 521a 753d a63a 0b3e 0e97 dfbd
00000090: d220 d63c 29ee c5bd b4a5 e3bd c869 f9bd
000000a0: 9fd3 8dbc f457 933d 51c5 54bc 2750 f8bd
000000b0: fb47 9bbd 2484 033e 453d 5abd 7f40 fe3d
000000c0: 32d3 85bd e046 94bd b85a 7d3c aa0e 87bd
000000d0: 82f0 a2bd c689 333d e97a 353d 1e1e 713d
000000e0: 3f79 adbb 42a8 c6bb a870 d1bd 8d27 0d3e
000000f0: 0bc8 903d f9c8 00be 7887 6fbd 98b6 093d
00000100: c7da b03d 855b e23d 3c56 debd b0bb cc3b
00000110: 755f 52bd 864c 08bd f756 a1bd 2d05 ffbb
00000120: 0dd2 b53d 311c 54bd d5a3 863d b21a ac3d
00000130: eea2 a8bd c02d 19bd e40a 7cbd e24d b53d
00000140: 8096 ae3d f986 6cbd 513c fdbd 1584 d03c
00000150: 3b91 bf3d e017 653d 8e0c 7a3d 30e3 d93d
00000160: c7bb 053e f4ae c0bd b05d 703d 70e1 99bd
00000170: ca5d 543d 3658 f5bd 4160 9cbc 39bf aebd
00000180: 9bb3 cdbd 4dfe f6bb 1828 253d cd26 f53d
00000190: 0aef 4dbc b3c4 d33d 2581 dd3d 76f5 1b3d
000001a0: 698c dbbd 7dd2 853d 633d d23d 442f 56bc
000001b0: 9e55 88bd 7d94 6e3d 3d5e 59bd d807 0bbe
000001c0: a6ea 83bd f6f7 82bd 2071 5dbb 8cb8 1dbd
000001d0: 8f20 a8bd 7b79 6e3d 9945 d5bd 6428 a9bb
000001e0: f237 6b3d 8566 05be cce8 d9bd f57e ae3d
000001f0: 0198 ad3b efe5 113c 95fa fcbd f9e8 9a3d
00000200: fd4c a1bd fcce 1f3d cc4c 8a3d eff4 e93d
00000210: 50b1 0dbe 7c1a dcbd c308 633d 6f05 d53d
00000220: 47fa dabd 038c 9f3c 9eda 00be bc86 afbd
00000230: 6be4 dfbd 58aa 0e3c ebbe 97bb bd58 cabd
00000240: 5feb dabd 1a61 1f3d 5f1a d33d 8528 eabd
00000250: fc45 12bd 0c26 a7bd ea98 0bbd b062 c1bd
00000260: 8973 3d3d 7918 8d3d b799 643d 5373 91bd
00000270: 592b 4a3d 9f63 22bd b07d d7bd c624 8abc
00000280: b392 9a3c ab12 e8bd 95a4 483d 444a b03d
00000290: d298 df3c 6a64 3a3d 93a7 793d 4515 f2bd
000002a0: fd9d 7cbd 45c4 f63c 2449 e2bd 68d9 713c
000002b0: 84d7 d73d 5f75 e9bc 5580 da3d e51e c53c
000002c0: e386 bbbd aff8 44bd 9ad3 e03d 17cf cfbd
000002d0: 76ec 963d f6be 87bd cb67 963d ccaa df3d
000002e0: e614 a13d ce9b ecbd 2ce0 af3a 6f1f 6ebd
000002f0: 26c5 f73d c1d6 ccbd 2592 65bd 269c d7bd
00000300: e666 bbbc df99 353d 357b e53d 84d4 833d
00000310: a76b 4e3d de0d 2d3d bcb4 163c 74c8 aabd
00000320: 6a45 98bb 911d d8bd 0739 aabd 5831 d73d
00000330: c32b 793d 1da7 ebbc cc7c dcba 124c 80bc
00000340: aeeb bf3d 3563 d33d f469 babd 90a7 2fbd
00000350: 6928 4d3d b4fb d4bb 464b 923d b1b2 0c3d
00000360: b14e 88bd 4e52 10be 3643 923d d7dd 83bd
00000370: b373 023e d714 43bd 03e8 87bd ebb4 243d
00000380: 4a2a 5abc 3b35 04be 7163 9e3d a217 313d
00000390: 53a3 d13d 48e7 ab3d 5bad 223d b3e2 8bbd
000003a0: a063 ea3d eb31 fa3d ebea bfbc a022 c4bd
000003b0: 728e 203d da7b 923d c1b5 153d 2880 2bbd
000003c0: ebaa a9bd 093f 5dbd 1f06 b3bd 132e acbd
000003d0: 9133 103d 5e84 5a3c d849 2e3d 504a fbbc
000003e0: c151 dcbd c503 ffbd 4a88 9dbd d062 93bd
000003f0: 0e50 d2bd dce2 3e3d 9957 64bd a2f8 dc3d
-0.13674095 -0.076755814 0.0155670745 0.103463456 0.08126771 -0.0052763484 -0.06860746 0.12879224
0.017123865 0.090615995 0.09050522 0.13912502 0.056857586 0.0025096168 -0.0021014009 -0.061845586
0.054058705 -0.010882738 0.07933595 0.124855444 -0.057923555 0.030271078 -0.0008092781 0.019466173
0.020051438 0.008480349 -0.12658794 -0.10073051 0.0042749178 -0.03787368 0.070697814 -0.12355878
0.027170852 0.059839554 0.13596591 -0.10917483 0.026138697 -0.09664566 -0.1111559 -0.12178379
-0.017312823 0.0719451 -0.012986497 -0.12124663 -0.075820886 0.12843376 -0.053281087 0.124146454
-0.06534423 -0.07240081 0.015463524 -0.06594594 -0.079560295 0.043832563 0.04430667 0.058866613
-0.0052939947 -0.0060625384 -0.102265656 0.13784619 0.07069405 -0.12576665 -0.058478802 0.0336214
0.086354785 0.11052612 -0.10856292 0.00624796 -0.051360566 -0.033276103 -0.07877915 -0.0077825994
0.08877955 -0.051784698 0.06574217 0.08403529 -0.08234201 -0.037397146 -0.061533824 0.088527456
0.08524799 -0.057745907 -0.1236502 0.025453607 0.093538724 0.055930972 0.06104713 0.10639036
0.13059913 -0.0940837 0.058683097 -0.07513702 0.051847257 -0.119797155 -0.019088866 -0.085325666
-0.10044023 -0.0075376392 0.04032144 0.11970291 -0.012569198 0.10340252 0.10815648 0.038075887
-0.107201405 0.06534288 0.10265615 -0.013072792 -0.06656955 0.05824708 -0.05306839 -0.13577211
-0.0644124 -0.06394951 -0.0033789352 -0.038506076 -0.08209335 0.05822132 -0.10413665 -0.0051622856
0.0574264 -0.1302739 -0.106401056 0.08520309 0.0052976613 0.008904918 -0.12352482 0.07563967
-0.078760125 0.039015755 0.06752929 0.114236705 -0.1383717 -0.10747239 0.055428278 0.10401427
-0.10692268 0.019475942 -0.12583396 -0.085706204 -0.10932239 0.008707605 -0.0046309135 -0.09880207
-0.10689425 0.038910963 0.10307764 -0.1143351 -0.035711274 -0.08161554 -0.034081377 -0.09442651
0.04625276 0.068894334 0.055810656 -0.071020745 0.049357746 -0.039645787 -0.1052202 -0.016863238
0.01886878 -0.11331686 0.048985083 0.08607915 0.02729455 0.04550592 0.060950827 -0.11820463
-0.061674107 0.030122885 -0.11049107 0.014761306 0.10539153 -0.02849835 0.10669009 0.024062583
-0.09156587 -0.048088726 0.1097786 -0.10146921 0.0736932 -0.0662822 0.07344016 0.10921249
0.07865314 -0.11553155 0.0013418249 -0.058135446 0.1209815 -0.100018986 -0.056047577 -0.1052783
-0.022876214 0.044336196 0.112051405 0.064370185 0.050395634 0.042249553 0.009198364 -0.08339015
-0.0046469467 -0.10552514 -0.08311658 0.105074584 0.06083275 -0.02876621 -0.001682186 -0.015661273
0.09371124 0.103216566 -0.0910224 -0.04288441 0.050087366 -0.006499732 0.071432635 0.0343501
-0.06655634 -0.14093897 0.07141726 -0.06438797 0.12739448 -0.047627296 -0.066360496 0.0402116
-0.013315747 -0.12910931 0.07733811 0.04323543 0.1023623 0.08393723 0.039716106 -0.06830349
0.11444783 0.12216552 -0.023427447 -0.09576917 0.039198346 0.07152529 0.036550287 -0.041870266
-0.08284553 -0.054015193 -0.08741402 -0.084072255 0.035205428 0.013337223 0.04255089 -0.030675083
-0.10757781 -0.12451891 -0.07692011 -0.07196581 -0.102691755 0.04660307 -0.055747602 0.107896104

model.transforms.0.encoder.noise_dist.transforms.0.ar_net.l_out.0.bias f4 [33]
00000000: 379e 853d b46f 303d e5c0 023e 5d28 85bd
00000010: ba7c d2bc 9e36 8f3d a8ba 7bbc 9176 9abd
00000020: 471a cf3c 199e aebd 873b c8bd 371b b63c
00000030: 7721 dc3d fe5b 293d b27c b83d 73f5 c73d
00000040: d812 25bd 3aed c5bd d161 7b3b ced4 bbbb
00000050: fdfd 873d 24bc 2b3a 0ac6 b63d cbda 4f3d
00000060: 37c8 d43d 4b31 bcbd a766 0dbd 3eaa 073e
00000070: 0776 a4bd 09d3 283d b38f d23d e1f2 86bc
00000080: f7c1 bebd
0.06524318 0.04307528 0.12768896 -0.06501839 -0.02569424 0.06992839 -0.015364327 -0.07542146
0.025281085 -0.085262485 -0.09776979 0.022229774 0.107485704 0.041347496 0.09008159 0.097636126
-0.040301174 -0.09664388 0.0038357864 -0.0057321554 0.06640241 0.00065511675 0.08924492 0.050745767
0.103897505 -0.091890894 -0.034521725 0.13248536 -0.080303244 0.041216884 0.10281315 -0.016473236
-0.093143396

model.transforms.0.encoder.noise_dist.transforms.0.ar_net.l_out.1.first_token f4 [1, 1, 33]
00000000: 124f 143e 708d 22ba 5cca 81bc 40af 61be
00000010: bd6f 743e 643d 7cbd 38c2 5fbe b10d 71be
00000020: 5f07 efbd 4be4 e5bd d0e5 243e 28c3 3dbd
00000030: ac40 283e 5b42 f13d 7105 7f3e 0494 103e
00000040: 60b8 043e 3f8b 623e 2a99 933d 5dc9 043d
00000050: 2b3e 8b3d 99b1 e83d ef19 00bd d57b 44be
00000060: 701b ef3d b3d4 08be a7fe 8cbe 61b7 26be
00000070: a948 493c 8007 19be 4741 37be bb6f 413e
00000080: 3f63 57be
0.14483288 -0.00062008854 -0.015843563 -0.22039509 0.2387075 -0.061581984 -0.21851432 -0.23540379
-0.11671328 -0.11225184 0.16103292 -0.046328694 0.1643092 0.117802344 0.2490442 0.14118963
0.12960958 0.2212343 0.07206948 0.032418597 0.06798967 0.11361999 -0.031274732 -0.19187863
0.11675155 -0.13362388 -0.27538034 -0.16280891 0.01228539 -0.14944267 -0.17895995 0.18890278
-0.21033953

model.transforms.0.encoder.noise_dist.transforms.0.autoregressive_net.lstm.weight_ih_l0 f4 [256, 35]
00000000: 4a80 d93d 2756 cebd 5821 a6bd 3441 f93d
00000010: 5f17 a3bc c3ca b7bc c8d7 133d 1fe5 883d
00000020: 5d0c 2bbd 9679 eabd 46d5 ab3c 8e82 cf3d
00000030: d26c bfbc a069 e83d 867d d2bc a90a 053e
00000040: 6b3d fa3c a220 e43d c082 d23d f9ed 4f3d
00000050: 5da0 63bc fa4f 76bd 9e9d b13d 7908 b93c
00000060: c58a 223d 742a a33c 2d8f fcbd c4f3 843d
00000070: 9790 f63c f936 153e 73d2 513d 6d0b fd3c
00000080: 65fd aa3d df27 643d 03e2 fc3d 473a c6bd
00000090: 55ba 743c e1fe 48bd 5cb2 4f3c 2056 83bc
000000a0: e6d8 e3bd dafb 453d 6a5b 3bbd 2089 e1bd
000000b0: 7118 8dbc af03 92bd 393f c4bc ed0e 07be
000000c0: fae7 94bd c142 3ebb 2d73 f1bd 5e8e 05bd
000000d0: 9260 9abc a0bb e9bd d6d0 85bd 7b25 943d
000000e0: 8900 833c e988 afbd 9373 6c3d d22f 2abd
000000f0: 6a8b f8bb e867 fd3d 1cd8 28bc 445d cc3d
00000100: 9ea7 01be 5fbd ffbd 13aa 66bd 27a0 833d
00000110: ac19 e53d f543 5fbd 9609 aa3d 290a 763d
00000120: 8028 fdbc c240 013e 1269 683c 3aec c93d
00000130: e722 dabd d7f0 5cbd edaa 093d 1563 013e
00000140: f707 03be dd38 603d 6a93 e9bd 74b5 783d
00000150: ef2e acbd 1071 6c3c 7d3f 903d 851a b93d
00000160: 809c 053d cb30 efbb 6b92 6fbd 7a86 083d
00000170: 7393 863d 465e c3bd 0898 a03d ee35 5ebb
00000180: 765f 8abd f3ca 993d 0e99 b73c baa9 883c
00000190: 096a a73c b632 9cbd a1b8 9bbc 0140 47bc
000001a0: 52e6 c9bd 8804 d03c 7c13 0fbb ea6a dc3c
000001b0: 58f2 adbd 4f40 20bd 6613 633d 80d2 00be
000001c0: e02e ce3d 75dd 18bd fb18 d33d 2eac 993d
000001d0: 2a42 d03c a720 d53d 5bb2 14bd 7472 b53a
000001e0: 7d24 833d 5d43 a53c 17ce 84bd 67ef f5bd
000001f0: 1220 87bd c9e1 623c 8fa6 c6bd 9e25 953d
00000200: 72a6 993d d130 583d 3f24 72bc cc6e 8dbd
00000210: 50d2 f8bd a911 fa3c c930 bb3d 4479 d83b
00000220: 9a50 16bd b3c7 1c3d 7ef2 8f3d 7360 f93d
00000230: 9a22 d23a f054 d4bd b1f9 b63c 9fff 41bd
00000240: 8026 3b3d 3a88 08be 63ae c5bc e46d 90bd
00000250: 6ce1 b6bd 186b af3d b0c0 dabc 4c6a 93bc
00000260: dbe6 c6bc 06a5 e7bc 1aac 473d 45dc 80bd
00000270: 4b7e 623d 9e03 473d 67d6 32bd 8379 fb3c
00000280: 8a39 05bd 07fb 87bd 7251 9f3d 5c61 203d
00000290: e715 6dbd a53f cfbd a81d 75bd 1f34 89bd
000002a0: 16c9 013d f61e 21bc e950 debd 9aa5 1ebd
000002b0: e1b0 863d 3219 17bd fba5 723b 0202 e13d
000002c0: c5b0 a0bd 9285 d0bd 713d c8ba 5950 bc3d
000002d0: 985a 85bc 69db eb3d 452a a73d 7d24 62bb
000002e0: b2cf c53b faa3 0cbd a2e6 e63d 9da8 083d
000002f0: 476a 5a3d f3c0 ba3c 3da7 f7bd 90cd 48bd
00000300: 2931 f8bc 47e9 303d fd34 8ebd 5a32 2f3c
00000310: 27f9 c83d f3f5 bcbc 8921 aa3d e981 78bd
00000320: ea34 523d 0d26 bfbd 4ce3 303d 1285 03bd
00000330: 8135 81bd 1490 063c 0f84 433d 9aec 04be
00000340: 974c cabd 6dd9 d2bd 7763 82bd bfbb 003e
00000350: ad03 2cbc 65cc 843d 67c5 df3d 20de aebd
00000360: c634 6b3d c785 85bd 26ca d5bd 6731 5dbc
00000370: b940 98bd 78dd e73d 012a 0a3d 0c15 cb3d
00000380: d00f 35bc 3bf5 803d 1777 ab3d 2c33 18be
00000390: 5d98 8fbd 6f00 e4bd db0b a3bd 2f88 a7bd
000003a0: 7231 e53d 4a5a 7f3d e1ce bcbd 43cb f1bd
000003b0: 72ef f8bd d8cc e1bb 1cd9 133c 06d0 88bd
000003c0: 2e1a d9bd 8f5f 843d 07b7 53bd 05ba 65bd
000003d0: 9b8a bfbc a1dd 823c 64d4 c1bc 22ef 263c
000003e0: d165 f0bd 275c e23c bc93 b73d 0cee 663d
000003f0: 34d4 833d 3615 0b3e 5a7e a8bd 0791 bcbd
0.10620172 -0.10075026 -0.081118286 0.1217064 -0.019908605 -0.022435552 0.036094457 0.066843264
-0.041759837 -0.11448972 0.02097572 0.10132323 -0.02336732 0.11348271 -0.02569462 0.12992348
0.030546864 0.11139037 0.10278845 0.050764058 -0.013893214 -0.060134865 0.08672641 0.022587048
0.039683122 0.019917704 -0.12331996 0.06491807 0.030098243 0.14571752 0.05122609 0.030889237
0.083491124 0.055702087 0.12347796 -0.09679084 0.014937003 -0.049071196 0.0126768015 -0.016032279
-0.111253545 0.048335887 -0.045741476 -0.11012483 -0.017223569 -0.07129609 -0.023955928 -0.13189287
-0.072708085 -0.0029031488 -0.11789546 -0.032606475 -0.018844876 -0.1141274 -0.06533973 0.07233711
0.015991466 -0.085710354 0.057727408 -0.04154951 -0.007584979 0.12373334 -0.010305431 0.099787265
-0.12661597 -0.124872915 -0.05631454 0.06427031 0.11186537 -0.05450817 0.083026096 0.060068283
-0.030903101 0.1262236 0.014185207 0.0985951 -0.10651188 -0.05394062 0.033610273 0.12635453
-0.12796007 0.05474173 -0.1140507 0.060719922 -0.084073894 0.014431253 0.070433594 0.09038261
0.032619953 -0.0072995177 -0.058489244 0.03333137 0.065710925 -0.095394656 0.07841498 -0.0033906656
-0.06756489 0.075094126 0.02241185 0.016682494 0.020436304 -0.0762686 -0.019008936 -0.012161256
-0.09858383 0.025392786 -0.0021831682 0.02690645 -0.08493489 -0.03912383 0.05543842 -0.125803
0.100675344 -0.037320573 0.10307499 0.07503544 0.025422174 0.104066186 -0.036302906 0.0013843314
0.06403444 0.020173723 -0.06484621 -0.12008553 -0.06597914 0.013847777 -0.09699737 0.072825655
0.0750245 0.05278093 -0.01477915 -0.069058985 -0.12149489 0.030526 0.091401644 0.006606253
-0.03669796 0.038276386 0.070286736 0.12176599 0.0016032041 -0.10367763 0.022335859 -0.04736292
0.045691013 -0.13333216 -0.024131006 -0.0705221 -0.089297146 0.085653484 -0.026703209 -0.017995022
-0.024280002 -0.028276931 0.048748113 -0.06292013 0.055296224 0.048587434 -0.0436615 0.03069759
-0.032525577 -0.066396765 0.07779206 0.03915535 -0.057882216 -0.10119561 -0.059842736 -0.066993944
0.03168591 -0.009834042 -0.10855276 -0.03873215 0.06576706 -0.036889262 0.0037025202 0.10986711
-0.07846216 -0.101817265 -0.00152771 0.091950126 -0.01627855 0.115164585 0.08162359 -0.0034506612
0.006036722 -0.034336068 0.112744585 0.033363927 0.05332401 0.022797083 -0.12092445 -0.049024165
-0.030296879 0.04319122 -0.069437005 0.010693157 0.09813147 -0.023066496 0.083071776 -0.060670767
0.051319994 -0.093334295 0.043185517 -0.032109328 -0.06309033 0.008213062 0.047733363 -0.12980881
-0.098778896 -0.10295377 -0.06366628 0.1257162 -0.010498923 0.06484298 0.109263234 -0.08538461
0.057423376 -0.06519657 -0.104389474 -0.013500548 -0.0743422 0.11321539 0.033731464 0.09916124
-0.011051133 0.06296774 0.08372324 -0.1486327 -0.07011483 -0.11132895 -0.079612456 -0.08180272
0.111910716 0.062341966 -0.092191465 -0.11806347 -0.121550456 -0.0068908744 0.009023931 -0.06680302
-0.106006965 0.06463539 -0.05168822 -0.056085605 -0.023381522 0.015974822 -0.023660846 0.01018885
-0.1173817 0.027631832 0.08963725 0.056379363 0.06436959 0.1358231 -0.08227225 -0.09207349
