checkpoints/sort_1/S_6_K_6/CNF/16_05_2023__12_45/cktp/checkpoint_0005000.tar (torch, 317013 bytes, 140 tensors)

cnf.flow_layers.0.category_prior f4 [6]
00000000: 6058 e5bf 6058 e5bf 6058 e5bf 6058 e5bf
00000010: 6058 e5bf 6058 e5bf
-1.7917595 -1.7917595 -1.7917595 -1.7917595 -1.7917595 -1.7917595

cnf.flow_layers.0.embed_layer.weight f4 [6, 64]
00000000: b556 85bf 6411 5a3f 15e0 b5bf b744 87bf
00000010: 52e6 93bf 5b72 a23f 7c5d 7ebf 7d21 3abe
00000020: c43d 54bf b8cb ca3e 0a11 2dbf 13c6 3bbe
00000030: 1fb5 6a3f ea6b 4fbf 3d2d a1be fe9e 04bf
00000040: e8cf b6bf 6222 0bbf 262a 5ebf 1fb4 ed3e
00000050: ae67 0a3e 1ff1 17be 4cfa 943f 01b3 7e3f
00000060: 6da2 c23e bb40 11bf 4364 393e 1c80 3740
00000070: dfbe a93d ec2c 993f 2578 ac3e 20f2 e73f
00000080: 882e 62bf 8023 f23f 7bda 48be 0ea8 42be
00000090: 4743 b0bf b3a5 a13d 7952 a7be 3430 21bf
000000a0: 1e93 9d3f cc23 073f 07fa a4bf d0d0 3fbf
000000b0: 7e80 73bf c3e0 76bf 4ecf 64bf 1af5 4abe
000000c0: 6f35 90bf 1854 733e 9e44 ccbf 0181 e33f
000000d0: d220 cabc 9304 db3f b386 f5be 7be6 9e3f
000000e0: 0284 313f de12 8bbf 68ee 2fbf f738 0cbf
000000f0: 77fd f3bf 63e5 383f 28d5 42bf f5df 3ebe
00000100: 9921 8f3f 3e06 33bf 22bb d4bf 9627 91be
00000110: a059 51bf 5eed de3f 3cbb 88be 6803 8c3f
00000120: 2bb7 0740 2b45 8abf fc89 4c3e 170c 6fbe
00000130: 4c8b c6be 96ac e13e f606 6a3e e975 0f40
00000140: 9a31 503f f991 213e bcd0 ab3d 2970 673f
00000150: 44cf 143f c9f9 4bbf a7d5 903e 98b6 943e
00000160: 275d 0f40 4deb 923f 2cdb aebd d117 8f3f
00000170: 2319 d2bf bfd6 99be ce04 8abf a1f5 dcbf
00000180: 649b a8bc 4bb0 58be 8ec6 273e 4268 283f
00000190: 5611 763f 8145 73bf 70dd 583e ea6f 9a3f
000001a0: 0f4d d2be e502 13bf 3a5d 1dbf 09f5 fabe
000001b0: 4493 00be cb1d ecbe de79 f4bd a6fb a13f
000001c0: f4f1 163f 11d9 b9be 6e15 d73e 1882 573f
000001d0: e403 203f 9e12 d53f 9b3a e8be 5036 623f
000001e0: 13da 45bf 0dca 73bf c565 343e cca9 51bf
000001f0: fc74 84bf bf93 ef3f c5d3 963f bb2c bebf
00000200: 2bae 26bc 23b1 113e e2d1 203f a7e9 c4bf
00000210: 719e 5d3f 28df 90be 9e31 5f3f fa59 02be
00000220: 8347 9cbe 59dc a83e ba07 b2bd ab77 a83e
00000230: 0c77 5b3e ff02 9e3e 1fbf c1bf 2d06 e5bf
00000240: bc4c 993f 7af6 08c0 7ecd 81be e788 e93f
00000250: 1ed0 0940 9a25 3fbf 1961 a93f 9186 f6be
00000260: 1180 163f 8ffb d8bc 380e 363e 41d6 383f
00000270: 88da 1c40 4f5c 963d 368c b5be 98fb 5abf
00000280: 9da7 663d 3eb0 d23f 4449 cb3e a938 5c3c
00000290: c180 153f 87bc cebf d211 3e3f 9cd9 9cbf
000002a0: cd7c 403f fdd7 a83f d5f6 8f3f 63b5 16be
000002b0: e5ea 89bf 9c31 873f 2220 063e bd1a 07bd
000002c0: 9dd5 c23e cfab a93e e6ea 50bf d81b 44bf
000002d0: 57df 113f c3ae 76be 05fe 32bf 0dcc 9e3f
000002e0: 161e 58ba 015d 923f 0fad da3f 8df0 b1bf
000002f0: 476b 53be 2de7 66bf 7c3f babf 234e 3a3f
00000300: 5e43 803f 990e 213f 5d28 36be 3172 313f
00000310: c064 a4bf aef4 933e ddf8 1dbf b075 94bf
00000320: b8e0 d23f 9f5a b53f bd03 673f bc56 aa3e
00000330: 29dd 003f 1c6b 36bf 10f4 b2bf 28c6 e23f
00000340: 5fab 82bf 0e94 d6be 0a62 bbbe 22e6 713f
00000350: 8710 98bf 0cc0 d73e 4359 123f 5eaa 6a3f
00000360: 48fa 0fbf b9e5 3e3f f565 abbe 74bc 5ebe
00000370: f8a2 f3bd 04a1 353f 37f4 59be e74b 8dbf
00000380: f990 44bf 95e5 5cbf 5a0e 853d 51ae 1ac0
00000390: 99b3 89bf 8814 c4be edb7 6ebd 7da0 13be
000003a0: ea62 54bf 8b2d 8f3d b547 663f c41e fe3d
000003b0: c01b b53f 7c9b 373f 4add a33f a173 b33f
000003c0: 978c 8abe 14a6 363f d65c ab3e b02f 5fbe
000003d0: 62ec ddbf 39ec b43f c118 a33f 9153 b43e
000003e0: 1c5f 513f ae04 a93f a515 d73e 0ca3 153e
000003f0: c0e8 c3bf bd89 663e e522 863f e2e7 b9bf
-1.0417086 0.85182786 -1.420901 -1.0567845 -1.1554663 1.2691149 -0.99361396 -0.18176837
-0.82906747 0.3960855 -0.67604125 -0.18337278 0.9168262 -0.8102404 -0.31479827 -0.518051
-1.4282198 -0.5434934 -0.86783063 0.46426484 0.13516113 -0.14838074 1.1638885 0.9949189
0.38014546 -0.56739396 0.18104653 2.8671942 0.08288359 1.1966834 0.33685413 1.8120766
-0.8835225 1.8917084 -0.19614594 -0.1900942 -1.3770531 0.07892933 -0.3268011 -0.6296418
1.2310522 0.52788997 -1.2888802 -0.74928 -0.9511794 -0.9643671 -0.8937882 -0.19820061
-1.1266307 0.23762548 -1.595844 1.7773744 -0.024673853 1.7110771 -0.4795433 1.2414087
0.6934205 -1.0865133 -0.68723154 -0.5477442 -1.9061726 0.72225016 -0.761065 -0.1864012
1.1182128 -0.699314 -1.6619608 -0.28350514 -0.8177738 1.7416189 -0.26705348 1.093854
2.1205547 -1.0802358 0.19974512 -0.23344456 -0.3877815 0.44076985 0.22854218 2.2415717
0.81325686 0.1577834 0.08389422 0.9040552 0.5812876 -0.79678017 0.28288004 0.29045558
2.2400606 1.1478058 -0.085378975 1.1179143 -1.6413921 -0.3004665 -1.0782716 -1.726246
-0.020581909 -0.21161 0.16384336 0.65784085 0.961202 -0.9502793 0.21178222 1.2065403
-0.41074416 -0.5742629 -0.6147038 -0.49015072 -0.12556177 -0.4611648 -0.11937307 1.2654922
0.5896294 -0.3629842 0.42008537 0.8418288 0.62505937 1.6646307 -0.45357212 0.88364124
-0.7728588 -0.9523018 0.17616947 -0.81899714 -1.0348201 1.8716964 1.1783377 -1.4857401
-0.010173361 0.14227729 0.62820256 -1.5383805 0.8656989 -0.28295255 0.87185085 -0.12729636
-0.3052331 0.32980612 -0.0869288 0.329038 0.21432132 0.3086166 -1.513645 -1.789251
1.1976542 -2.1400437 -0.2535209 1.8244904 2.1533275 -0.7466675 1.3232757 -0.4814954
0.58789164 -0.02648714 0.17778862 0.72201926 2.450838 0.07341825 -0.35458535 -0.8554015
0.056312192 1.6460035 0.39704335 0.013441243 0.5839959 -1.6151284 0.7424594 -1.2253909
0.7519043 1.3190914 1.1247202 -0.14717631 -1.0774809 1.0562015 0.13098195 -0.032984484
0.380536 0.33138892 -0.81608427 -0.76604986 0.56981415 -0.24090104 -0.69918853 1.2406021
-0.0008244229 1.1434633 1.7084063 -1.3901535 -0.20646392 -0.90196496 -1.4550624 0.7277548
1.0020559 0.629129 -0.17788835 0.6931487 -1.2843246 0.28897613 -0.6170786 -1.1598415
1.6474829 1.416828 0.9024008 0.33269298 0.50337464 -0.71257186 -1.3980732 1.7716722
-1.0208548 -0.41909832 -0.36598235 0.9449178 -1.1880044 0.42138708 0.5716745 0.9166621
-0.56241274 0.7456928 -0.33476225 -0.21751577 -0.11896318 0.70948815 -0.21284567 -1.1038789
-0.7678371 -0.86287814 0.06496878 -2.4168894 -1.0757934 -0.38296914 -0.058280874 -0.1441669
-0.8296343 0.069911085 0.89953166 0.12408212 1.4149094 0.71721625 1.2801907 1.4019662
-0.27060387 0.71347165 0.33469266 -0.21795535 -1.7337763 1.413459 1.2741929 0.35220006
0.8178575 1.3204553 0.420087 0.14612979 -1.5305405 0.2251348 1.0479399 -1.452389

cnf.flow_layers.0.flow_layers.0.pred_net.layer.weight f4 [8, 64]
00000000: 9a0e b73d bec6 50bd e229 383d 8493 25be
00000010: 0ac4 c53c dc19 bdbd f6fa 043d 8f10 633e
00000020: 0622 04be e717 f9bc b8d3 983e 8fd8 41be
00000030: 52ad e23c dbcb ac3e 38c6 1f3e 2986 333e
00000040: 0c84 0dbc bd31 ea3d 9f0a ad3d 0283 873e
00000050: ae9c 30be 3953 573d a02a 4bbe 42a8 8ebe
00000060: 7e7c 9c3e ea54 0e3e 38b9 01be 5ce2 9fbe
00000070: f2d2 6dbd a0d8 0cbe 25e1 dabd 8b28 41be
00000080: 953e 113e 9f03 a93d 43e3 c6bd f115 42bd
00000090: d46a 9f3e 9bf7 adbe 349e 7b3e 3940 923c
000000a0: 227b 9fbb 9872 32be 99f2 333e 60ae 593d
000000b0: 534e 36bd 9cce 9d3e 52a2 60be 309f 953e
000000c0: 1ae7 863e 60eb aebd c5f7 ba3b 9fc6 d13d
000000d0: 5f37 1a3e 485a 8bbe 1b58 6abe 3c9f 88be
000000e0: 5cec 3dbe dcc3 0ebd 49d2 2d3e b1e3 c23d
000000f0: 87f2 1ebe 3f20 1c3e 19d5 0d3e 7a85 423d
00000100: dc8c 96be 5a40 1fbe 2894 2cbe d3e8 82bb
00000110: bcd1 07bd 25dc 293d ce70 943d 4fe9 3a3e
00000120: 96c8 61bd 5e9f 52bd 5aab 7abe 93a8 a83d
00000130: b8c2 f73c 647e 833e 854f efbd 2cca 98bd
00000140: 3902 443e 972f 23be 7dc3 9d3c 9d70 e5bd
00000150: af20 413d ec66 2fbe 4158 c4bd cac7 b93d
00000160: bcb3 a83e 6e80 81be a1e6 f23c f0ef 893d
00000170: e93a 52be da62 03be e099 4f3e 1e7b 033d
00000180: 8c95 c83c d650 a93e ddad 163e 5c34 a93e
00000190: de1b b2bd f30d dc3c b479 093e 27ad 103e
000001a0: 14c8 9b3d 9f5d 8b3e 2506 5ebe 1911 663d
000001b0: 6e5c bdbe aeb1 8ebe 118f 74be d4f4 69be
000001c0: fe66 ecbd 9531 7fbe f22e 87be 790a 32bd
000001d0: 154a 6d3e 193b 8c3e 9dad 1e3c a5e5 a53c
000001e0: 52d7 98be f199 cb3d 04a5 65be 54c8 aabe
000001f0: bdae 27be c064 853e dd68 473e 86cd 38be
00000200: 5b86 9b3e 891d 26be faca 70be 9358 6dbe
00000210: caa4 663e 91c1 923e fe5a 273e 58c3 4c3e
00000220: d19c 75bd 76b9 4b3e b280 52be 45d3 acbe
00000230: 5706 8c3c dac1 813e 19c1 70be c92c 47be
00000240: bfab 183e 8d9d 8ebe 71be adbd 6aaa d53e
00000250: ab4c 493e 0b9f 41be 9aa0 823e 5687 c83e
00000260: e9b3 18bd 90f0 e23c 4740 80be 1c1b 81bd
00000270: a078 a9bd 4502 6d3e 9a71 a8be efc5 3dbd
00000280: a3e0 4fbe 0b97 243e ec6c 683e 180f 613e
00000290: 30f4 ac3e 594d 10bd 17be 0d3a 42a4 623d
000002a0: ca83 9c3e e66b 1c3e d389 92be 1b5b dcbd
000002b0: df90 bc3d 9287 f83d 08a5 0e3e dba8 aebd
000002c0: ed7c ca3c 1696 c1bd 1670 043e e96e 26be
000002d0: d89f 3ebe 674a 9a3d 7ae3 3bbd ae79 733e
000002e0: b5c8 8dbe ba74 473d a583 87be 6b1d ab3d
000002f0: 3b2b 4c3e 86a3 4abe 5656 9fbb d32d 8f3e
00000300: 1d16 07bd 0ccf c63d 1d95 93be 833a aa3c
00000310: 74c0 0cbd 34a0 523e e322 36be 5f93 073e
00000320: ae6b 893e 292d 7abe e434 1a3d 4250 64be
00000330: d1e2 21be d038 b5bd d170 863e 9dfa 9b3e
00000340: a947 21be 11eb a73e 633e 633e 6acf 93bc
00000350: f171 e33d 924d f6bc 5557 873c 07d8 623e
00000360: 2b29 ca3d 3e8e 893e 86f5 b6bc c09c 813e
00000370: e7a0 a0bd 4a6a 36be 6023 e5bc 63c2 96be
00000380: 5c1d 00be f5bd e1bc 7d5b 46be 17dd 0cbe
00000390: 7038 ec3d f15b 6b3d 824d 46be 4190 c83e
000003a0: b56f 7dbd f4bf 81be 25f8 86bc 7f18 213e
000003b0: a98b 05be 7492 cbbd 3e1e ce3d 7002 4d3e
000003c0: 598a 123d b134 84be e17f 78be 27a9 b33e
000003d0: 26f6 053e 9814 b63e b8ef 243e 6414 523d
000003e0: e6a1 37be c772 a73d 2165 c8ba 2765 09be
000003f0: 5f76 bfbd 23ef e1bd 8439 6d3e ca56 1bbe
0.08938332 -0.050970785 0.044961818 -0.16169554 0.02414133 -0.09233448 0.032465898 0.22174285
-0.12903604 -0.030406905 0.2984903 -0.18930267 0.027670536 0.3374928 0.15602958 0.17531647
-0.008637439 0.11435268 0.084492914 0.2646714 -0.17247269 0.0525696 -0.19840479 -0.27862746
0.3056373 0.1389958 -0.12668312 -0.31227386 -0.0580625 -0.13754511 -0.10687474 -0.18863122
0.1418403 0.08252644 -0.097113155 -0.047384206 0.3113619 -0.3397797 0.24572068 0.01785289
-0.0048669735 -0.17426527 0.17573012 0.053144813 -0.04450829 0.30821693 -0.2193692 0.29223013
0.26348191 -0.08540988 0.005705806 0.10242962 0.15060185 -0.27217317 -0.22885172 -0.26683986
-0.18547195 -0.034854755 0.16974749 0.09516085 -0.15522204 0.15246676 0.13850822 0.047490574
-0.29404342 -0.15551892 -0.16853392 -0.00399504 -0.033159003 0.04146971 0.07248078 0.18253063
-0.055122934 -0.051421516 -0.24479428 0.08235278 0.030244216 0.25682366 -0.11685089 -0.07460436
0.19141473 -0.15936123 0.019258255 -0.1120312 0.04715031 -0.17129105 -0.095871456 0.0907131
0.32949626 -0.25293297 0.029650988 0.067352176 -0.20530285 -0.12830678 0.20273542 0.032099836
0.024485372 0.33069485 0.14714761 0.3304776 -0.086967215 0.02686212 0.13425332 0.14128552
0.07606521 0.27219865 -0.21682031 0.05616865 -0.3698458 -0.27869934 -0.238827 -0.22847301
-0.11543082 -0.24921258 -0.26403004 -0.04346702 0.23172791 0.27388838 0.009684947 0.020251105
-0.29851776 0.09941471 -0.2242623 -0.33355963 -0.16375251 0.2605343 0.19473596 -0.18047151
0.30375943 -0.16222204 -0.2351493 -0.2317832 0.225238 0.28663304 0.16343305 0.19996393
-0.059964005 0.19894966 -0.20556906 -0.33754936 0.017092867 0.2534321 -0.23511161 -0.19450678
0.14909266 -0.27854577 -0.084835894 0.41731578 0.19658153 -0.18908326 0.25513154 0.39165753
-0.03728095 0.0277026 -0.2504904 -0.06303999 -0.082749605 0.23145397 -0.3289917 -0.046331342
-0.20300536 0.16073243 0.226978 0.21978414 0.3378005 -0.035230014 0.0005407049 0.05533243
0.30569297 0.15275535 -0.28620777 -0.107595645 0.092073195 0.12135233 0.13930142 -0.085283004
0.024717772 -0.09452455 0.12933382 -0.16253246 -0.18615663 0.07533722 -0.045871235 0.23776886
-0.2769219 0.048695303 -0.26467624 0.083552204 0.19938366 -0.19788942 -0.004862587 0.2796465
-0.032980073 0.0970746 -0.28824702 0.020779854 -0.034363225 0.20568925 -0.17786746 0.13239811
0.26839966 -0.2443129 0.037648097 -0.22296241 -0.1580918 -0.08848727 0.26257947 0.3046464
-0.15749992 0.3279653 0.22191767 -0.018043239 0.11105717 -0.030066285 0.016521135 0.2215272
0.098711334 0.26866335 -0.022333872 0.25314903 -0.0784319 -0.17813984 -0.02797097 -0.2944518
-0.125112 -0.027556399 -0.19370838 -0.13756214 0.11534202 0.05746073 -0.19365504 0.39172557
-0.06187411 -0.2534176 -0.016475746 0.15732001 -0.13041557 -0.09940043 0.10064362 0.20020461
0.03577647 -0.2582145 -0.24267532 0.3508999 0.1308218 0.35562587 0.1610707 0.051288977
-0.17932853 0.08176189 -0.0015288928 -0.13417493 -0.09348749 -0.1103194 0.23166472 -0.15169826

cnf.flow_layers.0.flow_layers.0.pred_net.layer.bias f4 [8]
00000000: af29 86bc bd14 123d 8f70 e7bc 1d52 5f3c
00000010: 1e31 b2bc 96d1 f7bc a994 ecbc 9bf8 2ebd
-0.016377298 0.03566431 -0.028251914 0.013630417 -0.021751937 -0.030251306 -0.02887948 -0.042717557

cnf.flow_layers.1.bias f4 [1, 1, 4]
00000000: eb85 7bbc 7664 adbd 40b1 543f 3e9b 1fbf
-0.015351753 -0.08466427 0.8308296 -0.62346256

cnf.flow_layers.1.scales f4 [1, 1, 4]
00000000: e340 36be 5265 a2be 3a79 04bf 1c3e f1be
-0.1779819 -0.31717926 -0.5174748 -0.47117698

cnf.flow_layers.2.log_s f4 [4]
00000000: adce 24be 8eea aabd 325d 68ba 4320 5d3e
-0.16094466 -0.08345519 -0.0008863985 0.21594338

cnf.flow_layers.2.u f4 [4, 4]
00000000: 0000 0000 5c85 03bd b11c 21be 81ee dd3e
00000010: 0000 0000 0000 0000 a10c 073e 5c47 833e
00000020: 0000 0000 0000 0000 0000 0000 e655 58bd
00000030: 0000 0000 0000 0000 0000 0000 0000 0000
0.0 -0.032109603 -0.15733601 0.43346027 0.0 0.0 0.13188411 0.2564038
0.0 0.0 0.0 -0.052816294 0.0 0.0 0.0 0.0

cnf.flow_layers.2.sign_s f4 [4]
00000000: 0000 80bf 0000 803f 0000 803f 0000 80bf
-1.0 1.0 1.0 -1.0

cnf.flow_layers.2.l_mask f4 [4, 4]
00000000: 0000 0000 0000 0000 0000 0000 0000 0000
00000010: 0000 803f 0000 0000 0000 0000 0000 0000
00000020: 0000 803f 0000 803f 0000 0000 0000 0000
00000030: 0000 803f 0000 803f 0000 803f 0000 0000
0.0 0.0 0.0 0.0 1.0 0.0 0.0 0.0
1.0 1.0 0.0 0.0 1.0 1.0 1.0 0.0

cnf.flow_layers.2.eye f4 [4, 4]
00000000: 0000 803f 0000 0000 0000 0000 0000 0000
00000010: 0000 0000 0000 803f 0000 0000 0000 0000
00000020: 0000 0000 0000 0000 0000 803f 0000 0000
00000030: 0000 0000 0000 0000 0000 0000 0000 803f
1.0 0.0 0.0 0.0 0.0 1.0 0.0 0.0
0.0 0.0 1.0 0.0 0.0 0.0 0.0 1.0

cnf.flow_layers.3.scaling_factor f4 [4]
00000000: 0000 0000 0000 0000 fc8f 313c 4300 203b
0.0 0.0 0.010837551 0.0024414218

cnf.flow_layers.3.mixture_scaling_factor f4 [4, 4]
00000000: 0000 0000 0000 0000 0000 0000 0000 0000
00000010: 0000 0000 0000 0000 0000 0000 0000 0000
00000020: 3aa4 573c 90ce e53d 2a38 9c3d 4dcb 693d
00000030: 238a 503e 4946 32bd 260f 1f3e 99d3 233e
0.0 0.0 0.0 0.0 0.0 0.0 0.0 0.0
0.013161713 0.11221039 0.076279 0.05707865 0.20365195 -0.04352406 0.15533122 0.15998687

cnf.flow_layers.3.mask f4 [1, 4]
00000000: 0000 803f 0000 803f 0000 0000 0000 0000
1.0 1.0 0.0 0.0

cnf.flow_layers.3.nn.input_layer.0.weight f4 [32, 4]
00000000: ae28 a4be b69f d4be 4472 42be 24ff 28be
00000010: 812d 8f3e a51a 5a3e 7aa2 98be d4e8 38be
00000020: c553 f03e 3071 dbbe 1843 eebd 6ce8 393e
00000030: 1349 dfbe d579 f8be 6093 773e 587f 7ebe
00000040: 42b4 eb3e 0466 c73e 60aa cf3e ce9e babe
00000050: 3d4c 44be 0440 873e aa19 cebe 802a eb3c
00000060: e75f b53e f38b 173e dcaf 7b3e f045 69be
00000070: 20c5 543d 95c6 b4be d46a 273e 8001 b5bb
00000080: e541 b03e a887 1bbe 3e09 8dbe d874 d33e
00000090: b798 d33e 7da1 863e 600e a5be b068 94be
000000a0: e1e9 15bd 28d4 d5be fcd6 143e 18d0 ad3e
000000b0: 899a d73e dc93 0fbe fad3 b8be e053 dcbe
000000c0: 2fbc 50bc ce5f ef3e 383f c0bd c0a7 d33e
000000d0: 2e4a 54bd 50b6 ccbe 4847 ef3d 64cf 37be
000000e0: daa4 68be 9fc1 fb3e 9ab3 a2be 4896 e6be
000000f0: eb0a e33e cf89 acbc 38ce 9ebd a04a 73be
00000100: 01ee 56be 1953 a1be 0070 66bc 08a6 4ebe
00000110: 18de d83e 92e6 04bd 08b4 f13d 2442 99be
00000120: e49c 0e3c e7fe efbd 0030 e43a 16c7 8abe
00000130: 68dc 2abe a073 0d3d cefc 973e 308f b8bd
00000140: ac74 a13e 52f9 013f 6ac0 cabe 00ef a9bb
00000150: 7053 7abe b3e5 cd3e e65f 87be e0cc b53d
00000160: a43e aabe ee27 f1be 62c9 c83e 12eb fbbe
00000170: 6d8d c43d a321 0c3e 8032 3f3c 56c4 9ebe
00000180: 7ac1 80be 9554 cabe cc8d 9dbe 90da f5bd
00000190: 9a3c af3e 05c5 56be e062 943c 9cf9 1abe
000001a0: df06 893d da23 023f 6084 8e3c f867 abbe
000001b0: 76c4 d0be cf26 5ebe 061c df3e 1ceb 67be
000001c0: 9568 07bf 4696 83bd a0ba f13c dea3 f33e
000001d0: cf3c e23d 03fe 093d 6629 d3be 60ad 22be
000001e0: 5a20 6ebd 4706 0abc e0cb 113e 2897 693e
000001f0: f0da 063b 0dcb 843d 581e d43d ac4a e73e
-0.32062286 -0.415281 -0.18988901 -0.16503578 0.27964404 0.21299227 -0.2981146 -0.18057567
0.4693891 -0.42859793 -0.11633891 0.18155068 -0.4361044 -0.4853045 0.24177313 -0.24853265
0.46035963 0.3894502 0.40559673 -0.36449283 -0.19169708 0.26416028 -0.40253955 0.028706789
0.3542473 0.1479948 0.24578804 -0.22780585 0.051945806 -0.35307756 0.16349345 -0.0055238605
0.34425274 -0.15188468 -0.27546114 0.41300082 0.4132745 0.2629508 -0.3223753 -0.2898612
-0.036599997 -0.41763425 0.14535135 0.33947825 0.42110088 -0.14021248 -0.36099225 -0.43032742
-0.012740179 0.4675278 -0.09387058 0.4133892 -0.051828556 -0.39982843 0.11683518 -0.17950207
-0.22719136 0.4917116 -0.3177765 -0.4503653 0.44344267 -0.021061806 -0.07754177 -0.23758936
-0.20989229 -0.3150871 -0.014064789 -0.20180523 0.42356944 -0.03244645 0.11801916 -0.29933274
0.008704398 -0.11718541 0.0017409325 -0.27105016 -0.16685641 0.034534097 0.29685062 -0.09011686
0.31534326 0.5077106 -0.39599925 -0.0051859617 -0.24445891 0.4021431 -0.26440352 0.088769674
-0.33250916 -0.47100776 0.39216143 -0.49202782 0.09597287 0.13684706 0.011669755 -0.31009167
-0.2514761 -0.39517656 -0.30772245 -0.12004578 0.34225923 -0.20973594 0.018113554 -0.15134281
0.06690764 0.50835955 0.017397106 -0.3347776 -0.40774888 -0.21694492 0.43576068 -0.22648281
-0.52893955 -0.06425147 0.029507935 0.47585958 0.110467546 0.03368951 -0.41242522 -0.1588645
-0.05813632 -0.008424348 0.14237928 0.22811568 0.0020577274 0.06484041 0.1035735 0.45174158

cnf.flow_layers.3.nn.input_layer.0.bias f4 [32]
00000000: afc1 7ebd f54e c43e 3394 edbe 4549 1d3e
00000010: 771c 44be bdef d6be 1f9d c13d 3e7b 553e
00000020: cae2 89be f3fd 81be d704 493e 57ab 5d3e
00000030: a418 bdbe da52 16bd 341f 87bd e21a c03e
00000040: cb37 9f3e 879f a0be 45c0 18be 0568 60bd
00000050: 9848 f7be 94cd 7d3c c2b1 ad3e bbef e83e
00000060: 577c ea3d fcb5 3b3e 8626 863d 3d32 083e
00000070: 6299 ef3d b7a9 9d3e deeb 9f3e 684b 463e
-0.06219643 0.3834149 -0.4640213 0.15359981 -0.19151483 -0.4197978 0.094537966 0.20847794
-0.2693084 -0.2538906 0.19630753 0.21647392 -0.36932862 -0.036700107 -0.065977484 0.3752051
0.31097254 -0.3137171 -0.14917095 -0.0547867 -0.48297572 0.015490908 0.3392468 0.454954
0.11449497 0.1833114 0.065503165 0.13300414 0.11699177 0.30793545 0.3123464 0.19364703

cnf.flow_layers.3.nn.input_layer.2.weight f4 [32, 32]
00000000: b629 25be ed13 24be 49de 483d e595 b6bd
00000010: 82a6 89bd 6e6d bbbd bb48 0ebd 3726 133e
00000020: 9bfe 77bd 8e0e 763c 3521 e1bd 4699 2bbe
00000030: 8ef2 d1bd 562e 19be f6fe cfbd a25c 0dbd
00000040: aacf b93d 3fb7 0b3d 2266 033e c592 353e
00000050: acab ec3d de18 ab3d cea7 99bd fb79 083e
00000060: 6d91 a73d a407 3bbe e170 153e a70f ecbd
00000070: a147 083e 1f4c 153e e1fc ac3d 7dda 14be
00000080: 923e 9f3d 0b7c 803c a428 0b3d 5259 053d
00000090: 2d58 22be 00d7 6ebd e46e f7bc d9bc 323d
000000a0: a807 443e f62b 08bd e3a1 3abd c953 933d
000000b0: 46dc 32be 8d27 d03d dbb1 acbd 928f d8bd
000000c0: d395 09be fea8 373e 639f 373e ce5f ef3d
000000d0: 6cbd 96bd 7d37 1b3e e794 6ebb c2d0 aabd
000000e0: e472 aebc c9b4 423e a319 27be 9db1 dabd
000000f0: 708c 0b3e 2cfb 073e 59ca 12be d666 fcbd
00000100: c3a6 12bd 33dd 4c3d 97b0 143e 037b c4bd
00000110: a251 ddbd 0bab a63d a545 fc3d 9109 38bc
00000120: c7f4 4abc 9883 89bd dd6f 233e 4bc9 efbd
00000130: d461 e3bd 4947 183e 392b 663d 2fa7 babd
00000140: 65ca 35be e011 babc f22a 943c 36b5 b53a
00000150: 15d2 7abb d300 1a3e 4e54 2c3e 9e1e c53c
00000160: b1e3 aabd 9d7d 1fbd 6fca 15be d700 a9bc
00000170: ba33 043e 0dcf bb3d fbe9 0dbe fee7 033e
00000180: 628a 12bd 9afc 2ebd b690 2d3e 404e 203d
00000190: d63f f8bd 5871 2bbe 3f5a 07be 7c82 373e
000001a0: b129 86bd 63a9 5b3d 8c1d 0cbd c481 253e
000001b0: 9b19 063e 1b97 ec3d e1aa 80bd 7af6 c13d
000001c0: 50f5 d13d e633 a4bd de6a e9bc a805 903d
000001d0: b77b 033e 7655 c2bd 8709 1b3d 048c e43d
000001e0: 4b56 0d3e 1ef6 803d b4cf 273e aee0 4cbe
000001f0: 5780 5dbe 4fdb ce3c 0c76 e4bc 005d aa3d
00000200: 3e36 6c3d c91a aa3c c87a 02be 4ff2 5fbc
00000210: 18ba 373d 7972 fa3c 87f6 52bd cf31 e73d
00000220: f0e4 6fbd ff3a 4e3e c3a1 e23c 4ed4 263e
00000230: 5971 883c bfca f4bd 76f9 943c 13c1 fb3d
00000240: 8625 bb3d 2f6c 023e 5a02 c3bc 58cd e03c
00000250: 798a 483c 8d73 7ebd 5c8d 5ebd c9aa 323e
00000260: 5fa1 adbd 7a64 9cbc bac0 363e e217 c1bd
00000270: f397 12be fc78 19be 237b 233e 4b45 a4bd
00000280: 0479 ec3d 9328 11bd 64b0 22bd 5c97 b0bc
00000290: d8ba 30be 3bf3 46be 2a0f 06be 758c 633d
000002a0: 7120 4dbe 19ef f73d 5aef 06be 02f1 573d
000002b0: 35ae 40bd 8c9d de3d 6a9f 25be 4f23 b73d
000002c0: 4400 423d e3f5 13be 9cef 933b b8eb 943d
000002d0: 6078 babb 4421 37be d187 203e 21a6 e73a
000002e0: c4f5 a1bd a893 163e 410c c83c 22a3 96bd
000002f0: f94c 26be 6d6e 2d3e 40ac d03d f5ee 8fbd
00000300: e9d7 823d 988a ca3d 8715 193c fafb 5f3d
00000310: baef 20be 8222 35be 331b c5bc a6eb debd
00000320: 9cbb 34be 712a aabc 13c0 80bd b0f9 cd3d
00000330: 29d6 2bbe 6f29 89bd ef43 16be 02ed 073b
00000340: cb96 f33d b052 b43d c07e 793d 388b 2bbe
00000350: 7135 e9bd e5e3 a2bd 0548 1e3d 70e5 60bd
00000360: 27df 1e3e 1c26 0b3e e7a9 b7bd 43c2 7ebd
00000370: a390 f73d 7276 e4bd 5c59 cfba 7f06 17be
00000380: 43d8 313e 9844 803d 9991 0cbe 2faa a23c
00000390: 7da8 0d3e 40bf 0c3d c1e4 043e 95b3 cabd
000003a0: eb47 5e3c 4b31 babd 8df6 12bd c827 8a3d
000003b0: a78e eabd c1e2 17bc 015a bc3d 9a69 e8bd
000003c0: 80b0 44bd 39f2 d53d 32e0 223e 52a2 19be
000003d0: 05a1 0c3e 2149 cebd d5c4 bb3c e764 c2bd
000003e0: 35e0 07be dc62 b5bd 11dc 793c 136f b73a
000003f0: 9ff6 ae39 f388 2f3c 4f5c 323e f6be 3e3d
-0.16129193 -0.16023226 0.049040113 -0.08915309 -0.06721212 -0.091517314 -0.03473733 0.14370047
-0.060545545 0.015018119 -0.10992662 -0.16757688 -0.10251342 -0.14959082 -0.10156052 -0.03451217
0.09072812 0.034110304 0.1283193 0.1773177 0.11556181 0.083543524 -0.07502709 0.13327782
0.08182035 -0.18264633 0.14593841 -0.11526423 0.13308574 0.14579819 0.0844667 -0.14536472
0.07775606 0.015684148 0.033974305 0.032555886 -0.15853949 -0.05831051 -0.030204244 0.04363713
0.19143546 -0.03324505 -0.045564543 0.07193715 -0.1746684 0.10163794 -0.08432361 -0.10574259
-0.1343606 0.17935559 0.17931895 0.11688195 -0.07360348 0.15157886 -0.003640467 -0.08340599
-0.021295018 0.19014277 -0.16318373 -0.10678408 0.13627791 0.13279408 -0.14335002 -0.12324302
-0.035803568 0.05001564 0.14520489 -0.09593775 -0.10806586 0.081380926 0.12317971 -0.01123275
-0.012387461 -0.06714553 0.15960641 -0.117083155 -0.111026436 0.14870943 0.056193564 -0.09113919
-0.17752989 -0.022713602 0.018086884 0.0013863209 -0.0038272191 0.15039377 0.16829035 0.024062451
-0.0834421 -0.038938154 -0.14628004 -0.020630283 0.12910357 0.09170351 -0.13858788 0.12881467
-0.035776503 -0.04272137 0.16949734 0.039137125 -0.12121551 -0.16742456 -0.1321802 0.1792087
-0.06550921 0.053628337 -0.034207866 0.16162783 0.13095705 0.115522586 -0.062825926 0.0947084
0.10251868 -0.08017711 -0.028493341 0.07032329 0.12840162 -0.09488957 0.037850883 0.11159518
0.1380245 0.06296943 0.16387826 -0.20007583 -0.21630989 0.025251059 -0.02788832 0.083185196
0.057668917 0.020764725 -0.1274215 -0.013668611 0.044855207 0.030572163 -0.051504638 0.11288797
-0.05856794 0.20139693 0.027665025 0.16291925 0.01665561 -0.11952733 0.018185358 0.12292685
0.091380164 0.12736581 -0.023804832 0.027441666 0.012240046 -0.062121917 -0.05433403 0.17447962
-0.08478045 -0.01909088 0.17846957 -0.094283834 -0.14315777 -0.14987558 0.15964942 -0.08021029
0.115465194 -0.035439085 -0.039719 -0.021556549 -0.17258775 -0.19428723 -0.13091722 0.055553872
-0.20031907 0.12106151 -0.13177243 0.052720077 -0.047041137 0.108698934 -0.16174093 0.089422815
0.047363535 -0.14449267 0.0045146476 0.07271522 -0.0056906193 -0.17883784 0.1567681 0.0017673412
-0.07908204 0.14704764 0.024419906 -0.07355334 -0.162403 0.16936655 0.10189104 -0.07027999
0.06388838 0.09889716 0.009343511 0.054683663 -0.15716448 -0.17688945 -0.024060821 -0.1088479
-0.17649692 -0.02077219 -0.06286635 0.1005739 -0.16780914 -0.06697356 -0.14674352 0.0020740633
0.11893996 0.08804834 0.060911894 -0.16752326 -0.11387146 -0.07953624 0.038642902 -0.05490631
0.15514813 0.13588756 -0.08967953 -0.06219698 0.12088134 -0.11155404 -0.0015819478 -0.14748572
0.17367654 0.06263083 -0.13727416 0.01985654 0.13833804 0.034362078 0.12977888 -0.09897534
0.013566951 -0.09091433 -0.03587966 0.06745869 -0.1145299 -0.009270371 0.091968544 -0.11348267
-0.048019886 0.10446591 0.15905836 -0.15003327 0.13733299 -0.10072542 0.022921005 -0.09491902
-0.13269122 -0.088567466 0.015250222 0.0013994895 0.00033371613 0.010713804 0.17418025 0.046568833

cnf.flow_layers.3.nn.input_layer.2.bias f4 [32]
00000000: 9d92 f73c 86e5 51bc 54d6 abbd 3738 a0bd
00000010: a6d8 2fbe 98c4 c03d 50d7 073e 3b2a 19bd
00000020: a316 b03d 7106 0f3e d661 dd3d 046a a0bd
00000030: 59f4 bf3d a59d df3d a0c7 14bc da74 273c
00000040: 7206 22be f9e7 cbbd 8ad6 d83d ea30 c63d
00000050: 1a8c 3cbc e361 413e c002 e9bd abf6 323e
00000060: d35c 3ebe db1c 0c3e 90df f6bd 426c 25be
00000070: d2f5 70bd f3f2 303e ba8c 9fbc d423 603d
0.030221278 -0.01281107 -0.08390489 -0.07823222 -0.17172489 0.09412497 0.13265729 -0.03739379
0.085980676 0.13967301 0.10809676 -0.07832721 0.093727775 0.1091874 -0.009080797 0.010220731
-0.15822771 -0.09956355 0.10587795 0.09677298 -0.011508012 0.18884997 -0.11377478 0.17476909
-0.18590097 0.13682882 -0.1205436 -0.16154578 -0.058828183 0.17280178 -0.019476283 0.05472167

cnf.flow_layers.3.nn.transformer_layers.0.self_attn.in_proj_weight f4 [96, 32]
00000000: a990 b2bd 848c 883e b9c4 e5bd 4a8a 37be
00000010: 2865 e2bc 4b72 c93d 45bb 56bd 4c23 613d
00000020: 550e 2d3d 8516 363d 6d98 813b b9d2 4dbe
00000030: 4447 213e e646 57be d61d 52be 6d54 cfbd
00000040: e297 fc3d 3113 f4bc 73ff 343e f5ca 92bd
00000050: 92f4 a1bd 0a91 4ebe d19f 1e3d c5c8 39bc
00000060: c014 213e 2fcc 81be 33c2 bb3d b195 673e
00000070: d38e bfbd 177a 4e3b 9de6 83bc 03df 3b3e
00000080: 1372 9e3c 49cd 2f3e 3f38 a8bd be3c 73be
00000090: 0d38 813c abd9 d33d 7f95 8cbd 616b fa3d
000000a0: 0daa 60bd cb88 a7be 88e0 f9be 1199 7dbd
000000b0: 4c77 6b3e 1dd0 9b3d a95c dbbd 74a2 c5bc
000000c0: 2d9c 253e ef65 90be af85 363e 0f95 26be
000000d0: 4182 5d3d 8c38 e9be ffa8 493e a87e 19be
000000e0: 057a fa3d 7eaf b5be cb48 583e e9d9 2abe
000000f0: 477b 563e c7f1 02be 4f87 983e 26ee 1c3c
00000100: c5d0 343e aa84 823d eb70 4e3e 9fc1 49be
00000110: e556 4e3e 7042 ab3d 5e23 3fbe a277 04bd
00000120: 11dd e13d 6efb df3d 3c79 adbe ac3a 27bd
00000130: bb0c 48be c071 a53d 25d4 5fbe 9459 04be
00000140: 7a8b 883e 4145 3f3e d2d6 3c3e 0f94 cfbc
00000150: c1ec 6abe f157 4bbd 73a1 613e 24ba b53d
00000160: 6695 573e b8a8 b7bd 6fce 283e 011f 943d
00000170: 6cd9 20be ed08 913c 814b b3bd 306a 9e3d
00000180: fb27 743d 5205 fdbc 2f83 ecbb 7284 eebd
00000190: e98a 403e e681 4ebe 31b6 69be 550d 333e
000001a0: 3c1c 82be 0edc 3ebe a086 d2be f30e eebd
000001b0: e5f6 ecbc 0040 503e 408a 12be ddeb 0fbe
000001c0: 9f0e 2e3c fe54 eabd 5d39 23be 1ecf 17bd
000001d0: a36a d8bc 548a 70be 12c4 2b3e 87a6 84bd
000001e0: f703 813c b336 b8be 485e b3bd a7da 783d
000001f0: 8ac9 6d3e 6a56 6f3d 75c8 a43e 0a1a ba3c
00000200: bbbf ef3b 2393 cf3b ff56 92bd f9dd c5bd
00000210: b716 b43a fa4d 353c 90eb 58bd 0407 873c
00000220: 88e4 173d a977 1d3d 5014 e8bc 7da6 00bd
00000230: 38c1 243e b499 64be 91fd 8abe 68f9 df3a
00000240: 1f78 d5bd 9059 b33e 1986 88bd 13fe 17bd
00000250: a606 c2bd 59cb 77bd 4125 17be 8890 023d
00000260: 5dd7 fdbd c755 4a3d dd51 71be 2938 01bc
00000270: 2e95 e0bd ae73 cd3d 94df 06be 328e a63e
00000280: 31d9 57be d7d0 083e 4563 a03d a8e2 9ebd
00000290: f787 f63d 3140 2abe bbbe 72bc 07b5 033e
000002a0: a29f 44be edce 74be 450a 5abd 9e30 76be
000002b0: 4e69 4c3e 0add 9abd 364d cabd 221e 52be
000002c0: 6236 863d 7040 393e 66fa 1b3d 3f6b 29be
000002d0: f67b 75bd 5a56 7abd 1dcc 9c3d c0ff 2ebd
000002e0: c732 02be 2600 a53d 4078 a0bd 5c2e 913d
000002f0: 94a7 8cbd 76b1 82be a687 293e 20ff 353d
00000300: a2c7 ddbd 8263 843e 19a0 0e3e 28d8 bd3d
00000310: ef6e 38bd 90e8 57be 5104 30bd 4399 313e
00000320: 5d0a a8be ef77 943d a58e 54be 083c a53c
00000330: 17e2 0abe 1abb a4bd 0829 acbd a8f7 0bbe
00000340: 0ff8 213e 2b27 5e3e 394a d23c e2c2 c9bd
00000350: d688 933d f980 9bbe 1395 3c3e 4e40 89be
00000360: fc67 8d3e fea8 6fbe 692a 6ebc b1b1 11be
00000370: 996a cabd dab8 0f3d 7bae ef3d 2574 2abe
00000380: 7ffa 3c3e 0348 883d af70 61bd 4090 2abe
00000390: 7c77 583e aae4 61be f962 d2bd 0e8c 8dbc
000003a0: d9c8 82be b4b1 273e e035 48be 5e2c 13be
000003b0: 63c8 fe3d 23ca 14be b439 353d 86ea 1ebe
000003c0: a1e8 1a3e a675 60bc bb41 033e a92b ef3d
000003d0: 179c d83d 14b5 85be 1696 17be d12e 28be
000003e0: 0b96 0fbe 8dac 863d 7159 e43c a7cc 593e
000003f0: 732d 193e f36c 4cbe 3095 35bd 87a0 173e
-0.08718998 0.26669705 -0.112191625 -0.17923847 -0.027636126 0.09836253 -0.052424688 0.054965302
0.042249996 0.04445507 0.003954938 -0.20099916 0.15749842 -0.2102314 -0.20519194 -0.10123525
0.12333657 -0.029794307 0.17675571 -0.07167617 -0.07907976 -0.20172516 0.03872663 -0.011339371
0.15730572 -0.25351092 0.091679 0.22615696 -0.093534134 0.0031505877 -0.016101176 0.18346791
0.019341504 0.17168154 -0.08213853 -0.2375364 0.015773797 0.10344251 -0.068644516 0.12227512
-0.054849673 -0.32721552 -0.48804116 -0.061913554 0.22994727 0.07608054 -0.10711033 -0.024125315
0.16172858 -0.2820277 0.17824434 -0.16267799 0.054079298 -0.45550954 0.19693373 -0.14989722
0.12230305 -0.35485452 0.21121518 -0.16684689 0.20945464 -0.12787543 0.29790732 0.009578263
0.17657764 0.0637296 0.20160262 -0.19702767 0.20150335 0.08362281 -0.18665835 -0.032340653
0.11028493 0.10936628 -0.33881557 -0.04082744 -0.19536106 0.08078337 -0.2185827 -0.12924796
0.26668912 0.18678762 0.18441322 -0.025339155 -0.22941877 -0.049644414 0.22034244 0.08873394
0.21053085 -0.089677274 0.16484998 0.07232476 -0.1570794 0.017704451 -0.087546356 0.077350974
0.05960844 -0.030886326 -0.0072177867 -0.11646356 0.1880299 -0.2016674 -0.22823407 0.17485555
-0.25412166 -0.18638632 -0.41118336 -0.11623945 -0.028926322 0.20336914 -0.1431055 -0.14054818
0.010623603 -0.11441992 -0.15939851 -0.037062757 -0.026418036 -0.23490268 0.16774014 -0.06477075
0.01574896 -0.35979232 -0.08758217 0.060755398 0.23221412 0.05843202 0.32184187 0.022717495
0.007316557 0.0063346787 -0.071454994 -0.096614785 0.001373968 0.011065954 -0.052959025 0.016482837
0.03708318 0.038444195 -0.028329998 -0.031408776 0.16089332 -0.22324258 -0.2714658 0.0017087879
-0.10423302 0.35029268 -0.06666202 -0.03710754 -0.09473924 -0.06049666 -0.14760305 0.031876117
-0.12394593 0.04939821 -0.23566385 -0.007886925 -0.10965954 0.1003183 -0.13171226 0.3253036
-0.21078946 0.13360916 0.07831434 -0.07758075 0.12037652 -0.1662605 -0.0148159815 0.12862025
-0.1920152 -0.23907061 -0.05323245 -0.24041983 0.19962046 -0.07561691 -0.09878008 -0.20519307
0.065533414 0.18090987 0.038080595 -0.16544817 -0.05993267 -0.061117508 0.07656119 -0.04272437
-0.12714683 0.08056669 -0.07835436 0.070889205 -0.068679005 -0.25526017 0.16555652 0.04443276
-0.108290926 0.25857168 0.1392826 0.09269744 -0.04502767 -0.2108481 -0.042972866 0.17343621
-0.32820407 0.07249438 -0.2075754 0.020170227 -0.13562809 -0.08043499 -0.084062636 -0.13668692
0.15817283 0.21694629 0.025670158 -0.09851624 0.07203834 -0.30371836 0.18416242 -0.26806873
0.27618396 -0.23404309 -0.014536479 -0.1422794 -0.09883613 0.035088398 0.117032014 -0.16645868
0.18454932 0.0665436 -0.055039104 -0.1665659 0.2113933 -0.22059885 -0.10272784 -0.017278697
-0.2554386 0.16376382 -0.19551802 -0.14372393 0.124405645 -0.14530234 0.044244483 -0.15519151
0.15127803 -0.013699925 0.12818043 0.116782494 0.10576647 -0.26114714 -0.14803347 -0.16424109
-0.1402208 0.0657588 0.02787468 0.21269475 0.14958744 -0.19963436 -0.04433173 0.1480733

cnf.flow_layers.3.nn.transformer_layers.0.self_attn.in_proj_bias f4 [96]
00000000: 8e30 f8bd 7cc2 76be 8a0f e0bd c943 16be
00000010: 1923 9b3d cecb fbbd 5be6 34be 1f0b cabd
00000020: d962 093d eb90 b43d 650d 86bd e132 dfbd
00000030: 1db6 9f3e 5658 9c3d 4213 083d 6b76 3dbe
00000040: 4f2c 313e 598d c4bd d4f2 963d c8dc efbd
00000050: 81f9 9dbd da9c aabc 56ce 87bd fd04 dfbd
00000060: 8b56 6b3d 3469 19bd 07e1 ebbc 04cb 123e
00000070: 5cdc 46bd 3aed 0abb 3ee8 8dbd dc56 56bc
00000080: 38c4 5137 c5d2 21b8 ccba d6b6 0d0d 0338
00000090: 7e56 0fb8 e3d0 4fb7 a7d6 a337 3282 8d37
000000a0: 571c 9d37 5f7a c137 2dae 2638 2e7f c5b7
000000b0: 417e bb38 2caa 0bb8 6cbc 6bb7 318e 83b8
000000c0: 12d3 c4b6 c341 4938 ffb6 3836 c87b 8737
000000d0: 8f92 c537 666c 3f38 3b65 2038 ba44 1fb7
000000e0: ac54 ba36 3faa 0e37 83b4 20b7 c315 10b8
000000f0: ab79 3f37 bbd5 0f38 3c7f 14b6 ff8a 0cb6
00000100: 81a3 143c e960 23bb 8ef4 49ba 69d6 54bc
00000110: 2fbf ae3b dbfb ce3c 193b 08bc c9ba 4dba
00000120: 7e9c 7cbb e663 b93c ad36 4abb 989d 883b
00000130: f616 34bc 30dc 6b3a 0e9c 913b 0489 a13c
00000140: 73e7 c639 2b61 d4bb 982c 30bc 1ffc 263c
00000150: 4c18 25bb 534e 31bc f846 65bc 89c4 ecba
00000160: 5634 33bc dbe9 e43a 035f 57b9 6942 3d3c
00000170: 245f 2e3c 17f7 983c 9cd6 ba3c 96d9 96bb
-0.12118636 -0.24097627 -0.10940464 -0.14674295 0.07575054 -0.12294732 -0.17665999 -0.098654024
0.033541534 0.088167034 -0.065455236 -0.10898376 0.3119363 0.07634036 0.03322149 -0.18502204
0.17302059 -0.095972724 0.073705345 -0.117120326 -0.07713605 -0.020826746 -0.06631152 -0.10889623
0.05745558 -0.037453845 -0.028793825 0.14335257 -0.048549995 -0.0021198527 -0.06929062 -0.013082232
1.25030565e-05 -3.8581686e-05 -6.399443e-06 3.124499e-05 -3.417441e-05 -1.2386797e-05 1.953107e-05 1.6869137e-05
1.8729055e-05 2.3064376e-05 3.9739698e-05 -2.3543453e-05 8.9403715e-05 -3.3298667e-05 -1.4050962e-05 -6.273052e-05
-5.865827e-06 4.798338e-05 2.7524654e-06 1.6150894e-05 2.3552477e-05 4.5638903e-05 3.824125e-05 -9.49314e-06
5.553089e-06 8.503498e-06 -9.578772e-06 -3.4352543e-05 1.1412815e-05 3.429291e-05 -2.2127779e-06 -2.0942532e-06
0.0090721855 -0.002492959 -0.0007703983 -0.0129905725 0.0053328495 0.025266578 -0.008314871 -0.00078479626
-0.0038545425 0.022630643 -0.0030855343 0.0041691773 -0.010991802 0.0008997349 0.004443652 0.019718654
0.00037937946 -0.00648131 -0.0107528195 0.010191946 -0.0025191484 -0.010821897 -0.013993971 -0.0018063943
-0.010937771 0.0017464714 -0.00020539392 0.011551478 0.0106428005 0.01867251 0.022807412 -0.004603575

cnf.flow_layers.3.nn.transformer_layers.0.self_attn.out_proj.weight f4 [32, 32]
00000000: c1c8 2bbc 0e58 37be f7c4 50be 398d 6ebd
00000010: 556d a63d 6be0 193e 58a6 5eba 0117 afbd
00000020: 7c52 b3bd 7cea 703d 30ab c3bd 166f 653e
00000030: 37ba 47be 9553 e73d cf39 6d3d a870 5e3c
00000040: 000a 08be 5a3d c43c 2999 2fbe dc6d 9f3d
00000050: 3a34 c63c ae77 c83d de16 b33d e283 4e3d
00000060: 7cc5 313e 50d4 b33d bea7 893d 29ba 923c
00000070: 87f5 2a3d 1424 853c f62b 483d 2dfa 303c
00000080: 82fa 883c e677 133e e3cb 14be 521d 0d3e
00000090: 076e ed3c 6a95 04be fe29 343e b7e4 2abd
000000a0: b691 e8bb 2e51 d2bc 0a18 37bb 188f b7bd
000000b0: 93e5 a23d 7941 273d 9159 b83d 1f8d 0d3d
000000c0: f296 7eb9 8e97 59bd 70fb 623d 07d8 c23d
000000d0: f171 063e a03b aabd 39a0 f93d 99c2 8ebc
000000e0: 9d5a e6bd 1961 b53d 552e d2bd 2a6e 353e
000000f0: 191f 44bd c1ab b2bd f2f0 683e fc63 b7bd
00000100: 02e2 39be 24ad 40be 9b42 013e ad7b 183d
00000110: 56f8 2f3e a1d1 b1bd 2d1a 72bd 44c1 7a3d
00000120: bb73 273e 3677 48be 689a 193e 6294 5ebd
00000130: 8186 12be 79ed f5bb 5f6f b5bd 5b87 0c3c
00000140: 7748 a23d 1c34 db3d 0f9b 79bd 3d6d de3d
00000150: c2b5 3abe 88ec 013b cd06 093e 3174 03bd
00000160: 735e 37be 031f d4bc fae7 97bd 98d5 ba3d
00000170: ee01 27bd b813 703d 4fdc f4bd 0d20 bd3d
00000180: 5ebd 07bb a56b 8ebd 0887 cfbb 824d da3d
00000190: b8e5 7c3d e10d cd39 c0a1 fd3b 0a49 9cbc
000001a0: 7203 ab3d 306d 223e e23f e0bd 4dbd 71bd
000001b0: 984f 85bc b09b 803d 73d2 1b3e 097e 2f3d
000001c0: a06d 9b3d 34bb 13bb 3e49 fcbd 0cf3 81bb
000001d0: 8dee 91bd 5452 82bd ba78 b83d adee 4b3c
000001e0: cb39 06be 87d7 ee3d 4f36 6cbc 4d86 85bd
000001f0: b3fa a3bd 8978 d5bc ded9 0abd 2cdf 253e
00000200: 7f37 93bd 77a6 4dbd 5b14 f6bd 9d33 173e
00000210: 0552 fe3c 4a68 443e dbcd bb3d 7603 6dbe
00000220: 2135 c63d b0c5 21be 164f 513c b406 62be
00000230: 9f13 1fbd 992b 033e c9b1 a43b 497b f13d
00000240: 4d8d 483e e9f3 303e a25e 4fbe 3314 a8bd
00000250: b1d6 a23d f9a6 00be 351e d7bd 2f2f 05be
00000260: 7e09 dabd ab26 013e e48f 033e 23e8 14be
00000270: ec18 fdbd 2490 68bb c813 ccbd c805 01be
00000280: 5c8d 8dbc 6114 41bc 5397 b3bd c01f bb3b
00000290: 1715 38bd e4ee d13d d179 453d 98c9 373d
000002a0: 90ce 9d3e 86c4 bb3c 7507 2abd 149b 30be
000002b0: f8ac 583d 6e26 513c c58f b53d 4911 40be
000002c0: 5589 313d 451b ed3d ea2d 44be 9066 0e3e
000002d0: fc10 f1bd 3496 a93d 31ce 083d dbf4 c0bd
000002e0: 3e39 2fbe fa72 d43a c8bb 633d 5457 14be
000002f0: e8f2 06be bb02 293e 550a 023e 554a 063b
00000300: 7b1b 80bd f1c1 e93d 2b79 413e fae5 2fbd
00000310: f425 32be 3271 fa3d c3b1 5fbc 1288 583e
00000320: 4459 7d3d ce1f 2a3e 835a 81bd cf0b a53d
00000330: d41f f7bc 720b c3bc bcce 103e 1e32 b6bd
00000340: 6cd4 34be e7b6 4b3d 7f4e 193d e97c 193e
00000350: 3540 173e fb2c 5bbd ff01 6dbc ecd5 1b3e
00000360: f377 5fbd 1640 0ebe 5278 3abe 9996 103e
00000370: 36af 73be 8711 ec3d fd5c adbd 5ef0 fb3d
00000380: e893 9d3d 237c 9c3d 49f0 1cbe 93be adbc
00000390: f534 9b3c 03ba e63c 70ba d83d 1554 af3c
000003a0: 4ddf b5bd 2405 113e 9d34 173e 76a6 27bd
000003b0: b0af f23d 6a90 1ebd a81a 093e 6a5a fdbd
000003c0: 8c5d 613d bc21 bcbd c17e a33d b5a2 cb3d
000003d0: c5f9 d0bd 4774 dbbc c968 f93d c05d c1bd
000003e0: 20fd f13d 211f 2c3d da74 173d 0932 b2bc
000003f0: 56bf ffbd 09bd e03c 4e60 373d 9c5a 1d3c
-0.010484875 -0.17904684 -0.20387636 -0.05824015 0.08126322 0.15027015 -0.0008493415 -0.085493095
-0.08755967 0.05881737 -0.09554136 0.22405657 -0.19504629 0.11295239 0.05791646 0.013576664
-0.13285065 0.023955036 -0.1714827 0.07784626 0.024194825 0.09788452 0.08744596 0.050418742
0.1736049 0.0878073 0.067214474 0.017911034 0.04173806 0.016252555 0.04887005 0.010801834
0.016721014 0.14401206 -0.14530902 0.13780716 0.02898313 -0.12947622 0.17594144 -0.041722026
-0.007097448 -0.025673475 -0.0027937912 -0.0896284 0.07953944 0.040833924 0.090014584 0.03455841
-0.00024279559 -0.05312305 0.05541557 0.0951386 0.13129403 -0.08312154 0.12188763 -0.017426776
-0.11247752 0.088564105 -0.102627434 0.17717806 -0.04788122 -0.08724166 0.22748163 -0.089546174
-0.18152621 -0.18816048 0.12623064 0.03722732 0.17184576 -0.08682562 -0.059106994 0.06121947
0.16352741 -0.19576725 0.15000308 -0.054340728 -0.14309122 -0.0075051156 -0.08859133 0.008577193
0.07923978 0.107032984 -0.06093889 0.10860679 -0.18233398 0.0019824822 0.133815 -0.03209323
-0.17907123 -0.025893694 -0.07417293 0.09122771 -0.040773325 0.058612555 -0.11956083 0.09234629
-0.0020712237 -0.06954125 -0.0063332357 0.10659315 0.061742514 0.00039110988 0.0077402294 -0.019077796
0.083502665 0.15861964 -0.10949685 -0.059018422 -0.016273305 0.06279695 0.15216999 0.042844806
0.07589269 -0.0022542002 -0.12318657 -0.003965741 -0.07125578 -0.06363359 0.09007402 0.012447041
-0.13107984 0.11662202 -0.014417245 -0.065197565 -0.080068015 -0.026058452 -0.03389918 0.16198415
-0.071883194 -0.05020758 -0.12015601 0.14765783 0.03104497 0.19180408 0.09170123 -0.23145851
0.09678102 -0.15798068 0.012775203 -0.2207287 -0.03883707 0.128096 0.0050260765 0.11791093
0.19585152 0.17280544 -0.20250943 -0.08206978 0.079511054 -0.12563695 -0.105038084 -0.1300628
-0.10646342 0.12612407 0.12847859 -0.14541678 -0.12358269 -0.0035486305 -0.099647105 -0.12599862
-0.01727932 -0.011784644 -0.08769097 0.005710572 -0.044941988 0.10250643 0.048211876 0.04486999
0.30821657 0.022920858 -0.041511018 -0.17246658 0.05289933 0.01276551 0.088653125 -0.18756594
0.04334386 0.11577467 -0.1915814 0.13906312 -0.11770818 0.08280602 0.033399764 -0.094217025
-0.1711168 0.0016208582 0.055599004 -0.14486438 -0.13178599 0.16504948 0.12699254 0.0020491083
-0.062552415 0.114139445 0.18893878 -0.042943932 -0.1739729 0.122286215 -0.013653222 0.21145657
0.06185271 0.16613695 -0.06316092 0.08058893 -0.030166544 -0.023809168 0.14141363 -0.08896278
-0.17659158 0.049734976 0.037428375 0.14989056 0.14770587 -0.053509694 -0.014465808 0.15218323
-0.054557752 -0.13891634 -0.18209961 0.14119948 -0.23797306 0.115267806 -0.08465002 0.12301706
0.076942265 0.07640865 -0.15326037 -0.021209037 0.01894615 0.02816487 0.10582435 0.021402398
-0.08880482 0.14162117 0.14766164 -0.040930234 0.11849916 -0.038711943 0.13389075 -0.12370761
0.055020854 -0.09186122 0.07983161 0.09943143 -0.1020389 -0.026788844 0.12178189 -0.094417095
0.11815858 0.042021874 0.036976673 -0.021752374 -0.12487666 0.027433889 0.044769578 0.0096041225

cnf.flow_layers.3.nn.transformer_layers.0.self_attn.out_proj.bias f4 [32]
00000000: 05d8 9f3b 48d3 1a3c cfef 6ebb e128 8b3b
00000010: 2ed8 7cb9 4cef dd3b a86c 02bc 5437 743b
00000020: 21a3 4bbb 8958 883b a76e 60bb 6389 ba3b
00000030: fe18 6dbc a5fc 6e3c 7b3e 14bc cc45 96bb
00000040: a52d 56bc 3854 0abd d21a 7f3b 5600 67bc
00000050: 2737 7f3c 4cb0 a93c 05de ae3c 09bc f93b
00000060: 6781 07bd adcb 25bc 1388 7abb 980a 8fbc
00000070: c034 b83c e940 533c 4943 fa3b 27fd 66bc
0.0048780465 0.009449787 -0.0036458855 0.0042468165 -0.00024113126 0.006772911 -0.007960476 0.0037264423
-0.0031072574 0.004160945 -0.0034245641 0.0056926473 -0.014471291 0.014586602 -0.0090481 -0.004585957
-0.013072406 -0.033771724 0.0038925898 -0.014099201 0.015577114 0.020713948 0.021346102 0.0076212925
-0.033082392 -0.010119361 -0.003822808 -0.017461106 0.02248609 0.012893894 0.0076374155 -0.014098442

cnf.flow_layers.3.nn.transformer_layers.0.linear1.weight f4 [64, 32]
00000000: 490e a6bb 40fd b53c c5ff 13bd a111 263e
00000010: 5b18 973d 96de 29be 5592 54be 48ba cc3d
00000020: 3cce d03d 3824 94ba 23f7 c5be a430 3b3d
00000030: c626 603d cd71 803d c131 5fbd aa81 9c3c
00000040: 9c5b 8fbd 748c 3b3e e404 e7bd c893 0c3e
00000050: b3b2 3cbe 676f 10be 1306 463e da4c 883d
00000060: 4536 5e3e 0127 b4bc b2ea 873d 9eff 65be
00000070: e69a 3e3e d386 e5bb e872 973e 7646 313c
00000080: 6709 39be aa17 a5bd 5009 7f3c a383 c03c
00000090: 29b5 b0bd 6661 ba3d 8ea7 79bd 0482 563e
000000a0: ff5a 9abd 11e1 fabd 8833 b8bd 167a 73bd
000000b0: ecc9 de3d 9219 283d b515 773e 2636 d2bd
000000c0: bb5b 4e3e 3cff 69be 6f45 873d f844 54be
000000d0: 6839 fb3d b9af 41bd 7782 4cbe c809 2a3e
000000e0: e918 0e3e 9ecc 223d 0cf4 b2bb 199d 5bbd
000000f0: d8fc b5bd 635a 80be 9aa3 aabb f1bb a13c
00000100: d1f8 33bd df6e 1bbe da14 6fbc dba2 ea3d
00000110: 8909 2e3d 95fe 28be 2c9d 7f3d 884e 6b3e
00000120: 8c5b 80bd 980e 80bb 5ccc afbd e9fa 633d
00000130: 784f 3b3e cce8 423e b4c9 0c3e 28dc e0bd
00000140: 6a63 f83d d444 bb3d 2629 c13d 9f0d bfbd
00000150: 5dbd 723d 54ac 6f3e 44b6 733d e1f8 b8bc
00000160: 2e83 f1ba dc20 0bbd f7db ce3d b540 b4bd
00000170: 83cb 41be a5b5 e03b 7467 02be 2505 33be
00000180: c15e 263e 8138 babd 7ac4 d53d 5191 f5bd
00000190: 7686 46be 2d87 60bb 74e3 bb3d 4dd3 5f3d
000001a0: db89 bc3d 1c95 42ba b0f3 13be 2ab5 973d
000001b0: 96e4 003d 47af e0bd 6bf4 63bd 69ad 0b3d
000001c0: fb01 69bc 2ea0 2cbd 4bc0 453d f4e7 643d
000001d0: 6e7a 203e f93b fbbd e961 313e 8c2a 7d3d
000001e0: f120 82bd 5e6d f53c 11df 573b 9404 0fbe
000001f0: b96d 19be 066e 1e3e d5e7 88bd 8982 b33d
00000200: 5bbb 783d acc3 5b3d 0e7f e53b cc41 34bd
00000210: a116 d0bc eb0b 5abe 0c5a a1bd 4a7b 6d3e
00000220: 4e3b 7d3d dce2 9fbd e164 0abe f23e 1fbc
00000230: 7ebe aabd 96ee cd3d 7006 b63d eb82 9b3d
00000240: 2cd3 423d e793 01bc 4010 9ebd 610a 583c
00000250: 10f0 463d 30d8 143e 87ee 673d 5c9b c3bd
00000260: d22f c23d 9bad 13be 045e e53d 6a9c 9f3c
00000270: 5f36 963d 7a2b 1b3e 53f6 393b 0b13 293d
00000280: 7b2c c63d c4ae eabd 23d0 12be 9445 0e3e
00000290: deb0 8b3d 027e ef3c ce43 a83c 5ac4 4cbd
000002a0: 1e90 ba3d 691a 89bd c6ac e93c 6e99 2c3d
000002b0: e821 103c 807f de3d d7ad cebd 3b2e fbbd
000002c0: 663f fcbd 92d7 24be 20b9 23be 92fe a2bd
000002d0: d42c c5bd c8cc d33d 7cd6 c9bd c6f6 c7bd
000002e0: 27b4 80bd 6948 093e cb3e 13be cd75 ef3c
000002f0: 7563 70bd 4fe9 cdbd be62 c0bd 7030 1c3e
00000300: e2c9 f13c 3824 b93d 73d7 313e 7b9a 7abd
00000310: 9d5e bf3d 1f2f 0abd e3b2 1b3d a956 11bc
00000320: 610b d33d b6bf 373c 88d6 713e 0783 5f3e
00000330: 01d0 3abd 5078 66be 6c83 11bb abff 513d
00000340: 8cd6 4d3d d25e dbbc 61b3 653e 4b51 223e
00000350: 581b 40bd b004 57be 62ed 4e3e c191 77be
00000360: 31c3 54bd 2ca9 99bd 9182 99bd 03e1 38bd
00000370: 0f37 d13d e8e2 ed3d 6fdd 143c a4ef 503c
00000380: d647 d6bd 4c2d 563b d627 33bd 91d5 16be
00000390: b665 e93c 43ea febd 5551 1b3b 21c7 01be
000003a0: c889 7fbe 0de7 85be efc2 b73d c746 ce3c
000003b0: 6dc5 c63d a9f2 033e 302e 0dbd 8566 b8bb
000003c0: e373 103e 0c61 973c 33ba 04be cc17 483d
000003d0: a99e 573e 01f1 f33d 7f56 9c3a ada3 19be
000003e0: 4d55 163e f531 13be 3787 a13e bda0 ee3d
000003f0: f855 a5bd 468e c0be 530f 2b3d 7f85 ca3c
-0.005067621 0.022215486 -0.036132593 0.16217662 0.07377692 -0.16588816 -0.20758946 0.09996468
0.10195586 -0.0011302298 -0.38665113 0.045700684 0.054724477 0.06271706 -0.05449081 0.019104797
-0.06999895 0.18315297 -0.1128023 0.13728249 -0.18427543 -0.14104997 0.19338255 0.06655283
0.2170039 -0.021991255 0.066365615 -0.22460791 0.18613777 -0.0070045977 0.29579854 0.010820022
-0.18069993 -0.08061154 0.015566185 0.02350027 -0.086283036 0.091006085 -0.06095081 0.20948035
-0.075368874 -0.12249959 -0.08994204 -0.059442602 0.10878357 0.04104001 0.24129374 -0.10264234
0.2015218 -0.2285127 0.0660504 -0.20729434 0.12266809 -0.047286723 -0.19971643 0.16605294
0.1387669 0.03974592 -0.0054612216 -0.053616617 -0.08886117 -0.2506896 -0.005207491 0.019742938
-0.04393846 -0.15179013 -0.014592374 0.114568435 0.042489562 -0.16503365 0.06240575 0.22979176
-0.06267461 -0.0039079897 -0.085839 0.05565921 0.18292034 0.19034117 0.13748819 -0.109794915
0.12128337 0.09143987 0.094316766 -0.0932877 0.059262622 0.23405582 0.059499994 -0.022579612
-0.0018425935 -0.033966884 0.10100549 -0.088014044 -0.1892529 0.006857591 -0.12734777 -0.17482431
0.16247083 -0.090928085 0.104378656 -0.119906075 -0.1938723 -0.0034260259 0.091742426 0.05464487
0.09205981 -0.0007422732 -0.14448428 0.07407601 0.031467997 -0.109709315 -0.055653017 0.034100924
-0.014221664 -0.042144947 0.048279088 0.05588527 0.15671703 -0.12267298 0.17322506 0.061808154
-0.06353939 0.029959377 0.0032939354 -0.1396659 -0.14983262 0.15471658 -0.066848435 0.08765132
0.06072555 0.053653404 0.0070036715 -0.04400806 -0.025401415 -0.21293609 -0.07878503 0.23191562
0.061824135 -0.07806942 -0.13515045 -0.009719597 -0.08337115 0.10055272 0.088879466 0.0759333
0.04756467 -0.007908798 -0.07717943 0.013186068 0.048568785 0.14535594 0.05662396 -0.09551117
0.09481777 -0.14421694 0.11199573 0.019483764 0.07334589 0.15153304 0.002837558 0.041277926
0.09676453 -0.11459115 -0.1433721 0.1389373 0.06820844 0.02923489 0.020540144 -0.049991943
0.091095194 -0.066944905 0.028524768 0.04213851 0.008797146 0.108641624 -0.10091751 -0.12264677
-0.1231678 -0.16097859 -0.15988588 -0.07958712 -0.09627691 0.10341793 -0.09855363 -0.09763865
-0.06284361 0.13406529 -0.14379422 0.029230976 -0.0586886 -0.10054266 -0.093938336 0.15252852
0.02951521 0.09040111 0.17367344 -0.06118248 0.09344218 -0.033736344 0.038012397 -0.008870759
0.10304905 0.011215141 0.23616993 0.21827327 -0.045608524 -0.22506833 -0.0022203578 0.051269215
0.050253436 -0.026778612 0.22431709 0.15851323 -0.046901077 -0.20997882 0.20207742 -0.24176694
-0.05194396 -0.0750297 -0.07495607 -0.045136463 0.1021558 0.116155446 0.009085997 0.012752447
-0.1046292 0.0032680808 -0.043739162 -0.14729907 0.028490882 -0.124470256 0.00236996 -0.12673618
-0.24954903 -0.2615284 0.089727275 0.025180234 0.09705625 0.12885536 -0.034467876 -0.0056274557
0.14106707 0.018478893 -0.12961654 0.04885082 0.21056618 0.11911202 0.0011927633 -0.15003844
0.14680977 -0.14374526 0.31548473 0.11651752 -0.08073038 -0.37608546 0.04176266 0.024721859

cnf.flow_layers.3.nn.transformer_layers.0.linear1.bias f4 [64]
00000000: dfb5 59bd 8736 d93d c5ae 9d3d 0a2b 98bb
00000010: 19de 183e 2674 c73d c35a 913c 1661 013e
00000020: 0278 e73d e79d aebc 656e aebd a9ed f13c
00000030: bd39 b03d 669b 213d cf4c a83d 4578 fdbd
00000040: 0034 133d e391 8dbd eef3 79bd b38f ebbc
00000050: b37e f7bd 0226 02be 189e 02be b2e6 1d3e
00000060: 2c12 333e 7cb5 213e 0952 6b3d 5191 c73b
00000070: 33fb 96bd 57c1 123e aba8 1dbe fc96 fc3d
00000080: 156c 30bd ce6e e8bd 7bb2 28be 3ace cfbd
00000090: a6fc 0abd 83f4 13be df44 adbd 77ef 243d
000000a0: 00a3 aebd 427f 43bd 92bb 97bd 6bbc 0cbe
000000b0: c341 d73d b8f2 123d 7c4b 1abd 4136 c93d
000000c0: 4e47 b4bd 6efb 7d3d 1e40 283d 8937 933c
000000d0: 2e27 ce3d ad16 c93d 3d2b babd c324 153e
000000e0: 6b87 08be aa55 c63c e8b2 1a3d e87a 573d
000000f0: 20d6 003d 8654 05bd 4edd 333e d2c6 333d
-0.05315196 0.106061034 0.0769935 -0.0046438025 0.14928474 0.097389504 0.017743474 0.12634692
0.113021865 -0.021315528 -0.0851715 0.02953227 0.08604763 0.03945484 0.08217775 -0.12376455
0.035938263 -0.06912591 -0.061023645 -0.028755045 -0.12084713 -0.12709811 -0.1275562 0.15420035
0.17487401 0.15791887 0.05745128 0.006090321 -0.07372131 0.14331566 -0.15396373 0.123334855
-0.043071825 -0.11349259 -0.16474335 -0.101467565 -0.03393235 -0.14448743 -0.08460402 0.040267434
-0.085271835 -0.047728784 -0.07408823 -0.13743751 0.1051059 0.035876006 -0.037669644 0.09824801
-0.08802663 0.06200736 0.041076772 0.017970817 0.10066067 0.09818778 -0.09090278 0.14564805
-0.13332908 0.02421077 0.037768275 0.052607447 0.031454206 -0.03255131 0.1756489 0.04389078
