checkpoints/pair_2/S_6_K_6/ArgmaxAR/16_05_2023__09_40/cktp/checkpoint_0001000.tar (torch, 796123 bytes, 89 tensors)

model.base_dist.loc f4 [1, 3, 1]
000000 80 cf 84 bc c1 b6 63 bc b5 3c c6 b8
       -0.016212225 -0.013898552 -9.452683e-05

model.base_dist.log_scale f4 [1, 3, 1]
000000 5a bf 0f 3d 4d 12 97 3c 2c 8a fd 3c
       0.035094596 0.018441344 0.030949675

model.transforms.0.encoder.noise_dist.base_dist.net.weight f4 [6, 32, 1]
000000 60 20 f2 bd 94 f1 c5 3d 80 e1 4c be 5b 61 89 be
       -0.11822581 0.09665218 -0.20007896 -0.2683209
000010 f8 19 9c 3d 46 c5 a9 3d 8e 12 12 be 73 3e ca 3c
       0.07622141 0.0828958 -0.1426489 0.024687981
000020 d5 5d 3b be fe 27 11 3d 2f 95 63 be 79 64 18 be
       -0.18297513 0.03543853 -0.22224878 -0.14882077
000030 cb 9d 55 3e aa a5 2d bc 99 8c eb bd be 67 5e 3e
       0.20860974 -0.010598579 -0.11501426 0.21719262
000040 0a 0a 3b 3e 79 6e 9d bd e9 45 98 3d 5b df 93 3e
       0.18265548 -0.076870866 0.07435209 0.28881344
000050 4b 71 84 bd 4d b2 61 be cf e0 31 3e ff 83 35 be
       -0.064669214 -0.22040673 0.17370914 -0.17726134
000060 53 cc a8 bd 8b 6e 36 bd a2 a3 f0 bd 96 5e c4 bd
       -0.08242097 -0.044539016 -0.117499605 -0.09588353
000070 72 d4 4d be d3 8f be 3d dd 2a a4 bc ab d3 34 3e
       -0.20100573 0.09304776 -0.02003997 0.1765887
000080 2d db 54 3d 59 f9 63 3d 84 48 34 be 45 79 2b be
       0.051966835 0.05565772 -0.17605788 -0.1674548
000090 f6 2e f4 3d ac ee 06 bd 17 b7 c7 3d b9 0b d7 bd
       0.119230196 -0.03294246 0.097517185 -0.10500283
0000a0 29 13 c6 3d f5 41 08 3e 4a ab 07 be f3 bb 78 bc
       0.09671623 0.1330641 -0.13248935 -0.015181529
0000b0 e0 e1 00 3e c9 3b 0d bd bf fd b3 bc fa 62 c1 3d
       0.12586164 -0.034480844 -0.021971582 0.094427064
0000c0 1a a1 97 3c 43 01 13 3e b9 b4 1d bd a0 65 c5 3d
       0.018509436 0.1435595 -0.03850243 0.09638524
0000d0 b5 50 62 bd 51 72 8d 3c 05 bc 3d 3d 3c 4b 2c be
       -0.05525275 0.017266424 0.046321888 -0.16825575
0000e0 8c b3 4c be 50 83 76 bd b5 24 c8 3d a2 ca 24 bd
       -0.19990367 -0.060183823 0.09772626 -0.04023231
0000f0 45 26 16 bc 2b f4 0b be 51 c2 60 bc da 15 d2 3c
       -0.009164398 -0.13667361 -0.013718204 0.025645185
000100 13 c7 42 3d 46 d8 38 3e 08 58 be bd 9b e2 9c bc
       0.047553133 0.18051252 -0.092941344 -0.019151023
000110 d1 48 a6 bd 86 4c e8 3d 8d 99 38 be bc b1 4c 3d
       -0.081193574 0.11342721 -0.18027325 0.04997419
000120 90 1c 04 3c 83 a2 87 bd 7a 16 8d be 34 c6 20 be
       0.00806345 -0.066227935 -0.2755621 -0.15700608
000130 98 f8 3d 3e 87 e1 79 3c 6e 54 03 bc e8 7f 2d 3d
       0.18551862 0.015251524 -0.008015735 0.04235831
000140 23 ee 7b 3e 22 e1 25 ba 71 3d a9 3d 9f 33 d1 3d
       0.2460256 -0.0006327798 0.08263672 0.10214924
000150 4e ae 90 3d 72 00 7c be a5 f0 4a 3e bf 5d 20 be
       0.07064496 -0.24609545 0.19818361 -0.15660761
000160 8e 19 4f bd 08 f3 22 be 75 a4 e0 3d 02 ab 4e 3e
       -0.05056148 -0.15913022 0.10968868 0.20182422
000170 e4 b0 40 be ef 3d 11 be 55 87 3a 3c f0 bb 29 3a
       -0.18817478 -0.14183782 0.011384805 0.0006474843
000180 f6 3d 04 be 3b 26 be bd 5c ba b0 bd 92 24 be bd
       -0.12914261 -0.09284636 -0.08629295 -0.09284319
000190 80 4c 25 3d b6 6f 01 be fc b3 28 be 88 e3 13 3e
       0.04035616 -0.1264027 -0.16474909 0.14442265
0001a0 04 b3 1f 3e 48 48 b0 bd 25 8e 02 be 9d ee 19 3e
       0.15595633 -0.086075366 -0.12749536 0.1503243
0001b0 91 c8 3a 3e 20 75 25 3e 8a 68 6e 3d a5 29 8c bd
       0.18240573 0.16157961 0.058205165 -0.068438806
0001c0 e4 a7 5d bc f3 6b 1d 3d 29 f9 46 3e 23 77 86 bd
       -0.013528798 0.038433027 0.19430985 -0.06565692
0001d0 38 db 90 3c f9 84 f9 3d 1f f8 19 bd 34 07 67 bd
       0.017682657 0.12183566 -0.037590142 -0.056403354
0001e0 69 39 5b 3d 88 9a ef bd 6f e8 dd 3d 45 9e 3f 3e
       0.053521547 -0.11699396 0.10835349 0.18712719
0001f0 8f 11 23 3e a0 04 c6 3d 07 cd 18 be af 09 c2 3d
       0.15924667 0.09668851 -0.14921962 0.09474503
000200 47 31 11 bc 46 71 de 3c 89 d3 01 3d d5 57 de bd
       -0.008861846 0.027153622 0.031695876 -0.108565964
000210 38 fe e5 bd 20 3a 42 3d b1 42 93 bd c6 f5 ba bd
       -0.11230129 0.047418714 -0.07190455 -0.09128909
000220 c9 70 84 bd e3 68 ea 3d 4c af c9 bd a3 71 33 3d
       -0.064668246 0.11445787 -0.09847888 0.043809544
000230 80 99 0c 3e 25 f0 0f 3d 3d a2 84 3d 09 c4 39 bd
       0.1373043 0.03514113 0.06476257 -0.04535297
000240 80 0e e0 bc ed d9 cd bd da 08 1f 3e 7b 82 1d 3d
       -0.027350664 -0.10051332 0.1553072 0.038454514
000250 44 7d 85 3d cd a9 08 3e 32 cf 44 be f9 8d 26 3e
       0.06518033 0.13346024 -0.19219664 0.16265096
000260 a4 d8 09 be 8a 57 73 bd 6e e6 58 3d 95 4c f9 bc
       -0.13461548 -0.059409656 0.05295413 -0.030432025
000270 5d 0f e9 3c 6e b5 c2 3d 87 d2 91 3d 42 07 08 be
       0.028449709 0.09507261 0.07120233 -0.13284019
000280 fb 93 98 bd 95 25 95 3d a3 6a ba 3c 8a 7e 9a 3c
       -0.074501 0.07282559 0.022755926 0.018859167
000290 69 0c 2a 3e 29 63 0b be 41 d1 14 be 11 0a eb bd
       0.16606297 -0.13612045 -0.14532949 -0.114765294
0002a0 61 ce c9 bd 28 5d dd bb 07 51 c5 3d f3 0b 05 3e
       -0.09853817 -0.00675549 0.09634595 0.1299284
0002b0 f5 6e e8 bd 9e fa f6 bc 8c 95 0f 3e c8 64 dc 3d
       -0.113492884 -0.0301488 0.14021891 0.1076141
0002c0 00 11 30 bd 25 d9 fd bd 22 64 10 3e 29 65 f1 3d
       -0.042984962 -0.12394933 0.14100698 0.11786873
0002d0 b2 78 1f 3d 60 f0 f8 bd 9e bb 0d 3e 23 99 07 3e
       0.038933463 -0.12155223 0.13841102 0.13242011
0002e0 e6 46 b9 bd 26 89 19 be da ee 21 be ea f5 d8 3c
       -0.09046726 -0.14993724 -0.15813771 0.026484448
0002f0 a9 8b 61 bc 22 d3 28 3e e6 87 c8 3a 9f 5a 00 3e
       -0.013766208 0.16486791 0.001529929 0.12534569

model.transforms.0.encoder.noise_dist.base_dist.net.bias f4 [6]
000000 3d c7 c9 bc 61 50 f1 3d 05 be dd 3d 65 3a b4 3b
       -0.024631137 0.11782909 0.10827259 0.0055001252
000010 15 19 bf 3d f9 13 32 bc
       0.09330956 -0.01086902

model.transforms.0.encoder.noise_dist.transforms.0.ar_net.lstm.weight_ih_l0 f4 [256, 35]
000000 85 26 d7 3d df d9 d9 bd 2b d5 ac bd 4d 5d 00 3e
       0.10505394 -0.10637259 -0.08439096 0.12535591
000010 27 33 b1 bc cd 60 ac bc 00 15 1d 3d 45 ab 84 3d
       -0.021630837 -0.021042252 0.038350105 0.064779796
000020 08 96 2a bd a6 56 e8 bd 3f 8c 8e 3c b4 e5 d3 3d
       -0.041646987 -0.11344652 0.017400859 0.10346547
000030 0b be f7 bc 1a 7d ec 3d b0 f5 ae bc 98 8d 03 3e
       -0.030241987 0.11547299 -0.021357387 0.12846982
000040 92 2a 08 3d 97 35 e8 3d 6d fd ce 3d e0 6c 48 3d
       0.033243723 0.113383465 0.10106931 0.048931956
000050 1e 53 5f bc cd ee 7b bd 88 ea ad 3d 00 68 bb 3c
       -0.0136306565 -0.061507035 0.08491999 0.02287674
000060 80 0d 2c 3d 31 f2 94 3c 49 e6 f8 bd d2 e3 89 3d
       0.042005062 0.018181892 -0.121532984 0.067329064
000070 b9 06 01 3d 76 56 12 3e 3d 03 47 3d 30 ac 04 3d
       0.03150055 0.14290795 0.048587073 0.032390773
000080 21 e0 a8 3d e4 a5 5e 3d b7 6c fb 3d 65 3d c3 bd
       0.08245874 0.054357424 0.12276595 -0.095331945
000090 9d 20 83 3c bf 1f 3d bd a0 e3 41 3c c4 ed 58 bc
       0.016006762 -0.046172854 0.011834055 -0.0132402815
0000a0 29 de e9 bd 05 4f 3f 3d 80 ec 37 bd af a4 de bd
       -0.11419327 0.04670622 -0.04490328 -0.10871255
0000b0 90 a7 99 bc 12 02 96 bd c2 2c cf bc bf ac 06 be
       -0.018756658 -0.07324614 -0.025289897 -0.13151835
0000c0 31 76 99 bd e4 aa ae bb 20 f4 ec bd fd cc 08 bd
       -0.07493246 -0.0053304303 -0.11570001 -0.033398617
0000d0 f8 a0 a7 bc ad c2 e4 bd e7 08 80 bd e0 a4 94 3d
       -0.020462498 -0.11169944 -0.06251698 0.0725801
0000e0 68 ea 8a 3c fb b9 aa bd c3 59 67 3d e5 db 34 bd
       0.016957477 -0.08336254 0.056482088 -0.04415502
0000f0 67 03 ac bb 47 36 f8 3d 26 07 52 bc 44 25 c8 3d
       -0.005249429 0.121197276 -0.012819087 0.09772733
000100 53 62 02 be 06 e9 ff bd 41 a2 73 bd 38 de 7b 3d
       -0.1273282 -0.124956176 -0.05948091 0.06149122
000110 74 45 e3 3d 28 e8 57 bd 62 f4 ab 3d 60 ce 70 3d
       0.110972315 -0.052711636 0.08396222 0.058790565
000120 f4 dd e4 bc 93 ab 03 3e ff c9 95 3c f0 69 c5 3d
       -0.027937867 0.12858419 0.018284796 0.096393466
000130 2d be df bd 52 97 55 bd bd f5 08 3d b7 3e 00 3e
       -0.10924945 -0.052146263 0.03343748 0.12523924
000140 dd d4 fb bd f9 d6 57 3d cf d4 e4 bd aa 45 6d 3d
       -0.1229646 0.05269525 -0.111734025 0.057927765
000150 e8 ab af bd 7a ae 88 3c b5 cb 86 3d 5d 74 b6 3d
       -0.085777104 0.01668476 0.06581823 0.08908913
000160 e0 44 14 3d b9 2a 65 bb 1a fc 67 bd 10 e7 0d 3d
       0.036198497 -0.0034968092 -0.056636907 0.034644186
000170 22 86 8b 3d c6 92 c4 bd fa 75 9a 3d 7a c2 cd b9
       0.06812693 -0.09598307 0.075420335 -0.00039245543
000180 09 1c 92 bd 38 3f 95 3d a5 2a ad 3c 71 d2 9b 3c
       -0.071342535 0.07287449 0.021138499 0.019021245
000190 08 75 b3 3c 7e e6 a2 bd 6d 75 c2 bc f8 86 2c bc
       0.02190639 -0.07954119 -0.023737634 -0.010530226
0001a0 55 f5 c5 bd 93 f3 aa 3c d2 2b 21 bb 24 a0 ab 3c
       -0.09665934 0.020868098 -0.002459277 0.020950384
0001b0 86 1c a8 bd e8 83 33 bd 34 14 7a 3d 80 00 fa bd
       -0.082085654 -0.043826967 0.061054423 -0.122071266
0001c0 d4 1b c8 3d 36 25 37 bd f1 69 d9 3d aa 1d a8 3d
       0.09770933 -0.04471322 0.1061591 0.08208783
0001d0 6b df ee 3c de 14 d3 3d b5 f7 02 bd 9b 8c bc 3b
       0.029159268 0.103067145 -0.031974513 0.005754066
0001e0 ee ee 74 3d 31 db ed 3c cd 0e 68 bd 42 aa fe bd
       0.059798174 0.029035183 -0.05665474 -0.12434818
0001f0 1a ec 91 bd d9 45 6e 3c a5 ae cc bd 9b fd 8c 3d
       -0.07125111 0.01454302 -0.09994248 0.06884309
000200 19 df a0 3d 0c 36 69 3d cc 47 a4 bc 9c 63 83 bd
       0.078550525 0.05693631 -0.020053767 -0.06415483
000210 eb b9 ee bd ed 42 0d 3d 37 2e bd 3d e4 82 9d 3b
       -0.11656555 0.034487654 0.092373304 0.004806863
000220 f5 d2 02 bd a3 ad 55 3d 32 46 93 3d 7b 2e ed 3d
       -0.031939466 0.052167546 0.07191123 0.11581131
000230 6d 2f 38 3b b4 81 c6 bd ad 56 d2 3c 55 f1 34 bd
       0.002810444 -0.09692708 0.025676096 -0.044175465
000240 b5 26 43 3d 3a 68 09 be 6e f3 cc bc 88 ec 8f bd
       0.047644336 -0.13418666 -0.02501842 -0.07027537
000250 55 52 b7 bd 1b 85 ac 3d b3 15 0b bd 86 27 9b bc
       -0.089512505 0.08423825 -0.03395624 -0.018939745
000260 61 c5 da bc 14 a8 f0 bc 81 ba 41 3d a2 3a 79 bd
       -0.026705446 -0.02937702 0.047297005 -0.060846932
000270 bd aa 83 3d bb 82 4f 3d 48 de 2a bd d4 d1 08 3d
       0.0642905 0.050661784 -0.04171589 0.033403233
000280 23 09 11 bd 89 9c 87 bd 52 0e a3 3d df 6c 14 3d
       -0.035409104 -0.066216536 0.07961716 0.03623664
000290 c6 d6 79 bd d1 69 cb bd 00 31 7c bd 7d 6a 89 bd
       -0.06099584 -0.09932292 -0.061570168 -0.06709764
0002a0 d2 6f fd 3c 1c b8 88 bb 4f d9 df bd 70 87 2c bd
       0.03093711 -0.004172338 -0.1093012 -0.04212135
0002b0 48 d0 87 3d 07 12 27 bd 9a 85 51 3b 3c 80 cc 3d
       0.06631523 -0.040788677 0.0031970502 0.09985396
0002c0 40 34 ba bd e9 e8 e4 bd d3 c5 e6 3b 35 27 9f 3d
       -0.09091997 -0.111772366 0.0070426255 0.0777115
0002d0 c2 65 aa ba af 01 02 3e c5 25 96 3d e6 30 5e bc
       -0.0013000297 0.12695955 0.07331423 -0.013561463
0002e0 bc 14 7b 3c 55 f9 95 bc be 16 fc 3d 95 32 c2 3c
       0.015324768 -0.018307367 0.12309025 0.02370576
0002f0 5d d5 87 3d 1e b1 1d 3d 4f ee 08 be 62 b5 25 bd
       0.06632493 0.03849899 -0.13372158 -0.040456183
000300 25 e2 a5 bc 43 73 f6 3c f3 11 ae bd 35 9d 54 3c
       -0.020249436 0.030084258 -0.08499517 0.012976934
000310 5c 32 ba 3d 65 8a 13 bd 57 2e be 3d 77 23 3e bd
       0.090916365 -0.036020655 0.092861824 -0.04642054
000320 74 0f 19 3d 2e d0 a1 bd 38 15 6c 3d 2c 81 a1 bc
       0.037368253 -0.07901035 0.057637423 -0.019714914
000330 fd 3a 87 bd fa 6a 85 3b d8 9b 7e 3d 06 0a e7 bd
       -0.06603048 0.0040715905 0.062160343 -0.11281209
000340 7f 69 be bd 5d e5 e8 bd 83 df 97 bd d1 52 e4 3d
       -0.092974655 -0.113718726 -0.07415678 0.111486085
000350 37 cd b6 bc c1 74 ac 3d e7 5b c2 3d fe f3 8d bd
       -0.022314651 0.084207065 0.09490185 -0.069313034
000360 79 64 91 3d 0a b1 9c bd bb bf fb bd bf 09 1a bb
       0.07099242 -0.07650955 -0.12292429 -0.0023504344
000370 7d 63 82 bd 66 7f 01 3e 1d c0 6f 3c e2 59 e8 3d
       -0.06366632 0.12646255 0.014633206 0.11345269
000380 e6 de d5 3b 4e 80 4c 3d 47 ca ca 3d c2 ac 04 be
       0.0065268157 0.04992705 0.099018626 -0.12956527
000390 44 29 aa bd da b0 00 be 94 92 96 bd 36 27 be bd
       -0.08308652 -0.12567464 -0.07352176 -0.09284823
0003a0 e5 df c9 3d b0 ff 95 3d 8d 6e a1 bd cf 59 08 be
       0.098571576 0.07324159 -0.07882414 -0.1331551
0003b0 6c e7 de bd a7 22 29 3c b7 92 c3 3c 31 a5 83 bd
       -0.10883984 0.010323203 0.02387367 -0.06427992
0003c0 de d8 f2 bd f8 72 9e 3d 4a a2 11 bd 23 67 6f bd
       -0.118577704 0.07736772 -0.03555516 -0.05844797
0003d0 bf 12 17 bd ee 56 49 3c f7 4c c8 bc ed b7 f0 3b
       -0.036883112 0.012288792 -0.024450762 0.0073461444
0003e0 05 f5 ec bd 8f 4f d3 3c d2 34 bd 3d 8a 9a 6c 3d
       -0.11570171 0.025794772 0.0923859 0.057764567
0003f0 a7 30 82 3d 19 78 07 3e 85 9a a3 bd 8e 99 9f bd
       0.06356936 0.13229407 -0.07988457 -0.0779296

model.transforms.0.encoder.noise_dist.transforms.0.ar_net.lstm.weight_hh_l0 f4 [256, 64]
000000 cd 87 3a bd 0b 78 b4 3c e7 ad bf 3d 54 72 97 3c
       -0.045539666 0.022029897 0.09359341 0.018487133
000010 84 e4 53 bd c0 f6 0c bd 0c 1f b5 3c 1e 30 c2 3d
       -0.0517316 -0.034415007 0.02210953 0.09481834
000020 56 27 23 3d 4f 01 9b 3c ff 34 81 b9 ef c4 70 bd
       0.039832436 0.018921522 -0.00024644283 -0.05878156
000030 04 f9 a1 bc 1e a5 b0 bd f1 85 9d 3c c3 e8 22 3d
       -0.01977206 -0.086252436 0.019228907 0.03977276
000040 2d 43 88 bd 05 75 bb 3d 95 2c 5c 3d bf 5b 9f 3d
       -0.06653438 0.09153179 0.053753454 0.07781171
000050 e5 f4 bb 3d be 04 8a bd 20 5d 95 3d db 2c 38 3c
       0.09177569 -0.06739186 0.07293153 0.011241163
000060 de 9d 10 3c 73 03 68 3d 11 d2 ff 3c b6 fa f4 bd
       0.008826701 0.056643914 0.031228097 -0.11961882
000070 3b c4 43 bb 49 cc 40 3c 23 52 6c 3d 98 19 8c 3d
       -0.00298716 0.011767455 0.05769552 0.06840819
000080 b9 8d 03 3d 40 31 13 3c aa 51 e3 bd fd 84 d2 bd
       0.03211758 0.00898391 -0.110995606 -0.10279272
000090 ee 20 99 3d ac 03 e2 3c 99 b7 c5 bd f0 6b 13 bb
       0.07476984 0.027589642 -0.09654159 -0.0022494756
0000a0 ef d7 45 3d d6 5b 06 be a4 88 9f 3d 4f b4 48 3d
       0.048301633 -0.1312097 0.07789734 0.04900008
0000b0 61 f5 60 bd 97 ef bf bd 47 aa f4 3d 03 0f df bd
       -0.05492151 -0.0937187 0.1194654 -0.10891535
0000c0 8e 82 93 bd c4 d1 a2 bd 55 f4 5f 3d aa 7e c6 bd
       -0.07202636 -0.07950166 0.054676373 -0.09692128
0000d0 c3 c9 26 bd 0a 8e ab bd 2b d6 a8 bc 24 00 c2 3d
       -0.04071976 -0.08376701 -0.020609936 0.09472683
0000e0 1b fa 4a bc 2b ea b8 3d 24 22 92 3d 15 6b ea 3b
       -0.012388731 0.09029039 0.07135418 0.0071538785
0000f0 79 7f 71 bd 18 fd 75 bd 8e 92 b1 3d 0f 72 8e 3d
       -0.058959458 -0.060055822 0.08670531 0.06955349
000100 0a 56 14 3d b2 f3 fc bb f7 a7 bc 3d bc e2 b3 bd
       0.036214866 -0.0077194804 0.09211724 -0.087834805
000110 a4 00 f2 bd b1 95 89 3d 16 6a 02 be 0c af 8a bc
       -0.118165284 0.067180045 -0.12735781 -0.016929172
000120 55 e6 7f 3d 21 bf 9c bc 26 50 c4 bd d6 73 be bd
       0.06247552 -0.019134106 -0.095855996 -0.09299438
000130 1b 23 13 bb f0 9d c8 3d eb 99 b6 b9 65 81 e5 3d
       -0.0022451344 0.09795749 -0.00034828423 0.11206321
000140 c5 69 de 3d a0 2a 75 bd f5 95 e5 bd e2 8e 32 3d
       0.10860018 -0.059855103 -0.11210243 0.043593295
000150 d7 41 d7 3d 86 10 05 be 7b 96 88 bb 87 25 68 3c
       0.10510605 -0.12994584 -0.0041683293 0.0141691035
000160 da 02 90 b9 af ac ff bd a2 75 f7 bc 12 96 db bd
       -0.00027467945 -0.12484109 -0.030207459 -0.10721983
000170 3f e9 d3 3d 33 ed f1 3d 70 cb d2 bd e5 6c 18 bd
       0.103472225 0.1181282 -0.10292709 -0.037213225
000180 08 21 ec 3c 03 5b 20 3d fa e7 e2 bd 97 39 ad bd
       0.028824344 0.039149296 -0.11079402 -0.0845825
000190 3c fa 0f 3c 8e f3 83 bb ac 16 0c bd f9 a6 41 3d
       0.008787688 -0.0040268367 -0.03420131 0.04727838
0001a0 37 78 79 3d 5e 91 54 bd bf 04 89 3d 2f e0 e1 3d
       0.06090566 -0.051896445 0.06690358 0.11029088
0001b0 df a1 e8 bc 76 af 8c bd 7d 0f 3a bc a2 73 ff 3d
       -0.028397499 -0.06869404 -0.011356232 0.12473227
0001c0 e3 ec a1 3d e0 63 20 3d ea 77 64 3c 92 ca 2a bc
       0.07906511 0.03915775 0.013944605 -0.010424273
0001d0 c0 b4 c0 bd 99 ef bd bd 22 be b9 3d d6 fb 93 bd
       -0.09409475 -0.09274215 0.09069468 -0.07225768
0001e0 ed df 0f bd ed 13 0e 3d 08 b5 d5 3c c2 ce 84 3d
       -0.03512566 0.03468697 0.026087299 0.064847484
0001f0 ea 76 22 3c 79 74 27 bc eb 4b 4d bd b1 49 6e bd
       0.009916047 -0.01022064 -0.05012123 -0.058175746
000200 ae 61 1b bd 11 85 1d 3d 5e da c6 3d 80 4d a2 3d
       -0.03793495 0.03845698 0.09709619 0.07924938
000210 a1 8b 99 3d 39 f2 9c bd d5 3b c9 3d b5 df 8b 3c
       0.07497335 -0.07663388 0.09825865 0.017074445
000220 cc 14 cd 3d 47 5b f4 bc 25 54 0b 3e 49 28 d5 bd
       0.10013732 -0.02982868 0.13606317 -0.104080744
000230 c3 10 c2 3c 84 43 db bd 1b ab 02 be be 8c 08 3d
       0.023689633 -0.10706237 -0.12760584 0.033337347
000240 8c cb be bd 2a 52 21 3c d3 ea a6 bd e2 ff bd 3d
       -0.09316167 0.00984625 -0.08150258 0.092773214
000250 aa 4a ca bd 86 78 a0 3b c5 10 60 bd 78 7a e3 bd
       -0.09877522 0.00489718 -0.054703493 -0.111073434
000260 3b 6f 50 bd e4 3e 06 3e e8 4e 01 bd 00 d9 c8 bd
       -0.050887328 0.13109928 -0.03156939 -0.098070145
000270 3c 0b b9 bc d8 24 d9 bc 2d 52 87 bd f4 fa c8 bc
       -0.022588365 -0.026506826 -0.06607471 -0.024533726
000280 1b 4b 06 3d 57 fb c6 3d 8e b7 1f 3d 70 f4 9e 3c
       0.03278647 0.09715908 0.03899341 0.019403666
000290 44 9f 9d bb a1 28 6a bd 38 a7 50 bd 3d 64 d1 bd
       -0.0048102457 -0.057167653 -0.050940722 -0.10224197
0002a0 a5 f1 31 bd 6b a8 70 3c e5 db 06 be 16 b9 a2 bd
       -0.04344334 0.0146885915 -0.1316982 -0.079454586
0002b0 c5 92 b6 3d cc 69 3e bc dc 65 17 bd e9 d9 09 bd
       0.08914713 -0.011621904 -0.036962375 -0.03365508
0002c0 fc 3f 57 3d d0 30 f9 3c f6 9b a8 3d 7c 5a a8 bd
       0.052551255 0.030418783 0.08232872 -0.082203835
0002d0 77 58 29 3d 6e 53 a1 3c ec ed cf bd ce e6 a9 3d
       0.041344132 0.019693103 -0.10152802 0.082959756
0002e0 e0 a8 aa 3c 5a dc 8c bd 59 a4 dc 3d ff b6 c2 3d
       0.020832479 -0.06877966 0.10773534 0.0950756
0002f0 91 43 5a 3d 19 8a a5 3d 0a 14 82 bc 68 01 cd 3c
       0.053287093 0.08082981 -0.015878696 0.025025085
000300 7c fa b4 3d df 94 c2 bd 5e 9c 98 3d 7c d9 7b 3d
       0.088368386 -0.09501051 0.074517 0.061486706
000310 38 94 98 bd 20 c6 c6 bc 8e 59 2c 3d a5 bc d4 3d
       -0.074501455 -0.024264395 0.042077594 0.103875436
000320 59 2e 16 bd 30 2a 27 3d 9c b5 fa 3a 8d 81 66 bd
       -0.036665294 0.040811718 0.001912761 -0.056275893
000330 eb 16 aa 3c 1d 4d 08 be 87 f6 8b 3d 41 bd 10 3e
       0.020762881 -0.13310666 0.06834131 0.14134695
000340 58 05 b3 bc 97 6f 60 3d 81 44 31 be c8 9f 90 3c
       -0.021853134 0.05479392 -0.17311288 0.017654315
000350 ad 79 bc 3d 9e 94 71 bd 72 14 8e 3d d8 53 8b 3d
       0.09202895 -0.058979623 0.069374934 0.06803101
000360 0f de a6 bd 0f a3 b1 bc 6c aa 95 bd ef a3 dc 3d
       -0.08147823 -0.021684198 -0.07307896 0.10773455
000370 c7 dd 98 3d 6a 45 c4 bd 67 e9 a6 bd fb ff eb 3d
       0.07464176 -0.09583552 -0.08149987 0.11523434
000380 bf b9 b9 3d 8f 8d 10 be 6a 6a 9e bd cc 5c 5b 3c
       0.090686314 -0.141165 -0.077351406 0.013388824
000390 a6 d6 81 3d 4a 85 22 3d dd 47 c1 3d 5b 48 f8 bc
       0.06339769 0.039677896 0.09437535 -0.03030794
0003a0 bc eb 98 bb d0 02 8d bd bb 0f 54 bd f1 29 d9 3d
       -0.0046667736 -0.06885302 -0.051772814 0.10603703
0003b0 b9 f2 5e 3d c7 9f bf bd 17 45 83 bd 23 6d 39 bd
       0.054430697 -0.09356647 -0.06409662 -0.045270097
0003c0 c4 2a 49 bd 89 98 04 be 60 48 02 3e 38 5d 10 3e
       -0.04911305 -0.12948813 0.12722921 0.1409806
0003d0 ca b4 43 3d c9 24 0a be c5 1b 75 bd 60 07 d5 3d
       0.047779836 -0.13490595 -0.059840936 0.10401797
0003e0 0e 35 e2 3c 67 51 78 bd 8e fd d3 3c 51 25 9c bd
       0.02761319 -0.060624506 0.02587774 -0.07624305
0003f0 d9 bd 1d bd be 8a 8d 3d b4 52 f2 3b c2 b4 b7 bd
       -0.03851113 0.069112286 0.007395113 -0.08970024

model.transforms.0.encoder.noise_dist.transforms.0.ar_net.lstm.bias_ih_l0 f4 [256]
000000 2b 12 85 bd d6 f5 68 3d 3e a2 a9 bc 43 46 98 bb
       -0.06497606 0.056875072 -0.020707246 -0.0046470477
000010 5a 22 c1 bd 65 d7 a2 bd 79 73 aa bd 37 cc b8 bd
       -0.0943038 -0.079512395 -0.08322806 -0.09023326
000020 ca 7b 13 3d 7f 38 0b 3e 28 81 83 38 fa 06 d6 bd
       0.036006726 0.1359577 6.270624e-05 -0.104505494
000030 49 49 e3 bc ea 1f df 3c 88 8a 02 bd ce 32 81 bd
       -0.027744906 0.027236897 -0.031870395 -0.06308518
000040 89 ae 05 bc 57 e4 34 bd e5 9f 6e bd c5 5e 01 be
       -0.008159288 -0.044163074 -0.058257956 -0.12633808
000050 aa 73 80 bd fb 03 90 bd d0 2c 86 3d ee 7a f0 bd
       -0.06272061 -0.07032009 0.06551516 -0.11742197
000060 ca e2 cf bd f5 15 02 3d 57 4e 95 bd df a0 a9 3c
       -0.101506785 0.03175922 -0.07290333 0.020706592
000070 e6 7f 9f 3d 88 7f 19 bd 09 9d a1 3c 5a 83 fc 3d
       0.077880666 -0.03747514 0.0197282 0.12329741
000080 ee ba f2 bc a5 60 de bd 10 d9 47 3d b2 09 47 bb
       -0.02963015 -0.10858277 0.04879099 -0.003037077
000090 10 47 01 be a4 de e6 bc aa 66 f7 bd 37 35 d6 3d
       -0.12624764 -0.028182335 -0.120801285 0.10459369
0000a0 60 57 86 bd 30 f7 89 3c 8b 31 ba bc 1a 6b 9f 3d
       -0.06559634 0.016841501 -0.022728702 0.077841
0000b0 8f 1b 92 bc 72 30 44 3d 8d 6c 2e bd e6 fb 30 bd
       -0.017835407 0.047897764 -0.04258399 -0.04320898
0000c0 fe 4e fb 3b fb fb 17 3d 1f 77 27 3d 43 ae e8 bd
       0.0076693287 0.03710554 0.040885087 -0.11361363
0000d0 b6 b6 70 3d 12 26 e3 3d d9 40 1d 3b c5 e0 c5 3d
       0.058767997 0.11091246 0.002399495 0.09662012
0000e0 52 8f 98 3d 77 17 ba bd 9f b0 c4 b9 a6 56 a6 bb
       0.07449211 -0.09086507 -0.00037515626 -0.0050762473
0000f0 91 50 85 bd 67 77 a5 3d 02 4a ed bd 50 a3 0d 3d
       -0.065095074 0.08079415 -0.115863815 0.034579575
000100 0b 33 e8 3d 29 8d 0e bd 99 85 2b 3d 35 e4 54 3d
       0.11337861 -0.03480259 0.041875456 0.051975448
000110 c7 38 7f bd c0 41 b5 3d 23 d7 a1 3d 4b a1 f1 bc
       -0.062310006 0.088504314 0.07902362 -0.029495856
000120 b6 98 c0 3d eb 24 72 3d b1 be a5 bc a7 95 99 bc
       0.09404127 0.05911724 -0.02023253 -0.018748118
000130 4d 76 10 bd 07 98 69 bd 8f d1 46 3c 4a de de 3d
       -0.03526907 -0.05702975 0.012134924 0.10882242
000140 50 01 bc bd e6 47 73 3d 47 f1 ad bc 17 7f e0 3d
       -0.09179938 0.05939474 -0.021233214 0.109617405
000150 c4 71 8c 3c 43 43 bc 3b af e2 ea 3d b2 3f 0a 3d
       0.017144091 0.005745323 0.11469018 0.03375215
000160 98 6f e5 3d 17 63 8d 3d 64 ab 3b 3d 1c be b3 3d
       0.112029254 0.069036655 0.045817748 0.08776495
000170 ba f2 55 3d 2d e3 24 bd a3 56 25 3d 32 2a 8e 3c
       0.052233435 -0.040255714 0.040365826 0.017354105
000180 64 a3 74 3d a5 e6 e6 3d 39 71 7b 3c 90 d9 bc bc
       0.059726134 0.11274461 0.015346819 -0.02305296
000190 db 16 31 3c 07 2a 96 3d ba da bc bc 21 c6 ae bd
       0.010808672 0.07332235 -0.023053516 -0.08533884
0001a0 84 63 6e bc 63 a7 92 3d 71 cb 0b 3e a0 24 3e bd
       -0.014550094 0.07160833 0.13651825 -0.046421647
0001b0 fd 00 cc bd 57 5f a0 3d 92 34 b8 bd 4a 7d bd 3b
       -0.09961126 0.07830685 -0.08994402 0.005782758
0001c0 03 6d ed 3a 94 a7 1a 3e 83 79 0a bd 05 ef ce 3d
       0.0018114153 0.15102988 -0.03380729 0.10104183
0001d0 01 c2 d7 bd 40 06 c0 3d 80 ea b4 bc 1f ab 91 bd
       -0.1053505 0.09376192 -0.022084475 -0.07112717
0001e0 6c 0d 14 3d d9 0c 4b 3c 37 98 ed bc 85 62 b2 3d
       0.036145613 0.0123932 -0.029003246 0.08710197
0001f0 4a 30 9e bd f3 4c 67 3d 67 dd 55 3d e1 e6 9c 3d
       -0.07724054 0.05646987 0.0522131 0.07661224
000200 b9 ee a5 3d 33 bf dd bc 41 f2 96 3d 28 27 2b bd
       0.08102173 -0.02706871 0.07370425 -0.04178539
000210 68 7c b4 bd d5 b9 e5 3d 50 27 1c bd c2 92 a3 bd
       -0.08812791 0.11217085 -0.03812343 -0.07986976
000220 46 75 ce 3d 5d 6d 1c bd a6 95 e5 bd 4d fa 8f 3d
       0.10080962 -0.038190234 -0.11210184 0.07030163
000230 2b 8f 85 bd 26 ad 7b 3d 2a cd be 3d 73 02 15 bd
       -0.06521448 0.061444424 0.09316476 -0.03637929
000240 fd b2 cd bd de c2 a4 3d d6 fa e3 bc db 00 73 bd
       -0.10043905 0.080449805 -0.027829569 -0.059326988
000250 23 ad e7 3d ed ec e6 bd 45 15 c6 bd fe 79 ad 3d
       0.1131232 -0.11275659 -0.096720256 0.08470534
000260 86 40 1e bc f3 45 a3 bc 3b 62 59 3d c2 f7 b8 bd
       -0.009658938 -0.019930815 0.053072196 -0.09031631
000270 37 33 8f 3d df 9d 98 bd 45 5a 28 3d e1 95 e2 3d
       0.0699219 -0.074519865 0.041101713 0.110637434
000280 10 8b b4 3b 53 7c 10 bd 2e 13 d6 bd bf 21 07 3e
       0.0055097416 -0.035274815 -0.10452877 0.13196467
000290 51 31 d1 bd de a2 ce bd 8f 78 a9 3d 29 db a1 bd
       -0.102144845 -0.10089658 0.08274948 -0.079031296
0002a0 d0 57 9e bc 51 1c 90 bd 31 7c 57 bd 39 8d a9 bc
       -0.019328982 -0.07036651 -0.052608673 -0.020697223
0002b0 c9 05 88 bd 67 82 ff bd cb 6e c0 3c 4f 9f d3 bd
       -0.066417284 -0.12476044 0.02349033 -0.1033312
0002c0 8d a9 bb 3d 03 50 07 3d 6c 21 8c 3c 08 ea d9 bc
       0.091631986 0.03303529 0.01710578 -0.026600853
0002d0 09 9a 4b bd 1b c8 61 3d 04 b5 5d bd b3 8b cb 3d
       -0.049707446 0.055122476 -0.054127708 0.09938755
0002e0 11 e1 6a 3d c1 29 a7 bd 92 ca 7e 3c a5 c4 b6 3d
       0.057343546 -0.08162261 0.015551226 0.08924226
0002f0 13 cf cd 3d 9b 05 6f 3c 77 e7 4e bd 44 f5 8e bd
       0.10049262 0.014588739 -0.05051371 -0.069803745
000300 50 f7 d0 bd 39 cd 25 3d ea 9d 82 bc bf 4e 9f bd
       -0.10203421 0.04047892 -0.01594444 -0.077786915
000310 0a b8 a6 3d 73 74 36 3d 8d 91 1e 3d 0e 5a cc 3a
       0.081405714 0.04454465 0.038713027 0.0015590803
000320 c6 57 a3 3d ac 52 b5 bd c3 ca eb bc 87 a0 89 3c
       0.07975726 -0.08853659 -0.028783208 0.016800178
000330 75 48 48 bd 4e 8c 5d bd 70 ce 23 3d ec 62 15 3d
       -0.048897225 -0.054088883 0.039991796 0.036471292
000340 ba 1f 98 bd 8f 29 d1 bd ca 38 80 bc 96 c4 06 bd
       -0.07427926 -0.10213005 -0.01565208 -0.032902323
000350 76 3c f4 3d 88 3e 2b bd 85 7a 8a 3d 7c b3 bc 3d
       0.119255945 -0.04180768 0.0676165 0.092139214
000360 b6 ad 0a 3e 90 b5 c9 3d 35 8f 1d bc a2 90 46 3d
       0.13542828 0.098490834 -0.009616663 0.048477776
000370 67 fb e0 bc 6e 0b 35 3d 6c 3a a7 bd bb 08 b7 bd
       -0.027463628 0.044200353 -0.0816544 -0.08937212
000380 fe 46 e1 bd ec 8b 3b bc 24 f1 fb 3b 42 0e 99 3d
       -0.10999869 -0.011446934 0.0076886583 0.074734226
000390 3b ec de bd b8 4f 82 bc 0e d2 86 bc 8b 7c 6a bc
       -0.10884901 -0.015907153 -0.016457584 -0.01431192
0003a0 fa 11 88 3d 82 87 a8 bd 44 75 3f 3d 55 37 c6 bd
       0.06644054 -0.08228971 0.046742693 -0.096785225
0003b0 a5 54 ad bd fb 6b fc bd 23 db ce bb 51 37 95 3d
       -0.0846341 -0.12325283 -0.006312744 0.072859414
0003c0 0f 0b b0 bd 62 9f b6 3d f4 32 4c bd 5f 74 c9 bc
       -0.08595859 0.089171186 -0.04985328 -0.024591623
0003d0 e2 73 ca bb 53 67 ac 3d 67 52 11 3d 4d b4 bc bd
       -0.006178365 0.08418145 0.035478976 -0.09214077
0003e0 22 fb b6 3d de f4 70 3d c1 3e 56 bc eb 3c 97 bc
       0.089346185 0.058827274 -0.013076485 -0.018461665
0003f0 e6 41 94 3c bb 4a f3 bd b8 97 cb bd 1d ef bd 3c
       0.01809783 -0.11879488 -0.099410474 0.023185307

model.transforms.0.encoder.noise_dist.transforms.0.ar_net.lstm.bias_hh_l0 f4 [256]
000000 9d 1b 4f bd 9e 4c 2f bd ca db e2 bd 4e b1 c3 bd
       -0.050563443 -0.042797677 -0.11077078 -0.095553026
000010 06 a0 43 bd 05 5b b1 bb b6 ec f7 bd ac 96 12 be
       -0.047760032 -0.0054124617 -0.12105696 -0.1431529
000020 8d 7e 0a 3e cf f1 72 3d ba 8d 4c 3d b8 8b b9 3d
       0.13524838 0.059312638 0.04993985 0.09059852
000030 94 0a fa 3d 33 fc 46 3d 63 d8 e3 3d 60 a8 05 bc
       0.12209049 0.04858036 0.11125257 -0.0081578195
000040 95 3c b0 bd 60 2a 87 bd 99 78 9b bd b1 1f 67 bd
       -0.08605305 -0.06599879 -0.075913616 -0.056426708
000050 12 75 98 3d a0 ab b0 3d 4a 41 d2 bd 3e c2 0a 3d
       0.074442044 0.08626485 -0.10266359 0.03387665
000060 ba 05 97 3d a6 a0 b1 bd 0a c1 cf 3c 47 2f ec 3c
       0.07374139 -0.086732194 0.025360603 0.028831137
000070 f7 b2 85 3c ca 1f 05 3e f9 bd 7c 3d 0b 50 c3 bd
       0.016320689 0.13000408 0.06170461 -0.09536751
000080 ff 12 26 bd d2 d3 62 3d 6e b1 6f 3c 0f a7 c9 bd
       -0.04054546 0.05537779 0.014629705 -0.09846317
000090 80 34 a7 bd 86 25 10 3b 41 15 f0 3d 21 2a 82 bd
       -0.081643105 0.0021995022 0.11722804 -0.06355692
0000a0 eb 92 b9 3d 76 a3 96 bd 91 ca b3 bd b3 90 93 3d
       0.090612255 -0.073553964 -0.08778871 0.072053336
0000b0 cb c1 09 be d1 9f 88 3d 59 93 a9 3d 7e d8 af 3c
       -0.13452832 0.066711076 0.082800575 0.021465536
0000c0 fd f6 f2 3c 0c 10 31 3d 14 a0 a4 bc fc 91 25 3d
       0.029658789 0.043228194 -0.020095862 0.040422425
0000d0 32 60 02 3d 1b dc 9e 3d ce 22 d3 3d a9 3d b5 3d
       0.03183002 0.077568255 0.10309373 0.08849651
0000e0 06 31 93 3d 28 00 e8 3c c3 41 be bd b6 78 da 3c
       0.07187085 0.028320387 -0.09289887 0.026668888
0000f0 c4 29 c7 bd 3f aa 87 bc 9a df 11 3c f9 a1 07 be
       -0.09724763 -0.016560672 0.008903408 -0.13245381
000100 de b1 0d bd 44 fa 1e 3d 9c 8e 17 bd 76 a0 18 3e
       -0.034593455 0.03881289 -0.037001237 0.14904961
000110 fd 9a 1e 3d ce 76 91 3d 5a 61 0d 3b 44 95 e2 bd
       0.038722027 0.07102738 0.0021572919 -0.110636264
000120 d6 0d 00 3e b0 e3 c3 bd a6 5d 98 bd 7b 46 24 3d
       0.12505278 -0.09564912 -0.07439737 0.040106278
000130 df a2 96 bd 11 5f 2a 3d 1a a0 ff bc 25 88 5c bd
       -0.07355284 0.04159457 -0.031204272 -0.053840775
000140 42 9f e2 ba 6b 3d e1 3b c5 91 ad bd de 50 f9 bc
       -0.0017289894 0.0068737767 -0.08475069 -0.030434068
000150 80 4a ed 3a f2 72 0c bd 75 68 8e 3d 15 85 cd 3d
       0.0018103868 -0.034289308 0.06953517 0.10035149
000160 8d 48 77 3d 95 56 da 3d f1 c2 ac 3d 90 46 7c bd
       0.060371924 0.106610455 0.084356196 -0.06159073
000170 14 28 ee 3c ff db c7 bc 44 c3 82 bd 88 95 a2 3d
       0.029071845 -0.024396894 -0.063849 0.07938677
000180 3c 0f fd 3c b5 15 b7 bc 87 8a b1 3d 3f 63 02 3e
       0.030891053 -0.022349218 0.08669 0.12733172
000190 7e c8 a1 bc b7 c0 06 be b9 74 fa 3d ae 7a 7c bd
       -0.019748922 -0.13159452 0.12229294 -0.061640434
0001a0 61 c8 a3 3d 3c 01 e5 3d bb fb 82 3d c3 f0 77 bd
       0.079972036 0.11181876 0.0639567 -0.060532343
0001b0 ac 3d 41 3b 66 f4 b6 bd 65 70 e8 bc 49 db 09 3e
       0.0029486222 -0.08933334 -0.028373906 0.13462557
0001c0 07 d2 a0 3d 78 00 97 3c 4c dd 48 bd dd bc 9c 3d
       0.078525595 0.01843284 -0.04903917 0.0765321
0001d0 f2 bf 6d bd 7e 46 ad bd fe 90 fb 3b a3 79 0a bd
       -0.05804438 -0.08460711 0.0076771965 -0.033807408
0001e0 7c 5b f5 ba 1f 30 91 bc ef 4c e1 3d b8 05 ac 3c
       -0.0018719281 -0.017723141 0.11001002 0.02099882
0001f0 02 3f d0 3d 44 4b c0 bd c0 b6 08 3e 33 81 3e 3d
       0.10168268 -0.09389356 0.13350964 0.046509933
000200 55 8e 05 3e 6c 81 ba bd 15 ae 56 bd 69 d0 44 3d
       0.13042577 -0.091067165 -0.05241211 0.048050318
000210 ea 00 c3 3d 39 12 82 bd 0c 55 5f bc 60 71 2e bd
       0.09521659 -0.06351132 -0.013631117 -0.04258859
000220 88 19 fe bb 86 f9 af bd e0 bf fe bc 45 cb 10 be
       -0.0077545084 -0.08592515 -0.031097353 -0.14140041
000230 0f 06 26 bd d4 89 73 bc 58 bc 01 3e e4 f1 5f bb
       -0.04053312 -0.014864404 0.12669504 -0.0034171278
000240 47 ea 85 3c 91 0a 01 3d 2e f0 bc 3d 68 21 92 bd
       0.016347064 0.031504218 0.09225498 -0.07135278
000250 23 98 14 bd d3 44 3a 3c a5 77 8a 3d b8 c6 99 bd
       -0.0362779 0.011368948 0.06761102 -0.07508606
000260 3d 7a 84 3d a2 97 b5 bd d5 a9 4c bd 6f 3b 86 ba
       0.064686276 -0.08866812 -0.049966652 -0.0010241101
000270 a9 53 bb bc a7 a1 82 bd df 86 30 3c 81 80 f6 3d
       -0.02286704 -0.06378489 0.010774343 0.12036229
000280 05 ce 6f bd f4 66 fb bc b4 97 0c be 9c d2 4b 3d
       -0.058546085 -0.03068874 -0.13729745 0.0497614
000290 23 20 a5 3d 10 7d cb 3d d8 6d 7b bd b7 3d f3 3d
       0.0806277 0.09935963 -0.061384052 0.118770055
0002a0 8e c9 fd bb 94 bc 9c 3c fa 38 06 3e fa 29 90 3d
       -0.0077449745 0.01913289 0.13107672 0.070392564
0002b0 c4 f3 7a bc 91 f1 99 bc dc dd a2 3d 29 59 50 3d
       -0.015316907 -0.018791946 0.079524726 0.05086628
0002c0 33 ea d3 bd ee 8d 40 bd 89 fb bf 3d 02 b1 b4 3d
       -0.10347404 -0.047010355 0.093741484 0.08822824
0002d0 c3 60 fd bd fc 22 f2 3d b9 99 bc 3c cd 7e 36 3d
       -0.123719715 0.11823079 0.02302252 0.04455452
0002e0 83 59 03 3e e3 b0 91 3d 29 5c d7 bd 24 42 5c bd
       0.12827115 0.071138166 -0.10515625 -0.053774014
0002f0 85 0f e2 3d 28 ff d2 3d a4 46 a9 bd dd 8e 23 bd
       0.11038116 0.103025734 -0.08265427 -0.039931167
000300 bd 1e 3e 3d d1 ef 9b bd 0b 3d 0e bd c6 de 42 3d
       0.046416033 -0.07614101 -0.034726184 0.047575735
000310 9e 95 3e bd 57 42 d8 bd c9 d9 27 3d b4 8d bf 3b
       -0.046529405 -0.10559528 0.04097918 0.0058457498
000320 c5 74 94 3d 55 85 12 3d 0b e4 a1 3d c1 04 b9 bd
       0.072488345 0.035771687 0.07904824 -0.0903411
000330 e7 cd 6a bd cc f4 e1 bd c2 f5 dc bd 95 50 ae 3c
       -0.05732527 -0.110330194 -0.10789062 0.021278659
000340 a9 39 a3 3c 91 dc e7 3d ec dd a1 3d c9 1b 35 bd
       0.019924955 0.113213666 0.07903656 -0.04421595
000350 d2 2d d5 3d f6 d4 d5 bc 60 c0 9b bc b0 9b 98 3d
       0.1040913 -0.026102524 -0.01901263 0.0745157
000360 4e 78 c0 3d a4 5c 64 bd 17 c8 4e bd 22 a2 e3 bd
       0.09397946 -0.05575241 -0.05048379 -0.11114909
000370 90 b6 10 be 7b 60 44 bc 2e c5 d7 bd 63 fb 16 bd
       -0.14132142 -0.011985893 -0.10535656 -0.036860835
000380 25 34 ab bd 53 4d 99 bc 6e 6b 6f 3d 3c ac ed bd
       -0.08359555 -0.018713629 0.058452062 -0.11605117
000390 8b 5b ae bd 1d 70 c5 3d b5 a6 31 3d 6e 9d 4d bd
       -0.08513554 0.096405245 0.043371875 -0.050198965
0003a0 41 60 82 bd 26 38 e3 3d 0a 19 a2 bd d9 90 ad bd
       -0.06366015 0.11094694 -0.07914932 -0.08474893
0003b0 93 e4 c0 3b ef 27 ce 3d ec 26 a0 bd 07 6b 2c 3d
       0.005886623 0.100662105 -0.07819924 0.042094257
0003c0 7f e4 8b 3d 90 97 01 3c be 1f bb 3d 54 c3 cb bd
       0.068306915 0.0079096705 0.09136914 -0.09949365
0003d0 b9 4e bf bc 95 eb 80 3d 46 72 b9 bc e1 23 5a 3d
       -0.023352968 0.06294934 -0.022637498 0.053256873
0003e0 2e 80 b8 bd e3 ec d4 3c 24 97 8d bd 48 ae 70 bc
       -0.09008823 0.025991863 -0.069135934 -0.014689989
0003f0 9a ba 04 3c 4f 8e ce 3d 51 eb c3 bc 02 73 0c bd
       0.00810113 0.10085737 -0.023915919 -0.034289367

model.transforms.0.encoder.noise_dist.transforms.0.ar_net.l_out.0.weight f4 [33, 64]
000000 8a e3 0e be 1f fa 9c bd 19 99 8e 3c da 0a b9 3d
       -0.13953987 -0.07664894 0.017406987 0.09035273
000010 7c 69 98 3d 3c 68 92 ba b8 89 7e bd 8f db ff 3d
       0.074419945 -0.001116998 -0.062143058 0.12493049
000020 04 1e 3e 3c 6a 05 b8 3d f0 23 cd 3d a0 99 0f 3e
       0.011603836 0.08985408 0.1001662 0.14023447
000030 c8 8a 72 3d 41 01 a7 3b 70 ef 16 bb 96 16 81 bd
       0.059214383 0.005096585 -0.00230309 -0.06303136
000040 49 2d 64 3d 89 e0 11 bc 13 e8 b3 3d e2 8d fd 3d
       0.05570725 -0.008903631 0.08784499 0.123805776
000050 79 bd 82 bd d5 d0 02 3d 74 91 66 3a fb 4c 8c 3c
       -0.06383795 0.03193744 0.0008795478 0.01712655
000060 11 2f 81 3c a6 6d 24 3c 67 43 04 be 91 a2 d0 bd
       0.015769513 0.010035908 -0.12916337 -0.10187257
000070 62 78 21 b8 eb 13 12 bd a4 aa 85 3d d5 4d f5 bd
       -3.8497506e-05 -0.035663527 0.06526688 -0.11977736
000080 b6 64 ac 3c 40 ba 7d 3d ec 29 0a 3e 4b db e0 bd
       0.021044116 0.0619452 0.13492554 -0.10979327
000090 ea 67 e0 3c 3e 33 c1 bd 5f 11 f1 bd d4 4b 01 be
       0.0273933 -0.09433602 -0.117708914 -0.12626582
0000a0 05 95 6d bc 31 01 a8 3d 2e 9f ab bc 64 7e fc bd
       -0.014500861 0.08203352 -0.020949926 -0.123287946
0000b0 2c 5b 89 bd 8d 57 03 3e 2e 53 5a bd 16 50 fd 3d
       -0.06706843 0.12826367 -0.053301983 0.12368791
0000c0 d6 ec 86 bd 02 df 91 bd de 51 55 3c d3 4e 94 bd
       -0.065881416 -0.071226135 0.013020007 -0.07241597
0000d0 36 41 a1 bd 20 48 38 3d e3 da 2e 3d 7d 5c 71 3d
       -0.07873766 0.04499066 0.042689215 0.058926094
0000e0 3e f2 e8 bb 79 81 b3 ba c6 f4 d3 bd 7e 18 0e 3e
       -0.0071089556 -0.0013695202 -0.10349421 0.1387653
0000f0 da 45 8b 3d e9 45 ff bd 95 6f 59 bd 26 f2 0d 3d
       0.068004325 -0.12464506 -0.05308493 0.03465476
000100 4c 25 ac 3d 6e a1 e2 3d e1 66 db bd f8 c7 de ba
       0.08405551 0.110659465 -0.10712982 -0.0016996851
000110 c1 37 64 bd 17 90 f9 bc 97 2f 96 bd e3 3f 2f bc
       -0.055717234 -0.030464215 -0.07333296 -0.010696384
000120 aa bf ae 3d a5 a2 56 bd 3e 57 92 3d ca d1 ad 3d
       0.08532651 -0.052401204 0.071455464 0.0848728
000130 35 25 a5 bd 77 45 10 bd 9e 7d 7c bd 5b 13 b3 3d
       -0.08063737 -0.035222497 -0.061643235 0.08743926
000140 8c d9 b0 3d b9 73 65 bd c5 b9 f0 bd 81 f2 c7 3c
       0.08635244 -0.056018565 -0.11754183 0.024407627
000150 bd c0 b7 3d 18 2b 6a 3d 3f 24 7e 3d 10 8e d6 3d
       0.08972309 0.057170004 0.062046286 0.10476315
000160 a2 4e 02 3e 9c 17 be bd 46 8d 69 3d 4e bb 9b bd
       0.12725309 -0.09281847 0.057019494 -0.07604085
000170 cd f5 46 3d 6a d9 f1 bd 88 da b6 bc e2 dd a7 bd
       0.048574258 -0.118090466 -0.022321 -0.08196618
000180 ad 54 d5 bd 2d 64 c6 bb df fd 20 3d 2e 53 f4 3d
       -0.10416541 -0.0060544224 0.03930461 0.11929928
000190 2c b9 3e bc 82 a2 d6 3d a8 b2 d4 3d 0c e1 10 3d
       -0.011640828 0.10480215 0.103856385 0.03537087
0001a0 82 57 d8 bd 4a 6c 92 3d 9e 4d c8 3d 4a 9c 6e bc
       -0.10563566 0.07149561 0.09780429 -0.014563629
0001b0 3a 08 75 bd 19 04 6e 3d 52 12 59 bd e6 42 0b be
       -0.0598223 0.058109377 -0.052995987 -0.13599738
0001c0 f5 05 85 bd 17 5f 80 bd bf 20 aa bb d4 c9 32 bd
       -0.06495277 -0.06268137 -0.005191892 -0.04364951
0001d0 4e 64 a6 bd de a7 74 3d 4c b9 d7 bd ce b9 aa bb
       -0.081246 0.059730403 -0.105333894 -0.005210138
0001e0 ed e6 64 3d 40 60 02 be 7d d4 db bd 3b cf af 3d
       0.05588429 -0.12732029 -0.10733888 0.08584448
0001f0 c1 06 33 3b 6f 15 23 3c a0 66 f4 bd a0 96 9c 3d
       0.0027317258 0.009953841 -0.11933637 0.07645917
000200 cb bf 9c bd b4 0c 1f 3d ca 04 88 3d 52 e1 f7 3d
       -0.07653769 0.038830474 0.066415384 0.12103523
000210 94 a3 09 be 19 b5 e1 bd c6 f9 4c 3d d2 fd da 3d
       -0.13441306 -0.1102087 0.05004289 0.10692944
000220 ab 73 d4 bd 98 d2 a7 3c 78 13 06 be 36 ca b0 bd
       -0.103736244 0.020486161 -0.13093364 -0.08632319
000230 e5 6e e2 bd 7d f4 db 3b d6 92 99 bb a1 72 c8 bd
       -0.11056308 0.006712495 -0.0046866937 -0.09787489
000240 61 84 dc bd 1a 46 0a 3d e5 83 c8 3d 75 1a e8 bd
       -0.10767437 0.03375826 0.09790782 -0.11333171
000250 e7 19 05 bd bb ff a8 bd 40 ca 0a bd ae dc bd bd
       -0.032495406 -0.08251902 -0.033884287 -0.09270607
000260 89 ba 49 3d b7 9a 8b 3d cb 6c 68 3d c2 94 91 bd
       0.04925016 0.06816619 0.056744378 -0.071084514
000270 26 f3 56 3d 24 47 27 bd 37 f7 d1 bd 7e 29 aa bc
       0.05247798 -0.04083933 -0.102522306 -0.020771738
000280 6e d4 b2 3c 4c 85 ea bd 58 90 4c 3d c4 6a b0 3d
       0.02182981 -0.114512056 0.049942344 0.08614114
000290 8a b9 d9 3c 4c 25 34 3d d4 52 84 3d 78 ac ec bd
       0.02657773 0.04398088 0.06461111 -0.11556333
0002a0 4f f8 80 bd 93 4f c7 3c ea c5 d8 bd d9 4d 84 3c
       -0.06297361 0.024329936 -0.10584624 0.016150402
0002b0 ed d2 ca 3d d4 4a e7 bc e4 a7 da 3d 00 01 ca 3c
       0.09903512 -0.028233923 0.10676554 0.02465868
0002c0 ae 32 bb bd ed a0 48 bd 22 55 e4 3d 55 e8 c7 bd
       -0.09140526 -0.048981596 0.1114905 -0.09761111
0002d0 7f 38 95 3d 2a b8 8a bd c2 81 98 3d 19 72 df 3d
       0.072861664 -0.06773408 0.07446624 0.10910434
0002e0 fa 98 a3 3d 84 fb f1 bd 4e 68 20 3b 26 5a 6f bd
       0.07988162 -0.11815551 0.0024476233 -0.05843558
0002f0 c4 7a fd 3d 9f 38 d0 bd 76 35 72 bd 6d 93 d8 bd
       0.12376931 -0.101670496 -0.059133016 -0.10574994
000300 73 2a a2 bc 25 41 35 3d 3f bb e0 3d f0 55 97 3d
       -0.019795632 0.04425158 0.10973214 0.07389438
000310 19 13 69 3d 03 f6 1c 3d 3d b9 21 3b a9 92 a0 bd
       0.05690298 0.038320553 0.002467706 -0.07840473
000320 0b 5c 05 37 bc f7 d6 bd e8 fd b8 bd 6a 73 d4 3d
       7.948848e-06 -0.1049647 -0.09032804 0.10373576
000330 f8 f7 6d 3d d8 6c 03 bd bd d5 94 ba a3 39 63 bc
       0.05809781 -0.032086223 -0.0011355203 -0.013868722
000340 0d 1c bc 3d a6 bd d5 3d c3 8e cb bd 8c 8f 28 bd
       0.09185038 0.10436563 -0.09939339 -0.041152522
000350 7c 84 62 3d 28 d2 09 bc 1a 35 8d 3d a0 17 14 3d
       0.05530213 -0.008411922 0.06894894 0.036155343
000360 47 a6 7f bd 06 37 12 be d7 65 98 3d d6 40 7d bd
       -0.062414434 -0.14278802 0.074412994 -0.06182941
000370 fc 74 06 3e 73 e5 4d bd c3 12 7b bd ab 36 14 3d
       0.13130563 -0.050267648 -0.06129719 0.036184948
000380 24 05 04 bc 23 89 06 be 72 c2 a1 3d 48 cc 35 3d
       -0.008057866 -0.13138251 0.078984156 0.04438427
000390 45 90 ce 3d ae a8 a7 3d d0 85 3a 3d e8 8a 84 bd
       0.10086111 0.0818647 0.04553777 -0.06471807
0003a0 7d 2e e4 3d d6 20 ea 3d cc 33 8e bc 92 83 bf bd
       0.111416794 0.11432044 -0.017358683 -0.09351267
0003b0 b3 f5 fa 3c a9 9c 92 3d 60 2d 15 3d c5 27 2b bd
       0.030634737 0.07158787 0.036420226 -0.041785974
0003c0 32 b6 a7 bd ae 84 63 bd fb 04 ae bd 73 54 9c bd
       -0.08189048 -0.055546455 -0.08497044 -0.07633295
0003d0 fe 0a 0c 3d a5 f0 33 3c a7 fb 35 3d d6 70 fa bc
       0.03419017 0.010982667 0.044429448 -0.030571382
0003e0 41 8a d7 bd e4 8e 03 be 1f 37 9b bd 49 13 96 bd
       -0.10524417 -0.12847477 -0.07578873 -0.07327897
0003f0 d1 00 cb bd dd a1 39 3d f5 58 80 bd e6 15 da 3d
       -0.09912265 0.04532038 -0.06266967 0.10648708

model.transforms.0.encoder.noise_dist.transforms.0.ar_net.l_out.0.bias f4 [33]
000000 6f e0 82 3d dd 69 2a 3d b8 25 04 3e 8d 93 80 bd
       0.063904636 0.041604865 0.12905014 -0.06278143
000010 ff 0b c7 bc e0 0b 92 3d 9b 2f 88 bc c7 1d 9f bd
       -0.024297712 0.07131171 -0.016624263 -0.077693515
000020 bd 00 d2 3c d0 a7 b0 bd 65 42 c8 bd 70 61 b2 3c
       0.025635118 -0.08625758 -0.09778289 0.021774977
000030 4e a8 db 3d 50 ca 2b 3d ab d6 b8 3d 22 3a c8 3d
       0.10725461 0.041940987 0.0902532 0.09776713
000040 bb 67 25 bd 03 31 c7 bd 29 8b 8a 3b fa a3 47 bb
       -0.04038213 -0.09726145 0.004228015 -0.0030462728
000050 67 db 83 3d b3 7f 46 bb 24 e6 ad 3d 56 6e 4a 3d
       0.06438332 -0.0030288517 0.084911615 0.04942163
000060 da 16 d8 3d 9c 41 ba bd a5 19 03 bd 31 4d 09 3e
       0.105512336 -0.09094545 -0.03200688 0.13408352
000070 cd 93 a7 bd 43 bf 27 3d bf 80 d6 3d 3c 7a b2 bc
       -0.08182488 0.040953886 0.10473775 -0.021786802
000080 1c 17 c8 bd
       -0.09770033

model.transforms.0.encoder.noise_dist.transforms.0.ar_net.l_out.1.first_token f4 [1, 1, 33]
000000 70 3d 14 3e cc 07 51 ba 7c 20 82 bc ec 5c 61 be
       0.14476562 -0.0007973879 -0.01588463 -0.22008103
000010 d3 81 74 3e cf 84 7b bd 6c b8 5f be d7 67 71 be
       0.23877649 -0.061405953 -0.21847695 -0.23574768
000020 41 06 ef bd 59 f0 e5 bd e6 f8 24 3e 48 1a 50 bd
       -0.11671115 -0.11227483 0.16110572 -0.050806314
000030 fc c9 27 3e d6 7e f2 3d be 9a 80 3e a8 3b 14 3e
       0.16385645 0.11840598 0.2511806 0.14475882
000040 e7 05 04 3e a8 fd 61 3e 85 38 90 3d a0 f1 ec 3c
       0.12892877 0.22069418 0.0704203 0.02892381
000050 8f a2 94 3d cd af e8 3d 68 2a 12 bd e0 d2 45 be
       0.07257568 0.11361656 -0.035684973 -0.19318724
000060 35 55 f6 3d 16 c4 06 be e4 b3 8a be b3 2d 26 be
       0.12027971 -0.13160738 -0.2709037 -0.1622837
000070 c0 37 0e 3c d6 09 1a be 8f 67 39 be 2a 70 3e 3e
       0.008680284 -0.15042815 -0.1810591 0.18597475
000080 e6 4d 57 be
       -0.2102581

model.transforms.0.encoder.noise_dist.transforms.0.autoregressive_net.lstm.weight_ih_l0 f4 [256, 35]
000000 85 26 d7 3d df d9 d9 bd 2b d5 ac bd 4d 5d 00 3e
       0.10505394 -0.10637259 -0.08439096 0.12535591
000010 27 33 b1 bc cd 60 ac bc 00 15 1d 3d 45 ab 84 3d
       -0.021630837 -0.021042252 0.038350105 0.064779796
000020 08 96 2a bd a6 56 e8 bd 3f 8c 8e 3c b4 e5 d3 3d
       -0.041646987 -0.11344652 0.017400859 0.10346547
000030 0b be f7 bc 1a 7d ec 3d b0 f5 ae bc 98 8d 03 3e
       -0.030241987 0.11547299 -0.021357387 0.12846982
000040 92 2a 08 3d 97 35 e8 3d 6d fd ce 3d e0 6c 48 3d
       0.033243723 0.113383465 0.10106931 0.048931956
000050 1e 53 5f bc cd ee 7b bd 88 ea ad 3d 00 68 bb 3c
       -0.0136306565 -0.061507035 0.08491999 0.02287674
000060 80 0d 2c 3d 31 f2 94 3c 49 e6 f8 bd d2 e3 89 3d
       0.042005062 0.018181892 -0.121532984 0.067329064
000070 b9 06 01 3d 76 56 12 3e 3d 03 47 3d 30 ac 04 3d
       0.03150055 0.14290795 0.048587073 0.032390773
000080 21 e0 a8 3d e4 a5 5e 3d b7 6c fb 3d 65 3d c3 bd
       0.08245874 0.054357424 0.12276595 -0.095331945
000090 9d 20 83 3c bf 1f 3d bd a0 e3 41 3c c4 ed 58 bc
       0.016006762 -0.046172854 0.011834055 -0.0132402815
0000a0 29 de e9 bd 05 4f 3f 3d 80 ec 37 bd af a4 de bd
       -0.11419327 0.04670622 -0.04490328 -0.10871255
0000b0 90 a7 99 bc 12 02 96 bd c2 2c cf bc bf ac 06 be
       -0.018756658 -0.07324614 -0.025289897 -0.13151835
0000c0 31 76 99 bd e4 aa ae bb 20 f4 ec bd fd cc 08 bd
       -0.07493246 -0.0053304303 -0.11570001 -0.033398617
0000d0 f8 a0 a7 bc ad c2 e4 bd e7 08 80 bd e0 a4 94 3d
       -0.020462498 -0.11169944 -0.06251698 0.0725801
0000e0 68 ea 8a 3c fb b9 aa bd c3 59 67 3d e5 db 34 bd
       0.016957477 -0.08336254 0.056482088 -0.04415502
0000f0 67 03 ac bb 47 36 f8 3d 26 07 52 bc 44 25 c8 3d
       -0.005249429 0.121197276 -0.012819087 0.09772733
000100 53 62 02 be 06 e9 ff bd 41 a2 73 bd 38 de 7b 3d
       -0.1273282 -0.124956176 -0.05948091 0.06149122
000110 74 45 e3 3d 28 e8 57 bd 62 f4 ab 3d 60 ce 70 3d
       0.110972315 -0.052711636 0.08396222 0.058790565
000120 f4 dd e4 bc 93 ab 03 3e ff c9 95 3c f0 69 c5 3d
       -0.027937867 0.12858419 0.018284796 0.096393466
000130 2d be df bd 52 97 55 bd bd f5 08 3d b7 3e 00 3e
       -0.10924945 -0.052146263 0.03343748 0.12523924
000140 dd d4 fb bd f9 d6 57 3d cf d4 e4 bd aa 45 6d 3d
       -0.1229646 0.05269525 -0.111734025 0.057927765
000150 e8 ab af bd 7a ae 88 3c b5 cb 86 3d 5d 74 b6 3d
       -0.085777104 0.01668476 0.06581823 0.08908913
000160 e0 44 14 3d b9 2a 65 bb 1a fc 67 bd 10 e7 0d 3d
       0.036198497 -0.0034968092 -0.056636907 0.034644186
000170 22 86 8b 3d c6 92 c4 bd fa 75 9a 3d 7a c2 cd b9
       0.06812693 -0.09598307 0.075420335 -0.00039245543
000180 09 1c 92 bd 38 3f 95 3d a5 2a ad 3c 71 d2 9b 3c
       -0.071342535 0.07287449 0.021138499 0.019021245
000190 08 75 b3 3c 7e e6 a2 bd 6d 75 c2 bc f8 86 2c bc
       0.02190639 -0.07954119 -0.023737634 -0.010530226
0001a0 55 f5 c5 bd 93 f3 aa 3c d2 2b 21 bb 24 a0 ab 3c
       -0.09665934 0.020868098 -0.002459277 0.020950384
0001b0 86 1c a8 bd e8 83 33 bd 34 14 7a 3d 80 00 fa bd
       -0.082085654 -0.043826967 0.061054423 -0.122071266
0001c0 d4 1b c8 3d 36 25 37 bd f1 69 d9 3d aa 1d a8 3d
       0.09770933 -0.04471322 0.1061591 0.08208783
0001d0 6b df ee 3c de 14 d3 3d b5 f7 02 bd 9b 8c bc 3b
       0.029159268 0.103067145 -0.031974513 0.005754066
0001e0 ee ee 74 3d 31 db ed 3c cd 0e 68 bd 42 aa fe bd
       0.059798174 0.029035183 -0.05665474 -0.12434818
0001f0 1a ec 91 bd d9 45 6e 3c a5 ae cc bd 9b fd 8c 3d
       -0.07125111 0.01454302 -0.09994248 0.06884309
000200 19 df a0 3d 0c 36 69 3d cc 47 a4 bc 9c 63 83 bd
       0.078550525 0.05693631 -0.020053767 -0.06415483
000210 eb b9 ee bd ed 42 0d 3d 37 2e bd 3d e4 82 9d 3b
       -0.11656555 0.034487654 0.092373304 0.004806863
000220 f5 d2 02 bd a3 ad 55 3d 32 46 93 3d 7b 2e ed 3d
       -0.031939466 0.052167546 0.07191123 0.11581131
000230 6d 2f 38 3b b4 81 c6 bd ad 56 d2 3c 55 f1 34 bd
       0.002810444 -0.09692708 0.025676096 -0.044175465
000240 b5 26 43 3d 3a 68 09 be 6e f3 cc bc 88 ec 8f bd
       0.047644336 -0.13418666 -0.02501842 -0.07027537
000250 55 52 b7 bd 1b 85 ac 3d b3 15 0b bd 86 27 9b bc
       -0.089512505 0.08423825 -0.03395624 -0.018939745
000260 61 c5 da bc 14 a8 f0 bc 81 ba 41 3d a2 3a 79 bd
       -0.026705446 -0.02937702 0.047297005 -0.060846932
000270 bd aa 83 3d bb 82 4f 3d 48 de 2a bd d4 d1 08 3d
       0.0642905 0.050661784 -0.04171589 0.033403233
000280 23 09 11 bd 89 9c 87 bd 52 0e a3 3d df 6c 14 3d
       -0.035409104 -0.066216536 0.07961716 0.03623664
000290 c6 d6 79 bd d1 69 cb bd 00 31 7c bd 7d 6a 89 bd
       -0.06099584 -0.09932292 -0.061570168 -0.06709764
0002a0 d2 6f fd 3c 1c b8 88 bb 4f d9 df bd 70 87 2c bd
       0.03093711 -0.004172338 -0.1093012 -0.04212135
0002b0 48 d0 87 3d 07 12 27 bd 9a 85 51 3b 3c 80 cc 3d
       0.06631523 -0.040788677 0.0031970502 0.09985396
0002c0 40 34 ba bd e9 e8 e4 bd d3 c5 e6 3b 35 27 9f 3d
       -0.09091997 -0.111772366 0.0070426255 0.0777115
0002d0 c2 65 aa ba af 01 02 3e c5 25 96 3d e6 30 5e bc
       -0.0013000297 0.12695955 0.07331423 -0.013561463
0002e0 bc 14 7b 3c 55 f9 95 bc be 16 fc 3d 95 32 c2 3c
       0.015324768 -0.018307367 0.12309025 0.02370576
0002f0 5d d5 87 3d 1e b1 1d 3d 4f ee 08 be 62 b5 25 bd
       0.06632493 0.03849899 -0.13372158 -0.040456183
000300 25 e2 a5 bc 43 73 f6 3c f3 11 ae bd 35 9d 54 3c
       -0.020249436 0.030084258 -0.08499517 0.012976934
000310 5c 32 ba 3d 65 8a 13 bd 57 2e be 3d 77 23 3e bd
       0.090916365 -0.036020655 0.092861824 -0.04642054
000320 74 0f 19 3d 2e d0 a1 bd 38 15 6c 3d 2c 81 a1 bc
       0.037368253 -0.07901035 0.057637423 -0.019714914
000330 fd 3a 87 bd fa 6a 85 3b d8 9b 7e 3d 06 0a e7 bd
       -0.06603048 0.0040715905 0.062160343 -0.11281209
000340 7f 69 be bd 5d e5 e8 bd 83 df 97 bd d1 52 e4 3d
       -0.092974655 -0.113718726 -0.07415678 0.111486085
000350 37 cd b6 bc c1 74 ac 3d e7 5b c2 3d fe f3 8d bd
       -0.022314651 0.084207065 0.09490185 -0.069313034
000360 79 64 91 3d 0a b1 9c bd bb bf fb bd bf 09 1a bb
       0.07099242 -0.07650955 -0.12292429 -0.0023504344
000370 7d 63 82 bd 66 7f 01 3e 1d c0 6f 3c e2 59 e8 3d
       -0.06366632 0.12646255 0.014633206 0.11345269
000380 e6 de d5 3b 4e 80 4c 3d 47 ca ca 3d c2 ac 04 be
       0.0065268157 0.04992705 0.099018626 -0.12956527
000390 44 29 aa bd da b0 00 be 94 92 96 bd 36 27 be bd
       -0.08308652 -0.12567464 -0.07352176 -0.09284823
0003a0 e5 df c9 3d b0 ff 95 3d 8d 6e a1 bd cf 59 08 be
       0.098571576 0.07324159 -0.07882414 -0.1331551
0003b0 6c e7 de bd a7 22 29 3c b7 92 c3 3c 31 a5 83 bd
       -0.10883984 0.010323203 0.02387367 -0.06427992
0003c0 de d8 f2 bd f8 72 9e 3d 4a a2 11 bd 23 67 6f bd
       -0.118577704 0.07736772 -0.03555516 -0.05844797
0003d0 bf 12 17 bd ee 56 49 3c f7 4c c8 bc ed b7 f0 3b
       -0.036883112 0.012288792 -0.024450762 0.0073461444
0003e0 05 f5 ec bd 8f 4f d3 3c d2 34 bd 3d 8a 9a 6c 3d
       -0.11570171 0.025794772 0.0923859 0.057764567
0003f0 a7 30 82 3d 19 78 07 3e 85 9a a3 bd 8e 99 9f bd
       0.06356936 0.13229407 -0.07988457 -0.0779296
