checkpoints/sort/S_8_K_8/GMCD/09_05_2023__16_43/cktp/checkpoint_0003000.tar (torch, 177755 bytes, 43 tensors)

cdm.log_alpha f4 [100]
0	0xb9a589f8	-0.00031574047
1	0xba127b22	-0.0005587806
2	0xba524386	-0.0008020926
3	0xba891311	-0.0010457953
4	0xbaa9157e	-0.0012900082
5	0xbac92d18	-0.0015348522
6	0xbae95df4	-0.001780449
7	0xbb04d61b	-0.0020269218
8	0xbb150e09	-0.0022743961
9	0xbb2558e6	-0.002522999
10	0xbb35b8dc	-0.0027728593
11	0xbb463024	-0.0030241096
12	0xbb56c0fe	-0.003276884
13	0xbb676dbc	-0.003531321
14	0xbb7838bd	-0.0037875616
15	0xbb849237	-0.0040457505
16	0xbb8d19a9	-0.0043060374
17	0xbb95b3ff	-0.0045685763
18	0xbb9e628c	-0.004833525
19	0xbba726b1	-0.005101048
20	0xbbb001d9	-0.005371314
21	0xbbb8f580	-0.0056445003
22	0xbbc2032b	-0.005920788
23	0xbbcb2c73	-0.006200367
24	0xbbd47300	-0.0064834356
25	0xbbddd88c	-0.006770199
26	0xbbe75ee4	-0.0070608724
27	0xbbf107ea	-0.0073556798
28	0xbbfad599	-0.0076548574
29	0xbc026501	-0.0079586515
30	0xbc0773a7	-0.00826732
31	0xbc0c97e4	-0.008581135
32	0xbc11d2eb	-0.008900384
33	0xbc172600	-0.0092253685
34	0xbc1c9277	-0.009556404
35	0xbc2219bb	-0.00989383
36	0xbc27bd49	-0.010238
37	0xbc2d7eb5	-0.010589291
38	0xbc335fac	-0.010948103
39	0xbc3961f5	-0.011314859
40	0xbc3f8776	-0.011690011
41	0xbc45d231	-0.012074039
42	0xbc4c444c	-0.012467455
43	0xbc52e014	-0.012870807
44	0xbc59a7fb	-0.013284679
45	0xbc609ea2	-0.013709696
46	0xbc67c6da	-0.014146531
47	0xbc6f23a9	-0.014595904
48	0xbc76b851	-0.015058593
49	0xbc7e8852	-0.015535431
50	0xbc834bbb	-0.016027322
51	0xbc8774e9	-0.01653524
52	0xbc8bc1ea	-0.017060239
53	0xbc903525	-0.017603466
54	0xbc94d135	-0.018166164
55	0xbc9998f3	-0.01874969
56	0xbc9e8f77	-0.019355519
57	0xbca3b824	-0.019985266
58	0xbca916b2	-0.020640705
59	0xbcaeaf33	-0.021323776
60	0xbcb48623	-0.022036618
61	0xbcbaa077	-0.022781594
62	0xbcc103a6	-0.02356131
63	0xbcc7b5c4	-0.024378665
64	0xbccebd91	-0.025236877
65	0xbcd62295	-0.026139537
66	0xbcdded3e	-0.027090665
67	0xbce62704	-0.028094776
68	0xbceeda90	-0.029156953
69	0xbcf813f2	-0.030282948
70	0xbd00f06d	-0.031479288
71	0xbd062873	-0.03275342
72	0xbd0bbafc	-0.03411387
73	0xbd11b252	-0.03557045
74	0xbd181a5b	-0.03713451
75	0xbd1f00f1	-0.038819257
76	0xbd267646	-0.040640138
77	0xbd2e8d71	-0.042615358
78	0xbd375d13	-0.044766497
79	0xbd41003a	-0.047119357
80	0xbd4b9780	-0.04970503
81	0xbd574a90	-0.052561343
82	0xbd644a25	-0.055734772
83	0xbd72d2d0	-0.059283078
84	0xbd819864	-0.06327894
85	0xbd8ae2a9	-0.06781513
86	0xbd95874b	-0.07301196
87	0xbda1d998	-0.07902831
88	0xbdb049eb	-0.08607849
89	0xbdc17393	-0.09445872
90	0xbdd6337d	-0.10459039
91	0xbdefcf13	-0.11709418
92	0xbe081d29	-0.13292374
93	0xbe1d4fa7	-0.15362416
94	0xbe3a3dbd	-0.18187614
95	0xbe642039	-0.22277917
96	0xbe9325ec	-0.2873987
97	0xbecf7e98	-0.4052627
98	0xbf316a23	-0.69302577
99	0xc05d0c55	-3.4538777

cdm.log_1_min_alpha f4 [100]
0	0xc100f8d3	-8.060748
1	0xc0efae5a	-7.490033
2	0xc0e41e35	-7.1286874
3	0xc0dba1cc	-6.8635006
4	0xc0d4eb89	-6.653752
5	0xc0cf5ce3	-6.4800887
6	0xc0ca9df1	-6.33178
7	0xc0c678d5	-6.20225
8	0xc0c2ca29	-6.0871778
9	0xc0bf7964	-5.983568
10	0xc0bc74d6	-5.889262
11	0xc0b9af50	-5.8026505
12	0xc0b71eb9	-5.7225003
13	0xc0b4bb2d	-5.6478486
14	0xc0b27e5f	-5.577926
15	0xc0b06335	-5.51211
16	0xc0ae657e	-5.449889
17	0xc0ac81bd	-5.390837
18	0xc0aab501	-5.334595
19	0xc0a8fccb	-5.2808585
20	0xc0a756fa	-5.2293673
21	0xc0a5c1b2	-5.1798944
22	0xc0a43b59	-5.1322446
23	0xc0a2c286	-5.0862455
24	0xc0a155f9	-5.0417447
25	0xc09ff499	-4.998608
26	0xc09e9d69	-4.956715
27	0xc09d4f87	-4.915958
28	0xc09c0a28	-4.87624
29	0xc09acc93	-4.8374724
30	0xc0999620	-4.799576
31	0xc0986635	-4.7624764
32	0xc0973c46	-4.7261076
33	0xc09617d1	-4.6904073
34	0xc094f85e	-4.6553183
35	0xc093dd7c	-4.6207867
36	0xc092c6c5	-4.586764
37	0xc091b3d5	-4.553202
38	0xc090a451	-4.520058
39	0xc08f97e2	-4.4872904
40	0xc08e8e36	-4.4548597
41	0xc08d86fe	-4.4227285
42	0xc08c81ef	-4.390861
43	0xc08b7ebf	-4.359222
44	0xc08a7d2a	-4.327779
45	0xc0897ceb	-4.296499
46	0xc0887dc1	-4.265351
47	0xc0877f6a	-4.2343035
48	0xc08681a6	-4.203326
49	0xc0858437	-4.1723895
50	0xc08486de	-4.1414633
51	0xc083895c	-4.1105175
52	0xc0828b73	-4.0795226
53	0xc0818ce3	-4.048448
54	0xc0808d6d	-4.017264
55	0xc07f199d	-3.9859383
56	0xc07d158b	-3.9544399
57	0xc07b0e1b	-3.922736
58	0xc07902c0	-3.8907928
59	0xc076f2e7	-3.8585756
60	0xc074ddf8	-3.826048
61	0xc072c353	-3.7931716
62	0xc070a250	-3.7599068
63	0xc06e7a40	-3.7262115
64	0xc06c4a66	-3.692041
65	0xc06a11fc	-3.6573477
66	0xc067d02c	-3.6220808
67	0xc0658413	-3.5861862
68	0xc0632cba	-3.549605
69	0xc060c918	-3.5122738
70	0xc05e580b	-3.4741237
71	0xc05bd859	-3.4350798
72	0xc05948a8	-3.3950596
73	0xc056a77d	-3.3539727
74	0xc053f331	-3.3117182
75	0xc05129f4	-3.2681856
76	0xc04e49bc	-3.2232504
77	0xc04b503e	-3.1767726
78	0xc0483ae7	-3.128595
79	0xc04506c7	-3.0785387
80	0xc041b084	-3.0263987
81	0xc03e3443	-2.9719398
82	0xc03a8d8b	-2.914889
83	0xc036b71e	-2.8549266
84	0xc032aacf	-2.7916753
85	0xc02e6141	-2.724686
86	0xc029d191	-2.653416
87	0xc024f0e5	-2.577203
88	0xc01fb1c9	-2.4952261
89	0xc01a0347	-2.40645
90	0xc013cf8d	-2.309543
91	0xc00cf9e6	-2.2027526
92	0xc0055b6e	-2.0837054
93	0xbff97b4b	-1.9490751
94	0xbfe5a173	-1.7939895
95	0xbfce31dd	-1.6108967
96	0xbfb18df7	-1.3871449
97	0xbf8cac98	-1.0990171
98	0xbf317a0d	-0.6932686
99	0xbd039e7f	-0.032133576

cdm.log_cumprod_alpha f4 [100]
0	0xb9a589f8	-0.00031574047
1	0xba65401e	-0.0008745211
2	0xbadbc1d2	-0.0016766137
3	0xbb326a71	-0.0027224089
4	0xbb837a98	-0.004012417
5	0xbbb5c5de	-0.0055472692
6	0xbbf01d5b	-0.007327718
7	0xbc194434	-0.00935464
8	0xbc3e87b7	-0.011629037
9	0xbc67ddf0	-0.014152035
10	0xbc8aa614	-0.016924895
11	0xbca36c18	-0.019949004
12	0xbcbe4438	-0.023225889
13	0xbcdb31ef	-0.026757209
14	0xbcfa3907	-0.03054477
15	0xbd0daeca	-0.03459052
16	0xbd1f5200	-0.03889656
17	0xbd32087f	-0.043465134
18	0xbd45d4d1	-0.04829866
19	0xbd5ab9a7	-0.053399708
20	0xbd70b9e2	-0.05877102
21	0xbd83ec49	-0.06441552
22	0xbd900c7c	-0.07033631
23	0xbd9cbf43	-0.07653668
24	0xbdaa0673	-0.08302011
25	0xbdb7e3fc	-0.089790314
26	0xbdc659ea	-0.096851185
27	0xbdd56a69	-0.10420687
28	0xbde517c2	-0.11186172
29	0xbdf56462	-0.11982037
30	0xbe03296c	-0.1280877
31	0xbe0bf2ea	-0.13666883
32	0xbe151019	-0.14556922
33	0xbe1e8279	-0.15479459
34	0xbe284ba0	-0.16435099
35	0xbe326d3c	-0.17424482
36	0xbe3ce910	-0.18448281
37	0xbe47c0fc	-0.19507211
38	0xbe52f6f6	-0.2060202
39	0xbe5e8d16	-0.21733508
40	0xbe6a858d	-0.22902508
41	0xbe76e2b0	-0.24109912
42	0xbe81d37a	-0.25356656
43	0xbe886a7b	-0.26643738
44	0xbe8f37bb	-0.27972206
45	0xbe963cb0	-0.29343176
46	0xbe9d7ae7	-0.3075783
47	0xbea4f404	-0.3221742
48	0xbeaca9c7	-0.3372328
49	0xbeb49e09	-0.3527682
50	0xbebcd2c5	-0.36879554
51	0xbec54a13	-0.38533077
52	0xbece0632	-0.40239102
53	0xbed70984	-0.41999447
54	0xbee05698	-0.43816066
55	0xbee9f027	-0.45691034
56	0xbef3d91e	-0.47626585
57	0xbefe14a0	-0.4962511
58	0xbf045306	-0.51689184
59	0xbf09c87f	-0.5382156
60	0xbf0f6cb0	-0.5602522
61	0xbf1541b4	-0.5830338
62	0xbf1b49d1	-0.6065951
63	0xbf218780	-0.6309738
64	0xbf27fd6c	-0.65621066
65	0xbf2eae81	-0.6823502
66	0xbf359deb	-0.7094409
67	0xbf3ccf23	-0.73753566
68	0xbf4445f7	-0.7666926
69	0xbf4c0697	-0.79697555
70	0xbf54159e	-0.82845485
71	0xbf5c7825	-0.86120826
72	0xbf6533d5	-0.89532214
73	0xbf6e4efa	-0.9308926
74	0xbf77d09f	-0.96802706
75	0xbf80e057	-1.0068463
76	0xbf861409	-1.0474864
77	0xbf8b8875	-1.0901018
78	0xbf91435e	-1.1348684
79	0xbf974b5f	-1.1819876
80	0xbf9da81b	-1.2316927
81	0xbfa46270	-1.2842541
82	0xbfab84c1	-1.3399888
83	0xbfb31b58	-1.399272
84	0xbfbb34de	-1.4625509
85	0xbfc3e308	-1.530366
86	0xbfcd3b7d	-1.6033779
87	0xbfd75916	-1.6824062
88	0xbfe25db5	-1.7684847
89	0xbfee74ee	-1.8629434
90	0xbffbd826	-1.9675338
91	0xc0056a8c	-2.084628
92	0xc00dec5e	-2.2175517
93	0xc017c159	-2.371176
94	0xc0236534	-2.553052
95	0xc031a738	-2.7758312
96	0xc0440bf6	-3.06323
97	0xc05dfbc9	-3.4684927
98	0xc0852b29	-4.1615186
99	0xc0f3b153	-7.615396

cdm.log_1_min_cumprod_alpha f4 [100]
0	0xc100f8d3	-8.060748
1	0xc0e15a49	-7.042271
2	0xc0cc89c5	-6.3918176
3	0xc0bd0b0d	-5.907599
4	0xc0b0a6d9	-5.520367
5	0xc0a64fa4	-5.1972218
6	0xc09d6e9d	-4.9197526
7	0xc095a65a	-4.6765566
8	0xc08eb8ce	-4.460059
9	0xc0887a97	-4.2649646
10	0xc082cc25	-4.08742
11	0xc07b2b91	-3.924534
12	0xc0718a7f	-3.7740781
13	0xc068985f	-3.6343
14	0xc0603e2f	-3.5037954
15	0xc0586934	-3.381421
16	0xc05109fd	-3.2662346
17	0xc04a13a9	-3.15745
18	0xc0437b59	-3.0544035
19	0xc03d37ce	-2.956531
20	0xc0374118	-2.863348
21	0xc031905a	-2.7744355
22	0xc02c1f9b	-2.689429
23	0xc026e9a1	-2.6080096
24	0xc021e9ce	-2.5298953
25	0xc01d1c0f	-2.4548376
26	0xc0187cc1	-2.3826144
27	0xc01408a8	-2.3130283
28	0xc00fbcd9	-2.2459013
29	0xc00b96b6	-2.1810737
30	0xc00793e0	-2.1184006
31	0xc003b231	-2.057751
32	0xbfffdf69	-1.9990054
33	0xbff89546	-1.9420555
34	0xbff182b4	-1.8868012
35	0xbfeaa4b7	-1.8331517
36	0xbfe3f88d	-1.7810227
37	0xbfdd7baf	-1.730337
38	0xbfd72bc5	-1.6810232
39	0xbfd106a5	-1.6330153
40	0xbfcb0a4c	-1.5862517
41	0xbfc534de	-1.5406759
42	0xbfbf849d	-1.4962345
43	0xbfb9f7ed	-1.4528786
44	0xbfb48d4a	-1.4105618
45	0xbfaf434a	-1.369241
46	0xbfaa189c	-1.328876
47	0xbfa50c02	-1.289429
48	0xbfa01c51	-1.2508641
49	0xbf9b4872	-1.2131484
50	0xbf968f5c	-1.17625
51	0xbf91f018	-1.1401396
52	0xbf8d69ba	-1.104789
53	0xbf88fb65	-1.070172
54	0xbf84a447	-1.0362633
55	0xbf80639b	-1.0030397
56	0xbf787149	-0.9704786
57	0xbf704562	-0.9385587
58	0xbf68422f	-0.9072599
59	0xbf60666f	-0.876563
60	0xbf58b0f1	-0.8464499
61	0xbf512092	-0.81690323
62	0xbf49b43d	-0.78790647
63	0xbf426aea	-0.7594439
64	0xbf3b439e	-0.7315005
65	0xbf343d68	-0.704062
66	0xbf2d5764	-0.6771147
67	0xbf2690b6	-0.6506456
68	0xbf1fe88c	-0.62464213
69	0xbf195e1d	-0.5990923
70	0xbf12f0ab	-0.5739848
71	0xbf0c9f7c	-0.54930854
72	0xbf0669e0	-0.525053
73	0xbf004f2e	-0.5012082
74	0xbef49d87	-0.47776434
75	0xbee8d00a	-0.4547122
76	0xbedd34b8	-0.43204284
77	0xbed1ca72	-0.40974766
78	0xbec69022	-0.3878184
79	0xbebb84bf	-0.36624715
80	0xbeb0a747	-0.34502622
81	0xbea5f6c5	-0.32414833
82	0xbe9b7249	-0.3036063
83	0xbe9118f0	-0.28339338
84	0xbe86e9db	-0.26350293
85	0xbe79c86c	-0.24392861
86	0xbe660e66	-0.2246643
87	0xbe52a417	-0.20570408
88	0xbe3f87ff	-0.18704222
89	0xbe2cb8ad	-0.16867323
90	0xbe1a34ba	-0.15059176
91	0xbe07facc	-0.13279265
92	0xbdec132c	-0.11527094
93	0xbdc8bfa8	-0.098021805
94	0xbda5f899	-0.08104057
95	0xbd83bba2	-0.064322725
96	0xbd440cf3	-0.04786391
97	0xbd01adcf	-0.031659897
98	0xbc80ab17	-0.015706582
99	0xba0137c4	-0.0004929269

cdm.Lt_history f4 [100]
0	0x3f215ccd	0.6303223
1	0x31e95c8b	6.7917134e-09
2	0x32daaa7a	2.5456064e-08
3	0x33bbcffe	8.7456996e-08
4	0x353304e4	6.6689813e-07
5	0x37270fa5	9.957618e-06
6	0x3af09c71	0.001835717
7	0x3b5271e4	0.003211134
8	0x374286b4	1.1594664e-05
9	0x3b86b6b4	0.0041111354
10	0x3b3ff2a1	0.0029288905
11	0x3b761fe1	0.0037555622
12	0x3a90fc36	0.0011061493
13	0x3c59dd56	0.0132973995
14	0x3acafca9	0.0015486676
15	0x3af95ccf	0.0019024851
16	0x3da9af08	0.08285338
17	0x3b98d4ba	0.004664031
18	0x3c147b54	0.009062607
19	0x3d8ca92d	0.06868205
20	0x3b893130	0.004186772
21	0x3ccd2b62	0.0250451
22	0x3c7ab721	0.01530245
23	0x3d77308a	0.060349025
24	0x3d81acd5	0.06331793
25	0x3c6be962	0.0143989045
26	0x3c0bac68	0.008524992
27	0x3d1a1ee9	0.037627134
28	0x3da1cb32	0.079000846
29	0x3d3ce35e	0.04611527
30	0x3c00ff2f	0.0078733405
31	0x3d19e117	0.037568178
32	0x3c8731d3	0.01650325
33	0x3cff11c8	0.031136408
34	0x3cfd3ed3	0.030913746
35	0x3d571e5d	0.05251919
36	0x3d4aa80e	0.049476676
37	0x3d69d340	0.05708623
38	0x3d3048cc	0.043038175
39	0x3cff92ec	0.031197987
40	0x3ca89c2c	0.020582281
41	0x3d36b9bd	0.044610728
42	0x3d1436f0	0.036185205
43	0x3cc92b58	0.0245568
44	0x3d38af10	0.045088828
45	0x3c9fc86c	0.019504748
46	0x3d5a59ee	0.05330842
47	0x3d4a580e	0.04940038
48	0x3d60117f	0.054704186
49	0x3cdf4fc7	0.02725972
50	0x3d5ac597	0.053411093
51	0x3d4e817a	0.050416447
52	0x3d38a6ff	0.045081135
53	0x3d59c5ec	0.05316727
54	0x3d42fc68	0.047603995
55	0x3d181c08	0.037136108
56	0x3d2181ae	0.039430313
57	0x3d52fd58	0.05151114
58	0x3d300f65	0.04298343
59	0x3d391fb0	0.045196235
60	0x3d1d379d	0.038383115
61	0x3d008207	0.031374004
62	0x3d1aa721	0.037757043
63	0x3d04e41b	0.0324441
64	0x3d183636	0.037161075
65	0x3d2184e3	0.03943337
66	0x3d2b8283	0.041872513
67	0x3d17f5f6	0.0370998
68	0x3d1d18cd	0.03835373
69	0x3cf504a5	0.029909441
70	0x3d161bda	0.036647655
71	0x3d117952	0.03551609
72	0x3d04f185	0.032456893
73	0x3d07e97a	0.033181645
74	0x3cf81bf4	0.030286767
75	0x3cf87399	0.030328559
76	0x3cecc2c5	0.028901467
77	0x3cd6de4a	0.026229043
78	0x3cd50bcd	0.026006604
79	0x3cc48d94	0.023993291
80	0x3cb9dae2	0.02268738
81	0x3caf4c84	0.02139879
82	0x3ca1cbea	0.019750554
83	0x3c962f10	0.018332988
84	0x3c8d28d6	0.017231386
85	0x3c858b6e	0.016301837
86	0x3c6817a2	0.014165791
87	0x3c57c765	0.013170098
88	0x3c37b156	0.011211714
89	0x3c1f3c01	0.009718896
90	0x3c0ad7e2	0.008474322
91	0x3be48086	0.006973329
92	0x3bd087fb	0.0063638664
93	0x3ba29866	0.004962015
94	0x3b696af1	0.003561672
95	0x3b46cfd0	0.0030336268
96	0x3ae3d0c7	0.0017380946
97	0x3a867c46	0.0010260425
98	0x39a5998e	0.0003158566
99	0x383a7614	4.4455825e-05

cdm.Lt_count f4 [100]
0	0x432b0000	171.0
1	0x43290000	169.0
2	0x44618000	902.0
3	0x45e0e000	7196.0
4	0x460d5000	9044.0
5	0x4636a800	11690.0
6	0x469db200	20185.0
7	0x46756800	15706.0
8	0x464de400	13177.0
9	0x46a12e00	20631.0
10	0x46a26800	20788.0
11	0x46a50a00	21125.0
12	0x46a30a00	20869.0
13	0x46a1cc00	20710.0
14	0x46b69400	23370.0
15	0x46ba6600	23859.0
16	0x46c54c00	25254.0
17	0x46ae3a00	22301.0
18	0x46d6e800	27508.0
19	0x46d49c00	27214.0
20	0x46d72000	27536.0
21	0x46dc7600	28219.0
22	0x46d6fc00	27518.0
23	0x46d26a00	26933.0
24	0x46f41600	31243.0
25	0x46eab200	30041.0
26	0x47036600	33638.0
27	0x46f32e00	31127.0
28	0x47067100	34417.0
29	0x470dca00	36298.0
30	0x47084500	34885.0
31	0x470d9a00	36250.0
32	0x4711df00	37343.0
33	0x470cd100	36049.0
34	0x47131500	37653.0
35	0x4717c900	38857.0
36	0x47134e00	37710.0
37	0x47182300	38947.0
38	0x471ad400	39636.0
39	0x471ff000	40944.0
40	0x471d1700	40215.0
41	0x4726a600	42662.0
42	0x47213f00	41279.0
43	0x4721bf00	41407.0
44	0x47243f00	42047.0
45	0x47253900	42297.0
46	0x4723a600	41894.0
47	0x4723cd00	41933.0
48	0x47253d00	42301.0
49	0x472b5700	43863.0
50	0x4727db00	42971.0
51	0x4727d700	42967.0
52	0x47270f00	42767.0
53	0x4728b200	43186.0
54	0x4725df00	42463.0
55	0x47241c00	42012.0
56	0x47290400	43268.0
57	0x4725de00	42462.0
58	0x47238f00	41871.0
59	0x47258700	42375.0
60	0x47272700	42791.0
61	0x47235000	41808.0
62	0x47229500	41621.0
63	0x47218400	41348.0
64	0x471e3800	40504.0
65	0x471e5100	40529.0
66	0x471ab200	39602.0
67	0x471ab000	39600.0
68	0x4717e200	38882.0
69	0x47176900	38761.0
70	0x47155e00	38238.0
71	0x47158000	38272.0
72	0x4711fe00	37374.0
73	0x470e5000	36432.0
74	0x470ca500	36005.0
75	0x47090900	35081.0
76	0x4706e600	34534.0
77	0x47032600	33574.0
78	0x46ffe800	32756.0
79	0x46f8a400	31826.0
80	0x46f4c200	31329.0
81	0x46ec4600	30243.0
82	0x46e49c00	29262.0
83	0x46dc4000	28192.0
84	0x46d3e800	27124.0
85	0x46c80c00	25606.0
86	0x46c13400	24730.0
87	0x46b81200	23561.0
88	0x46add000	22248.0
89	0x46a2ec00	20854.0
90	0x4698ba00	19549.0
91	0x468dd800	18156.0
92	0x4681ec00	16630.0
93	0x4660cc00	14387.0
94	0x464b9800	13030.0
95	0x462d4000	11088.0
96	0x460bf400	8957.0
97	0x45cec000	6616.0
98	0x4581c000	4152.0
99	0x44ae6000	1395.0

cdm._denoise_fn.transformer.first.weight f4 [8, 32]
0	0xbf81c00b	-1.0136732
1	0x3f71d744	0.94469094
2	0xbfb405d8	-1.4064283
3	0xbf873072	-1.0561659
4	0xbfaacefb	-1.3344415
5	0x3f90bcfb	1.1307672
6	0xbf8e479b	-1.1115602
7	0xbd979af4	-0.07402602
8	0xbf844914	-1.0334802
9	0x3e8b1583	0.2716485
10	0xbef226e3	-0.47295293
11	0xbe94841e	-0.29007047
12	0x3f944344	1.1583028
13	0xbf3d25e3	-0.73885936
14	0xbe559c64	-0.2086044
15	0xbec64c0d	-0.38729897
16	0xbfc52e04	-1.5404668
17	0xbedc8257	-0.4306819
18	0xbf66c61c	-0.9014604
19	0x3f1a0378	0.6016154
20	0x3e098e79	0.13433255
21	0xbdfb493b	-0.12269827
22	0x3f8700aa	1.0547078
23	0x3f772e04	0.9655459
24	0x3ee7d152	0.45276886
25	0xbf025e15	-0.5092481
26	0x3e0b8ace	0.13627169
27	0x402ac4e6	2.6682677
28	0x3e50b0f5	0.20380004
29	0x3f8fdb15	1.1238734
30	0x3e835711	0.25652364
31	0x3fdc5816	1.7214382
32	0xbf582ddc	-0.84444976
33	0x3ff1c3ae	1.8887842
34	0xbdb92035	-0.09039346
35	0xbebc3e4c	-0.3676628
36	0xbf9b8b28	-1.2151842
37	0x3c9c536b	0.019082746
38	0xbe5f8de6	-0.21831474
39	0xbf2f72b6	-0.6853441
40	0x3f9f2598	1.2433348
41	0x3ef49940	0.4777317
42	0xbfadb595	-1.357104
43	0xbf3a0d00	-0.72676086
44	0xbf80a2d9	-1.0049697
45	0xbf5563d2	-0.8335544
46	0xbf85e9a5	-1.0461928
47	0xbded4914	-0.11586204
48	0xbf91d23e	-1.1392286
49	0x3efa3534	0.48868716
50	0xbfd28124	-1.644566
51	0x3fe6c14b	1.8027738
52	0x3d377f84	0.044799343
53	0x3fd4006e	1.6562631
54	0xbf117468	-0.56818247
55	0x3f88431e	1.0645483
56	0x3f630029	0.8867212
57	0xbfa44187	-1.2832497
58	0xbf1d2192	-0.6137935
59	0xbed851c9	-0.42249897
60	0xc004c018	-2.0742245
61	0x3f453ada	0.77042925
62	0xbf43b87f	-0.76453394
63	0xbe11306c	-0.14178628
64	0x3f86fb32	1.0545409
65	0xbf2a8642	-0.6661111
66	0xbfc56f1d	-1.5424534
67	0xbdcdaf3f	-0.10043191
68	0xbf673001	-0.90307623
69	0x3fe10f41	1.758278
70	0xbe7efac6	-0.2490035
71	0x3f80f1ab	1.0073751
72	0x4007c328	2.1212864
73	0xbf880621	-1.062687
74	0x3e317dc9	0.1733314
75	0xbe33fe9b	-0.17577593
76	0xbec2e6df	-0.38066766
77	0x3ec5994b	0.38593516
78	0x3e8e315d	0.27772036
79	0x4001a2cb	2.025561
80	0x3f753f54	0.95799756
81	0x3df1aab0	0.11800134
82	0xbdbc9e24	-0.092098504
83	0x3f53c3a9	0.8272043
84	0x3f0dd9b3	0.5541031
85	0xbf499b5a	-0.7875267
86	0x3ee9a737	0.45635387
87	0x3e3c0881	0.18362619
88	0x4005a3c9	2.0881217
89	0x3f80e0a5	1.0068556
90	0xbd714f4a	-0.058913507
91	0x3f946b34	1.1595216
92	0xbfb2c32b	-1.396581
93	0xbe80acb3	-0.2513176
94	0xbf885784	-1.0651708
95	0xbfbff58e	-1.4996812
96	0x3df6d881	0.120530136
97	0xbec3c0ed	-0.38233128
98	0x3df0f058	0.11764592
99	0x3f318f80	0.6935959
100	0x3f6b8fab	0.92016095
101	0xbf746e8f	-0.954812
102	0x3e131f6b	0.14367454
103	0x3f86cae6	1.053067
104	0xbf0a8b0c	-0.5411842
105	0xbf1e9469	-0.61945206
106	0xbee8cb61	-0.45467666
107	0xbf3aeb83	-0.7301561
108	0x3da14168	0.078738034
109	0xbf0c8272	-0.54886544
110	0x3c987f93	0.01861552
111	0x3f9a5a18	1.2058744
112	0x3f0e3a03	0.5555727
113	0xbe2f7e74	-0.17138082
114	0x3f277ed6	0.6542791
115	0x3f42a71d	0.76036245
116	0x3f0a323a	0.5398289
117	0x3fc681c7	1.5508355
118	0xbefee959	-0.49787405
119	0x3f609502	0.8772737
120	0xbf2e4225	-0.6806968
121	0xbf9391cc	-1.1528869
122	0x3e5ef387	0.21772586
123	0xbf333651	-0.70004755
124	0xbf5ea2d7	-0.86967224
125	0x3ff14436	1.8848941
126	0x3f7bc02b	0.983401
127	0xbfaf90e1	-1.3716089
128	0xbe0c2ac5	-0.1368819
129	0x3eb17646	0.34660548
130	0x3f209908	0.6273351
131	0xbfbd1894	-1.4773126
132	0x3f5f4cbd	0.8722647
133	0xbe814c80	-0.25253677
134	0x3f3b43bf	0.7315025
135	0xbe2d43d5	-0.16920407
136	0xbe5f7dcb	-0.2182533
137	0x3e1f9546	0.15584287
138	0xbdbb55ba	-0.091472104
139	0x3ee02afe	0.437828
140	0x3d86abdc	0.06575748
141	0x3e14a455	0.14515813
142	0xbfb7d05d	-1.4360462
143	0xbfca68d4	-1.5813241
144	0x3f8409c9	1.0315486
145	0xc00251a4	-2.036233
146	0xbdd12ef5	-0.102140345
147	0x3fe0927a	1.7544701
148	0x40053f6a	2.0819955
149	0xbf0a60fa	-0.54054224
150	0x3faa82d3	1.3321174
151	0xbf03f342	-0.51543057
152	0x3f1292ee	0.57255447
153	0x3e16af27	0.14715253
154	0x3e5883f1	0.21144082
155	0x3f58cd13	0.8468792
156	0x401ab105	2.4170544
157	0xbcd7c7d4	-0.026340403
158	0xbe83dd53	-0.25754794
159	0xbf77ac6d	-0.96747476
160	0x3d172ebb	0.0369098
161	0x3fbfb305	1.4976507
162	0x3e6e2de8	0.232597
163	0xbd816927	-0.06318884
164	0x3ed33c7b	0.4125708
165	0xbfcb9c60	-1.5907097
166	0x3f27e0d8	0.6557746
167	0xbf93efa8	-1.1557512
168	0x3f1f0efd	0.62132245
169	0x3f9cea8f	1.2259082
170	0x3f98c212	1.1934226
171	0xbd1c1f63	-0.03811587
172	0xbf8c5222	-1.0962565
173	0x3f8449db	1.0335039
174	0x3e81d4a0	0.25357533
175	0x3d9c4783	0.07630827
176	0x3eb7ba78	0.35884452
177	0x3e96a771	0.29424623
178	0xbf721db9	-0.94576603
179	0xbf37f01f	-0.7185077
180	0x3f1a5335	0.60283214
181	0xbeae7b66	-0.3407852
182	0xbf11333b	-0.56718796
183	0x3fa0ef46	1.257302
184	0x3d1cafb7	0.038253512
185	0x3f95f29f	1.1714667
186	0x3ff2e42f	1.8975886
187	0xbfaa10aa	-1.3286335
188	0xbe722dca	-0.2365028
189	0xbf5cab3f	-0.861988
190	0xbfafae29	-1.3725024
191	0x3f202e30	0.62570477
192	0x3f85ec83	1.0462803
193	0x3f0c7c8e	0.54877555
194	0xbe9e1f28	-0.30883145
195	0x3f4a6055	0.7905324
196	0xbfac0553	-1.3439125
197	0x3e7de256	0.24793372
198	0xbf1bed5f	-0.60909075
199	0xbf9cd919	-1.2253753
200	0x3fd3fac9	1.6560909
201	0x3fbbaf0c	1.4662795
202	0x3f7e402e	0.9931668
203	0x3ed45671	0.414722
204	0x3f08ecc4	0.53486276
205	0xbf375e71	-0.7162848
206	0xbfbb224c	-1.4619842
207	0x3fdd4071	1.7285291
208	0xbf697dcc	-0.91207576
209	0xbf1c6f14	-0.6110699
210	0xbe680bf4	-0.2266081
211	0x3f67a499	0.9048553
212	0xbfbbddd3	-1.467707
213	0x3ed7aef5	0.4212567
214	0x3ee16627	0.4402325
215	0x3f73932b	0.95146435
216	0xbf20433d	-0.626026
217	0x3f36cc83	0.7140581
218	0xbe6d3608	-0.23165143
219	0xbe8b1a3b	-0.2716845
220	0xbe3a5cb9	-0.18199433
221	0x3f0ac632	0.5420867
222	0xbd545e99	-0.051848028
223	0xbf956344	-1.1670918
224	0xbf40ad9d	-0.7526491
225	0xbf47fc22	-0.781191
226	0x3e786a9e	0.24259421
227	0xc01c31f3	-2.4405487
228	0xbf851735	-1.0397707
229	0xbee2fcdc	-0.4433354
230	0x3d3859da	0.045007564
231	0xbe29afcd	-0.16570969
232	0xbf46e0e4	-0.77686906
233	0x3e863e4f	0.26219413
234	0x3f41de3a	0.75729716
235	0x3e8954b5	0.2682244
236	0x3fa61ea5	1.2978102
237	0x3f2b7477	0.66974586
238	0x3f9aaa50	1.2083225
239	0x3fa6849a	1.3009217
240	0xbe858dff	-0.26084897
241	0x3f1003cc	0.56255794
242	0x3e9b65ad	0.3035101
243	0xbe9dd5e3	-0.30827245
244	0xbfcdfcc0	-1.6092758
245	0x3fbc5c06	1.4715583
246	0x3fa5fb66	1.2967346
247	0x3e9d21ab	0.3068975
248	0x3f3bbbc6	0.73333395
249	0x3fbbeebf	1.4682235
250	0x3eb72f95	0.3577849
251	0x3d8fe8b9	0.0702681
252	0xbfd57b70	-1.6678295
253	0x3e9e9948	0.3097632
254	0x3f92fe29	1.1483814
255	0xbfc722c2	-1.5557482

cdm._denoise_fn.transformer.mlp.0.weight f4 [128, 32]
0	0x3c673570	0.014111862
1	0x3dfa4afc	0.122213334
2	0x3e005284	0.12531477
3	0x3dfdcbda	0.12392397
4	0xbd027575	-0.031850297
5	0xbda2d255	-0.07950274
6	0x3c9e2589	0.019305008
7	0x3dedb06d	0.11605916
8	0xbe0f006a	-0.13965002
9	0x3cc4ff0a	0.024047393
10	0xbdf3d4c1	-0.11905814
11	0xbe07bd53	-0.13255815
12	0x3db2f85b	0.08738776
13	0x3dbc7bbb	0.09203287
14	0x3d9f08f4	0.077653795
15	0x3d0fb360	0.035083175
16	0x3cf5439d	0.029939467
17	0x3c64f0c5	0.01397342
18	0xbdbecb24	-0.0931609
19	0xbd83a0c1	-0.06427146
20	0x3c6b550d	0.014363539
21	0xbd438761	-0.04773653
22	0xbcac9b15	-0.021070043
23	0x3dade278	0.08490461
24	0x3dafc629	0.08582718
25	0x3959dd85	0.00020777255
26	0xbdb01c61	-0.08599163
27	0xbdf76cba	-0.12081285
28	0x3cb52bec	0.02211567
29	0xbd006dd6	-0.031354748
30	0x3d99fe04	0.07519153
31	0x3dd13257	0.1021468
32	0x3de9929d	0.114049174
33	0xbdcaacdc	-0.098962516
34	0xbd8af683	-0.067853
35	0xbd021409	-0.03175739
36	0xbd3a5960	-0.04549539
37	0xbda7196d	-0.081591465
38	0x3e28d139	0.16486062
39	0xbe024c32	-0.12724379
40	0x3da5ed3b	0.08101889
41	0x3d9f77f6	0.077865526
42	0xbd6629b7	-0.056192126
43	0x3d6fc2e9	0.05853549
44	0xbcb417cf	-0.02198401
45	0xbdf7675e	-0.120802626
46	0x3d854476	0.065071985
47	0xbc81a159	-0.015824007
48	0xbd57eb09	-0.05271438
49	0x3e15a04b	0.14611928
50	0x3ddb5ea1	0.107114084
51	0xbe13dbe9	-0.14439358
52	0xbd238a63	-0.039926898
53	0x3de0cf8c	0.109770864
54	0x3d930805	0.07179264
55	0xbdb12c21	-0.08650995
56	0xbdc3e1c8	-0.09564549
57	0x3dab7d44	0.08373502
58	0xbda235a6	-0.07920389
59	0x3d42cdba	0.047559477
60	0xbdf7938d	-0.1208869
61	0xbd256b72	-0.04038567
62	0x3cb0daee	0.021588769
63	0x3e69413e	0.22778794
64	0xbd98141a	-0.07425709
65	0xbd99fbe7	-0.0751875
66	0x3dc0639a	0.093939975
67	0x3d0ad2a7	0.0338923
68	0x3d8712ac	0.06595358
69	0xbdf3ec98	-0.11910361
70	0xbbaf36d2	-0.0053471113
71	0xbda73569	-0.08164484
72	0x3d3ca3b9	0.046054576
73	0x3e011b9f	0.12608193
74	0xbdf0c320	-0.11755967
75	0xbcba300d	-0.02272799
76	0x3cd4b540	0.025965333
77	0x3d77714a	0.060410775
78	0xbe00efdd	-0.125915
79	0xbd32b1ea	-0.043626703
80	0x3dc9e794	0.09858623
81	0xbd99f322	-0.07517077
82	0x3decca52	0.11562027
83	0x3c591998	0.013250731
84	0x3dec72b8	0.11545318
85	0xbde8266e	-0.11335455
86	0x3d3e71a5	0.0464951
87	0x3e0c46e8	0.13698924
88	0x3ddbcd99	0.10732574
89	0xbd6eef0b	-0.058333438
90	0xbe2fff6e	-0.17187282
91	0x3d1d48ed	0.038399626
92	0xbda4942e	-0.080360755
93	0x3c81d550	0.015848786
94	0xbda1dd24	-0.07903507
95	0xbddf4bdd	-0.10903142
96	0xbe0be2c2	-0.1366072
97	0x3bdb2639	0.006687906
98	0x3e09c23c	0.13453001
99	0x3d9fc8f4	0.07802001
100	0x3ce48b7b	0.02789854
101	0xbd9608f0	-0.073259234
102	0x3db812e1	0.08987976
103	0xbdd3410c	-0.10315141
104	0x3dfa92a5	0.122350015
105	0xbe1446b2	-0.14480093
106	0xbdad4cbd	-0.08461902
107	0xbc56b7e8	-0.01310537
108	0xbb632a6e	-0.0034662741
109	0x3da0c6f6	0.07850449
110	0x3d695874	0.05696912
111	0xbe107504	-0.14107138
112	0xbd7907a9	-0.06079832
113	0xbbe0c15b	-0.0068589873
114	0xbdab8bc2	-0.08376266
115	0xbd6ee9a2	-0.05832828
116	0x3da0a069	0.07843096
117	0xbc09de24	-0.008414779
118	0xbd656aaa	-0.056009926
119	0x3d331bec	0.0437278
120	0xbce19f81	-0.027541878
121	0xbddace03	-0.10683825
122	0xbd96bdac	-0.07360396
123	0x3de70cf2	0.11281766
124	0xbc35bf60	-0.011092991
125	0xbe0fa28c	-0.1402685
126	0xbdafc5a7	-0.08582621
127	0xbb8c2023	-0.004276292
128	0xbd7c6893	-0.061623167
129	0xbd85e618	-0.065380275
130	0xbd147f43	-0.03625418
131	0xbd81b9f2	-0.063342944
132	0xbc43964e	-0.011937691
133	0xbe24e8bf	-0.1610441
134	0x3cf0c851	0.029392393
135	0x3e014ef6	0.12627777
136	0xbe1381d2	-0.14404991
137	0xbd0d72f3	-0.034533452
138	0x3e36638a	0.17811409
139	0xbe22ffad	-0.15917845
140	0x3e5da863	0.21646266
141	0x3e92f3b8	0.28701568
142	0x3da4ccd3	0.080468796
143	0x3dc24c96	0.09487264
144	0xbda38a6d	-0.07985387
145	0x3d9873eb	0.074439846
146	0xbc7e0a04	-0.015505318
147	0x3db1e796	0.0868675
148	0xbd9add39	-0.07561726
149	0x3d6a3f7e	0.057189457
150	0xbe0409c1	-0.12894346
151	0xbe0a9f28	-0.13537276
152	0x3e11ce39	0.14238824
153	0x3d875dcd	0.06609688
154	0xbd8c8444	-0.06861165
155	0xbe52d4ee	-0.20589039
156	0xbe1ddfca	-0.154174
157	0x3e247e0b	0.16063707
158	0x3e1f7ae7	0.15574227
159	0x3ec33819	0.38128737
160	0x3d8d0702	0.06886102
161	0x3ddd75ed	0.10813508
162	0xbddb013c	-0.10693595
163	0xbd87b2ff	-0.06625938
164	0x3e0e0949	0.1387073
165	0xbe1d6642	-0.1537104
166	0x3e1ac7b8	0.15115249
167	0xbcb434e7	-0.021997882
168	0x3cd0a41d	0.02546888
169	0xbd974e0c	-0.07387933
170	0x3d80caaf	0.06288659
171	0x3bc37aee	0.005965582
172	0xbc8bb320	-0.017053187
173	0x3dca5268	0.09878999
174	0xbe287697	-0.16451488
175	0x3d9ddf7c	0.07708642
176	0x3de18df4	0.110134035
177	0xbd002755	-0.03128751
178	0xbd8c8456	-0.068611786
179	0x3d98cebd	0.07461307
180	0x3cf73a5d	0.030179197
181	0xbe18a222	-0.14905599
182	0xbde2d81d	-0.110763766
183	0xbe1a58eb	-0.15072982
184	0xbd03f803	-0.032218944
185	0xbcc6777c	-0.024226896
186	0x3d9c5bf1	0.07634724
187	0x3d80ff5c	0.06298706
188	0xbde25347	-0.1105104
189	0x3df1f175	0.118136324
190	0x3dcfeb19	0.10152263
191	0xbdf9ebf3	-0.12203207
192	0xbda349b5	-0.07973043
193	0xbdb9a429	-0.09064514
194	0x3cf66abb	0.03008019
195	0x3da6937e	0.08133601
196	0x3dac19b1	0.08403338
197	0xbd038d55	-0.032117207
198	0x3d8db5b4	0.06919423
199	0xbd1de943	-0.038552534
200	0x3cef6331	0.029222103
201	0xbd0872a6	-0.033312462
202	0xbcce2178	-0.025162444
203	0x3db2d019	0.08731098
204	0xbd3ee347	-0.046603467
205	0x3cdadc67	0.026716424
206	0xbdb9f64f	-0.09080183
207	0xbdf4ef43	-0.11959698
208	0x3d21c64d	0.039495755
209	0xbd8f38ae	-0.06993233
210	0x3d2195a5	0.039449353
211	0xbdbd8701	-0.092542656
212	0xbdac834c	-0.084234804
213	0x3cb39253	0.021920359
214	0xbdad6d8a	-0.084681585
215	0x3da176d3	0.07883992
216	0x3ccf12c9	0.025277512
217	0xbe023ec4	-0.12719256
218	0xbc5051ee	-0.012714846
219	0x3d31a28f	0.04336792
220	0xbe0f1508	-0.13972867
221	0xbd446e6d	-0.047956873
222	0x3e10aa0f	0.14127372
223	0xbe53e155	-0.20691426
224	0x3c5148af	0.012773677
225	0x3e01284f	0.12613033
226	0x3d30339d	0.043017972
227	0x3df87874	0.121323496
228	0xbe083594	-0.13301688
229	0x3e33f973	0.17575626
230	0x3dcf0083	0.101075195
231	0x3d0ee139	0.034882758
232	0xbcfdca38	-0.030980214
233	0x3dc052ad	0.09390769
234	0xbcf6b0f2	-0.030113671
235	0xbd675601	-0.056478504
236	0xbe5ab4c5	-0.2135802
237	0xbdfb3c81	-0.122673996
238	0x3dca27d7	0.0987088
239	0xbf0ed1a1	-0.5578862
240	0xbc338cf5	-0.0109589
241	0xbd93ccee	-0.072168216
242	0xbd712cec	-0.05888073
243	0xbd88919c	-0.06668398
244	0x3d87f3e4	0.06638315
245	0x3e5a9e91	0.21349551
246	0x3cbb4d8c	0.022864126
247	0xbc2d312e	-0.010570807
248	0xbdf282a4	-0.11841324
249	0x3d26231c	0.040560827
250	0xbdb1b9fd	-0.086780526
251	0xbe7211fc	-0.23639673
252	0xbea00229	-0.31251648
253	0x3efe5e45	0.49681297
254	0x3f00486a	0.50110495
255	0xbf542d52	-0.82881653

cdm._denoise_fn.transformer.mlp.0.bias f4 [128]
0	0xbe1a37c9	-0.15060343
1	0xbc29b983	-0.010359171
2	0x3c9a6027	0.018844677
3	0xbd18eba0	-0.037334085
4	0xbdd2edb6	-0.10299246
5	0xbdf012b4	-0.11722317
6	0x3cbba243	0.02290452
7	0xbe0b13df	-0.13581799
8	0xbcd0059a	-0.025393296
9	0x3ccfca21	0.025364937
10	0xbe197cf7	-0.14989077
11	0x3daa1b4e	0.08305989
12	0xbe43453c	-0.1906938
13	0xbe009e5c	-0.1256041
14	0xbe44b97a	-0.19211379
15	0x3e29307e	0.16522405
16	0x3d35b255	0.044359524
17	0xbc9937ef	-0.018703429
18	0xbe42cc2e	-0.19023201
19	0x3d9208d0	0.07130587
20	0xbe16faf5	-0.1474417
21	0xbe2612ec	-0.16218156
22	0xbe0354b7	-0.12825285
23	0xba61b345	-0.0008609782
24	0xbe2e8637	-0.17043386
25	0x3e0f3197	0.13983761
26	0xbc33946d	-0.01096068
27	0x3e087d2c	0.13329
28	0xbd2f3c04	-0.042781845
29	0x3d166527	0.03671756
30	0x3da22329	0.079168625
31	0x3dfb085d	0.122574545
32	0x3d378f85	0.044814605
33	0xbe3cfd34	-0.18455964
34	0x3daf0bd9	0.08547182
35	0xbe01386e	-0.12619182
36	0xbde0847f	-0.109627716
37	0xbd81eea5	-0.06344346
38	0x3d849494	0.064736515
39	0x3df53ab9	0.11974091
40	0xbdb6b89f	-0.089219324
41	0xbd0d903d	-0.034561384
42	0xbd844489	-0.064583845
43	0x3def6497	0.11689108
44	0x3c29cdac	0.010363977
45	0xbe3179f5	-0.17331679
46	0xbe442d58	-0.19157922
47	0x3db4d0d4	0.08828893
48	0xbd71cb88	-0.059031993
49	0x3e30cc3a	0.17265406
50	0x3c078fa3	0.008273992
51	0x3dc66ea8	0.09689075
52	0x3dc02d4c	0.0938364
53	0xbe510928	-0.20413649
54	0x3e310956	0.17288718
55	0xbe51a6f8	-0.2047385
56	0xbe32fdb7	-0.17479597
57	0x3dee33ec	0.11630997
58	0x3e019081	0.1265278
59	0xbafeeb06	-0.0019448705
60	0x3da571f8	0.080783784
61	0x3dff7ca5	0.12474946
62	0x3e0bad33	0.13640289
63	0xbd7af4b3	-0.06126852
64	0x3e16d53b	0.14729778
65	0x3d84724a	0.064671114
66	0x3d966057	0.07342594
67	0xbd326138	-0.043549746
68	0x3d4a6c3f	0.049419638
69	0x3c9bddca	0.019026656
70	0x3d6e2ab8	0.05814621
71	0x3d11f3cd	0.035632897
72	0x3dcde11b	0.10052701
73	0x3e0d8a10	0.13822198
74	0x3df712ba	0.12064119
75	0x3c9a9046	0.018867623
76	0xbd2fde5b	-0.042936664
77	0xbe0da0d4	-0.13830882
78	0x3d0033bf	0.03129935
79	0xbdffd941	-0.1249261
80	0xbd12993d	-0.03579067
81	0xbc7ea94a	-0.015543291
82	0x3d9835e3	0.07432153
83	0x3bf41f95	0.007450054
84	0x3dc9aa3e	0.09846924
85	0xbe0fb598	-0.14034116
86	0xbae75813	-0.001765015
87	0x3d04331e	0.03227531
88	0xbe38148f	-0.17976592
89	0x3d043a2b	0.032282036
90	0x3de4fef5	0.11181442
91	0xbdcbc3e6	-0.09949474
92	0xbe0eb8dd	-0.13937707
93	0xbdd57077	-0.104218416
94	0x3deedd99	0.1166336
95	0x3d2d20e3	0.04226769
96	0xbdc86e67	-0.097866826
97	0xbd77cc85	-0.06049778
98	0x3ce02acf	0.027364163
99	0xbe4330e6	-0.19061622
100	0x3c674d1c	0.014117505
101	0xbe2ad7bd	-0.1668386
102	0xbdbe46f5	-0.09290878
103	0x39a9c348	0.00032379688
104	0xbde93828	-0.11387664
105	0x3dd1792a	0.10228188
106	0x3cd2f189	0.025749939
107	0x3d201ec1	0.03909183
108	0x3d648e6b	0.055799883
109	0x3e2d7981	0.16940881
110	0xbc1649e6	-0.009172892
111	0xbd96b1c4	-0.07358125
112	0xbc0fed34	-0.008784581
113	0x3de64161	0.11242939
114	0xbe2147c6	-0.15750036
115	0xbd818f51	-0.063261636
116	0x3d4520b0	0.048126876
117	0x3e223d44	0.15843683
118	0x3d6d30ec	0.057907984
119	0xbd281707	-0.041037586
120	0x3a66d2fd	0.00088052434
121	0xbdae47e7	-0.08509808
122	0x3e0fe1d9	0.14050998
123	0xbce35d30	-0.027754396
124	0x3d2721f3	0.04080386
125	0xbdeb0e7a	-0.114773706
126	0x3e01a46c	0.12660378
127	0x3e080342	0.13282493

cdm._denoise_fn.transformer.mlp.2.weight f4 [64, 128]
0	0xbd9ce8d9	-0.076616
1	0xbd138d59	-0.03602347
2	0x3db1e8f0	0.086870074
3	0x3c8b5e07	0.01701261
4	0xbda02723	-0.07819965
5	0x3bc764bf	0.006085008
6	0x3da223ce	0.079169855
7	0x3d4d7ea1	0.05016959
8	0x3cb629bb	0.022236696
9	0xbbe26c2c	-0.0069098677
10	0xbd88c5b9	-0.066783376
11	0xbd5089e6	-0.05091276
12	0xbd9a85cf	-0.07545053
13	0x3d889072	0.06668176
14	0xbd596730	-0.053076923
15	0xbd63a1fe	-0.05557441
16	0x3c943de7	0.018095924
17	0xbc6a70fa	-0.014309162
18	0x3cea82df	0.028626857
19	0xbd7112b7	-0.05885574
20	0xbb8f33eb	-0.004370203
21	0x3dcc35d8	0.099712074
22	0x3ca5ed79	0.020254837
23	0xbd830809	-0.06398017
24	0xbd149315	-0.03627308
25	0xbd949d50	-0.072565675
26	0xbd69b136	-0.057053767
27	0xbd6a8fa3	-0.05726589
28	0x3cc8ef20	0.024528086
29	0xbd2f31be	-0.042772047
30	0x3d84f66f	0.06492316
31	0x3d057fb8	0.032592505
32	0x3d9587aa	0.073012665
33	0xbd97a1d2	-0.07403912
34	0xbd8bf9ce	-0.06834756
35	0x3d8cd278	0.06876081
36	0xbd655ee9	-0.055998717
37	0xbd773077	-0.060348954
38	0xbd084bec	-0.03327553
39	0x3c184354	0.009293396
40	0x3c112ab0	0.008860275
41	0x3c28a4bf	0.010293185
42	0xbd8be445	-0.06830648
43	0x3d6e40d2	0.058167286
44	0x3d3a9626	0.04555335
45	0x3da8e572	0.08246888
46	0x3da57a9e	0.08080028
47	0x3d8f0313	0.06983008
48	0x3d062fab	0.032760303
49	0x3d3c0780	0.04590559
50	0xbcfedf01	-0.031112196
51	0x3d27b0e4	0.04094018
52	0x3db279b0	0.08714616
53	0xbb96f2bd	-0.0046065734
54	0x3d0379e7	0.032098677
55	0xbc7e8dac	-0.015536707
56	0x3da71c3c	0.08159682
57	0xbd17ed44	-0.03709151
58	0xbd53967b	-0.05165718
59	0x3dd07cc7	0.101800494
60	0x3d8e9397	0.06961744
61	0xbd052099	-0.03250179
62	0xbca9df43	-0.020736342
63	0xbd1e9a5f	-0.03872144
64	0xbc5e05bf	-0.013551175
65	0xbc845594	-0.016154088
66	0xbceb9814	-0.02875904
67	0x3caf87be	0.021427032
68	0xbcb526b7	-0.022113187
69	0x3d83727b	0.0641832
70	0xbd40f6bf	-0.047110315
71	0x3da11e2e	0.078670844
72	0xbd80ed78	-0.062952936
73	0x3d12e815	0.035865862
74	0xbd881619	-0.0664484
75	0x3dbf4787	0.09339815
76	0x3c8188a0	0.015812218
77	0xbcf18fcb	-0.029487511
78	0xbd51fa5f	-0.051264163
79	0xbd415814	-0.04720314
80	0xbd6eb16b	-0.058274668
81	0x3daf73fa	0.08567043
82	0x3d8d3ce3	0.06896379
83	0xbd90d4c7	-0.07071834
84	0x3d8e05e4	0.06934717
85	0xbc11a584	-0.00888956
86	0x39faa5a6	0.00047807134
87	0xbd489712	-0.048972197
88	0x3d838c6f	0.0642327
89	0xbc693153	-0.014232951
90	0x3cbefecd	0.023314858
91	0xbc537d9b	-0.012908365
92	0x3d241a5a	0.040064193
93	0xbbd2db37	-0.006434824
94	0xbd858b3c	-0.065206975
95	0xbcf61695	-0.030040065
96	0xbd0cfd36	-0.03442117
97	0xbc155adf	-0.009115904
98	0x3cf9f24e	0.030511048
99	0x3de6216d	0.11236844
100	0xbb1eec27	-0.0024249644
101	0xbd318873	-0.04334302
102	0xbc45ad33	-0.01206522
103	0xbd215662	-0.03938902
104	0x3d3e8813	0.04651649
105	0xbd872130	-0.06598127
106	0x3dd1373d	0.10215614
107	0x39ac3006	0.00032842177
108	0x3d841011	0.06448377
109	0x3d3566c6	0.044287466
110	0x3db3a2da	0.08771296
111	0x3b0daef2	0.0021619168
112	0xbd10a90a	-0.03531746
113	0x3d5e79fa	0.054315545
114	0x3d31111f	0.04322922
115	0x3d50fdd7	0.05102333
116	0x3be193cd	0.0068840743
117	0x3d9dea26	0.07710676
118	0x3cd1ee5f	0.02562636
119	0xbd1cda35	-0.038294036
120	0x3b3d11f6	0.0028849817
121	0x3c1b1c11	0.009467141
122	0x3d15bc97	0.036556806
123	0x3da54155	0.08069102
124	0xbd1a26ed	-0.03763478
125	0x3ca92fb9	0.020652639
126	0x3db3e705	0.08784298
127	0x3ddd2a25	0.10799054
128	0xbdb842d3	-0.08997121
129	0xbc6e2f3f	-0.0145376315
130	0xbb1f42da	-0.0024301321
131	0x3d2a489a	0.041573144
132	0xbd22cbb6	-0.039745055
133	0x3d82cafe	0.06386374
134	0x3c3ee5e3	0.011651489
135	0x3db88761	0.090101965
136	0x3d32035b	0.04346023
137	0xbd38cd2b	-0.04511754
138	0xbd17580d	-0.036949206
139	0xbda51c48	-0.08062035
140	0xbcbb642d	-0.022874916
141	0xbdab1b92	-0.08354868
142	0xbc83383b	-0.016018024
143	0x3d4bc74d	0.049750615
144	0x3d2ee681	0.042700294
145	0x3d6815e3	0.056661498
146	0x3cc2e45e	0.023790535
147	0xbdae2c36	-0.08504526
148	0x3d7387e8	0.059455782
149	0x3d8a125f	0.06741785
150	0xbc5688ba	-0.013094122
151	0x3d526bb5	0.05137225
152	0xbc8d148a	-0.017221708
153	0xbbeedbcb	-0.007289385
154	0x3d4e9173	0.05043168
155	0x3ced035d	0.028932268
156	0x3db4da61	0.08830715
157	0x3d64648e	0.05575996
158	0xbccfe591	-0.02537802
159	0xbdb90f85	-0.09036163
160	0x3d6226d9	0.05521283
161	0xbd276350	-0.040866196
162	0xbd841c8b	-0.06450757
163	0xbdad5b5e	-0.084646925
164	0xbd117473	-0.035511445
165	0x3d94f0f7	0.07272523
166	0x3d222fa2	0.039596207
167	0x3cefb54c	0.029261254
168	0x3d7d15e6	0.061788462
169	0x3d4fc0f4	0.050721124
170	0xbd170151	-0.03686649
171	0x3d1b88d9	0.037972305
172	0xbc44dff2	-0.012016283
173	0x3d51e93c	0.05124782
174	0x3d609a4c	0.05483465
175	0xbdc428d4	-0.095781
176	0x3d401645	0.046896238
177	0xbcd9e114	-0.026596583
178	0xbd840ebd	-0.064481236
179	0xbd0eaf61	-0.034835223
180	0x3c2e45af	0.010636731
181	0x3d55d863	0.052208316
182	0xbd5c98f5	-0.05385681
183	0xbd4af3eb	-0.049549025
184	0xbdbf013f	-0.093264095
185	0x3d327714	0.043570593
186	0xbd46141f	-0.048359033
187	0xbd872dbc	-0.0660052
188	0xbd8c801e	-0.06860374
189	0x3da0c7e2	0.078506246
190	0xbd1f734e	-0.038928322
191	0x3d8f1066	0.0698555
192	0xbd2e355e	-0.042531364
193	0x3d52981a	0.051414587
194	0xbdba2d72	-0.09090699
195	0xbc67bacd	-0.014143658
196	0x3d2e9117	0.042618837
197	0xbcd81a77	-0.026379807
198	0x3cab4d30	0.02091083
199	0x3d12127b	0.035662156
200	0x3c19c36c	0.009384971
201	0x3d8e3fe9	0.06945784
202	0x3d5e0a40	0.054208994
203	0xbb844393	-0.004036376
204	0x3d8cea71	0.06880654
205	0xbcd9ba33	-0.026578045
206	0x3d66266f	0.056188997
207	0xbd7aa041	-0.061187986
208	0xbda28c69	-0.07936937
209	0xbd5b0e0f	-0.053480204
210	0xbd11721c	-0.035509214
211	0x3d205b39	0.039149497
212	0x3c6c29c5	0.0144142555
213	0xbd775a5e	-0.060388915
214	0x3d46201d	0.04837047
215	0x3ce1a995	0.027546683
216	0x3d03b597	0.0321556
217	0x3afe88b7	0.0019419406
218	0x3ca9525a	0.020669151
219	0xbd6e1a1f	-0.05813038
220	0x3d76936f	0.060199197
221	0x3bd2b022	0.006429688
222	0x3ced84f9	0.02899407
223	0xbc7ab86d	-0.01530276
224	0x3d5a7842	0.053337343
225	0xbd0e7558	-0.034779876
226	0xbcc348ff	-0.023838518
227	0x3c18b488	0.009320386
228	0x3ccd6162	0.02507085
229	0xbd7b56a1	-0.061361913
230	0x3d991efb	0.07476612
231	0x3c33c307	0.010971791
232	0xbdc93422	-0.09824397
233	0xbb885e41	-0.0041616266
234	0x3bf4bd40	0.0074688494
235	0xbd2edad2	-0.042689152
236	0x3d32c4be	0.04364466
237	0xbb55190d	-0.0032516152
238	0x3c487a39	0.012236171
239	0x3cb85bc1	0.02250469
240	0x3d994910	0.07484639
241	0x3d0745b2	0.03302545
242	0x3d3d824c	0.04626684
243	0xbd8c9080	-0.06863499
244	0x3cd31a31	0.025769325
245	0x3d886738	0.066603124
246	0xbbf0930c	-0.007341748
247	0xbdb0d909	-0.08635146
248	0xbd7d89d7	-0.061899032
249	0xbd26453f	-0.040593382
250	0x3d2b428a	0.041811503
251	0xbd04c61c	-0.032415494
252	0xbcce2b1c	-0.02516704
253	0xbda6bc1d	-0.081413485
254	0x3d665a9b	0.05623875
255	0xbd255dc5	-0.04037263

cdm._denoise_fn.transformer.mlp.2.bias f4 [64]
0	0x3da630a3	0.081147455
1	0x3d82ef4c	0.063932985
2	0xbd26d072	-0.040726133
3	0xbc20b971	-0.009809838
4	0xba0be6b4	-0.00053368066
5	0x3cf7f2aa	0.030267078
6	0xbd3ef61e	-0.046621434
7	0x3d87a567	0.06623345
8	0xbc9660c9	-0.018356698
9	0x3da0677c	0.07832238
10	0x3c9bece7	0.019033862
11	0xbd5ec94e	-0.054391198
12	0xbd6bfcf7	-0.057614293
13	0xbd691486	-0.05690434
14	0x3d9f55f5	0.07780067
15	0x3c69037f	0.014222025
16	0x3da10920	0.078630686
17	0xbb933c1d	-0.00449325
18	0xbdb936fb	-0.0904369
19	0x3d896a82	0.06709768
20	0x3d051a6b	0.032495897
21	0x3a36a977	0.0006968001
22	0xbd1f0bea	-0.03882972
23	0xbd9be1ec	-0.076114506
24	0xbd04c3d8	-0.032413334
25	0xbd9eb483	-0.07749274
26	0xbd96aab6	-0.07356779
27	0xbcd37c08	-0.025815979
28	0x3cc160c9	0.023605721
29	0xbc8c58e5	-0.017132232
30	0xbdbf79e2	-0.09349419
31	0x3d400099	0.04687557
32	0x3c586f94	0.013210196
33	0xbd2d6ec0	-0.042341948
34	0xbd3660c6	-0.044525884
35	0xbd4628e3	-0.048378836
36	0x3cc591d8	0.024117395
37	0xbd9e30e5	-0.0772417
38	0x3c9fe2cf	0.01951733
39	0x3cfa4307	0.03054954
40	0x3d86bd1c	0.065790385
41	0x3d05c194	0.032655314
42	0xbd978015	-0.073974766
43	0x3cb90f22	0.022590224
44	0x3db76d0b	0.08956345
45	0xbd9b634a	-0.07587297
46	0xbd046378	-0.032321423
47	0xbd78f870	-0.060783803
48	0x3d78ac92	0.06071145
49	0xbdb0f6d7	-0.08640831
50	0xbd86e15d	-0.065859534
51	0x3d0fcb45	0.035105962
52	0x3cd3d052	0.02585617
53	0xbd90553c	-0.07047507
54	0x3b9bd1f8	0.004755255
55	0x3d613b87	0.05498841
56	0xbd5511ad	-0.05201881
57	0xbcc3ddf8	-0.023909554
58	0x3c239adc	0.009985652
59	0x3ce60b08	0.028081432
60	0xbcc09ff0	-0.023513764
61	0xbd97f2db	-0.07419368
62	0x3c91bc6c	0.017790042
63	0xbd665ea5	-0.056242604

cdm._denoise_fn.transformer.axial_pos_emb.weights_0 f4 [1, 1, 1, 32]
0	0xbef7e189	-0.48414257
1	0xbcf38e0b	-0.029730817
2	0xbf753e89	-0.95798546
3	0xbf88ca58	-1.068675
4	0x3f213871	0.6297675
5	0x3e6d1b10	0.23154855
6	0x3eabc900	0.33551788
7	0x3e22eecf	0.15911411
8	0x3ed84718	0.4224174
9	0x3f0a6af0	0.54069424
10	0x3f3c1b3d	0.7347906
11	0xbe94c1ea	-0.29054195
12	0x3fb1d2ba	1.3892434
13	0xbeb572a1	-0.35439017
14	0xbf000dda	-0.50021136
15	0x3cec17e0	0.028819978
16	0x3f768cef	0.963088
17	0xbf07c354	-0.5303242
18	0xbf5423a2	-0.8286687
19	0x3f4eaea6	0.8073524
20	0x3f3386cb	0.7012755
21	0x3f45b1b6	0.7722429
22	0xbfcebe9d	-1.615192
23	0x3f657da5	0.89644843
24	0x4020ff58	2.515585
25	0x3f1b403c	0.6064489
26	0xbeccc2ba	-0.39992315
27	0xbf9270f1	-1.1440717
28	0xbf3a9e38	-0.7289767
29	0x3f27a09d	0.6547945
30	0xbe89e204	-0.2693025
31	0x3d5d24ef	0.0539903

cdm._denoise_fn.transformer.axial_pos_emb.weights_1 f4 [1, 1, 8, 32]
0	0x3f7dccee	0.9914082
1	0xbf54d4d7	-0.8313727
2	0x3eef7f55	0.46776834
3	0xbea407bd	-0.32037154
4	0xbe26ca67	-0.16288148
5	0xbe58d27b	-0.21174042
6	0x3fb88228	1.441472
7	0x3ebf7cc1	0.37399867
8	0x3f5fc4ed	0.8740986
9	0xbf56ae05	-0.8385928
10	0x3f86c633	1.0529236
11	0xbc3ab0e5	-0.011394714
12	0x3f8bd3d1	1.0924016
13	0x3f8899d5	1.0671946
14	0xbed59998	-0.41718745
15	0xbec29a69	-0.3800843
16	0xbeaaff51	-0.33397916
17	0x401a7e95	2.413976
18	0xbf7e6716	-0.99376047
19	0xbe868be3	-0.262786
20	0xbea9d5a3	-0.33170804
21	0x3f2fe653	0.6871082
22	0x3fa6110d	1.2973953
23	0xbf2f6493	-0.6851284
24	0xbf063259	-0.52420574
25	0xbf8aa4a0	-1.083149
26	0x3ec28baf	0.37997195
27	0x3d523594	0.051320627
28	0x3f393c77	0.7235789
29	0xbf2f03a3	-0.68364924
30	0x3ea4e94f	0.3220925
31	0xbdb801ee	-0.08984743
32	0x3ef1b414	0.472077
33	0xbfba7d88	-1.4569559
34	0xbf164f66	-0.587149
35	0xbf533786	-0.825066
36	0x3ffbfb41	1.9686052
37	0x3f943ed6	1.1581676
38	0x3f6a5339	0.9153324
39	0xbf3b2424	-0.7310202
40	0x3e326e25	0.1742483
41	0x3fbaaabc	1.4583354
42	0x3f7a3bd3	0.97747535
43	0x3faa3563	1.3297542
44	0xbbd3a8e1	-0.006459341
45	0x3f0b951b	0.5452439
46	0xbf72be98	-0.94822073
47	0x3f1221ee	0.5708302
48	0x3c80bace	0.015714075
49	0xbf53cecc	-0.8273742
50	0x3f9d1cee	1.2274454
51	0x3e592686	0.21206102
52	0x3fe28f64	1.7700009
53	0xbeaf517a	-0.3424185
54	0xbe1bbdb4	-0.15209085
55	0x404de09b	3.2168338
56	0xbf840516	-1.0314052
57	0xbf3bf634	-0.7342255
58	0xbfbea217	-1.4893216
59	0xbe2b20b6	-0.16711697
60	0xbf2f8053	-0.6855518
61	0xbfc21e85	-1.5165564
62	0x3f1df2b3	0.61698455
63	0x3ebfcdc3	0.3746167
64	0xbf55f4be	-0.8357657
65	0x3fc6708e	1.5503099
66	0xbf5c347e	-0.86017597
67	0xbd1d9f97	-0.038482275
68	0xbef0cabd	-0.47029677
69	0x3e86f816	0.2636115
70	0xbec3238e	-0.38113064
71	0x3ea9bdff	0.33152768
72	0xbf15b205	-0.5847476
73	0x3deafed2	0.11474384
74	0xbef84df8	-0.48496985
75	0x3f866688	1.050004
76	0xbf51ce66	-0.81955564
77	0x3f700495	0.9375699
78	0x3f633b30	0.8876219
79	0x403c8562	2.945641
80	0x3f0c5998	0.5482421
81	0x3f507ac2	0.81437314
82	0xbfe96e95	-1.8236872
83	0xbf36af87	-0.71361583
84	0xbe9d723a	-0.3075121
85	0x3f8e61e8	1.1123629
86	0xbf8ccbf6	-1.0999744
87	0xbee42d4d	-0.44565812
88	0xbf082136	-0.53175676
89	0x3feda4f6	1.8565967
90	0xbfe73638	-1.8063421
91	0xbef274e3	-0.47354802
92	0x3fef4bef	1.8695048
93	0xbf75071f	-0.9571399
94	0xbda74c77	-0.081688814
95	0x3db06349	0.08612687
96	0xbb1c4780	-0.0023846328
97	0x3f0ce2b8	0.55033445
98	0xbf0b8b29	-0.54509217
99	0x3e2a19c2	0.16611388
100	0xc017adb0	-2.369976
101	0x3e59b7f2	0.21261576
102	0x3e1b96aa	0.15194193
103	0xbd59f5f1	-0.053213064
104	0xbfa494ff	-1.285797
105	0xbf5efaa3	-0.8710119
106	0xbe89a003	-0.26879892
107	0x3e1a4859	0.15066661
108	0xbf89a60c	-1.0753798
109	0x3f01e092	0.5073329
110	0xbf19a4b4	-0.6001694
111	0x3fa3e805	1.2805182
112	0x3f6a02c2	0.9141046
113	0x3f5b8ca0	0.8576145
114	0xbebb2997	-0.36555168
115	0xbf1f3dbc	-0.62203574
116	0x3f751d89	0.9574819
117	0x3f9a1258	1.2036848
118	0xbfa48277	-1.2852315
119	0x3f61209c	0.8794038
120	0xbf68d30d	-0.9094704
121	0x3d67da2d	0.056604553
122	0x3f9deabc	1.233726
123	0x3fd04e59	1.627391
124	0xbf550bad	-0.8322094
125	0xbf8565ec	-1.0421729
126	0xbfaf4643	-1.3693317
127	0xc0022347	-2.0334032
128	0xbec27419	-0.379792
129	0xbfd4828b	-1.6602339
130	0xc0411541	-3.0169222
131	0x3f6b7bcb	0.9198577
132	0xbed29e35	-0.41136327
133	0xbebb38a1	-0.36566642
134	0xbebd88b2	-0.37018353
135	0xbf28c87b	-0.6593091
136	0x4017d868	2.3725834
137	0xbf4e9b60	-0.80705833
138	0xbf9e0e90	-1.2348194
139	0xbe682da7	-0.22673665
140	0xbfb4b72d	-1.4118401
141	0xbd9048e4	-0.07045153
142	0x3dadccd6	0.08486335
143	0x3f5211ed	0.820586
144	0x3f046ef7	0.5173182
145	0x3e93eb18	0.288903
146	0xbf623bf6	-0.88372743
147	0x3eea8ed2	0.45812088
148	0x3f4c6504	0.7984164
149	0xbefbf5a7	-0.49210855
150	0x3b951ce1	0.004550562
151	0xbe89cb31	-0.26912835
152	0x3ea0454c	0.3130287
153	0x3f3eac14	0.7448132
154	0x3f474ab6	0.77848375
155	0xbfad7a5e	-1.3552969
156	0x3f8cb248	1.0991907
157	0x3f94b645	1.1618124
158	0xbff46179	-1.9092246
159	0xbf3c1091	-0.7346278
160	0xbf886bdf	-1.065792
161	0x3ecdd156	0.40198773
162	0x3eed3ac0	0.46333885
163	0xbfee98cc	-1.864038
164	0xbf040e49	-0.515843
165	0xbe4337f7	-0.19064318
166	0xbf870bd6	-1.0550487
167	0xbefd7e56	-0.4951045
168	0xbfa4d46f	-1.287733
169	0x3effb588	0.49943185
170	0xbe9011f4	-0.28138697
171	0x3dad82ef	0.08472239
172	0xbe261034	-0.16217119
173	0x3f513e1a	0.81735384
174	0x3fdbe120	1.7178078
175	0x3da69a2d	0.081348754
176	0x3f529929	0.82264954
177	0x3f8cb726	1.0993392
178	0xbedd5dd5	-0.4323565
179	0x3f040562	0.51570714
180	0xbe7444b8	-0.23854339
181	0x3f4753c6	0.77862203
182	0xbf6800ad	-0.9062603
183	0x3de49caf	0.111626975
184	0x3f5f035b	0.87114495
185	0xbe0a32c1	-0.13495924
186	0x3ec6776d	0.3876299
187	0xbfa1a062	-1.262707
188	0x3fac65f2	1.3468611
189	0xbf3ab338	-0.72929716
190	0xbf97937c	-1.1841884
191	0xbf86ea4f	-1.0540255
192	0x3fb7ae9e	1.4350164
193	0xbf090188	-0.5351796
194	0x3d223d86	0.039609455
195	0xbec5297c	-0.38508213
196	0x3f152591	0.58260447
197	0x3fa57f11	1.2929403
198	0x3f1402f7	0.57817024
199	0xbece9fba	-0.40356237
200	0x3ddcd1ef	0.10782229
201	0xbf0d74b9	-0.5525623
202	0xbeb885c6	-0.3603956
203	0x3d9c5c5d	0.076348044
204	0xbe07881c	-0.13235515
205	0x3e972ba9	0.29525498
206	0x3efce1dc	0.49391067
207	0x3fc1943e	1.5123365
208	0x3fdfd8fd	1.7488095
209	0x3bff585b	0.007792515
210	0x3f4f9b01	0.8109589
211	0xbf15e3b2	-0.5855056
212	0xbef99252	-0.48744446
213	0xbf4bd434	-0.7962067
214	0xbfa6ca2f	-1.3030452
215	0x3ed6d34d	0.41958085
216	0x3f374671	0.7159186
217	0xbfcb6261	-1.5889398
218	0x3f90b3a3	1.1304821
219	0x3f3fa8f0	0.74867153
220	0xbe4df284	-0.20112044
221	0xbf374a54	-0.7159779
222	0x3f6ee19d	0.9331301
223	0x3f476f2b	0.77904004
224	0xbfcbd25b	-1.592357
225	0xbebe49ac	-0.37165582
226	0xbf7ace7c	-0.9797132
227	0xbe6e7ea3	-0.23290496
228	0xbf0c8e39	-0.54904515
229	0x3f6f70b3	0.9353134
230	0x3fc6d400	1.5533447
231	0xbf0d5f11	-0.55223185
232	0x3e24eb22	0.16105321
233	0xbf2cde76	-0.6752695
234	0xbec51e31	-0.38499597
235	0x3f47168e	0.7776879
236	0x3dd0e263	0.1019943
237	0x3ed0c50f	0.40775344
238	0x3e53e533	0.20692901
239	0xbee3dd3a	-0.4450472
240	0x3f0e8d70	0.55684566
241	0x3f181f03	0.5942232
242	0xbfbb0bac	-1.4612937
243	0xbe56d528	-0.2097975
244	0xbf09f537	-0.53889793
245	0xbea3139b	-0.31850895
246	0xbf02c26b	-0.5107791
247	0xbfa05478	-1.2525778
248	0xbf3d3bbd	-0.7391928
249	0x3e1e2021	0.15441944
250	0x3f31f187	0.69509166
251	0x3f8e4032	1.1113341
252	0x3f8f9e75	1.1220232
253	0x3f191715	0.59800845
254	0x3fe88f5d	1.8168751
255	0x3f6585f9	0.8965755
