checkpoints/sort/S_6_K_6/GMCD/09_05_2023__16_38/cktp/checkpoint_0001000.tar (torch, 625371 bytes, 43 tensors)

cdm.log_alpha f4 [100]
-0.00031574047 -0.0005587806 -0.0008020926 -0.0010457953 -0.0012900082 -0.0015348522 -0.001780449 -0.0020269218
-0.0022743961 -0.002522999 -0.0027728593 -0.0030241096 -0.003276884 -0.003531321 -0.0037875616 -0.0040457505
-0.0043060374 -0.0045685763 -0.004833525 -0.005101048 -0.005371314 -0.0056445003 -0.005920788 -0.006200367
-0.0064834356 -0.006770199 -0.0070608724 -0.0073556798 -0.0076548574 -0.0079586515 -0.00826732 -0.008581135
-0.008900384 -0.0092253685 -0.009556404 -0.00989383 -0.010238 -0.010589291 -0.010948103 -0.011314859
-0.011690011 -0.012074039 -0.012467455 -0.012870807 -0.013284679 -0.013709696 -0.014146531 -0.014595904
-0.015058593 -0.015535431 -0.016027322 -0.01653524 -0.017060239 -0.017603466 -0.018166164 -0.01874969
-0.019355519 -0.019985266 -0.020640705 -0.021323776 -0.022036618 -0.022781594 -0.02356131 -0.024378665
-0.025236877 -0.026139537 -0.027090665 -0.028094776 -0.029156953 -0.030282948 -0.031479288 -0.03275342
-0.03411387 -0.03557045 -0.03713451 -0.038819257 -0.040640138 -0.042615358 -0.044766497 -0.047119357
-0.04970503 -0.052561343 -0.055734772 -0.059283078 -0.06327894 -0.06781513 -0.07301196 -0.07902831
-0.08607849 -0.09445872 -0.10459039 -0.11709418 -0.13292374 -0.15362416 -0.18187614 -0.22277917
-0.2873987 -0.4052627 -0.69302577 -3.4538777
00000000: f889 a5b9 227b 12ba 8643 52ba 1113 89ba
00000010: 7e15 a9ba 182d c9ba f45d e9ba 1bd6 04bb
00000020: 090e 15bb e658 25bb dcb8 35bb 2430 46bb
00000030: fec0 56bb bc6d 67bb bd38 78bb 3792 84bb
00000040: a919 8dbb ffb3 95bb 8c62 9ebb b126 a7bb
00000050: d901 b0bb 80f5 b8bb 2b03 c2bb 732c cbbb
00000060: 0073 d4bb 8cd8 ddbb e45e e7bb ea07 f1bb
00000070: 99d5 fabb 0165 02bc a773 07bc e497 0cbc
00000080: ebd2 11bc 0026 17bc 7792 1cbc bb19 22bc
00000090: 49bd 27bc b57e 2dbc ac5f 33bc f561 39bc
000000a0: 7687 3fbc 31d2 45bc 4c44 4cbc 14e0 52bc
000000b0: fba7 59bc a29e 60bc dac6 67bc a923 6fbc
000000c0: 51b8 76bc 5288 7ebc bb4b 83bc e974 87bc
000000d0: eac1 8bbc 2535 90bc 35d1 94bc f398 99bc
000000e0: 778f 9ebc 24b8 a3bc b216 a9bc 33af aebc
000000f0: 2386 b4bc 77a0 babc a603 c1bc c4b5 c7bc
00000100: 91bd cebc 9522 d6bc 3eed ddbc 0427 e6bc
00000110: 90da eebc f213 f8bc 6df0 00bd 7328 06bd
00000120: fcba 0bbd 52b2 11bd 5b1a 18bd f100 1fbd
00000130: 4676 26bd 718d 2ebd 135d 37bd 3a00 41bd
00000140: 8097 4bbd 904a 57bd 254a 64bd d0d2 72bd
00000150: 6498 81bd a9e2 8abd 4b87 95bd 98d9 a1bd
00000160: eb49 b0bd 9373 c1bd 7d33 d6bd 13cf efbd
00000170: 291d 08be a74f 1dbe bd3d 3abe 3920 64be
00000180: ec25 93be 987e cfbe 236a 31bf 550c 5dc0

cdm.log_1_min_alpha f4 [100]
-8.060748 -7.490033 -7.1286874 -6.8635006 -6.653752 -6.4800887 -6.33178 -6.20225
-6.0871778 -5.983568 -5.889262 -5.8026505 -5.7225003 -5.6478486 -5.577926 -5.51211
-5.449889 -5.390837 -5.334595 -5.2808585 -5.2293673 -5.1798944 -5.1322446 -5.0862455
-5.0417447 -4.998608 -4.956715 -4.915958 -4.87624 -4.8374724 -4.799576 -4.7624764
-4.7261076 -4.6904073 -4.6553183 -4.6207867 -4.586764 -4.553202 -4.520058 -4.4872904
-4.4548597 -4.4227285 -4.390861 -4.359222 -4.327779 -4.296499 -4.265351 -4.2343035
-4.203326 -4.1723895 -4.1414633 -4.1105175 -4.0795226 -4.048448 -4.017264 -3.9859383
-3.9544399 -3.922736 -3.8907928 -3.8585756 -3.826048 -3.7931716 -3.7599068 -3.7262115
-3.692041 -3.6573477 -3.6220808 -3.5861862 -3.549605 -3.5122738 -3.4741237 -3.4350798
-3.3950596 -3.3539727 -3.3117182 -3.2681856 -3.2232504 -3.1767726 -3.128595 -3.0785387
-3.0263987 -2.9719398 -2.914889 -2.8549266 -2.7916753 -2.724686 -2.653416 -2.577203
-2.4952261 -2.40645 -2.309543 -2.2027526 -2.0837054 -1.9490751 -1.7939895 -1.6108967
-1.3871449 -1.0990171 -0.6932686 -0.032133576
00000000: d3f8 00c1 5aae efc0 351e e4c0 cca1 dbc0
00000010: 89eb d4c0 e35c cfc0 f19d cac0 d578 c6c0
00000020: 29ca c2c0 6479 bfc0 d674 bcc0 50af b9c0
00000030: b91e b7c0 2dbb b4c0 5f7e b2c0 3563 b0c0
00000040: 7e65 aec0 bd81 acc0 01b5 aac0 cbfc a8c0
00000050: fa56 a7c0 b2c1 a5c0 593b a4c0 86c2 a2c0
00000060: f955 a1c0 99f4 9fc0 699d 9ec0 874f 9dc0
00000070: 280a 9cc0 93cc 9ac0 2096 99c0 3566 98c0
00000080: 463c 97c0 d117 96c0 5ef8 94c0 7cdd 93c0
00000090: c5c6 92c0 d5b3 91c0 51a4 90c0 e297 8fc0
000000a0: 368e 8ec0 fe86 8dc0 ef81 8cc0 bf7e 8bc0
000000b0: 2a7d 8ac0 eb7c 89c0 c17d 88c0 6a7f 87c0
000000c0: a681 86c0 3784 85c0 de86 84c0 5c89 83c0
000000d0: 738b 82c0 e38c 81c0 6d8d 80c0 9d19 7fc0
000000e0: 8b15 7dc0 1b0e 7bc0 c002 79c0 e7f2 76c0
000000f0: f8dd 74c0 53c3 72c0 50a2 70c0 407a 6ec0
00000100: 664a 6cc0 fc11 6ac0 2cd0 67c0 1384 65c0
00000110: ba2c 63c0 18c9 60c0 0b58 5ec0 59d8 5bc0
00000120: a848 59c0 7da7 56c0 31f3 53c0 f429 51c0
00000130: bc49 4ec0 3e50 4bc0 e73a 48c0 c706 45c0
00000140: 84b0 41c0 4334 3ec0 8b8d 3ac0 1eb7 36c0
00000150: cfaa 32c0 4161 2ec0 91d1 29c0 e5f0 24c0
00000160: c9b1 1fc0 4703 1ac0 8dcf 13c0 e6f9 0cc0
00000170: 6e5b 05c0 4b7b f9bf 73a1 e5bf dd31 cebf
00000180: f78d b1bf 98ac 8cbf 0d7a 31bf 7f9e 03bd

cdm.log_cumprod_alpha f4 [100]
-0.00031574047 -0.0008745211 -0.0016766137 -0.0027224089 -0.004012417 -0.0055472692 -0.007327718 -0.00935464
-0.011629037 -0.014152035 -0.016924895 -0.019949004 -0.023225889 -0.026757209 -0.03054477 -0.03459052
-0.03889656 -0.043465134 -0.04829866 -0.053399708 -0.05877102 -0.06441552 -0.07033631 -0.07653668
-0.08302011 -0.089790314 -0.096851185 -0.10420687 -0.11186172 -0.11982037 -0.1280877 -0.13666883
-0.14556922 -0.15479459 -0.16435099 -0.17424482 -0.18448281 -0.19507211 -0.2060202 -0.21733508
-0.22902508 -0.24109912 -0.25356656 -0.26643738 -0.27972206 -0.29343176 -0.3075783 -0.3221742
-0.3372328 -0.3527682 -0.36879554 -0.38533077 -0.40239102 -0.41999447 -0.43816066 -0.45691034
-0.47626585 -0.4962511 -0.51689184 -0.5382156 -0.5602522 -0.5830338 -0.6065951 -0.6309738
-0.65621066 -0.6823502 -0.7094409 -0.73753566 -0.7666926 -0.79697555 -0.82845485 -0.86120826
-0.89532214 -0.9308926 -0.96802706 -1.0068463 -1.0474864 -1.0901018 -1.1348684 -1.1819876
-1.2316927 -1.2842541 -1.3399888 -1.399272 -1.4625509 -1.530366 -1.6033779 -1.6824062
-1.7684847 -1.8629434 -1.9675338 -2.084628 -2.2175517 -2.371176 -2.553052 -2.7758312
-3.06323 -3.4684927 -4.1615186 -7.615396
00000000: f889 a5b9 1e40 65ba d2c1 dbba 716a 32bb
00000010: 987a 83bb dec5 b5bb 5b1d f0bb 3444 19bc
00000020: b787 3ebc f0dd 67bc 14a6 8abc 186c a3bc
00000030: 3844 bebc ef31 dbbc 0739 fabc caae 0dbd
00000040: 0052 1fbd 7f08 32bd d1d4 45bd a7b9 5abd
00000050: e2b9 70bd 49ec 83bd 7c0c 90bd 43bf 9cbd
00000060: 7306 aabd fce3 b7bd ea59 c6bd 696a d5bd
00000070: c217 e5bd 6264 f5bd 6c29 03be eaf2 0bbe
00000080: 1910 15be 7982 1ebe a04b 28be 3c6d 32be
00000090: 10e9 3cbe fcc0 47be f6f6 52be 168d 5ebe
000000a0: 8d85 6abe b0e2 76be 7ad3 81be 7b6a 88be
000000b0: bb37 8fbe b03c 96be e77a 9dbe 04f4 a4be
000000c0: c7a9 acbe 099e b4be c5d2 bcbe 134a c5be
000000d0: 3206 cebe 8409 d7be 9856 e0be 27f0 e9be
000000e0: 1ed9 f3be a014 febe 0653 04bf 7fc8 09bf
000000f0: b06c 0fbf b441 15bf d149 1bbf 8087 21bf
00000100: 6cfd 27bf 81ae 2ebf eb9d 35bf 23cf 3cbf
00000110: f745 44bf 9706 4cbf 9e15 54bf 2578 5cbf
00000120: d533 65bf fa4e 6ebf 9fd0 77bf 57e0 80bf
00000130: 0914 86bf 7588 8bbf 5e43 91bf 5f4b 97bf
00000140: 1ba8 9dbf 7062 a4bf c184 abbf 581b b3bf
00000150: de34 bbbf 08e3 c3bf 7d3b cdbf 1659 d7bf
00000160: b55d e2bf ee74 eebf 26d8 fbbf 8c6a 05c0
00000170: 5eec 0dc0 59c1 17c0 3465 23c0 38a7 31c0
00000180: f60b 44c0 c9fb 5dc0 292b 85c0 53b1 f3c0

cdm.log_1_min_cumprod_alpha f4 [100]
-8.060748 -7.042271 -6.3918176 -5.907599 -5.520367 -5.1972218 -4.9197526 -4.6765566
-4.460059 -4.2649646 -4.08742 -3.924534 -3.7740781 -3.6343 -3.5037954 -3.381421
-3.2662346 -3.15745 -3.0544035 -2.956531 -2.863348 -2.7744355 -2.689429 -2.6080096
-2.5298953 -2.4548376 -2.3826144 -2.3130283 -2.2459013 -2.1810737 -2.1184006 -2.057751
-1.9990054 -1.9420555 -1.8868012 -1.8331517 -1.7810227 -1.730337 -1.6810232 -1.6330153
-1.5862517 -1.5406759 -1.4962345 -1.4528786 -1.4105618 -1.369241 -1.328876 -1.289429
-1.2508641 -1.2131484 -1.17625 -1.1401396 -1.104789 -1.070172 -1.0362633 -1.0030397
-0.9704786 -0.9385587 -0.9072599 -0.876563 -0.8464499 -0.81690323 -0.78790647 -0.7594439
-0.7315005 -0.704062 -0.6771147 -0.6506456 -0.62464213 -0.5990923 -0.5739848 -0.54930854
-0.525053 -0.5012082 -0.47776434 -0.4547122 -0.43204284 -0.40974766 -0.3878184 -0.36624715
-0.34502622 -0.32414833 -0.3036063 -0.28339338 -0.26350293 -0.24392861 -0.2246643 -0.20570408
-0.18704222 -0.16867323 -0.15059176 -0.13279265 -0.11527094 -0.098021805 -0.08104057 -0.064322725
-0.04786391 -0.031659897 -0.015706582 -0.0004929269
00000000: d3f8 00c1 495a e1c0 c589 ccc0 0d0b bdc0
00000010: d9a6 b0c0 a44f a6c0 9d6e 9dc0 5aa6 95c0
00000020: ceb8 8ec0 977a 88c0 25cc 82c0 912b 7bc0
00000030: 7f8a 71c0 5f98 68c0 2f3e 60c0 3469 58c0
00000040: fd09 51c0 a913 4ac0 597b 43c0 ce37 3dc0
00000050: 1841 37c0 5a90 31c0 9b1f 2cc0 a1e9 26c0
00000060: cee9 21c0 0f1c 1dc0 c17c 18c0 a808 14c0
00000070: d9bc 0fc0 b696 0bc0 e093 07c0 31b2 03c0
00000080: 69df ffbf 4695 f8bf b482 f1bf b7a4 eabf
00000090: 8df8 e3bf af7b ddbf c52b d7bf a506 d1bf
000000a0: 4c0a cbbf de34 c5bf 9d84 bfbf edf7 b9bf
000000b0: 4a8d b4bf 4a43 afbf 9c18 aabf 020c a5bf
000000c0: 511c a0bf 7248 9bbf 5c8f 96bf 18f0 91bf
000000d0: ba69 8dbf 65fb 88bf 47a4 84bf 9b63 80bf
000000e0: 4971 78bf 6245 70bf 2f42 68bf 6f66 60bf
000000f0: f1b0 58bf 9220 51bf 3db4 49bf ea6a 42bf
00000100: 9e43 3bbf 683d 34bf 6457 2dbf b690 26bf
00000110: 8ce8 1fbf 1d5e 19bf abf0 12bf 7c9f 0cbf
00000120: e069 06bf 2e4f 00bf 879d f4be 0ad0 e8be
00000130: b834 ddbe 72ca d1be 2290 c6be bf84 bbbe
00000140: 47a7 b0be c5f6 a5be 4972 9bbe f018 91be
00000150: dbe9 86be 6cc8 79be 660e 66be 17a4 52be
00000160: ff87 3fbe adb8 2cbe ba34 1abe ccfa 07be
00000170: 2c13 ecbd a8bf c8bd 99f8 a5bd a2bb 83bd
00000180: f30c 44bd cfad 01bd 17ab 80bc c437 01ba

cdm.Lt_history f4 [100]
6.5922685e-09 4.6375792e-08 4.7957876e-08 2.2942488e-07 5.5587236e-05 6.567131e-08 0.00015118496 0.0001319492
0.00013958209 0.0020286683 0.0005422781 0.00024637821 0.44222036 0.001076492 0.0019268634 0.00038979037
0.023378175 0.0052709803 0.009350815 0.002126182 0.0021242364 0.0041075917 0.016521262 0.05066456
0.013746618 0.005739558 0.031561382 0.0075830086 0.0065080277 0.011748117 0.014154986 0.007989258
0.005568953 0.009833367 0.0043897373 0.015109523 0.00211545 0.018755216 0.048114073 0.049446072
0.023911806 0.018398575 0.026528463 0.018770428 0.020850953 0.021352742 0.017472968 0.016014412
0.013701445 0.014095446 0.011145322 0.019312076 0.022038354 0.014223595 0.015603825 0.012111555
0.0128299575 0.01439705 0.017550232 0.023839755 0.011260551 0.015177043 0.026767075 0.016151145
0.014941724 0.019895146 0.013655733 0.017567018 0.015546264 0.018552601 0.01230059 0.013594158
0.011564076 0.012452941 0.011129413 0.009930225 0.010264635 0.009093553 0.009240704 0.008334311
0.0073156874 0.007366845 0.006978893 0.0067735147 0.005988762 0.005737889 0.005244487 0.004565999
0.0039200224 0.0031082525 0.002947828 0.0023118572 0.001955885 0.0015295179 0.0013525056 0.0009030303
0.00052825664 0.00031612985 0.00013067682 1.3428268e-05
00000000: 3582 e231 b92e 4733 3efa 4d33 d557 7634
00000010: 5726 6938 2f07 8d33 6787 1e39 d85b 0a39
00000020: c85c 1239 68f3 043b ab27 0e3a 532c 8139
00000030: b56a e23e 1419 8d3a cf8e fc3a c75c cc39
00000040: 9683 bf3c 30b8 ac3b 2934 193c 6a57 0b3b
00000050: c636 0b3b fa98 863b 9957 873c a485 4f3d
00000060: 7f39 613c e712 bc3b 8246 013d e37a f83b
00000070: 4b41 d53b 2d7b 403c 50ea 673c 60e5 023c
00000080: c47b b63b 211c 213c c9d7 8f3b ef8d 773c
00000090: 5da3 0a3b 8aa4 993c 4313 453d f787 4a3d
000000a0: b1e2 c33c 9cb8 963c 3852 d93c 71c4 993c
000000b0: 9ecf aa3c f2eb ae3c 7823 8f3c a830 833c
000000c0: 077c 603c 96f0 663c de9a 363c 5c34 9e3c
000000d0: c789 b43c 150a 693c 30a7 7f3c 8b6f 463c
000000e0: be34 523c 9be1 6b3c 81c5 8f3c 974b c33c
000000f0: 2d7e 383c 22a9 783c a046 db3c 684f 843c
00000100: 22ce 743c 25fb a23c 4cbc 5f3c b5e8 8f3c
00000110: c2b5 7e3c a0fb 973c 6a88 493c 08ba 5e3c
00000120: 4077 3d3c 6c07 4c3c 2458 363c 62b2 223c
00000130: 002d 283c 20fd 143c 5266 173c a28c 083c
00000140: 6fb8 ef3b 9365 f13b 33af e43b 5cf4 dd3b
00000150: 603d c43b e704 bc3b f2d9 ab3b 609e 953b
00000160: 8873 803b d3b3 4b3b 5930 413b 8782 173b
00000170: 4e2e 003b 1b7a c83a 8f46 b13a 56b9 6c3a
00000180: b47a 0a3a 3bbe a539 4b06 0939 f949 6137

cdm.Lt_count f4 [100]
144.0 114.0 1706.0 1379.0 11301.0 5717.0 7241.0 7820.0
9447.0 11530.0 10659.0 9450.0 11117.0 8082.0 12460.0 10804.0
9561.0 10811.0 9508.0 12161.0 10212.0 11364.0 12393.0 12597.0
10017.0 11365.0 10604.0 12408.0 12027.0 12822.0 14274.0 12771.0
12357.0 11677.0 12398.0 13010.0 12580.0 12916.0 13906.0 12917.0
13668.0 13247.0 13498.0 13715.0 13569.0 12753.0 13835.0 13877.0
13486.0 13629.0 13501.0 13652.0 13577.0 13372.0 12889.0 12958.0
12743.0 12745.0 12880.0 13279.0 12735.0 12714.0 12526.0 12416.0
12325.0 11615.0 11903.0 12065.0 11734.0 11333.0 11297.0 10806.0
10783.0 10510.0 10265.0 10245.0 10126.0 9710.0 9483.0 9182.0
8921.0 8504.0 8266.0 8093.0 7556.0 7184.0 6773.0 6487.0
5974.0 5811.0 5360.0 4872.0 4337.0 3781.0 3407.0 2950.0
2270.0 1684.0 1100.0 397.0
00000000: 0000 1043 0000 e442 0040 d544 0060 ac44
00000010: 0094 3046 00a8 b245 0048 e245 0060 f445
00000020: 009c 1346 0028 3446 008c 2646 00a8 1346
00000030: 00b4 2d46 0090 fc45 00b0 4246 00d0 2846
00000040: 0064 1546 00ec 2846 0090 1446 0004 3e46
00000050: 0090 1f46 0090 3146 00a4 4146 00d4 4446
00000060: 0084 1c46 0094 3146 00b0 2546 00e0 4146
00000070: 00ec 3b46 0058 4846 0008 5f46 008c 4746
00000080: 0014 4146 0074 3646 00b8 4146 0048 4b46
00000090: 0090 4446 00d0 4946 0048 5946 00d4 4946
000000a0: 0090 5546 00fc 4e46 00e8 5246 004c 5646
000000b0: 0004 5446 0044 4746 002c 5846 00d4 5846
000000c0: 00b8 5246 00f4 5446 00f4 5246 0050 5546
000000d0: 0024 5446 00f0 5046 0064 4946 0078 4a46
000000e0: 001c 4746 0024 4746 0040 4946 007c 4f46
000000f0: 00fc 4646 00a8 4646 00b8 4346 0000 4246
00000100: 0094 4046 007c 3546 00fc 3946 0084 3c46
00000110: 0058 3746 0014 3146 0084 3046 00d8 2846
00000120: 007c 2846 0038 2446 0064 2046 0014 2046
00000130: 0038 1e46 00b8 1746 002c 1446 0078 0f46
00000140: 0064 0b46 00e0 0446 0028 0146 00e8 fc45
00000150: 0020 ec45 0080 e045 00a8 d345 00b8 ca45
00000160: 00b0 ba45 0098 b545 0080 a745 0040 9845
00000170: 0088 8745 0050 6c45 00f0 5445 0060 3845
00000180: 00e0 0d45 0080 d244 0080 8944 0080 c643

cdm._denoise_fn.transformer.first.weight f4 [6, 64]
-1.0724918 0.9537331 -1.3048626 -1.0656506 -1.2079425 1.1971053 -1.1080831 -0.10221952
-0.91308564 0.32819918 -0.5574532 -0.24533044 0.99251515 -0.7531017 -0.24086878 -0.43336907
-1.4946197 -0.43703544 -0.872804 0.5254126 -0.032557573 0.0059546763 1.0506742 0.85986614
0.46053568 -0.47616267 0.09416826 2.7435305 0.16810404 1.1360289 0.30911526 1.7684011
-0.7711955 1.8305998 -0.2945257 -0.25003147 -1.2706398 0.0082629975 -0.24369705 -0.7504945
1.1243522 0.43921095 -1.1855768 -0.74831796 -0.87726504 -0.8710733 -0.9809337 -0.14532126
-1.0138475 0.35785696 -1.6120447 1.8327414 0.061420463 1.5848149 -0.63378745 1.1459934
0.76271015 -1.1693069 -0.59385043 -0.46431327 -1.9600627 0.78486395 -0.81218284 -0.13501064
1.1576812 -0.6197462 -1.4789325 -0.23321685 -0.86386365 1.6313541 -0.20866169 0.95543224
2.0818434 -0.9875342 0.15680304 -0.13065965 -0.2826746 0.40257657 0.22555628 2.129775
0.87554544 0.045091424 -0.04635324 0.8397474 0.58233726 -0.80156434 0.3342169 0.14953005
2.1065586 1.0606412 0.037687764 1.1565319 -1.4612598 -0.25610828 -1.0302255 -1.6152599
0.07924182 -0.34956506 0.25554883 0.6367766 0.8891326 -0.96291184 0.19262081 1.0246003
-0.449478 -0.5534445 -0.51495826 -0.59971386 0.026869224 -0.47784463 -0.049573887 1.1793587
0.51620066 -0.21847385 0.60537004 0.7470155 0.51592666 1.5153857 -0.5203054 0.89862317
-0.62271374 -1.1266164 0.23924872 -0.7119698 -0.9483116 1.8723738 1.043795 -1.4475586
-0.05373235 0.29505658 0.5732844 -1.4008286 0.85801613 -0.32128778 0.6828574 -0.19970152
-0.09344135 0.12527485 -0.028988507 0.3311128 0.13161118 0.13626643 -1.3444864 -1.625148
1.0113273 -1.9372903 -0.15422249 1.7580005 2.2138467 -0.65612656 1.3286103 -0.44141182
0.5551531 0.049008936 0.2769128 0.8417305 2.4891465 -0.043749955 -0.32376626 -0.9349299
-0.0041653523 1.4937639 0.26043758 -0.14092116 0.52966124 -1.5646071 0.7010868 -1.120626
0.6125929 1.1526845 1.2257178 -0.05524284 -1.0634377 1.0138249 0.19385055 0.044159327
0.3492523 0.30331352 -0.89458066 -0.63284314 0.62975425 -0.19396055 -0.570951 1.2836356
0.069588594 1.1599685 1.8045932 -1.4808303 -0.1922066 -1.0205916 -1.4286143 0.69199854
0.90395945 0.52667755 -0.21909925 0.675076 -1.3654482 0.22060218 -0.60035515 -1.1281031
1.6473149 1.3948072 0.906978 0.36887884 0.5270677 -0.7005076 -1.4420172 1.7342694
-0.9436816 -0.42316282 -0.32914296 0.9083088 -1.1941202 0.40851575 0.5745251 0.93500286
-0.5156161 0.668053 -0.324023 -0.25808004 -0.24378717 0.6668835 -0.1499118 -1.1080797
-0.7686158 -0.777164 0.057545356 -2.3334227 -1.1297607 -0.40028685 0.013554797 -0.035328507
-0.7968088 0.14250498 0.8282211 0.1831269 1.2868538 0.6634089 1.1924793 1.380395
-0.2604418 0.59588623 0.19999328 -0.2026569 -1.6174716 1.4850558 1.352476 0.2895467
0.7661843 1.4041585 0.37733692 0.046924684 -1.5348233 0.27172184 1.1491475 -1.5744747
00000000: 6947 89bf da27 743f bd05 a7bf 3d67 88bf
00000010: dc9d 9abf bf3a 993f abd5 8dbf 7858 d1bd
00000020: fbbf 69bf b909 a83e 41b5 0ebf e737 7bbe
00000030: 7915 7e3f 46cb 40bf 4ea6 76be 8de2 ddbe
00000040: b34f bfbf 1cc3 dfbe 1570 5fbf 7181 063f
00000050: 175b 05bd 721f c33b 7e7c 863f 3020 5c3f
00000060: 55cb eb3e 98cb f3be 4adb c03d 0196 2f40
00000070: 7723 2c3e 6569 913f 5b44 9e3e f85a e23f
00000080: 116d 45bf 1851 ea3f 13cc 96be 2004 80be
00000090: 53a4 a2bf 8661 073c b88b 79be 6820 40bf
000000a0: c6ea 8f3f 42e0 e03e fbc0 97bf c491 3fbf
000000b0: 7194 60bf a9fe 5ebf 791e 7bbf 19cf 14be
000000c0: c1c5 81bf 0739 b73e 7b57 cebf 4597 ea3f
000000d0: 0694 7b3d 37db ca3f e53f 22bf e9af 923f
000000e0: f940 433f d9ab 95bf 9506 18bf 78ba edbe
000000f0: 56e3 fabf d8ec 483f 37eb 4fbf 3b40 0abe
00000100: e62e 943f b0a7 1ebf a94d bdbf 66d0 6ebe
00000110: 2b26 5dbf 36d0 d03f 69ab 55be 3597 743f
00000120: ec3c 0540 0bcf 7cbf fa90 203e a5cb 05be
00000130: baba 90be 841e ce3e 3af8 663e 3c4e 0840
00000140: bf23 603f c9b1 383d e5dc 3dbd b0f9 563f
00000150: 0e14 153f 5233 4dbf 7a1e ab3e 681e 193e
00000160: dbd1 0640 17c3 873f 7c5e 1a3d 3d09 943f
00000170: 900a bbbf a020 83be 6ede 83bf d6c0 cebf
00000180: 8949 a23d 31fa b2be 4cd7 823e cb03 233f
00000190: 329e 633f 6481 76bf 643e 453e 1a26 833f
000001a0: fb21 e6be 8aae 0dbf 4ed4 03bf d986 19bf
000001b0: d91c dc3c 0da8 f4be fd0d 4bbd 3af5 963f
000001c0: ba25 043f 9cb7 5fbe 88f9 1a3f 683c 3f3f
000001d0: c513 043f 29f8 c13f bc32 05bf 2b0c 663f
000001e0: 2b6a 1fbf f734 90bf 9efd 743e a743 36bf
000001f0: 8dc4 72bf f2a9 ef3f 139b 853f 9a49 b9bf
00000200: 7416 5cbd a811 973e c4c2 123f 5a4e b3bf
00000210: f2a6 5b3f d57f a4be becf 2e3f 8e7e 4cbe
00000220: 2e5e bfbd 0d48 003e 4e79 edbc 9e87 a93e
00000230: 15c5 063e 6d89 0b3e 2118 acbf da04 d0bf
00000240: 2c73 813f 21f9 f7bf 80ec 1dbe 2906 e13f
00000250: aaaf 0d40 e9f7 27bf e70f aa3f bb00 e2be
00000260: 831e 0e3f 98bd 483d 84c7 8d3e a67b 573f
00000270: 2d4e 1f40 2733 33bd b1c4 a5be 9157 6fbf
00000280: 827d 88bb a833 bf3f 1358 853e a34d 10be
00000290: e197 073f 0c45 c8bf 6d7a 333f ac70 8fbf
000002a0: e3d2 1c3f 2a8b 933f 52e4 9c3f 5146 62bd
000002b0: ba1e 88bf 04c5 813f c280 463e 69e0 343d
000002c0: 33d1 b23e e94b 9b3e 3d03 65bf 0202 22bf
000002d0: 9337 213f 989d 46be d829 12bf 2c4e a43f
000002e0: 7784 8e3d d979 943f e9fc e63f d98b bdbf
000002f0: cfd1 44be bfa2 82bf d5dc b6bf d126 313f
00000300: e369 673f 57d4 063f 8e5b 60be c8d1 2c3f
00000310: 02c7 aebf 8ae5 613e e0b0 19bf af65 90bf
00000320: 37db d23f 0b89 b23f b62f 683f b0dd bc3e
00000330: e9ed 063f 7754 33bf 0594 b8bf 8afc dd3f
00000340: 1e95 71bf cca8 d8be 6d85 a8be ed86 683f
00000350: eed8 98bf fa28 d13e 1414 133f 595c 6f3f
00000360: 6bff 03bf 8505 2b3f 58e6 a5be 1123 84be
00000370: 58a3 79be e1b8 2a3f 7b82 19be 8ed5 8dbf
00000380: 01c4 44bf 38f4 46bf aeb4 6b3d cc56 15c0
00000390: 009c 90bf 66f2 ccbe f014 5e3c a0b4 10bd
000003a0: a9fb 4bbf d3ec 113e 4c06 543f 9e85 3b3e
000003b0: a0b7 a43f 2ad5 293f 29a3 983f c9b0 b03f
000003c0: a158 85be 008c 183f 0acb 4c3e 4a85 4fbe
000003d0: 4f09 cfbf 4f16 be3f ef1d ad3f 773f 943e
000003e0: a724 443f 77bb b33f 4e32 c13e 1934 403d
000003f0: 1775 c4bf 201f 8b3e 4417 933f 6388 c9bf

cdm._denoise_fn.transformer.mlp.0.weight f4 [256, 64]
-0.025865395 0.0004925245 0.016463729 -0.117685325 -0.016685091 -0.02761191 -0.0337947 0.09432845
-0.09569055 0.018558241 0.12394087 -0.08963086 0.038565036 0.14065155 0.10581628 0.074713744
-0.046430133 0.056691717 0.0013930312 0.10445751 -0.12206503 0.07403806 -0.0878115 -0.09728181
0.09018691 0.018531665 -0.11089357 -0.18213357 0.0028979594 -0.030313205 -0.08815747 -0.08322211
0.019088415 0.06362824 -0.09303529 -0.03120752 0.10111326 -0.112871915 0.08762057 0.008318674
0.028392758 -0.07909319 0.053594608 -0.021456305 -0.029112963 0.10291362 -0.23499602 0.09800421
0.07222264 0.014083939 -0.03253178 0.08545947 0.05994116 -0.10088364 -0.0755952 -0.08871402
-0.05684406 -0.043813225 -0.06340727 0.12729166 -0.1833461 0.11883583 0.04622267 -0.070199035
-0.10126335 -0.10602826 -0.012794172 0.07410631 -0.063316904 -0.046788186 -0.01714912 0.020400342
-0.032706175 0.010059324 -0.06931288 0.10089742 0.014864546 0.048951674 -0.029152708 -0.021243239
0.03557652 -0.056354355 0.00022369181 -0.07480105 -0.048652988 0.011914284 -0.12214836 0.03773263
0.016130703 -0.06607881 -0.033539407 -0.16657485 -0.024988301 -0.08575603 -0.052132227 -0.08300585
-0.0008847538 0.099081516 0.04004689 0.09257095 -0.10225696 0.055585414 0.081585355 0.054229595
-0.052004885 0.113901645 -0.04086755 0.045022454 -0.121575266 -0.090153076 -0.29760262 -0.077834554
-0.047668934 -0.10820281 -0.07270487 -0.056995224 0.045709033 0.07821161 0.042562842 -0.02999845
-0.070002735 0.059629016 -0.14769875 -0.07824415 -0.11552777 0.24329604 0.07469176 -0.27468485
0.137173 -0.05377237 -0.06613362 -0.09241523 0.0882359 0.08710619 0.100527145 0.04981352
-0.065156415 0.09024116 -0.03957604 -0.08884384 -0.061986763 0.05541226 -0.08986753 -0.114060484
0.101912394 -0.09480139 0.0470633 0.09333371 0.04261152 -0.011734987 0.03145092 0.109206386
-0.11289584 0.059094038 -0.100913264 -0.143768 0.025086071 0.05719245 -0.1655642 -0.061332222
-0.02045501 0.058316387 0.028413784 0.047292434 0.105409294 0.06099262 -0.03778256 0.027224226
0.072935306 0.072068505 -0.08237182 0.0059279506 0.06994524 0.05269952 -0.10317535 -0.012776567
0.035815306 -0.052134812 0.060019728 -0.07222641 -0.10749828 0.0054911985 0.009675418 0.06993227
-0.06603245 0.0351226 -0.14809458 0.049350824 0.035233676 -0.020606859 0.0026483003 -0.017547997
-0.02583183 0.022426216 -0.07305833 0.0390223 0.033321727 0.01313911 -0.066507205 -0.019164165
0.08641837 -0.11191674 0.035282586 -0.040521115 -0.049116194 -0.075155236 0.081893556 0.086970076
-0.090444684 0.094404705 0.064800605 0.025107894 0.10020607 0.023473106 0.0184194 0.090261534
-0.00729904 0.078789935 -0.009637388 0.11439733 0.027300349 -0.03795444 -0.02947099 -0.13005635
-0.0475864 0.02154658 -0.074182115 -0.064372934 0.04314878 0.052099567 -0.07215977 0.13106209
-0.054283444 -0.07220107 0.013309638 0.040056873 -0.071797006 0.043563604 0.052989565 0.042378265
-0.008807358 -0.10976553 -0.087908074 0.078136034 0.054560393 0.11060448 0.058490247 0.028783623
-0.05565733 0.047912113 0.067876205 -0.08538464 0.0070034605 -0.10041397 0.08951607 0.0057121413
00000000: aae3 d3bc c21c 013a f1de 863c 0105 f1bd
00000010: 2caf 88bc 5f32 e2bc 506c 0abd 462f c13d
00000020: 68f9 c3bd 7407 983c b6d4 fd3d 6290 b7bd
00000030: 5ff6 1d3d f606 103e 35b6 d83d 8503 993d
00000040: 862d 3ebd 9335 683d 5f96 b63a d2ed d53d
00000050: 3bfd f9bd 44a1 973d 84d6 b3bd b03b c7bd
00000060: eab3 b83d b8cf 973c 2b1c e3bd 3981 3abe
00000070: b1eb 3d3b 6653 f8bc e78b b4bd 5b70 aabd
00000080: 4f5f 9c3c 864f 823d 4989 bebd eaa6 ffbc
00000090: 7814 cf3d 6429 e7bd 6a72 b33d 0c4b 083c
000000a0: ee97 e83c 9cfb a1bd 0586 5b3d 22c5 afbc
000000b0: 4f7e eebc 60c4 d23d cca2 70be 6eb6 c83d
000000c0: 77e9 933d 52c0 663c 0b40 05bd 6005 af3d
000000d0: dd84 753d 159c cebd a8d1 9abd b2af b5bd
000000e0: 51d5 68bd 7f75 33bd acdb 81bd bf58 023e
000000f0: 14bf 3bbe 3360 f33d fb53 3d3d 83c4 8fbd
00000100: 2963 cfbd 5825 d9bd a69e 51bc 0dc5 973d
00000110: 4bac 81bd f8a4 3fbd 507c 8cbc 9e1e a73c
00000120: e9f6 05bd ddcf 243c e9f3 8dbd 4ea3 ce3d
00000130: 6d8a 733c 8d81 483d a9d1 eebc 4d06 aebc
00000140: afb8 113d d3d3 66bd d08e 6a39 4b31 99bd
00000150: 5b48 47bd 2134 433c eb28 fabd 888d 1a3d
00000160: 8924 843c 5454 87bd 9e60 09bd 9992 2abe
00000170: 44b4 ccbc dca0 afbd 9a88 55bd f9fe a9bd
00000180: d3ee 67ba 40eb ca3d 3508 243d d795 bd3d
00000190: 196c d1bd 88ad 633d 3916 a73d da1f 5e3d
000001a0: 1303 55bd 4445 e93d bb64 27bd 7769 383d
000001b0: 74fc f8bd 2da2 b8bd 5f5f 98be b967 9fbd
000001c0: 8040 43bd 6f99 ddbd 4ae6 94bd d373 69bd
000001d0: 6539 3b3d 692d a03d 6056 2e3d 4fbf f5bc
000001e0: 985d 8fbd 8e3d 743d 573e 17be 783e a0bd
000001f0: d399 ecbd 9922 793e fef7 983d 7ea3 8cbe
00000200: 1477 0c3e 6b40 5cbd 1071 87bd 3244 bdbd
00000210: 06b5 b43d bb64 b23d 2de1 cd3d 4309 4c3d
00000220: ba70 85bd 5bd0 b83d 7c1a 22bd c2f3 b5bd
00000230: d5e5 7dbd f7f7 623d 780c b8bd 8b98 e9bd
00000240: 72b7 d03d 3b27 c2bd 72c5 403d bf25 bf3d
00000250: 6b89 2e3d 1a44 40bc aed2 003d 99a7 df3d
00000260: ef35 e7bd 970c 723d 9dab cebd eb37 13be
00000270: 4e81 cd3c a142 6a3d a989 29be 7f37 7bbd
00000280: 4491 a7bc 2add 6e3d 06c4 e83c b6b5 413d
00000290: d4e0 d73d 66d3 793d e3c1 1abd 5705 df3c
000002a0: 1b5f 953d a798 933d 8fb2 a8bd 413f c23b
000002b0: 733f 8f3d 74db 573d 994d d3bd ce54 51bc
000002c0: 12b3 123d 508b 55bd 3fd7 753d 71eb 93bd
000002d0: 0f28 dcbd 83ef b33b a585 1e3c a638 8f3d
000002e0: 053c 87bd b7dc 0f3d 1ba6 17be 1724 4a3d
000002f0: 3051 103d b7cf a8bc 1b8f 2d3b d1c0 8fbc
00000300: 469d d3bc 2fb7 b73c 9b9f 95bd d9d5 1f3d
00000310: 5d7c 083d 6c45 573c ee34 88bd 2bfe 9cbc
00000320: 1dfc b03d 9b34 e5bd 7984 103d 78f9 25bd
00000330: 102e 49bd fdea 99bd cfb7 a73d 5e1d b23d
00000340: 103b b9bd 4157 c13d 2eb6 843d 12af cd3c
00000350: d738 cd3d ac4a c03c 48e4 963c 0adb b83d
00000360: c92c efbb 9e5c a13d 23e6 1dbc 2649 ea3d
00000370: fba4 df3c 1d76 1bbd 256d f1bc 7e2d 05be
00000380: f5e9 42bd 7482 b03c cbec 97bd f5d5 83bd
00000390: c6bc 303d 5b66 553d 80c8 93bd 2435 063e
000003a0: 5158 5ebd 28de 93bd ab10 5a3c ad12 243d
000003b0: 4f0a 93bd c06f 323d 960b 593d d594 2d3d
000003c0: bd4c 10bc c0cc e0bd 2609 b4bd c905 a03d
000003d0: b87a 5f3d 9a84 e23d 7893 6f3d a2cb eb3c
000003e0: f1f8 63bd 7e3f 443d ae02 8b3d 24de aebd
000003f0: 497d e53b d7a5 cdbd 3454 b73d ea2c bb3b

cdm._denoise_fn.transformer.mlp.0.bias f4 [256]
0.08232657 -0.039449044 0.028934743 -0.07605366 -0.04397136 -0.065047935 0.043651722 0.012165761
-0.111896135 0.0915498 -0.06919739 -0.020434959 -0.12907185 -0.09471548 -0.0100520365 -0.11849501
-0.1399441 -0.011843373 -0.00042211585 -0.056959365 -0.09476153 0.0840646 0.05675875 0.10939136
0.07999027 0.01659783 -0.1117903 -0.10655729 0.085930295 0.008077282 -0.09484561 0.0383249
-0.08250157 -0.09755873 -0.09841309 0.05040803 -0.07384185 0.029162565 0.09210232 0.01355674
0.07198835 -0.13862117 -0.11829048 -0.103009395 0.0031431029 -0.048156276 0.0074970378 0.066081196
-0.11954877 0.07785899 0.008517789 -0.07551628 0.033990636 -0.030512499 -0.066995144 -0.007622937
-0.0051273988 -0.0394338 -0.09094244 -0.013872185 0.01712573 0.00373561 0.10496287 -0.115939096
-0.074772045 -0.10763246 0.05618015 -0.13066612 0.104422435 0.06741987 -0.101180926 -0.06409566
-0.14262982 0.034699563 0.008630306 -0.08021762 0.018532537 -0.035375338 0.006533072 -0.095251195
-0.10721358 -0.011019339 0.08499121 -0.0871665 0.010456674 -0.011217071 0.043118346 0.06972509
-0.018412191 -0.013051607 -0.0317579 0.06953824 0.101167634 0.08425688 0.10526651 0.06579178
-0.1247589 -0.041570626 -0.13066535 0.093606964 0.015429346 -0.038279142 -0.003613166 0.054223366
0.014739836 0.051666427 -0.075949736 -0.046760153 0.026553886 0.005278295 -0.1506775 -0.014839809
0.095150866 -0.037030052 -0.043479245 -0.09675615 -7.044503e-05 -0.014896537 -0.07579242 0.09788333
0.031221941 0.008101448 -0.12732229 0.04774951 0.0068413317 -0.1252038 0.04676608 0.031393964
0.0071780365 -0.09343642 -0.14320615 0.08538566 0.010643434 0.10131574 0.025522925 0.04424421
-0.11283784 0.077014804 -0.10997004 0.003353104 0.024011249 0.016018197 -0.107567005 -0.10768834
0.064049914 0.06984571 -0.08929939 -0.11556753 -0.043640893 -0.1154879 0.04362459 0.0979988
-0.068002276 -0.012334707 -0.04919892 0.06353532 -0.013215521 -0.15046611 -0.098325446 -0.0818358
-0.1222158 -0.081574984 -0.076653875 -0.09716978 -0.080030754 -0.050272737 -0.041454647 -0.04379947
-0.020703265 -0.010050709 -0.0965961 0.04365644 0.014629126 -0.041770432 0.06671945 0.03954945
-0.045973226 0.018684793 -0.06080799 0.039361317 0.013649131 -0.099884205 -0.031572256 -0.12768985
0.08454976 -0.023660757 -0.12597303 0.035500467 0.0968456 -0.109750465 -0.04588756 0.064315915
0.060115088 0.03810524 -0.09181147 -0.11825456 -0.048211608 0.039009437 0.02968904 -0.07067479
0.015318066 0.10764696 -0.008899811 -0.042871974 -0.015701529 -0.072335176 -0.08969877 -0.02851763
0.037081733 -0.097837634 -0.14257571 0.03629502 -0.12757146 0.04934255 0.10901124 0.022819452
-0.07428607 0.115570866 -0.020378413 -0.06712397 0.06232181 -0.054673 -0.047498684 -0.074369766
-0.12616678 -0.07275551 -0.02720722 -0.043514803 0.033488277 0.005645301 0.07766954 -0.09215857
0.03445094 0.019853719 0.112497754 -0.0800408 0.10978363 0.07280012 -0.021680674 -0.07876637
0.07753854 -0.11310804 0.076775715 0.08082673 -0.030163193 -0.0123606855 -0.03374061 0.050972298
-0.08412559 -0.06392475 -0.017026959 0.034031365 0.012796203 0.0076805213 0.10311206 0.07723637
00000000: d59a a83d 5295 21bd 8e08 ed3c 05c2 9bbd
00000010: 501b 34bd da37 85bd 26cc 323d e652 473c
00000020: cd29 e5bd 767e bb3d 5cb7 8dbd 3767 a7bc
00000030: 692b 04be 31fa c1bd 4cb1 24bc 83ad f2bd
00000040: 824d 0fbe b50a 42bc 6e4f ddb9 394e 69bd
00000050: 5512 c2bd 102a ac3d dd7b 683d 9408 e03d
00000060: f0d1 a33d 2cf8 873c 50f2 e4bd b53a dabd
00000070: 39fc af3d 9456 043c 6a3e c2bd 92fa 1c3d
00000080: 95f6 a8bd dfcc c7bd cd8c c9bd a778 4e3d
00000090: 653a 97bd 55e6 ee3c 24a0 bc3d 171d 5e3c
000000a0: a16e 933d b5f2 0dbe 4742 f2bd 97f6 d2bd
000000b0: 84fc 4d3b 843f 45bd b6a9 f53b 9455 873d
000000c0: fcd5 f4bd 8974 9f3d 328e 0b3c 48a8 9abd
000000d0: c439 0b3d 59f5 f9bc c034 89bd d5c9 f9bb
000000e0: bd03 a8bb 5685 21bd 0840 babd 2948 63bc
000000f0: 424b 8c3c 23d1 743b c6f6 d63d 7a71 edbd
00000100: 1622 99bd 686e dcbd 281d 663d 57cd 05be
00000110: 6edb d53d 6e13 8a3d f237 cfbd 9644 83bd
00000120: 8d0d 12be 2121 0e3d 2166 0d3c 2349 a4bd
00000130: 8cd1 973c bbe5 10bd 6113 d63b 0f13 c3bd
00000140: cb92 dbbd 758a 34bc df0f ae3d 5a84 b2bd
00000150: 7852 2b3c cec7 37bc dd9c 303d 07cc 8e3d
00000160: 2ad5 96bc 68d6 55bc 9214 02bd 116a 8e3d
00000170: fa30 cf3d df8e ac3d f895 d73d d7bd 863d
00000180: 9881 ffbd f645 2abd 23cd 05be 02b5 bf3d
00000190: 5ecb 7c3c 97ca 1cbd deca 6cbb 5219 5e3d
000001a0: 5a7f 713c 2da0 533d 898b 9bbd 9387 3fbd
000001b0: 8987 d93c 8cf5 ac3b 344b 1abe ac22 73bc
000001c0: 75de c23d d3ac 17bd 4b17 32bd 1728 c6bd
000001d0: e3bb 93b8 9b10 74bc 0e39 9bbd 0e77 c83d
000001e0: 28c5 ff3c f0bb 043c c660 02be fd94 433d
000001f0: 402d e03b 6d35 00be ca8d 3f3d f596 003d
00000200: bc35 eb3b 985b bfbd a2a4 12be adde ae3d
00000210: cc61 2e3c a07e cf3d 7415 d13c 6b39 353d
00000220: 8717 e7bd f0b9 9d3d f937 e1bd c0bf 5b3b
00000230: 3db3 c43c 9838 833c 174c dcbd b48b dcbd
00000240: 9a2c 833d 450b 8f3d 99e2 b6bd abae ecbd
00000250: cbc0 32bd ec84 ecbd b3af 323d 98b3 c83d
00000260: c744 8bbd 8317 4abc cf84 49bd ce1e 823d
00000270: ea85 58bc ca13 1abe da5e c9bd 8799 a7bd
00000280: 474c fabd c910 a7bd b5fc 9cbd f300 c7bd
00000290: 2ae7 a3bd c9ea 4dbd 59cc 29bd 1367 33bd
000002a0: e599 a9bc bbab 24bc 2dd4 c5bd 18d1 323d
000002b0: 00af 6f3c 7917 2bbd 35a4 883d 9bfe 213d
000002c0: 6c4e 3cbd da10 993c cd11 79bd 5539 213d
000002d0: 9ba0 5f3c 1790 ccbd e951 01bd 21c1 02be
000002e0: 6d28 ad3d 34d4 c1bc 13ff 00be f068 113d
000002f0: fc56 c63d dac4 e0bd 98f4 3bbd 10b8 833d
00000300: 3d3b 763d 3d14 1c3d a707 bcbd 722f f2bd
00000310: 8979 45bd 5cc8 1f3d 6e36 f33c f2bd 90bd
00000320: a0f8 7a3c 0276 dc3d 83d0 11bc 869a 2fbd
00000330: 7ea0 80bc 7724 94bd fdb3 b7bd ce9d e9bc
00000340: 04e3 173d 195f c8bd 5eff 11be 16aa 143d
00000350: 18a2 02be 6a1b 4a3d 4941 df3d dcef ba3c
00000360: 4c23 98bd 6bb0 ec3d a1f0 a6bc 4b78 89bd
00000370: 2745 7f3d ccf0 5fbd fb8d 42bd 2d4f 98bd
00000380: dd31 01be d700 95bd ade1 debc 943c 32bd
00000390: 012b 093d 38fc b83b 3511 9f3d a2bd bcbd
000003a0: 6e1c 0d3d 44a4 a23c 3965 e63d 6eec a3bd
000003b0: 3dd6 e03d 3b18 953d ab9b b1bc 4350 a1bd
000003c0: 87cc 9e3d 30a5 e7bd 963c 9d3d 7c88 a53d
000003d0: cd18 f7bc 7984 4abc 9833 0abd 54c8 503d
000003e0: 0a4a acbd fbea 82bd 1f7c 8bbc 7964 0b3d
000003f0: 2aa7 513c e2ac fb3b 6a2c d33d 1a2e 9e3d

cdm._denoise_fn.transformer.mlp.2.weight f4 [128, 256]
-0.008819834 0.014190374 0.040643048 0.055798974 -0.019129822 -0.0050671343 0.050147586 -0.04371775
0.050081104 0.042422563 -0.028858326 0.05572369 0.058205787 -0.050413318 0.012417999 0.011672412
-0.04142477 0.06425902 -0.038160305 -0.023562096 0.054836437 0.060380735 0.03840515 0.0018749395
-0.0067044105 0.008404195 -0.047458705 -0.062166415 -0.0062633753 -0.041458473 0.0400322 0.033032417
-0.04312659 -0.015436334 -0.04996167 -0.019443532 -0.044109616 0.03566237 0.042964656 0.00045240656
-0.03428711 0.02022222 0.043553974 0.044045493 -0.00039821933 -0.028349377 0.048053876 -0.0057991846
-0.013877249 -0.027553476 -0.05598181 0.015129648 -0.036704876 -0.030533247 -0.027784735 0.042887975
-0.02303314 -0.05939996 -0.031334825 0.051886626 -0.027373431 -0.049727708 -0.0015586958 -0.035815444
0.029531863 -0.017826283 0.031537008 0.06043106 -0.026426565 0.02156723 -0.060078423 0.041844565
-0.006495098 0.034366228 -0.005694196 -0.040858347 0.030782143 0.009594683 0.054527923 0.045542963
0.061097436 -0.018885814 0.050801426 0.0074098706 -0.022897238 0.027379105 0.041006386 0.0009744029
-0.05780926 -0.024509868 0.013955624 0.053429272 0.045558058 -0.016891966 0.0038887123 -0.026654437
-0.019888079 -0.015476929 -0.0030170633 0.012275451 0.00021907312 0.01712332 -0.021167265 -0.036497552
-0.0630503 -0.016663626 0.037959393 0.040573366 -0.033095896 0.003780053 0.031464662 -0.0074291145
-0.023846267 0.025076263 -0.0405913 -0.043047458 0.04876201 0.007548061 0.018983096 -0.04940214
0.039700817 0.004967338 0.013615254 0.023480836 -0.057316326 -0.010487904 0.024643801 0.017850684
0.023442267 0.003215052 0.051571134 -0.044586226 -0.05643706 0.03935528 -0.05080005 0.039167613
-0.0026991037 0.036460273 -0.025660107 0.031416588 0.048103955 0.00943775 0.052532703 0.058953118
0.044097655 -0.00467833 0.0024578304 -0.050265033 -0.06139468 -0.059130974 -0.00058919785 -0.028818175
0.023161622 0.050867617 0.020134825 0.045835342 0.058099516 0.032619394 -0.056353267 0.028830154
0.049473066 -0.04517559 -0.008559961 0.011180801 0.044524174 -0.024128571 -0.049174994 -0.0013870914
-0.049530078 0.012205089 -0.051145542 0.031040622 0.01980841 0.019353233 0.030858116 -0.031670313
0.039424695 0.0072634355 -0.0254869 0.0022813997 0.048041787 0.036839094 -0.013797923 -0.045661476
-0.038163673 -0.011943105 -0.01255399 0.053187992 0.01184498 -0.045908317 0.037596192 -0.014667566
0.048603214 0.012553631 0.05948631 0.017702265 0.039122075 0.016531607 -0.021081489 -0.014087382
0.026289713 0.017732868 0.04599392 0.052023005 -0.017284328 0.011627428 0.00022900116 0.02056735
0.061540306 0.03067675 0.039356843 0.034949534 -0.05117289 -0.008552291 -0.017529042 -0.037313566
0.0031705177 -0.02723703 -0.050382674 -0.021178769 -0.040842827 -0.042064264 0.05911591 0.0056286687
0.020469323 0.01934916 -0.046432834 -0.057631593 0.05120086 -0.05161181 -0.032037143 0.027569488
-0.004644908 0.0008731327 -0.02334999 0.028724406 0.014429493 0.007270281 -0.0078746425 -0.0075291386
-0.0141989365 0.05752345 -0.02030503 -0.029174201 -0.024891332 0.019333342 -0.0542006 0.050417736
-0.030245842 -0.019445956 0.05601634 -0.008982889 -0.012182663 0.03447964 0.01146544 0.029014803
00000000: 1181 10bc be7e 683c 5379 263d 778d 643d
00000010: 25b6 9cbc 340a a6bb 8e67 4d3d 6211 33bd
00000020: d821 4d3d 48c3 2d3d 4c68 ecbc 863e 643d
00000030: 3169 6e3d 327e 4ebd dd74 4b3c a53d 3f3c
00000040: 05ad 29bd 3c9a 833d fb4d 1cbd 4c05 c1bc
00000050: 2c9c 603d ca51 773d b84e 1d3d 88c0 f53a
00000060: acb0 dbbb c0b1 093c 0f64 42bd 36a2 7ebd
00000070: 003d cdbb 5cd0 29bd cef8 233d 004d 073d
00000080: 82a5 30bd ade8 7cbc 9ca4 4cbd 0b48 9fbc
00000090: 49ac 34bd b512 123d b5fb 2f3d fb30 ed39
000000a0: a470 0cbd 12a9 a53c a765 323d 0c69 343d
000000b0: 18c8 d0b9 f43c e8bc 24d4 443d 1607 bebb
000000c0: 675d 63bc d4b7 e1bc 2f4d 65bd 58e2 773c
000000d0: da57 16bd dc20 fabc d09c e3bc 4dab 2f3d
000000e0: ffaf bcbc 5f4d 73bd f258 00bd 1287 543d
000000f0: 3f3e e0bc 48af 4bbd 274d ccba 37b3 12bd
00000100: ceec f13c 6d08 92bc f32c 013d 8f86 773d
00000110: 867c d8bc c2ad b03c cb14 76bd 3565 2b3d
00000120: d5d4 d4bb 9ac3 0c3d 6196 babb 155b 27bd
00000130: d52a fc3c 0433 1d3c ac58 5f3d 428b 3a3d
00000140: 4e41 7a3d 6cb6 9abc 2815 503d 80ce f23b
00000150: fd92 bbbc 254a e03c 50f6 273d 126f 7f3a
00000160: 67c9 6cbd ebc8 c8bc 21a6 643c a7d8 5a3d
00000170: 169b 3a3d 0561 8abc c4d9 7e3b 685a dabc
00000180: 53ec a2bc f292 7dbc ecb9 45bb f91e 493c
00000190: feb6 6539 3446 8c3c f966 adbc 757e 15bd
000001a0: 8420 81bd 2882 88bc 4f7b 1b3d 4230 263d
000001b0: 908f 07bd c4ba 773b 17e1 003d ee6f f3bb
000001c0: 3f59 c3bc bc6c cd3c 1043 26bd 8852 30bd
000001d0: acba 473d ba55 f73b 7082 9b3c e659 4abd
000001e0: 539d 223d 0dc5 a23b 8412 5f3c e25a c03c
000001f0: 86c4 6abd 75d5 2bbc cce1 c93c 993b 923c
00000200: ff09 c03c 9fb3 523b 413c 533d 0ca0 36bd
00000210: 8c2a 67bd 0133 213d b713 50bd 386e 203d
00000220: 72e3 30bb 5e57 153d 2535 d2bc aeae 003d
00000230: a708 453d cba0 1a3c 882c 573d d378 713d
00000240: be9f 343d ad4c 99bb 8d13 213b b5e2 4dbd
00000250: fd78 7bbd 5233 72bd 6674 1aba 1814 ecbc
00000260: 71bd bd3c 905a 503d caf1 a43c d7bd 3b3d
00000270: c2f9 6d3d ea9b 053d afd2 66bd 372d ec3c
00000280: 45a4 4a3d 0a0a 39bd 143f 0cbc ae2f 373c
00000290: fb5e 363d 48a9 c5bc b86b 49bd 10cf b5ba
000002a0: 0de0 4abd dbf7 473c fd7d 51bd e748 fe3c
000002b0: 3f45 a23c ac8a 9e3c 29ca fc3c bbb8 01bd
000002c0: ca7b 213d 1d02 ee3b e7c9 d0bc 8983 153b
000002d0: 77c7 443d 97e4 163d af10 62bc 8707 3bbd
000002e0: 8351 1cbd 03ad 43bc 40af 4dbc a7db 593d
000002f0: 7211 423c 5c0a 3cbd 77fe 193d 3b50 70bc
00000300: 2a14 473d bfad 4d3c eba7 733d 5704 913c
00000310: 783e 203d 4b6d 873c 16b3 acbc c3ce 66bc
00000320: 865d d73c 8544 913c 1f64 3c3d 1316 553d
00000330: dd97 8dbc f880 3e3c 0820 7039 dc7c a83c
00000340: b011 7c3d cf4d fb3c a434 213d 3e27 0f3d
00000350: aa9a 51bd e91e 0cbc 1199 8fbc 1cd6 18bd
00000360: 76c8 4f3b 3120 dfbc 105e 4ebd 197f adbc
00000370: cf4a 27bd 944b 2cbd 8623 723d b270 b83b
00000380: 48af a73c 2182 9e3c 5b30 3ebd 1b0f 6cbd
00000390: feb7 513d e866 53bd 6139 03bd 68d9 e13c
000003a0: 5034 98bb f2e2 643a 7a48 bfbc 724f eb3c
000003b0: ae69 6c3c 8a3b ee3b a504 01bc feb6 f6bb
000003c0: a8a2 68bc b69d 6b3d bc56 a6bc bcfe eebc
000003d0: e8e8 cbbc f560 9e3c 7301 5ebd d482 4e3d
000003e0: 21c6 f7bc 204d 9fbc 6471 653d f82c 13bc
000003f0: cb99 47bc 863a 0d3d 8ad9 3b3c 74b0 ed3c

cdm._denoise_fn.transformer.mlp.2.bias f4 [128]
-0.04820428 -0.006285848 -0.043839104 -0.040383026 -0.06748958 -0.02788408 -0.053462327 0.034559287
-0.010407611 0.05267178 0.06880738 -0.058135096 0.034735937 -0.009095985 0.038887348 0.05920357
0.011378434 -0.013832622 0.051998857 0.017927002 0.056267343 -0.040061075 0.035986397 -0.006054578
-0.046861213 0.035110336 0.025351362 -0.018552 0.00073260814 0.06399794 0.030466408 0.019526813
0.06361888 -0.004526884 0.026004015 -0.007709595 0.014251326 0.021106476 -0.00065085985 0.0031164493
-0.03819953 0.04515844 0.007895355 -0.021765143 0.010417364 0.014610513 -0.00971678 0.002564528
0.04360725 -0.044007037 0.016169326 -0.0025131775 -0.052816864 0.049913086 0.0043502515 -0.037162524
0.03005143 0.026952276 -0.010000325 0.0028260378 -0.040659398 -0.037424427 -0.045781087 0.032264076
-0.04801767 -0.03627566 -0.038600706 0.008948022 -0.011716425 -0.029567918 0.028587332 -0.014578825
0.042427085 0.02382191 -0.0019313456 0.024624135 0.01327154 -0.03523263 0.05426817 0.0334344
-0.046468936 0.024028646 0.0269165 0.017985279 -0.01411274 -0.06001166 -0.025994986 -0.055819087
-0.040593088 0.056905583 -0.03523384 0.041477695 -0.015397722 0.05113204 0.021354156 0.027627446
0.0023551509 0.0080931615 -0.026217623 0.044334896 -0.016645899 -0.05395304 0.023416322 -0.051375654
-0.058293365 -0.054889966 -0.010164888 0.011112954 -0.054014295 -0.030681094 -0.03776498 0.018346304
0.05716983 -0.0088023525 0.011034319 0.0072738673 0.05549956 -0.015666507 -0.06444334 0.009668269
0.06768278 -0.021379795 -0.005234875 -0.009565024 0.013329557 0.0012687219 -0.02683945 -0.054898333
00000000: da71 45bd 84f9 cdbb a290 33bd ac68 25bd
00000010: fa37 8abd 276d e4bc 50fb 5abd 0a8e 0d3d
00000020: af84 2abc 5dbe 573d e2ea 8c3d 111f 6ebd
00000030: 4547 0e3d 5407 15bc 5748 1f3d 717f 723d
00000040: 9c6c 3a3c 39a2 62bc c1fc 543d a6db 923c
00000050: 9678 663d 1517 24bd 7966 133d 7b65 c6bb
00000060: 8bf1 3fbd dbcf 0f3d a9ad cf3c 5dfa 97bc
00000070: 800c 403a 5a11 833d b094 f93c b2f6 9f3c
00000080: 9e4a 823d 4156 94bb 5f06 d53c c5a0 fcbb
00000090: 657e 693c 7de7 ac3c 779e 2aba 583d 4c3b
000000a0: 1c77 1cbd 0ef8 383d 855b 013c d04c b2bc
000000b0: 97ad 2a3c ef60 6f3c 2133 1fbc a411 283b
000000c0: 849d 323d b940 34bd 8975 843c 1fb4 24bb
000000d0: 7f56 58bd aa71 4c3d 8e8c 8e3b bb37 18bd
000000e0: 6b2e f63c 05cb dc3c 67d8 23bc 0c35 393b
000000f0: 788a 26bd 5b4a 19bd f384 3bbd 5627 043d
00000100: 2dae 44bd c995 14bd c61b 1ebd b99a 123c
00000110: 40f6 3fbc 6b38 f2bc fb2f ea3c 06dc 6ebc
00000120: 06c8 2d3d 2b26 c33c 3425 fdba 8eb8 c93c
00000130: e070 593c 1750 10bd 4d48 5e3d 82f2 083d
00000140: 3656 3ebd b9d7 c43c fe7f dc3c dd55 933c
00000150: 1f39 67bc c9ce 75bd 70f3 d4bc 8ea2 64bd
00000160: f044 26bd d415 693d 5c51 10bd 84e4 293d
00000170: ba46 7cbc d46f 513d e9ee ae3c f452 e23c
00000180: e058 1a3b 2e99 043c 57c6 d6bc 8298 353d
00000190: fb5c 88bc ddfd 5cbd 96d3 bf3c 476f 52bd
000001a0: 06c5 6ebd 4dd4 60bd a18a 26bc 1b13 363c
000001b0: 183e 5dbd eb56 fbbc 74af 1abd fd4a 963c
000001c0: e92a 6a3d be37 10bc 4ac9 343c 9f59 ee3b
000001d0: 8253 633d 0c57 80bc dffa 83bd a967 1e3c
000001e0: 459d 8a3d ae24 afbc 5089 abbb 9eb6 1cbc
000001f0: 3764 5a3c 3e4b a63a 68de dbbc 13dd 60bd

cdm._denoise_fn.transformer.axial_pos_emb.weights_0 f4 [1, 1, 1, 64]
0.73344386 -0.72414607 1.3227872 1.6211567 0.73640794 -0.67891914 0.6942969 -0.6948112
-0.22007726 0.5019145 -0.5094049 -0.60591376 1.5980136 -0.24865724 -1.8056151 0.6458741
0.43940884 0.50259036 1.3455186 0.96103656 0.19074476 -0.42577496 -0.16181323 0.3736811
-0.8243429 -0.56502885 -0.55490327 0.574258 0.9993303 0.042965434 1.162578 1.8444912
0.17235431 0.09792471 0.47681007 -0.39524665 1.1264156 -1.2020406 -2.280374 -0.77759767
2.1889913 0.33445176 1.2065022 0.8988922 -1.9448247 0.34466553 -0.6475431 2.3928535
0.8139 0.58191663 1.6836691 0.27563205 -0.8841362 -0.7878355 0.33023527 1.3444734
0.12919964 -0.8300697 0.09707261 0.94735795 -1.1774096 0.7646082 -1.1051283 1.1877875
00000000: fac2 3b3f a361 39bf 1751 a93f 1082 cf3f
00000010: 3b85 3c3f a5cd 2dbf 71bd 313f 26df 31bf
00000020: ef5b 61be 787d 003f 5c68 02bf 2a1d 1bbf
00000030: b68b cc3f 01a0 7ebe 651e e7bf 0158 253f
00000040: 32fa e03e c3a9 003f f439 ac3f 7e06 763f
00000050: 9852 433e 2dff d9be 5eb2 25be 2153 bf3e
00000060: 2308 53bf bba5 10bf 240e 0ebf 9302 133f
00000070: 1cd4 7f3f 86fc 2f3d 5bcf 943f 4a18 ec3f
00000080: a67d 303e c08c c83d 7320 f43e c55d cabe
00000090: 632e 903f 77dc 99bf a6f1 11c0 a410 47bf
000000a0: 6f18 0c40 433d ab3e aa6e 9a3f cd1d 663f
000000b0: 04f0 f8bf 0078 b03e 62c5 25bf 8324 1940
000000c0: c05b 503f 7df8 143f 7882 d73f a51f 8d3e
000000d0: c056 62bf 96af 49bf 9914 a93e b417 ac3f
000000e0: e94c 043e 737f 54bf 01ce c63d 0d86 723f
000000f0: 5cb5 96bf 5dbd 433f d874 8dbf 6c09 983f

cdm._denoise_fn.transformer.axial_pos_emb.weights_1 f4 [1, 1, 6, 64]
-1.3734796 0.27458912 -0.2719714 0.0076403744 0.7067548 2.0238981 0.14573665 0.7266457
0.43251678 -0.5044072 0.37569657 1.0624715 -2.6135197 0.27666777 -0.41882432 0.9394975
0.7700829 0.42978698 0.0126608685 0.046435338 0.27355382 0.38279822 -2.4798534 -0.62561196
0.25178537 1.0088108 -0.43226063 -0.6689534 0.24185176 -0.49253118 -0.0044047553 -0.3344072
1.0712649 -1.3513432 -0.30451518 0.8690988 1.6352695 0.267419 -0.9278137 0.73010457
-0.24858373 -0.6416201 0.41608974 0.39597672 1.5032469 0.19165407 -0.2211649 -0.08133904
0.96625376 -0.01704258 0.6194965 -1.0381281 0.26449603 0.34754568 -0.55816144 1.6341848
0.16635881 1.06181 -0.42799833 -0.0490139 -0.11516952 -1.316958 -0.20841232 -1.0954512
-0.9800804 2.2203257 -0.30873123 -0.057197038 0.38245127 -1.0406071 0.024546381 -0.7229655
-0.82871383 0.4012865 0.53034943 0.2931283 1.1686925 -0.045197822 -0.86011994 1.3922299
-0.86776626 0.18560512 -0.06332861 -0.27246118 0.8899431 -1.6675553 0.37847808 1.3506932
2.1306453 0.37375376 2.0944026 0.22853632 -1.3328147 -0.123607166 0.42872357 0.13190193
-0.13996954 -0.052697722 0.25717095 -0.35390627 1.9088421 -0.38981497 0.036921892 0.56612414
1.4869108 1.460004 -1.5932095 0.51189524 -0.6716665 -0.0028968772 -0.22424155 0.34598884
1.305695 0.49610627 0.03742298 0.12945625 1.2896403 -0.27553314 0.9901751 0.67335385
0.6992405 -0.67891544 1.0260297 -0.0010966018 1.0396473 -0.043656394 -1.5127954 1.2074543
0.03121166 0.94563437 -1.4302932 1.6580967 0.46335694 0.31427768 0.36123416 -0.7302142
1.621365 1.0041887 0.22223012 -0.41536728 -0.005000204 -1.7035923 0.3886853 0.65402436
0.8437482 -1.3755294 -0.5206386 0.3816841 0.70819217 -0.69067365 -0.0733267 -0.7243073
-0.69256294 0.83865684 -0.78461146 1.4765835 0.21448393 -0.092606135 -0.62224126 0.7963754
1.9916745 -0.6676829 1.3063134 -1.30739 1.1760386 0.21577607 0.5442491 -0.4896943
0.7561298 1.0105402 -0.44098142 1.6713191 -1.310918 0.33754447 0.68667847 -0.9278422
-1.4428434 0.9486488 0.42128092 -0.51125485 -0.8865101 0.2606841 -1.1047525 0.71271795
-1.1056165 -0.3340666 -0.1467266 0.82754505 1.0036329 0.09375238 -0.20935887 0.13804847
-1.1498915 0.26723602 0.7986189 -0.36553428 -0.89832515 -0.83754736 0.6921076 1.5985093
-0.13678378 -1.9416027 -0.32493424 0.80705595 -0.31464523 0.15884827 -0.9513464 1.1702516
-0.08222742 -0.49479803 -0.06624443 -0.5748023 -0.07190557 1.0394301 -1.4189668 1.2260728
0.5093868 1.0010517 -0.35926428 0.662913 0.1906837 0.33896834 1.4458685 0.896249
-0.91895014 0.20262378 -1.2974213 0.03755839 -1.0099119 -1.1211985 1.053341 0.5009901
0.3106381 0.7691276 1.4861165 -0.79792583 0.0019571052 0.16931972 0.26609063 -0.09343095
-0.015907988 -0.35696262 1.4893634 1.0038884 0.6641064 0.53170276 -0.18578888 0.6325291
0.8962983 -0.052132126 0.3257866 1.2356653 -0.4586359 -0.38612866 -1.4528297 0.8681892
00000000: 2ece afbf f296 8c3e d63f 8bbe 1b5c fa3b
00000010: e2ed 343f 8c87 0140 fd3b 153e 7405 3a3f
00000020: d772 dd3e d520 01bf 4d5b c03e 11ff 873f
00000030: e843 27c0 66a7 8d3e 2470 d6be e882 703f
00000040: 2724 453f 0a0d dc3e 886f 4f3c fb32 3e3d
00000050: 3f0f 8c3e 21fe c33e ebb5 1ec0 1b28 20bf
00000060: 03ea 803e b620 813f 4451 ddbe 8840 2bbf
00000070: fda7 773e 0c2d fcbe c455 90bb 6c37 abbe
00000080: 351f 893f d0f8 acbf 6ae9 9bbe 427d 5e3f
00000090: 8350 d13f 25eb 883e 3385 6dbf 22e8 3a3f
000000a0: bc8c 7ebe 3741 24bf b709 d53e 76bd ca3e
000000b0: 656a c03f f740 443e 0d79 62be 1595 a6bd
000000c0: 685c 773f e19c 8bbc 5397 1e3f 62e1 84bf
000000d0: 066c 873e 82f1 b13e abe3 0ebf f82c d13f
000000e0: f759 2a3e 64e9 873f 9922 dbbe cdc2 48bd
000000f0: ffdd ebbd 1492 a8bf 0a6a 55be bf37 8cbf
00000100: 8de6 7abf d119 0e40 0512 9ebe 7147 6abd
00000110: a7d0 c33e 9d32 85bf 7e15 c93c 4414 39bf
00000120: 9726 54bf 6d75 cd3e fbc4 073f ea14 963e
00000130: b797 953f 5a21 39bd d230 5cbf 9734 b23f
00000140: ee25 5ebf 450f 3e3e 6eb2 81bd 0880 8bbe
00000150: 50d3 633f 7472 d5bf e1c7 c13e 84e3 ac3f
00000160: 7e5c 0840 a75c bf3e b10a 0640 6d05 6a3e
00000170: ac99 aabf c125 fdbd a881 db3e 4d11 073e
00000180: 2d54 0fbe 91d9 57bd e9ab 833e 3433 b5be
00000190: f054 f43f d495 c7be 693b 173d 83ed 103f
000001a0: 1853 be3f 69e1 ba3f 4aee cbbf 910b 033f
000001b0: 56f2 2bbf 89d9 3dbb 949f 65be 7325 b13e
000001c0: 0421 a73f a401 fe3e d748 193d 2e90 043e
000001d0: ef12 a53f ae12 8dbe 1e7c 7d3f eb60 2c3f
000001e0: 6d01 333f 67cd 2dbf f154 833f dabb 8fba
000001f0: 2a13 853f 0cd1 32bd 48a3 c1bf dd8d 9a3f
00000200: 98af ff3c 1815 723f d913 b7bf 833c d43f
00000210: 1f3d ed3e 01e9 a03e aff3 b83e 51ef 3abf
00000220: e388 cf3f 4189 803f 4b90 633e 05ab d4be
00000230: c0d8 a3bb 500f dabf c201 c73e 246e 273f
00000240: e2ff 573f 5911 b0bf 9248 05bf 196c c33e
00000250: 154c 353f fdcf 30bf 4f2c 96bd 346c 39bf
00000260: ce4b 31bf 37b2 563f 4cdc 48bf b000 bd3f
00000270: ada1 5b3e 49a8 bdbd 344b 1fbf 42df 4b3f
00000280: 31ef fe3f 44ed 2abf 4735 a73f 8e58 a7bf
00000290: 6f88 963f 67f4 5c3e e953 0b3f 36b9 fabe
000002a0: b991 413f 6259 813f 51c8 e1be c9ed d53f
000002b0: 29cc a7bf a1d2 ac3e 29ca 2f3f 1187 6dbf
000002c0: 18af b8bf a6da 723f 22b2 d73e 99e1 02bf
000002d0: 53f2 62bf 6378 853e 8868 8dbf af74 363f
000002e0: d784 8dbf c70a abbe 7f3f 16be fed9 533f
000002f0: 0b77 803f 3f01 c03d 2c62 56be 945c 0d3e
00000300: a52f 93bf 29d3 883e 4a72 4c3f 4f27 bbbe
00000310: a3f8 65bf 8169 56bf f72d 313f f49b cc3f
00000320: 0c11 0cbe 7086 f8bf c85d a6be 389b 4e3f
00000330: 2e19 a1be 1fa9 223e 708b 73bf ceca 953f
00000340: d966 a8bd 2b56 fdbe 29ab 87bd 3e26 13bf
00000350: 3a43 93bd 0c0c 853f b4a0 b5bf f4ef 9c3f
00000360: 2c67 023f 7622 803f 7df1 b7be abb4 293f
00000370: 9642 433e 428d ad3e 3812 b93f 9370 653f
00000380: 5140 6bbf 9c7c 4f3e e711 a6bf d4d6 193d
00000390: cb44 81bf 6f83 8fbf e1d3 863f e340 003f
000003a0: f50b 9f3e 8ce5 443f 1139 be3f de44 4cbf
000003b0: c742 003b 2662 2d3e 083d 883e ba58 bfbd
000003c0: 7851 82bc cec3 b6be 76a3 be3f 6a7f 803f
000003d0: e102 2a3f ac1d 083f 713f 3ebe 6ded 213f
000003e0: ce73 653f 7f88 55bd 80cd a63e 482a 9e3f
000003f0: 53d2 eabe a8b2 c5be 53f6 b9bf a641 5e3f
