checkpoints/sort_1/S_6_K_6/ArgmaxAR/15_05_2023__17_08/cktp/checkpoint_0003000.tar (torch, 796123 bytes, 89 tensors)

model.base_dist.loc f4 [1, 3, 1]
000000 86 29 20 bc eb 70 4d bc 1a c3 f7 3c
       -0.009775525 -0.012539129 0.030244399

model.base_dist.log_scale f4 [1, 3, 1]
000000 6b dc 6e 3d 2d 5a 5a 3c a3 a0 92 3d
       0.058315676 0.013327164 0.07159545

model.transforms.0.encoder.noise_dist.base_dist.net.weight f4 [6, 32, 1]
000000 a8 91 38 be 4c 71 8d 3d bb 3e 6e be 93 df 87 be
       -0.18024313 0.06906375 -0.23266117 -0.2653776
000010 8d 91 85 3c d3 34 1c 3e 45 08 13 be 81 f7 5c 3d
       0.016304756 0.15254526 -0.14358623 0.053946976
000020 66 fd 54 be 7c f9 a8 3b f9 c2 6c be da 3b 3a be
       -0.20799789 0.005156694 -0.23121251 -0.18186894
000030 9f ea 53 3e f8 b3 8a bd ec df 36 be 7c d0 43 3e
       0.2069497 -0.067726076 -0.17858857 0.19122499
000040 ea e6 2d 3e 77 f5 ca bd 35 90 a8 3d 52 21 92 3e
       0.16982618 -0.099101 0.0823063 0.28541046
000050 34 59 6d bd 19 b2 4d be b6 af 33 3e 93 70 17 be
       -0.0579464 -0.2008747 0.17547497 -0.14789037
000060 12 80 ae bd 22 f9 83 bd 7b 7e 1f be 24 f8 e1 bd
       -0.08520521 -0.06444003 -0.15575592 -0.11033657
000070 20 2b 46 be 68 96 8b 3d 4f 44 00 3d 01 6d 3e 3e
       -0.19352388 0.06815797 0.031315144 0.18596269
000080 a0 77 7d 3d 28 03 c1 3d a1 63 39 be 5f f7 48 be
       0.06188166 0.0942443 -0.18104412 -0.19625615
000090 45 8c 21 3e 0c e2 45 bd 19 4b a6 3d f8 50 05 be
       0.15776165 -0.04831128 0.081197925 -0.13019168
0000a0 0f b8 d3 3d 19 f2 18 3e 5d 1e 1d be d9 5f cb bc
       0.10337841 0.14936103 -0.15343614 -0.024825977
0000b0 a2 47 17 3e 31 f8 67 bd c4 17 86 bc f3 55 0c 3e
       0.1477342 -0.05663318 -0.016368754 0.13704662
0000c0 44 c2 3d 3d de 35 4b 3e 39 2a de bc 10 a3 de 3d
       0.046327844 0.19844767 -0.027119743 0.108709455
0000d0 8a 60 c2 bd 22 e7 ac 3c 7b a8 69 3d ed 46 55 be
       -0.094910696 0.021106306 0.05704544 -0.20827837
0000e0 29 e2 62 be d6 a1 a7 bd 48 6f e4 3d 51 9d 65 bc
       -0.22156586 -0.08185165 0.11154038 -0.014014558
0000f0 0c 77 0d bd d8 6d 33 be 2f 9e 85 bc 48 c2 41 3d
       -0.03453736 -0.17522371 -0.01631078 0.04730442
000100 84 cb 0c bd 73 84 12 3e 55 a7 01 be 68 f9 89 bc
       -0.034373775 0.14308338 -0.12661488 -0.016842559
000110 4b 84 20 be 37 a9 43 3e 1a a8 38 be ce 13 ab 3d
       -0.15675466 0.19107519 -0.18032876 0.08353387
000120 87 73 da bc aa cd ad bd 6c 7f 92 be 96 c3 53 be
       -0.026666416 -0.08486493 -0.2861284 -0.20680079
000130 db be 3e 3e 4a 6c af bd 5f bc aa bd 74 dd 68 3c
       0.18627493 -0.085655764 -0.0833671 0.014212955
000140 2a f6 63 3e b5 36 4c bd a5 32 c0 3d f4 c4 df 3d
       0.22261873 -0.04985686 0.0938466 0.10926238
000150 c0 2f a2 3d 46 d8 7c be bd 41 50 3e af 7b dd bd
       0.07919264 -0.24691877 0.20337577 -0.108146064
000160 0b 1d 5b bd 82 c6 2d be 5c 4c 18 3d 73 d2 23 3e
       -0.053494494 -0.16970256 0.037182197 0.15998249
000170 cc e5 2f be 22 08 26 be ea 83 94 3d e3 89 1c 3c
       -0.17177504 -0.1621404 0.07251723 0.009554359
000180 1e 1d 00 be e5 49 b9 bd e9 63 b2 bd 4b ba a8 bd
       -0.12511107 -0.090472974 -0.087104626 -0.082386576
000190 9b ef 02 3d 7a 2b f2 bd 86 91 1d be ac fc 0c 3e
       0.031966787 -0.11824699 -0.15387544 0.13768262
0001a0 fc 81 1e 3e 9d 48 a7 bd 0e f2 ff bd 35 6d 1f 3e
       0.15479273 -0.08168147 -0.1249734 0.15569003
0001b0 6b 3a 35 3e e5 3f 29 3e 41 9c 56 3d 17 8e 9c bd
       0.17698066 0.1652828 0.05239511 -0.07644289
0001c0 b3 74 70 bc e5 23 47 3d 31 e5 3b 3e 9f 4a 90 bd
       -0.014676261 0.048618216 0.18349148 -0.07045483
0001d0 e1 bf 9a 3c c5 77 e8 3d 3e bf 03 bd 00 91 52 bd
       0.018890323 0.11350969 -0.032164805 -0.051407814
0001e0 a4 c7 5e 3d 0c 47 e4 bd 6a 7d c2 3d 19 64 27 3e
       0.05438961 -0.111463636 0.09496577 0.16346778
0001f0 b8 48 1a 3e 04 9d d8 3d 6d 14 13 be 23 f0 b1 3d
       0.15066803 0.10576823 -0.1436326 0.086883806
000200 51 63 fa bc 99 db cd 3c 45 d6 47 3c da 6a d8 bd
       -0.030564936 0.025129126 0.012197082 -0.10567255
000210 b3 14 09 be aa de 94 3d 88 7e 96 bd 12 a3 8f bd
       -0.13386802 0.07269032 -0.07348353 -0.07013525
000220 06 6f a3 bd 03 76 d9 3d 50 68 d4 bd ac 52 2f 3d
       -0.079801604 0.10618212 -0.103714585 0.04280345
000230 7f 2e 0f 3e 76 42 0c 3d b9 e1 26 3d 0c ac 4f bd
       0.1398258 0.03424307 0.04074261 -0.050701186
000240 78 56 ff bc c8 d8 f6 bd 87 20 1f 3e 8d da 33 3d
       -0.031169161 -0.120530665 0.15539752 0.0439096
000250 9c 28 8a 3d 13 67 f2 3d 1f 89 3e be 26 58 30 3e
       0.06746027 0.11836066 -0.18606995 0.17221126
000260 ea 1b 0c be a9 ae 79 bd c7 97 b0 3c b4 f5 5d bd
       -0.13682523 -0.060957585 0.021556748 -0.0541894
000270 bb 98 f3 3c 23 02 c0 3d 63 6c 90 3d 37 cc 02 be
       0.029735914 0.093754075 0.07051923 -0.12773214
000280 7c ca 71 bd 58 06 92 3d 60 e2 f0 3c bc 01 f4 3c
       -0.059030995 0.07130116 0.029404819 0.029785983
000290 91 4d 25 3e 62 cf 1d be 32 55 0b be 01 3a cf bd
       0.1614287 -0.15411142 -0.13606718 -0.10118485
0002a0 21 12 a9 bd 8c bd 0b 3b 36 b5 d4 3d 58 cc 17 3e
       -0.08255411 0.0021322696 0.10386126 0.14824045
0002b0 c3 ac f2 bd d1 ce 82 bc 10 0f 1b 3e f0 10 ce 3d
       -0.11849358 -0.015967758 0.15142465 0.10061824
0002c0 d6 42 4c bd 66 dc c5 bd 68 b5 08 3e a7 06 e2 3d
       -0.049868427 -0.09661178 0.13350451 0.11036425
0002d0 03 c3 2a 3d 3c f8 fd bd 68 93 ff 3d 11 8c 0b 3e
       0.041689884 -0.124008626 0.124792874 0.1362765
0002e0 1e 56 a8 bd 13 a3 0e be f1 36 07 be 1a 64 fc 3c
       -0.082195505 -0.13929395 -0.13204552 0.03080945
0002f0 32 8d a3 bb 7c f3 2e 3e 7e 2d c6 b6 d5 bd f2 3d
       -0.004991197 0.1708507 -5.906156e-06 0.11852614

model.transforms.0.encoder.noise_dist.base_dist.net.bias f4 [6]
000000 61 4d ee bc 26 1a 06 3e 52 39 c8 3d 6d d1 9b bb
       -0.029089632 0.13095912 0.09776558 -0.00475519
000010 0b 77 a3 3d b1 dc 7a bc
       0.0798169 -0.015311406

model.transforms.0.encoder.noise_dist.transforms.0.ar_net.lstm.weight_ih_l0 f4 [256, 35]
000000 8e ab c8 3d 2b 3c e1 bd 96 da b9 bd 82 61 09 3e
       0.097983465 -0.10997804 -0.09074895 0.13416103
000010 79 67 c1 bc 5c 32 1a bc f6 a9 2b 3d 37 a7 93 3d
       -0.02360891 -0.009411421 0.041910134 0.07209628
000020 cf 37 7f bd 27 1e e3 bd 07 f7 24 3c d4 83 e8 3d
       -0.062309083 -0.110897355 0.0100686615 0.11353269
000030 67 76 0a bd d0 c6 00 3e c1 af a9 bb 05 6a f7 3d
       -0.033804324 0.12575841 -0.005178422 0.120807685
000040 ef ac 37 3d e4 b7 06 3e 22 a8 c6 3d 09 39 29 3d
       0.044842657 0.13156086 0.097000375 0.04131416
000050 b1 3a 5d bc 72 44 8b bd 6c 2d a3 3d c1 3e 87 3c
       -0.013502763 -0.06800164 0.07967648 0.016509416
000060 66 66 4e 3d b7 23 de 3b 30 48 f8 bd 7c 39 93 3d
       0.050390624 0.00677916 -0.12123144 0.07188699
000070 86 5c 10 3d 06 47 1b 3e 84 3a 39 3d 60 74 42 3d
       0.035244487 0.15163812 0.04522182 0.047474265
000080 96 39 a9 3d ef 0b 28 3d db 10 f2 3d 46 4e c9 bd
       0.08262937 0.041027006 0.11819621 -0.098293826
000090 d9 1c 98 3c 1e 88 52 bd 2e e5 91 3c 3f 79 ad 3a
       0.018568443 -0.051399343 0.017809477 0.0013234987
0000a0 e3 32 dd bd fc e3 08 3d 46 a1 04 bd 0e cf f3 bd
       -0.108007215 0.033420548 -0.032380365 -0.11904727
0000b0 df be 94 bc 0e 77 a3 bd 40 b6 f6 bc 8d 7f ee bd
       -0.01815742 -0.07981692 -0.0301162 -0.11645422
0000c0 01 9c b1 bd c9 68 91 bc c8 70 e2 bd 89 2a 37 bd
       -0.086723335 -0.01775016 -0.110566676 -0.0447183
0000d0 07 ec 5f bc 1e 98 c0 bd b5 ea 46 bd cb 1f a4 3d
       -0.013667113 -0.09404014 -0.048563678 0.080138765
0000e0 6e b0 aa 3c 0f 6f a5 bd 62 73 68 3d 8a 49 88 bd
       0.020836081 -0.08077823 0.056750663 -0.066546515
0000f0 2f ca dd 3a a4 ea d0 3d fd 94 78 bc a6 56 c7 3d
       0.0016921217 0.10201004 -0.01517224 0.09733324
000100 70 10 d5 bd e9 3a e3 bd 65 4d 8c bd 16 44 86 3d
       -0.10403526 -0.110952206 -0.06850699 0.06555955
000110 c3 5f e2 3d d4 bc 55 bd 51 c4 94 3d 92 af 60 3d
       0.11053421 -0.052182034 0.07264007 0.054854937
000120 47 18 c4 bc 63 a1 0a 3e fe 14 a5 3c 4d db bc 3d
       -0.023937358 0.13538127 0.020151611 0.09221516
000130 30 dd de bd a3 36 1b bd 88 4f c4 3c 3e 55 04 3e
       -0.10882032 -0.037893903 0.023963705 0.12923142
000140 87 13 07 be 4d 2d 80 3d e5 de e6 bd 40 10 84 3d
       -0.13191043 0.062586404 -0.112729825 0.06448412
000150 a4 80 a4 bd 34 50 97 3c fc bd 81 3d f1 0c c2 3d
       -0.08032349 0.018470861 0.06335065 0.094751246
000160 42 54 26 3d 9d f9 f2 bb 8c 78 6c bd 88 f9 f3 3c
       0.0406077 -0.00741501 -0.05773215 0.029782072
000170 c4 8a 88 3d 78 60 cb bd ee ce a1 3d 92 8c a4 3a
       0.066670924 -0.09930509 0.07900797 0.00125541
000180 dc 53 ac bd 34 2a 89 3d db 08 a2 3c a0 59 bb 3c
       -0.084144324 0.06697503 0.019779613 0.022869885
000190 cb 46 8a 3c 89 6f 8c bd c4 43 a8 bc dd a9 fa bc
       0.01687946 -0.06857211 -0.020540126 -0.030598575
0001a0 ae 0f c1 bd f9 90 e2 3c 25 47 3d bc 96 eb 6c 3c
       -0.09426819 0.027657019 -0.011552607 0.014460465
0001b0 92 1e 69 bd 24 85 f5 bc 06 25 83 3d 8f 8d 01 be
       -0.05691392 -0.029970713 0.06403546 -0.12651657
0001c0 c7 76 c6 3d dc ca 57 bd 8a 6f d3 3d 09 4f 90 3d
       0.09690624 -0.052683696 0.10324009 0.07046325
0001d0 79 a5 ff 3c f8 cb af 3d 76 20 10 bd 48 a5 75 3c
       0.031206833 0.08583826 -0.035187207 0.014993019
0001e0 39 1e 5a 3d 08 0d 47 3d 03 16 cf bc 29 23 e8 bd
       0.05325148 0.048596412 -0.02527905 -0.11334831
0001f0 3f ec 88 bd ae 6e 67 3c 7a 3c ba bd ce 0c 90 3d
       -0.06685685 0.014125509 -0.09093566 0.07033692
000200 b3 dd 77 3d c8 ef 7f 3d 59 2d 96 bc a6 fc 80 bd
       0.060514163 0.062484533 -0.01833217 -0.06298189
000210 cf 1b e1 bd 42 7b 20 3d 11 05 c4 3d fc f8 8e 3c
       -0.10991632 0.039180048 0.09571279 0.01745271
000220 2d b0 36 bd 0c 81 2a 3d 47 1d 4d 3d 83 4b de 3d
       -0.044601608 0.041626975 0.05007675 0.108542465
000230 e9 d1 bd bb ea ed fa bd 09 15 99 3c 7a ab ec bc
       -0.0057928455 -0.1225241 0.018686788 -0.02889036
000240 87 85 4e 3d 4f bd 05 be 36 6a 68 bc 30 46 be bd
       0.05042031 -0.13060497 -0.014185479 -0.09290731
000250 b3 ea c8 bd 56 14 b1 3d 63 d9 c8 b9 8c 51 33 bc
       -0.0981039 0.08646457 -0.00038308938 -0.010944735
000260 35 06 50 bd e3 d1 9e bc f8 44 4b 3d b9 37 90 bd
       -0.05078717 -0.019387191 0.04962632 -0.07041878
000270 e3 39 ab 3d 58 dc 5c 3d 93 cd 2e bd 64 a8 f9 3c
       0.083606504 0.053921074 -0.04267652 0.030475803
000280 6b 4d 1f bd 03 00 8f bd d1 d4 8d 3d 05 02 16 3d
       -0.03889219 -0.06982424 0.06925357 0.03662302
000290 bd e6 6e bd c3 71 d6 bd d6 60 54 bd 95 c4 7f bd
       -0.058325518 -0.10470917 -0.051850162 -0.062443335
0002a0 db 20 19 3d e7 22 19 bb ff c6 e0 bd a3 bf 4c bd
       0.03738485 -0.002336675 -0.109754555 -0.049987447
0002b0 69 76 8d 3d 4b 70 14 bd 55 83 c9 bb 67 23 19 3e
       0.069073506 -0.036239903 -0.006149689 0.14954911
0002c0 8c 35 35 bd f4 4f 7e bd 17 50 ca bc c4 d5 20 3e
       -0.04424052 -0.062087968 -0.024696393 0.15706545
0002d0 07 a2 9b bd b6 75 86 3d e1 18 12 3e f7 9f c8 b8
       -0.07599264 0.0656542 0.14267303 -9.566539e-05
0002e0 d9 d9 17 bd d5 2a d7 bd 6d 87 ab 3d f8 15 9d 3d
       -0.03707299 -0.105062164 0.0837544 0.07670206
0002f0 73 35 95 3b 2c 46 cc bc 93 c5 91 bd a8 98 c8 bd
       0.004553491 -0.024935804 -0.071177624 -0.09794742
000300 ac 7e 7a bd 43 dd df 3d 23 14 54 bc ee 97 15 3d
       -0.06115596 0.10930874 -0.012944254 0.036521845
000310 80 85 00 3e 97 23 13 3d e7 ea 78 3c 94 39 e4 bd
       0.12550926 0.035922613 0.015192724 -0.11143795
000320 e4 ce f1 3d 10 b8 24 be f5 47 82 bc 63 e8 90 bd
       0.118070394 -0.1608584 -0.015903452 -0.07075574
000330 f4 63 b2 bd d5 d9 9d 3c 49 1d 8b bc 30 66 57 be
       -0.08710471 0.01926891 -0.016981738 -0.21035075
000340 fe 7c ff bd 92 d0 67 bd 4b fb 06 bd d8 ce 08 3e
       -0.12475012 -0.056595393 -0.032954495 0.13360155
000350 e3 9c 9e 3c d1 9e 97 3d 4c 1c 15 3e 91 aa c6 bd
       0.019361919 0.07403339 0.14561576 -0.09700502
000360 08 29 ed 3c ea 30 2a bc e5 2c ff bd 70 20 15 bd
       0.02895023 -0.010387639 -0.12459735 -0.036407888
000370 f9 12 09 be 9f fc db 3d 53 42 6b 3d 28 06 a3 3d
       -0.13386144 0.10741543 0.0574363 0.079601586
000380 1f a9 9d bc 4f b1 a8 3d 66 82 63 3d b0 1a 05 be
       -0.019245682 0.08236944 0.05554428 -0.12998462
000390 cd 6a 35 bd f5 1a a6 bd b3 1c 5b bd e0 87 97 bd
       -0.044291306 -0.081106104 -0.053494167 -0.07398963
0003a0 03 11 0c 3e 4a 37 af 3a 45 e3 e0 bd 95 2c c0 bd
       0.13678364 0.0013367918 -0.10980848 -0.09383503
0003b0 64 06 28 be 32 eb 02 bd cb 8c 14 bb bc 63 8a bd
       -0.16408688 -0.03196258 -0.0022666927 -0.06757304
0003c0 13 93 e6 bd bf b8 0f 3d bf eb da bd 01 65 ce bd
       -0.11258521 0.035088297 -0.10689496 -0.10077859
0003d0 de c8 49 bc 04 17 53 3c 9e 57 e4 bc 81 ac 18 3c
       -0.012315957 0.012883905 -0.02787381 0.009318472
0003e0 92 12 de bd 03 20 ef 3c 64 a9 b8 3d 22 b8 48 3d
       -0.10843386 0.029190069 0.09016684 0.049003728
0003f0 ba 51 bb 3d 50 9c e6 3d f5 7e a5 bd e6 54 bf bd
       0.091464475 0.11260283 -0.08080856 -0.09342365

model.transforms.0.encoder.noise_dist.transforms.0.ar_net.lstm.weight_hh_l0 f4 [256, 64]
000000 3d 50 50 bd 75 40 97 3c 01 5a cb 3d c4 4c d4 bb
       -0.05085777 0.018463353 0.09929276 -0.0064788777
000010 43 87 9e bd 7f e3 c1 ba 99 dd 3a 3d 76 8f a4 3d
       -0.07740643 -0.001479253 0.04562149 0.080351755
000020 fe 57 ef 3c 0a e7 9a 3c 95 96 7e 3c 08 6e 55 bd
       0.029216763 0.018908996 0.015538831 -0.052106887
000030 b8 c9 57 bc 7f ee a0 bd cd 83 29 3c f2 c1 4a 3d
       -0.013170652 -0.078579895 0.010346365 0.049501367
000040 20 74 83 bd f0 97 ed 3d ee fd 8a 3d c0 01 96 3d
       -0.064186335 0.116012454 0.067867145 0.073245525
000050 f9 8d 9d 3d 36 b1 86 bd ec 1f 9a 3d b6 93 63 bb
       0.07693095 -0.06576769 0.0752562 -0.0034725494
000060 6e 2c 68 3c c6 bc 76 3d ab 00 de 3c 95 a3 f9 bd
       0.014170749 0.060238622 0.027099928 -0.12189404
000070 97 c8 8d bc 15 a1 91 3c 45 74 37 3d 14 16 a9 3d
       -0.017307563 0.017777005 0.044788618 0.08256164
000080 b4 7d d4 3c f9 b6 3c 3c cd 7b e7 bd f5 39 e5 bd
       0.025938846 0.011518233 -0.1130291 -0.11192695
000090 d4 e9 92 3d e7 68 1f 3d 0f 09 e0 bd d3 a4 ef bb
       0.071735054 0.038918402 -0.10939228 -0.0073133497
0000a0 06 ae 8e 3d 3f 01 da bd a1 57 86 3d 90 e3 26 3d
       0.06966786 -0.10644769 0.06559683 0.040744364
0000b0 7e bb 1c bd 5b c2 c2 bd 16 64 f2 3d 0c 6c e8 bd
       -0.038264744 -0.095097266 0.11835496 -0.11348733
0000c0 93 fa 99 bd 76 1d 9a bd 6a 08 50 3d 19 08 df bd
       -0.07518496 -0.075251505 0.050789274 -0.108902164
0000d0 79 ca 17 bd 41 ef a0 bd ff aa db bc af 45 ca 3d
       -0.037058327 -0.07858134 -0.026814936 0.09876572
0000e0 9e a8 83 bc 67 06 ca 3d 5c b3 90 3d 6b d4 b9 3c
       -0.016071614 0.098645024 0.0706546 0.022684297
0000f0 f5 8d 96 bd de 33 37 bd 44 19 b9 3d 4d 32 92 3d
       -0.07351295 -0.0447272 0.09038022 0.071385
000100 54 49 e4 3c 01 2c 0b bc 40 14 b1 3d 43 ec bb bd
       0.027866997 -0.008494378 0.086464405 -0.09175923
000110 3c 87 ff bd ff e2 8f 3d 16 15 f4 bd c0 37 6a bc
       -0.12476966 0.07025718 -0.11918084 -0.014295518
000120 19 b1 7d 3d dd 49 bf bc 21 4a ac bd 5b d9 c6 bd
       0.06193647 -0.02335065 -0.084125765 -0.09709426
000130 77 93 7f b9 74 f9 cf 3d a4 67 d6 bb 1c e7 d7 3d
       -0.0002437363 0.10155001 -0.0065431166 0.105421275
000140 e5 91 e6 3d 16 af 70 bd 6c fc eb bd a5 20 3d 3d
       0.11258296 -0.058760725 -0.11522755 0.04617371
000150 8e 6d ca 3d b4 95 fa bd d2 b7 31 3b 05 a9 69 3c
       0.09884177 -0.12235585 0.0027117622 0.014261489
000160 3d 4a ee 3a d9 89 e0 bd 3d 48 08 bd d0 a2 ca bd
       0.0018180084 -0.10963792 -0.033272017 -0.09894335
000170 13 45 bc 3d 0b db fc 3d c2 93 ec bd 90 0d 16 bd
       0.09192862 0.12346467 -0.1155162 -0.036634028
000180 7b 45 ac 3c b8 e2 3d 3d 4a f2 e0 bd 4d 31 b8 bd
       0.021029225 0.046358794 -0.10983713 -0.089937784
000190 d2 fc 09 3b c1 b5 2e bb 53 6d 27 bd da 49 28 3d
       0.0021055234 -0.0026658627 -0.040875744 0.041086055
0001a0 34 27 6c 3d a6 7e 5c bd 98 29 63 3d 3a 73 ed 3d
       0.057654575 -0.05383172 0.05545959 0.11594243
0001b0 19 0c cb bc 13 74 8f bd e7 81 6a bc d4 7a 01 3e
       -0.024786042 -0.07004561 -0.014313198 0.12644511
0001c0 f8 78 a9 3d bb 66 3b 3d d5 87 5c 3b 78 58 0a bc
       0.08275026 0.04575227 0.0033650298 -0.008443944
0001d0 cf 40 c9 bd 4f 20 ca bd 16 43 c3 3d 8c e4 9c bd
       -0.098268144 -0.098694436 0.0953428 -0.07660779
0001e0 7e 91 2f bd 3c b4 49 3d 91 c3 a2 3c 7c 14 45 3d
       -0.04286336 0.04924415 0.019868644 0.04811524
0001f0 5d c6 d4 3b db 46 80 bc 2d 2b 3b bd 6f 37 53 bd
       0.0064933733 -0.015658787 -0.045695473 -0.051566537
000200 8b eb 07 bd 1c 0d 12 3d 80 fc c7 3d 07 c3 94 3d
       -0.033183616 0.035657033 0.097649574 0.07263761
000210 ed 17 81 3d eb 2d 81 bd a8 2f d3 3d 53 f1 62 3c
       0.063033916 -0.06307586 0.10311824 0.0138514815
000220 35 26 c8 3d ca 34 e3 bc 3e ff 0c 3e 6b ec ce bd
       0.097729124 -0.027735133 0.13769242 -0.10103687
000230 66 bb b6 3c d7 6b e8 bd c0 8e 05 be 96 3a 24 3d
       0.022306155 -0.11348694 -0.13042736 0.040094934
000240 46 9b c5 bd b9 3f 92 3c 44 9e 9e bd fb 2b bc 3d
       -0.09648757 0.017852651 -0.077450305 0.09188076
000250 39 d4 c9 bd 94 19 b1 3a 0c ed 7c bd 95 3c 00 be
       -0.098549314 0.0013511651 -0.061749503 -0.1252311
000260 8e e4 56 bd 23 cc 01 3e 3f ab f6 bc 97 84 c3 bd
       -0.05246406 0.12675528 -0.030110953 -0.09546774
000270 68 e6 ee bc a1 55 ee bc 6c f4 84 bd ad 09 b2 bc
       -0.0291626 -0.029093565 -0.06491932 -0.02173313
000280 ce 41 28 3d 91 b3 be 3d 73 de 15 3d 46 fb 79 3c
       0.04107838 0.09311593 0.036589097 0.015257662
000290 14 fa a4 bb 40 b9 6f bd 5d 13 48 bd 0f 8b c9 bd
       -0.0050346944 -0.058526278 -0.04884659 -0.098409764
0002a0 f8 80 22 bd b3 83 e0 3c 3d a0 05 be be 9d a5 bd
       -0.039673775 0.02740655 -0.13049407 -0.080867276
0002b0 0a 37 b4 3d bd 2f 39 bc bd b9 15 bd 0a be 11 bd
       0.0879956 -0.011302886 -0.036554087 -0.035581626
0002c0 3b 47 4e 3d ea 42 df 3c 4e 29 af 3d 97 60 a6 bd
       0.0503609 0.027253587 0.085528 -0.08123892
0002d0 98 11 31 3d b3 e7 97 3c 08 15 d3 bd e5 e5 b4 3d
       0.04322967 0.0185431 -0.10306746 0.088329114
0002e0 6f 4e bf 3c 2b 34 92 bd b9 50 e1 3d 38 bb d5 3d
       0.02335283 -0.071388565 0.11001725 0.104361
0002f0 a9 29 4e 3d dc d0 ae 3d b0 2e 92 bc 85 1f b9 3c
       0.0503327 0.085359305 -0.017844528 0.022598037
000300 27 82 99 3d 5a 70 a7 bd 21 5b 8b 3d 98 88 2e 3d
       0.07495528 -0.08175726 0.06804491 0.042610735
000310 01 8f 61 bd e9 9e 84 3b c2 d7 88 3d a3 40 b4 3d
       -0.05506802 0.004047264 0.066817775 0.08801391
000320 a9 fc 28 bd 84 95 27 3d a8 da 4b 3c b1 78 44 bd
       -0.04125658 0.040914074 0.012442268 -0.047966663
000330 0c 21 05 3d fb 09 d6 bd 6e d7 89 3d 32 17 e4 3d
       0.03250222 -0.104511224 0.06730543 0.11137237
000340 d0 8a 2b bc 48 2a 84 3d 4f 98 30 be 9f be 83 3b
       -0.010470107 0.06453377 -0.17245601 0.0040205265
000350 47 65 a5 3d cf 8d 44 bd f5 5a ab 3d 79 f1 8c 3d
       0.08075958 -0.0479868 0.08366958 0.06881995
000360 55 a3 be bd 6e a9 27 bb 61 b5 a4 bd 87 38 b6 3d
       -0.09308497 -0.0025583166 -0.08042408 0.088975005
000370 a1 25 79 3d eb 83 a8 bd e1 e2 c6 bd d8 20 0e 3e
       0.0608269 -0.08228286 -0.097112425 0.13879716
000380 78 86 93 3d a9 b6 03 be b4 2d 80 bd 1b ab 4c 3a
       0.07203382 -0.12862648 -0.06258717 0.0007807479
000390 99 77 87 3d 22 77 7b 3d 98 95 9c 3d 9f 10 41 bd
       0.06614608 0.06139291 0.0764572 -0.04713499
0003a0 52 d5 0f 3c a6 2d 6c bd b5 24 91 bd 37 8b d4 3d
       0.008778887 -0.05766072 -0.070870794 0.103781156
0003b0 e8 1a 7b 3d 9e 60 c0 bd 2e 61 8a bd c7 7f 4b bd
       0.061304957 -0.09393428 -0.06756817 -0.049682405
0003c0 49 c4 42 bd 4c e6 d7 bd 9f 77 e8 3d b1 d3 07 3e
       -0.047550473 -0.105419725 0.11350941 0.13264348
0003d0 53 aa 87 3d 66 c5 0b be dc 15 62 bd f6 f1 d2 3d
       0.06624284 -0.1364952 -0.055196628 0.10300057
0003e0 0c ae 87 3c 98 f9 39 bd db 85 15 3c 4b d1 99 bd
       0.016562484 -0.045404047 0.009126152 -0.075106226
0003f0 a7 b8 68 bd 33 62 95 3d 29 ee c4 3b 58 c9 ac bd
       -0.056816723 0.07294121 0.006009836 -0.08436841

model.transforms.0.encoder.noise_dist.transforms.0.ar_net.lstm.bias_ih_l0 f4 [256]
000000 db c5 85 bd f6 40 7b 3d 39 9c 93 bc 88 1a 80 bb
       -0.065318786 0.06134125 -0.018018829 -0.003909413
000010 a8 3a d2 bd 12 3c 0f bd 28 70 3c bd b3 43 a5 bd
       -0.10265094 -0.034969397 -0.046005398 -0.08069553
000020 70 84 28 3d 93 c2 0b 3e fc be a2 bb be 23 d2 bd
       0.041141927 0.13648443 -0.004966615 -0.102607235
000030 6b 22 07 bd 3c 23 ce 3c d3 a4 0b bd 2d 12 81 bd
       -0.032991808 0.025163285 -0.034092735 -0.06302295
000040 76 54 76 bc 2e 94 03 bd 9a f2 82 bd d6 df 02 be
       -0.0150347855 -0.032123737 -0.06393929 -0.12780699
000050 e5 10 44 bd 35 1c 9a bd 48 32 6f 3d 41 a6 d9 bd
       -0.047867674 -0.07524911 0.05839756 -0.106274135
000060 63 86 e1 bd 5e 00 c0 3c 6e 6e 98 bd bf 58 88 3c
       -0.1101196 0.023437675 -0.07442938 0.01664388
000070 72 01 a5 3d 7e 5e 25 bd e2 82 25 3c d1 68 13 3e
       0.08056916 -0.040373318 0.010102006 0.14395453
000080 f7 5b 27 bd cd b0 e8 bd d7 e4 43 3d 60 3e 1d bc
       -0.04085919 -0.11361847 0.04782566 -0.009597391
000090 44 84 04 be 4e 16 06 bd a9 0e fe bd a0 ce e3 3d
       -0.1294108 -0.032736115 -0.1240514 0.11123395
0000a0 32 bf 82 bd 96 63 98 3c c8 35 e0 bc b6 b3 9b 3d
       -0.06384124 0.018602174 -0.027369395 0.076026365
0000b0 00 f1 df bc 19 67 37 3d 16 fa 2b bd 6b c3 30 bd
       -0.027336597 0.044776056 -0.041986547 -0.043155115
0000c0 2b 68 dd 3b e1 90 01 3d d9 1f 20 3d 0e 50 fd bd
       0.0067568026 0.031632308 0.039092872 -0.12368785
0000d0 0e e5 6d 3d fa 6f e3 3d 2e 7a 5d 3b ce da bd 3d
       0.05807977 0.11105342 0.0033794749 0.09270249
0000e0 be 1e 96 3d 29 c8 c5 bd c0 ef 21 3b 04 d2 d3 ba
       0.07330082 -0.09657318 0.0024709553 -0.0016160612
0000f0 d5 87 81 bd 44 cd 9c 3d 82 49 f4 bd f4 74 09 3d
       -0.06324736 0.07656339 -0.11928083 0.0335588
000100 26 5f e2 3d ea 3f 11 bd d4 96 22 3d f6 b3 25 3d
       0.110533044 -0.035461344 0.039694622 0.040454827
000110 cc d3 74 bd b0 59 c2 3d dd a6 8e 3d c5 2d fd bc
       -0.059772298 0.09489763 0.069654204 -0.030905614
000120 92 75 bb 3d 05 4c 6f 3d 92 ba a5 bc ef 83 85 bc
       0.09153284 0.058422107 -0.020230565 -0.016298262
000130 f3 26 0d bd 92 be 5e bd bc d9 37 3c b5 ff e2 3d
       -0.034460973 -0.05438096 0.0112213455 0.110839285
000140 82 7f b2 bd 41 ab 58 3d 36 1b e8 bc 16 f4 df 3d
       -0.087157264 0.052897695 -0.028333288 0.109352276
000150 0b d0 d7 3b d6 63 be 3b 77 60 d2 3d 91 6e 30 3d
       0.00658608 0.005810241 0.102723055 0.043074194
000160 46 83 e1 3d f9 9d 9a 3d 34 4e 3e 3d 38 ed bb 3d
       0.110113665 0.07549662 0.0464613 0.09176105
000170 49 03 5c 3d 85 7d 1e bd d1 64 f7 3c a8 29 1e 3c
       0.05371407 -0.038693924 0.03019944 0.009653486
000180 5a 83 87 3d f6 60 ea 3d a0 ce 80 3c 20 74 c1 bc
       0.0661685 0.11444275 0.015723526 -0.023614943
000190 42 af b5 3b 81 71 85 3d ef 2e 01 bd b1 56 ba bd
       0.005544574 0.0651579 -0.0315389 -0.09098566
0001a0 fe 12 96 bc 92 eb 88 3d b8 ff 06 3e 13 69 3a bd
       -0.018319603 0.066855565 0.13183486 -0.045510363
0001b0 7b 62 e5 bd 49 ce a1 3d c0 db b5 bd bd 59 de 3b
       -0.11200424 0.07900674 -0.088798046 0.0067856
0001c0 ee 47 91 3b 08 88 10 3e 04 e8 08 bd b6 3b c5 3d
       0.0044336235 0.14114392 -0.033424392 0.096305296
0001d0 da 57 db bd cd 0b bd 3d d0 01 b4 bc 71 b1 91 bd
       -0.10710116 0.092307664 -0.02197352 -0.071139224
0001e0 4a 8d 0a 3d 05 c3 a3 3c f2 f1 f9 bc 42 90 bb 3d
       0.03382615 0.019990453 -0.030510876 0.09158374
0001f0 24 85 a1 bd a8 dd 65 3d 68 6a 31 3d 2e 34 a4 3d
       -0.07886723 0.05611959 0.043314368 0.08017765
000200 80 ce aa 3d 83 16 d8 bc ac 12 97 3d e4 77 0d bd
       0.08340168 -0.026377922 0.07376608 -0.034538165
000210 8a ed aa bd f4 f1 d9 3d fe e2 39 bd ba 51 9d bd
       -0.08346088 0.10641852 -0.045382492 -0.07681604
000220 c2 f4 d0 3d 7e 32 23 bd d8 b2 e6 bd af 87 94 3d
       0.10202934 -0.039843075 -0.112645805 0.07252442
000230 56 7d 7d bd b5 06 7c 3d 16 55 c3 3d a5 1e 1d bd
       -0.061887108 0.061529834 0.09537713 -0.038359303
000240 ff 51 cb bd a5 ed 96 3d ce 70 c8 bc 18 4e 74 bd
       -0.09927749 0.07369546 -0.024467852 -0.05964479
000250 1c 99 f1 3d 97 5b e7 bd 81 a8 c1 bd 6c f8 bb 3d
       0.117967814 -0.11296766 -0.09455968 0.09178242
000260 80 47 50 bc e6 53 9b bc 55 7b 5c 3d 06 aa bd bd
       -0.012712359 -0.018960904 0.053828556 -0.09260945
000270 c5 41 9a 3d 7c 94 97 bd 1d cc 37 3d e7 e5 d8 3d
       0.07532076 -0.07401368 0.044872392 0.105907254
000280 c0 a1 76 3b f7 7a 0c bd 18 00 da bd 9e 32 07 3e
       0.0037633032 -0.034296956 -0.10644549 0.13202903
000290 ee d1 ce bd 75 16 d3 bd 97 1c aa 3d bf 98 9d bd
       -0.10098635 -0.10307018 0.08306234 -0.0769515
0002a0 18 7c a7 bc 32 f5 95 bd 25 13 61 bd 00 58 9d bc
       -0.020444915 -0.07322158 -0.0549499 -0.019207
0002b0 84 33 87 bd a3 c0 f5 bd 40 e2 bd 3c 29 74 d4 bd
       -0.06601623 -0.11999633 0.023179173 -0.10373718
0002c0 39 d6 b8 3d fb d3 08 3d 03 f0 5d 3c 5b b5 ee bc
       0.09025235 0.033405285 0.013545993 -0.029139211
0002d0 e1 1e 4c bd 1d 6a 73 3d 4f 6b 4e bd 16 18 c8 3d
       -0.049834136 0.05942737 -0.050395306 0.09770219
0002e0 66 8c 69 3d 8d c2 a6 bd db ab 89 3c c5 ed b5 3d
       0.05701866 -0.08142576 0.01680558 0.088832416
0002f0 f1 b9 d2 3d 4f 43 67 3c 6d c9 48 bd c6 63 88 bd
       0.10289372 0.014115169 -0.04902022 -0.06659655
000300 30 41 ce bd a2 ea 38 3d d3 ed 73 bc ab 7f aa bd
       -0.10071027 0.04514564 -0.014888245 -0.08325132
000310 80 54 9b 3d 2f ab ba 3d 6a 7f 95 3d 2b 4b 21 3c
       0.075844765 0.09114682 0.07299693 0.009844582
000320 98 9b a7 3d a9 d9 b3 bd a6 47 de bc 4d 80 94 3c
       0.08183974 -0.0878175 -0.027133774 0.018127585
000330 93 d9 51 bd 46 13 63 bd e0 6e 1a 3d 58 16 12 3d
       -0.051232886 -0.055438302 0.037703395 0.03566584
000340 98 89 a5 bd 97 09 bd bd f0 59 bb bc 76 ae 0f bd
       -0.080828846 -0.09230345 -0.022870034 -0.03507849
000350 c8 57 09 3e a7 7a 47 bd 98 55 86 3d a4 eb cc 3d
       0.13412392 -0.048700955 0.065592945 0.100058824
000360 44 aa 05 3e 21 eb bc 3d 23 00 5d bc 55 c8 40 3d
       0.13053232 0.09224535 -0.013488802 0.04706605
000370 c4 e2 a5 bc 3e 86 28 3d 10 db bc bd 3c 9f 8d bd
       -0.020249732 0.04114365 -0.0922147 -0.06915137
000380 f3 6a fa bd 27 6b 8d bc 2a 09 d5 3b b7 e1 91 3d
       -0.1222743 -0.017263008 0.0065013366 0.0712313
000390 6e 94 e2 bd 7f 69 a6 bc 3e 35 b9 bc 6b e0 fa bb
       -0.11063467 -0.020313976 -0.022608396 -0.0076561472
0003a0 36 43 7d 3d b9 66 ad bd 0c 7c 20 3d af d8 d0 bd
       0.061831675 -0.084668584 0.0391808 -0.10197579
0003b0 67 79 c3 bd f2 1d 01 be 1f 0e e3 bb 42 ac 92 3d
       -0.0954464 -0.1260908 -0.0069291736 0.07161762
0003c0 cd bd b1 bd 99 89 aa 3d 9f 6f 59 bd a2 5c fe bc
       -0.0867878 0.08327026 -0.053084966 -0.03105003
0003d0 ad 58 0b bc 8c 07 aa 3d 10 d1 1f 3d c0 98 c4 bd
       -0.008505029 0.08302221 0.039017737 -0.09599447
0003e0 76 95 b6 3d 62 d9 52 3d 40 53 3e bc 24 e1 83 bc
       0.08915226 0.051476844 -0.011616528 -0.016098566
0003f0 c8 97 9b 3c 96 5d f6 bd 69 2a d7 bd 21 21 be 3c
       0.018993273 -0.12029569 -0.10506136 0.023209156

model.transforms.0.encoder.noise_dist.transforms.0.ar_net.lstm.bias_hh_l0 f4 [256]
000000 dd 82 50 bd 7e 01 1d bd 18 5a dd bd 82 2e c2 bd
       -0.05090605 -0.0383315 -0.108082 -0.09481527
000010 bf d0 65 bd 4e 47 20 3d 4f b1 ab bd 89 d2 08 be
       -0.05610728 0.0391305 -0.08383428 -0.13361563
000020 93 c0 0f 3e 8e 1a 75 3d 0a f4 37 3d f4 6e bd 3d
       0.14038305 0.059839778 0.04491047 0.09249678
000030 aa 4b ef 3d d7 7d 3e 3d 32 4b df 3d bb a2 04 bc
       0.11684354 0.04650673 0.10903014 -0.008095439
000040 47 51 be bd b0 04 5d bd 56 1b a7 bd 16 24 6d bd
       -0.09292846 -0.05395955 -0.08159511 -0.057895742
000050 6e e0 b6 3d 64 93 a6 3d fa d4 e0 bd 55 6b 38 3d
       0.08929525 0.08133581 -0.10978122 0.045024235
000060 23 62 85 3d 9d ab c2 bd b4 40 c3 3c 2c e7 ca 3c
       0.06512859 -0.09505389 0.023834564 0.024768434
000070 e6 b8 9b 3c 06 28 02 3e 41 50 55 3d 9d 01 99 bd
       0.019009065 0.1271058 0.05207849 -0.07471011
000080 7e 11 54 bd 5d 33 4e 3d d3 e0 5f 3c aa 16 d7 bd
       -0.051774494 0.050341953 0.013664442 -0.1050237
000090 c4 ae ad bd 87 49 1a bb 32 6d e9 3d 4a 21 69 bd
       -0.084805995 -0.002354236 0.113977805 -0.056916513
0000a0 1b 2b bd 3d 5a 08 93 bd 91 4b bd bd 4d d9 8f 3d
       0.09236737 -0.07179327 -0.09242929 0.07023869
0000b0 79 7c 13 be 22 3b 82 3d 81 cc aa 3d 70 49 b0 3c
       -0.14402951 0.06358935 0.08339787 0.021519393
0000c0 31 7d eb 3c f2 a4 1a 3d a9 4e b3 bc cb 9c f8 3c
       0.02874622 0.03775496 -0.021888094 0.030348202
0000d0 02 1d ff 3c ff 25 9f 3d 7b 24 d5 3d b2 37 ad 3d
       0.031141762 0.07770919 0.10407349 0.08457889
0000e0 72 c0 90 3d cb 3c b9 3c 89 6d b8 bd 27 d1 f6 3c
       0.07067956 0.022611996 -0.09005267 0.030129028
0000f0 05 61 c3 bd a5 52 aa bc db c7 b3 3b 97 ad 08 be
       -0.095399894 -0.020791361 0.005486471 -0.1334747
000100 7c 59 19 bd 82 47 1c 3d 61 7d 20 bd 7d d4 0c 3e
       -0.037438855 0.038154133 -0.03918207 0.13752933
000110 04 00 29 3d be 8e 9e 3d a7 53 ec bb 72 78 e5 bd
       0.04125978 0.0774207 -0.0072121206 -0.11204614
000120 69 f8 fa 3d 2d 50 c5 bd 8b 5c 98 bd 76 4f 2e 3d
       0.12254412 -0.09634433 -0.07439526 0.04255625
000130 1e fb 94 bd 86 38 35 3d eb 8d 03 bd 75 45 54 bd
       -0.07274459 0.044243358 -0.032117765 -0.051824052
000140 de ed 3e 3b 03 7b c5 39 5c 1c bc bd 8f 7c fb bc
       0.002913348 0.0003766642 -0.091850966 -0.030699043
000150 75 52 0f bc e1 2e 0c bd 86 cc 6b 3d 94 9c e0 3d
       -0.008747687 -0.034224395 0.057568096 0.10967365
000160 26 70 6f 3d 77 91 e7 3d 46 14 ae 3d 5b e8 6b bd
       0.058456562 0.11307042 0.084999606 -0.05759464
000170 62 49 fa 3c 44 10 bb bc 50 95 97 bd 4f d0 92 3d
       0.03055257 -0.022834904 -0.07401526 0.07168638
000180 e9 ea 18 3d 71 2c a9 bc 13 50 b2 3d e8 cf 01 3e
       0.037333403 -0.020651074 0.08706679 0.12676966
000190 1b e8 cc bc f5 1c 0f be d9 13 e9 3d f8 cd 89 bd
       -0.02501302 -0.1397589 0.11380739 -0.067287385
0001a0 03 10 9c 3d 6d 45 db 3d 66 c8 72 3d 35 35 74 bd
       0.076202415 0.10706601 0.059273146 -0.059621055
0001b0 53 bc 1a bc 6a 85 b5 bd db 0c df bc 29 e2 0a 3e
       -0.009444314 -0.08863337 -0.02722781 0.13562836
0001c0 ba 30 a6 3d 70 08 0c 3c c8 4b 47 bd 8e 09 93 3d
       0.081147626 0.0085469335 -0.048656255 0.07179557
0001d0 7a eb 74 bd f1 40 b0 bd a9 33 ff 3b 3f 86 0a bd
       -0.05979488 -0.086061366 0.007788141 -0.033819433
0001e0 73 59 89 bb c7 e6 25 bc a9 36 de 3d 77 bc d0 3c
       -0.0041915714 -0.010125822 0.10850269 0.025480492
0001f0 28 ea cc 3d e0 02 c1 bd 0c 34 ff 3d d0 1b 4d 3d
       0.10005599 -0.094243765 0.12461099 0.050075352
000200 48 fe 07 3e 4e 17 b9 bd 64 6d 56 bd a2 7f 62 3d
       0.13280594 -0.09037648 -0.052350417 0.0552975
000210 c8 8f cc 3d 1b da 8d bd f0 21 ab bc 40 ef 21 bd
       0.099883616 -0.06926366 -0.020890206 -0.039534807
000220 ef 21 d6 bb 1b 5c b3 bd 3b 9a 01 bd ba 84 0e be
       -0.006534807 -0.08757802 -0.031641226 -0.13917819
000230 3b 65 18 bd 4e 23 72 bc 54 00 04 3e 5a da b0 bb
       -0.037205916 -0.014778925 0.1289075 -0.0053971233
000240 00 6e 8f 3c 48 c0 ca 3c b7 d2 c3 3d dd c7 92 bd
       0.017508507 0.02474989 0.09561675 -0.07167027
000250 3b c0 00 bd 00 cf 36 3c 69 e4 8e 3d 4c 48 8b bd
       -0.031433325 0.011157751 0.069771595 -0.06800899
000260 a3 72 7c 3d 10 9b b3 bd bb 90 49 bd 1e 67 59 bb
       0.061632764 -0.0876981 -0.04921029 -0.0033173035
000270 38 19 8f bc 3e 98 81 bd d0 4e 6e 3c 87 d0 ec 3d
       -0.01746808 -0.06327866 0.014545158 0.11563211
000280 40 f5 76 bd 69 64 f3 bc 35 8e 0e be 56 16 4c 3d
       -0.060292482 -0.029710965 -0.13921435 0.04982599
000290 86 7f a7 3d 79 09 c7 3d 07 26 7a bd 21 80 f7 3d
       0.0817862 0.09718604 -0.061071422 0.120849855
0002a0 8f 2d 11 bc cc 58 85 3c 3c d3 03 3e 3a 37 93 3d
       -0.00886096 0.016277693 0.12873548 0.07188268
0002b0 80 62 74 bc e7 d5 65 bc b4 3a a2 3d 9a af 4e 3d
       -0.014916062 -0.014028049 0.07921353 0.050460435
0002c0 87 bd d6 bd f9 09 3f bd 05 b1 b8 3d 2f 7e af 3d
       -0.10485368 -0.04664037 0.09018139 0.085689895
0002d0 23 a3 fd bd e3 f3 fa 3d 3e 2d db 3c ce 97 2f 3d
       -0.123846315 0.12253549 0.026754972 0.04286938
0002e0 5a 04 03 3e 17 18 92 3d 77 ca d4 bd ef ef 5d bd
       0.12794629 0.07133501 -0.103901796 -0.054183897
0002f0 63 fa e6 3d cd 06 d2 3d 81 37 a6 bd f8 6b 16 bd
       0.11278226 0.102552034 -0.08116055 -0.03672406
000300 d2 8a 43 3d 33 61 92 bd 91 e9 09 bd fc 7c 2c 3d
       0.04773981 -0.071474455 -0.033670012 0.042111382
000310 d3 5c 55 bd d1 a2 71 bd 88 23 9a 3d c7 86 67 3c
       -0.052090477 -0.058993164 0.07526308 0.0141312545
000320 9a b8 98 3d 40 77 15 3d cf 44 a5 3d 9e 4c b6 bd
       0.07457085 0.03649068 0.08069765 -0.08901332
000330 03 5f 74 bd 69 b8 e4 bd 7e a5 e1 bd 41 b7 a7 3c
       -0.059660923 -0.11167986 -0.11017893 0.020473124
000340 1d 24 5b 3c 8e fc fb 3d 8b 15 93 3d a6 05 3e bd
       0.013375309 0.1230403 0.07181843 -0.046392106
000350 e1 a0 f3 3d 9e 26 07 bd a7 54 ac bc d8 d3 a8 3d
       0.118959196 -0.032995813 -0.02103646 0.08243531
000360 3e 71 b6 3d a6 f1 7d bd 6f a4 5e bd 50 86 e6 bd
       0.08908318 -0.061998032 -0.054356035 -0.11256087
000370 8e 53 09 be af 74 76 bc d2 65 ed bd c4 50 88 bc
       -0.1341078 -0.015042468 -0.11591686 -0.016640075
000380 1a 58 c4 bd 8b f2 c8 bc 75 8e 6a 3d c7 d8 f4 bd
       -0.095871165 -0.024529716 0.057264764 -0.119554095
000390 be 03 b2 bd bb 69 bc 3d 4b 75 18 3d 73 5a 32 bd
       -0.0869212 0.09199854 0.037221234 -0.04354329
0003a0 c1 d0 8b bd ef 58 de 3d c3 95 b1 bd 33 32 b8 bd
       -0.06826926 0.108568065 -0.08671143 -0.0899395
0003b0 16 68 a1 bb 19 58 c8 3d 06 6a a1 bd f4 54 27 3d
       -0.004925738 0.09782428 -0.078815505 0.040852502
0003c0 c1 31 8a 3d cc a3 03 3b 50 81 b4 3d 65 fd d8 bd
       0.06747771 0.0020086644 0.08813727 -0.10595206
0003d0 fe 5d d2 bc c1 17 7d 3d a6 74 9c bc 17 5b 4a 3d
       -0.025679585 0.06179023 -0.019098591 0.049403276
0003e0 da e5 b8 bd 08 b6 98 3c b0 99 8a bd f9 f6 49 bc
       -0.09028216 0.018641487 -0.06767595 -0.012326949
0003f0 75 66 13 3c 74 7b cb 3d 35 36 f2 bc 01 5a 0c bd
       0.008996596 0.09935656 -0.029566864 -0.034265522

model.transforms.0.encoder.noise_dist.transforms.0.ar_net.l_out.0.weight f4 [33, 64]
000000 f2 62 0a be 42 5e a2 bd ff 47 ab 3c 67 85 b8 3d
       -0.13514307 -0.079281345 0.020908354 0.090098195
000010 c1 01 a8 3d 4e 69 67 bc b3 c0 9c bd 0c 62 09 3e
       0.082034595 -0.014124228 -0.07653942 0.13416308
000020 9d 76 99 3c df 11 bb 3d 17 05 b5 3d b2 c6 12 3e
       0.018733317 0.09134268 0.088388614 0.14333609
000030 c6 f7 6a 3d 8c 57 45 bb 4e ef 24 39 13 75 78 bd
       0.0573652 -0.0030111996 0.00015729407 -0.060658526
000040 71 d3 40 3d 6d 1a c4 bc e1 28 ae 3d 7f 2d f6 3d
       0.047076646 -0.023938382 0.08503891 0.120203964
000050 6c 7c 6f bd 24 de da 3c 9b c2 df 3b c6 b8 b3 3c
       -0.058468267 0.026717253 0.0068286187 0.021938693
000060 df db d0 ba aa ef a7 b9 a2 8c 05 be 4b d3 d0 bd
       -0.0015934667 -0.00032031286 -0.13041928 -0.10196551
000070 3f b5 a2 3c 92 8b 26 bd 7e 51 ac 3d 80 be 00 be
       0.019861815 -0.04066045 0.08413981 -0.1257267
000080 2e 2f 04 3d c7 cc 6b 3d 65 76 0a 3e d4 d7 dc bd
       0.032271557 0.057568338 0.13521726 -0.107833534
000090 3c db fc 3c f9 be cd bd c3 47 f9 bd f1 24 f1 bd
       0.030866258 -0.10046191 -0.121718906 -0.11774624
0000a0 0f 13 5d bc 24 a0 b7 3d cf 1a 74 bc 1d 64 03 be
       -0.013493313 0.08966091 -0.01489897 -0.12831159
0000b0 19 40 8e bd 45 f3 03 3e 31 db 58 bd a2 b6 fa 3d
       -0.069458194 0.12885769 -0.052943412 0.12241866
0000c0 53 e5 8d bd 3b ea 8c bd 8f 02 b8 3c ec 11 8b bd
       -0.06928506 -0.068806134 0.022462158 -0.06790528
0000d0 ce 3a 9a bd e7 3a 3f 3d 26 28 33 3d 54 1d 84 3d
       -0.07530747 0.046687033 0.04373946 0.064509064
0000e0 d5 94 80 bb c2 4a 45 bc dc 5c c8 bd 72 d6 0e 3e
       -0.003923992 -0.012041749 -0.097833365 0.13948992
0000f0 1c 3f 94 3d 72 59 fb bd 0e d9 44 bd 25 2a fc 3c
       0.072386 -0.1227292 -0.048058562 0.030781815
000100 f8 2b b0 3d e1 6e dc 3d 30 8f de bd 94 0d e6 b9
       0.086021364 0.10763336 -0.108671546 -0.00043879135
000110 2b 3c 2c bd d8 64 31 bd 3a fb b3 bd af 27 97 bb
       -0.04204957 -0.043309063 -0.08788152 -0.004612885
000120 61 0c b6 3d e2 3c 53 bd 7d 8b 86 3d 20 34 b1 3d
       0.0888908 -0.051571734 0.06569574 0.0865252
000130 41 6a a7 bd 5e 35 19 bd e8 83 71 bd ec fd b1 3d
       -0.08174563 -0.03740441 -0.058963686 0.0869101
000140 49 06 a8 3d 4a f0 89 bd 7d ec f7 bd b2 2b b3 3c
       0.08204324 -0.067352846 -0.121056534 0.021871421
000150 82 ba c6 3d 40 01 6a 3d fa b7 83 3d 6c 97 d9 3d
       0.09703542 0.0571301 0.06431575 0.106245846
000160 7b e9 f2 3d 90 93 c5 bd 03 cd 72 3d ea 3f 9c bd
       0.11860939 -0.09647286 0.059277546 -0.07629378
000170 9d b8 57 3d ca 85 f8 bd 1f 2f e0 bb 0a 63 b4 bd
       0.052666295 -0.12134893 -0.006841555 -0.08807953
000180 0c 6f cb bd 8d 0c e6 bb c8 0b 28 3d cc a7 f4 3d
       -0.0993329 -0.007020539 0.04102686 0.11946067
000190 08 3e 0a bc 0d 3b c9 3d 9a d9 d4 3d 6f ec 29 3d
       -0.008437641 0.09825716 0.10393067 0.041485246
0001a0 06 55 e1 bd 51 28 99 3d 17 12 cf 3d 10 1c 5f bc
       -0.11002545 0.07478393 0.10110872 -0.01361753
0001b0 1f 14 81 bd 1b fa 70 3d c6 0b 5d bd 5c c1 0b be
       -0.06302666 0.05883227 -0.053966306 -0.1364798
0001c0 4e 00 8c bd 58 0b 6b bd fd 1f 8b bb 91 4d 23 bd
       -0.068359956 -0.057383865 -0.0042457567 -0.039868895
0001d0 d6 5e a2 bd 06 30 82 3d fa eb d1 bd 05 3d a7 bb
       -0.07928245 0.06356816 -0.10250087 -0.0051037096
0001e0 04 02 6c 3d 8c b9 06 be 09 00 d6 bd 5f ac ac 3d
       0.05761911 -0.13156718 -0.104492255 0.08431315
0001f0 c4 97 b1 3b 66 93 3f 3c 1c 62 ee bd df b2 9a 3d
       0.005419703 0.011692857 -0.11639807 0.07553648
000200 6b b9 9e bd 74 a3 22 3d a6 df 83 3d 3c 7d 01 3e
       -0.077502094 0.039706662 0.06439142 0.1264543
000210 46 1b 09 be ee df db bd 8c 68 68 3d 75 92 d1 3d
       -0.1338931 -0.107360706 0.05674033 0.102330126
000220 bb 7e d8 bd 27 66 aa 3c 7f 41 03 be 6b 89 b8 bd
       -0.10571047 0.020800663 -0.12817954 -0.090105854
000230 f7 bb e2 bd ee 6d 30 3c eb 00 b9 bb e0 d3 c9 bd
       -0.11071008 0.010768397 -0.0056458614 -0.09854865
000240 cb 8b d7 bd b2 1b 13 3d 83 89 c3 3d 8a 5a e4 bd
       -0.1052471 0.035915084 0.09547713 -0.111500815
000250 9b 75 07 bd cf f0 a5 bd f0 11 28 bd 3d 16 c4 bd
       -0.03307114 -0.08102571 -0.04103273 -0.09574554
000260 d1 0c 72 3d 5f c0 97 3d ea b2 6b 3d d7 6f 96 bd
       0.059094254 0.07409739 0.057543673 -0.073455505
000270 44 a4 3a 3d 4e 86 1a bd c9 39 e1 bd 83 1e 9c bc
       0.045566812 -0.03772574 -0.1099735 -0.019057518
000280 2a 4c 98 3c 45 7d e9 bd 93 e7 4d 3d 64 1c ae 3d
       0.018591005 -0.114008464 0.050269675 0.08501509
000290 4e 2b d6 3c 46 12 37 3d 01 a8 8d 3d 7b c3 ec bd
       0.026143696 0.04469516 0.0691681 -0.115607224
0002a0 3c 65 84 bd be 47 85 3c 76 b3 d9 bd d1 b7 99 3c
       -0.064646214 0.01626956 -0.106299326 0.018764408
0002b0 6d dc cb 3d 23 b2 e4 bc 6b f2 dc 3d 7f f4 d5 3c
       0.09954152 -0.027916973 0.10788425 0.026117561
0002c0 37 28 b6 bd a5 11 54 bd 4b 29 e0 3d 86 11 ca bd
       -0.08894389 -0.05177464 0.10945376 -0.098666236
0002d0 dd 4b 92 3d 61 3d 95 bd d0 40 97 3d 51 68 dc 3d
       0.07143376 -0.07287098 0.07385409 0.10762084
0002e0 46 a0 a2 3d 62 55 ed bd 12 a4 a3 b9 ba 53 68 bd
       0.07940726 -0.11588551 -0.00031212025 -0.056720473
0002f0 c8 7d f9 3d da c6 df bd 3e c8 85 bd 42 37 d7 bd
       0.12182194 -0.109266 -0.06532334 -0.105085865
000300 3e 23 d8 bc 8f e1 4e 3d c5 c3 dd 3d cd 6e 91 3d
       -0.026383992 0.05050808 0.10828356 0.07101212
000310 e0 5c 1d 3d 36 8f 78 3d 0e 28 e3 3c 6d 8d bd bd
       0.03841865 0.06068345 0.02772906 -0.092554905
000320 8a e3 02 bc 00 49 de bd 5a db 9e bd f3 c3 cd 3d
       -0.00798882 -0.108537674 -0.07756682 0.1004714
000330 40 a4 7c 3d 92 e5 a8 bc 60 76 f2 bb 53 f7 95 bc
       0.06168008 -0.02061728 -0.0073993653 -0.01830641
000340 6e 18 d3 3d fd 3c 09 3e 92 81 bb bd a0 c8 0d bd
       0.10307394 0.13402171 -0.09155573 -0.03461516
000350 5c f5 36 3d 07 58 67 bb e5 59 8b 3d 06 ba 07 3d
       0.044667587 -0.003530027 0.068042554 0.03313639
000360 94 fd 44 bd d7 31 06 be a9 09 99 3d c0 13 6d bd
       -0.048093393 -0.1310495 0.07472546 -0.057880163
000370 47 04 eb 3d 4e 98 36 bd ee 35 ae bd 79 cc 49 3d
       0.11475425 -0.044578843 -0.0850638 0.049267266
000380 10 b9 9c bc 0e b9 01 be 29 ba 9c 3d 2b e7 2e 3d
       -0.019131213 -0.12668249 0.07652695 0.042700928
000390 16 28 c3 3d 72 0d be 3d 5a dd 35 3d 6d f8 9d bd
       0.0952913 0.09279908 0.04440055 -0.07713399
0003a0 bc c2 e9 3d 69 b8 e2 3d 28 10 da bc b6 cd ba bd
       0.11414096 0.1107033 -0.026619032 -0.091212675
0003b0 c9 d1 0f 3d 47 31 8e 3d 8f df 11 3d 01 15 2d bd
       0.035112176 0.06942993 0.035613593 -0.04225636
0003c0 28 e3 9c bd bb 4a 77 bd dc 7b c2 bd df d3 af bd
       -0.07660514 -0.060374003 -0.094962806 -0.08585333
0003d0 bb 04 eb 3c f9 2a 0c 3c 54 c5 27 3d 69 bd 11 bd
       0.02868878 0.008555167 0.04095967 -0.035581026
0003e0 74 3d e1 bd 2b b5 f0 bd d3 c2 ab bd 57 32 99 bd
       -0.109980494 -0.11753305 -0.08386769 -0.07480305
0003f0 5b e4 d9 bd 95 14 45 3d be a6 85 bd 14 58 e3 3d
       -0.106392585 0.04811533 -0.06525944 0.11100784

model.transforms.0.encoder.noise_dist.transforms.0.ar_net.l_out.0.bias f4 [33]
000000 64 0e 8b 3d 0c d9 35 3d 51 e3 01 3e f1 eb 8f bd
       0.06789854 0.044396445 0.1268437 -0.07027424
000010 f5 cd f0 bc 19 01 89 3d 04 cd 5c bc 7f 23 8b bd
       -0.029395083 0.066896625 -0.013476614 -0.0679388
000020 4d 2b e6 3c 2f 1c b9 bd c4 3e c6 bd ce bc c3 3c
       0.02809682 -0.09038579 -0.0967994 0.02389374
000030 1e 4e df 3d 9d 41 18 3d c8 29 ba 3d 65 1d c3 3d
       0.109035715 0.03717195 0.090900004 0.09527091
000040 c3 e7 32 bd fa de bb bd 9a 9c 90 3b f0 b0 0c bb
       -0.043678056 -0.09173389 0.0044131996 -0.0021467768
000050 39 a4 8d 3d 06 c0 0c 3c a7 ec ce 3d 68 52 47 3d
       0.069160886 0.008590704 0.101037316 0.048662573
000060 ce 77 cf 3d 99 0b c1 bd df 73 30 bd a0 bc 08 3e
       0.10130273 -0.0942604 -0.043079253 0.13353205
000070 61 45 a0 bd ef fa 2d 3d be 7d c3 3d 89 b9 46 bc
       -0.07825733 0.042475637 0.09545468 -0.012129196
000080 a8 e3 b5 bd
       -0.088813126

model.transforms.0.encoder.noise_dist.transforms.0.ar_net.l_out.1.first_token f4 [1, 1, 33]
000000 d6 33 04 3e 07 aa 5e 3c 2e 5b e4 bb d3 b5 5f be
       0.12910399 0.013590342 -0.0069688773 -0.21846704
000010 a8 50 83 3e d9 e3 96 bd 82 29 63 be 91 a7 81 be
       0.25647473 -0.07367677 -0.22183803 -0.25323156
000020 32 10 d6 bd 30 41 0e be cc 85 b8 3d 39 57 6e bd
       -0.10452308 -0.13892055 0.09009895 -0.05818865
000030 95 b4 23 3e b6 a6 08 3e bd 6f 7d 3e 12 66 18 3e
       0.15986855 0.13344845 0.24749656 0.14882687
000040 5b 78 09 3e ba 3e 50 3e 57 57 9e 3d 5c bd da 3c
       0.13424818 0.20336428 0.077315025 0.026701622
000050 36 c7 7c 3d 05 65 b3 3d 76 3c 63 bd 7d 6e 33 be
       0.06171342 0.08759502 -0.055477582 -0.17522617
000060 72 18 0a 3e 44 51 0f be fc 5d 80 be dc c7 34 be
       0.13485888 -0.13995844 -0.25071704 -0.17654365
000070 df 46 d5 ba 4b bc 17 be e2 7f 2a be 54 3b 3d 3e
       -0.0016271732 -0.14817922 -0.16650346 0.18479663
000080 e8 a0 52 be
       -0.20569193

model.transforms.0.encoder.noise_dist.transforms.0.autoregressive_net.lstm.weight_ih_l0 f4 [256, 35]
000000 8e ab c8 3d 2b 3c e1 bd 96 da b9 bd 82 61 09 3e
       0.097983465 -0.10997804 -0.09074895 0.13416103
000010 79 67 c1 bc 5c 32 1a bc f6 a9 2b 3d 37 a7 93 3d
       -0.02360891 -0.009411421 0.041910134 0.07209628
000020 cf 37 7f bd 27 1e e3 bd 07 f7 24 3c d4 83 e8 3d
       -0.062309083 -0.110897355 0.0100686615 0.11353269
000030 67 76 0a bd d0 c6 00 3e c1 af a9 bb 05 6a f7 3d
       -0.033804324 0.12575841 -0.005178422 0.120807685
000040 ef ac 37 3d e4 b7 06 3e 22 a8 c6 3d 09 39 29 3d
       0.044842657 0.13156086 0.097000375 0.04131416
000050 b1 3a 5d bc 72 44 8b bd 6c 2d a3 3d c1 3e 87 3c
       -0.013502763 -0.06800164 0.07967648 0.016509416
000060 66 66 4e 3d b7 23 de 3b 30 48 f8 bd 7c 39 93 3d
       0.050390624 0.00677916 -0.12123144 0.07188699
000070 86 5c 10 3d 06 47 1b 3e 84 3a 39 3d 60 74 42 3d
       0.035244487 0.15163812 0.04522182 0.047474265
000080 96 39 a9 3d ef 0b 28 3d db 10 f2 3d 46 4e c9 bd
       0.08262937 0.041027006 0.11819621 -0.098293826
000090 d9 1c 98 3c 1e 88 52 bd 2e e5 91 3c 3f 79 ad 3a
       0.018568443 -0.051399343 0.017809477 0.0013234987
0000a0 e3 32 dd bd fc e3 08 3d 46 a1 04 bd 0e cf f3 bd
       -0.108007215 0.033420548 -0.032380365 -0.11904727
0000b0 df be 94 bc 0e 77 a3 bd 40 b6 f6 bc 8d 7f ee bd
       -0.01815742 -0.07981692 -0.0301162 -0.11645422
0000c0 01 9c b1 bd c9 68 91 bc c8 70 e2 bd 89 2a 37 bd
       -0.086723335 -0.01775016 -0.110566676 -0.0447183
0000d0 07 ec 5f bc 1e 98 c0 bd b5 ea 46 bd cb 1f a4 3d
       -0.013667113 -0.09404014 -0.048563678 0.080138765
0000e0 6e b0 aa 3c 0f 6f a5 bd 62 73 68 3d 8a 49 88 bd
       0.020836081 -0.08077823 0.056750663 -0.066546515
0000f0 2f ca dd 3a a4 ea d0 3d fd 94 78 bc a6 56 c7 3d
       0.0016921217 0.10201004 -0.01517224 0.09733324
000100 70 10 d5 bd e9 3a e3 bd 65 4d 8c bd 16 44 86 3d
       -0.10403526 -0.110952206 -0.06850699 0.06555955
000110 c3 5f e2 3d d4 bc 55 bd 51 c4 94 3d 92 af 60 3d
       0.11053421 -0.052182034 0.07264007 0.054854937
000120 47 18 c4 bc 63 a1 0a 3e fe 14 a5 3c 4d db bc 3d
       -0.023937358 0.13538127 0.020151611 0.09221516
000130 30 dd de bd a3 36 1b bd 88 4f c4 3c 3e 55 04 3e
       -0.10882032 -0.037893903 0.023963705 0.12923142
000140 87 13 07 be 4d 2d 80 3d e5 de e6 bd 40 10 84 3d
       -0.13191043 0.062586404 -0.112729825 0.06448412
000150 a4 80 a4 bd 34 50 97 3c fc bd 81 3d f1 0c c2 3d
       -0.08032349 0.018470861 0.06335065 0.094751246
000160 42 54 26 3d 9d f9 f2 bb 8c 78 6c bd 88 f9 f3 3c
       0.0406077 -0.00741501 -0.05773215 0.029782072
000170 c4 8a 88 3d 78 60 cb bd ee ce a1 3d 92 8c a4 3a
       0.066670924 -0.09930509 0.07900797 0.00125541
000180 dc 53 ac bd 34 2a 89 3d db 08 a2 3c a0 59 bb 3c
       -0.084144324 0.06697503 0.019779613 0.022869885
000190 cb 46 8a 3c 89 6f 8c bd c4 43 a8 bc dd a9 fa bc
       0.01687946 -0.06857211 -0.020540126 -0.030598575
0001a0 ae 0f c1 bd f9 90 e2 3c 25 47 3d bc 96 eb 6c 3c
       -0.09426819 0.027657019 -0.011552607 0.014460465
0001b0 92 1e 69 bd 24 85 f5 bc 06 25 83 3d 8f 8d 01 be
       -0.05691392 -0.029970713 0.06403546 -0.12651657
0001c0 c7 76 c6 3d dc ca 57 bd 8a 6f d3 3d 09 4f 90 3d
       0.09690624 -0.052683696 0.10324009 0.07046325
0001d0 79 a5 ff 3c f8 cb af 3d 76 20 10 bd 48 a5 75 3c
       0.031206833 0.08583826 -0.035187207 0.014993019
0001e0 39 1e 5a 3d 08 0d 47 3d 03 16 cf bc 29 23 e8 bd
       0.05325148 0.048596412 -0.02527905 -0.11334831
0001f0 3f ec 88 bd ae 6e 67 3c 7a 3c ba bd ce 0c 90 3d
       -0.06685685 0.014125509 -0.09093566 0.07033692
000200 b3 dd 77 3d c8 ef 7f 3d 59 2d 96 bc a6 fc 80 bd
       0.060514163 0.062484533 -0.01833217 -0.06298189
000210 cf 1b e1 bd 42 7b 20 3d 11 05 c4 3d fc f8 8e 3c
       -0.10991632 0.039180048 0.09571279 0.01745271
000220 2d b0 36 bd 0c 81 2a 3d 47 1d 4d 3d 83 4b de 3d
       -0.044601608 0.041626975 0.05007675 0.108542465
000230 e9 d1 bd bb ea ed fa bd 09 15 99 3c 7a ab ec bc
       -0.0057928455 -0.1225241 0.018686788 -0.02889036
000240 87 85 4e 3d 4f bd 05 be 36 6a 68 bc 30 46 be bd
       0.05042031 -0.13060497 -0.014185479 -0.09290731
000250 b3 ea c8 bd 56 14 b1 3d 63 d9 c8 b9 8c 51 33 bc
       -0.0981039 0.08646457 -0.00038308938 -0.010944735
000260 35 06 50 bd e3 d1 9e bc f8 44 4b 3d b9 37 90 bd
       -0.05078717 -0.019387191 0.04962632 -0.07041878
000270 e3 39 ab 3d 58 dc 5c 3d 93 cd 2e bd 64 a8 f9 3c
       0.083606504 0.053921074 -0.04267652 0.030475803
000280 6b 4d 1f bd 03 00 8f bd d1 d4 8d 3d 05 02 16 3d
       -0.03889219 -0.06982424 0.06925357 0.03662302
000290 bd e6 6e bd c3 71 d6 bd d6 60 54 bd 95 c4 7f bd
       -0.058325518 -0.10470917 -0.051850162 -0.062443335
0002a0 db 20 19 3d e7 22 19 bb ff c6 e0 bd a3 bf 4c bd
       0.03738485 -0.002336675 -0.109754555 -0.049987447
0002b0 69 76 8d 3d 4b 70 14 bd 55 83 c9 bb 67 23 19 3e
       0.069073506 -0.036239903 -0.006149689 0.14954911
0002c0 8c 35 35 bd f4 4f 7e bd 17 50 ca bc c4 d5 20 3e
       -0.04424052 -0.062087968 -0.024696393 0.15706545
0002d0 07 a2 9b bd b6 75 86 3d e1 18 12 3e f7 9f c8 b8
       -0.07599264 0.0656542 0.14267303 -9.566539e-05
0002e0 d9 d9 17 bd d5 2a d7 bd 6d 87 ab 3d f8 15 9d 3d
       -0.03707299 -0.105062164 0.0837544 0.07670206
0002f0 73 35 95 3b 2c 46 cc bc 93 c5 91 bd a8 98 c8 bd
       0.004553491 -0.024935804 -0.071177624 -0.09794742
000300 ac 7e 7a bd 43 dd df 3d 23 14 54 bc ee 97 15 3d
       -0.06115596 0.10930874 -0.012944254 0.036521845
000310 80 85 00 3e 97 23 13 3d e7 ea 78 3c 94 39 e4 bd
       0.12550926 0.035922613 0.015192724 -0.11143795
000320 e4 ce f1 3d 10 b8 24 be f5 47 82 bc 63 e8 90 bd
       0.118070394 -0.1608584 -0.015903452 -0.07075574
000330 f4 63 b2 bd d5 d9 9d 3c 49 1d 8b bc 30 66 57 be
       -0.08710471 0.01926891 -0.016981738 -0.21035075
000340 fe 7c ff bd 92 d0 67 bd 4b fb 06 bd d8 ce 08 3e
       -0.12475012 -0.056595393 -0.032954495 0.13360155
000350 e3 9c 9e 3c d1 9e 97 3d 4c 1c 15 3e 91 aa c6 bd
       0.019361919 0.07403339 0.14561576 -0.09700502
000360 08 29 ed 3c ea 30 2a bc e5 2c ff bd 70 20 15 bd
       0.02895023 -0.010387639 -0.12459735 -0.036407888
000370 f9 12 09 be 9f fc db 3d 53 42 6b 3d 28 06 a3 3d
       -0.13386144 0.10741543 0.0574363 0.079601586
000380 1f a9 9d bc 4f b1 a8 3d 66 82 63 3d b0 1a 05 be
       -0.019245682 0.08236944 0.05554428 -0.12998462
000390 cd 6a 35 bd f5 1a a6 bd b3 1c 5b bd e0 87 97 bd
       -0.044291306 -0.081106104 -0.053494167 -0.07398963
0003a0 03 11 0c 3e 4a 37 af 3a 45 e3 e0 bd 95 2c c0 bd
       0.13678364 0.0013367918 -0.10980848 -0.09383503
0003b0 64 06 28 be 32 eb 02 bd cb 8c 14 bb bc 63 8a bd
       -0.16408688 -0.03196258 -0.0022666927 -0.06757304
0003c0 13 93 e6 bd bf b8 0f 3d bf eb da bd 01 65 ce bd
       -0.11258521 0.035088297 -0.10689496 -0.10077859
0003d0 de c8 49 bc 04 17 53 3c 9e 57 e4 bc 81 ac 18 3c
       -0.012315957 0.012883905 -0.02787381 0.009318472
0003e0 92 12 de bd 03 20 ef 3c 64 a9 b8 3d 22 b8 48 3d
       -0.10843386 0.029190069 0.09016684 0.049003728
0003f0 ba 51 bb 3d 50 9c e6 3d f5 7e a5 bd e6 54 bf bd
       0.091464475 0.11260283 -0.08080856 -0.09342365
