checkpoints/pair_2/S_6_K_6/ArgmaxAR/15_05_2023__21_05/cktp/checkpoint_0002500.tar (torch, 796123 bytes, 89 tensors)

model.base_dist.loc f4 [1, 3, 1]
000000 87 92 93 bc 6e 97 89 bc 17 34 67 3b
       -0.018014206 -0.01679584 0.003527885

model.base_dist.log_scale f4 [1, 3, 1]
000000 27 23 0e 3d b1 0a e3 3c c6 87 24 3d
       0.034701493 0.027715059 0.040168546

model.transforms.0.encoder.noise_dist.base_dist.net.weight f4 [6, 32, 1]
000000 e2 4b dd bd ae 44 c9 3d b8 92 4c be b7 a8 89 be
       -0.10805489 0.09827553 -0.19977844 -0.26886532
000010 ab 8d 9d 3d d5 9a a0 3d f8 6b 12 be e1 c0 e3 3c
       0.07693037 0.07842032 -0.14299 0.027801933
000020 89 97 3b be 5a 8b 1f 3d 9b 21 65 be 31 6f 18 be
       -0.18319525 0.038951255 -0.223761 -0.14886166
000030 8f c9 56 3e fd 95 58 bc e8 87 e4 bd 80 f1 5f 3e
       0.20975326 -0.013219354 -0.111587346 0.21869469
000040 8b d2 3c 3e 77 5d a1 bd 03 3f 9e 3d eb 48 94 3e
       0.18439691 -0.07879155 0.07726862 0.28961882
000050 87 c8 7d bd 30 96 61 be 2e 75 31 3e 8a db 35 be
       -0.061958816 -0.22029948 0.17329857 -0.17759529
000060 4a 96 a5 bd 28 7a 3a bd a5 c8 cf bd 5d 45 bb bd
       -0.08085306 -0.045526654 -0.10145692 -0.09144089
000070 cf f8 4d be 3a 88 ba 3d 63 12 87 bc c3 6d 35 3e
       -0.20114444 0.091080144 -0.01648826 0.17717652
000080 0e 3e 19 3d 46 70 cc 3d dd 0c 68 be c5 c5 55 be
       0.037412696 0.09982352 -0.22661157 -0.20876224
000090 be 72 0c 3e 10 6f 87 bc 64 21 90 3d aa 7e e3 bd
       0.13715646 -0.01653245 0.07037619 -0.11108144
0000a0 55 17 7d 3d 2e 00 1e 3e 9d 95 36 be 92 df 47 bd
       0.06178983 0.15429756 -0.1783051 -0.048797198
0000b0 c2 4a 2e 3e 67 41 30 bd 81 b7 3d bd 1c aa 11 3e
       0.17020705 -0.043031123 -0.04631758 0.14225048
0000c0 ee d5 7d 3d 23 3c 19 3e d6 c0 88 bc 59 16 11 3e
       0.061971597 0.14964347 -0.016693514 0.14168681
0000d0 f5 d4 92 bd f2 49 10 bd 83 9e bb 3d 55 52 54 be
       -0.071695246 -0.03522677 0.09161093 -0.20734532
0000e0 1b 8e 71 be d7 ee c1 bd 7c 52 e0 3d 05 ae 0a bd
       -0.23589365 -0.09469383 0.10953233 -0.033857364
0000f0 a1 98 79 bd cc 5a 24 be 17 09 94 bc 71 be 60 3d
       -0.060936574 -0.16050261 -0.01807074 0.05486912
000100 17 93 d9 3c ff ed 50 3e 6c 95 e7 bd c6 43 30 bd
       0.026559396 0.20403288 -0.11307797 -0.043033384
000110 75 b4 89 bd 3f ad f9 3d 23 54 52 be cd 47 82 3c
       -0.067238726 0.12191247 -0.20539908 0.015903378
000120 c1 92 ce bb 54 ee 5f bd eb 54 98 be c0 d4 34 be
       -0.0063041155 -0.054670647 -0.29752287 -0.17659283
000130 e8 e2 52 3e 48 67 dd 3c 82 5c 2a bc 20 5a 7c 3d
       0.2059437 0.027026787 -0.010398032 0.061609387
000140 ee 33 8a 3e 78 53 06 bc 83 39 be 3d 41 ff fa 3d
       0.26992744 -0.008198611 0.09288313 0.12255717
000150 37 7a 87 3d ee 41 88 be e1 da 5a 3e a6 da 32 be
       0.066151075 -0.266128 0.21372558 -0.1746622
000160 a0 12 97 bd 82 c6 39 be 40 b0 c8 3d 61 e6 68 3e
       -0.07376599 -0.18142131 0.09799242 0.22744133
000170 7b 93 55 be d0 83 17 be 5b cd ca 3c 03 89 5e 3c
       -0.2085704 -0.14796376 0.024756124 0.013582471
000180 e4 74 f4 bd e8 cf c4 bd 4b 17 a8 bd d5 97 b4 bd
       -0.119363576 -0.096099675 -0.08207568 -0.08818022
000190 e3 8e 23 3d 26 ef fe bd b5 63 20 be bf 83 10 3e
       0.03993119 -0.12447958 -0.15663035 0.14112757
0001a0 35 bd 20 3e 93 39 b1 bd bb cf fb bd 4a 62 18 3e
       0.15697177 -0.086535595 -0.12295481 0.14881244
0001b0 be 88 35 3e 22 fb 12 3e ca 7a 6f 3d 38 67 90 bd
       0.17727944 0.14353612 0.05846671 -0.070509374
0001c0 07 34 8e bc fc 29 26 3d a7 91 40 3e 00 00 8c bd
       -0.017358793 0.040567383 0.18805562 -0.068359375
0001d0 9b b7 2a 3c 04 2b fc 3d 61 7d 1c bd aa 04 60 bd
       0.0104197515 0.12312892 -0.03820551 -0.054691948
0001e0 d9 27 6b 3d 5d 6c de bd 31 4e cb 3d 59 0f 28 3e
       0.05741105 -0.108605124 0.09927023 0.16412105
0001f0 95 8b 23 3e b1 a6 b9 3d cb 31 16 be b5 9e b8 3d
       0.15971215 0.09064997 -0.14667432 0.09014646
000200 ec 65 2e bc 43 f8 c9 3c 0e 3c 08 3d 20 fa d8 bd
       -0.010644417 0.024654513 0.033260398 -0.105945826
000210 19 74 ed bd 18 1c 1f 3d bb 6b 8f bd 7b 5d a1 bd
       -0.115944095 0.03884515 -0.0700297 -0.07879158
000220 5c 35 81 bd 39 15 de 3d e5 78 c5 bd 6b 26 45 3d
       -0.063090056 0.10843892 -0.096421994 0.04813234
000230 2d 69 0b 3e 83 14 15 3d 12 14 74 3d e9 b3 37 bd
       0.1361434 0.036396515 0.059589453 -0.04484931
000240 a3 97 e7 bc 83 6e c6 bd 47 f6 1f 3e 5d 83 17 3d
       -0.028270548 -0.09689047 0.15621291 0.036990512
000250 7b 1a 85 3d f3 67 0b 3e bf c1 45 be f0 72 2b 3e
       0.064991914 0.13613872 -0.1931219 0.16743064
000260 43 1c 06 be 07 83 64 bd 0e a7 6f 3d 9a df e9 bc
       -0.13096718 -0.05578902 0.058508925 -0.028549004
000270 cc 2f 06 3d 43 3f cc 3d 6a 39 95 3d 44 10 06 be
       0.032760426 0.09973004 0.072863415 -0.13092142
000280 b2 4d 8d bd c4 e3 81 3d 84 90 ef 3c f2 c0 db 3c
       -0.06899585 0.06342271 0.029243715 0.026825402
000290 fd 2c 20 3e 5e 80 0e be 6b e0 08 be 0f 24 cd bd
       0.15642162 -0.13916156 -0.13366859 -0.10016643
0002a0 02 5d c0 bd e4 5a 1e bc de eb d2 3d 78 8f 0b 3e
       -0.0939274 -0.009665225 0.10298894 0.13628948
0002b0 02 f6 f3 bd d2 ca f4 bc 84 5f 08 3e 94 dc cd 3d
       -0.11912157 -0.029881869 0.13317686 0.100518376
0002c0 67 7d 4f bd ed 44 eb bd d2 b5 0c 3e 53 c9 e2 3d
       -0.050656702 -0.11487756 0.13741234 0.11073556
0002d0 88 a7 21 3d 31 82 e8 bd a2 d7 04 3e c5 7f 0e 3e
       0.03946641 -0.11352957 0.12972882 0.13915928
0002e0 f9 d7 a7 bd 06 28 0f be 2d e1 0f be e7 c7 8b 3c
       -0.081954904 -0.13980111 -0.14050741 0.017063094
0002f0 41 dd bc bb 44 ba 29 3e 67 ae 31 3b 5a 98 f4 3d
       -0.00576368 0.16574961 0.0027112009 0.11943121

model.transforms.0.encoder.noise_dist.base_dist.net.bias f4 [6]
000000 83 59 b4 bc 97 ea fc 3d 34 4c fa 3d f2 c1 25 3b
       -0.022015339 0.12349432 0.12221566 0.0025292602
000010 c6 8a c3 3d e4 6f 58 bc
       0.09547953 -0.013210271

model.transforms.0.encoder.noise_dist.transforms.0.ar_net.lstm.weight_ih_l0 f4 [256, 35]
000000 85 b1 db 3d 55 10 cd bd 2a 08 a2 bd 5d 2e f8 3d
       0.107272185 -0.10012881 -0.079117134 0.12118218
000010 4b 82 97 bc a8 5f c0 bc fc d3 0f 3d 9d 20 8a 3d
       -0.018494746 -0.023483112 0.035114273 0.06744502
000020 a8 b7 27 bd 05 fc eb bd 3d ff a2 3c d0 6c ce 3d
       -0.040946633 -0.11522678 0.019897098 0.10079348
000030 32 13 c3 bc 99 b0 e6 3d bd fa db bc e7 fe 05 3e
       -0.023812864 0.11264152 -0.02685296 0.13085519
000040 fd 70 ef 3c ff f9 e3 3d 01 c1 d4 3d 4f 05 54 3d
       0.029228682 0.11131667 0.10388375 0.051762875
000050 90 46 5a bc 08 67 75 bd 85 a5 b3 3d bf 93 b9 3c
       -0.0133224875 -0.05991271 0.08771805 0.022653459
000060 d8 bd 1c 3d c6 b4 a2 3c 5a 2d ff bd a8 d4 82 3d
       0.038266987 0.01986159 -0.12459822 0.06388217
000070 4a 04 ee 3c c9 ed 15 3e 7a 25 52 3d d1 17 f5 3c
       0.02905478 0.14641489 0.05130527 0.029918583
000080 31 ea aa 3d a9 ca 60 3d 99 8f fd 3d a1 ed c8 bd
       0.0834545 0.05488077 0.12380905 -0.09810949
000090 7b bd 69 3c 1c f2 4a bd 37 88 60 3c aa b9 8c bc
       0.014266367 -0.0495473 0.013704351 -0.017178375
0000a0 dc 8b e0 bd 4b 76 49 3d ac b6 3d bd ba 93 e3 bd
       -0.10964176 0.04918508 -0.046316788 -0.11112161
0000b0 b0 73 88 bc 2e d2 8e bd b8 cb be bc 25 5f 08 be
       -0.016656727 -0.06973682 -0.0232905 -0.13317545
0000c0 2e 87 92 bd 3c 46 ac ba ab a2 f3 bd ef f3 fd bc
       -0.0715469 -0.001314349 -0.11896261 -0.031000106
0000d0 20 60 8f bc d0 ed eb bd e9 75 88 bd 7a 24 94 3d
       -0.01750189 -0.115199685 -0.066631146 0.0723352
0000e0 ce 28 7c 3c 45 af b1 bd 36 d2 6f 3d f7 68 26 bd
       0.015390588 -0.08676008 0.058550082 -0.040627446
0000f0 1a f3 12 bc d3 b5 ff 3d b3 fa 0e bc 57 02 cf 3d
       -0.008969093 0.12485852 -0.008726764 0.10107868
000100 08 80 01 be be f3 ff bd c0 27 62 bd 50 92 87 3d
       -0.12646496 -0.12497662 -0.05521369 0.06619704
000110 39 a9 e5 3d d2 8c 63 bd 90 cc ab 3d 09 09 7f 3d
       0.11213917 -0.05555422 0.083886266 0.062264476
000120 11 f5 f4 bc 84 35 02 3e 43 f0 82 3c bc 2d c8 3d
       -0.029902013 0.12715727 0.015983706 0.09774348
000130 1e ad dc bd 49 60 5a bd ca a7 08 3d 94 99 00 3e
       -0.10775207 -0.05331448 0.03336314 0.12558585
000140 f6 be 01 be 4d 2a 5d 3d 65 fe e7 bd 1a 29 74 3d
       -0.12670502 0.05399542 -0.11327819 0.05960951
000150 39 2e ae bd 4f 28 7d 3c e3 5f 90 3d 7c 5a b9 3d
       -0.0850491 0.015451505 0.07049539 0.09050462
000160 d6 d3 0b 3d d7 d7 bf bb c3 bb 68 bd c6 1f 0a 3d
       0.03413757 -0.0058545875 -0.05681969 0.033721708
000170 a2 ca 88 3d dc 92 c4 bd b2 69 9d 3d c0 44 3e bb
       0.06679274 -0.09598324 0.076861754 -0.0029032677
000180 8b 9b 8d bd 92 0d 98 3d f8 e4 b2 3c 19 0a 98 3c
       -0.06914433 0.07424463 0.021837696 0.018559502
000190 07 b5 ad 3c fa 35 9f bd 95 47 a4 bc 94 ad 2f bc
       0.021204485 -0.07773967 -0.020053664 -0.010722537
0001a0 17 2a c9 bd 23 7d ce 3c 36 bc 2b bb 77 39 d9 3c
       -0.09822481 0.025206154 -0.0026204712 0.02651666
0001b0 e1 67 b1 bd 15 42 22 bd 74 eb 64 3d 3a b2 00 be
       -0.086623915 -0.039613802 0.055888608 -0.12567988
0001c0 13 7a ce 3d 85 36 1e bd df bf d4 3d 05 3f a3 3d
       0.100818776 -0.038626213 0.10388159 0.079710044
0001d0 44 e5 cc 3c 91 29 d7 3d 6c 6a 13 bd b4 09 cb 3a
       0.025011666 0.10505975 -0.035990164 0.0015490563
0001e0 51 2d 82 3d 3b 9e 3f 3c 75 17 88 bd 06 e4 f6 bd
       0.063563 0.01169544 -0.06645099 -0.12055211
0001f0 61 0c 88 bd 47 29 52 3c 7f 43 c6 bd 03 67 94 3d
       -0.06642986 0.012827224 -0.096808426 0.072462104
000200 6f bc 9a 3d ea 78 5a 3d be c8 70 bc 33 39 8c bd
       0.07555472 0.05333797 -0.014696298 -0.068468474
000210 95 38 f8 bd 32 8f fd 3c b7 92 bc 3d 6b d3 04 3c
       -0.12120167 0.03095207 0.09207671 0.008107047
000220 bc f5 12 bd 69 aa 1a 3d bd a4 91 3d fc 08 f9 3d
       -0.03587888 0.037760172 0.071114995 0.12159917
000230 5b 8f 77 39 86 1f de bd 8e a0 b1 3c c5 6f 4b bd
       0.0002360916 -0.10845856 0.021683004 -0.04966714
000240 e9 1d 36 3d 14 75 08 be 02 f8 c2 bc 25 df 8f bd
       0.04446212 -0.13325912 -0.0237999 -0.07024983
000250 60 94 b3 bd 26 0e b1 3d a0 c5 ee bc 5e 40 94 bc
       -0.08768535 0.08645277 -0.02914697 -0.018097099
000260 be 2a bc bc 10 50 e5 bc d9 82 43 3d 3e 44 81 bd
       -0.0229696 -0.027992278 0.047732208 -0.06311844
000270 99 29 52 3d f4 89 43 3d 6e cc 35 bd 70 2a f9 3c
       0.051309202 0.047738984 -0.044384412 0.030415744
000280 72 a6 0e bd 2c da 86 bd d9 81 9e 3d 43 12 20 3d
       -0.034826703 -0.06584582 0.0773961 0.039079916
000290 0d ab 69 bd 2e 65 ce bd a2 fb 72 bd 85 c4 89 bd
       -0.057047892 -0.10077892 -0.059322007 -0.06726936
0002a0 33 db 00 3d 90 9c 34 bc ca 35 dc bd 25 f9 1a bd
       0.031459045 -0.0110236555 -0.10752447 -0.03783526
0002b0 40 23 88 3d 39 b1 21 bd 8a be 80 3b 3e a5 e9 3d
       0.066473484 -0.039475653 0.003928964 0.114084706
0002c0 ec 18 95 bd e8 8d c6 bd f0 ec 40 bb 8d f5 c7 3d
       -0.07280144 -0.09695035 -0.00294381 0.09763632
0002d0 cc 1d b2 bc 46 5f e1 3d 31 8a af 3d b5 c2 d8 b9
       -0.021742724 0.110045 0.0857128 -0.00041343799
0002e0 7e fa 3f 3b e0 16 1e bd d2 72 de 3d 5d c2 26 3d
       0.0029293592 -0.038596034 0.10861744 0.040712703
0002f0 78 c2 44 3d a9 c7 7f 3c 35 4b ed bd 33 b2 67 bd
       0.048037022 0.015611568 -0.1158661 -0.05656643
000300 1d d5 11 bd e3 9d 47 3d 02 88 81 bd d9 63 5d 3c
       -0.03560363 0.048734557 -0.063247696 0.013512575
000310 0a 04 cf 3d 83 ba 93 bc 56 6b a0 3d 6d 7d 87 bd
       0.10108192 -0.018033272 0.07832973 -0.0661572
000320 83 23 68 3d 6a 39 cc bd e9 94 18 3d 32 38 17 bd
       0.05667449 -0.09971888 0.037251387 -0.036918826
000330 21 c7 69 bd 4b 03 39 3c e1 6f 2d 3d 76 7b 0d be
       -0.05707467 0.011292289 0.042343024 -0.13816628
000340 c8 20 cb bd ad a7 ca bd 2f 33 75 bd a6 3e 06 3e
       -0.09918362 -0.09895263 -0.059863266 0.13109836
000350 76 a7 6e bb ce 3e 84 3d b4 fa e9 3d 13 65 b7 bd
       -0.0036415732 0.064572915 0.11424771 -0.08954825
000360 d9 d8 58 3d fd 21 7a bd eb 58 cf bd 19 ca 85 bc
       0.052941177 -0.06106757 -0.10124382 -0.01633172
000370 2c 8b a6 bd 68 c0 e0 3d 37 46 1f 3d eb 4d c2 3d
       -0.08132014 0.109741986 0.03888532 0.09487518
000380 37 69 8a bc 2f 7c 8a 3d 47 26 9d 3d 29 78 1a be
       -0.016895873 0.067619674 0.076733164 -0.150849
000390 b1 70 85 bd a8 fc d8 bd 34 4c 9b bd 0d ea a0 bd
       -0.06515635 -0.10595065 -0.07582894 -0.07857142
0003a0 2c 43 ee 3d 33 b6 6b 3d d7 6b c7 bd 59 8c ea bd
       0.11633906 0.057546806 -0.09737366 -0.114525504
0003b0 e0 6c 02 be 2f ce 37 bc c8 da a4 3b bd fa 6a bd
       -0.12736845 -0.011218592 0.0050309636 -0.05736803
0003c0 a1 d5 cf bd e6 95 75 3d 62 7b 67 bd 0a e1 74 bd
       -0.10148168 0.059957407 -0.05651415 -0.059784926
0003d0 a4 8b a7 bc ce 46 8b 3c ab 7a ac bc e2 38 3e 3c
       -0.020452328 0.017001536 -0.021054586 0.011610242
0003e0 87 cb e8 bd 1a dd ee 3c 79 76 b7 3d 2c 3e 63 3d
       -0.11366945 0.029158164 0.08958144 0.055479214
0003f0 27 1c 85 3d 21 2b 09 3e 7d b3 a9 bd 17 d0 bf bd
       0.0649951 0.13395359 -0.08286188 -0.09365862

model.transforms.0.encoder.noise_dist.transforms.0.ar_net.lstm.weight_hh_l0 f4 [256, 64]
000000 0c f9 42 bd 29 01 ba 3c a6 ee c5 3d 46 89 c0 3c
       -0.04760079 0.022705631 0.09664659 0.023502957
000010 8f c7 58 bd 70 d1 14 bd 83 fc c2 3c ae 94 c4 3d
       -0.05292469 -0.036332548 0.023802048 0.09598671
000020 d2 d2 22 3d a4 a4 a9 3c 9a bd 18 bb ba 30 72 bd
       0.039751835 0.02070839 -0.002330637 -0.0591285
000030 10 84 a5 bc 01 5b b0 bd d1 ef a0 3c 13 cb 28 3d
       -0.020204574 -0.086111076 0.019645603 0.04120929
000040 87 83 87 bd 10 88 ca 3d 2d 54 4e 3d 3f f3 a5 3d
       -0.06616884 0.09889233 0.050373245 0.08103036
000050 b1 dd b7 3d 5c fb 88 bd fe b0 88 3d 2a e1 65 3c
       0.08977831 -0.06688568 0.066743836 0.014030734
000060 e1 c9 35 3c 3a 6b 5f 3d d5 7c 03 3d 9e ec eb bd
       0.011095495 0.05454562 0.03210147 -0.115197405
000070 7b ee 39 bb 63 40 47 3c e5 b7 7b 3d 45 de 84 3d
       -0.0028370905 0.012161347 0.061454672 0.06487707
000080 6a 90 02 3d 37 d0 14 3c ec 02 de bd fa aa d4 bd
       0.031876005 0.009082845 -0.10840401 -0.10384174
000090 39 d6 95 3d 82 3f e0 3c 5f fe c1 bd 63 c9 31 bb
       0.0731625 0.027374033 -0.094723456 -0.0027128092
0000a0 90 ab 3d 3d 36 0b 09 be 14 67 a5 3d f6 5a 4d 3d
       0.046306193 -0.13383183 0.08076301 0.050135575
0000b0 9a 3d 65 bd 0b 06 c0 bd 11 5b f1 3d 27 c7 d9 bd
       -0.05596695 -0.093761526 0.11784948 -0.106336884
0000c0 63 d1 92 bd 7c e3 a6 bd ba d7 5c 3d 48 b7 c1 bd
       -0.071688436 -0.08148858 0.05391667 -0.09458786
0000d0 61 0f 20 bd aa 50 a9 bd e0 ae b1 bc ba ae bd 3d
       -0.039077166 -0.082673386 -0.021689832 0.09261842
0000e0 4d 07 5a bc af 8f b6 3d e1 93 95 3d 30 fa fb 3b
       -0.013307405 0.08914124 0.07303596 0.007689737
0000f0 db a3 76 bd ef 88 80 bd dd d8 aa 3d 54 f2 8d 3d
       -0.06021486 -0.06276118 0.08342145 0.06930986
000100 ff a8 0a 3d 5c 10 f0 bb 29 de c0 3d 9a 58 bf bd
       0.033852573 -0.007326169 0.09417374 -0.09343071
000110 85 38 fa bd 51 85 8d 3d 76 67 f8 bd f5 65 9b bc
       -0.122178115 0.06910194 -0.121291086 -0.018969515
000120 0f 99 73 3d 49 94 a4 bc 88 7d bb bd 93 f2 bd bd
       0.05947214 -0.02009024 -0.091548026 -0.09274783
000130 1d 69 a0 ba 96 68 cb 3d 63 b7 70 ba d2 b5 e3 3d
       -0.0012238357 0.099320576 -0.00091826 0.11118664
000140 d2 15 e0 3d 26 58 5e bd 0c 2c db bd 91 d6 33 3d
       0.10941662 -0.054283284 -0.10701761 0.0439058
000150 5a af cf 3d 6e 83 04 be 1d b1 94 bb 48 74 5e 3c
       0.101408675 -0.12940761 -0.004537715 0.013577528
000160 be 6a b7 b9 46 33 ff bd 52 41 fc bc 97 84 db bd
       -0.0003498401 -0.124609515 -0.030792866 -0.10718649
000170 05 e9 cd 3d 8a 7a f4 3d 85 26 d6 bd 22 d4 0c bd
       0.100542106 0.11937435 -0.10456566 -0.034381993
000180 e1 d2 d6 3c f1 6b 23 3d ca 73 e4 bd 95 fb ad bd
       0.026223602 0.039897863 -0.111548975 -0.08495251
000190 3c 6b 0d 3c cb 10 5a bb 6c 2f 15 bd ae 04 38 3d
       0.008631524 -0.003327417 -0.03642218 0.044926338
0001a0 43 83 78 3d 01 ad 41 bd 4d fe 83 3d dd 53 e1 3d
       0.060672056 -0.04728413 0.064449884 0.11002324
0001b0 1f e2 c8 bc b7 f9 8c bd c3 77 3c bc 1f d2 ff 3d
       -0.024521885 -0.06883567 -0.011503163 0.12491249
0001c0 d2 96 a2 3d 08 44 1b 3d ac 3a 53 3c 7a 8a 53 bc
       0.07938923 0.037906677 0.012892406 -0.012911433
0001d0 9c a6 be bd 66 9e b9 bd 9c 41 b8 3d 0e 78 94 bd
       -0.09309122 -0.09063415 0.08996889 -0.07249461
0001e0 30 24 14 bd 00 c3 16 3d 0c 0a d1 3c 72 73 85 3d
       -0.036167324 0.03680706 0.025517486 0.0651616
0001f0 9a 16 e5 3b d3 60 22 bc 23 28 47 bd ff e1 6b bd
       0.0069912197 -0.00991078 -0.04862226 -0.057588574
000200 0f c8 1f bd f7 2e 1d 3d d2 3d cf 3d 7c c9 9e 3d
       -0.03900915 0.038374867 0.10119213 0.07753274
000210 bb 01 97 3d e8 a2 98 bd aa 17 cb 3d 8e 21 77 3c
       0.07373377 -0.07452947 0.09916623 0.015083684
000220 97 b7 c7 3d 4a 13 fc bc 06 b6 0c 3e a0 7b d4 bd
       0.09751814 -0.030770916 0.13741311 -0.10375142
000230 d2 ae c8 3c b2 25 d7 bd 27 84 02 be 42 31 0e 3d
       0.024497423 -0.10505237 -0.12745725 0.034714945
000240 e5 e6 bb bd d2 30 68 3c 43 58 9d bd c5 65 c5 3d
       -0.09174899 0.014171796 -0.0768285 0.096385516
000250 1c 78 d0 bd 82 65 86 3b f0 9d 65 bd 26 76 e1 bd
       -0.10179159 0.004101456 -0.056058824 -0.11008863
000260 1e 11 31 bd c0 81 04 3e 0d a2 01 bd 7c 9c ca bd
       -0.043229215 0.1294012 -0.031648684 -0.09893128
000270 9f 14 ad bc 1d f7 d1 bc 9d f4 8a bd da 35 c3 bc
       -0.021127997 -0.025630528 -0.067849375 -0.02382939
000280 09 2a f6 3c 40 f8 c6 3d 94 0c 1b 3d de bf 96 3c
       0.03004934 0.09715319 0.037853792 0.018402036
000290 44 d6 ad bb 0a 78 62 bd 57 e1 43 bd 49 7b d4 bd
       -0.0053050835 -0.05529026 -0.047822323 -0.10375077
0002a0 6e 38 26 bd 40 27 65 3c f3 b2 04 be 57 1e a3 bd
       -0.04058116 0.013986409 -0.12958889 -0.07964771
0002b0 3c 95 b8 3d 12 2a 3b bc f7 f0 17 bd b3 41 0f bd
       0.09012839 -0.011423605 -0.037095036 -0.034974765
0002c0 f1 b9 5b 3d b8 d9 d8 3c 53 1b a9 3d a3 af ad bd
       0.053644124 0.026471004 0.08257165 -0.08480766
0002d0 7b 3e 2a 3d 50 c7 c1 3c 82 3f d3 bd a9 6b aa 3d
       0.041563492 0.02365461 -0.103148475 0.08321316
0002e0 29 3c a8 3c 5a d6 8d bd e9 9a dd 3d 1b d2 c6 3d
       0.0205365 -0.0692565 0.108205624 0.09708043
0002f0 8d c5 4b 3d 63 0b a7 3d c1 94 97 bc a3 24 cd 3c
       0.049748946 0.08156469 -0.018503549 0.025041884
000300 2f 0f c0 3d 85 ef c2 bd 2d a2 86 3d 3c 36 93 3d
       0.09377896 -0.09518341 0.06573901 0.07188079
000310 3c 7f 9b bd b8 22 f5 bc 3e ab 05 3d 7e e8 e8 3d
       -0.075926274 -0.029923782 0.032634012 0.11372469
000320 a8 4f ef bc a8 ff 27 3d bd cd d8 bb b7 df 70 bd
       -0.029212788 0.041015297 -0.006616323 -0.0588071
000330 2f 95 8f 3c 4d 92 10 be eb d6 7f 3d cf c8 12 3e
       0.017527191 -0.1411831 0.06246082 0.14334415
000340 63 00 cf bc d2 05 42 3d 54 10 3b be f7 be 97 3c
       -0.02526874 0.047368832 -0.18267947 0.018523676
000350 12 47 ca 3d 1e 2a 7a bd b8 55 9f 3d 36 8e 95 3d
       0.09876837 -0.061075322 0.077800214 0.07302515
000360 f6 4d b6 bd 92 cf ca bc f3 f2 8f bd cb ab ef 3d
       -0.089015886 -0.02475718 -0.07028761 0.11702689
000370 60 f1 a1 3d 3d 1c cc bd cc b9 93 bd 1d f6 d4 3d
       0.07907367 -0.099663235 -0.07213172 0.10398505
000380 c3 24 ca 3d dc 7b 13 be 1b 67 8e bd a8 e4 6b 3c
       0.09870293 -0.14402717 -0.069532596 0.014397778
000390 84 ea 6e 3d 3f 92 09 3d 47 a7 c8 3d 58 f5 cc bc
       0.05832912 0.033586737 0.097975306 -0.025019333
0003a0 80 b5 1c bc c3 dc 9b bd 28 45 3b bd bf df dd 3d
       -0.009564757 -0.07610466 -0.04572025 0.10833692
0003b0 7f ef 31 3d 25 59 c0 bd b1 2d 86 bd 46 a4 33 bd
       0.043441292 -0.09392003 -0.06551684 -0.043857835
0003c0 4f 6a 47 bd 0d 33 01 be 4f f0 05 3e 32 f5 1b 3e
       -0.04868537 -0.1261713 0.13079952 0.15230253
0003d0 5a ea 37 3d f1 14 11 be ba 70 57 bd 83 b2 d2 3d
       0.04490123 -0.14168145 -0.05259774 0.10287955
0003e0 20 1b fd 3c bd 11 86 bd 51 bc f9 3c 50 e5 a6 bd
       0.030896723 -0.06546352 0.030485304 -0.08149207
0003f0 fe 55 e9 bc 47 3a a1 3d 3e ec 05 3c 62 cb b8 bd
       -0.028483387 0.07872444 0.008174 -0.09023167

model.transforms.0.encoder.noise_dist.transforms.0.ar_net.lstm.bias_ih_l0 f4 [256]
000000 66 77 82 bd 88 36 65 3d fc 8b ad bc b7 27 00 bb
       -0.0637043 0.05596021 -0.021184914 -0.0019554922
000010 f0 99 c1 bd c0 69 93 bd f1 1f 91 bd 20 e8 b5 bd
       -0.094531894 -0.071979046 -0.070861705 -0.08882165
000020 dd 5e 21 3d a7 27 0a 3e 7c 0a c9 39 f4 ee d6 bd
       0.03939711 0.13491689 0.0003834552 -0.104947954
000030 e3 c1 f6 bc 59 8d da 3c 04 eb 05 bd b2 e6 84 bd
       -0.03012175 0.026678728 -0.03269483 -0.06489314
000040 db f7 2a bc f9 03 2a bd de 3d 74 bd 6c 8b 02 be
       -0.01043507 -0.041507695 -0.059629314 -0.12748498
000050 82 ef 6b bd 9d 33 91 bd 37 1a 6b 3d 80 55 ed bd
       -0.05760146 -0.070899226 0.057398047 -0.115885735
000060 69 a3 cb bd 1d da fa 3c 92 47 9b bd 35 b6 9a 3c
       -0.099432774 0.030621583 -0.0758201 0.018885711
000070 66 77 a1 3d 5c b6 19 bd 2f 9d 60 3c b6 fc 02 3e
       0.078841016 -0.037527427 0.0137093505 0.12791714
000080 d9 02 0c bd 19 be e4 bd 95 82 42 3d 2c 5c ea bb
       -0.034182403 -0.11169071 0.047487814 -0.007152101
000090 47 c4 04 be c5 79 02 bd fd 92 f5 bd ab 7b de 3d
       -0.12965499 -0.03185441 -0.119909264 0.108634315
0000a0 2a 26 8c bd d7 a6 ac 3c c8 70 c5 bc e5 7e a2 3d
       -0.06843217 0.02107565 -0.02410163 0.079343595
0000b0 e0 76 90 bc 6c eb 44 3d 94 b5 32 bd c2 88 31 bd
       -0.017634809 0.04807608 -0.043630198 -0.043343313
0000c0 d1 4f e2 3b 10 7b 01 3d 30 f3 17 3d 30 3a f2 bd
       0.0069064875 0.031611502 0.037097156 -0.11827505
0000d0 c8 5d 71 3d 16 4e df 3d 00 05 59 b9 6f cf c1 3d
       0.058927327 0.109035656 -0.00020696595 0.09463393
0000e0 c4 91 97 3d ca fa b9 bd ab 12 15 38 b4 e0 d1 bb
       0.074008495 -0.09081037 3.5541754e-05 -0.0064049605
0000f0 6a f4 83 bd 48 42 a0 3d 69 e7 ef bd f3 5b 05 3d
       -0.06443103 0.07825142 -0.1171406 0.032558393
000100 d6 84 e6 3d 1a 76 15 bd 59 ff 22 3d 41 c1 67 3d
       0.11255805 -0.036489584 0.0397943 0.056580786
000110 e4 65 6e bd 8a 93 c1 3d ff 87 af 3d 21 dc 01 bd
       -0.05820264 0.09451969 0.08570861 -0.031704072
000120 6a f4 c3 3d af 94 6b 3d 55 19 9c bc d2 49 9c bc
       0.09568103 0.057514843 -0.019055048 -0.019078169
000130 c6 c3 19 bd e2 64 7b bd 45 ae 28 3c 34 5a de 3d
       -0.03754022 -0.061375506 0.010295455 0.10857049
000140 9c b0 bf bd 51 46 5d 3d 9b 50 c0 bc 86 06 dd 3d
       -0.093598574 0.054022137 -0.023475936 0.1079226
000150 ca 94 a3 3c d3 ed a1 3b bf ce d1 3d f9 40 14 3d
       0.01996841 0.004941681 0.10244512 0.036194775
000160 fa 45 d8 3d 8c ae 8c 3d d5 af 32 3d 24 61 b3 3d
       0.10560222 0.0686923 0.043624718 0.087587625
000170 49 7b 49 3d 46 b0 27 bd 06 cb 21 3d 68 a1 95 3c
       0.04918984 -0.04093959 0.03950026 0.018265441
000180 8a 34 65 3d 00 91 e1 3d a4 5d 71 3c 98 7d e7 bc
       0.05595831 0.11013985 0.014731798 -0.02825813
000190 76 33 0c 3c 6f a7 91 3d 01 f5 9d bc c1 be af bd
       0.008557191 0.071120135 -0.019281866 -0.08581305
0001a0 c7 72 6c bc d1 07 9a 3d 79 6b 0c 3e 28 0f 3c bd
       -0.014431662 0.07521022 0.13712873 -0.04591289
0001b0 1e 01 cb bd 74 e8 a0 3d 08 6d b9 bd 1c 2a 9c 3b
       -0.099123225 0.07856837 -0.09053999 0.004765762
0001c0 dd da 4b 39 7c 55 17 3e 72 d2 10 bd f1 29 c1 3d
       0.00019441122 0.14778703 -0.035356946 0.09431828
0001d0 78 b8 d4 bd c7 18 b8 3d 14 ef bf bc 56 97 92 bd
       -0.10386747 0.08989101 -0.023429431 -0.07157771
0001e0 2a 13 10 3d 97 d0 41 3c 7a 0b e8 bc 0d da b0 3d
       0.035174526 0.011829517 -0.028325785 0.0863534
0001f0 5f 6d 98 bd b4 26 65 3d 62 ae 4b 3d aa 0e 99 3d
       -0.07442736 0.055945113 0.04972685 0.074735
000200 dd fc a6 3d 9c 23 de bc 15 b1 95 3d b6 3e 26 bd
       0.081536986 -0.02711659 0.07309166 -0.04058715
000210 49 30 b3 bd a2 0f e5 3d c1 17 20 bd 7a eb a2 bd
       -0.08749444 0.11184622 -0.039085153 -0.0795507
000220 35 c8 cf 3d 3e f3 1c bd bf cb e5 bd 41 36 90 3d
       0.10145608 -0.03831791 -0.11220502 0.07041598
000230 d4 5e 85 bd 8c 66 7c 3d 36 29 c1 3d 5f 14 16 bd
       -0.06512228 0.061621234 0.094316885 -0.03664052
000240 57 82 cd bd f7 08 a1 3d b7 ab e4 bc 61 4a 73 bd
       -0.10034626 0.07863038 -0.027913911 -0.059397105
000250 17 06 e9 3d 62 ee e6 bd 00 8c c7 bd 28 39 b0 3d
       0.11378115 -0.11275937 -0.097435 0.08604652
000260 0e d0 05 bc ac 35 9f bc 83 de 57 3d 0f e8 ba bd
       -0.00816728 -0.019434772 0.052702438 -0.09126293
000270 3f fa 90 3d 30 a0 98 bd 9e 20 26 3d 1e 15 e1 3d
       0.07078981 -0.07452428 0.04055845 0.10990356
000280 84 fe ac 3b 8c 27 0f bd 8a 4c d8 bd 0f 51 07 3e
       0.005279364 -0.034949824 -0.10561474 0.13214515
000290 29 e4 d0 bd ed f4 cd bd 76 4e aa 3d 6f 1e a1 bd
       -0.10199768 -0.100564815 0.083157465 -0.07867133
0002a0 48 df a0 bc b4 8b 95 bd 42 81 58 bd eb 0b a7 bc
       -0.019637719 -0.07302037 -0.052857645 -0.020391425
0002b0 5f ae 89 bd 6c 8e fe bd ca 73 be 3c 58 97 d3 bd
       -0.06722712 -0.124295086 0.023248572 -0.10331601
0002c0 30 66 bb 3d 20 db 05 3d 2b 9c 88 3c 78 01 df bc
       0.0915035 0.032679677 0.01667603 -0.02722238
0002d0 5f 08 55 bd 89 e2 64 3d c4 e9 5d bd c8 4c ca 3d
       -0.052009936 0.055880103 -0.054178014 0.09877926
0002e0 06 43 6b 3d 1b 6b a7 bd 9e fa 7f 3c 2d 9e b6 3d
       0.057436965 -0.081747256 0.015623717 0.089168884
0002f0 e7 a2 d0 3d b0 59 6c 3c 19 03 51 bd b9 09 8d bd
       0.10187321 0.01442568 -0.051028345 -0.0688662
000300 d5 35 d1 bd 59 3d 22 3d ae 13 88 bc 8a 99 8e bd
       -0.10215346 0.039609287 -0.016610947 -0.06962879
000310 49 a2 a8 3d 03 e2 59 3d af c5 54 3d be 42 2e 3b
       0.082340784 0.053194057 0.05194634 0.0026590074
000320 68 aa a6 3d a0 74 b7 bd 2e c8 d9 bc 78 f6 84 3c
       0.08137971 -0.08957791 -0.02658471 0.016230807
000330 64 34 4d bd 87 22 5f bd 89 16 20 3d f6 bc 0e 3d
       -0.05009879 -0.054476287 0.03908399 0.034848176
000340 40 8e 9c bd d4 c2 cb bd 3d 39 95 bc 6f 8b 08 bd
       -0.076443195 -0.0994927 -0.01821577 -0.0333361
000350 ee c4 fc 3d 95 0f 2f bd 05 0c 84 3d f5 f8 bf 3d
       0.12342249 -0.04273947 0.06447605 0.09373657
000360 f7 fe 0b 3e 7e 78 c5 3d bd 72 47 bc d5 33 43 3d
       0.1367148 0.09642123 -0.012173352 0.047656853
000370 44 bf d7 bc 23 50 31 3d e5 b9 b3 bd 31 ee ad bd
       -0.02633632 0.043289315 -0.08775691 -0.08492697
000380 33 94 ec bd f0 9f 67 bc cf 6f d6 3b ac af 94 3d
       -0.11551704 -0.014137253 0.0065440903 0.07260069
000390 4e ff e3 bd 23 6f 94 bc 32 c8 78 bc cb 63 2d bc
       -0.1113268 -0.0181194 -0.015184449 -0.0105828745
0003a0 c9 df 81 3d 88 99 97 bd 04 e2 35 3d 77 ae c5 bd
       0.06341512 -0.07402331 0.044405 -0.09652417
0003b0 ca 6f b4 bd 19 5c fc bd 59 ba 05 bc 92 dd 93 3d
       -0.088103846 -0.12322254 -0.0081621045 0.072199956
0003c0 6d 8a b1 bd 11 a0 af 3d 74 6c 5a bd 3f a1 dc bc
       -0.08668981 0.08575452 -0.053326085 -0.026932357
0003d0 20 1f c1 bb a6 85 a5 3d cd 2f 0d 3d ff da bf bd
       -0.005893603 0.08082132 0.034469415 -0.09367942
0003e0 90 eb b5 3d 9d 9f 71 3d 11 b9 52 bc 15 02 a5 bc
       0.088828206 0.05899011 -0.012861506 -0.020142594
0003f0 07 56 98 3c 1a 16 f6 bd 78 8c d4 bd 67 c6 aa 3c
       0.018595709 -0.12015934 -0.10378355 0.020846559

model.transforms.0.encoder.noise_dist.transforms.0.ar_net.lstm.bias_hh_l0 f4 [256]
000000 f5 e5 49 bd ec 0b 33 bd 33 d6 e3 bd 25 2e be bd
       -0.04929157 -0.04371254 -0.1112484 -0.09286145
000010 1e 8f 44 bd 64 00 0b 3b 2e 99 de bd a2 24 11 be
       -0.04798805 0.002120995 -0.108690605 -0.1417413
000020 37 f7 0d 3e b3 ae 6e 3d 0a de 4d 3d be a3 b8 3d
       0.13863836 0.058272075 0.05026058 0.09015606
000030 66 2c f5 3d f7 b2 44 3d 27 28 e2 3d c8 47 23 bc
       0.11971359 0.048022237 0.11042815 -0.009965844
000040 c1 e5 b4 bd 2f ba 81 bd a2 47 9e bd 3d d2 6b bd
       -0.088328846 -0.0633434 -0.077285066 -0.057573546
000050 f8 f0 a2 3d fe 7b af 3d fc e0 e2 bd 33 0d 11 3d
       0.079561174 0.085685715 -0.110780686 0.03541298
000060 1b 45 9b 3d 0f f5 b3 bd 29 dc b7 3c 9d 44 dd 3c
       0.0758154 -0.087869756 0.022443848 0.027010256
000070 e5 90 8d 3c 17 12 05 3e a6 16 64 3d 02 da b9 bd
       0.017281005 0.12995182 0.05568566 -0.09074785
000080 68 b8 38 bd ff 18 56 3d 04 57 5a 3c 8c 14 d2 bd
       -0.04509774 0.052269932 0.01332641 -0.10257825
000090 e4 2e ae bd 81 03 c1 ba ee e8 f1 3d 6b c7 73 bd
       -0.085050374 -0.0014725776 0.11812006 -0.05951635
0000a0 21 c4 b3 3d 96 f7 8d bd 5a 9a b6 bd 7e a4 96 3d
       0.08777643 -0.06931989 -0.08916159 0.07355593
0000b0 38 8d 09 be 58 fd 88 3d d8 6e a7 3d ca be ae 3c
       -0.13432777 0.066889465 0.08175439 0.02133121
0000c0 3b b7 ec 3c 29 8f 1a 3d de a7 c3 bc 33 7a 12 3d
       0.028895965 0.037734184 -0.023883756 0.03576107
0000d0 45 07 03 3d 1f 04 9b 3d 3c cc cd 3d 53 2c b1 3d
       0.031989355 0.075691454 0.1004872 0.08651032
0000e0 78 33 92 3d 0a 73 e8 3c 6f 6a bd bd 35 96 cf 3c
       0.07138723 0.028375167 -0.09248816 0.025340179
0000f0 9d cd c5 bd f5 7e 9c bc 05 e9 f9 3b d3 b3 09 be
       -0.09658358 -0.019103507 0.007626655 -0.13447504
000100 20 0e 11 bd 53 11 18 3d dc 14 20 bd c2 57 1d 3e
       -0.03541386 0.037125897 -0.039082393 0.15365508
000110 e0 6d 2f 3d 98 c8 9d 3d cd de 10 3c 0c 1b e7 bd
       0.042829394 0.07704276 0.008842182 -0.11284456
000120 c1 bb 01 3e cd 2b c7 bd 37 f4 95 bd 62 ec 22 3d
       0.12669279 -0.09725151 -0.07321971 0.039776213
000130 95 49 9b bd 36 92 18 3d e4 58 07 bd 4c 90 5d bd
       -0.07582394 0.037248813 -0.033043757 -0.05409269
000140 6c 38 67 bb ba c3 c4 3a a1 29 b2 bd 6d 99 03 bd
       -0.0035281433 0.0015011944 -0.08699346 -0.03212874
000150 d8 de 97 3b 9a bd 0f bd 23 a9 6a 3d c5 85 d2 3d
       0.0046347193 -0.035092928 0.057290208 0.10279421
000160 6b f5 5c 3d 0a a2 d9 3d 31 45 a8 3d 80 00 7d bd
       0.053944986 0.106266096 0.08216322 -0.061768055
000170 29 39 d5 3c 37 76 cd bc 15 89 84 bd 6a 73 a4 3d
       0.026028233 -0.025080783 -0.06471459 0.08029826
000180 94 31 de 3c 23 6c cc bc 0f 48 b0 3d 60 1d fa 3d
       0.02712325 -0.024953907 0.08607494 0.12212634
000190 38 3a b4 bc f3 01 09 be 19 17 01 3e bb 6b 7e bd
       -0.022000417 -0.1337965 0.12606467 -0.06211446
0001a0 88 06 a4 3d aa 61 ec 3d a9 3b 84 3d 4b db 75 bd
       0.08009058 0.115420654 0.06456692 -0.060023587
0001b0 93 38 61 3b 49 6b b6 bd 04 52 ed bc ae d0 08 3e
       0.0034365996 -0.08907182 -0.028969772 0.13360855
0001c0 4d 82 9d 3d 20 df 78 3c 3b 36 4f bd c9 f7 8e 3d
       0.076908685 0.015189916 -0.050588828 0.06980855
0001d0 dc ac 67 bd f7 33 b5 bd 49 7e cf 3b 04 52 0c bd
       -0.056561336 -0.08847802 0.006332193 -0.034257904
0001e0 2d 52 3a bb 41 ce 95 bc 27 b0 e2 3d b6 e3 a5 3c
       -0.0028430328 -0.018286826 0.11068755 0.020250183
0001f0 ed 01 d6 3d 61 5e c1 bd f3 2a 06 3e ed d0 36 3d
       0.10449586 -0.094418295 0.13102321 0.04463284
000200 76 15 06 3e 6b 9a ba bd 9f 30 59 bd db b8 49 3d
       0.13094124 -0.09111484 -0.053024884 0.049248558
000210 09 4d c4 3d 6c bc 82 bd a1 16 6f bc c6 22 2d bd
       0.09585006 -0.06383595 -0.0145927975 -0.04226949
000220 c4 e9 e8 bb 8e 3c b0 bd 49 98 ff bc 58 ad 10 be
       -0.007107945 -0.086053 -0.031200545 -0.14128625
000230 7c a5 25 bd 99 a4 70 bc 59 ea 02 3e 3a 10 71 bb
       -0.04044102 -0.014687681 0.12784709 -0.0036783353
000240 cf ac 86 3c 2f 2d f3 3c f2 c3 bc 3d 29 46 92 bd
       0.016439823 0.029684631 0.09217061 -0.07142288
000250 59 e6 11 bd 7c 38 3a 3c ea 00 89 3d 8e 07 97 bd
       -0.035620067 0.011366006 0.066896275 -0.07374488
000260 45 88 87 3d 8b 93 b4 bd 8d 2d 4e bd 99 28 01 bb
       0.06617788 -0.08817204 -0.05033641 -0.0019708036
000270 6c 37 b4 bc f8 a3 82 bd 56 a0 27 3c be ff f4 3d
       -0.021999083 -0.06378931 0.010231098 0.119628415
000280 99 bf 70 bd 54 bd f8 bc 59 b4 0d be dd 8f 4c 3d
       -0.05877647 -0.030363716 -0.13838328 0.049941886
000290 4b 6d a5 3d 01 2b cc 3d f4 c1 79 bd 71 fa f3 3d
       0.080774866 0.0996914 -0.060975984 0.11913002
0002a0 bb f3 03 bc d9 fe 86 3c bb f7 05 3e 4a ca 90 3d
       -0.008053715 0.016478943 0.13082783 0.070698336
0002b0 0a 1c 84 bc cb 21 96 bc 27 5f a2 3d 03 69 50 3d
       -0.016126651 -0.01832666 0.07928305 0.050881397
0002c0 90 2d d4 bd d1 02 42 bd 1f 1a bf 3d 09 6b b3 3d
       -0.10360253 -0.047365967 0.09331154 0.0876065
0002d0 ed 0b 01 be 4c b0 f3 3d 6e 30 bc 3c 1f 01 34 3d
       -0.12602206 0.1189886 0.022972312 0.04394638
0002e0 fd 71 03 3e 89 6f 91 3d 2d 36 d7 bd 03 8f 5c bd
       0.12836452 0.07101352 -0.1050838 -0.053847324
0002f0 59 e3 e4 3d af a9 d2 3d 75 54 aa bd ca b7 1f bd
       0.111761756 0.10286271 -0.0831689 -0.038993634
000300 af a1 3d 3d c5 b7 9d bd ce f7 10 bd 2e 49 64 3d
       0.04629677 -0.07701067 -0.035392575 0.055733852
000310 30 c1 3a bd 85 8b c6 bd eb 0d 5e 3d 9b 98 e3 3b
       -0.045594394 -0.0969458 0.054212492 0.006945682
000320 67 c7 97 3d 6c 41 0e 3d b0 64 a6 3d 35 2f ba bd
       0.0741108 0.03473036 0.08124673 -0.09091035
000330 d6 b9 6f bd f3 bf e2 bd be d1 de bd aa 04 a1 3c
       -0.058526836 -0.11071768 -0.10879849 0.019655544
000340 9a 7f 91 3c 4c 43 ed 3d c2 9d 9c 3d a2 e2 36 bd
       0.01776104 0.115851015 0.076472774 -0.044649728
000350 4a b6 dd 3d 1d 77 dd bc 5b 7a b5 bc 29 e1 9b 3d
       0.108257845 -0.027034337 -0.02215307 0.07611305
000360 cc 1a c3 3d a5 d6 6c bd 05 41 59 bd 8a 50 e5 bd
       0.095265955 -0.05782189 -0.053040523 -0.11197002
000370 fb 8e 0f be ed 4d 53 bc a7 44 e4 bd 62 c6 04 bd
       -0.14019386 -0.012896997 -0.11145907 -0.032415755
000380 5a 81 b6 bd 61 57 af bc 3c bb 6a 3d d2 0a f2 bd
       -0.089113906 -0.02140397 0.057307467 -0.1181847
000390 9e 6e b3 bd 3d e8 c0 3d c3 dd 36 3d 45 57 3e bd
       -0.08761333 0.09419296 0.044645082 -0.046469945
0003a0 72 92 88 bd 20 26 f4 3d 98 e2 a6 bd fb 07 ad bd
       -0.06668557 0.11921334 -0.08148688 -0.08448788
0003b0 23 63 1e 3b d1 37 ce 3d 83 f0 a3 bd 79 b7 29 3d
       0.0024167977 0.1006924 -0.08004858 0.04143474
0003c0 21 65 8a 3d 07 3a 93 3b f9 02 b4 3d 96 8e d0 bd
       0.0675757 0.0044930014 0.087896295 -0.10183446
0003d0 93 f9 bc bc f8 13 74 3d 76 b7 c1 bc 6c d6 53 3d
       -0.023068225 0.059589356 -0.023647051 0.05171816
0003e0 c0 8f b9 bd 56 42 d6 3c 65 26 8d bd 56 1c 86 bc
       -0.09060621 0.026154678 -0.06892089 -0.016370934
0003f0 09 e3 0c 3c f0 c2 cb 3d 69 be e7 bc 5f 07 16 bd
       0.008599051 0.09949291 -0.028289037 -0.036628123

model.transforms.0.encoder.noise_dist.transforms.0.ar_net.l_out.0.weight f4 [33, 64]
000000 03 d3 0b be a9 3e 9d bd 3b 27 7c 3c 02 40 d6 3d
       -0.13654713 -0.07677967 0.015390213 0.10461427
000010 13 0c a8 3d 93 70 c3 bb 4c 50 8e bd 8a 32 04 3e
       0.08205428 -0.0059643476 -0.06948909 0.12909904
000020 da a5 90 3c 0f b3 b9 3d 0d b5 b7 3d 0e 65 0e 3e
       0.01765721 0.09067356 0.089700796 0.13905737
000030 10 64 68 3d 0b 84 19 3b aa e1 03 bb cb 2d 7d bd
       0.056736052 0.002342465 -0.002012352 -0.06181125
000040 08 0a 5d 3d 35 4e 37 bc e3 3a a1 3d f7 c8 ff 3d
       0.053964645 -0.01118808 0.0787256 0.12489503
000050 a9 b5 6a bd 89 ef f6 3c c5 af 53 ba ba 93 a2 3c
       -0.05730215 0.030143516 -0.0008075203 0.019845832
000060 d0 63 a9 3c d0 c0 09 3c d4 7e 01 be c1 7a ce bd
       0.020677477 0.0084077865 -0.12646037 -0.10082007
000070 e4 75 98 3b d3 d6 1b bd 41 52 91 3d f1 e5 fd bd
       0.0046527255 -0.03804667 0.07095767 -0.123973735
000080 ca 1d e1 3c 49 9a 74 3d 34 42 0b 3e 3d 72 df bd
       0.027480025 0.05971745 0.13599473 -0.10910461
000090 f4 b5 d5 3c 29 11 c6 bd 4d 6c e2 bd fa 96 f8 bd
       0.026087739 -0.09671242 -0.11055813 -0.121381715
0000a0 7e d5 8f bc 5f 18 91 3d fe 5d 49 bc 00 c9 f7 bd
       -0.017557856 0.070847265 -0.012290476 -0.120988846
0000b0 d4 ca 9c bd 19 8e 03 3e d3 70 5a bd a6 70 fe 3d
       -0.07655874 0.12847175 -0.053330254 0.1242383
0000c0 b7 ca 85 bd 47 79 94 bd e3 b7 7e 3c 9d 9a 86 bd
       -0.065328054 -0.07249694 0.015546772 -0.06572459
0000d0 aa 5c a3 bd a8 60 33 3d fa ee 35 3d 06 dd 70 3d
       -0.07976659 0.04379335 0.04441736 0.058804534
0000e0 16 fa a9 bb 30 39 d1 bb 42 26 d1 bd ce 16 0d 3e
       -0.0051872833 -0.006384991 -0.10212375 0.1377823
0000f0 3b 5d 91 3d eb d8 00 be bf 21 71 bd bd 9b 09 3d
       0.070978604 -0.12582748 -0.058870073 0.03359579
000100 65 0c b0 3d 2d 66 e2 3d fa 4b de bd 06 35 b0 3b
       0.08596114 0.11054645 -0.10854335 0.0053774146
000110 3a 30 54 bd 57 d1 07 bd 1e 4c 9e bd 97 6b 03 bc
       -0.051803805 -0.033158626 -0.07729362 -0.008021257
000120 8a 32 b5 3d 7d 98 54 bd 75 08 88 3d f8 0f ac 3d
       0.0884753 -0.051903237 0.06642238 0.08401483
000130 37 8e a8 bd 8b 5b 18 bd b0 32 7c bd f2 cb b4 3d
       -0.0823025 -0.037196677 -0.061571777 0.08827962
000140 e0 9f ae 3d d1 d0 66 bd 6e f2 fb bd 4a bc ce 3c
       0.085265875 -0.056351487 -0.12302099 0.025236268
000150 96 fd be 3d f3 db 65 3d e0 f5 79 3d db 31 d9 3d
       0.093257114 0.056117963 0.0610255 0.10605212
000160 1a 31 05 3e 97 fb bf bd e2 3e 70 3d 3f f0 99 bd
       0.13007012 -0.09374159 0.05865372 -0.075165264
000170 1d 3c 4f 3d 2f 2c f5 bd b7 a9 9d bc 21 57 ad bd
       0.050594438 -0.11971318 -0.019245965 -0.08463884
000180 62 40 ce bd 5b 05 f4 bb d6 27 25 3d 84 13 f5 3d
       -0.10070874 -0.0074469275 0.040321194 0.11966613
000190 ee c9 4c bc 64 d5 d3 3d de 18 dc 3d 76 21 1a 3d
       -0.012499316 0.103434354 0.107469305 0.037629567
0001a0 4f 57 db bd 21 86 87 3d 18 83 d0 3d f5 b9 55 bc
       -0.10710012 0.0661738 0.10181254 -0.013044824
0001b0 df a7 86 bd a6 42 6e 3d bb 41 59 bd 62 fa 0a be
       -0.065749876 0.05816903 -0.0530412 -0.13572076
0001c0 6d 04 84 bd 5d 2f 82 bd 1b 05 6d bb 0c a7 1e bd
       -0.06446157 -0.0635669 -0.0036166373 -0.038733527
0001d0 c5 ea a7 bd 4f 41 6e 3d 2e 49 d5 bd e2 26 a9 bb
       -0.081990756 0.058167752 -0.104143485 -0.005162106
0001e0 48 a3 6a 3d 72 db 04 be 9e 35 da bd 20 37 ae 3d
       0.057284623 -0.12974337 -0.10654758 0.08506608
0001f0 3a 1e 9f 3b 74 d6 10 3c 12 b8 fc bd e5 f8 9a 3d
       0.004855898 0.008840192 -0.12339796 0.07567004
000200 c4 42 a2 bd 34 dc 1f 3d 19 d6 8a 3d d3 2a e6 3d
       -0.07922891 0.03902836 0.06779117 0.11238637
000210 bf 5e 0e be a3 fc d9 bd 69 96 6c 3d 7a 27 d3 3d
       -0.1390333 -0.1064389 0.05776063 0.10310264
000220 38 b6 dc bd 38 a2 9e 3c d5 d4 fe bd c0 5e af bd
       -0.10776943 0.019364461 -0.12442938 -0.08562994
000230 57 87 df bd c4 c6 16 3c d8 9b 99 bb c1 cd ca bd
       -0.10914486 0.009202663 -0.0046877675 -0.09902526
000240 cf a6 da bd 4f 88 25 3d 26 de d4 3d b5 f3 ea bd
       -0.106763475 0.040413197 0.10393934 -0.11472265
000250 d2 c1 15 bd dc 89 a6 bd 82 23 0c bd c8 18 c3 bd
       -0.036561795 -0.08131763 -0.03421355 -0.09526211
000260 41 37 39 3d cc 02 8e 3d 6a e7 63 3d bc 03 92 bd
       0.04521871 0.06934127 0.055640616 -0.071296185
000270 17 0f 44 3d b1 3e 21 bd 81 85 d8 bd 5f 0a 7f bc
       0.047865953 -0.039366428 -0.10572339 -0.0155664375
000280 63 bb 95 3c 4e a0 e7 bd 41 39 48 3d 69 24 b0 3d
       0.01827783 -0.113098726 0.048882727 0.08600695
000290 bc 94 e1 3c 71 e9 3a 3d 13 49 75 3d ca 7d f3 bd
       0.027536742 0.045632783 0.059884142 -0.11889227
0002a0 de 1b 7b bd 19 61 02 3d f0 dc e4 bd 94 56 6b 3c
       -0.061305873 0.03183088 -0.11174953 0.014363904
0002b0 47 26 db 3d 2a 2b ea bc 3f dd da 3d e2 7b c4 3c
       0.1070066 -0.028585035 0.106867306 0.023984853
0002c0 94 b9 bb bd a4 a2 42 bd 67 56 e0 3d fe e4 d0 bd
       -0.091662556 -0.047518387 0.1095398 -0.10199927
0002d0 85 8a 97 3d cd b0 87 bd c6 0a 96 3d 43 fc df 3d
       0.073994674 -0.06625519 0.073262736 0.10936787
0002e0 e3 a0 a0 3d fe 29 eb bd bd 0f 80 3a 48 f0 6d bd
       0.07843187 -0.11482619 0.0009770315 -0.05809048
0002f0 f4 1b f6 3d d1 d8 cc bd 48 fa 63 bd 98 96 d7 bd
       0.120170504 -0.10002292 -0.05565861 -0.1052677
000300 8c 0d b6 bc fe 96 35 3d 45 49 e5 3d 4e 3e 87 3d
       -0.022223257 0.04433345 0.11195616 0.066036806
000310 1b e2 4f 3d 0d d8 2a 3d 16 0f d2 3b 86 0d a9 bd
       0.05075274 0.04170995 0.00641049 -0.082545325
000320 8f ee 80 bb 16 ca d7 bd d3 09 ad bd 80 37 d7 3d
       -0.0039346884 -0.10536592 -0.084491394 0.10508633
000330 a5 c0 78 3d 93 c7 ef bc 18 ef e2 ba 2f 3a 79 bc
       0.060730595 -0.02926997 -0.0017313687 -0.015211626
000340 00 c6 bf 3d 91 fb cd 3d eb 2a bc bd aa 15 2d bd
       0.093639374 0.10057748 -0.091878735 -0.04225699
000350 29 94 4f 3d a5 a1 e0 bb 6d 9e 92 3d 8d 33 10 3d
       0.050678406 -0.006855207 0.071591236 0.035205413
000360 84 60 86 bd af 10 11 be 48 74 92 3d ba f0 82 bd
       -0.06561378 -0.1416652 0.07151085 -0.06393571
000370 5b e8 04 3e 36 db 43 bd 9b 01 87 bd 8a 6c 1e 3d
       0.12979262 -0.047816478 -0.06592103 0.03867773
000380 97 73 50 bc cf 67 04 be 73 86 9e 3d 85 30 31 3d
       -0.012722871 -0.12930225 0.07740488 0.043259162
000390 a3 0c d1 3d 74 b1 ab 3d 09 a4 27 3d 25 30 8a bd
       0.102074884 0.08383456 0.04092792 -0.06747464
0003a0 66 d8 e9 3d 21 e4 f6 3d 3e 57 b4 bc 03 e0 c3 bd
       0.11418228 0.12055231 -0.022014257 -0.09564211
0003b0 8e 1b 1a 3d 4a bc 92 3d 53 0a 15 3d ea c6 2b bd
       0.037623934 0.071648195 0.0363868 -0.041937746
0003c0 c3 69 a9 bd c0 88 60 bd f3 38 b2 bd 62 29 ab bd
       -0.082721256 -0.054817915 -0.087022685 -0.083575025
0003d0 cc 7f 0f 3d b7 4b 5c 3c 14 9b 2e 3d 59 24 fc bc
       0.035033986 0.013445786 0.042628363 -0.03077905
0003e0 2c ce db bd da 72 00 be c9 ca 9c bd 51 0f 93 bd
       -0.107326835 -0.12543812 -0.07655866 -0.07180656
0003f0 f6 78 d0 bd 38 9f 3f 3d 36 b4 64 bd 8e f1 dc 3d
       -0.101793215 0.046782702 -0.055835925 0.107882604

model.transforms.0.encoder.noise_dist.transforms.0.ar_net.l_out.0.bias f4 [33]
000000 1e d4 85 3d 97 cd 2f 3d 5f 66 02 3e c4 69 84 bd
       0.06534599 0.042920675 0.12734364 -0.06465486
000010 4c 29 d4 bc 62 e7 8e 3d c8 a1 79 bc 33 c5 99 bd
       -0.025898598 0.069777265 -0.015236326 -0.07508316
000020 8f b7 ce 3c c2 a6 ae bd a2 9c c7 bd e6 7e b2 3c
       0.025234012 -0.085279 -0.09746672 0.021789026
000030 9d 1b dc 3d 50 28 29 3d 4d b0 b9 3d 38 3f c8 3d
       0.10747454 0.04129821 0.0906683 0.09777683
000040 44 3b 25 bd ce 89 c5 bd f1 1c 67 3b 16 60 fd bb
       -0.040339723 -0.09645425 0.0035265053 -0.0077324016
000050 26 24 8a 3d b8 36 2d 3a d1 02 bb 3d e5 f1 51 3d
       0.06745176 0.000660758 0.091313966 0.05125608
000060 58 02 d4 3d ab e2 bd bd b5 77 13 bd e5 f6 07 3e
       0.103520095 -0.09271749 -0.036002833 0.13277777
000070 a7 56 a3 bd 73 d3 28 3d c1 88 d1 3d e7 a1 7a bc
       -0.07975512 0.04121728 0.10231162 -0.01529739
000080 a0 da bb bd
       -0.09172559

model.transforms.0.encoder.noise_dist.transforms.0.ar_net.l_out.1.first_token f4 [1, 1, 33]
000000 12 4f 14 3e 70 8d 22 ba 5c ca 81 bc 40 af 61 be
       0.14483288 -0.00062008854 -0.015843563 -0.22039509
000010 bd 6f 74 3e 64 3d 7c bd 38 c2 5f be b1 0d 71 be
       0.2387075 -0.061581984 -0.21851432 -0.23540379
000020 5f 07 ef bd 4b e4 e5 bd d0 e5 24 3e ec 34 39 bd
       -0.11671328 -0.11225184 0.16103292 -0.045216486
000030 8f ea 28 3e 20 8b f3 3d 2b 9f 7d 3e 42 d2 0f 3e
       0.16495727 0.1189177 0.24767749 0.1404505
000040 62 c9 04 3e 5a 00 62 3e ca 1b 95 3d 72 88 04 3d
       0.12967446 0.22070447 0.07280691 0.032356687
000050 10 17 90 3d e1 dc ee 3d cf 41 fb bc 5c 41 44 be
       0.07035649 0.11663223 -0.030671028 -0.19165558
000060 f0 58 ef 3d 40 b9 09 be ec 4c 8d be 0b 07 27 be
       0.11686885 -0.13449574 -0.2759775 -0.1631128
000070 b7 44 46 3c 9c 1d 18 be cf 6c 37 be 8d 55 41 3e
       0.012101344 -0.14855045 -0.17912601 0.18880291
000080 8b 93 57 be
       -0.21052377

model.transforms.0.encoder.noise_dist.transforms.0.autoregressive_net.lstm.weight_ih_l0 f4 [256, 35]
000000 85 b1 db 3d 55 10 cd bd 2a 08 a2 bd 5d 2e f8 3d
       0.107272185 -0.10012881 -0.079117134 0.12118218
000010 4b 82 97 bc a8 5f c0 bc fc d3 0f 3d 9d 20 8a 3d
       -0.018494746 -0.023483112 0.035114273 0.06744502
000020 a8 b7 27 bd 05 fc eb bd 3d ff a2 3c d0 6c ce 3d
       -0.040946633 -0.11522678 0.019897098 0.10079348
000030 32 13 c3 bc 99 b0 e6 3d bd fa db bc e7 fe 05 3e
       -0.023812864 0.11264152 -0.02685296 0.13085519
000040 fd 70 ef 3c ff f9 e3 3d 01 c1 d4 3d 4f 05 54 3d
       0.029228682 0.11131667 0.10388375 0.051762875
000050 90 46 5a bc 08 67 75 bd 85 a5 b3 3d bf 93 b9 3c
       -0.0133224875 -0.05991271 0.08771805 0.022653459
000060 d8 bd 1c 3d c6 b4 a2 3c 5a 2d ff bd a8 d4 82 3d
       0.038266987 0.01986159 -0.12459822 0.06388217
000070 4a 04 ee 3c c9 ed 15 3e 7a 25 52 3d d1 17 f5 3c
       0.02905478 0.14641489 0.05130527 0.029918583
000080 31 ea aa 3d a9 ca 60 3d 99 8f fd 3d a1 ed c8 bd
       0.0834545 0.05488077 0.12380905 -0.09810949
000090 7b bd 69 3c 1c f2 4a bd 37 88 60 3c aa b9 8c bc
       0.014266367 -0.0495473 0.013704351 -0.017178375
0000a0 dc 8b e0 bd 4b 76 49 3d ac b6 3d bd ba 93 e3 bd
       -0.10964176 0.04918508 -0.046316788 -0.11112161
0000b0 b0 73 88 bc 2e d2 8e bd b8 cb be bc 25 5f 08 be
       -0.016656727 -0.06973682 -0.0232905 -0.13317545
0000c0 2e 87 92 bd 3c 46 ac ba ab a2 f3 bd ef f3 fd bc
       -0.0715469 -0.001314349 -0.11896261 -0.031000106
0000d0 20 60 8f bc d0 ed eb bd e9 75 88 bd 7a 24 94 3d
       -0.01750189 -0.115199685 -0.066631146 0.0723352
0000e0 ce 28 7c 3c 45 af b1 bd 36 d2 6f 3d f7 68 26 bd
       0.015390588 -0.08676008 0.058550082 -0.040627446
0000f0 1a f3 12 bc d3 b5 ff 3d b3 fa 0e bc 57 02 cf 3d
       -0.008969093 0.12485852 -0.008726764 0.10107868
000100 08 80 01 be be f3 ff bd c0 27 62 bd 50 92 87 3d
       -0.12646496 -0.12497662 -0.05521369 0.06619704
000110 39 a9 e5 3d d2 8c 63 bd 90 cc ab 3d 09 09 7f 3d
       0.11213917 -0.05555422 0.083886266 0.062264476
000120 11 f5 f4 bc 84 35 02 3e 43 f0 82 3c bc 2d c8 3d
       -0.029902013 0.12715727 0.015983706 0.09774348
000130 1e ad dc bd 49 60 5a bd ca a7 08 3d 94 99 00 3e
       -0.10775207 -0.05331448 0.03336314 0.12558585
000140 f6 be 01 be 4d 2a 5d 3d 65 fe e7 bd 1a 29 74 3d
       -0.12670502 0.05399542 -0.11327819 0.05960951
000150 39 2e ae bd 4f 28 7d 3c e3 5f 90 3d 7c 5a b9 3d
       -0.0850491 0.015451505 0.07049539 0.09050462
000160 d6 d3 0b 3d d7 d7 bf bb c3 bb 68 bd c6 1f 0a 3d
       0.03413757 -0.0058545875 -0.05681969 0.033721708
000170 a2 ca 88 3d dc 92 c4 bd b2 69 9d 3d c0 44 3e bb
       0.06679274 -0.09598324 0.076861754 -0.0029032677
000180 8b 9b 8d bd 92 0d 98 3d f8 e4 b2 3c 19 0a 98 3c
       -0.06914433 0.07424463 0.021837696 0.018559502
000190 07 b5 ad 3c fa 35 9f bd 95 47 a4 bc 94 ad 2f bc
       0.021204485 -0.07773967 -0.020053664 -0.010722537
0001a0 17 2a c9 bd 23 7d ce 3c 36 bc 2b bb 77 39 d9 3c
       -0.09822481 0.025206154 -0.0026204712 0.02651666
0001b0 e1 67 b1 bd 15 42 22 bd 74 eb 64 3d 3a b2 00 be
       -0.086623915 -0.039613802 0.055888608 -0.12567988
0001c0 13 7a ce 3d 85 36 1e bd df bf d4 3d 05 3f a3 3d
       0.100818776 -0.038626213 0.10388159 0.079710044
0001d0 44 e5 cc 3c 91 29 d7 3d 6c 6a 13 bd b4 09 cb 3a
       0.025011666 0.10505975 -0.035990164 0.0015490563
0001e0 51 2d 82 3d 3b 9e 3f 3c 75 17 88 bd 06 e4 f6 bd
       0.063563 0.01169544 -0.06645099 -0.12055211
0001f0 61 0c 88 bd 47 29 52 3c 7f 43 c6 bd 03 67 94 3d
       -0.06642986 0.012827224 -0.096808426 0.072462104
000200 6f bc 9a 3d ea 78 5a 3d be c8 70 bc 33 39 8c bd
       0.07555472 0.05333797 -0.014696298 -0.068468474
000210 95 38 f8 bd 32 8f fd 3c b7 92 bc 3d 6b d3 04 3c
       -0.12120167 0.03095207 0.09207671 0.008107047
000220 bc f5 12 bd 69 aa 1a 3d bd a4 91 3d fc 08 f9 3d
       -0.03587888 0.037760172 0.071114995 0.12159917
000230 5b 8f 77 39 86 1f de bd 8e a0 b1 3c c5 6f 4b bd
       0.0002360916 -0.10845856 0.021683004 -0.04966714
000240 e9 1d 36 3d 14 75 08 be 02 f8 c2 bc 25 df 8f bd
       0.04446212 -0.13325912 -0.0237999 -0.07024983
000250 60 94 b3 bd 26 0e b1 3d a0 c5 ee bc 5e 40 94 bc
       -0.08768535 0.08645277 -0.02914697 -0.018097099
000260 be 2a bc bc 10 50 e5 bc d9 82 43 3d 3e 44 81 bd
       -0.0229696 -0.027992278 0.047732208 -0.06311844
000270 99 29 52 3d f4 89 43 3d 6e cc 35 bd 70 2a f9 3c
       0.051309202 0.047738984 -0.044384412 0.030415744
000280 72 a6 0e bd 2c da 86 bd d9 81 9e 3d 43 12 20 3d
       -0.034826703 -0.06584582 0.0773961 0.039079916
000290 0d ab 69 bd 2e 65 ce bd a2 fb 72 bd 85 c4 89 bd
       -0.057047892 -0.10077892 -0.059322007 -0.06726936
0002a0 33 db 00 3d 90 9c 34 bc ca 35 dc bd 25 f9 1a bd
       0.031459045 -0.0110236555 -0.10752447 -0.03783526
0002b0 40 23 88 3d 39 b1 21 bd 8a be 80 3b 3e a5 e9 3d
       0.066473484 -0.039475653 0.003928964 0.114084706
0002c0 ec 18 95 bd e8 8d c6 bd f0 ec 40 bb 8d f5 c7 3d
       -0.07280144 -0.09695035 -0.00294381 0.09763632
0002d0 cc 1d b2 bc 46 5f e1 3d 31 8a af 3d b5 c2 d8 b9
       -0.021742724 0.110045 0.0857128 -0.00041343799
0002e0 7e fa 3f 3b e0 16 1e bd d2 72 de 3d 5d c2 26 3d
       0.0029293592 -0.038596034 0.10861744 0.040712703
0002f0 78 c2 44 3d a9 c7 7f 3c 35 4b ed bd 33 b2 67 bd
       0.048037022 0.015611568 -0.1158661 -0.05656643
000300 1d d5 11 bd e3 9d 47 3d 02 88 81 bd d9 63 5d 3c
       -0.03560363 0.048734557 -0.063247696 0.013512575
000310 0a 04 cf 3d 83 ba 93 bc 56 6b a0 3d 6d 7d 87 bd
       0.10108192 -0.018033272 0.07832973 -0.0661572
000320 83 23 68 3d 6a 39 cc bd e9 94 18 3d 32 38 17 bd
       0.05667449 -0.09971888 0.037251387 -0.036918826
000330 21 c7 69 bd 4b 03 39 3c e1 6f 2d 3d 76 7b 0d be
       -0.05707467 0.011292289 0.042343024 -0.13816628
000340 c8 20 cb bd ad a7 ca bd 2f 33 75 bd a6 3e 06 3e
       -0.09918362 -0.09895263 -0.059863266 0.13109836
000350 76 a7 6e bb ce 3e 84 3d b4 fa e9 3d 13 65 b7 bd
       -0.0036415732 0.064572915 0.11424771 -0.08954825
000360 d9 d8 58 3d fd 21 7a bd eb 58 cf bd 19 ca 85 bc
       0.052941177 -0.06106757 -0.10124382 -0.01633172
000370 2c 8b a6 bd 68 c0 e0 3d 37 46 1f 3d eb 4d c2 3d
       -0.08132014 0.109741986 0.03888532 0.09487518
000380 37 69 8a bc 2f 7c 8a 3d 47 26 9d 3d 29 78 1a be
       -0.016895873 0.067619674 0.076733164 -0.150849
000390 b1 70 85 bd a8 fc d8 bd 34 4c 9b bd 0d ea a0 bd
       -0.06515635 -0.10595065 -0.07582894 -0.07857142
0003a0 2c 43 ee 3d 33 b6 6b 3d d7 6b c7 bd 59 8c ea bd
       0.11633906 0.057546806 -0.09737366 -0.114525504
0003b0 e0 6c 02 be 2f ce 37 bc c8 da a4 3b bd fa 6a bd
       -0.12736845 -0.011218592 0.0050309636 -0.05736803
0003c0 a1 d5 cf bd e6 95 75 3d 62 7b 67 bd 0a e1 74 bd
       -0.10148168 0.059957407 -0.05651415 -0.059784926
0003d0 a4 8b a7 bc ce 46 8b 3c ab 7a ac bc e2 38 3e 3c
       -0.020452328 0.017001536 -0.021054586 0.011610242
0003e0 87 cb e8 bd 1a dd ee 3c 79 76 b7 3d 2c 3e 63 3d
       -0.11366945 0.029158164 0.08958144 0.055479214
0003f0 27 1c 85 3d 21 2b 09 3e 7d b3 a9 bd 17 d0 bf bd
       0.0649951 0.13395359 -0.08286188 -0.09365862
