checkpoints/real_Tr/Tr/15_05_2023__18_59/cktp/checkpoint_0006000.tar (torch, 438699 bytes, 36 tensors)

model.net.token_emb.weight f4 [21, 64]
00000000: 6f47 7abf c872 6b3f c118 93bf 95f7 92bf
00000010: 6bd1 88bf 27d1 8c3f 6e10 7fbf cef7 26bd
00000020: a940 4fbf 1643 b93e 09e4 11bf c104 8bbe
00000030: 3965 763f 29d8 1ebf 501e 7cbe af03 b6be
00000040: 311b b5bf 5857 ddbe ba95 43bf 19df d53e
00000050: 21ba bf3c ba9a 9abd faf4 833f a909 833f
00000060: 7a04 ae3e eb5d cdbe 8f59 303e 9a21 2c40
00000070: 350f 2f3e 3857 873f d640 ba3e 8f93 d63f
00000080: a1d4 5bbf b7f2 e43f 28f2 61be a3ee a7be
00000090: 3cd6 9cbf bb4e 56be 49c6 d1be 0445 46bf
000000a0: 0c4d 933f 1ebb b23e d002 9abf 85aa 3dbf
000000b0: d642 76bf ca09 4fbf 5f2a 72bf c748 1abe
000000c0: 39c5 7bbf baa8 5a3e 1cd5 d5bf f863 e43f
000000d0: 67e6 d7bc a86f c33f d55c 1cbf d477 893f
000000e0: 3f91 443f ad2d 88bf 2a00 21bf 4925 cabe
000000f0: c635 f9bf 2aae 373f 2f10 34bf d9cb 42bc
00000100: 9ffb 873f c05b 40bf e3d8 c2bf 1e2f 53be
00000110: 1974 6bbf 2594 ca3f 2a51 91be 7624 583f
00000120: ef66 0d40 c289 83bf 18db 893d aed4 e0bd
00000130: f210 babe 6a1a ff3e 3bcf 943d 1696 0740
00000140: 9496 5e3f 9b9e 883d 18a4 1dbe e58f 453f
00000150: 8c59 183f 8411 5ebf 014f 413e dc27 483e
00000160: 2e17 0740 164f 8c3f 2f7e 2f3b 5699 9e3f
00000170: 14be cdbf bed2 29be 3f97 86bf 288a d5bf
00000180: 1781 b43d 8f7e 02bf 7332 853e 00d4 283f
00000190: 324c 6f3f 41ea 6fbf e9b4 5a3e 9d0f 8f3f
000001a0: 50b6 edbe c5e9 f4be 30e0 2bbf 21bc 39bf
000001b0: 380a 1fbe 1517 14bf 7030 77bc eab9 863f
000001c0: 14af b23e 17d5 9ebe 342f 253f 5282 313f
000001d0: 7b55 013f e939 be3f 07ba 06bf d420 5f3f
000001e0: 19fa 5dbf 5714 98bf 5448 3f3e d2c7 3cbf
000001f0: dfc7 71bf 857d ed3f ef56 823f b5b5 bdbf
00000200: 2338 973d c900 903e e14e 383f 41ce b2bf
00000210: 0ab7 163f 05b2 63be a04c 063f 2ff6 cdbe
00000220: 68db febd d3b6 e93d 01c6 3dbd 1671 5f3e
00000230: d6ae c93d 5e58 0b3e 5ea3 cfbf 038d dbbf
00000240: cb9e 6b3f 6b40 fbbf c015 93be bfdf d53f
00000250: ede8 0340 2286 02bf e6dd a83f a26d cbbe
00000260: 3c42 003f 6153 df3c eae4 583e 03fb 433f
00000270: 5621 1e40 a262 093c f161 c9be 5ad3 8dbf
00000280: 20fd 01be f27a ac3f 02a2 e73d 22ac 81be
00000290: 5573 d93e 0191 a8bf 94f6 163f cf8d 83bf
000002a0: d6b9 303f 88fb 733f 689e 8d3f b8b2 c3bd
000002b0: c3c3 7abf 187e 8e3f 99df a93e 8fbf f83d
000002c0: 038c 793e a1b7 883e 3027 33bf 7881 2dbf
000002d0: ac95 153f c7a8 783d 4d60 02bf a473 8e3f
000002e0: bbb6 8a3d c512 853f 814f d83f 210e 9dbf
000002f0: fbec e2be f8ae 4ebf 273f b1bf 17ae 063f
00000300: 863a 423f d897 0a3f 71c2 8cbe 0762 f03e
00000310: 4cc1 a5bf 106c 8e3e 18e4 0cbf 4e01 7fbf
00000320: 9f91 c03f 4a53 b83f 8f13 513f 41d7 be3e
00000330: de46 283f e692 59bf 4b3d cbbf 7fad e53f
00000340: 51f8 53bf d7d6 16bf 2916 1cbd f5aa 873f
00000350: be42 98bf ecd9 ab3e da81 1b3f d9df 5e3f
00000360: b394 cbbe 199c 323f 7c58 a7be 3369 3cbe
00000370: 79d8 08bd cc1e 193f 4c08 30be ca18 83bf
00000380: df72 20bf 9fd5 20bf ba43 6b3d 83d2 0fc0
00000390: fc8c 98bf 3894 d3be af56 9abd 5be1 3dbe
000003a0: 5065 41bf 1ed8 193c 71b6 593f 8f88 1f3e
000003b0: 062e b03f 8941 2f3f 2f87 993f c6c0 8b3f
000003c0: a439 abbe 7c83 413f aec4 2f3e c390 f6be
000003d0: b062 d1bf 23b1 a13f b10b 803f f149 413e
000003e0: 5f6f 443f b9b7 cc3f a2e9 023f 825c c1be
000003f0: 2911 c4bf adb6 50bb af10 5d3f e120 d8bf
-0.9776525 0.9197202 -1.1491929 -1.1481806 -1.0688909 1.1001328 -0.99634445 -0.04076367
-0.8095804 0.36183995 -0.5698858 -0.27152064 0.96248204 -0.62048584 -0.24620938 -0.35549685
-1.4148923 -0.432307 -0.7640034 0.41771773 0.023404183 -0.07549043 1.0309136 1.0237323
0.3398779 -0.40110716 0.17221664 2.6895509 0.17095645 1.0573492 0.3637759 1.6763781
-0.8587132 1.7886571 -0.22065032 -0.32799253 -1.2252879 -0.20928471 -0.40971592 -0.7744906
1.1507888 0.34908384 -1.2032108 -0.7408832 -0.96195734 -0.8087431 -0.94595903 -0.15066825
-0.9834781 0.21353427 -1.6705661 1.7843008 -0.026354982 1.526845 -0.6107915 1.0739694
0.7678413 -1.0638939 -0.62890875 -0.3948157 -1.9469535 0.7175013 -0.70337194 -0.011889421
1.0623664 -0.7514 -1.5222439 -0.20623443 -0.91974026 1.582646 -0.28382236 0.84430635
2.2094076 -1.0276415 0.06731242 -0.109780654 -0.36341053 0.4982484 0.072660886 2.1185355
0.86948514 0.066708766 -0.15394628 0.7717269 0.5951164 -0.86745477 0.18877794 0.19546455
2.1107898 1.0961635 0.0026778092 1.2390544 -1.6073632 -0.16584298 -1.0514907 -1.6682787
0.088136844 -0.50974363 0.26015052 0.65948486 0.9347564 -0.9371682 0.21358074 1.117664
-0.46428156 -0.47834602 -0.6713896 -0.72552687 -0.15531242 -0.5784772 -0.015087232 1.0525486
0.348992 -0.3102195 0.6452515 0.6933948 0.5052106 1.4861423 -0.52627605 0.87159467
-0.86709744 -1.1881207 0.18679935 -0.737424 -0.94445604 1.855393 1.018278 -1.4821078
0.07383754 0.281256 0.7199536 -1.3969194 0.58873045 -0.22235878 0.5246067 -0.40226886
-0.12444192 0.11411824 -0.04633141 0.21820483 0.098478004 0.13607928 -1.6221731 -1.7152408
0.92039174 -1.9629034 -0.2872753 1.6708907 2.0610917 -0.5098592 1.3192718 -0.3973208
0.50101066 0.027261438 0.21181074 0.7655489 2.4707847 0.008385332 -0.39332536 -1.1080124
-0.12694216 1.347502 0.113101974 -0.2532664 0.42470804 -1.3169252 0.5897 -1.0277652
0.69033563 0.9530568 1.1063967 -0.09555572 -0.9795496 1.1132231 0.33178404 0.12145912
0.24369816 0.26702598 -0.6998167 -0.6777568 0.58431506 0.060707834 -0.50928193 1.1129041
0.06773134 1.0396353 1.6899263 -1.2269937 -0.44321427 -0.8073573 -1.3847398 0.5260939
0.7587055 0.54137945 -0.27492097 0.4694979 -1.2949615 0.2781682 -0.55035543 -0.99611366
1.504444 1.4400418 0.8167047 0.372736 0.65733135 -0.84989774 -1.587808 1.7943572
-0.82800776 -0.5892157 -0.03810707 1.0599047 -1.1895368 0.335647 0.6074501 0.87060314
-0.39761886 0.69769436 -0.32684696 -0.18399505 -0.03340957 0.5981262 -0.17190665 -1.024194
-0.6267528 -0.6282596 0.057437636 -2.2472236 -1.1918025 -0.4132402 -0.07536065 -0.18542998
-0.75545216 0.009389905 0.8504401 0.15579437 1.3764045 0.68459374 1.199438 1.0918205
-0.33442414 0.75591254 0.17164871 -0.4815732 -1.6358242 1.2632183 1.0003568 0.18875863
0.7673244 1.5993568 0.51137745 -0.3776589 -1.5317737 -0.0031847165 0.8635358 -1.6885034

model.net.abs_pos_emb.inv_freq f4 [32]
00000000: 0000 803f 11f9 3f3f 9af5 0f3f 9be8 d73e
00000010: 9be8 a13e 23d4 723e 8718 363e 778d 083e
00000020: cdcc cc3d 0d94 993d c255 663d 15ba 2c3d
00000030: e386 013d 4f43 c23c 39ad 913c f27b 5a3c
00000040: 0ad7 233c b0b9 f53b 9c44 b83b 772e 8a3b
00000050: 383e 4f3b 0d69 1b3b 2815 e93a 8ec9 ae3a
00000060: 6f12 833a 8c94 443a 166a 133a 2517 dd39
00000070: 60cb a539 15a8 7839 5377 3a39 72d4 0b39
1.0 0.7498942 0.56234133 0.4216965 0.31622776 0.23713736 0.17782794 0.13335215
0.1 0.074989416 0.05623413 0.04216965 0.03162278 0.023713736 0.017782794 0.013335215
0.01 0.0074989423 0.0056234132 0.004216965 0.0031622779 0.0023713738 0.0017782794 0.0013335214
0.001 0.0007498942 0.0005623413 0.0004216965 0.0003162278 0.00023713738 0.00017782794 0.00013335215

model.net.layers.0.rotary_pos_emb.freqs f4 [16]
00000000: 0000 803f 9af5 0f3f 9be8 a13e 8718 363e
00000010: cdcc cc3d c255 663d e386 013d 39ad 913c
00000020: 0ad7 233c 9c44 b83b 383e 4f3b 2815 e93a
00000030: 6f12 833a 166a 133a 60cb a539 5377 3a39
1.0 0.56234133 0.31622776 0.17782794 0.1 0.05623413 0.03162278 0.017782794
0.01 0.0056234132 0.0031622779 0.0017782794 0.001 0.0005623413 0.0003162278 0.00017782794

model.net.layers.0.rel_pos_bias.relative_attention_bias.weight f4 [32, 1]
00000000: aafe 54bd 3349 16be 58d8 4bbe 1534 9f3e
00000010: d63d de3e 9a46 323f 644e d1bd ded7 c3bd
00000020: 1c24 a0bf a7e9 a33e 0251 a43f fb28 4cbd
00000030: fab7 1abf 7d2b f53e b161 7e3f 512a 963e
00000040: af1f 6bbf 2777 d53d b8e8 04be 287a 3540
00000050: 8b1d ecbf a344 febe 891b 593f 4264 b1be
00000060: 347a 9f3e 8d48 adbf 631e 8b3f 5043 34bf
00000070: 16af 2440 8e30 763f 421b 693f 2c6c 593f
-0.05200068 -0.14676361 -0.19906747 0.31094423 0.43406552 0.6963898 -0.1022003 -0.09562658
-1.251102 0.320142 1.2837222 -0.04984377 -0.60436976 0.4788474 0.99367815 0.2932916
-0.9184522 0.10423117 -0.129794 2.8355808 -1.8446516 -0.4966174 0.8480764 -0.34646803
0.3114792 -1.3537766 1.0868648 -0.7041521 2.5731864 0.9616784 0.9105722 0.8493068

model.net.layers.0.to_hidden.0.weight f4 [256, 64]
00000000: fd82 603e a108 40bd 2f92 53bc 1d50 28be
00000010: 635c 113e bb14 453e 7c9f d63d 2691 403d
00000020: 7282 fdbc ef1c 733a a0f2 d9bb f3f9 a9bd
00000030: fbfe dcbc 6e24 55bd 940a 2a3a 73f5 523d
00000040: 92d2 e03c 2c48 9abd 912d edbc 4600 8a3c
00000050: 2015 013e fab7 35be c20e 79bc cd11 8ebd
00000060: 8d7a c8bd f0f1 d23d 3a92 eebb b200 c83d
00000070: 1946 1ebc ecb5 a0bb b8de 99bd bdff 47bd
00000080: 12fb 4bbd 2986 fb3b 27c7 53be 755c 3b3d
00000090: dc12 efbd 0222 c5bd ccd5 133e d041 ce3d
000000a0: 9144 fdbc df2d 6d3d a350 043c 4c04 95bd
000000b0: 5168 65bd 4e8b e03d f4fc e7bc 50b6 c63c
000000c0: 5842 bb3d 5822 b83d dc50 933d 47ca b63c
000000d0: c04e 8b3c 1286 81bd 0405 953d 577c 8cbd
000000e0: f6f3 00be 4ae1 adbd d7af 8bbd f8c8 aebc
000000f0: 3445 f7bd 178e 773d 8de9 063e 5fb2 033d
00000100: 3ecc dcbd a006 833e 6127 953c ecb4 083e
00000110: 5a6b 8dbc e9b5 6eba d9fe ab3d 6ed1 07bd
00000120: 93ad 93bc f4dd 933d 895b 863d 68cc e73c
00000130: 2871 ce3d 62e7 38bd 863e d1bc af49 1ebd
00000140: 8601 3b3b ca98 91bd 86d8 e6bc a5b5 953d
00000150: c16b 9b3d 0055 95bd 30b3 40be 319d 23bd
00000160: 09cc ac3b 5a35 053e e3b4 abbc f91d a63d
00000170: da34 343d b2f4 67bc 2d3f 7abd 4888 c0bd
00000180: f6b4 ddbd c85d d4bc 1f36 7cbd 3c2a 9f3d
00000190: c3de 703c 3424 adbd 055b 0abc 3c5c 093c
000001a0: cabe 303e 7cf5 bebd 5bab dbbc 836a 24be
000001b0: 8655 723d bf16 02bd 16e9 6a3c fa9b bdbd
000001c0: afcf f53d 6450 2ebd fe4f 3a3d d92d a73d
000001d0: deb8 e4bd 48c5 133d 5544 abbd 21d4 cf3d
000001e0: 75b6 ddbd 89e4 163d 5b3a 04bd 196d 90bd
000001f0: c601 8e3d 3bd4 dbbd b235 1e3b a4ba 07bd
00000200: af90 093e be50 13be 5dd3 2dbe 973e fbbb
00000210: e9ce d5bd d099 f9bd 835b 79bd eb26 f53c
00000220: 717f abbd e026 823c 865b 91bc 57e8 6bbc
00000230: 824d b03d e0b6 c2bd cbca 8cbd 4dfb a83d
00000240: 48c6 923b 7c84 b3bb 0352 e33c 4e3f 20bd
00000250: 911e 1c3d 021a 103c 0587 9fbd 582e ba3d
00000260: acc3 a1bc 1918 133d 4c54 993c f8d0 d6bd
00000270: 7ad4 15be bb4f ccbd 28eb ccbd 11c2 233e
00000280: 7e30 213e 13ff 60bd dacb 3e3e 181c b1bd
00000290: 3c72 723c c81a 92bd 8ae6 2bbd b22d 37bd
000002a0: ccf8 7b3d 9246 3ebb f358 903c cbec 2abe
000002b0: a5aa b03c e048 213e 41b8 cabc 4deb 72bd
000002c0: 7a6e b3bd 01fc b33d 936c 28be 8961 893c
000002d0: e2e7 743c 4328 c93d c85b a63d 2689 923d
000002e0: aa47 ebbd bb07 a7bd f689 e8bd 97e4 fe3c
000002f0: 3fa2 3ebd 88d3 063d f7d0 5c3d 8bc1 063e
00000300: 8fcf ed3c a853 933c d4af 973d 788a fdbd
00000310: 724b a23c e4b0 6ebd cdd2 ac3d b7e3 c5bd
00000320: bea3 86bd 9ba4 673d 78bb 30bd f302 b63d
00000330: 4281 87bd 8f74 2f3d de52 25bc 4a7b 293d
00000340: 3e83 b43d 2995 9a3d 1abd 9cbd 68f9 093d
00000350: 47fc 53bd 7618 cbbc b1a1 633c aec3 893b
00000360: 62b1 1cbd 43b7 b9bd 5350 ce3d 0aba 88bb
00000370: efdc 82bd 40b0 b83d a294 e7bd d69d 49bd
00000380: 9ab9 8fbd 1033 87bc 6a69 73bd 12dd f13d
00000390: 3698 bdbc df7f 743c 2c6b 5abb 94a1 d43d
000003a0: 1753 d63d e9b2 69bd f571 1abd cbf1 9d3d
000003b0: 9db0 dbb9 8e5a 70bd 6f94 f93c da90 af3d
000003c0: 3c34 88bd e3db 393d cc21 803d d98f 073e
000003d0: b8ec a63d 1782 023d 45bd f13c 9bea 243d
000003e0: 3243 11bd cdef 97bd e511 84bd 563c 483b
000003f0: 6a89 043d 843d d5bd f979 8e3d 3fd4 3c3d
0.21924968 -0.04688323 -0.012913271 -0.16436811 0.14195399 0.1924619 0.10479638 0.047013424
-0.03094599 0.0009274026 -0.0066512376 -0.08299627 -0.026977053 -0.052036695 0.00064865616 0.05150361
0.027444158 -0.07533297 -0.028952392 0.016845834 0.12605715 -0.17745963 -0.015201272 -0.06936989
-0.09789 0.10300052 -0.007280615 0.097657576 -0.009660267 -0.0049044993 -0.07513183 -0.048827875
-0.049799986 0.0076759052 -0.2068144 0.04574247 -0.11673519 -0.09625627 0.14437026 0.100711465
-0.030916484 0.057905074 0.008075866 -0.0727621 -0.056007687 0.1096407 -0.02831886 0.024256855
0.091435134 0.089909256 0.07193157 0.02231325 0.017005324 -0.063244 0.07276347 -0.068596534
-0.12593064 -0.08490236 -0.06820648 -0.021336064 -0.12073746 0.06043824 0.1317503 0.03215253
-0.107811436 0.25590992 0.018207254 0.13350266 -0.017263103 -0.0009106086 0.08398218 -0.033158712
-0.018027103 0.072200686 0.06560428 0.02829571 0.100801766 -0.04514254 -0.025542509 -0.03864449
0.0028534844 -0.0710922 -0.028179418 0.073100366 0.07588912 -0.07291603 -0.18818355 -0.03994483
0.0052733463 0.13008633 -0.020960277 0.081111856 0.043995716 -0.014157461 -0.061095405 -0.094009936
-0.10825531 -0.025923625 -0.06157505 0.077717274 0.014701548 -0.08454171 -0.008444552 0.008383807
0.1726028 -0.09324166 -0.026815107 -0.16056256 0.059163593 -0.031759974 0.014337799 -0.09258266
0.12002503 -0.042557135 0.045486443 0.081630416 -0.11168073 0.036076814 -0.08362643 0.10147882
-0.108258165 0.03683904 -0.032282215 -0.07052059 0.06933932 -0.10733839 0.0024140892 -0.03313698
0.13434099 -0.1438627 -0.1697516 -0.0076673734 -0.104398556 -0.121875405 -0.060878288 0.029925784
-0.08373917 0.015887678 -0.017743837 -0.014398656 0.086085334 -0.09507537 -0.06874617 0.08251057
0.0044792034 -0.00547844 0.027749067 -0.039122872 0.038115088 0.008795263 -0.07789425 0.090908706
-0.019746624 0.035911653 0.018716954 -0.104890764 -0.14631835 -0.09976145 -0.1000579 0.15991999
0.15741155 -0.054930758 0.1863245 -0.086479366 0.014797743 -0.07134014 -0.041967906 -0.044721313
0.061516568 -0.0029033762 0.01762054 -0.16691892 0.021565745 0.15750456 -0.024746062 -0.05930643
-0.08761306 0.087883 -0.16447668 0.016770141 0.014947863 0.098221324 0.08122975 0.07155065
-0.11488278 -0.08155771 -0.11354439 0.03111486 -0.04654145 0.032916576 0.053910222 0.13159768
0.029029636 0.017984226 0.074065834 -0.123799264 0.019811366 -0.058274165 0.084386446 -0.09662574
-0.065742 0.056553464 -0.043147534 0.08887281 -0.06616451 0.04283577 -0.010090558 0.041377343
0.08814095 0.07547981 -0.07653256 0.033685118 -0.051754262 -0.024791937 0.013893531 0.004204235
-0.038255103 -0.090681575 0.100739144 -0.004172568 -0.06389796 0.09017992 -0.11307646 -0.04922279
-0.070178226 -0.01650384 -0.059426703 0.11809744 -0.023143869 0.014923065 -0.003332804 0.10382381
0.10465067 -0.057055388 -0.037706334 0.07712134 -0.00041902522 -0.05868011 0.030466286 0.0857255
-0.06650588 0.045375716 0.06256446 0.13238467 0.08150619 0.031862345 0.029509196 0.0402628
-0.035464473 -0.07418785 -0.064487256 0.003055354 0.03235761 -0.10412124 0.06956858 0.04610085

model.net.layers.0.to_hidden.0.bias f4 [256]
00000000: 43de 8bbd 9cfb 44bd fb81 873d 176e e6bc
00000010: 9c70 193a e89b 81bd e722 8ebd bc3b 203d
00000020: 503f 96bd 63c7 30bd 4754 e13d 6a2a a3bd
00000030: d225 883c 942b 8f3d fa21 863d 3aa4 c3bc
00000040: 21e3 543d 5a07 e33d fc35 a8bb 4e2a fabc
00000050: 17fd 8b3d dd2b 1c3d 9cad a43d fd70 e1bd
00000060: 899b dfbd 07e4 703d d223 8bbd bea4 05be
00000070: 5565 b13d c76f 30bd d577 0f3e 4592 b6bd
00000080: 4cd6 e53d b6ae f73a d154 173e 59cc f4bd
00000090: e350 01be 3681 123b 0c4c 0bbe 8e03 043e
000000a0: dc2b 43bd 1cf0 08be bb55 263c c652 b53b
000000b0: 4331 59bd 676f fe3c 8146 1d3c 9bb3 cebd
000000c0: 584c 32bd 4705 91bd 1fec 01be 0259 30bd
000000d0: eeaa e3bd 0c28 913d 2d74 043d 9aaa bc3d
000000e0: 14f0 df3c 1899 f6bc 14bf ddbd df40 323d
000000f0: 65a3 40bd 217f 003e fd60 03bd bca1 08bd
00000100: 61f1 8abc 1ade 083d 0b4b ab3d fe66 f63d
00000110: 2096 fa3c 78c8 e33d 4724 8bbc 3bec f83d
00000120: a9c6 38bd dbda 12bc d328 dabd 36d6 ee3c
00000130: 387b 83bd becd b3bd fe68 c63d 650c 023e
00000140: 2e37 6bbd 2e68 b3bd 1690 3bbd f94b d53d
00000150: 16a6 9abd b6c5 943d 33e1 87bd af1d aebd
00000160: 9efe d03d f06d b7bc 60b8 c4bb e8d2 da3d
00000170: 0387 fcbd a8a9 e9bc 4a77 943d 5715 e33c
00000180: e8f2 4a3c 15b9 20bd f27a 9dbd de24 b9ba
00000190: aa4e 01bd bbb8 b93d 5f43 d0bc 56ea 253d
000001a0: 6388 a8bd 6e8c 073d 99e3 a3bd 149a 04bd
000001b0: 5367 26bd 2e85 d6bd 6ef1 9b3c 92dc a9bd
000001c0: e782 833d ff4d cabd 0e41 d1bc dca7 cf3c
000001d0: fd11 a13d 45ab 743d 27f7 a63d 67b3 83bd
000001e0: 2278 2bbe e923 55bd 2be9 4e3d 8445 4f3d
000001f0: f5fd 2d3d 3041 9fbd 7192 6d3d 5c59 233c
00000200: 7461 643d a8b9 cdbd af19 f43c 5659 963d
00000210: 2fc6 4c3d 60fe 7a3d 8746 b73c fbf7 bb3d
00000220: 47ad a5bd 7433 bebc 5025 0abc b2f8 883d
00000230: 6754 0bbe 8ffd 0abe 3204 1b3d 65b2 3abd
00000240: b033 a63c cc01 31bd a88b 1e3d aabb e73c
00000250: fbe9 993d 1345 883c 0e5b 01be 949e 923d
00000260: 8d77 50bb 50a4 57bc 1a54 59bd 726c 94bd
00000270: 3c84 e03d 34f2 23be c44b 5c3b 91ed 13ba
00000280: f6f3 8cbd 479d a83b 860f 99bd 495f 6a3d
00000290: 188b 8dbd 9a3e 873d 95ca c0bd 1e0a 6dbd
000002a0: 1e7d 48bd 4297 6dbd 2cc5 3e3d 3270 2e3d
000002b0: bcae 973d 438d 96bd d631 1cbd abee 04bc
000002c0: 4630 12bd 762c bfbd 30ee dabd 8d00 b7bd
000002d0: 9710 d0bd 2d5d 803d bd65 c7bb 9207 883d
000002e0: dd0f 67bd 3b5b 94bd 9c1d 80bd f7bf a83d
000002f0: eead e9bd 5903 9dbd 86b0 06be 3335 b2bc
00000300: 1c75 8dbd d987 9cbd efca 05be 374a db3c
00000310: bdbc dcbc 75fb a13d d296 bb3c e520 d93d
00000320: 07b7 b53d 448b bcbd a972 083e 0e9f b73d
00000330: 8a8f 6dbd 5424 24bc 1a88 bdbd 1241 213d
00000340: 0b4c 103e 3d1d 03be eff8 02bd e894 9b3c
00000350: be23 823d 4e8f 013d 5737 ac3d 359a a4bd
00000360: 859d 993d 013d 06be 3d4c d03d 904a e33b
00000370: 94cc d5bc 90ba 2abd c916 11bc 907d 71bd
00000380: e0f3 9b3d 8ca9 b73d 0c37 323d 55ec a13c
00000390: b9a5 a93d 3d86 30bc 0b69 d03d 7fe8 c33d
000003a0: 8715 b4bc aa44 2ebd 3426 733d 3abf 323d
000003b0: d7e8 c3bc 15fb 923c 6f15 bb3b 8958 8bbc
000003c0: b38f c93d 0d95 babd 5411 e0bd 2167 81bd
000003d0: 2dac 72bd a3b7 09bb c650 9d3d 6245 6a3c
000003e0: 4edd 75bd fddd 66bc 190d d63d e4d5 7c3d
000003f0: d3a3 c2bd a662 b33d da00 92bc 37ff c2bd
-0.068295024 -0.048091516 0.06616589 -0.028128667 0.0005853267 -0.06328565 -0.06940251 0.039119467
-0.07336295 -0.0431589 0.11002403 -0.07967074 0.016619597 0.06990734 0.06549449 -0.02388202
0.05197442 0.110853866 -0.0051333886 -0.03053775 0.068353824 0.03812777 0.08040926 -0.11007879
-0.10918338 0.058811214 -0.067939416 -0.13051125 0.08661906 -0.04307535 0.14010556 -0.089146174
0.112225145 0.0018896672 0.14778449 -0.11953039 -0.12628512 0.0022354848 -0.13603228 0.12891981
-0.04764925 -0.13372844 0.010152276 0.005533549 -0.053025495 0.03105898 0.009599329 -0.10092851
-0.04352984 -0.07081085 -0.1268773 -0.043053634 -0.111165866 0.070877165 0.032337356 0.09212227
0.027336158 -0.030102298 -0.10827461 0.043518897 -0.047030825 0.12548496 -0.032074917 -0.033357367
-0.016960802 0.033414938 0.08363923 0.12031363 0.030589163 0.11122221 -0.016985072 0.121544324
-0.045111332 -0.008963312 -0.10652318 0.029154878 -0.064199865 -0.087794766 0.096879944 0.1270004
-0.05742567 -0.08760105 -0.045791708 0.10414881 -0.0755121 0.07264273 -0.0663475 -0.085017554
0.102048144 -0.02239129 -0.0060034245 0.106847584 -0.12330439 -0.028523281 0.07249315 0.027720137
0.012387015 -0.039239008 -0.076894656 -0.0014125367 -0.03156916 0.09068438 -0.02542275 0.040506683
-0.08229139 0.03309291 -0.08002395 -0.032373503 -0.04062588 -0.10474621 0.019036021 -0.082940236
0.06421452 -0.09878158 -0.025543716 0.025348596 0.07864759 0.059733648 0.08152609 -0.06430703
-0.16745046 -0.0520362 0.050515335 0.050603405 0.04247852 -0.077761054 0.058000986 0.009970035
0.055757 -0.10045177 0.029797403 0.07341258 0.04999369 0.061277747 0.022372497 0.09178158
-0.08089691 -0.023217894 -0.008431748 0.0668806 -0.13606416 -0.13573287 0.037845798 -0.045580287
0.020288318 -0.043214604 0.038707405 0.028287727 0.07515331 0.0166345 -0.12632391 0.071591526
-0.003180954 -0.013161734 -0.05305872 -0.07247247 0.10962722 -0.16010362 0.0033614496 -0.0005643005
-0.06882469 0.005145702 -0.07473664 0.057219777 -0.06911296 0.06603737 -0.094136395 -0.057870977
-0.048947446 -0.05800558 0.046574757 0.042587467 0.07406375 -0.07351162 -0.038133465 -0.0081135435
-0.03569057 -0.09334652 -0.10689962 -0.08935652 -0.10159414 0.06267772 -0.006085126 0.06642069
-0.056411613 -0.07243963 -0.062556475 0.082397394 -0.114101276 -0.07666654 -0.13153276 -0.021753883
-0.069071025 -0.076430984 -0.13065694 0.026768787 -0.026945466 0.0790929 0.022899065 0.10601977
0.088728 -0.0920625 0.1332499 0.08965884 -0.057998218 -0.010018427 -0.09254475 0.039368697
0.14091508 -0.12804122 -0.031975683 0.018991902 0.063544735 0.031630807 0.08408993 -0.08037225
0.075007476 -0.13109209 0.10170791 0.006936379 -0.026098527 -0.041681826 -0.00885553 -0.058957636
0.07614875 0.089678854 0.043509528 0.019766012 0.08283562 -0.010774192 0.10176285 0.095658295
-0.021982921 -0.042545952 0.059362605 0.0436394 -0.023914738 0.01794199 0.005709342 -0.01700999
0.098418616 -0.091104604 -0.10940805 -0.063184984 -0.05924623 -0.0021013997 0.07681422 0.014298769
-0.060025506 -0.014091012 0.10451717 0.06172742 -0.09503903 0.0875905 -0.017822672 -0.095213346

model.net.layers.0.to_qk.0.weight f4 [128, 64]
00000000: 65e3 23bf c105 6e3e 6189 9a3e 8e80 58be
00000010: 3561 0d3e a6e4 dbbe 03f1 f8be b7d1 4e3e
00000020: 1606 cf3e fdb0 8abd f5c6 c43e 2504 90be
00000030: 17a1 9cbd 288c 53be 05e8 89be 8b33 c03e
00000040: 26c7 903e b122 ef3b e71f 26bd deb4 c13d
00000050: 4611 9dbc 589b 523d 5938 063e 6fcd ba3e
00000060: 266e 803d e2d3 35bf 9107 d1be 79d8 7e3e
00000070: a11f 363f 6db9 843e 05a8 0a3e cdd3 5f3e
00000080: ddc9 773e dce9 a83e c65a 9a3e 8dab 1c3f
00000090: 4c48 6fbe bccb 37be 94b3 8ebc 2a3a 79be
000000a0: b9e0 33bd 47a7 79be e949 c63d 715c 803b
000000b0: 7508 0d3e 09a4 f2be 96ec 7d3e e4b0 f63d
000000c0: 42dc f5bd f20b 883e 3e40 8fbe f6d0 2a3e
000000d0: 7fdf 7abd fe1d a13e 6228 46bd e5e7 193e
000000e0: 9c85 253d e9c9 06be 8b4d 85be b645 253f
000000f0: 35c6 8a3e 71f8 b13d 2e27 dc3e e495 5dbe
00000100: bd38 41be cb80 9c3e 3d21 09bf b516 b3bc
00000110: afab 66be 9481 eabe c79b 7c3d 5ea6 983a
00000120: 21d5 853d 6724 913d 3d34 da3e 6cda 023f
00000130: c549 aebe 7179 053c 21a5 d73d d158 1b3e
00000140: 9d67 3e3e 2a43 0d3d 379b d9be c12a d63e
00000150: 541d ffbd dbc0 29be b354 9b3e b5fe dcbe
00000160: afae 92bd 615c a0bd 45fd 87be 685a a93e
00000170: 4d76 12bf bdc8 82be 374d c7be a886 963e
00000180: 2b1b c3bd 3c7e 87be 99a3 493e 92a4 22bf
00000190: ad47 9abe 1670 fdbd 46c1 173e 5c61 0ebe
000001a0: c13b 713e 9e46 6dbe 2e10 333e ebd4 363e
000001b0: e8a0 9a3e 8a39 893e 8946 ae3e d123 a2bd
000001c0: 978c 17bd 158b 0d3f 3eb7 e63d 11c2 51bd
000001d0: 76be 70be a1f2 0c3d e790 e23e baf0 f43e
000001e0: d087 883e 6bde fcbd c623 313e 6eaf 1f3e
000001f0: d9a9 123e d65a 243e a8e2 613e e7c5 0c3d
00000200: 90be 253d 0a43 7c3e 4857 03bf 52f0 883e
00000210: cd05 96be 182a 243d c22c a4be 479c abbe
00000220: ca37 c4be 93de c33e 7f16 d43d e690 053e
00000230: 4b9e e33d dc76 073f 7dde 893d d3b1 37be
00000240: c235 ddbb 4391 b33d a5fb 24be 53d3 febd
00000250: 800b d03e c250 b93e 73a4 253d c6f6 8dbc
00000260: e828 a1be d4d8 953e ca78 93be 2791 81bd
00000270: 8466 003e 4626 1e3e a0da e03c fac8 603e
00000280: eb62 20bc bc94 bb3e fe5b 18be 31c2 0fbd
00000290: af67 0b3e 43cd a7be d56a 80be 7e3b 043d
000002a0: 4525 73bc b793 66be 875c 85bd e7ab 533e
000002b0: ad73 ea3e c2d9 db3e 1454 4ebe b8f1 533c
000002c0: 2d44 553e 21ca 2c3e b3c9 3fbe a442 843e
000002d0: f5bb 413e 1aef 4d3d 97c9 d03e 003d 9d3d
000002e0: 0855 b23d 734d 173d 7b43 f83d 7ac0 0f3f
000002f0: 7a11 3bbe 90f6 133e 2ed2 8dbd ae46 b43e
00000300: 1fe4 0d3f 7573 88bd 198e d93e 3c17 0abe
00000310: 270c cabc 498b da3e 1658 4c3e 139d 193e
00000320: e8f6 883e 3318 8e3c f2ab 643e 7eb8 553e
00000330: a2c3 c03e 503a 5c3e da54 2b3e 7e15 3a3e
00000340: 1632 983e 7080 b83e 6121 21bd 876c 993e
00000350: 1726 02bf db12 17bd b444 12bf edfc a33d
00000360: 9678 993c 5c75 64be 421d b93d 0cd7 b1be
00000370: aa81 1c3e d532 023d 8283 253e 9ba5 85bd
00000380: 2303 5abe 92ad 043e ee4b c23e 18af bb3e
00000390: 6565 debc d7d0 d2bd 5bc1 9e3e 8228 86bd
000003a0: fd1c 24bd a03d c5be ea6f 0fbe 0ba6 733d
000003b0: 4c12 d83d 6efc aabd 8eca c33d 5ef8 80bb
000003c0: 3ac8 193e 50d9 7fbe 3152 7e3e c970 d83e
000003d0: 6d75 833e 0c5c 153d 4e70 5c3d 7710 d83d
000003e0: c8a4 ba3e 0c6a a5be 8df6 2f3d 54b5 ae3e
000003f0: 1114 e23e c15f 4a3e 0c44 c93d d1a6 6f3e
-0.6401885 0.23244382 0.30182937 -0.2114279 0.13806613 -0.42947882 -0.48621377 0.20197187
0.4043433 -0.06772039 0.38433042 -0.28128162 -0.07647913 -0.20658934 -0.2693483 0.37539324
0.28276938 0.0072978367 -0.04055777 0.09458326 -0.019173276 0.05141768 0.13107432 0.36484858
0.06271009 -0.7102643 -0.40826085 0.24887265 0.7114201 0.2592272 0.13540657 0.2185814
0.24198098 0.3299092 0.3014738 0.61199266 -0.23367423 -0.17948812 -0.017419614 -0.24338594
-0.043915484 -0.24380217 0.09682066 0.00391727 0.13772757 -0.47390774 0.24797282 0.12045458
-0.120049015 0.26571614 -0.279787 0.16681275 -0.0612483 0.31468195 -0.048378356 0.15029867
0.040410623 -0.1316296 -0.26035723 0.64559495 0.27104345 0.086899646 0.42998642 -0.2163921
-0.188693 0.3056701 -0.5356634 -0.021861413 -0.2252643 -0.45801985 0.061672 0.0011646261
0.06534792 0.07087021 0.4261798 0.51114535 -0.34040657 0.00814663 0.10529543 0.151706
0.18594213 0.03448788 -0.42501232 0.41829494 -0.12456766 -0.16577475 0.30338058 -0.43163076
-0.071622245 -0.0783012 -0.26560417 0.33076787 -0.5721176 -0.25543776 -0.38926098 0.2939961
-0.09526666 -0.26463497 0.19691314 -0.63532364 -0.3013281 -0.12374894 0.14819822 -0.13904327
0.2355795 -0.2317147 0.17486641 0.1785466 0.30200887 0.2680171 0.3403819 -0.07916988
-0.03699931 0.5529035 0.112654194 -0.051210467 -0.23510155 0.034411076 0.44251177 0.4783991
0.26666117 -0.1234711 0.17298803 0.15594265 0.14322604 0.16050276 0.22059119 0.034368422
0.040464938 0.24634948 -0.51305056 0.2674585 -0.293013 0.040079206 -0.32065398 -0.33517668
-0.38323814 0.38255748 0.10355853 0.13043556 0.11114176 0.5291574 0.067318894 -0.17938928
-0.006750793 0.08767941 -0.1611162 -0.12442651 0.40633774 0.36194426 0.040440034 -0.017329585
-0.31476521 0.2926699 -0.28803092 -0.06326514 0.12539107 0.15444288 0.027447999 0.21951666
-0.009789209 0.36636913 -0.14878842 -0.035097305 0.13613771 -0.3277379 -0.25081506 0.0322833
-0.014840429 -0.22517286 -0.06511789 0.20671044 0.4579138 0.42939574 -0.20149261 0.012936048
0.20826788 0.16873981 -0.18729286 0.25832093 0.18919356 0.050276853 0.407788 0.076776505
0.08707625 0.036939096 0.12122246 0.5615307 -0.18268386 0.14449525 -0.06924854 0.35210174
0.5542621 -0.06662647 0.42491224 -0.13485426 -0.024663998 0.4268439 0.19955477 0.15001325
0.26750875 0.017345523 0.22331217 0.2087116 0.37649256 0.2150662 0.16731587 0.18172261
0.29725713 0.3603549 -0.039338473 0.29965612 -0.5083937 -0.036883216 -0.5713608 0.08007226
0.018734258 -0.22310394 0.090387836 -0.3473438 0.15283838 0.03178676 0.16163447 -0.06525727
-0.21290259 0.12956837 0.37948555 0.36657023 -0.027147958 -0.10293739 0.31006894 -0.06550695
-0.040066708 -0.3852358 -0.14007536 0.059484523 0.10550365 -0.083489284 0.095601186 -0.0039358577
0.15017787 -0.24985242 0.24836041 0.42273548 0.25675526 0.036464736 0.05381804 0.105500154
0.36453843 -0.3230747 0.04295974 0.34122717 0.44155934 0.1976309 0.09827432 0.23403479

model.net.layers.0.to_qk.0.bias f4 [128]
00000000: a48b 143e 62e1 163e b3a1 803e d02f a53e
00000010: 9e4d ac3e aac4 fc3d c53d 963e 0757 fc3d
00000020: 4467 443e e574 6b3d 722f c93d 71e2 ac3d
00000030: d100 4ebd ff9d 023e 6f5a f83d 7aa9 083b
00000040: cb42 223e ee17 8a3c bdbe cd3c 15ff e63d
00000050: 96bb 073c d676 c63c 73fc 7d3d 1b52 7cbb
00000060: 3dec c0bd e8c7 713c c370 c63d 54b5 043e
00000070: 5230 0f3e bb7e aebc c20c 4b3c b3b3 2bbd
00000080: ed9d 853d 05e6 babc 275e b1bd ca2a 073d
00000090: 0685 b8bd 47d2 a83d 37e7 c63d 1383 3b3d
000000a0: 23ef 623b 92cf 63bc 5112 a63d ed3a 023e
000000b0: e843 543e c5b3 583d 25ec c33d d742 a43d
000000c0: 49e5 2c3e 3e3b d43d 1000 5b3b cef5 353e
000000d0: aba5 b03c 34e1 70bd f97a 523d 128b 243e
000000e0: 9ae5 283e 2957 9f3d fd4f 873e 72ca d83d
000000f0: 5c9b 0a3d 3a7b 9fbc 6ef8 3c3b bc6b f03d
00000100: 87a7 973c 7d44 e13d d3ea 513e 30e4 64bc
00000110: b56f 31bd 958c babc 48ba 793e dddd fcbc
00000120: 42d5 b7bc 9626 9d3d 8f6f 7b3d d1ce 293e
00000130: 5b9b d73c 708d 0a3e 3e92 a9bb 9be9 4b3d
00000140: 31cc ce3d 5b5c 3b3e 1cec 2a3d 749f f63d
00000150: dbf0 edbc 0f91 853d c941 0a3e 593e 133e
00000160: c3e0 363d 31ef 1cbc 432b 2d3d bbce 46bb
00000170: 5819 323e 601b 893b dd2c 973d 9cf9 063e
00000180: 7826 163e a0aa 23bd 184e f13d a3a7 0a3e
00000190: eff4 3d3e 2f7f 183e 7d35 e93d 3437 043e
000001a0: 56a8 16bd 293f c13c 5e9d 3c3e 0d09 703d
000001b0: d846 f63c 93a6 153e e7ef 043d bcc3 003d
000001c0: b9ab 473e 408f 1f3c 63dc 5f3c e701 5c3b
000001d0: 1aa9 363e ae51 0e3e 3832 7abc ec2a f43d
000001e0: 3d40 793d eaa3 3d3d 3e68 25bd c16a 7ebd
000001f0: d02d 3a3c 1d8e 353e 1ffd 2f3e e643 553e
0.14506394 0.14734414 0.25123367 0.3226304 0.33652967 0.12342198 0.29344 0.12321287
0.19180018 0.057484526 0.098235026 0.08441628 -0.050293747 0.12755583 0.12126624 0.002085297
0.15845792 0.016857114 0.025115365 0.11279122 0.00828447 0.024226587 0.062008332 -0.0038501087
-0.09420059 0.014757134 0.09689476 0.12959796 0.13983276 -0.021300664 0.012393178 -0.04191942
0.065242626 -0.02281476 -0.08660536 0.03299979 -0.09009747 0.08243232 0.097120695 0.0457793
0.00346274 -0.013904469 0.08108962 0.12717791 0.20729029 0.052905817 0.09566525 0.08020561
0.1688434 0.10362862 0.0033416785 0.17769548 0.021563372 -0.05880852 0.051386807 0.16068676
0.16493836 0.07780296 0.26428214 0.105854884 0.03383957 -0.019467939 0.00288346 0.11739299
0.0185125 0.10999391 0.20499735 -0.01397042 -0.043319423 -0.022772113 0.24387467 -0.030867511
-0.022440556 0.07673375 0.061385687 0.165828 0.026319196 0.13530517 -0.005174904 0.04978333
0.1009754 0.1829695 0.041729078 0.12042132 -0.029045513 0.06521808 0.13501658 0.14379252
0.044647943 -0.009578512 0.042277586 -0.0030335623 0.1739248 0.0041841716 0.07381604 0.13181156
0.14663112 -0.039957643 0.11782473 0.13540511 0.18550466 0.14892267 0.11387155 0.12911683
-0.03678163 0.023589687 0.18419406 0.05860238 0.030063078 0.14614324 0.03245535 0.031436667
0.194991 0.009738743 0.013663384 0.003357047 0.17837945 0.13898346 -0.015270762 0.11922249
0.060852278 0.0462989 -0.040382616 -0.062113527 0.011363462 0.17729993 0.17186402 0.20826682

model.net.layers.0.qk_offset_scale.gamma f4 [4, 128]
00000000: 53a6 e63d 1778 56be dd30 1cbf bc83 f1be
00000010: 4d58 85be 2130 91be 1e58 493e 658b b33e
00000020: 85fb 12be 87bb 423e 0556 1d3e 929d 67be
00000030: 4735 10bf 6d1b 12bf 1db0 ba3c 5448 0cbe
00000040: 5b17 8ebe edbf 833c 3cee 12be c253 133f
00000050: 1fd5 7bbd 64c1 abbe 5196 f6be a563 88bd
00000060: 5fd0 693d d1d4 233e 3bfc 8dbe 4438 803e
00000070: d479 19bd 3ccd 1a3f 5d1e 13bf 3212 3ebe
00000080: e34a 0dbf 8bb8 d1be 4517 e13c 8e0c 93bd
00000090: 675c 9abe 7155 3e3d 71b8 5e3e 19d1 8fbd
000000a0: a80d 4f3e 1374 d43d cfc3 c63d 58b5 0e3f
000000b0: 7c99 623e 544b 773e e1d7 1dbf 88c6 0ebf
000000c0: 7679 023f 989d 1e3e 9b01 15be 81c0 1abf
000000d0: 52b6 833e 34c5 883d 1479 33bf b567 31bf
000000e0: f96c 0c3f 6b65 4bbf 1e08 213f 6fac e0bd
000000f0: 615b 4f3e d1eb a73e 0e39 0abf 8371 df3e
00000100: bb0a a3bd 924f 833e f78c 383f b042 2fbf
00000110: a9e4 19bf 9225 38bf 851d 273f 3ac6 2cbf
00000120: 614f e33e 3894 823e 8131 813d 55b5 1a3f
00000130: da65 71be ee46 23bf 9f5b 05bf fff8 803f
00000140: bc93 453f 8a3e 293f b500 6b3e 919b 05bf
00000150: 8dab 8f3e 1f8e 433c 16bb 3c3d ab29 2ebf
00000160: f9a4 b8be fb50 a33c 025e 263f 7018 193f
00000170: 3204 97bd 873c 30bf 5ffb 2c3f ef29 6abe
00000180: 6580 8a3e 0ab4 8bbe dacc 26be 93a4 2fbf
00000190: 4cc6 fcbb 8184 37bf 063e 893e 0d9d 4b3e
000001a0: c9c6 9cbe 4b50 e7be 4046 c13e 86a7 65be
000001b0: e85d 66bd a1cd 843e 9cb5 1d3f 24fc 753f
000001c0: ee8b b03e 8356 3bbf 5d53 46bd 71ee 003f
000001d0: 1702 62be 66d7 4cbe 4ca0 883e 45d0 b0bd
000001e0: 94ab 21bf 94ff b53d a8d9 81bd 49bc 07bf
000001f0: 343b 233e 2abc ad3e d14a b8bd c210 3ebf
00000200: a1b4 2bbf c25c 283f 2647 60be 690e 6bbe
00000210: 0760 353f 88e5 e9be d6f8 083f 7906 b6bd
00000220: 35fe 963e 2f32 ed3e 0fc1 4cbc 1a37 203f
00000230: 8322 eb3e f57c 36be fd43 11be 1b21 a53e
00000240: b517 b73e 7229 e23e 29dc 983e ce10 d03e
00000250: 5a80 953e 9107 07bf c1de d1bd 3595 fd3e
00000260: 4a92 78bc 35fc 653e 7164 af3e 068a b83e
00000270: 1ede 56bf 3d93 043e 7bb4 953e 97b2 f13e
00000280: 544c bf3d e94c 2b3f 6c9d a23d 2885 13bf
00000290: 32b4 0f3f d737 d53e 98e3 373f d6b7 123f
000002a0: eb7d f1be f1ab 4a3e 206d b2be 3e9a 253e
000002b0: e4dd a9be c3b5 143f b046 33bd 3bed 07bd
000002c0: b159 7a3e 6b36 c53e 5bb7 17bf c3a1 3b3d
000002d0: 0e37 cdbe 1343 30be 34e0 68be ecc0 4dbc
000002e0: 6218 963e 06b2 89bd 803b 34bc f0af 8abe
000002f0: cca3 c33e ec04 273e 6912 b03e f096 03be
00000300: 18d2 80be 9e8f e73e 88e6 c3be 1263 f53e
00000310: 6eb0 bdbc ea7c edbd 7f67 a53d 5039 74be
00000320: 9b98 ea3e b31e c1be 61fe bbbe 8249 dd3d
00000330: bc51 a53e 6fab 81bd 95ce 203d 173b ad3e
00000340: 184e f2bc 188c 9e3b 1cc0 af3e 5223 043f
00000350: 29da 34be f92c d33e 042d 643e 528c efbd
00000360: dd94 72be 99b7 20bf 75e0 1cbe a608 b7bd
00000370: d04e 05bf ba98 043f 51df 973e 4d4c 88be
00000380: 4e8b bebe 3a64 cdbe dfda 2a3f 2750 543d
00000390: d16a 8abe 0c44 2e3b b94f ed3e 9c61 9d3e
000003a0: 41e0 87bf 2e8c a63e fcb8 a0be 1187 0fbf
000003b0: b264 76be 47d1 0a3f e0bc bebe c6a5 6e3e
000003c0: 590e a43e 431f fd3d 9c66 c4bc 240e d8be
000003d0: 4839 f33e cd3a a8be 401c 6cbe a5b3 08bf
000003e0: 1f63 11bd 28d0 8fbe 9c2d 31bf c8c4 61be
000003f0: b05e f23e 1024 9c3d 1288 4dbe 0eaf 0ebe
0.112621926 -0.20944248 -0.6101206 -0.47170818 -0.2604393 -0.28357032 0.1966252 0.35067287
-0.1435376 0.19016849 0.15364845 -0.22618702 -0.56331295 -0.570731 0.022789055 -0.13699466
-0.27752194 0.016082728 -0.14348692 0.5754968 -0.061482545 -0.33545983 -0.48161557 -0.06659631
0.057083484 0.15999152 -0.277315 0.25042927 -0.0374697 0.6046941 -0.57468206 -0.18561628
-0.55192393 -0.40961108 0.027476916 -0.07180129 -0.30148622 0.046468202 0.21750046 -0.07022304
0.20220053 0.10373702 0.09705316 0.5574546 0.22128862 0.24149829 -0.6165753 -0.55771685
0.50966585 0.15489805 -0.14551394 -0.6044999 0.25725037 0.066782385 -0.70106626 -0.6929887
0.5485378 -0.79451627 0.6290301 -0.10970389 0.20249702 0.327971 -0.5399331 0.4364129
-0.07961031 0.25646645 0.72090095 -0.6846113 -0.6011453 -0.7193233 0.6527942 -0.6748997
0.443965 0.25503707 0.0630827 0.6043294 -0.2357401 -0.63780105 -0.5209293 1.0075988
0.7717855 0.6611105 0.22949488 -0.521905 0.2806057 0.01193574 0.046076857 -0.6803233
-0.36063364 0.019936075 0.64987195 0.59802914 -0.07373847 -0.6884236 0.6757106 -0.22867559
0.27051082 -0.27285796 -0.16289082 -0.68610495 -0.0077140685 -0.7168656 0.26805133 0.19884129
-0.3062041 -0.45178446 0.3774891 -0.22427186 -0.0562419 0.25938132 0.6160524 0.9608786
0.34481758 -0.7317888 -0.048419345 0.5036383 -0.2207111 -0.20004043 0.26684797 -0.08633474
-0.6315243 0.08886638 -0.06340343 -0.53021675 0.15940553 0.3393262 -0.08998645 -0.7424432
-0.6707249 0.6576654 -0.21902141 -0.22954716 0.7084965 -0.4568293 0.53504694 -0.08887953
0.2949082 0.4632735 -0.012497201 0.6258408 0.45924768 -0.17821105 -0.14186092 0.3225182
0.35760275 0.44172245 0.2985547 0.4063782 0.29199487 -0.5274592 -0.10247565 0.49527898
-0.015171597 0.2245949 0.34256318 0.36042804 -0.83932674 0.12946792 0.29239258 0.47206566
0.0934073 0.6691423 0.07940182 -0.57625055 0.5613433 0.41644165 0.71831656 0.5731176
-0.4716638 0.19792153 -0.3484888 0.1617212 -0.33177102 0.58089846 -0.043768585 -0.033185225
0.24448277 0.3851808 -0.59264153 0.045808565 -0.40081066 -0.17213087 -0.22741777 -0.012558203
0.29315478 -0.067234084 -0.011000514 -0.27087355 0.38210905 0.16310471 0.34389046 -0.12850547
-0.2516029 0.4522676 -0.3826182 0.47927147 -0.023155417 -0.11596091 0.08076381 -0.23849988
0.45819554 -0.37718734 -0.36717513 0.10805036 0.3228892 -0.063315265 0.039259512 0.33834144
-0.029578254 0.004838478 0.34326255 0.51616395 -0.17661346 0.4124525 0.22282797 -0.11696686
-0.236896 -0.6278015 -0.15319999 -0.089371964 -0.52073383 0.5179554 0.29662564 -0.26620713
-0.37215656 -0.4011553 0.6674022 0.05183425 -0.2703462 0.0026590852 0.46349886 0.30738533
-1.0615312 0.32528824 -0.31391132 -0.5606547 -0.2406185 0.5422558 -0.37253475 0.23305425
0.32042196 0.12359478 -0.02397471 -0.42198288 0.4750464 -0.3285736 -0.23057652 -0.53399116
-0.03549492 -0.28088498 -0.6921022 -0.22047722 0.47337866 0.07624066 -0.20071438 -0.13933966

model.net.layers.0.qk_offset_scale.beta f4 [4, 128]
00000000: 0ea5 1dbe 96db 25be d9fe 88be 80ae 40be
00000010: e3dd 24be 2b27 d4bd 7e59 ffbd 15cf 863e
00000020: cb11 7bbd f5dc fc3d 16d3 013d cdd7 123d
00000030: a648 0cbe 5092 d73d acd9 23be 07e3 1abd
00000040: dcdc ca3d 11f8 a73c 6de5 76be 4d29 20bd
00000050: 43f9 f13c e877 e7bd 2f76 1ebe 7054 35be
00000060: adce bebc 8f5b 06bd 0dc2 febd f800 86be
00000070: 0d04 c33d 3227 4a3a 0124 d43c cc45 dbbd
00000080: 5b55 40bd 5c76 b3be a5d4 10b9 08b6 083d
00000090: 8865 f93d faae 0dbe 3f9e a2bc 4aed 20bc
000000a0: eda8 e93d 9f57 d4bd 16b4 95bd 16e1 7b3e
000000b0: b0cc 98be 622f ce3e 305b 23be 7f19 4b3e
000000c0: 8d2a 253e 11a9 6ebd 49ce b73d f67a 73be
000000d0: a724 bbbc 649f 7c3d 3b4f 79be 4f80 a6bc
000000e0: 2eaa 97be 6019 02be 23ec 66be 5437 183d
000000f0: 8a24 553e 9031 aa3e bc68 bf3d eadf 623e
00000100: 9e3d a7bc a231 1a3c 9b70 d53d ef5c 21bd
00000110: 61c8 c4be 01a4 34be 9304 5f3e e464 4dbd
00000120: b22c 083e 0e06 553c 9c50 0e3d 9d17 51bd
00000130: 88a6 183c 0982 b5bd 5b10 763e 9222 3c3d
00000140: d320 933e ddb0 8c3e 7373 183b 4e27 0d3e
00000150: 441f 293d 3425 233b 904f afbc f58b 9bbe
00000160: 61b8 4fbd 4ab7 9abd 372b 9c3e d354 903d
00000170: a220 813d 3b5b a93d 5b4d f23e cdbb b83c
00000180: 173c 123e 700e 21be cee3 51bd 7d7f 18bd
00000190: a8fd 3c3d b858 1dbe 5548 67bd 0139 1b3c
000001a0: ecad 2fbe b708 bb3d aba7 593d d864 023d
000001b0: b5e8 313c c5cd 3cbd d8ad afbd 195a bf3d
000001c0: 00ab 2c3e 28e5 143e a1e6 3cbd 5981 94bc
000001d0: 1769 dbbd c900 98bd d2b2 acbd 7017 7a3d
000001e0: b434 1cbe 9414 8c3d 75e0 b8bd 1b2d d13d
000001f0: 5f3b 383a 00a3 b93e 597c 343d 700e a4be
00000200: 570c 883e 2f42 9b3e 1c6e ab3b d5fe b8bd
00000210: 9044 64bd f1dd 0abe fcbb f03d 7ea5 433e
00000220: 3c6a 083d 8cc8 f03d f4cc 643c 8567 313e
00000230: 706d 2dbd af10 9d3d 0631 63be dacf 9c3d
00000240: 68c6 8dbd 0989 3e3e 47b6 1e3d 1c6f 30bd
00000250: 8da6 b23c 39bc b4be aac5 33bd d18e d0bd
00000260: 1a10 4ebb 7c4f 93bd b97e 00bd cd02 473e
00000270: fb8f a6be ed85 bd3c a9a7 82bd d8ac 7dbc
00000280: ea25 643d 4b3e 553e 2463 073b 23b8 f6bd
00000290: ba6a 83be 88ba f1bd fcdb 903e 5e0c 023e
000002a0: 302d 663d b39a f9bb ee54 2dbd 5934 4fbe
000002b0: 1123 ad3d 73ce 253e b78f 0f3d 8c7f 803d
000002c0: 9f9d 1c3c 8073 6a3a bfef 09be abe2 3cbc
000002d0: 5f36 9dbe ef8d a0bc 0339 8e3d 3434 413d
000002e0: 9e5f 043d d32b 09bd c48a 623d af9b 6dbe
000002f0: b23d 3bbe f8a9 bb3e ff21 4a3e b22d e7bc
00000300: 8b8f c2bd b157 f23c 6a3f c13d 0554 1c3c
00000310: ed53 943d 72cc 9f3d 6935 223d 3cf1 9abd
00000320: 5276 2abd 45dd 903d 5d68 14bd 4ec1 a4bc
00000330: 6363 ab3d 8a15 18be e08b 203d 86d6 1fbe
00000340: 95d3 323e b2cc 823d 5ffd 9e3e 7751 243e
00000350: e667 2f3d c530 e73d 0ea6 493d 1499 143b
00000360: c323 00bd 9b74 14be e4fb c03d 10ed 1c3d
00000370: 87f4 73be befd ca3d fcf0 803e a165 9a3d
00000380: 2880 d63d 73ff a43d 9ab8 59be e072 8fbd
00000390: 7902 37bd 612a 88bb 5233 da3d 8f43 a8bd
000003a0: b27f c13d 43fe 4abd ea57 153e aaf2 523e
000003b0: 4977 da3d b313 d4bc 8f4c 13be 7f86 f4bc
000003c0: 1101 1e3e f6e4 66bc fce8 903c 645c 443d
000003d0: d294 b3bd 2b02 25be de29 233c 81d3 5bbd
000003e0: 5576 453e f34e 7bbd 05e0 f1bd 34f4 b93c
000003f0: c2f3 f1bd ccb7 44bd 9ba0 d13e f492 edbc
-0.15394995 -0.16197047 -0.26756933 -0.18816566 -0.16100268 -0.10359033 -0.12468241 0.26329866
-0.061296266 0.12346832 0.031695448 0.035850335 -0.13699588 0.10525954 -0.16001004 -0.037814166
0.09905407 0.02050403 -0.24110956 -0.039101887 0.029537803 -0.11302167 -0.15474771 -0.17707992
-0.02329191 -0.03280216 -0.12439356 -0.26172614 0.09522257 0.0007711529 0.025896074 -0.10706672
-0.0469564 -0.3505124 -0.00013812126 0.033376724 0.12177569 -0.1383628 -0.019850848 -0.009822199
0.11409173 -0.10368275 -0.07309739 0.24597582 -0.29843664 0.40270525 -0.15952754 0.19833945
0.16129513 -0.058266703 0.08974893 -0.23777375 -0.022844626 0.061675444 -0.2434663 -0.020324854
-0.29622024 -0.12704992 -0.22551017 0.03716214 0.2081472 0.33240938 0.09346148 0.22155729
-0.020415124 0.009411247 0.104218684 -0.03939527 -0.38434127 -0.17640688 0.21779089 -0.050145045
0.132983 0.013001932 0.034744844 -0.05104791 0.009317048 -0.08862693 0.24029677 0.045931406
0.2873598 0.27478686 0.0023262172 0.13784525 0.041289583 0.0024894 -0.021400243 -0.30380216
-0.050712947 -0.07554491 0.3050172 0.07047429 0.06305052 0.08269354 0.47324643 0.022550488
0.14280735 -0.15728164 -0.051242642 -0.037230957 0.046140343 -0.15365875 -0.056465466 0.00947404
-0.1715619 0.091325216 0.053138416 0.031834453 0.010858704 -0.046094675 -0.0857808 0.09343357
0.16862106 0.14540541 -0.046118382 -0.018128084 -0.10713404 -0.07422025 -0.08432545 0.061057508
-0.1525448 0.068398625 -0.09027187 0.10213681 0.000702789 0.36257172 0.0440639 -0.32042265
0.26571915 0.30323932 0.005231632 -0.0903298 -0.05572945 -0.13561226 0.11754605 0.19106099
0.033304438 0.11757001 0.01396488 0.17324646 -0.042340696 0.07669198 -0.2218667 0.07656832
-0.069226086 0.18606962 0.038748052 -0.043074712 0.021807933 -0.35299852 -0.04388968 -0.1018349
-0.0031442703 -0.07192895 -0.031370852 0.19434662 -0.32531723 0.02313515 -0.06379635 -0.015483104
0.05570022 0.20824544 0.0020658458 -0.1204684 -0.25667363 -0.11803156 0.28292835 0.1270003
0.056195438 -0.0076173185 -0.042317323 -0.20234813 0.08453954 0.16192035 0.035049167 0.06274328
0.009559064 0.00089436024 -0.13470362 -0.011528651 -0.30705544 -0.01959893 0.06944468 0.047168925
0.03231775 -0.03348906 0.05530812 -0.2320392 -0.18285254 0.36653113 0.19739531 -0.028220031
-0.09500035 0.02958283 0.094359234 0.009541516 0.0724257 0.07802667 0.039601717 -0.07565543
-0.041616745 0.07073454 -0.03623234 -0.020111706 0.08368566 -0.14851967 0.039195895 -0.15609178
0.17463525 0.06386699 0.31052682 0.16046701 0.042823695 0.11288599 0.049230628 0.002267425
-0.031284105 -0.14497606 0.09423044 0.038312018 -0.23823749 0.09911679 0.25183856 0.075389154
0.104736626 0.080565356 -0.21261826 -0.070043325 -0.044680092 -0.0041554426 0.1065432 -0.08216011
0.09448184 -0.04955889 0.14584318 0.20600381 0.10667283 -0.0258883 -0.14384674 -0.029849289
0.15430094 -0.0140926745 0.01768922 0.047939673 -0.087686196 -0.16114108 0.009958712 -0.053668503
0.19283421 -0.06135459 -0.118103065 0.022699453 -0.11814071 -0.048026845 0.40942845 -0.029000737

model.net.layers.0.to_out.weight f4 [64, 128]
00000000: 8983 0dbe ca56 33be be42 d23b 430c 36bd
00000010: f1dc 823b aa94 933c 10d8 ccbd d368 12bc
00000020: bce6 153d 5a2b 3a3d ad13 cd3c c34d ccbd
00000030: 8bbc a7bc 3147 5abb 2013 7dbd 4537 1bbd
00000040: cba3 e8bd b45a ad3d d09a fabb 24d7 813a
00000050: 556b 29bb eb26 7abd 39c5 b9bd a16a c83c
00000060: e5d9 10bd e2de a63d acf5 36bd 8506 453c
00000070: b499 cabd cb38 3abd 92a5 283d 75a8 c6bd
00000080: 148b 7c3c 4918 7d3d f274 7b3d f056 32bd
00000090: 39f0 633d 4f73 eb3d bb14 a4ba 004c bf3c
000000a0: 8604 303d 441e bfbd 8370 8f3d c42c 21bd
000000b0: 7b02 183d 5532 8f3c 168a 59bd a47c 183d
000000c0: 6092 0dbd 4622 b5bc 08e2 b93d ba70 ce3c
000000d0: 32ac ac3c d356 d83b 4bf6 fbbc b3b1 69bc
000000e0: b4be ae3b 3e7e 09bd 4c58 2f3c 5e33 8d3d
000000f0: 3c93 3c3d 2649 26bd 6d24 cebd 2b24 88bb
00000100: 35db c0bd 5bb7 2c3d b824 7f3d fa76 42bd
00000110: ab86 a4bd c187 b03b cc57 c83c 04b8 08bd
00000120: 4281 7e3c 66c9 bebd 1029 01bc b2aa 633b
00000130: 6604 003d 81dc 44bd f7fe 6ebb a606 453d
00000140: bb4a aa3b d55c 043d 97bb 183d a816 6ebc
00000150: 3139 b33d 7d85 533b d595 8d3d 8a5c 1bbd
00000160: 700c ebbd e9e6 183e b41b 8fbc dfe0 8cbc
00000170: 0d9e b4bc d12f 923d 7906 dcbd 873e 2bbc
00000180: 1b95 aebd 307c 26bd 13d9 2e3d 3c5a 743d
00000190: 06e9 d4bc 1543 3cbd 4e55 9cbd 5b42 553d
000001a0: c158 053d 572f 56bd e987 26bd a5d2 1bbc
000001b0: f88b b7bd 5c9d 373d 21ef 3fbc b877 bbbc
000001c0: 5a7f 59bc 76ad 81bd 15dd 273d 90d1 eabd
000001d0: ce0a 593d 0118 073d 86c2 ffbc 0bec 30bd
000001e0: 06dc 7ebd b177 423d cb66 ce3b 482c 1d3d
000001f0: ff2e dbbd b517 6fbd a6d8 a9bd fb6f c73d
00000200: 7507 8abd f7d9 81bd 049f b23c ae85 29bd
00000210: 7302 a83c 6cea a7bd aaa3 b93c e7ae 753d
00000220: 5a9b 53bd 7f45 50bd f853 79bd aa31 3a3d
00000230: 4b35 07bd a0c1 a3bc 942e 9f3b 151c 183d
00000240: 1505 1cbe 52da c5bc 57d6 1fbd d136 ee3d
00000250: 8e05 953c b933 c43d a3c4 03bd f263 ec3c
00000260: 04d9 30bd ba3c 3e3c 04f9 c23d a824 93bd
00000270: 18db 10bd b3db 47bc f6b0 29bd 3a0b 123e
00000280: 572a 583d cdb4 c83d cafd 6d3d 0e9e 603d
00000290: 0a1a d63c 8978 a83d 9b07 90bd 04e3 4dbd
000002a0: 8bad 4fbd 5fb2 fdbb 3584 243d a0db e03d
000002b0: 6bbd 203e ee48 86bc 8bb6 833c 8f04 41b9
000002c0: ae1c 9cbd 21b4 113c 1f5e 60bd 27b5 81bc
000002d0: 6ea3 b93d 8308 9f3d 906f 5ebd dc06 9abd
000002e0: 79e9 46bc eb94 b2bc 5025 d2bd 792a d13d
000002f0: e777 083d 025e cfbd c881 d43c ad42 15bd
00000300: 4c41 3c3d e262 083a 4389 44bd 77b0 703c
00000310: 4251 6fbd 1cf4 fa3d d039 9bbd 2db5 fc3c
00000320: 2542 1fbd a092 813d 1305 a43d c0fd 97bd
00000330: 7b07 62bc bda0 993b e8d7 93ba 2fe7 853d
00000340: 32eb 503d a261 223d 1de0 923c 356e c3bd
00000350: 59af 4fbe 6cc8 893d a021 f2bc bdb8 7a3d
00000360: 8846 00bd fe76 8bbd 36ee 9a3a d114 173d
00000370: 1d46 da3d 53e3 d8bd 29fb d33d 9c6a 8fbd
00000380: 68c1 39bc af86 94bd 15ab b93d 9f21 9a3d
00000390: cf60 8fbd 28f2 983c 481c c53d 2f3a f63a
000003a0: 83f5 8ebd b0d6 1e3d 7d4a bcbd 12cb b03d
000003b0: 3b49 debd 2928 91bc 4b3d 2a3d 7d19 a23d
000003c0: 26cd b6bd 3a06 6c3c 0b6f 63bd 71aa 363d
000003d0: df67 8a3d 3d1d 983d ffe3 0e3d 2243 a6bc
000003e0: 0d60 cdbd 88d0 ae3c bc9b 213d 1f6e 9f3d
000003f0: 6eb1 58ba f678 52bd 9755 b5bd 41ac 1bbc
-0.13819708 -0.17513576 0.0064166477 -0.044445287 0.0039936234 0.018015224 -0.10002148 -0.008936125
0.036597 0.0454515 0.025033796 -0.09975769 -0.020475646 -0.0033306594 -0.061785817 -0.037894506
-0.11359366 0.08464566 -0.0076478496 0.0009906036 -0.0025851328 -0.06107227 -0.0907082 0.024464907
-0.03536405 0.0814798 -0.044667885 0.01202548 -0.09892598 -0.04546432 0.041173525 -0.097000994
0.015414018 0.06179074 0.061390825 -0.04353994 0.055649016 0.11496603 -0.0012518385 0.02335167
0.042973064 -0.093319446 0.07003882 -0.039349332 0.03711174 0.017480055 -0.053110205 0.03722824
-0.034563422 -0.02211107 0.09076315 0.025200237 0.021078203 0.006602147 -0.03075709 -0.014263558
0.005332792 -0.03356766 0.010702204 0.06894563 0.04603885 -0.040597104 -0.100655414 -0.004154702
-0.094168104 0.04216705 0.062290877 -0.047476746 -0.080334984 0.005387277 0.024455927 -0.033378616
0.015533747 -0.093157575 -0.007883325 0.0034739194 0.031254195 -0.04806185 -0.003646789 0.048102044
0.005196897 0.032315094 0.037288275 -0.014531769 0.08751143 0.003227561 0.06913344 -0.03793005
-0.11476982 0.14931835 -0.017469265 -0.01719707 -0.02204802 0.071380265 -0.10743422 -0.010451919
-0.08524533 -0.04064578 0.042687487 0.059656367 -0.02599002 -0.045962412 -0.07633458 0.052065235
0.032555345 -0.05229124 -0.040656958 -0.009510671 -0.08962244 0.044827804 -0.011714728 -0.022884235
-0.013274992 -0.06331913 0.040982325 -0.11465752 0.05298882 0.032981876 -0.031220686 -0.043193858
-0.06222155 0.047477428 0.006298875 0.038372308 -0.10702323 -0.05837222 -0.082932755 0.097381555
-0.067397036 -0.063404016 0.02180434 -0.041387253 0.02050898 -0.08199009 0.022661049 0.059981253
-0.051661827 -0.050847527 -0.060871094 0.04545752 -0.03300981 -0.019989789 0.0048578475 0.037136156
-0.15236314 -0.024151955 -0.03902277 0.11631549 0.018191125 0.09580178 -0.03216995 0.028856251
-0.043175712 0.011611158 0.09520152 -0.07184726 -0.035365194 -0.0121983765 -0.04142853 0.14262095
0.052774753 0.0980011 0.05810336 0.054838233 0.026135463 0.08226115 -0.07032701 -0.050265327
-0.050702613 -0.0077422108 0.040165145 0.1097939 0.15697257 -0.016392197 0.016078254 -0.00018407613
-0.07622658 0.008893044 -0.05477726 -0.01583345 0.09064375 0.07765295 -0.054305613 -0.075208396
-0.012140625 -0.021799525 -0.10261023 0.10213179 0.033317473 -0.101253524 0.02594079 -0.03644054
0.04596071 0.0005202723 -0.047982465 0.01469051 -0.058427103 0.122535914 -0.07579386 0.03084811
-0.03888144 0.063267946 0.0800878 -0.07421446 -0.013795729 0.004688351 -0.0011279555 0.065382354
0.05100555 0.03964389 0.017929131 -0.09542505 -0.20281734 0.067276806 -0.02955705 0.061211336
-0.031317264 -0.06809805 0.001182026 0.036885086 0.10657904 -0.10590234 0.103506394 -0.07002756
-0.011337616 -0.07252251 0.090658344 0.07525944 -0.07000887 0.018670157 0.09624535 0.0018785651
-0.069804214 0.03877896 -0.09193895 0.086324826 -0.10853811 -0.017719345 0.04156236 0.07915018
-0.08925848 0.014405781 -0.05552582 0.04459614 0.06758093 0.07427452 0.034885403 -0.020295683
-0.10028086 0.02133967 0.03945516 0.07784676 -0.0008266185 -0.05138489 -0.088542156 -0.009501518

model.net.layers.0.to_out.bias f4 [64]
00000000: 7620 40be 86a6 e9bd 7112 f3bc 56d4 e7bd
00000010: 0b49 c2bc 503c 9ebc e37f ec3b b71a 1dbd
00000020: 357e 393c 1354 403e 4a2d 673d 2052 d73d
00000030: fa05 103e 5d2e 6fbc 5051 d53c c554 73bc
00000040: c9f9 8ebd b788 f0bc 8476 07bc fccc 5c3d
00000050: 3e63 1dbd e51e aabd 0c84 963c 7762 0b3d
00000060: 9015 b83d 1961 f3bb 3af4 123c f633 edbd
00000070: 2d0f 25bd 0cd0 77bc 524d 213e df5d cabd
00000080: 57ba bfbd 3703 92bc e073 0bbd 439f 93bd
00000090: e800 41bd ac94 753d 623a 51bd b797 c23d
000000a0: a170 453c 13a5 96bd 2d36 9a3d c7f5 07bc
000000b0: 11e2 eb3d bcbe 783c f745 22bd 8100 dabd
000000c0: 02ce 89bd 3410 813d 9c11 b3bd 0e7b 223d
000000d0: 8858 223d 93d2 6bbb db50 253c 8c20 c23c
000000e0: d19d 47bd c927 b7bc dc5d 3cbc 6b62 a73d
000000f0: 4509 e13a 5e06 47bd 885f d33d 0e9e 353e
-0.18762383 -0.11408715 -0.02967188 -0.11319797 -0.02371647 -0.019315869 0.0072173937 -0.038355555
0.011321594 0.18782072 0.056439675 0.10513711 0.1406478 -0.014598456 0.02603975 -0.014851754
-0.069812365 -0.029362066 -0.008268002 0.053906426 -0.038424723 -0.08306674 0.018373512 0.03402945
0.08988488 -0.0074273464 0.008969361 -0.115821764 -0.040297676 -0.015125286 0.15752152 -0.09881186
-0.093617134 -0.017823799 -0.034046054 -0.07208111 -0.047120005 0.059956238 -0.05108107 0.095015936
0.012050779 -0.07355704 0.075298645 -0.008298344 0.11517728 0.015182193 -0.039617505 -0.10644627
-0.06728746 0.063019186 -0.08743593 0.039668135 0.03963521 -0.0035983666 0.010090078 0.02369716
-0.04873449 -0.022357838 -0.011496987 0.081730686 0.00171689 -0.048590057 0.103209555 0.17736074
