checkpoints/sort_1/S_6_K_6/GMCD/15_05_2023__10_31/cktp/checkpoint_0001000.tar (torch, 625355 bytes, 45 tensors)

linear_encoding_layer.category_prior f4 [6]
-1.7917595 -1.7917595 -1.7917595 -1.7917595 -1.7917595 -1.7917595
00000000: 6058 e5bf 6058 e5bf 6058 e5bf 6058 e5bf
00000010: 6058 e5bf 6058 e5bf

linear_encoding_layer.fixed_encoder.bias_scale_matrix f4 [6, 12]
6.2431946 -4.8595257 -2.1336043 -0.5370702 4.687005 2.1943195 -1.5796491 -1.5796491
-1.5796491 -1.5796491 -1.5796491 -1.5796491 2.2751467 3.7538838 -0.22726884 -7.1410513
-2.1998951 -4.366061 -1.5796491 -1.5796491 -1.5796491 -1.5796491 -1.5796491 -1.5796491
-3.064419 -1.040374 0.22628604 -1.1600089 -6.9945784 5.781197 -1.5796491 -1.5796491
-1.5796491 -1.5796491 -1.5796491 -1.5796491 -6.7362185 0.11823147 -5.7411766 0.3948986
3.603736 -1.6497425 -1.5796491 -1.5796491 -1.5796491 -1.5796491 -1.5796491 -1.5796491
0.8597122 -3.8937004 3.511146 5.080015 -3.511907 -5.277124 -1.5796491 -1.5796491
-1.5796491 -1.5796491 -1.5796491 -1.5796491 0.52177477 5.857913 5.08281 3.1876884
3.4771943 3.3972998 -1.5796491 -1.5796491 -1.5796491 -1.5796491 -1.5796491 -1.5796491
00000000: 40c8 c740 3c81 9bc0 f98c 08c0 6f7d 09bf
00000010: f2fb 9540 bb6f 0c40 f131 cabf f131 cabf
00000020: f131 cabf f131 cabf f131 cabf f131 cabf
00000030: 019c 1140 a23f 7040 2ab9 68be 7e83 e4c0
00000040: 15cb 0cc0 c6b6 8bc0 f131 cabf f131 cabf
00000050: f131 cabf f131 cabf f131 cabf f131 cabf
00000060: 711f 44c0 fa2a 85bf 87b7 673e 2c7b 94bf
00000070: 96d3 dfc0 91ff b840 f131 cabf f131 cabf
00000080: f131 cabf f131 cabf f131 cabf f131 cabf
00000090: 1a8f d7c0 5723 f23d b8b7 b7c0 2630 ca3e
000000a0: 9ca3 6640 c32a d3bf f131 cabf f131 cabf
000000b0: f131 cabf f131 cabf f131 cabf f131 cabf
000000c0: 1916 5c3f 6332 79c0 9eb6 6040 7c8f a240
000000d0: 16c3 60c0 33de a8c0 f131 cabf f131 cabf
000000e0: f131 cabf f131 cabf f131 cabf f131 cabf
000000f0: 0893 053f 0674 bb40 61a6 a240 1603 4c40
00000100: 5a8a 5e40 5c6d 5940 f131 cabf f131 cabf
00000110: f131 cabf f131 cabf f131 cabf f131 cabf

linear_encoding_layer.fixed_encoder.fixed_embedding.weight f4 [6, 12]
6.2431946 -4.8595257 -2.1336043 -0.5370702 4.687005 2.1943195 -1.5796491 -1.5796491
-1.5796491 -1.5796491 -1.5796491 -1.5796491 2.2751467 3.7538838 -0.22726884 -7.1410513
-2.1998951 -4.366061 -1.5796491 -1.5796491 -1.5796491 -1.5796491 -1.5796491 -1.5796491
-3.064419 -1.040374 0.22628604 -1.1600089 -6.9945784 5.781197 -1.5796491 -1.5796491
-1.5796491 -1.5796491 -1.5796491 -1.5796491 -6.7362185 0.11823147 -5.7411766 0.3948986
3.603736 -1.6497425 -1.5796491 -1.5796491 -1.5796491 -1.5796491 -1.5796491 -1.5796491
0.8597122 -3.8937004 3.511146 5.080015 -3.511907 -5.277124 -1.5796491 -1.5796491
-1.5796491 -1.5796491 -1.5796491 -1.5796491 0.52177477 5.857913 5.08281 3.1876884
3.4771943 3.3972998 -1.5796491 -1.5796491 -1.5796491 -1.5796491 -1.5796491 -1.5796491
00000000: 40c8 c740 3c81 9bc0 f98c 08c0 6f7d 09bf
00000010: f2fb 9540 bb6f 0c40 f131 cabf f131 cabf
00000020: f131 cabf f131 cabf f131 cabf f131 cabf
00000030: 019c 1140 a23f 7040 2ab9 68be 7e83 e4c0
00000040: 15cb 0cc0 c6b6 8bc0 f131 cabf f131 cabf
00000050: f131 cabf f131 cabf f131 cabf f131 cabf
00000060: 711f 44c0 fa2a 85bf 87b7 673e 2c7b 94bf
00000070: 96d3 dfc0 91ff b840 f131 cabf f131 cabf
00000080: f131 cabf f131 cabf f131 cabf f131 cabf
00000090: 1a8f d7c0 5723 f23d b8b7 b7c0 2630 ca3e
000000a0: 9ca3 6640 c32a d3bf f131 cabf f131 cabf
000000b0: f131 cabf f131 cabf f131 cabf f131 cabf
000000c0: 1916 5c3f 6332 79c0 9eb6 6040 7c8f a240
000000d0: 16c3 60c0 33de a8c0 f131 cabf f131 cabf
000000e0: f131 cabf f131 cabf f131 cabf f131 cabf
000000f0: 0893 053f 0674 bb40 61a6 a240 1603 4c40
00000100: 5a8a 5e40 5c6d 5940 f131 cabf f131 cabf
00000110: f131 cabf f131 cabf f131 cabf f131 cabf

linear_encoding_layer.encoder_layers.0.bias_scale_matrix f4 [6, 12]
6.2431946 -4.8595257 -2.1336043 -0.5370702 4.687005 2.1943195 -1.5796491 -1.5796491
-1.5796491 -1.5796491 -1.5796491 -1.5796491 2.2751467 3.7538838 -0.22726884 -7.1410513
-2.1998951 -4.366061 -1.5796491 -1.5796491 -1.5796491 -1.5796491 -1.5796491 -1.5796491
-3.064419 -1.040374 0.22628604 -1.1600089 -6.9945784 5.781197 -1.5796491 -1.5796491
-1.5796491 -1.5796491 -1.5796491 -1.5796491 -6.7362185 0.11823147 -5.7411766 0.3948986
3.603736 -1.6497425 -1.5796491 -1.5796491 -1.5796491 -1.5796491 -1.5796491 -1.5796491
0.8597122 -3.8937004 3.511146 5.080015 -3.511907 -5.277124 -1.5796491 -1.5796491
-1.5796491 -1.5796491 -1.5796491 -1.5796491 0.52177477 5.857913 5.08281 3.1876884
3.4771943 3.3972998 -1.5796491 -1.5796491 -1.5796491 -1.5796491 -1.5796491 -1.5796491
00000000: 40c8 c740 3c81 9bc0 f98c 08c0 6f7d 09bf
00000010: f2fb 9540 bb6f 0c40 f131 cabf f131 cabf
00000020: f131 cabf f131 cabf f131 cabf f131 cabf
00000030: 019c 1140 a23f 7040 2ab9 68be 7e83 e4c0
00000040: 15cb 0cc0 c6b6 8bc0 f131 cabf f131 cabf
00000050: f131 cabf f131 cabf f131 cabf f131 cabf
00000060: 711f 44c0 fa2a 85bf 87b7 673e 2c7b 94bf
00000070: 96d3 dfc0 91ff b840 f131 cabf f131 cabf
00000080: f131 cabf f131 cabf f131 cabf f131 cabf
00000090: 1a8f d7c0 5723 f23d b8b7 b7c0 2630 ca3e
000000a0: 9ca3 6640 c32a d3bf f131 cabf f131 cabf
000000b0: f131 cabf f131 cabf f131 cabf f131 cabf
000000c0: 1916 5c3f 6332 79c0 9eb6 6040 7c8f a240
000000d0: 16c3 60c0 33de a8c0 f131 cabf f131 cabf
000000e0: f131 cabf f131 cabf f131 cabf f131 cabf
000000f0: 0893 053f 0674 bb40 61a6 a240 1603 4c40
00000100: 5a8a 5e40 5c6d 5940 f131 cabf f131 cabf
00000110: f131 cabf f131 cabf f131 cabf f131 cabf

linear_encoding_layer.encoder_layers.0.fixed_embedding.weight f4 [6, 12]
6.2431946 -4.8595257 -2.1336043 -0.5370702 4.687005 2.1943195 -1.5796491 -1.5796491
-1.5796491 -1.5796491 -1.5796491 -1.5796491 2.2751467 3.7538838 -0.22726884 -7.1410513
-2.1998951 -4.366061 -1.5796491 -1.5796491 -1.5796491 -1.5796491 -1.5796491 -1.5796491
-3.064419 -1.040374 0.22628604 -1.1600089 -6.9945784 5.781197 -1.5796491 -1.5796491
-1.5796491 -1.5796491 -1.5796491 -1.5796491 -6.7362185 0.11823147 -5.7411766 0.3948986
3.603736 -1.6497425 -1.5796491 -1.5796491 -1.5796491 -1.5796491 -1.5796491 -1.5796491
0.8597122 -3.8937004 3.511146 5.080015 -3.511907 -5.277124 -1.5796491 -1.5796491
-1.5796491 -1.5796491 -1.5796491 -1.5796491 0.52177477 5.857913 5.08281 3.1876884
3.4771943 3.3972998 -1.5796491 -1.5796491 -1.5796491 -1.5796491 -1.5796491 -1.5796491
00000000: 40c8 c740 3c81 9bc0 f98c 08c0 6f7d 09bf
00000010: f2fb 9540 bb6f 0c40 f131 cabf f131 cabf
00000020: f131 cabf f131 cabf f131 cabf f131 cabf
00000030: 019c 1140 a23f 7040 2ab9 68be 7e83 e4c0
00000040: 15cb 0cc0 c6b6 8bc0 f131 cabf f131 cabf
00000050: f131 cabf f131 cabf f131 cabf f131 cabf
00000060: 711f 44c0 fa2a 85bf 87b7 673e 2c7b 94bf
00000070: 96d3 dfc0 91ff b840 f131 cabf f131 cabf
00000080: f131 cabf f131 cabf f131 cabf f131 cabf
00000090: 1a8f d7c0 5723 f23d b8b7 b7c0 2630 ca3e
000000a0: 9ca3 6640 c32a d3bf f131 cabf f131 cabf
000000b0: f131 cabf f131 cabf f131 cabf f131 cabf
000000c0: 1916 5c3f 6332 79c0 9eb6 6040 7c8f a240
000000d0: 16c3 60c0 33de a8c0 f131 cabf f131 cabf
000000e0: f131 cabf f131 cabf f131 cabf f131 cabf
000000f0: 0893 053f 0674 bb40 61a6 a240 1603 4c40
00000100: 5a8a 5e40 5c6d 5940 f131 cabf f131 cabf
00000110: f131 cabf f131 cabf f131 cabf f131 cabf

z_0_layer.extActFixed.bias_scale_matrix f4 [6, 12]
6.2431946 -4.8595257 -2.1336043 -0.5370702 4.687005 2.1943195 -1.5796491 -1.5796491
-1.5796491 -1.5796491 -1.5796491 -1.5796491 2.2751467 3.7538838 -0.22726884 -7.1410513
-2.1998951 -4.366061 -1.5796491 -1.5796491 -1.5796491 -1.5796491 -1.5796491 -1.5796491
-3.064419 -1.040374 0.22628604 -1.1600089 -6.9945784 5.781197 -1.5796491 -1.5796491
-1.5796491 -1.5796491 -1.5796491 -1.5796491 -6.7362185 0.11823147 -5.7411766 0.3948986
3.603736 -1.6497425 -1.5796491 -1.5796491 -1.5796491 -1.5796491 -1.5796491 -1.5796491
0.8597122 -3.8937004 3.511146 5.080015 -3.511907 -5.277124 -1.5796491 -1.5796491
-1.5796491 -1.5796491 -1.5796491 -1.5796491 0.52177477 5.857913 5.08281 3.1876884
3.4771943 3.3972998 -1.5796491 -1.5796491 -1.5796491 -1.5796491 -1.5796491 -1.5796491
00000000: 40c8 c740 3c81 9bc0 f98c 08c0 6f7d 09bf
00000010: f2fb 9540 bb6f 0c40 f131 cabf f131 cabf
00000020: f131 cabf f131 cabf f131 cabf f131 cabf
00000030: 019c 1140 a23f 7040 2ab9 68be 7e83 e4c0
00000040: 15cb 0cc0 c6b6 8bc0 f131 cabf f131 cabf
00000050: f131 cabf f131 cabf f131 cabf f131 cabf
00000060: 711f 44c0 fa2a 85bf 87b7 673e 2c7b 94bf
00000070: 96d3 dfc0 91ff b840 f131 cabf f131 cabf
00000080: f131 cabf f131 cabf f131 cabf f131 cabf
00000090: 1a8f d7c0 5723 f23d b8b7 b7c0 2630 ca3e
000000a0: 9ca3 6640 c32a d3bf f131 cabf f131 cabf
000000b0: f131 cabf f131 cabf f131 cabf f131 cabf
000000c0: 1916 5c3f 6332 79c0 9eb6 6040 7c8f a240
000000d0: 16c3 60c0 33de a8c0 f131 cabf f131 cabf
000000e0: f131 cabf f131 cabf f131 cabf f131 cabf
000000f0: 0893 053f 0674 bb40 61a6 a240 1603 4c40
00000100: 5a8a 5e40 5c6d 5940 f131 cabf f131 cabf
00000110: f131 cabf f131 cabf f131 cabf f131 cabf

z_0_layer.extActFixed.fixed_embedding.weight f4 [6, 12]
6.2431946 -4.8595257 -2.1336043 -0.5370702 4.687005 2.1943195 -1.5796491 -1.5796491
-1.5796491 -1.5796491 -1.5796491 -1.5796491 2.2751467 3.7538838 -0.22726884 -7.1410513
-2.1998951 -4.366061 -1.5796491 -1.5796491 -1.5796491 -1.5796491 -1.5796491 -1.5796491
-3.064419 -1.040374 0.22628604 -1.1600089 -6.9945784 5.781197 -1.5796491 -1.5796491
-1.5796491 -1.5796491 -1.5796491 -1.5796491 -6.7362185 0.11823147 -5.7411766 0.3948986
3.603736 -1.6497425 -1.5796491 -1.5796491 -1.5796491 -1.5796491 -1.5796491 -1.5796491
0.8597122 -3.8937004 3.511146 5.080015 -3.511907 -5.277124 -1.5796491 -1.5796491
-1.5796491 -1.5796491 -1.5796491 -1.5796491 0.52177477 5.857913 5.08281 3.1876884
3.4771943 3.3972998 -1.5796491 -1.5796491 -1.5796491 -1.5796491 -1.5796491 -1.5796491
00000000: 40c8 c740 3c81 9bc0 f98c 08c0 6f7d 09bf
00000010: f2fb 9540 bb6f 0c40 f131 cabf f131 cabf
00000020: f131 cabf f131 cabf f131 cabf f131 cabf
00000030: 019c 1140 a23f 7040 2ab9 68be 7e83 e4c0
00000040: 15cb 0cc0 c6b6 8bc0 f131 cabf f131 cabf
00000050: f131 cabf f131 cabf f131 cabf f131 cabf
00000060: 711f 44c0 fa2a 85bf 87b7 673e 2c7b 94bf
00000070: 96d3 dfc0 91ff b840 f131 cabf f131 cabf
00000080: f131 cabf f131 cabf f131 cabf f131 cabf
00000090: 1a8f d7c0 5723 f23d b8b7 b7c0 2630 ca3e
000000a0: 9ca3 6640 c32a d3bf f131 cabf f131 cabf
000000b0: f131 cabf f131 cabf f131 cabf f131 cabf
000000c0: 1916 5c3f 6332 79c0 9eb6 6040 7c8f a240
000000d0: 16c3 60c0 33de a8c0 f131 cabf f131 cabf
000000e0: f131 cabf f131 cabf f131 cabf f131 cabf
000000f0: 0893 053f 0674 bb40 61a6 a240 1603 4c40
00000100: 5a8a 5e40 5c6d 5940 f131 cabf f131 cabf
00000110: f131 cabf f131 cabf f131 cabf f131 cabf

z_0_layer.mixture_weights.transformer.first.weight f4 [64, 6]
0.102589 -0.06464054 0.16203322 0.006732279 0.1630454 0.09993688 -0.026517317 -0.35205722
0.046503212 -0.32683638 0.03867198 -0.0097096395 -0.05681623 0.35410836 0.059211913 0.1548875
0.18651028 -0.2209859 -0.13947265 0.36589965 -0.33523065 -0.024238015 0.008455971 0.30628803
-0.040469665 0.067249246 -0.03723776 -0.25265944 -0.23739947 -0.23638 -0.35327715 -0.25804904
0.05654523 0.278189 -0.0034483622 -0.17798823 0.20202622 -0.18291067 -0.08960753 -0.24016048
-0.12695813 -0.42208916 0.19428568 0.20268378 0.13287981 0.19566637 0.20426066 0.02399772
0.06732378 0.052271582 0.21483095 0.26240334 0.3082595 0.23133495 -0.117253944 -0.014910631
-0.10853571 0.19403532 0.06863856 0.39136046 0.20229265 -0.28857625 0.14408499 0.39158875
0.35430366 -0.05367075 0.120577745 -0.38035518 -0.12616383 0.16588737 -0.36789873 0.34320465
-0.30011487 0.07210097 -0.04381492 0.049113136 0.03927634 -0.31767333 -0.054709572 -0.22332035
0.33365703 -0.041549794 -0.4050346 0.13616239 0.17880122 -0.25576472 -0.03528463 0.20095772
-0.27414316 -0.19426945 0.029354418 -0.2458031 0.24189098 0.08716617 0.20350361 0.23581941
-0.34003115 -0.2757163 -0.29992238 -0.12208528 -0.14990328 -0.09598695 -0.37397555 0.18118301
0.19547893 0.15558264 0.25133827 0.31922752 -0.37929133 0.09479759 0.34876922 -0.22580793
-0.16025096 -0.036511134 -0.26468444 -0.06305172 -0.061925612 0.38451564 -0.03558047 0.20163189
0.23259582 0.13532074 -0.37522668 0.27886328 0.26939654 -0.26624694 -0.17358948 0.19760254
-0.39635667 -0.37228084 -0.24529424 0.15022217 -0.13116494 -0.30278087 0.144105 0.22818355
0.11871756 -0.3415777 0.34345973 -0.058646966 -0.39503977 -0.09220966 0.29005277 0.21047388
-0.04328079 0.2535109 -0.35240605 0.27635726 0.4342503 -0.21899384 0.04280846 -0.06574632
-0.31158197 -0.053758513 -0.13253602 -0.37775862 -0.26908734 0.037830554 0.36364815 0.1904983
-0.2991506 0.2948977 0.034877144 -0.39843416 0.02793534 0.24157937 -0.24608414 -0.027922653
-0.2459721 -0.32814533 -0.22554657 0.054818347 0.23984796 -0.076066196 -0.39282605 -0.033654023
-0.38786668 0.024704754 0.2834081 0.20768815 -0.2307647 -0.11763191 0.103946544 0.14462295
-0.39209062 -0.21609044 -0.13754399 0.13201356 0.32769948 0.21404992 0.1240136 -0.32378864
0.2511872 0.20269775 -0.11538947 -0.22641678 0.10102267 -0.26027235 0.12550102 0.31263977
-0.22575451 -0.29679754 -0.12848991 -0.37127256 -0.020947766 0.2744873 0.1501416 -0.08332745
-0.042202722 -0.18732354 -0.28436378 -0.12839213 -0.0070292 -0.17287904 -0.27219522 0.11878405
0.04664561 -0.12241109 0.11242084 0.35745177 0.009322598 -0.2575233 0.3829228 0.3053968
0.006354266 -0.19399859 -0.16248296 0.37033573 0.224274 -0.2096247 0.011375435 0.06695481
0.094064794 0.019630717 -0.22406477 -0.026950145 -0.1362474 -0.18314125 -0.1821142 -0.19565223
-0.2003624 0.13989642 -0.36492264 -0.40647635 0.37209457 0.1598153 0.23361604 0.15941711
-0.13535644 -0.27677435 -0.29072157 -0.02624512 0.10448507 -0.3898048 -0.29681292 0.23846164
00000000: 2e1a d23d 4262 84bd 09ec 253e 739a dc3b
00000010: 60f5 263e b5ab cc3d d83a d9bc d840 b4be
00000020: 277a 3e3d 1957 a7be 8366 1e3d 2e15 1fbc
00000030: 23b8 68bd b14d b53e 3188 723d d49a 1e3e
00000040: 8dfc 3e3e 214a 62be ebd1 0ebe 3357 bb3e
00000050: 5aa3 abbe cd8e c6bc ea8a 0a3c c9d1 9c3e
00000060: 85c3 25bd f9b9 893d 9f86 18bd 945c 81be
00000070: d918 73be 990d 72be bee0 b4be 011f 84be
00000080: f99b 673d ca6e 8e3e ebfd 61bb 8c42 36be
00000090: f6df 4e3e ef4c 3bbe 2784 b7bd a1ec 75be
000000a0: 5001 02be 121c d8be d3f2 463e 568c 4f3e
000000b0: a511 083e c45c 483e b529 513e de96 c43c
000000c0: 0de1 893d ba1a 563d a5fc 5b3e bb59 863e
000000d0: 30d4 9d3e 12e3 6c3e d622 f0bd b84b 74bc
000000e0: f847 debd 32b1 463e 6092 8c3d 6660 c83e
000000f0: ce25 4f3e 44c0 93be 048b 133e 527e c83e
00000100: 4a67 b53e dcd5 5bbd 77f1 f63d eabd c2be
00000110: 1731 01be 61de 293e 395d bcbe 85b8 af3e
00000120: a8a8 99be aca9 933d 4677 33bd db2a 493d
00000130: 3ae0 203d 14a6 a2be 2517 60bd 17ae 64be
00000140: 18d5 aa3e 1e30 2abd b260 cfbe 276e 0b3e
00000150: ab17 373e 98f3 82be 9e86 10bd dcc7 4d3e
00000160: 7e5c 8cbe 92ee 46be ad78 f03c cfb3 7bbe
00000170: 45b2 773e 2d84 b23d 4063 503e a57a 713e
00000180: 9018 aebe b02a 8dbe 6d8f 99be d907 fabd
00000190: 3f80 19be ce94 c4bd b979 bfbe 0a88 393e
000001a0: a12b 483e 0e51 1f3e 69af 803e ca71 a33e
000001b0: 7932 c2be 3d25 c23d e191 b23e 323a 67be
000001c0: d418 24be b38c 15bd b884 87be 4321 81bd
000001d0: b6a5 7dbd 3cdf c43e d4bc 11bd 9778 4e3e
000001e0: 992d 6e3e 8591 0a3e b61d c0be 2bc7 8e3e
000001f0: 58ee 893e 8551 88be 71c1 31be 5258 4a3e
00000200: 43ef cabe 989b bebe 6a2e 7bbe d7d3 193e
00000210: 1a50 06be 1806 9bbe 4390 133e f3a8 693e
00000220: 3122 f33d 46e3 aebe f4d9 af3e cd37 70bd
00000230: a742 cabe 6bd8 bcbd cc81 943e 7786 573e
00000240: 3347 31bd 2ecc 813e 916e b4be b37e 8d3e
00000250: 0e56 de3e ec3f 60be ec57 2f3d 02a6 86bd
00000260: ac87 9fbe e331 5cbd 86b7 07be 9469 c1be
00000270: d1c5 89be 36f4 1a3d 1730 ba3e fd11 433e
00000280: 442a 99be d5fc 963e 56db 0e3d 90ff cbbe
00000290: a7d8 e43c 9560 773e 7bfd 7bbe 0cbe e4bc
000002a0: 1ce0 7bbe aa02 a8be aef5 66be 3489 603d
000002b0: b49a 753e 98c8 9bbd 7f20 c9be cdd8 09bd
000002c0: 7696 c6be a061 ca3c de1a 913e 34ac 543e
000002d0: 954d 6cbe 00e9 f0bd ede1 d43d 0a18 143e
000002e0: 1ac0 c8be d046 5dbe 55d8 0cbe 902e 073e
000002f0: 3ac8 a73e e72f 5b3e d8fa fd3d a0c7 a5be
00000300: 9c9b 803e 0090 4f3e 5051 ecbd cdd9 67be
00000310: f9e4 ce3d 6b42 85be 5783 003e 5212 a03e
00000320: 312c 67be d9f5 97be dc92 03be 7017 bebe
00000330: a69a abbc 9989 8c3e b8be 193e 95a7 aabd
00000340: c3dc 2cbd bed1 3fbe 2198 91be 3a79 03be
00000350: 3455 e6bb 3407 31be 2c5d 8bbe 0d45 f33d
00000360: 780f 3f3d aab2 fabd e63c e63d eb03 b73e
00000370: cfbd 183c 18da 83be 750e c43e f85c 9c3e
00000380: 7237 d03b 91a7 46be ef61 26be a59c bd3e
00000390: 15a8 653e dba7 56be 0860 3a3c 9a1f 893d
000003a0: 0ba5 c03d 99d0 a03c 3c71 65be 8dc6 dcbc
000003b0: 7084 0bbe 6189 3bbe 257c 3abe 0f59 48be
000003c0: cd2b 4dbe 0241 0f3e 24d7 babe ab1d d0be
000003d0: 2e83 be3e 9fa6 233e 0b39 6f3e 3d3e 233e
000003e0: e19a 0abe 5eb5 8dbe 75d9 94be 0200 d7bc
000003f0: 45fc d53d 7f94 c7be ddf7 97be 4a2f 743e

z_0_layer.mixture_weights.transformer.first.bias f4 [64]
-0.021067202 0.038616918 0.01151007 -0.292414 -0.071914084 -0.13984269 -0.06694161 0.25715086
-0.38435587 0.044551708 0.40197134 -0.36791435 0.15698352 0.40121454 0.23035091 0.20633239
-0.14992581 0.16152313 0.048642576 0.39596838 -0.3906971 0.2092553 -0.2322116 -0.36508384
0.37988448 0.071435146 -0.22302493 -0.37163714 -0.08536984 -0.08471427 -0.0302774 -0.116250165
0.10347128 0.28133652 -0.33371323 -0.15753433 0.3361734 -0.39239216 0.33039787 -0.086402245
0.110391624 -0.2107318 0.18829687 0.045809258 -0.106238194 0.38224193 -0.3719525 0.35458842
0.26603433 -0.061688434 -0.12912448 0.32797554 0.15693264 -0.3666429 -0.3109058 -0.4041621
-0.16903435 -0.075193234 0.15173177 0.23999517 -0.3624159 0.20919392 0.14826083 0.1399847
00000000: 2095 acbc c62c 1e3d bc94 3c3c 4ab7 95be
00000010: b147 93bd ec32 0fbe af18 89bd 47a9 833e
00000020: 4bca c4be da7b 363d 30cf cd3e 455f bcbe
00000030: 4ac0 203e fe6b cd3e 1ce1 6b3e cc48 533e
00000040: 2786 19be 5266 253e 703d 473d 5ebc ca3e
00000050: 7309 c8be 0547 563e e1c8 6dbe 45ec babe
00000060: 3880 c23e 974c 923d a660 64be 3947 bebe
00000070: 62d6 aebd ad7e adbd 4f08 f8bc 9114 eebd
00000080: c0e8 d33d 570b 903e 76dc aabe ae50 21be
00000090: eb1e ac3e a0e7 c8be e929 a93e a9f3 b0bd
000000a0: 0115 e23d 14ca 57be e5d0 403e 7da2 3b3d
000000b0: 6993 d9bd 37b5 c33e 8f70 bebe 9d8c b53e
000000c0: a735 883e 03ad 7cbd 3539 04be 69ec a73e
000000d0: f3b2 203e 9eb8 bbbe 0c2f 9fbe 56ee cebe
000000e0: 5717 2dbe e9fe 99bd 935f 1b3e 4bc1 753e
000000f0: 948e b9be ee36 563e b0d1 173e 2658 0f3e

z_0_layer.mixture_weights.transformer.mlp.0.weight f4 [256, 64]
-0.09236799 -0.09031256 -0.0018655552 0.047769368 -0.018004889 -0.042192653 0.017760796 0.015094378
-0.0027444758 -0.003839193 -0.081653856 0.11536525 0.022089032 0.061309516 -0.08522845 -0.020766485
0.039128356 -0.0872764 -0.0079081915 -0.068127535 -0.0440112 0.010325969 -0.112065785 0.03369267
0.07405355 -0.11481915 -0.012648005 -0.03210196 -0.11746414 -0.030377612 0.09872884 0.012322398
-0.008177364 0.120114006 0.00051467825 0.1016251 -0.116601825 0.07903783 0.101566225 0.043183487
-0.023733178 0.12231052 -0.060398653 0.051362097 -0.13577746 -0.08625251 -0.13072279 -0.095740676
-0.04918307 -0.09586445 -0.12027743 -0.05642423 0.032961152 0.11712859 0.059937727 -0.06763804
-0.09232217 0.05410779 -0.08327257 -0.11029521 -0.056646906 0.10868139 0.09413812 -0.11282639
0.079405166 -0.031901784 -0.045045655 -0.135494 0.12355158 0.114058636 0.08404873 0.048350923
-0.010675421 0.08681203 -0.02673209 -0.082358986 -0.022340627 0.10223073 -0.07967243 -0.12803616
0.10603648 -0.090842895 -0.00013314273 0.08769478 0.02137471 -0.003183508 0.008673781 0.0821337
-0.10934103 0.05762098 -0.045613598 -0.07222646 0.0022943043 0.08837373 -0.09208459 -0.018694617
-0.014372014 0.05877683 0.013519478 0.1000706 0.04588096 0.057427697 -0.055746257 -0.021592202
0.08733924 0.04842071 -0.06083815 -0.009809632 0.033292286 0.019315917 -0.02184837 0.017173657
0.057049736 -0.06610365 0.10303975 -0.058456726 -0.16787204 0.047603514 0.020433072 0.010223528
-0.11604991 -0.0031426381 -0.13813423 0.03355606 0.05585632 -0.08077431 0.0026649905 0.06073067
-0.03675923 0.054041833 -0.10464082 0.024383081 0.064253554 0.036772035 -0.08954042 0.019780511
0.10173865 -0.07533373 0.032992214 -0.024481166 -0.03793773 -0.07778899 0.068947874 0.09332663
-0.07475217 0.10957861 0.028505635 0.03422278 0.08814202 0.04410833 0.00021037535 0.056532115
-0.02977879 0.07506605 -0.016489116 0.10375471 0.007922512 -0.048163455 -0.021237126 -0.112195246
-0.008129413 0.004742568 -0.07341026 -0.057363074 -0.0073406263 0.051275678 -0.06328385 0.09628702
-0.02660039 -0.08636931 0.012504586 0.07765183 -0.061710827 0.039739046 0.043439485 0.040378083
0.02671212 -0.11094099 -0.100298814 0.13360387 0.024641775 0.14707059 0.08929993 0.021091335
-0.053949367 0.024429195 0.03416877 -0.095177986 -0.016826924 -0.13677144 0.04397286 -0.032231294
-0.117082946 0.09208148 -0.061491195 -0.09291045 0.036728654 -0.099693306 -0.011502197 0.039367493
0.049914178 -0.038462337 -0.028880037 0.11603698 0.14703055 -0.026081573 -0.07017562 0.07056304
0.0110395 0.022047801 -0.10186924 0.10589077 0.07368971 0.11886004 -0.14206675 -0.017704435
-0.10833559 -0.093210794 -0.06524597 0.07328448 0.107495144 -0.066864975 0.000444915 0.065896556
0.061193824 0.007901231 0.060440447 0.103752084 -0.14318676 0.054171298 -0.022537636 -0.15745448
0.07657791 0.019627465 -0.08409114 0.016654015 0.06520808 0.021553203 0.09993028 -0.09887707
0.014908099 -0.13056234 0.0850347 -0.037314236 -0.0032689155 0.083458826 -0.03253546 -0.12011921
0.042706512 0.08188783 -0.037346195 -0.025608266 0.10289004 0.0086905565 -0.071725704 0.071101844
00000000: 6e2b bdbd cbf5 b8bd a585 f4ba d0a9 433d
00000010: fd7e 93bc 34d2 2cbd 177f 913c 694e 773c
00000020: aadc 33bb f89a 7bbb 233a a7bd 9e44 ec3d
00000030: 0ff4 b43c b01f 7b3d 418c aebd 7a1e aabc
00000040: 0e45 203d f8bd b2bd 5c91 01bc 7386 8bbd
00000050: 1745 34bd 412e 293c bf82 e5bd 5301 0a3d
00000060: 63a9 973d 4d26 ebbd 9439 4fbc 587d 03bd
00000070: 0a91 f0bd 78da f8bc 5932 ca3d e2e3 493c
00000080: 5afa 05bc 55fe f53d 79eb 063a d220 d03d
00000090: f0cc eebd 96de a13d f401 d03d 2be1 303d
000000a0: 156c c2bc f07d fa3d 9464 77bd 1061 523d
000000b0: 3f09 0bbe 28a5 b0bd 32dc 05be b013 c4bd
000000c0: 3074 49bd 9554 c4bd 0354 f6bd 181d 67bd
000000d0: 4602 073d 1de1 ef3d 4381 753d d085 8abd
000000e0: 6813 bdbd 21a0 5d3d cf8a aabd 74e2 e1bd
000000f0: 9606 68bd 5994 de3d 7dcb c03d 8611 e7bd
00000100: 2d9f a23d 72ab 02bd cb81 38bd f0be 0abe
00000110: 9c08 fd3d 9397 e93d be21 ac3d 9e0b 463d
00000120: f6e7 2ebc 81ca b13d 42fd dabc d4ab a8bd
00000130: b103 b7bc 585e d13d 4d2b a3bd e91b 03be
00000140: a729 d93d d70b babd 3b9c 0bb9 5299 b33d
00000150: 041a af3c 67a2 50bb 791c 0e3c b735 a83d
00000160: 31ee dfbd fa03 6c3d 53d5 3abd 77eb 93bd
00000170: 0a5c 163b 49fd b43d d896 bcbd 7425 99bc
00000180: 9978 6bbc f9bf 703d cd80 5d3c d1f1 cc3d
00000190: aced 3b3d 4e39 6b3d 3056 64bd 21e2 b0bc
000001a0: eade b23d cb54 463d 6d31 79bd 94b8 20bc
000001b0: 7e5d 083d 6a3c 9e3c 5afb b2bc c5af 8c3c
000001c0: fcac 693d 5a61 87bd 8106 d33d 5270 6fbd
000001d0: a6e6 2bbe e7fb 423d 4263 a73c 9680 273c
000001e0: 93ab edbd b8f4 4dbb 0f73 0dbe 1472 093d
000001f0: 99c9 643d 006d a5bd 1fa7 2e3b b9c0 783d
00000200: d990 16bd f85a 5d3d ed4d d6bd 07bf c73c
00000210: 5e97 833d 469e 163d f860 b7bd bd0a a23c
00000220: 5a5c d03d 9248 9abd d822 073d ba8c c8bc
00000230: 9864 1bbd d64f 9fbd 8b34 8d3d 0822 bf3d
00000240: aa17 99bd c06a e03d a684 e93c 302d 0c3d
00000250: ce83 b43d f0aa 343d 3498 5c39 388e 673d
00000260: a6f2 f3bc 3bbc 993d 2f14 87bc 597d d43d
00000270: 6ccd 013c 0b47 45bd 7bf9 adbc 9fc6 e5bd
00000280: 3b31 05bc 8b67 9b3b 1e58 96bd 8bf5 6abd
00000290: a389 f0bb 7206 523d f79a 81bd 2132 c53d
000002a0: 10e9 d9bc 65e2 b0bd 09e0 4c3c ec07 9f3d
000002b0: 7ec4 7cbd 69c5 223d 9aed 313d 7d63 253d
000002c0: 60d3 da3c 0835 e3bd 7769 cdbd 74cf 083e
000002d0: 8cdd c93c ac99 163e e2e2 b63d bcc7 ac3c
000002e0: 03fa 5cbd bc1f c83c 8df4 0b3d adec c2bd
000002f0: 9ed8 89bc d00d 0cbe e31c 343d f604 04bd
00000300: 2fc9 efbd 3795 bc3d 31de 7bbd d647 bebd
00000310: c970 163d 012c ccbd b673 3cbc cf3f 213d
00000320: cf72 4c3d af8a 1dbd d495 ecbc cca4 ed3d
00000330: 2d8f 163e 06a9 d5bc 3cb8 8fbd 5b83 903d
00000340: 05df 343c 979d b43c d2a0 d0bd 43dd d83d
00000350: a1ea 963d e56c f33d f279 11be e408 91bc
00000360: 0ddf ddbd 4de5 bebd ae9f 85bd 2c16 963d
00000370: 6a26 dc3d 81f0 88bd 7b43 e939 c6f4 863d
00000380: 60a6 7a3d 2a74 013c 6790 773d f97b d43d
00000390: 8d9f 12be b9e2 5d3d d9a0 b8bc bf3b 21be
000003a0: e1d4 9c3d c7c9 a03c fa37 acbd 006e 883c
000003b0: d08b 853d 5890 b03c 3fa8 cc3d 1080 cabd
000003c0: 1941 743c 22b2 05be ac26 ae3d d0d6 18bd
000003d0: 4d3b 56bb 76ec aa3d e743 05bd 0f01 f6bd
000003e0: 06ed 2e3d ceb4 a73d 53f8 18bd 6dc8 d1bc
000003f0: 03b8 d23d d662 0e3c ede4 92bd d89d 913d

z_0_layer.mixture_weights.transformer.mlp.0.bias f4 [256]
-0.047661144 -0.09820962 0.06929129 -0.11072233 0.12113215 0.106192596 -0.080362484 -0.05890028
-0.11161405 0.057657577 0.025187591 -0.082812384 0.022181934 -0.020588834 0.027680911 -0.064397894
-0.09182114 0.006327807 0.09364239 -0.07868552 0.019259801 -0.009522127 0.045664165 0.094828226
-0.0026022568 -0.0061954698 -0.048810694 0.11013166 0.12206565 0.10826801 0.1041096 0.08041152
-0.10677136 -0.027745517 -0.10776712 0.10970605 0.025919441 -0.07879635 0.006742501 0.06792475
0.023773005 0.048697114 -0.075156726 -0.0027897686 0.052861553 0.010839304 -0.122460015 -0.0058598286
0.1309258 -0.022040553 -0.069418676 -0.067320846 0.014946724 0.011458722 -0.07257134 0.110624306
0.022132035 0.01596443 -0.10720697 0.07919939 0.028119527 -0.1335616 0.05525873 0.05834365
0.02030316 -0.08947248 -0.13561048 0.08960521 0.010000141 0.10854691 0.050417505 0.071873896
-0.12828407 0.070624396 -0.096200615 0.010220148 0.04337709 0.035271384 -0.0699689 -0.072815165
0.08049025 0.08652035 -0.065564826 -0.09306348 -0.03879337 -0.10729208 0.08089059 0.10171961
-0.06450746 0.0027514375 -0.04631302 0.059947696 0.013450322 -0.11064262 -0.08824516 -0.07485634
-0.10908375 -0.06555758 -0.06700806 -0.08361513 -0.052648373 -0.04806825 -0.011222925 -0.016491935
-0.013539776 0.021426583 -0.06698383 0.0467229 0.02866858 -0.017959805 0.07678677 0.07353019
-0.043166485 0.024406064 -0.07006466 0.035097595 0.02578333 -0.084475905 -0.014920633 -0.11047624
0.100627646 -0.02190345 -0.1231168 0.056522705 0.11357301 -0.07881641 -0.033029687 0.066358924
0.05183299 0.06347847 -0.104554184 -0.116752476 -0.04522594 0.083075255 0.05593513 -0.0469105
0.016297547 0.12158148 -0.010717179 -0.052278526 -0.004507882 -0.037055645 -0.06570176 -0.008193393
0.052925427 -0.09166482 -0.10821263 0.033005618 -0.12797071 0.037794035 0.13004287 0.052963
-0.07111954 0.121054076 -0.04160337 -0.058638368 0.07473806 -0.052322857 -0.03317551 -0.064304985
-0.101895645 -0.016619558 -0.03662505 -0.032718584 0.053031664 0.008185005 0.07323762 -0.0834325
0.03914243 0.006734089 0.120228365 -0.061460078 0.12653552 0.08284495 0.018587545 -0.07898693
0.09250209 -0.08556611 0.08548565 0.0872649 -0.0083336 -0.00066005334 -0.031344976 0.06457622
-0.08015589 -0.06302884 0.006382553 0.03867961 0.018489229 0.015902381 0.10755284 0.0914732
-0.020984147 0.02059457 0.093724996 0.09922184 -0.05855158 0.010509162 0.11228884 -0.08199197
0.10743855 0.08400557 -0.05394946 0.123267695 0.12284454 -0.110501416 0.026344057 0.02758811
-0.07205049 0.12415469 -0.06767443 -0.0657738 0.11621979 0.11888576 0.06831808 -0.009775807
-0.0073577226 0.028516795 -0.094684735 -0.12418417 -0.02560593 -0.09900762 0.09859871 0.07116494
-0.0859033 -0.030249158 -0.117819116 -0.042329498 -0.09940855 0.07207591 0.10352538 -0.0154355345
-0.069172785 0.039168727 0.10104185 0.07752159 -0.009592863 -0.04771505 0.10625663 -0.0031100898
-0.03662463 -0.06891342 -0.1075981 0.03471012 -0.08490263 -0.079716876 -0.061294317 0.08284038
-0.03998854 -0.12754796 -0.06371077 0.123659246 -0.055864144 -0.12014648 -0.01222788 -0.0776771
00000000: 5538 43bd 2022 c9bd 98e8 8d3d 64c2 e2bd
00000010: 2214 f83d 817b d93d 1695 a4bd 6c41 71bd
00000020: e895 e4bd 5a2a 6c3d 3556 ce3c 8a99 a9bd
00000030: e3b6 b53c eaa9 a8bc 14c3 e23c 0be3 83bd
00000040: b90c bcbd 7e59 cf3b 95c7 bf3d e025 a1bd
00000050: bbc6 9d3c b202 1cbc 590a 3b3d 4d35 c23d
00000060: a08a 2abb 5e03 cbbb b9ed 47bd b58c e13d
00000070: 8efd f93d 9ebb dd3d 6a37 d53d ccae a43d
00000080: f1aa dabd 914a e3bc 02b5 dcbd 91ad e03d
00000090: 0255 d43c fb5f a1bd 33f0 dc3b 221c 8b3d
000000a0: 9bbf c23c a076 473d c5eb 99bd 8dd4 36bb
000000b0: 5b85 583d 5697 313c 51cc fabd ce03 c0bb
000000c0: 6a11 063e 648e b4bc 612b 8ebd 83df 89bd
000000d0: 1be3 743c 5dbd 3b3c 48a0 94bd ff8e e23d
000000e0: 3e4e b53c d6c7 823c 548f dbbd 4a33 a23d
000000f0: ec5a e63c 5fc4 08be fa56 623d c0f9 6e3d
00000100: d052 a63c 593d b7bd 79dd 0abe f082 b73d
00000110: a2d7 233c d84d de3d 9682 4e3d 9f32 933d
00000120: e65c 03be 86a3 903d d404 c5bd 6872 273c
00000130: 2dac 313d ba78 103d db4b 8fbd 1e20 95bd
00000140: 12d8 a43d 9531 b13d da46 86bd 1198 bebd
00000150: cce5 1ebd f3bb dbbd f7a9 a53d 5f52 d03d
00000160: 7d1c 84bd 7651 343b b9b2 3dbd b78b 753d
00000170: bd5e 5c3c 9998 e2bd e1b9 b4bd 484e 99bd
00000180: 4d67 dfbd 0d43 86bd 863b 89bd 693e abbd
00000190: d2a5 57bd 37e3 44bd 5ce0 37bc 181a 87bc
000001a0: f0d5 5dbc cd86 af3c d12e 89bd 8360 3f3d
000001b0: 5fda ea3c 7120 93bc 6242 9d3d ff96 963d
000001c0: 57cf 30bd 3aef c73c 0f7e 8fbd 7fc2 0f3d
000001d0: 9037 d33c b401 adbd ac75 74bc 5e41 e2bd
000001e0: de15 ce3d dd6e b3bc a924 fcbd 5a84 673d
000001f0: f798 e83d 7f6a a1bd 234a 07bd 30e7 873d
00000200: d44e 543d 0001 823d 8120 d6bd ec1b efbd
00000210: d63e 39bd 5c23 aa3d 3c1c 653d 3925 40bd
00000220: 6f82 853c b6ff f83d 1b97 2fbc 0222 56bd
00000230: dbb6 93bb a9c7 17bd a58e 86bd 953d 06bc
00000240: 55c8 583d c4ba bbbd 959e ddbd e630 073d
00000250: c10a 03be ebcd 1a3d f529 053e bbef 583d
00000260: 1fa7 91bd 33eb f73d 4c68 2abd c92e 70bd
00000270: 4510 993d 7e50 56bd 0be3 07bd 55b2 83bd
00000280: aaae d0bd bd25 88bc 2604 16bd ec03 06bd
00000290: bb37 593d 661a 063c 9bfd 953d a9de aabd
000002a0: d053 203d a2a9 dc3b 4a3a f63d 90bd 7bbd
000002b0: 8792 013e 9daa a93d e844 983c e6c3 a1bd
000002c0: bc71 bd3d 493d afbd 1a13 af3d f1b7 b23d
000002d0: a789 08bc 6e07 2dba 9763 00bd 8a40 843d
000002e0: c528 a4bd 4415 81bd bc24 d13b 836e 1e3d
000002f0: b976 973c b645 823c aa44 dc3d 4d56 bb3d
00000300: f2e6 abbc f2b5 a83c e4f2 bf3d d234 cb3d
00000310: c8d3 6fbd 9f2e 2c3c b1f7 e53d 68eb a7bd
00000320: be08 dc3d 1d0b ac3d 1cfa 5cbd c673 fc3d
00000330: eb95 fb3d 914e e2bd 7ecf d73c 7600 e23c
00000340: 358f 93bd d044 fe3d e498 8abd 6ab4 86bd
00000350: a404 ee3d 617a f33d 59ea 8b3d b52a 20bc
00000360: 0d19 f1bb 0e9c e93c 12ea c1bd 4554 febd
00000370: 87c3 d1bc 82c4 cabd 1fee c93d edbe 913d
00000380: 12ee afbd 15cd f7bc 264b f1bd b261 2dbd
00000390: b696 cbbd 899c 933d 1d05 d43d 53e5 7cbc
000003a0: 76aa 8dbd 636f 203d 08ef ce3d a4c3 9e3d
000003b0: 622b 1dbc db70 43bd 139d d93d a6d2 4bbb
000003c0: b503 16bd 7b22 8dbd 655c dcbd 332c 0e3d
000003d0: 6ee1 adbd 9a42 a3bd c00f 7bbd 38a8 a93d
000003e0: 06cb 23bd ef9b 02be cb7a 82bd 0f41 fd3d
000003f0: cdd1 64bd 5c0f f6bd 7257 48bc 2c15 9fbd

z_0_layer.mixture_weights.transformer.mlp.2.weight f4 [128, 256]
0.030318359 -0.0113260895 0.03787776 0.059179734 -0.013511432 0.03886144 -0.057467397 0.051574886
-0.0056044655 0.04643585 -0.012170878 -0.025594529 0.03871652 0.009102892 0.056102313 0.056006707
0.07248673 -0.02108499 0.04601216 0.01520678 -0.024577824 0.026790554 0.042094253 0.0042073103
-0.05016313 -0.010580504 0.029211396 0.061574634 0.06231393 -0.008572197 0.008612551 -0.016904572
-0.027019614 -0.019356024 0.0065032355 0.012634318 0.009775506 0.0033323471 -0.023873044 -0.031160053
-0.058128543 -0.0076823356 0.045714233 0.061725903 -0.02444709 0.012399273 0.020394865 -0.0042938725
-0.025930028 0.03917646 -0.031163607 -0.057085022 0.0600067 0.024966268 0.02801354 -0.04324387
0.045509588 0.01014782 0.0105213765 0.037669558 -0.049636062 -0.0030134108 0.03291259 0.022652796
0.026372364 0.009588365 0.052677777 -0.04626598 -0.05674373 0.0543206 -0.03974407 0.05053833
-0.008373629 0.048431534 -0.03496162 0.050318103 0.037877556 0.00915235 0.06687626 0.044792306
0.048336353 -0.008749681 0.018141383 -0.059158813 -0.052782394 -0.05365183 0.01498573 -0.030302148
0.021508811 0.046978563 0.021697665 0.06498733 0.060732976 0.042428564 -0.057232868 0.04404621
0.043010466 -0.04197406 -0.0011291405 0.01258807 0.05815748 -0.020674063 -0.048302244 0.018116595
-0.04405965 -0.0017184973 -0.0631254 0.03815651 0.039240755 0.020431334 0.04705047 -0.039288677
0.06271809 0.01821962 -0.02788682 0.006121551 0.0436779 0.05257667 -0.020940432 -0.05839288
-0.033372484 0.0011665102 -0.010524761 0.06733593 -0.005513566 -0.051577277 0.056772914 -0.013251551
0.057180703 0.009022629 0.070807256 0.018492965 0.046789225 0.034197275 -0.020290243 -0.009753095
0.01750302 0.012297642 0.052972417 0.055256255 -0.00526671 0.0018191488 -0.002971319 0.033401113
0.06802411 0.04152228 0.023722699 0.052037783 -0.04805258 0.0049632047 -0.011133729 -0.050430488
0.019388895 -0.031996675 -0.046410635 -0.0070542013 -0.053332876 -0.036276627 0.05929368 -0.010919939
0.028999863 0.036729295 -0.036468495 -0.052587092 0.04821976 -0.053702325 -0.03373776 0.027350284
0.0007635211 0.009115637 -0.023236575 0.026786212 0.029249744 0.0136489235 -0.0034559993 -0.010997631
-0.007784862 0.07312519 -0.005199763 -0.032762375 -0.025579222 0.036097262 -0.05435246 0.0634605
-0.018828295 -0.0069830683 0.06682807 -0.009633365 -0.010463483 0.033732966 0.027108507 0.037434123
-0.020270737 -0.023429131 -0.026262935 0.010111359 0.019685157 0.03113296 -0.023600942 -0.048927892
0.07315479 0.039243408 0.006160363 -0.008492708 0.011931769 -0.000103814375 0.014524806 0.056534752
0.034371246 -0.053978693 -0.00859886 -0.035061143 0.021430682 0.031697784 0.011086875 0.051244985
0.056945153 0.046304826 0.036893785 0.065253004 0.007348002 0.0100339055 0.045691904 -0.0486023
0.05536578 0.07429869 -0.0066038575 -0.021906286 0.04494048 0.07329902 -0.047578402 0.034718435
-0.017065382 0.035055097 0.01855312 -0.034715123 -0.03520596 0.07508055 0.07449981 -0.00985356
0.044394307 0.036208875 0.053361908 -0.059668873 -0.006003353 -0.062213402 0.03544747 -0.044640817
0.07598675 0.02165941 -0.0691794 0.031713296 -0.024831744 -0.0102343485 -0.054781266 -0.0412808
00000000: 355e f83c 1091 39bc b625 1b3d 7366 723d
00000010: 0e5f 5dbc 2c2d 1f3d ef62 6bbd 3040 533d
00000020: aaa5 b7bb 8533 3e3d 5d68 47bc 9eab d1bc
00000030: 3795 1e3d 4c24 153c 8acb 653d 4a67 653d
00000040: ec73 943d 6eba acbc 3f77 3c3d dc25 793c
00000050: 6f57 c9bc dd77 db3c 066b 2c3d 7add 893b
00000060: db77 4dbd da59 2dbc bd4c ef3c af35 7c3d
00000070: e43c 7f3d 6672 0cbc a81b 0d3c 757b 8abc
00000080: 3d58 ddbc 8690 9ebc 1819 d53b 2c00 4f3c
00000090: 7229 203c 8263 5a3b 6791 c3bc 5e43 ffbc
000000a0: 3218 6ebd 1abc fbbb d93e 3b3d 4dd4 7c3d
000000b0: 4445 c8bc 5226 4b3c 2213 a73c 9db3 8cbb
000000c0: 366b d4bc 7f77 203d d24a ffbc fcd1 69bd
000000d0: 96c9 753d 0f86 cc3c a77c e53c 7c20 31bd
000000e0: 4368 3a3d 0b43 263c da61 2c3c 654b 1a3d
000000f0: 2f4f 4bbd a57c 45bb 5acf 063d 5b92 b93c
00000100: db0a d83c 8518 1d3c a7c4 573d 6581 3dbd
00000110: 1d6c 68bd 477f 5e3d aeca 22bd 4801 4f3d
00000120: 8c31 09bc 2560 463d ea33 0fbd 5b1a 4e3d
00000130: 7f25 1b3d bdf3 153c 6cf6 883d 2378 373d
00000140: 57fc 453d d25a 0fbc 3d9d 943c 8350 72bd
00000150: 5a32 58bd 05c2 5bbd b586 753c 363c f8bc
00000160: 3f33 b03c 986c 403d 4dbf b13c 1418 853d
00000170: 24c3 783d 93c9 2d3d 036d 6abd cc69 343d
00000180: be2b 303d feec 2bbd abff 93ba 313e 4e3c
00000190: 8a36 6e3d a75c a9bc 93d8 45bd 4169 943c
000001a0: e477 34bd 333f e1ba e447 81bd 004a 1c3d
000001b0: eaba 203d 9d5f a73c feb7 403d 2aed 20bd
000001c0: 5872 803d 5041 953c e672 e4bc 4b97 c83b
000001d0: 99e7 323d a25a 573d 458b abbc 5f2d 6fbd
000001e0: 96b1 08bd 96e5 983a 0c70 2cbc 6ce7 893d
000001f0: 25ab b4bb b242 53bd b78a 683d 091d 59bc
00000200: 5036 6a3d a6d3 133c 6503 913d 8f7e 973c
00000210: 0fa6 3f3d 7112 0c3d b937 a6bc 72cb 1fbc
00000220: 7e62 8f3c 0d7c 493c 9bf9 583d 6254 623d
00000230: 5e94 acbb 8170 ee3a 76ba 42bb 9bcf 083d
00000240: 3950 8b3d 4413 2a3d 1b56 c23c 9225 553d
00000250: c8d2 44bd 61a2 a23b 3e6a 36bc 3390 4ebd
00000260: 76d5 9e3c f20e 03bd 1419 3ebd ee26 e7bb
00000270: 9373 5abd cd96 14bd eedd 723d 8be9 32bc
00000280: 1f91 ed3c 7571 163d fd5f 15bd 9065 57bd
00000290: 1582 453d f8f6 5bbd 9b30 0abd b40d e03c
000002a0: 0927 483a c159 153c a15a bebc c26e db3c
000002b0: 299d ef3c bc9f 5f3c 0c7e 62bb 682f 34bc
000002c0: 2818 ffbb a9c2 953d c662 aabb d731 06bd
000002d0: 848b d1bc b9da 133d afa0 5ebd 94f7 813d
000002e0: cc3d 9abc 39d2 e4bb 28dd 883d 43d5 1dbc
000002f0: 076f 2bbc 942b 0a3d a912 de3c 8654 193d
00000300: d10e a6bc 73ee bfbc 5e25 d7bc 1daa 253c
00000310: c442 a13c 8d0a ff3c c356 c1bc 9d68 48bd
00000320: 2ed2 953d b2bd 203d dfdc c93b 0025 0bbc
00000330: 777d 433c ebb6 d9b8 74f9 6d3c fc90 673d
00000340: ddc8 0c3d c318 5dbd 3ce2 0cbc 469c 0fbd
00000350: 668f af3c 89d5 013d b9a5 353c 43e6 513d
00000360: 523f 693d 21aa 3d3d f01d 173d 5ea3 853d
00000370: 82c7 f03b 4065 243c 6f27 3b3d 3513 47bd
00000380: 3ac7 623d e929 983d 2c65 d8bb d074 b3bc
00000390: 8213 383d cc1d 963d 92e1 42bd eb34 0e3d
000003a0: b3cc 8bbc ef95 0f3d b6fc 973c 7231 0ebd
000003b0: 2034 10bd d5c3 993d 5b93 983d d370 21bc
000003c0: ced6 353d c24f 143d 0492 5a3d 5967 74bd
000003d0: c6b7 c4bb 7bd3 7ebd 5e31 113d 4ad9 36bd
000003e0: f19e 9b3d 136f b13c eead 8dbd cde5 013d
000003f0: f16b cbbc f8ad 27bc 5262 60bd 0e16 29bd

z_0_layer.mixture_weights.transformer.mlp.2.bias f4 [128]
-0.035734862 -0.03465809 -0.039796796 0.0054218676 -0.0076136347 -0.032066733 0.02141799 -0.015988648
0.045530576 0.03069495 -0.019585656 0.025510091 0.0031523153 -0.04124546 0.050597344 0.04026433
-0.03957961 0.026423588 0.04095037 0.019938894 -0.0041845306 -0.05317245 -0.023967389 -0.050000347
-0.047340404 0.06194331 -0.034554694 0.044054154 -0.019629475 0.050516043 0.017072827 0.025072044
0.01077944 0.007383023 -0.029494511 0.042470995 -0.0054867007 -0.046708636 0.026516384 -0.054151546
-0.05869751 -0.05425736 -0.011434563 0.005576725 -0.03836904 -0.0294462 -0.025129821 0.025997767
0.060693644 -0.009414311 -0.008764412 0.003999774 0.059220444 -0.017169999 -0.05004482 0.003997798
0.05295887 -0.023363436 0.008673865 -0.0015398656 0.0010489419 0.0064040734 -0.023979913 -0.061999716
-0.03942093 -0.018292924 0.024552051 0.042854995 0.031125713 -0.036634516 0.041075967 -0.017844362
0.045332577 -0.020774215 0.052259516 0.05410567 -0.036743604 0.011400395 0.034255672 -0.014610548
-0.019844702 -0.029956983 0.021037908 -0.0009263704 -0.016654711 -0.052616972 -0.0039740917 0.042613745
0.0353843 0.050984584 0.051278222 -0.05135428 -0.039255597 -0.0010037284 -0.026445637 -0.0356535
0.042741023 -0.056306567 0.010369036 -0.018760972 0.050809544 0.00904714 0.05648298 0.059123546
-0.03918898 -0.032324675 -0.042832043 -0.023361519 0.046191305 -0.006375944 0.0008188989 -0.028674038
-0.023125282 -0.010852248 0.025727598 -0.016528508 0.023054326 -0.006204682 -0.00026747567 0.036671393
-0.057650667 0.041674674 -0.06044407 -0.041806348 0.024660958 -0.016493442 0.042947497 -0.04341642
00000000: b85e 12bd a4f5 0dbd f701 23bd eca9 b13b
00000010: cc7b f9bb 6858 03bd c874 af3c a0fa 82bc
00000020: 457e 3a3d fa73 fb3c 1972 a0bc 8afa d03c
00000030: 1397 4e3b 00f1 28bd 293f 4f3d 36ec 243d
00000040: 3b1e 22bd 4876 d83c 93bb 273d e456 a33c
00000050: 631e 89bb 5bcb 59bd 4257 c4bc 2acd 4cbd
00000060: 03e8 41bd 45b8 7d3d 3989 0dbd 2172 343d
00000070: fecd a0bc e9e9 4e3d 50dc 8b3c e363 cd3c
00000080: 409c 303c 49ed f13b 799e f1bc 11f6 2d3d
00000090: c8c9 b3bb 8e51 3fbd e338 d93c 03ce 5dbd
000000a0: cd6c 70bd f73c 5ebd 0958 3bbc f6bc b63b
000000b0: db28 1dbd 2839 f1bc 0edd cdbc 45f9 d43c
000000c0: e699 783d 7b3e 1abc 9c98 0fbc 8910 833b
000000d0: 2391 723d 19a8 8cbc ccfb 4cbd f6ff 823b
000000e0: 66eb 583d ad64 bfbc d41c 0e3c 51d5 c9ba
000000f0: a67c 893a 43d9 d13b 8671 c4bc 6af3 7dbd
00000100: d777 21bd 0bdb 95bc 6221 c93c b888 2f3d
00000110: 5afb fe3c 130e 16bd 463f 283d 572e 92bc
00000120: a7ae 393d b02e aabc 130e 563d e89d 5d3d
00000130: 7680 16bd b9c8 3a3c ad4f 0c3d 1461 6fbc
00000140: 5b91 a2bc 5968 f5bc b157 ac3c aad7 72ba
00000150: 766f 88bc e584 57bd 1939 82bb c08b 2e3d
00000160: 21ef 103d 36d5 503d 1d09 523d de58 52bd
00000170: 7aca 20bd 898f 83ba 85a4 d8bc 6809 12bd
00000180: 3611 2f3d b7a1 66bd e4e2 293c 9cb0 99bc
00000190: ab1d 503d 753a 143c b25a 673d 882b 723d
000001a0: a084 20bd e166 04bd a770 2fbd a860 bfbc
000001b0: 1833 3d3d 4bed d0bb 60ab 563a d1e5 eabc
000001c0: 3b71 bdbc a1cd 31bc afc2 d23c cb66 87bc
000001d0: 6ddc bc3c a550 cbbb fa3b 8cb9 be34 163d
000001e0: 1b23 6cbd 10b3 2a3d 3394 77bd 223d 2bbd
000001f0: c705 ca3c 411d 87bc b7e9 2f3d 6bd5 31bd

z_0_layer.mixture_weights.transformer.axial_pos_emb.weights_0 f4 [1, 1, 1, 64]
-1.3648562 0.23998453 -0.23460919 0.0011223259 0.7109064 2.0256956 0.18846868 0.72898966
0.44515955 -0.50033087 0.40645516 1.1037766 -2.6260483 0.29194176 -0.42389157 0.96897435
0.7899622 0.4214938 0.016295647 0.04179599 0.29767257 0.40440363 -2.509444 -0.6582314
0.25524682 0.9730902 -0.43311808 -0.65394384 0.27067757 -0.5018785 -0.019825855 -0.36454496
1.0717561 -1.3775808 -0.3235571 0.865554 1.636305 0.2768603 -0.94928217 0.7653139
-0.264696 -0.6787611 0.41530356 0.39658144 1.4964067 0.18624651 -0.25391924 -0.052237146
0.9786369 -0.019380964 0.62913245 -1.0659791 0.22879101 0.34671772 -0.5603902 1.6459528
0.18366389 1.0681199 -0.4289464 -0.08971171 -0.13074912 -1.3323972 -0.19042288 -1.121558
00000000: 9cb3 aebf 81be 753e 643d 70be 021b 933a
00000010: f6fd 353f ffa4 0140 effd 403e 119f 3a3f
00000020: f4eb e33e af15 00bf e41a d03e 8d48 8d3f
00000030: 2d11 28c0 6479 953e 5108 d9be b40e 783f
00000040: f63a 4a3f 09ce d73e 737e 853c 4632 2b3d
00000050: 8a68 983e fe0d cf3e bb9a 20c0 da81 28bf
00000060: b6af 823e 701c 793f a7c1 ddbe dd68 27bf
00000070: 4096 8a3e 1c7b 00bf d569 a2bc a3a5 babe
00000080: 4e2f 893f 9154 b0bf 47a9 a5be f294 5d3f
00000090: 7172 d13f a2c0 8d3e 2804 73bf 9deb 433f
000000a0: 3c86 87be 4ac3 2dbf aba2 d43e b90c cb3e
000000b0: 418a bf3f 68b7 3e3e b401 82be 9ef6 55bd
000000c0: f387 7a3f d4c4 9ebc d30e 213f 0172 88bf
000000d0: 3148 6a3e fc84 b13e bb75 0fbf 95ae d23f
000000e0: 6312 3c3e 27b8 883f dd9e dbbe c6ba b7bd
000000f0: 19e3 05be fe8b aabf 37fe 42be 368f 8fbf

z_0_layer.mixture_weights.transformer.axial_pos_emb.weights_1 f4 [1, 1, 6, 64]
-0.98612267 2.2280672 -0.3612976 -0.05574157 0.39889723 -1.0369855 0.020240435 -0.72475016
-0.83726794 0.40898177 0.50541455 0.28805584 1.1977278 -0.06326175 -0.8722866 1.3713256
-0.8620887 0.17220438 -0.0742447 -0.25741288 0.9036008 -1.6463772 0.41090485 1.3885959
2.1249819 0.33974782 2.081645 0.2669201 -1.331215 -0.08048878 0.44090238 0.15545759
-0.15727217 -0.05184867 0.24500436 -0.33048978 1.8905674 -0.40478042 0.039977536 0.5496989
1.5451968 1.4657018 -1.6246984 0.50629246 -0.6830249 0.015096963 -0.26085395 0.34059635
1.2932241 0.49748376 0.040354066 0.1540062 1.2881936 -0.27550125 0.98214686 0.69420236
0.68976605 -0.7021103 1.0495498 -0.058179032 1.0512655 -0.050478257 -1.5170418 1.2177371
0.03691549 0.9780319 -1.4561343 1.6488593 0.45865986 0.33467567 0.34824148 -0.7324276
1.6243163 1.0259224 0.22288875 -0.40734157 -0.0027778263 -1.7057927 0.387137 0.6614197
0.8574844 -1.3944997 -0.52043194 0.43234032 0.71131843 -0.697412 -0.05327345 -0.7269819
-0.6989696 0.86698407 -0.7835798 1.4779993 0.23594412 -0.09851326 -0.6373204 0.79008716
1.9910337 -0.65052485 1.2959212 -1.3137486 1.1871926 0.20317908 0.5274287 -0.5314284
0.78452504 1.0173913 -0.4076075 1.6671548 -1.3052127 0.3616754 0.6992124 -0.92028725
-1.4247086 0.93933046 0.43978855 -0.50265545 -0.8878871 0.24049026 -1.0879581 0.71832
-1.1151088 -0.34817243 -0.1499842 0.8223085 1.0034668 0.08932944 -0.2246069 0.14876948
-1.1338763 0.26505986 0.7943761 -0.38076997 -0.88712513 -0.8281488 0.66385466 1.5654057
-0.13722041 -1.9276636 -0.3087262 0.7965473 -0.29300892 0.14168254 -0.9595729 1.1633949
-0.0844285 -0.47444606 -0.05879102 -0.55921245 -0.08184816 1.0241545 -1.3871375 1.2184042
0.4990032 1.0117427 -0.34948713 0.66971636 0.19231085 0.3546239 1.4365418 0.91661763
-0.9007292 0.20305781 -1.2936553 0.05389272 -1.000293 -1.1507965 1.0349443 0.47109225
0.2878647 0.7977544 1.4899096 -0.81894374 -0.012533774 0.18343872 0.26233572 -0.09083824
-0.041909583 -0.3422224 1.4952362 1.0097574 0.7046454 0.5150355 -0.20967354 0.5966175
0.90568316 -0.03989984 0.32390663 1.2225069 -0.4688962 -0.36302665 -1.4462948 0.8556636
-2.014714 0.59661466 -0.32213238 0.15484096 -0.5369668 -0.4059928 0.51603925 0.7658686
-1.3086816 -0.5689278 0.8765837 1.2882807 -1.132681 -0.3794228 1.8488511 -0.8503892
0.15041138 1.1664289 0.35871586 0.4274857 0.50496274 -0.16130209 -0.9515869 0.85726523
-0.108244054 0.6914497 0.4431823 -0.2408304 -0.66899246 0.2026278 1.1882122 -0.33331075
0.49721795 0.15679203 -0.23987561 0.36318332 0.37005746 -1.6625503 0.8363985 0.48795342
-0.92572784 0.48094276 -1.8764368 0.33053875 0.2762295 0.36838526 1.2315493 0.9307295
-0.43890917 0.5524427 0.9596929 0.49004 1.1339648 0.86476225 0.7304485 1.2534575
1.0530912 -1.2087036 -0.40285918 -0.4598983 0.22064172 -0.27211612 1.4003208 0.013122014
00000000: 8972 7cbf a798 0e40 00fc b8be 4651 64bd
00000010: 423c cc3e f1bb 84bf 45cf a53c 3a89 39bf
00000020: 3157 56bf 0f66 d13e d962 013f 0e7c 933e
00000030: 254f 993f 608f 81bd 2d4e 5fbf 9987 af3f
00000040: d8b1 5cbf 5856 303e 9b0d 98bd 9fcb 83be
00000050: 6252 673f 7dbc d2bf 1f62 d23e 83bd b13f
00000060: b4ff 0740 6df3 ad3e ac39 0540 c0a9 883e
00000070: 4165 aabf 4dd7 a4bd f5bd e13e 4630 1f3e
00000080: f50b 21be 455f 54bd 6ce2 7a3e f535 a9be
00000090: 1dfe f13f 613f cfbe 7cbf 233d 11b9 0c3f
000000a0: 02c9 c53f 1e9c bb3f 1ef6 cfbf 629c 013f
000000b0: b8da 2ebf 4159 773c a68e 85be a562 ae3e
000000c0: 5e88 a53f 31b6 fe3e 4e4a 253d cdb3 1d3e
000000d0: 87e3 a43f 800e 8dbe fa6d 7b3f 3fb7 313f
000000e0: 8294 303f 80bd 33bf a657 863f 234d 6ebd
000000f0: de8f 863f 4ac2 4ebd 6d2e c2bf cfde 9b3f
00000100: b234 173d 4c60 7a3f 9c62 babf d20d d33f
00000110: 77d5 ea3e 9c5a ab3e b54c b23e 6080 3bbf
00000120: 99e9 cf3f 6d51 833f f33c 643e 138f d0be
00000130: 310c 36bb 6a57 dabf d236 c63e cd52 293f
00000140: 1984 5b3f f77e b2bf 073b 05bf b65b dd3e
00000150: f718 363f 9889 32bf 4335 5abd 7c1b 3abf
00000160: acef 32bf abf2 5d3f b098 48bf 152f bd3f
00000170: 569b 713e 52c1 c9bd 6e27 23bf 2743 4a3f
00000180: 31da fe3f cc88 26bf bfe0 a53f ea28 a8bf
00000190: edf5 973f 2d0e 503e 9105 073f b10b 08bf
000001a0: a2d6 483f e139 823f eeb1 d0be 5465 d53f
000001b0: 3611 a7bf 852d b93e 95ff 323f f297 6bbf
000001c0: da5c b6bf f677 703f f72b e13e 07ae 00bf
000001d0: 924c 63bf 1443 763e 3642 8bbf d2e3 373f
000001e0: e3bb 8ebf a843 b2be 7595 19be cf82 523f
000001f0: 9a71 803f 5af2 b63d 5aff 65be 0757 183e
00000200: dc22 91bf edb5 873e 3b5c 4b3f 48f4 c2be
00000210: a21a 63bf 8f01 54bf 61f2 293f 375f c83f
00000220: 8283 0cbe aebd f6bf 5c11 9ebe 86ea 4b3f
00000230: 4405 96be 3a15 113e 92a6 75bf 20ea 943f
00000240: d9e8 acbd 98ea f2be dace 70bd 8c28 0fbf
00000250: 02a0 a7bd 7f17 833f b98d b1bf abf4 9b3f
00000260: 597d ff3e c980 813f faef b2be 8872 2b3f
00000270: 23ed 443e 4491 b53e 9ae0 b73f 74a7 6a3f
00000280: 3096 66bf 63ee 4f3e 7f96 a5bf 9dbe 5c3d
00000290: 9a09 80bf 4d4d 93bf 0e79 843f 0133 f13e
000002a0: 0163 933e a239 4c3f 5cb5 be3f 4ca6 51bf
000002b0: 755a 4dbc 5cd7 3b3e de50 863e 6609 babd
000002c0: 62a9 2bbd c637 afbe e663 bf3f bb3f 813f
000002d0: a463 343f 5ed9 033f a9b4 56be edbb 183f
000002e0: dada 673f 046e 23bd 17d7 a53e 1b7b 9c3f
000002f0: 2a13 f0be a1de b9be 3020 b9bf c50c 5b3f
00000300: 13f1 00c0 bdbb 183f 89ee a4be a18e 1e3e
00000310: a876 09bf 4ade cfbe 261b 043f f70f 443f
00000320: e182 a7bf 41a5 11bf ca67 603f 62e6 a43f
00000330: b1fb 90bf b543 c2be 27a7 ec3f 1bb3 59bf
00000340: 7105 1a3e 8b4d 953f 9ba9 b73e 68df da3e
00000350: 3d45 013f 602c 25be 339b 73bf bc75 5b3f
00000360: 0faf ddbd d902 313f cae8 e23e 3f9c 76be
00000370: 1743 2bbf a97d 4f3e 5617 983f b5a7 aabe
00000380: 5a93 fe3e 178e 203e f4a1 75be 2af3 b93e
00000390: 2c78 bd3e 73ce d4bf 361e 563f 08d5 f93e
000003a0: 80fc 6cbf 213e f63e 152f f0bf 603c a93e
000003b0: f46d 8d3e fe9c bc3e 68a3 9d3f 4a44 6e3f
000003c0: b4b8 e0be e36c 0d3f 6fae 753f 86e6 fa3e
000003d0: c225 913f 0f61 5d3f acfe 3a3f 4c71 a03f
000003e0: b1cb 863f cdb6 9abf 8f43 cebe ca77 ebbe
000003f0: e7ef 613e ce52 8bbe b63d b33f b7fd 563c
