checkpoints/sort_1/S_6_K_6/ArgmaxAR/15_05_2023__20_36/cktp/checkpoint_0002500.tar (torch, 796123 bytes, 89 tensors)

model.base_dist.loc f4 [1, 3, 1]
00000000: 8a74 0bbc 8335 4fbc 896d f33c
-0.008511672 -0.0126470355 0.029715316

model.base_dist.log_scale f4 [1, 3, 1]
00000000: 7dea 753d efc7 453c 1f94 8b3d
0.06003808 0.012071594 0.06815361

model.transforms.0.encoder.noise_dist.base_dist.net.weight f4 [6, 32, 1]
00000000: a40f 37be 789e 8a3d 5a9c 6cbe da27 87be
00000010: c309 8d3c dfbd 193e 2967 11be 79af 5a3d
00000020: 0243 53be 0bad 5a3b 910d 6bbe 9c3a 38be
00000030: 7960 523e ef5a 87bd 2643 35be 6ff4 423e
00000040: 274a 2c3e a47e c8bd fbfd a43d aa5a 913e
00000050: c5a9 6bbd 3732 4cbe 660a 323e 5866 16be
00000060: 02b4 abbd e609 81bd 2851 20be ca27 e3bd
00000070: 5d8b 44be 5c76 8f3d 0735 ee3c 9942 3d3e
00000080: f1e2 8a3d eb9e ae3d 9b98 30be c3fe 40be
00000090: 2881 1e3e 263d 59bd 23e9 b13d 12c0 04be
000000a0: 1346 e23d 631a 163e be12 15be 2ef0 90bc
000000b0: 54df 0f3e 1110 45bd a2eb eebb 1fa0 013e
000000c0: 0849 193d e429 433e 3167 06bd d727 d03d
000000d0: da10 b4bd 4a34 e63c 1ade 4c3d 72e7 4dbe
000000e0: d8f9 5bbe 7046 97bd f34d ed3d 57e9 89bc
000000f0: 7ce2 d2bc d475 29be 7ceb afbc b4db 1b3d
00000100: a6aa 05bd e77d 113e 21ff ffbd ceaf 7abc
00000110: 6993 20be 1e47 423e bd4b 37be c740 b03d
00000120: 511b ccbc a4f3 b2bd 09c2 91be 0d62 52be
00000130: 8b2e 3d3e b176 acbd 7169 a7bd b2a1 4d3c
00000140: d77c 623e 323f 48bd a00b bd3d 8365 dc3d
00000150: 7fc8 a53d e2a1 7bbe 4cb5 4e3e 40be dabd
00000160: 6732 54bd e68b 2cbe 3802 203d 807e 2a3e
00000170: b29b 2ebe 843d 25be 992e 923d b769 003c
00000180: 186f 00be ed01 babd d299 b2bd 25f8 a8bd
00000190: 00b1 013d ae8e f2bd 1240 1ebe b15f 113e
000001a0: 0fba 1e3e 9c52 acbd 211e 00be 518d 1f3e
000001b0: 4252 353e 85af 2a3e c967 573d bc30 9dbd
000001c0: efcb 6fbc c4f4 423d 0bda 3c3e 89de 90bd
000001d0: 37b4 9f3c d7a6 e93d c057 04bd b17e 53bd
000001e0: d418 613d 3cd4 e4bd be40 c83d 35a3 2a3e
000001f0: c654 1a3e 4e20 da3d 07b0 16be e2ed b23d
00000200: 7290 efbc 2a5d cf3c 653f 583c d120 d7bd
00000210: b55b 07be 125b 913d 53ea 94bd 23d5 96bd
00000220: 71bd a1bd 77d2 e43d 2dcc d2bd 2c1f 353d
00000230: c64a 0e3e 1bf5 0d3d 5f2b 2c3d 8928 51bd
00000240: 520f 03bd 5001 efbd fbd4 1e3e 18ae 303d
00000250: 6d4e 893d 7a5a f53d 799b 40be 52fc 313e
00000260: b1e8 0bbe eb94 77bd 0381 c33c 1948 59bd
00000270: e771 fd3c 8225 bf3d e3bf 983d 3253 03be
00000280: a0ae 75bd 7885 933d 11d6 ed3c b5b9 f13c
00000290: cc75 263e 43ba 1dbe cb19 0cbe 6f8f d0bd
000002a0: c343 aabd 02c9 403b 565e d43d 8917 183e
000002b0: 8523 f2bd 1086 86bc c953 1b3e b969 cf3d
000002c0: 5f6a 4abd 4491 d0bd 11aa 093e 0adb e23d
000002d0: be7f 2e3d d10f ffbd b97a 003e f8f8 0b3e
000002e0: 456f a9bd d6c7 0ebe 2093 09be a9be 013d
000002f0: 39a1 b1bb c531 2f3e 818f 583a c947 f43d
-0.1787706 0.06768507 -0.23106518 -0.26397592 0.017216569 0.15013836 -0.14199509 0.05339
-0.2063103 0.0033367302 -0.22954394 -0.17991108 0.20544614 -0.06609141 -0.17701396 0.19038557
0.16825162 -0.0978978 0.080562554 0.28389484 -0.05753495 -0.1994103 0.17386779 -0.14687479
-0.08383943 -0.06300716 -0.15655959 -0.110915735 -0.19193788 0.07004997 0.02907802 0.18482436
0.06781567 0.08526405 -0.17245714 -0.18847184 0.15478957 -0.05303683 0.086870454 -0.12963894
0.11048522 0.14658503 -0.14557931 -0.017692652 0.14050037 -0.048111025 -0.007291273 0.12658738
0.037423164 0.19058949 -0.032813255 0.10163849 -0.08792277 0.028101105 0.0500165 -0.2010782
-0.21482027 -0.07386482 0.11587133 -0.016834898 -0.025742762 -0.16548854 -0.021474592 0.038051322
-0.032633446 0.14208184 -0.12499834 -0.015300704 -0.15681233 0.18972442 -0.17899986 0.08606105
-0.02491537 -0.08737877 -0.2846835 -0.20545216 0.18474786 -0.08421076 -0.08174408 0.012550758
0.22117935 -0.048888393 0.09230733 0.10761549 0.08094882 -0.24573472 0.20186347 -0.106808186
-0.05180588 -0.16850242 0.039064616 0.16649818 -0.1705158 -0.16136748 0.07137794 0.007837704
-0.12542379 -0.090823986 -0.08720745 -0.08250455 0.03166294 -0.1184362 -0.15454128 0.1419666
0.15500663 -0.08414194 -0.12511493 0.15581252 0.1770716 0.16668518 0.05258921 -0.07675311
-0.014636024 0.047596708 0.18442552 -0.07073695 0.019495113 0.11408775 -0.032310247 -0.051634494
0.05495532 -0.11173293 0.097779736 0.16663821 0.15071401 0.10650693 -0.14715587 0.08736779
-0.029243682 0.025312979 0.013198708 -0.10504306 -0.13218577 0.070974484 -0.07271256 -0.07364871
-0.07897461 0.111729555 -0.1029285 0.04421918 0.13895711 0.03465758 0.04203355 -0.051064048
-0.031997032 -0.11670172 0.15510933 0.04313478 0.06704412 0.11980148 -0.18809308 0.17381409
-0.13662983 -0.060444754 0.023865229 -0.053047273 0.030938102 0.09333326 0.074584745 -0.12824705
-0.05998099 0.072031915 0.029032739 0.029507497 0.16255873 -0.15403084 -0.13681714 -0.10183608
-0.08313706 0.0029416685 0.10369556 0.14852728 -0.11823181 -0.016421348 0.1516868 0.10127587
-0.04941785 -0.10183957 0.13443781 0.11076935 0.042602293 -0.124541886 0.12546815 0.13669193
-0.08273176 -0.13943419 -0.1343503 0.03167597 -0.0054208306 0.1710883 0.000826113 0.119277544

model.transforms.0.encoder.noise_dist.base_dist.net.bias f4 [6]
00000000: 89d5 f9bc 3c09 043e 5df7 c43d 249c 8bbb
00000010: c906 a43d cbf8 6ebc
-0.03049733 0.12894148 0.09617493 -0.004260557 0.08009107 -0.014585684

model.transforms.0.encoder.noise_dist.transforms.0.ar_net.lstm.weight_ih_l0 f4 [256, 35]
00000000: e13c c93d c707 e1bd 1b37 bebd 750f 0a3e
00000010: c70f babc 8efe 22bc 4031 283d 9479 953d
00000020: 69ce 80bd 4068 e2bd 3cf2 2c3c 4af0 e73d
00000030: dc2c ffbc 35f0 ff3d 7357 b8bb 1b8e f83d
00000040: 15ff 303d c4de 053e 3f40 c93d 61a9 2c3d
00000050: 0acc 3fbc de5a 8abd f628 a43d 8429 8b3c
00000060: ca4c 4a3d 5998 003c ef92 fabd 847d 923d
00000070: 7880 103d 24a4 1c3e bcde 3f3d 1e1f 3f3d
00000080: 5075 a73d 1afc 293d 23be f33d 6943 c9bd
00000090: 7188 9f3c 446a 55bd 731a 933c 679f 17ba
000000a0: b6a8 d9bd f76a 103d 905e 0cbd 28aa f3bd
000000b0: c2a5 8fbc 1acc 9bbd 7ddd f2bc 6742 f6bd
000000c0: aa4b aebd 6ec8 84bc 1a1e e6bd c082 2dbd
000000d0: fe8a 48bc 4b37 c5bd cd2e 4ebd 04f5 a13d
000000e0: bb74 a53c 1342 a9bd 1fd6 6a3d cb17 84bd
000000f0: 5efa afb9 aa7c d63d f228 52bc a163 c93d
00000100: 3c6c d8bd 25bd e4bd ea25 89bd 1c16 8b3d
00000110: 0660 e53d aa08 5abd 7e21 953d b79b 643d
00000120: 5420 c0bc 014c 093e d77d 9f3c b1ae bd3d
00000130: cbbb ddbd 8f2f 23bd cc81 c83c b4b6 043e
00000140: 23a5 02be c1a4 7c3d 3cdf e9bd abc9 843d
00000150: 5e03 a3bd 1440 923c 8e99 803d 085b c03d
00000160: 13f2 233d 5454 f5bb 1ef0 6dbd c6cd f63c
00000170: 03c6 863d 0511 c9bd c297 a23d 4c58 4e3a
00000180: 42bd a8bd f9a4 8b3d 1742 a43c bcfb b43c
00000190: 764f 913c 4751 8cbd 1b19 a1bc 341f e7bc
000001a0: 0195 c0bd be94 f83c 59c0 52bc f845 8f3c
000001b0: ed9e 6abd 072e d8bc fdea 7b3d d738 04be
000001c0: 842a cf3d 6d72 50bd 72cc cd3d 5904 843d
000001d0: 2de5 fb3c 4156 b93d b86a 19bd d170 453c
000001e0: 627d 643d ef0c 423d 9693 d6bc 4c8a e3bd
000001f0: cf26 85bd dcbf 853c 48a3 babd fc7c 963d
00000200: 026f 623d 7ad6 773d 1659 84bc d9c9 87bd
00000210: 41e2 e7bd 1a68 183d 4a95 c03d 949e 6f3c
00000220: 3bfd 3dbd 3766 183d d662 483d e3ba df3d
00000230: 4d07 68bb 3edd ecbd 3f14 aa3c f072 f2bc
00000240: 6681 593d 88e3 07be 6476 87bc 522a b1bd
00000250: 1d95 c5bd 16eb ad3d c4c3 19bc a5b9 3fbc
00000260: c81a 30bd 350f b1bc ce37 413d b585 8bbd
00000270: ace3 a63d 3166 583d 2c06 26bd f14b 043d
00000280: c692 0fbd 9bf1 8cbd 2d05 933d 4588 023d
00000290: 186c 77bd 6f79 d1bd fe36 63bd 228f 85bd
000002a0: 1ee0 113d 1516 36bb 0bce e5bd 7973 53bd
000002b0: fc63 873d 2080 1ebd aeeb 9fbb 7de6 183e
000002c0: 79cc 41bd 9555 80bd fabc cfbc a0a2 203e
000002d0: 1338 9cbd 2fe5 863d 00d7 103e ac83 db3a
000002e0: 0b57 1abd b823 d5bd d117 ab3d 3f7a 983d
000002f0: 7ffd 973b 7d0c d0bc 7bc5 91bd 99a7 c7bd
00000300: 4df7 7ebd 5158 df3d 17b9 55bc b883 113d
00000310: af56 003e 813c 133d 8f1c 833c c678 e4bd
00000320: 89b1 f03d 74e4 23be f832 81bc e464 91bd
00000330: d1d1 b7bd 2257 943c 59d7 8cbc b1fe 56be
00000340: ad47 fcbd 9144 67bd a7d7 08bd c491 0b3e
00000350: 5390 8f3c e8d4 953d 53b7 133e 12b9 c4bd
00000360: b5cb f73c d745 83bc 4819 ffbd 255b 0fbd
00000370: cc27 ffbd be29 db3d 4356 613d 4e10 a53d
00000380: d312 96bc dc26 a63d dcf4 5f3d 440f 06be
00000390: 6918 39bd 0f0d a7bd e968 64bd a8e0 94bd
000003a0: 6d82 0a3e 8c05 ce3b c069 dfbd 9e85 c2bd
000003b0: 136d 25be 7a43 f5bc 6db2 8aba a0ee 8cbd
000003c0: d82b d9bd 96db 103d 893d d8bd fe2a c8bd
000003d0: 31b9 42bc 1022 4b3c db89 ddbc 41cc 0c3c
000003e0: 7857 e3bd 6451 e43c 9f08 b93d 9bcc 4c3d
000003f0: 880d af3d f9c6 e93d 7758 a4bd 77db acbd
0.09826065 -0.109878115 -0.09287854 0.13482459 -0.022712601 -0.009948386 0.041062593 0.0729858
-0.062893696 -0.1105504 0.0105558 0.113251284 -0.03114932 0.12496988 -0.005625659 0.121364795
0.043212015 0.1307326 0.09826707 0.04215372 -0.011706362 -0.06755613 0.08015625 0.01698757
0.049389638 0.0078488225 -0.122350566 0.071528465 0.035278767 0.1529699 0.046843275 0.046660535
0.081766725 0.04150019 0.119015 -0.098273106 0.01947424 -0.052103296 0.017956948 -0.00057839457
-0.10627882 0.03525826 -0.03426987 -0.11897689 -0.017535094 -0.07607289 -0.02964663 -0.12024384
-0.085105255 -0.016208854 -0.1123621 -0.04236102 -0.01224017 -0.09629687 -0.0503376 0.07908061
0.020197263 -0.08264556 0.057333108 -0.06449851 -0.0003356514 0.104729965 -0.012827145 0.09833456
-0.10567519 -0.11168889 -0.06696685 0.067913264 0.11199956 -0.05323092 0.07281779 0.055812564
-0.023452915 0.134079 0.019469185 0.09261835 -0.10826834 -0.039840277 0.024475954 0.1296032
-0.12758307 0.06168056 -0.11419532 0.064837776 -0.079596266 0.01785282 0.06279288 0.09392363
0.04002578 -0.0074868593 -0.05809032 0.030127417 0.065807365 -0.09817699 0.07939102 0.00078714336
-0.08239223 0.068185754 0.020051045 0.022092693 0.017738085 -0.0685144 -0.019665292 -0.028213121
-0.0940342 0.030344363 -0.012863242 0.017489418 -0.05728047 -0.026389135 0.0615034 -0.12912308
0.10115531 -0.050890375 0.100487605 0.06446142 0.030748928 0.09049655 -0.03745529 0.012050823
0.055783637 0.047375616 -0.026193421 -0.111103624 -0.06501543 0.016326837 -0.09113175 0.07348058
0.055281647 0.060507275 -0.01615576 -0.06630296 -0.113224514 0.037208654 0.09403475 0.01462521
-0.046384078 0.037206855 0.048922382 0.10924318 -0.0035404742 -0.11565636 0.020761607 -0.029595822
0.05310192 -0.1327039 -0.016535945 -0.0865065 -0.09647582 0.08492105 -0.009385053 -0.011701976
-0.04299429 -0.021613697 0.04717236 -0.06812612 0.08148894 0.052831832 -0.04053323 0.032298986
-0.035052083 -0.0688202 0.071787216 0.031868238 -0.06040582 -0.1022824 -0.055472367 -0.06521441
0.035614125 -0.0027784158 -0.1122094 -0.051623795 0.066108674 -0.03869641 -0.00488039 0.14931674
-0.04731414 -0.062663235 -0.025358666 0.15687037 -0.07627883 0.06586682 0.14144516 0.0016747615
-0.037680667 -0.104072034 0.08354152 0.074451916 0.0046383734 -0.02539658 -0.071177445 -0.097487636
-0.062247563 0.10905517 -0.013044617 0.035526007 0.12533067 0.035946373 0.016004829 -0.11155848
0.11752612 -0.16005117 -0.015771374 -0.070993215 -0.08975566 0.018107954 -0.01719253 -0.20995595
-0.123183586 -0.056461874 -0.033408787 0.13629824 0.017524874 0.07315999 0.14425401 -0.09605612
0.030248502 -0.016024513 -0.12455994 -0.03499903 -0.124587625 0.10701321 0.055013906 0.080597505
-0.018319523 0.081128806 0.054676875 -0.13091761 -0.045189295 -0.081567876 -0.055764113 -0.07269412
0.13526316 0.0062872823 -0.10908842 -0.09498142 -0.1615489 -0.029939402 -0.001058174 -0.068814516
-0.10604066 0.035365663 -0.10558612 -0.09773825 -0.011884973 0.012398258 -0.027043274 0.00859362
-0.11100668 0.027870841 0.090348475 0.049999814 0.08547503 0.11414904 -0.08024686 -0.08440297

model.transforms.0.encoder.noise_dist.transforms.0.ar_net.lstm.weight_hh_l0 f4 [256, 64]
00000000: 002e 50bd 3753 aa3c 3265 cf3d 9c9b b3bb
00000010: daf2 9dbd d74a 2bbb e875 3a3d b8e7 a23d
00000020: 814e ec3c 515e 9c3c 5fad 6b3c 4107 55bd
00000030: 9b17 52bc b6c0 9fbd 6eef 2a3c 952b 4f3d
00000040: b6f0 81bd 3996 ea3d 288b 8d3d 8d58 993d
00000050: 588a 9d3d e079 86bd 1056 993d 103f 3dbb
00000060: 7c7d 653c d70b 763d e57a db3c 15c3 f9bd
00000070: ff8c 77bc b861 963c 93ad 353d 748e a93d
00000080: f3e9 d23c f46e 453c 25eb e6bd 6340 e4bd
00000090: 18c6 923d 5d05 1e3d 3d39 dbbd 2c1e 08bc
000000a0: 7907 8d3d 34ff e0bd d8d1 8a3d 6610 213d
000000b0: b535 1abd ec14 c2bd c8c6 f23d 90d6 e7bd
000000c0: 6cc1 98bd 561e 9ebd c7c6 523d e165 dcbd
000000d0: 4fd9 15bd 2cde a0bd ddb4 debc 1305 c93d
000000e0: 14db 89bc 1bc8 c83d eb76 903d 089e b63c
000000f0: 7aca 95bd 2860 3abd 91f0 b93d 884d 933d
00000100: 2d48 e03c 56b6 f3bb 740c b03d f0f3 babd
00000110: 0025 febd 9d88 8f3d 24d9 f1bd e953 75bc
00000120: 990b 7d3d 7c6b c0bc 68d2 abbd e307 c7bd
00000130: 5570 f6b9 8a59 d13d 9989 c8bb 8333 d63d
00000140: 7a45 e63d 496b 68bd dd80 eebd 8814 3a3d
00000150: b89b ca3d 6243 fabd 27c0 273b 354e 753c
00000160: e5b2 0c3b 9550 e0bd 416a 07bd 206b cbbd
00000170: c7a1 b73d 83cc fc3d f483 ecbd d660 13bd
00000180: e2c0 a83c 3170 3d3d 4836 e0bd 3558 b7bd
00000190: e690 123b ed31 21bb dec7 2abd c933 273d
000001a0: cae8 653d 8358 5cbd 26cd 603d e455 ef3d
000001b0: 0d5f d0bc 96e2 8fbd 56ff 6bbc cca1 013e
000001c0: 5de4 a83d f357 403d 363e 293b a4e3 13bc
000001d0: f32d c9bd d8fc cabd 1dd4 c33d 8a9b 9dbd
000001e0: 250c 31bd 06b7 4a3d b2b3 a23c b656 423d
000001f0: e82f c73b 7b75 86bc d462 3fbd d11f 53bd
00000200: 04b2 08bd 98a3 153d d31c c93d c8de 9a3d
00000210: d7f9 823d fbce 86bd 7384 d03d 0494 683c
00000220: e159 c83d 7e02 e3bc b490 0b3e 02e6 cebd
00000230: 10a1 b63c 6d10 e8bd 5a0e 05be e36f 263d
00000240: 9e84 c4bd a0a8 853c 0b37 9fbd c307 bd3d
00000250: 79e6 c8bd c95f bb3a 3a00 7dbd 42eb fdbd
00000260: bb9a 56bd c90a 013e d01c f8bc de1c c3bd
00000270: 629e e0bc da83 eabc 00f4 85bd db2c babc
00000280: 1097 283d ba60 bf3d 26c3 173d dbf2 813c
00000290: 2287 b1bb b274 6fbd 7cc6 42bd 38cb cabd
000002a0: 6a7b 24bd 0142 c83c 2093 04be fdea a5bd
000002b0: aeb6 b43d fa46 38bc 486a 16bd 54fc 10bd
000002c0: 17d2 4f3d 7522 dd3c 0c5d af3d 57e5 a4bd
000002d0: 3645 313d a7cc 963c d582 d3bd 22dd b33d
000002e0: fcc7 ba3c 2bef 92bd 6f99 e13d b82c d33d
000002f0: e155 4f3d 84fb ad3d 0515 92bc 2d43 bb3c
00000300: 245b 9b3d 6b9e b5bd 8cce 7a3d 859c 243d
00000310: 9b1a 5abd 9bb3 c33b 9dbe 893d df51 b63d
00000320: 05d7 21bd e9e0 253d 09d5 693c e6b1 46bd
00000330: d6ca 003d 2dfd d7bd 01ba 8b3d 8f02 db3d
00000340: ad2c 59bc 8784 873d c00e 33be 0828 a2ba
00000350: 61a4 a93d ea56 47bd 97b9 ac3d 6c86 883d
00000360: 0b83 bdbd 0717 2dba 318e a2bd 81f3 b13d
00000370: 0a6c 693d b8af adbd 0354 c2bd 327b 0f3e
00000380: 5db8 933d fabc 05be a734 87bd e8cc a2b9
00000390: 0fb5 8a3d c8fe 7b3d 7b33 943d 8a59 32bd
000003a0: 1adf 123c 2732 4abd 64c2 98bd 623a dc3d
000003b0: 9438 6f3d edc6 c1bd 3181 89bd f8e8 4dbd
000003c0: 1055 51bd c142 cfbd 70e4 e43d 76b1 033e
000003d0: ed65 7f3d 6748 0cbe afb2 5bbd 151f d73d
000003e0: 23fc 9d3c a8d9 35bd 1fe5 153c 4b49 94bd
000003f0: 7f4e 68bd 39a2 953d 2c85 793b 29eb afbd
-0.05082512 0.020791633 0.10126723 -0.0054811966 -0.07712336 -0.0026137137 0.0455226 0.07954353
0.028846027 0.019087942 0.014384597 -0.05200887 -0.012823011 -0.078004286 0.010433061 0.050578672
-0.0634474 0.11454434 0.069113076 0.07487593 0.076924026 -0.065662146 0.07487118 -0.00288767
0.014006969 0.060069885 0.026792 -0.12195412 -0.0151093 0.018357143 0.044354986 0.08279124
0.025746321 0.012050379 -0.11275319 -0.11145093 0.0716669 0.038579334 -0.10704277 -0.008307975
0.06886191 -0.10986176 0.06778306 0.03932228 -0.037648875 -0.09476647 0.11854321 -0.113202214
-0.07458767 -0.0772063 0.0514591 -0.10761619 -0.036584195 -0.07854876 -0.027185852 0.09815421
-0.016828097 0.09803792 0.07053932 0.022292152 -0.0731401 -0.045501858 0.090790875 0.07192522
0.027378166 -0.0074375076 0.08596125 -0.09128559 -0.12409401 0.07008479 -0.118089944 -0.014973619
0.06177864 -0.023488753 -0.08389741 -0.09718301 -0.0004700447 0.10222156 -0.0061199185 0.10459044
0.1124372 -0.05674294 -0.116456725 0.045429736 0.09892982 -0.122198835 0.002559671 0.014972259
0.0021468934 -0.1095287 -0.033060316 -0.09932542 0.089664035 0.12343695 -0.115486056 -0.03598102
0.020599786 0.046249572 -0.10947853 -0.08952371 0.0022364198 -0.0024596408 -0.041694514 0.04082087
0.056130208 -0.05379535 0.054883145 0.11686304 -0.025435949 -0.0702564 -0.014404139 0.12659377
0.08246682 0.046958875 0.0025824434 -0.009026442 -0.09823217 -0.09911507 0.09561942 -0.07695682
-0.043224473 0.04949095 0.019861076 0.047445975 0.006078709 -0.01641344 -0.04672511 -0.051544014
-0.033372894 0.03653297 0.09819951 0.075620234 0.063953094 -0.06582447 0.10181513 0.014195446
0.09782768 -0.02771115 0.13629419 -0.10102464 0.022293597 -0.11331258 -0.12993756 0.040634047
-0.09595607 0.016315758 -0.077741705 0.09229996 -0.09809584 0.0014295514 -0.061767794 -0.123983875
-0.052393656 0.1260177 -0.030287176 -0.0952699 -0.027419273 -0.028627325 -0.0654068 -0.022726467
0.04115969 0.09344621 0.037051342 0.015862873 -0.0054177204 -0.0584609 -0.04755257 -0.09902042
-0.04015676 0.024445536 -0.12946749 -0.08101461 0.08823906 -0.011247391 -0.03672245 -0.03539689
0.050737467 0.02699397 0.08562669 -0.080515556 0.043278895 0.018408133 -0.103276886 0.08782412
0.022800438 -0.07174524 0.11015593 0.10311264 0.05061901 0.084952384 -0.017832289 0.02285918
0.07585743 -0.088681065 0.061232135 0.04018833 -0.05324803 0.0059723384 0.0672581 0.089023344
-0.0395117 0.040497694 0.014271983 -0.0485095 0.03144344 -0.10546336 0.06822587 0.106938474
-0.01325528 0.066170745 -0.17486095 -0.0012371549 0.08283306 -0.048666872 0.08433836 0.06666264
-0.0925351 -0.00066028576 -0.07937277 0.08689023 0.0569878 -0.08480781 -0.0948868 0.14011839
0.07212899 -0.1306037 -0.066018395 -0.00031051715 0.067728154 0.061522275 0.072363816 -0.043542422
0.008964324 -0.049364235 -0.07458952 0.10753323 0.058403566 -0.0946177 -0.067140944 -0.050271004
-0.051106513 -0.10120154 0.111763835 0.12860665 0.062353063 -0.13699494 -0.053637203 0.10503975
0.019285267 -0.044397026 0.009148865 -0.07240542 -0.056715485 0.07306332 0.0038073761 -0.08589775

model.transforms.0.encoder.noise_dist.transforms.0.ar_net.lstm.bias_ih_l0 f4 [256]
00000000: a08a 84bd 2342 773d 1079 97bc ef32 d3ba
00000010: 6b9f cdbd 65ea 10bd f2fe 44bd 47e7 a8bd
00000020: a7ae 253d 4082 0b3e fe87 7bbb 5b33 d2bd
00000030: 0286 05bd 302c c83c 2dee 0abd 0915 82bd
00000040: f6f5 70bc dd09 09bd a672 82bd ed4e 03be
00000050: 7f7a 47bd a117 9abd e366 713d d557 d5bd
00000060: be5c e0bd ab18 c83c 9289 97bd 4728 803c
00000070: 5818 ad3d 7626 26bd c073 393c 0eb1 113e
00000080: 0904 26bd 842d e9bd 1a70 453d 9481 0ebc
00000090: 135e 03be 465d 05bd 0828 febd 9048 e23d
000000a0: 182e 80bd 5f17 9b3c 00aa d9bc 8dab 9c3d
000000b0: 7da3 d6bc 57f8 373d e58f 29bd 2c3d 30bd
000000c0: 257a ef3b f69f 053d a6a0 223d ad45 fcbd
000000d0: 3766 723d a48f e33d 0fa8 0e3b f3be c23d
000000e0: ff08 973d c89d c5bd 7106 553b 3170 aeba
000000f0: 8d95 80bd 9192 9e3d 9768 f5bd 6477 093d
00000100: 6396 e13d 3a57 13bd a456 213d b1dd 203d
00000110: e889 75bd d9dc c33d 625e 903d d105 f7bc
00000120: cf3e bc3d eb8b 6e3d f467 acbc c274 85bc
00000130: 0fc7 0cbd 5b5d 5ebd 356e 303c 1398 e23d
00000140: f336 b3bd d079 5b3d 348a e5bc 8f65 df3d
00000150: c3d6 d63b 1f30 c43b c51a d33d f6ad 2f3d
00000160: 1fbb e33d 141d 9a3d 944b 3e3d 7798 bc3d
00000170: 1dd5 6f3d 1f86 1ebd 73a4 013d fe1f 273c
00000180: d55f 873d 2e3b eb3d e615 7f3c a8b4 b9bc
00000190: 9b52 e33b a509 853d 1f90 05bd 519a babd
000001a0: 6b15 9bbc b103 8a3d 6895 073e 0667 3ebd
000001b0: 780d e6bd 37ab a23d 906d b5bd 7827 dc3b
000001c0: 615c a33b afa7 113e 2f0f 0abd 2224 c83d
000001d0: f0f6 dabd 249a be3d 6a43 b8bc 3040 93bd
000001e0: aece 073d 02c8 a33c a462 f7bc c297 ba3d
000001f0: d475 a0bd cde3 653d 2184 303d 8e5b a43d
00000200: b37a aa3d 283e d4bc 989c 973d 0022 0abd
00000210: a769 aabd a0e7 d93d fa69 38bd 0e56 9ebd
00000220: 97c4 d03d e655 22bd 48e0 e6bd 9d4f 943d
00000230: 3029 7ebd b03d 7c3d 1e5d c33d 38f7 1bbd
00000240: 1c92 cbbd 482f 983d 0672 cbbc d33d 74bd
00000250: 5049 f13d 3327 e7bd 123c c2bd 974b bd3d
00000260: c609 4bbc 64a2 9dbc 9156 5c3d 109b bdbd
00000270: f979 993d 0b7e 97bd a3bd 363d 5b01 da3d
00000280: 95b6 833b 682c 0cbd 12df d8bd f185 073e
00000290: fc98 cebd 7a31 d3bd 0127 aa3d a21c 9ebd
000002a0: 6a88 a9bc 58d4 96bd c85b 5fbd 64f8 9ebc
000002b0: ec88 87bd c981 f6bd 3b25 bd3c cb09 d4bd
000002c0: 0776 b83d 5d52 093d e3ea 673c 5201 eebc
000002d0: 7d19 4fbd 47c1 723d 56cb 4ebd f45c c73d
000002e0: 2afb 693d 5315 a7bd e7c9 8b3c 0412 b63d
000002f0: 0753 d33d 7387 643c e8ae 49bd 6184 88bd
00000300: 163f cdbd 1df3 343d ec75 7ebc 3334 abbd
00000310: 103b 9e3d a139 b93d 4f32 923d 91d8 073c
00000320: a395 a63d a634 b4bd 809e debc 11ce 943c
00000330: 3b01 51bd 3daa 65bd e4bf 1a3d 5658 103d
00000340: 481a a5bd dd99 bdbd 897a b7bc db9c 11bd
00000350: 396d 083e cf13 47bd 248f 863d d94a d23d
00000360: 06b5 053e 7a55 be3d 1939 55bc 5224 3d3d
00000370: f808 aebc ee18 283d 80f9 b9bd f100 91bd
00000380: c3d4 fabd 36c2 8ebc 3e8c e33b 2f81 933d
00000390: ccce e0bd fa88 a5bc 2e34 b4bc ee6d 0fbc
000003a0: 4c03 823d 9913 abbd 244b 253d 870b cfbd
000003b0: d710 c1bd 00ff 00be f546 bfbb 90e6 933d
000003c0: c934 b0bd d2ab ab3d aca6 56bd 78b4 fcbc
000003d0: cfbd dbbb b5c0 aa3d c382 1d3d ecc8 c0bd
000003e0: 169a b73d 8cec 513d d693 28bc e190 7fbc
000003f0: 60b7 993c 7d7a f5bd 88b6 d8bd ea33 be3c
-0.06471753 0.060365807 -0.018490344 -0.0016113202 -0.10040172 -0.035379786 -0.048094697 -0.08247238
0.040449765 0.13623905 -0.0038380618 -0.102637015 -0.032598503 0.024435133 -0.03391855 -0.063516684
-0.014707079 -0.033456672 -0.06369524 -0.12823077 -0.048700806 -0.07524038 0.05893601 -0.10417143
-0.10955189 0.024425825 -0.07399286 0.015644206 0.08451909 -0.040564023 0.011319101 0.14227697
-0.040531192 -0.113856345 0.04820261 -0.008697886 -0.12828855 -0.032559656 -0.12409979 0.110489964
-0.06258792 0.018932043 -0.02657032 0.07649908 -0.026201004 0.04491457 -0.041396994 -0.043027088
0.007308262 0.032623254 0.039703988 -0.12317977 0.05917951 0.11111382 0.0021767651 0.09509077
0.07374763 -0.09649235 0.003250506 -0.0013308582 -0.062785245 0.07742799 -0.119828396 0.033561125
0.11015012 -0.035971858 0.039389268 0.03927392 -0.05994597 0.09563608 0.07049252 -0.03015414
0.09191667 0.058238905 -0.021045662 -0.016291026 -0.034369525 -0.05428825 0.010768463 0.11064162
-0.08750715 0.053582966 -0.028020002 0.10908043 0.0065563633 0.005987182 0.1030784 0.04289051
0.11119675 0.075250775 0.046458796 0.09208768 0.05855285 -0.038702127 0.03165097 0.010200499
0.066100754 0.11485897 0.015569186 -0.022669151 0.0069373376 0.0649598 -0.032608148 -0.09111465
-0.018931111 0.06738985 0.13240588 -0.04648497 -0.11233038 0.07942813 -0.08858788 0.006718572
0.0049853777 0.14224122 -0.033705886 0.09772517 -0.10691631 0.09306744 -0.022493083 -0.07189977
0.03315609 0.019992832 -0.030198403 0.09110977 -0.07834974 0.05612545 0.043094758 0.08025275
0.08324184 -0.025908545 0.07402915 -0.03372383 -0.08320933 0.10639882 -0.045022942 -0.077312574
0.101937465 -0.0396327 -0.11273247 0.072417475 -0.062051 0.061582267 0.09539245 -0.038077563
-0.099399775 0.07430893 -0.024834644 -0.059629273 0.117815614 -0.112867735 -0.09484114 0.09242933
-0.012392467 -0.019242473 0.053793494 -0.092580914 0.074939676 -0.07397088 0.044614445 0.1064479
0.004019568 -0.034222037 -0.10589422 0.13234688 -0.10087773 -0.10312171 0.08308221 -0.07720305
-0.02069493 -0.0736472 -0.05453089 -0.019405551 -0.06617913 -0.12036473 0.023089042 -0.1035343
0.09006887 0.033525813 0.014155122 -0.029053364 -0.050561417 0.059266355 -0.050486885 0.09734526
0.057124294 -0.08158364 0.017064048 0.08890155 0.103185706 0.013948309 -0.04923907 -0.06665874
-0.10021798 0.044177163 -0.015531044 -0.083595656 0.07726109 0.09044195 0.07138502 0.00829138
0.0813401 -0.087991044 -0.027175188 0.018164666 -0.051026564 -0.056070555 0.037780657 0.035240494
-0.080616534 -0.09257863 -0.022397297 -0.03554998 0.13322915 -0.048602875 0.06570271 0.10268182
0.13057336 0.09293647 -0.013014101 0.046177216 -0.021244511 0.0410394 -0.090807915 -0.07080258
-0.12247612 -0.017426591 0.0069442084 0.07202374 -0.109769434 -0.020206917 -0.021997537 -0.008754237
0.06348285 -0.08353347 0.040354863 -0.101096205 -0.0942704 -0.12597275 -0.005837316 0.07221711
-0.08603818 0.083823815 -0.052405044 -0.030847773 -0.0067059766 0.08337537 0.038454782 -0.09413323
0.089649364 0.05125098 -0.010289153 -0.015598507 0.018764198 -0.119862534 -0.1058169 0.023218114

model.transforms.0.encoder.noise_dist.transforms.0.ar_net.lstm.bias_hh_l0 f4 [256]
00000000: 720c 4ebd 4c00 21bd 4851 debd a679 bdbd
00000010: 359a 5cbd fb98 1e3d b8f8 afbd 58a4 0abe
00000020: 280b 0f3e 3919 743d 6b93 3c3d 575f bd3d
00000030: e619 f03d 5c82 3b3d 7ba6 df3d 4eb9 0cbc
00000040: 79a5 bdbd 5d7a 62bd 629b a6bd 80e0 6ebd
00000050: a32b b53d f897 a63d a3ba dfbd 1d08 413d
00000060: c88b 863d 8da5 c0bd 19d4 c63c b5b6 c23c
00000070: 5714 bc3c 0df6 013e 774c 5a3d 2b71 9cbd
00000080: 90b9 52bd d339 4d3d cf0d 663c 153f d5bd
00000090: 5a62 abbd 93b9 0ebb d353 e93d 692d 6cbd
000000a0: 35bc bf3d 655b 92bd 97a8 bbbd 24d1 903d
000000b0: c352 12be c183 823d 9d01 ac3d ff55 b13c
000000c0: ab01 f03c 07b4 1e3d 144d aebc 5fc6 fc3c
000000d0: a90f 043d a945 9f3d e6ad d23d d71b b23d
000000e0: b3aa 913d 75e6 b93c dcd4 b6bd 4f27 f93c
000000f0: bd6e c2bd 693d a3bc 59d7 a13b f6ac 08be
00000100: 1aeb 1abd 3230 1a3d 91bd 21bd e69e 0b3e
00000110: e849 283d e711 a03d a9db d0bb 82ee e3bd
00000120: a6c1 fb3d 39b0 c5bd e207 9abd fc56 2e3d
00000130: 20cb 94bd bd99 353d d968 05bd ba14 55bd
00000140: a0ff 273b e530 8b3a 1178 bbbd b0b6 fdbc
00000150: 19cf 0fbc 5575 0bbd 3041 6d3d 373c e03d
00000160: dbdf 733d 9210 e73d fe12 ae3d c991 6abd
00000170: 87f6 103d 9321 bbbc 539c 94bd 16ef 933d
00000180: e6a3 183d 88c3 a5bc 1eff b13d d9c7 023e
00000190: 4f7f c1bc df50 0fbe 41e3 e63d 9811 8abd
000001a0: 71cf 9a3d 8c5d dc3d 4a1f 753d 2833 78bd
000001b0: 3b14 20bc 7ca8 b4bd 5954 ddbc 98d0 0a3e
000001c0: 0852 a73d 0503 1e3c f372 48bd faf1 953d
000001d0: aa29 74bd 9ab2 aebd 342d ee3b c5a3 0dbd
000001e0: 234e 9fbb c6dc 25bc 70da de3d 55da cc3c
000001f0: 78f9 cd3d d2ff c0bd e6c0 fe3d 8d6a 4d3d
00000200: 5cd4 073e 2f21 b8bd 7a59 55bd 86d5 653d
00000210: ab13 cd3d 6fe4 8dbd c92f a8bc e7f7 23bd
00000220: 6424 d9bb c5ed b2bd 19f5 01bd bea0 0ebe
00000230: 1511 19bd 7247 71bc 5304 043e cc9e a7bb
00000240: 966d 8e3c e4c6 cf3c 7412 c33d c3bf 92bd
00000250: cc5f 01bd e271 383c d850 8e3d 21f5 89bd
00000260: 0ac2 7d3d b12e b4bd 7fb5 49bd 3388 57bb
00000270: 8438 92bc cd81 81bd 0715 6a3c fbeb ed3d
00000280: 8de8 75bd 4dc7 f2bc a7fd 0dbe 9963 4d3d
00000290: 78b8 a73d 74ee c63d 1a11 7abd 3efc f63d
000002a0: 2446 15bc 6fdc 813c 1b41 043e 27cf 923d
000002b0: f40d 77bc e1de 6bbc 6f0b a23d 4a84 4f3d
000002c0: b91d d7bd 978b 3ebd 5ef0 b93d 34ab af3d
000002d0: 7120 ffbd 739f fa3d 376d da3c 8b21 2e3d
000002e0: 1020 033e 51c5 913d f342 d4bd 5da7 5dbd
000002f0: 7993 e73d 54af d13d 42aa a6bd 2ead 16bd
00000300: ee8e 453d e45c 94bd 978b 0cbd ce13 2b3d
00000310: aa8f 4fbd f785 74bd 6dd6 963d 2d14 4e3c
00000320: a5b2 973d 3cc1 143d 112f a53d 3739 b6bd
00000330: ab86 73bd eb03 e6bd 027d e1bd 343b a43c
00000340: c99e 5e3c 486c fb3d 6a0d 943d 0bf4 3fbd
00000350: bccb f13d c6bf 06bd 506e abbc 0d33 ae3d
00000360: c086 b63d ea1c 7bbd a9b2 5cbd 4b58 e8bd
00000370: 5b58 0abe 0b2a 78bc 4284 eabd bcd7 95bc
00000380: eac1 c4bd 9a49 cabc db5e 6c3d 4f39 f3bd
00000390: 1c3e b0bd d8a1 bc3d cdf5 1a3d e2d9 36bd
000003a0: 156f 88bd 0fac e03d 322e afbd 0b65 b6bd
000003b0: c7be 75bb ea95 c83d 952d 9fbd 96c9 293d
000003c0: c5ba 8b3d ade9 273b cfe5 b53d 5893 d8bd
000003d0: 20a1 c3bc 1c8a 7e3d 4811 a1bc adfa 513d
000003e0: 3ae1 b7bd 58dc 963c c0e1 87bd 84c5 41bc
000003f0: 8ba5 0f3c 8d5e cc3d c166 f8bc 9650 0cbd
-0.050304838 -0.039306924 -0.10855347 -0.09251718 -0.053858 0.038720112 -0.08592361 -0.13539255
0.139691 0.059594367 0.046039026 0.092467 0.1172369 0.045778617 0.109204255 -0.008589102
-0.09260077 -0.055292476 -0.08135106 -0.05831957 0.08846214 0.081344545 -0.1092427 0.047126878
0.0656963 -0.09406576 0.024271058 0.023768762 0.022958918 0.12691517 0.05329558 -0.076387726
-0.051446497 0.050103974 0.014041378 -0.104124226 -0.083683684 -0.0021778091 0.11392941 -0.057660494
0.093620695 -0.071463384 -0.09163015 0.070711404 -0.14289384 0.06372786 0.08398745 0.021647451
0.02929767 0.038745906 -0.021276988 0.03085631 0.032241497 0.077769585 0.10287075 0.08696716
0.071126364 0.022692898 -0.089273185 0.030414252 -0.09493778 -0.019926744 0.0049390015 -0.1334723
-0.037821867 0.03764362 -0.039487425 0.13634834 0.041086107 0.078159146 -0.006373842 -0.11129476
0.12292795 -0.096527524 -0.07521035 0.042563424 -0.072653055 0.04433607 -0.032570694 -0.05202172
0.0025634542 0.001061943 -0.0915376 -0.030970901 -0.008777403 -0.034047443 0.057923496 0.10948985
0.059539657 0.112824574 0.08499716 -0.057267938 0.035391357 -0.022843158 -0.07256379 0.072233364
0.03726568 -0.020234838 0.08691238 0.12771548 -0.023620276 -0.13995694 0.11273814 -0.06741637
0.075590976 0.1076003 0.059844293 -0.06059566 -0.009770448 -0.08821198 -0.02701776 0.13556135
0.08169943 0.009644275 -0.04893775 0.07321544 -0.059610046 -0.08530159 0.007268572 -0.03458001
-0.0048616095 -0.010123437 0.108815074 0.025006453 0.10057348 -0.09423794 0.12439136 0.050150443
0.13264602 -0.08990704 -0.052087285 0.056111835 0.10013517 -0.06928336 -0.020530598 -0.04003134
-0.0066266526 -0.08736757 -0.031727884 -0.13928506 -0.037369806 -0.014726507 0.12892275 -0.0051153656
0.017386239 0.025363393 0.09525004 -0.07165482 -0.0315855 0.0112576205 0.069490135 -0.06736208
0.06195263 -0.08797968 -0.049245354 -0.0032887578 -0.017849214 -0.06323586 0.01428724 0.11617275
-0.06003623 -0.02963605 -0.13866292 0.05014381 0.081894815 0.0971345 -0.061051466 0.1205983
-0.009110961 0.015852181 0.12915461 0.071684174 -0.01507901 -0.0143964 0.07912337 0.05066327
-0.10503716 -0.046519842 0.090790495 0.08577576 -0.124573596 0.12237444 0.026663406 0.042512458
0.128052 0.07117713 -0.10364332 -0.05411469 0.11307425 0.10238519 -0.08137943 -0.03678625
0.04823201 -0.0724428 -0.03431281 0.041766934 -0.050674118 -0.05969807 0.07365117 0.0125780525
0.074071206 0.036317095 0.08065618 -0.088976316 -0.0594546 -0.11231216 -0.110101715 0.020047761
0.013587662 0.122765124 0.07229121 -0.046863597 0.118064374 -0.032897733 -0.020926625 0.08505831
0.0891242 -0.06130687 -0.05388132 -0.113449655 -0.13510267 -0.015146743 -0.114510074 -0.018291347
-0.09607299 -0.0246933 0.05770765 -0.11876165 -0.086055964 0.09210557 0.03783207 -0.044641383
-0.06661812 0.109703176 -0.08553733 -0.08905991 -0.0037497745 0.09794219 -0.07772366 0.041452013
0.06822733 0.002562146 0.08881723 -0.105749786 -0.023880541 0.06214343 -0.01966156 0.051264454
-0.089785054 0.018415615 -0.06634855 -0.011826877 0.008767496 0.09978972 -0.030322434 -0.03425654

model.transforms.0.encoder.noise_dist.transforms.0.ar_net.l_out.0.weight f4 [33, 64]
00000000: 1d64 0abe 8c5d a2bd b84e ab3c 7081 b83d
00000010: f5fc a73d cd9a 66bc faad 9cbd 0c5f 093e
00000020: ab6a 993c 2211 bb3d 6f09 b53d c1c6 123e
00000030: 2dfa 6a3d c0eb 44bb 7681 2339 6c74 78bd
00000040: 67d8 403d 3ada c3bc da2b ae3d cc2e f63d
00000050: b589 6fbd 78e1 da3c 28ac df3b 14a8 b33c
00000060: c907 d0ba ce94 a5b9 098d 05be 57d3 d0bd
00000070: 9194 a23c 7c86 26bd 814c ac3d 94ba 00be
00000080: 6327 043d afcf 6b3d de76 0a3e c0d9 dcbd
00000090: 5ed5 fc3c e7bb cdbd 2548 f9bd 802a f1bd
000000a0: 50fd 5cbc caa1 b73d e826 74bc a864 03be
000000b0: 6d3e 8ebd 08f3 033e 7edb 58bd d3b5 fa3d
000000c0: abe3 8dbd f3ea 8cbd 16fb b73c 8912 8bbd
000000d0: 9639 9abd 763a 3f3d 3a23 333d d61c 843d
000000e0: 8cbb 80bb 9332 45bc 945e c8bd 58d6 0e3e
000000f0: 313b 943d 6e59 fbbd 3dda 44bd c52b fc3c
00000100: ad28 b03d f36f dc3d 048d debd 3868 eab9
00000110: 4046 2cbd 6a2d 31bd 86df b3bd a397 97bb
00000120: 2d09 b63d 243f 53bd 0490 863d 4b34 b13d
00000130: c368 a7bd 102b 19bd 6386 71bd 70fe b13d
00000140: fd08 a83d e6d8 89bd 6fe8 f7bd 1a33 b33c
00000150: deb2 c63d 3b03 6a3d 87b6 833d e192 d93d
00000160: 31ed f23d ec90 c5bd 35cb 723d fc3f 9cbd
00000170: e6a5 573d 9f82 f8bd a789 e0bb c757 b4bd
00000180: 5073 cbbd e4f0 e5bb fd0e 283d fda4 f43d
00000190: 2b4b 0abc 473e c93d 32d9 d43d 29e1 293d
000001a0: cc51 e1bd 0e2a 993d 7610 cf3d 6126 5fbc
000001b0: d011 81bd c5f8 703d 2a0c 5dbd d8c1 0bbe
000001c0: 30fe 8bbd 370d 6bbd 7044 8bbb 594f 23bd
000001d0: 1d5d a2bd 892f 823d f8ee d1bd 3f46 a7bb
000001e0: 9cfb 6b3d f0b7 06be 4102 d6bd 24ac ac3d
000001f0: 7f33 b13b 8b93 3f3c f562 eebd 60b3 9a3d
00000200: 61bc 9ebd 88a5 223d a7e1 833d 787b 013e
00000210: 9b1d 09be 45c6 dbbd f598 683d 398b d13d
00000220: 7b81 d8bd 0562 aa3c 983f 03be 4789 b8bd
00000230: a4ba e2bd 8e94 303c 1a14 b9bb 70d3 c9bd
00000240: 5c89 d7bd fb46 133d ad8c c33d a058 e4bd
00000250: bd82 07bd e5ef a5bd 6414 28bd 3d1a c4bd
00000260: ce13 723d c8c2 973d 64b1 6b3d ed6f 96bd
00000270: 7294 3a3d b180 1abd a33e e1bd adf3 9bbc
00000280: dc3d 983c b47b e9bd 9bea 4d3d d119 ae3d
00000290: 8025 d63c 5718 373d 95a7 8d3d 7cc8 ecbd
000002a0: 6262 84bd e74d 853c e4b4 d9bd 19b3 993c
000002b0: 72de cb3d a7b4 e4bc 41f2 dc3d c5f0 d53c
000002c0: 2426 b6bd 3e13 54bd 2927 e03d 5e12 cabd
000002d0: 7d4d 923d dc3d 95bd 143e 973d c467 dc3d
000002e0: 499d a23d 8052 edbd 43c5 a5b9 3f54 68bd
000002f0: cd77 f93d e2c6 dfbd 13c9 85bd cc36 d7bd
00000300: 68fe d7bc d9da 4e3d 47bd dd3d 8279 913d
00000310: 3579 1d3d caf0 773d 9b07 e23c 1c77 bdbd
00000320: df9e 02bc c945 debd a7e6 9ebd 7dc3 cd3d
00000330: 239c 7c3d 4224 a9bc fb37 f2bb 72fd 95bc
00000340: d310 d33d e01b 093e 0f8c bbbd 32d5 0dbd
00000350: 991c 373d 71ae 67bb 985d 8b3d e5d1 073d
00000360: 9312 45bd 8f35 06be 090c 993d 4c13 6dbd
00000370: da1c eb3d bca8 36bd a926 aebd 3888 493d
00000380: 1f8d 9cbc 6cbb 01be 6bb5 9c3d 29f7 2e3d
00000390: bd2c c33d df03 be3d b5df 353d e7e8 9dbd
000003a0: 81b9 e93d bbb3 e23d c8fe d9bc dfc9 babd
000003b0: a8c5 0f3d 2d33 8e3d 9ee0 113d 430f 2dbd
000003c0: 32e9 9cbd d445 77bd 6275 c2bd 7cd1 afbd
000003d0: b2ef ea3c fb37 0c3c e3d6 273d 13ba 11bd
000003e0: 5b34 e1bd 9abd f0bd 5abc abbd 8b31 99bd
000003f0: 41d2 d9bd 9514 453d 39a4 85bd bd56 e33d
-0.13514753 -0.07927999 0.02091156 0.09009063 0.082025446 -0.014074993 -0.07650371 0.13415164
0.018727621 0.09134127 0.0883969 0.14333631 0.057367492 -0.0030047745 0.0001559312 -0.060657904
0.047081377 -0.02390777 0.08504458 0.120206445 -0.058480937 0.02671884 0.0068259425 0.021930732
-0.0015871461 -0.0003158212 -0.13042082 -0.1019656 0.019846233 -0.040655598 0.084130295 -0.12571174
0.032264125 0.05757111 0.13521907 -0.1078372 0.03086346 -0.10045605 -0.121719636 -0.11775684
-0.013488129 0.08966406 -0.014901854 -0.12831366 -0.069455005 0.12885678 -0.0529437 0.122417115
-0.0692819 -0.068807505 0.022458594 -0.06790645 -0.07530515 0.046686612 0.043734767 0.064508125
-0.0039286073 -0.012035984 -0.09783664 0.13948953 0.07237852 -0.12272917 -0.04805969 0.03078259
0.08601508 0.1076354 -0.1086674 -0.00044709607 -0.042059183 -0.0432562 -0.08782868 -0.004626231
0.08888469 -0.051573887 0.065704376 0.08652552 -0.081742786 -0.037394583 -0.05896605 0.08691108
0.082048394 -0.06730823 -0.1210488 0.021874953 0.09702085 0.057131987 0.06431299 0.10623718
0.11861647 -0.09646782 0.059275825 -0.076293916 0.052648447 -0.12134289 -0.006852347 -0.08805805
-0.099341035 -0.007017242 0.04102992 0.119455315 -0.008440773 0.098263316 0.10392989 0.041474495
-0.1100193 0.074787244 0.101105615 -0.01361999 -0.063022256 0.058830995 -0.05396668 -0.13648164
-0.06835592 -0.05738565 -0.0042501017 -0.039870594 -0.07927916 0.06356723 -0.10250658 -0.0051048095
0.057613 -0.13156104 -0.10449649 0.08431271 0.00540775 0.011692892 -0.11639968 0.07553744
-0.07750774 0.039708644 0.06439524 0.12644756 -0.133902 -0.10731176 0.056786496 0.10231633
-0.105715714 0.020798692 -0.12817228 -0.090105586 -0.11070755 0.010777606 -0.0056481482 -0.09854782
-0.10524246 0.035956364 0.09548316 -0.111497164 -0.033083666 -0.08102397 -0.04103507 -0.09575317
0.05910092 0.074101985 0.05754222 -0.07345567 0.045551725 -0.037720386 -0.10998275 -0.019037092
0.018584184 -0.114005476 0.050272565 0.08501018 0.026140928 0.044700947 0.06916729 -0.11561677
-0.064640775 0.016272498 -0.10630205 0.018762158 0.099545375 -0.027918173 0.10788394 0.026115784
-0.088939935 -0.051776163 0.10944969 -0.098667845 0.07143686 -0.07287189 0.07384887 0.10761979
0.07940156 -0.11588001 -0.00031618224 -0.05672097 0.12181053 -0.10926606 -0.065324925 -0.105084985
-0.026366428 0.05050168 0.108271174 0.07103254 0.03844567 0.06053237 0.027591517 -0.09251234
-0.007972448 -0.10853154 -0.07758837 0.10047052 0.06167234 -0.020647172 -0.0073919273 -0.018309329
0.10305943 0.1338954 -0.091575734 -0.034627147 0.044705007 -0.0035351778 0.06804961 0.033159155
-0.048113417 -0.13106368 0.07472999 -0.05787973 0.114801124 -0.04459451 -0.085034676 0.049202174
-0.01911026 -0.12669152 0.0765179 0.04271618 0.095300175 0.09278082 0.044402797 -0.07710438
0.11412335 0.11069437 -0.026610747 -0.09120535 0.03510061 0.06943355 0.035614602 -0.042250883
-0.07661666 -0.060369328 -0.09495045 -0.08584878 0.028678749 0.008558269 0.040976416 -0.035577845
-0.10996314 -0.11754914 -0.083855346 -0.07480153 -0.10635806 0.04811533 -0.065254636 0.111005284

model.transforms.0.encoder.noise_dist.transforms.0.ar_net.l_out.0.bias f4 [33]
00000000: 6d0c 8b3d 1dd2 353d b0e1 013e cde1 8fbd
00000010: b5be f0bc 2708 893d 6897 5cbc e336 8bbd
00000020: 4d2b e63c 2f1c b9bd 3446 c6bd d117 c33c
00000030: 08cc dd3d 449e 1c3d 445d b93d 9bd3 c33d
00000040: 661e 2ebd fc70 bebd b83c 8f3b 2645 c6ba
00000050: 235a 8c3d 322d 7e3b fd03 cd3d 1a6d 443d
00000060: 2b16 d03d 4f40 c0bd 597b 2dbd 518e 093e
00000070: fee4 a0bd f3b4 2c3d 5062 c33d 8231 4ebc
00000080: 0631 b6bd
0.067894794 0.044389833 0.12683749 -0.0702549 -0.029387811 0.06691008 -0.013463832 -0.06797578
0.02809682 -0.09038579 -0.09681359 0.023815067 0.108299315 0.03823687 0.09050992 0.09561845
-0.04250946 -0.09298894 0.004371252 -0.0015126809 0.0685313 0.0038784263 0.10010526 0.04795561
0.10160478 -0.09387266 -0.04235396 0.13433196 -0.07856177 0.042164754 0.09540236 -0.012585046
-0.08896069

model.transforms.0.encoder.noise_dist.transforms.0.ar_net.l_out.1.first_token f4 [1, 1, 33]
00000000: fe84 053e 9c6d 993b 0203 d2bb de3f 5bbe
00000010: a276 823e 0cf3 86bd 2f0d 64be e9f2 82be
00000020: 8525 dabd 9189 0cbe 345b cb3d e9a1 77bd
00000030: dfb5 233e 75bd 063e 8db1 7f3e 63be 1b3e
00000040: a81f 093e a305 523e b74f 983d e188 033d
00000050: 5a4d 6a3d e0cb c23d c234 6abd fc70 34be
00000060: 73be 0a3e 99ac 0dbe ad4a 7fbe 805b 34be
00000070: 2620 08bb 02b1 18be 9979 2ebe 7e02 3a3e
00000080: 8f6c 59be
0.13039014 0.004682256 -0.00640905 -0.21411082 0.25481135 -0.06589326 -0.22270654 -0.2557595
-0.106516875 -0.13724352 0.09929505 -0.060457144 0.15987347 0.1315821 0.24970074 0.15209346
0.13390982 0.20509963 0.074370794 0.03211296 0.057202674 0.09511542 -0.05717922 -0.17621225
0.13549213 -0.13835372 -0.2493083 -0.1761303 -0.0020771115 -0.14911273 -0.17038573 0.18165013
-0.21232818

model.transforms.0.encoder.noise_dist.transforms.0.autoregressive_net.lstm.weight_ih_l0 f4 [256, 35]
00000000: e13c c93d c707 e1bd 1b37 bebd 750f 0a3e
00000010: c70f babc 8efe 22bc 4031 283d 9479 953d
00000020: 69ce 80bd 4068 e2bd 3cf2 2c3c 4af0 e73d
00000030: dc2c ffbc 35f0 ff3d 7357 b8bb 1b8e f83d
00000040: 15ff 303d c4de 053e 3f40 c93d 61a9 2c3d
00000050: 0acc 3fbc de5a 8abd f628 a43d 8429 8b3c
00000060: ca4c 4a3d 5998 003c ef92 fabd 847d 923d
00000070: 7880 103d 24a4 1c3e bcde 3f3d 1e1f 3f3d
00000080: 5075 a73d 1afc 293d 23be f33d 6943 c9bd
00000090: 7188 9f3c 446a 55bd 731a 933c 679f 17ba
000000a0: b6a8 d9bd f76a 103d 905e 0cbd 28aa f3bd
000000b0: c2a5 8fbc 1acc 9bbd 7ddd f2bc 6742 f6bd
000000c0: aa4b aebd 6ec8 84bc 1a1e e6bd c082 2dbd
000000d0: fe8a 48bc 4b37 c5bd cd2e 4ebd 04f5 a13d
000000e0: bb74 a53c 1342 a9bd 1fd6 6a3d cb17 84bd
000000f0: 5efa afb9 aa7c d63d f228 52bc a163 c93d
00000100: 3c6c d8bd 25bd e4bd ea25 89bd 1c16 8b3d
00000110: 0660 e53d aa08 5abd 7e21 953d b79b 643d
00000120: 5420 c0bc 014c 093e d77d 9f3c b1ae bd3d
00000130: cbbb ddbd 8f2f 23bd cc81 c83c b4b6 043e
00000140: 23a5 02be c1a4 7c3d 3cdf e9bd abc9 843d
00000150: 5e03 a3bd 1440 923c 8e99 803d 085b c03d
00000160: 13f2 233d 5454 f5bb 1ef0 6dbd c6cd f63c
00000170: 03c6 863d 0511 c9bd c297 a23d 4c58 4e3a
00000180: 42bd a8bd f9a4 8b3d 1742 a43c bcfb b43c
00000190: 764f 913c 4751 8cbd 1b19 a1bc 341f e7bc
000001a0: 0195 c0bd be94 f83c 59c0 52bc f845 8f3c
000001b0: ed9e 6abd 072e d8bc fdea 7b3d d738 04be
000001c0: 842a cf3d 6d72 50bd 72cc cd3d 5904 843d
000001d0: 2de5 fb3c 4156 b93d b86a 19bd d170 453c
000001e0: 627d 643d ef0c 423d 9693 d6bc 4c8a e3bd
000001f0: cf26 85bd dcbf 853c 48a3 babd fc7c 963d
00000200: 026f 623d 7ad6 773d 1659 84bc d9c9 87bd
00000210: 41e2 e7bd 1a68 183d 4a95 c03d 949e 6f3c
00000220: 3bfd 3dbd 3766 183d d662 483d e3ba df3d
00000230: 4d07 68bb 3edd ecbd 3f14 aa3c f072 f2bc
00000240: 6681 593d 88e3 07be 6476 87bc 522a b1bd
00000250: 1d95 c5bd 16eb ad3d c4c3 19bc a5b9 3fbc
00000260: c81a 30bd 350f b1bc ce37 413d b585 8bbd
00000270: ace3 a63d 3166 583d 2c06 26bd f14b 043d
00000280: c692 0fbd 9bf1 8cbd 2d05 933d 4588 023d
00000290: 186c 77bd 6f79 d1bd fe36 63bd 228f 85bd
000002a0: 1ee0 113d 1516 36bb 0bce e5bd 7973 53bd
000002b0: fc63 873d 2080 1ebd aeeb 9fbb 7de6 183e
000002c0: 79cc 41bd 9555 80bd fabc cfbc a0a2 203e
000002d0: 1338 9cbd 2fe5 863d 00d7 103e ac83 db3a
000002e0: 0b57 1abd b823 d5bd d117 ab3d 3f7a 983d
000002f0: 7ffd 973b 7d0c d0bc 7bc5 91bd 99a7 c7bd
00000300: 4df7 7ebd 5158 df3d 17b9 55bc b883 113d
00000310: af56 003e 813c 133d 8f1c 833c c678 e4bd
00000320: 89b1 f03d 74e4 23be f832 81bc e464 91bd
00000330: d1d1 b7bd 2257 943c 59d7 8cbc b1fe 56be
00000340: ad47 fcbd 9144 67bd a7d7 08bd c491 0b3e
00000350: 5390 8f3c e8d4 953d 53b7 133e 12b9 c4bd
00000360: b5cb f73c d745 83bc 4819 ffbd 255b 0fbd
00000370: cc27 ffbd be29 db3d 4356 613d 4e10 a53d
00000380: d312 96bc dc26 a63d dcf4 5f3d 440f 06be
00000390: 6918 39bd 0f0d a7bd e968 64bd a8e0 94bd
000003a0: 6d82 0a3e 8c05 ce3b c069 dfbd 9e85 c2bd
000003b0: 136d 25be 7a43 f5bc 6db2 8aba a0ee 8cbd
000003c0: d82b d9bd 96db 103d 893d d8bd fe2a c8bd
000003d0: 31b9 42bc 1022 4b3c db89 ddbc 41cc 0c3c
000003e0: 7857 e3bd 6451 e43c 9f08 b93d 9bcc 4c3d
000003f0: 880d af3d f9c6 e93d 7758 a4bd 77db acbd
0.09826065 -0.109878115 -0.09287854 0.13482459 -0.022712601 -0.009948386 0.041062593 0.0729858
-0.062893696 -0.1105504 0.0105558 0.113251284 -0.03114932 0.12496988 -0.005625659 0.121364795
0.043212015 0.1307326 0.09826707 0.04215372 -0.011706362 -0.06755613 0.08015625 0.01698757
0.049389638 0.0078488225 -0.122350566 0.071528465 0.035278767 0.1529699 0.046843275 0.046660535
0.081766725 0.04150019 0.119015 -0.098273106 0.01947424 -0.052103296 0.017956948 -0.00057839457
-0.10627882 0.03525826 -0.03426987 -0.11897689 -0.017535094 -0.07607289 -0.02964663 -0.12024384
-0.085105255 -0.016208854 -0.1123621 -0.04236102 -0.01224017 -0.09629687 -0.0503376 0.07908061
0.020197263 -0.08264556 0.057333108 -0.06449851 -0.0003356514 0.104729965 -0.012827145 0.09833456
-0.10567519 -0.11168889 -0.06696685 0.067913264 0.11199956 -0.05323092 0.07281779 0.055812564
-0.023452915 0.134079 0.019469185 0.09261835 -0.10826834 -0.039840277 0.024475954 0.1296032
-0.12758307 0.06168056 -0.11419532 0.064837776 -0.079596266 0.01785282 0.06279288 0.09392363
0.04002578 -0.0074868593 -0.05809032 0.030127417 0.065807365 -0.09817699 0.07939102 0.00078714336
-0.08239223 0.068185754 0.020051045 0.022092693 0.017738085 -0.0685144 -0.019665292 -0.028213121
-0.0940342 0.030344363 -0.012863242 0.017489418 -0.05728047 -0.026389135 0.0615034 -0.12912308
0.10115531 -0.050890375 0.100487605 0.06446142 0.030748928 0.09049655 -0.03745529 0.012050823
0.055783637 0.047375616 -0.026193421 -0.111103624 -0.06501543 0.016326837 -0.09113175 0.07348058
0.055281647 0.060507275 -0.01615576 -0.06630296 -0.113224514 0.037208654 0.09403475 0.01462521
-0.046384078 0.037206855 0.048922382 0.10924318 -0.0035404742 -0.11565636 0.020761607 -0.029595822
0.05310192 -0.1327039 -0.016535945 -0.0865065 -0.09647582 0.08492105 -0.009385053 -0.011701976
-0.04299429 -0.021613697 0.04717236 -0.06812612 0.08148894 0.052831832 -0.04053323 0.032298986
-0.035052083 -0.0688202 0.071787216 0.031868238 -0.06040582 -0.1022824 -0.055472367 -0.06521441
0.035614125 -0.0027784158 -0.1122094 -0.051623795 0.066108674 -0.03869641 -0.00488039 0.14931674
-0.04731414 -0.062663235 -0.025358666 0.15687037 -0.07627883 0.06586682 0.14144516 0.0016747615
-0.037680667 -0.104072034 0.08354152 0.074451916 0.0046383734 -0.02539658 -0.071177445 -0.097487636
-0.062247563 0.10905517 -0.013044617 0.035526007 0.12533067 0.035946373 0.016004829 -0.11155848
0.11752612 -0.16005117 -0.015771374 -0.070993215 -0.08975566 0.018107954 -0.01719253 -0.20995595
-0.123183586 -0.056461874 -0.033408787 0.13629824 0.017524874 0.07315999 0.14425401 -0.09605612
0.030248502 -0.016024513 -0.12455994 -0.03499903 -0.124587625 0.10701321 0.055013906 0.080597505
-0.018319523 0.081128806 0.054676875 -0.13091761 -0.045189295 -0.081567876 -0.055764113 -0.07269412
0.13526316 0.0062872823 -0.10908842 -0.09498142 -0.1615489 -0.029939402 -0.001058174 -0.068814516
-0.10604066 0.035365663 -0.10558612 -0.09773825 -0.011884973 0.012398258 -0.027043274 0.00859362
-0.11100668 0.027870841 0.090348475 0.049999814 0.08547503 0.11414904 -0.08024686 -0.08440297
