checkpoints/pair_2/S_6_K_6/ArgmaxAR/15_05_2023__23_09/cktp/checkpoint_0001000.tar (torch, 496859 bytes, 113 tensors)

model.base_dist.loc f4 [1, 3, 1]
-0.112333246 -0.012071907 0.035276413
00000000: f90e e6bd 3fc9 45bc 007e 103d

model.base_dist.log_scale f4 [1, 3, 1]
0.043771 0.06234853 0.04553943
00000000: 3849 333d 2c61 7f3d 8e87 3a3d

model.transforms.0.encoder.noise_dist.base_dist.net.weight f4 [6, 32, 1]
-0.10539566 0.05170033 -0.16880931 -0.2415964 0.076214515 0.065931045 -0.14026012 0.011959481
-0.18754524 0.07054212 -0.16139898 -0.18529753 0.17547213 -0.04521682 -0.090143286 0.20446058
0.17101723 -0.093545295 0.08058415 0.23760186 -0.027199352 -0.10627975 0.17063342 -0.19065431
-0.073398 -0.00283673 -0.051839143 -0.072711684 -0.20212196 0.08954057 0.035685252 0.1649694
0.04710253 0.04771566 -0.20368049 -0.14426313 0.11904062 -0.042610835 0.11640866 -0.09350563
0.11089943 0.19249402 -0.08348758 0.012695919 0.09363861 -0.051242005 -0.018729195 0.08765112
0.007215462 0.15579721 -0.034634914 0.07496307 -0.035222493 0.09480006 0.06355369 -0.15782884
-0.21422352 -0.07390291 0.13436422 -0.021675015 0.035879873 -0.16442987 0.023590868 0.02856043
0.07080777 0.12736736 -0.072549514 0.030424453 -0.1045225 0.098849386 -0.15716578 0.026216967
0.034813233 -0.040707257 -0.20765474 -0.13387409 0.13192461 0.01242307 0.021775605 0.0070925676
0.18544061 0.0017183475 0.06295723 0.045495078 0.10310793 -0.16000247 0.16848804 -0.12739961
-0.023650339 -0.121809036 0.10787433 0.20604149 -0.12881799 -0.1294725 0.040834054 -0.030949647
-0.12535116 -0.08207132 -0.10322506 -0.09580809 0.040426575 -0.11967187 -0.16851775 0.13606998
0.16031879 -0.07258465 -0.14954148 0.14891176 0.18488188 0.16861951 0.061316587 -0.05501845
-0.0068902876 0.05166543 0.18843137 -0.070360824 0.018926874 0.14718097 -0.023765525 -0.06705318
0.045102943 -0.121515416 0.09849216 0.1833058 0.15156749 0.09252798 -0.16268499 0.09424753
-0.0053163273 0.019211212 0.024406327 -0.1158678 -0.110108204 0.049987808 -0.07666341 -0.09279169
-0.06832004 0.12894061 -0.1276924 0.028991979 0.14045784 0.033601988 0.06558115 -0.033542294
-0.025374139 -0.11324043 0.1547886 0.04176484 0.06094966 0.16281892 -0.1866623 0.1539354
-0.13194573 -0.053520218 0.0455669 -0.03975915 0.01956058 0.095625974 0.06363233 -0.13426068
-0.07393519 0.075471014 -0.00956253 0.003087322 0.17199776 -0.13807964 -0.15581635 -0.113674365
-0.10704425 0.01717808 0.053986486 0.12592502 -0.09055991 -0.035085443 0.13378935 0.13044274
-0.036921374 -0.12879752 0.14905228 0.132046 0.039889198 -0.12472051 0.14747326 0.125628
-0.092682816 -0.15780704 -0.1526096 0.027121006 -0.017084552 0.1550408 -0.00015548868 0.13567187
00000000: aed9 d7bd bac3 533d 59dc 2cbe 0c65 77be
00000010: 5b16 9c3d db06 873d 59a0 0fbe b3f1 433c
00000020: dc0b 40be 6378 903d c645 25be a3be 3dbe
00000030: f7ae 333e 4635 39bd 0b9d b8bd 1d5e 513e
00000040: 241f 2f3e ad94 bfbd 4e09 a53d e74d 733e
00000050: 2dd1 debc 33a9 d9bd 87ba 2e3e e23a 43be
00000060: b151 96bd 6fe8 39bb 4855 54bd dde9 94bd
00000070: 0ff9 4ebe 0c61 b73d b32a 123d bded 283e
00000080: 95ee 403d 7f71 433d 9e91 50be b7b9 13be
00000090: 92cb f33d b388 2ebd aa67 ee3d e17f bfbd
000000a0: 3e1f e33d 271d 453e 89fb aabd 8b02 503c
000000b0: 99c5 bf3d 23e3 51bd f86d 99bc 6e82 b33d
000000c0: af6f ec3b 4e89 1f3e 57dd 0dbd 3d86 993d
000000d0: 7645 10bd 8926 c23d 7028 823d e29d 21be
000000e0: 695d 5bbe 695a 97bd c696 093e cd8f b1bc
000000f0: c6f6 123d 4e60 28be a341 c13c 90f7 e93c
00000100: aa03 913d 976c 023e d794 94bd b43c f93c
00000110: e40f d6bd 8c71 ca3d 11f0 20be f7c4 d63c
00000120: 5298 0e3d a7bc 26bd 72a3 54be 4a16 09be
00000130: 3f17 073e 228a 4b3c c162 b23c c568 e83b
00000140: 25e4 3d3e 2d3a e13a b8ef 803d 0c59 3a3d
00000150: 402a d33d b0d7 23be 2188 2c3e 0b75 02be
00000160: 5bbe c1bc 0477 f9bd 37ed dc3d 8afc 523e
00000170: dde8 03be 7094 04be 9c41 273d 1d8a fdbc
00000180: 0e5c 00be 0215 a8bd a967 d3bd 0837 c4bd
00000190: 5696 253d 8616 f5bd eb8f 2cbe ee55 0b3e
000001a0: 9c2a 243e 43a7 94bd 6721 19be 537c 183e
000001b0: ad51 3d3e 98aa 2c3e 1a27 7b3d 075b 61bd
000001c0: ecc7 e1bb 219f 533d 27f4 403e 5619 90bd
000001d0: 880c 9b3c 9cb6 163e ebaf c2bc 2d53 89bd
000001e0: ddbd 383d 13dd f8bd 42b6 c93d 84b4 3b3e
000001f0: 8234 1b3e 4f7f bd3d e596 26be d904 c13d
00000200: 9634 aebb d560 9d3c c7ef c73c 194c edbd
00000210: 6980 e1bd 04c0 4c3d b501 9dbd 9209 bebd
00000220: 61eb 8bbd 0209 043e ccc1 02be 9680 ed3c
00000230: 2ed4 0f3e 3da2 093d 694f 863d a563 09bd
00000240: 6ddd cfbc 99ea e7bd e780 1e3e 9c11 2b3d
00000250: 5aa6 793d 01ba 263e 6724 3fbe 3ea1 1d3e
00000260: c81c 07be 0438 5bbd 5ca4 3a3d 7eda 22bd
00000270: 823d a03c 8dd7 c33d ab51 823d a27b 09be
00000280: 556b 97bd 8c90 9a3d 28ac 1cbc ab54 4a3b
00000290: 2e20 303e c064 0dbe 528e 1fbe 1bce e8bd
000002a0: 043a dbbd 0bb9 8c3c ef20 5d3d 7df2 003e
000002b0: 7977 b9bd c1b5 0fbd 1300 093e c892 053e
000002c0: de3a 17bd 7fe3 03be 29a1 183e 1137 073e
000002d0: db62 233d 776d ffbd 3b03 173e a0a4 003e
000002e0: 7dd0 bdbd 2b98 21be b145 1cbe df2c de3c
000002f0: e7f4 8bbc 04c3 1e3e ad0a 23b9 91ed 0a3e

model.transforms.0.encoder.noise_dist.base_dist.net.bias f4 [6]
-0.018648988 0.12036099 0.09972847 0.0015266138 0.09368655 -0.0054459167
00000000: c3c5 98bc d37f f63d 713e cc3d a918 c83a
00000010: bcde bf3d a973 b2bb

model.transforms.0.encoder.noise_dist.transforms.0.ar_net.lstm.weight_ih_l0 f4 [128, 35]
0.12942944 -0.16248372 -0.13830787 0.19313926 -0.05028993 -0.016147494 0.067124866 0.07013119
-0.050930068 -0.16034324 0.043438416 0.14292875 -0.08310636 0.16705701 0.014994893 0.16535707
0.05819327 0.16207078 0.14301853 0.037218798 -0.033690512 -0.085903764 0.109224215 0.034180444
0.11412893 0.0026545494 -0.14005409 0.12238007 0.059456877 0.14637478 0.05153076 0.07951746
0.108505055 0.07388223 0.16853347 -0.17761265 0.033989035 -0.029174207 0.032154553 -0.042314105
-0.13196293 0.11097298 -0.10297757 -0.118776664 0.02996924 -0.08961609 0.015437849 -0.17992297
-0.06304226 -0.002953406 -0.21671826 -0.048840173 -0.06791474 -0.19908765 -0.11998887 0.14612342
-0.022462167 -0.16492917 0.03929544 -0.077040225 -0.015700977 0.20108786 0.0020811302 0.17456612
-0.16121435 -0.21849127 -0.082691185 0.082017995 0.16060427 -0.12195143 0.11850786 0.13448624
-0.06032533 0.14695781 -0.007493207 0.13947244 -0.16069457 -0.06426506 0.04530116 0.16180283
-0.1451155 0.06284347 -0.16793814 0.07198436 -0.10098613 0.03221048 0.10108935 0.13206623
0.036659744 -0.024411073 -0.117879175 0.068599634 0.09439759 -0.12457408 0.14260022 -0.018928915
-0.08264762 0.1376354 0.028787382 -0.016509015 0.034211423 -0.058932453 -0.03063354 -0.014997491
-0.11270456 0.04961018 -0.000523682 -0.00019377517 -0.02076592 -0.06475993 0.14739306 -0.14121687
0.10204997 -0.046037123 0.17206779 0.12446605 0.0707046 0.13309312 0.0154954195 0.03483931
0.0327767 0.048668716 -0.06350077 -0.19283399 -0.112783544 0.057869606 -0.16231273 0.05579453
0.04471099 0.13036767 -0.039492626 -0.06630681 -0.11763553 0.100663096 0.14862686 -0.007753321
-0.05983732 0.017270619 0.11912067 0.10729734 -0.004460029 -0.15239449 0.022906171 -0.05126147
0.05898055 -0.17925449 -0.012997416 -0.11251145 -0.12130807 0.13008182 -0.045926813 -0.021344328
-0.0403479 -0.0010058363 0.05953392 -0.108791366 0.09048658 0.06606884 -0.082975306 0.023398671
-0.046905953 -0.101048805 0.082771584 0.040966462 -0.077026725 -0.14989324 -0.06559715 -0.076753385
0.06744676 -0.009118446 -0.16027108 -0.044272162 0.074729 -0.05315177 -0.0062985215 0.11269207
-0.14019856 -0.15232189 -0.03959272 0.10424339 -0.06377358 0.17444049 0.12203469 -0.008724722
-0.02430064 -0.08520999 0.16260162 -0.013763718 0.08200376 0.04993149 -0.1467437 0.010074863
-0.023629894 0.02578512 -0.1149916 -0.031262588 0.15645783 -0.012610514 0.14296094 -0.07728136
0.057152025 -0.09916283 0.06269572 -0.067163914 -0.17181563 0.011156526 0.08763935 -0.13410746
-0.22438972 -0.11361093 -0.11133019 0.13791911 -0.04414282 0.09463325 0.13082343 -0.10870761
0.08707271 -0.10382758 -0.17607744 -0.010215779 -0.08615118 0.15711609 0.023681937 0.13232376
0.027514398 0.077735834 0.12093648 -0.17658608 -0.12605569 -0.17177737 -0.1306391 -0.122089826
0.17138124 0.10697093 -0.1067553 -0.16707133 -0.13996892 0.0033938882 0.011268939 -0.108896144
-0.16242787 0.122779585 -0.044744447 -0.11775553 -0.052955773 -0.015275842 -0.055787604 -0.017015593
-0.1297153 0.041810434 0.18000342 0.07147398 0.09737145 0.16391742 -0.1259449 -0.039852355
00000000: 2789 043e 2262 26be 94a0 0dbe 4cc6 453e
00000010: d0fc 4dbd c047 84bc c378 893d f1a0 8f3d
00000020: 0c9c 50bd 0531 24be 7bec 313d ea5b 123e
00000030: ab33 aabd fe10 2b3e 24ad 753c 5d53 293e
00000040: 115c 6e3d e2f5 253e 7373 123e bd72 183d
00000050: 10ff 09bd 50ee afbd f2b0 df3d cb00 0c3d
00000060: 6ebc e93d f3f7 2d3b 576a 0fbe 67a2 fa3d
00000070: 0e89 733d 45e3 153e eb11 533d 0dda a23d
00000080: e637 de3d 914f 973d 0a94 2c3e 17e0 35be
00000090: 1638 0b3d bffe eebc 7eb4 033d 8e51 2dbd
000000a0: 4a21 07be cd45 e33d e7e5 d2bd 2e41 f3bd
000000b0: 0d82 f53c a488 b7bd 08ef 7c3c ba3d 38be
000000c0: 4d1c 81bd ee8d 41bb 64eb 5dbe a20c 48bd
000000d0: e216 8bbd a2dd 4bbe babc f5bd 61a1 153e
000000e0: 9402 b8bc 31e3 28be 41f4 203d 44c7 9dbd
000000f0: 569f 80bc fae9 4d3e 9263 083b 76c1 323e
00000100: 6015 25be 2dbc 5fbe ff59 a9bd 0df9 a73d
00000110: 7275 243e acc1 f9bd 40b4 f23d c3b6 093e
00000120: b117 77bd 1c7c 163e 9489 f5bb ddd1 0e3e
00000130: 1e8d 24be 669d 83bd b68d 393d a4af 253e
00000140: 2899 14be 14b4 803d faf7 2bbe 896c 933d
00000150: d1d1 cebd 23ef 033d ef07 cf3d 5f3c 073e
00000160: 8728 163d bbf9 c7bc a36a f1bd f77d 8c3d
00000170: 8653 c13d b220 ffbd cb05 123e d010 9bbc
00000180: 2843 a9bd 4bf0 0c3e 84d3 eb3c ea3d 87bc
00000190: 4721 0c3d 2863 71bd 31f3 fabc 09b8 75bc
000001a0: a6d1 e6bd 0b34 4b3d b447 09ba 2030 4bb9
000001b0: 4a1d aabc dba0 84bd 35ee 163e 289b 10be
000001c0: 93ff d03d 6c91 3cbd 8a32 303e 0ee8 fe3d
000001d0: 93cd 903d 9049 083e 80e0 7d3c aab3 0e3d
000001e0: dc40 063d d958 473d b10c 82bd 4676 45be
000001f0: 0ffb e6bd ae08 6d3d 4f35 26be ce88 643d
00000200: df22 373d 1a7f 053e 05c3 21bd ddcb 87bd
00000210: e6ea f0bd 7428 ce3d a431 183e 920f febb
00000220: fa17 75bd 1d7b 8d3c 8af5 f33d b5be db3d
00000230: 6f25 92bb 4d0d 1cbe b9a5 bb3c 8cf7 51bd
00000240: 9795 713d 7d8e 37be 1df3 54bc 676c e6bd
00000250: 5e70 f8bd 2b34 053e c11d 3cbd 4dda aebc
00000260: d743 25bd 44d6 83ba d7d9 733d 02ce debd
00000270: 0751 b93d 1a4f 873d f5ee a9bd 92ae bf3c
00000280: 7520 40bd adf2 cebd 2684 a93d 73cc 273d
00000290: 30c0 9dbd 9d7d 19be cc57 86bd e130 9dbd
000002a0: 8721 8a3d 8965 15bc 1a1e 24be ba56 35bd
000002b0: 850b 993d acb5 59bd d463 cebb 1acb e63d
000002c0: 3690 0fbe 45fa 1bbe fa2b 22bd 8f7d d53d
000002d0: b99b 82bd 87a0 323e 53ed f93d 23f2 0ebc
000002e0: 2312 c7bc 9382 aebd 0a81 263e 3881 61bc
000002f0: 96f1 a73d f684 4c3d fb43 16be 0a11 253c
00000300: 7b93 c1bc 513b d33c b780 ebbd 330d 00bd
00000310: 7b36 203e 549c 4ebc 5a64 123e b145 9ebd
00000320: 3e18 6a3d e215 cbbd 9d66 803d 3c8d 89bd
00000330: 70f0 2fbe ddc9 363c 427c b33d 7753 09be
00000340: 6bc6 65be d9ac e8bd 1501 e4bd ab3a 0d3e
00000350: 1acf 34bd 14cf c13d 94f6 053e 18a2 debd
00000360: 2d53 b23d 8ea3 d4bd a54d 34be 1560 27bc
00000370: 0870 b0bd 0ae3 203e 9f00 c23c e17f 073e
00000380: e065 e13c f733 9f3d 8cad f73d fbd2 34be
00000390: be14 01be 68e6 2fbe 42c6 05be 3b0a fabd
000003a0: 907e 2f3e 9313 db3d 86a2 dabd bf14 2bbe
000003b0: 0354 0fbe ff6b 5e3b 5ba1 383c f104 dfbd
000003c0: 7e53 26be dd73 fb3d f445 37bd d029 f1bd
000003d0: 27e8 58bd 8647 7abc 8b81 64bd 4964 8bbc
000003e0: 16d4 04be 6b41 2b3d d152 383e f360 923d
000003f0: af6a c73d f8d9 273e b3f7 00be 393c 23bd

model.transforms.0.encoder.noise_dist.transforms.0.ar_net.lstm.weight_hh_l0 f4 [128, 32]
0.018559631 0.14412743 -0.12046746 0.0061652544 -0.074674055 0.028354764 -0.13424829 -0.008525736
-0.12882718 -0.1164784 0.08983585 0.10368131 0.14191924 0.034116834 0.0024609624 0.15311357
0.1355626 0.09843508 -0.07249971 0.0013238828 -0.19462048 0.16310416 0.021602679 0.036837988
-0.12547983 0.06448196 0.07697725 0.09092987 -0.11677399 0.11278337 -0.12522843 0.12909447
0.16166162 0.06682665 0.19127181 0.08715313 0.028971419 0.005932979 0.1592635 -0.14706938
-0.14346653 -0.031126555 -0.13010404 0.07206944 0.06500006 -0.03715618 -0.00899996 -0.14160725
0.16362484 0.15778862 0.1403267 -0.10529347 -0.12873478 -0.052541196 0.032194044 -0.10715455
0.08574922 0.021789033 0.016485622 0.085427254 -0.15597807 -0.13982816 0.1273516 -0.09743443
0.026446112 -0.0075627123 0.022728816 0.06463982 -0.1636477 0.097941086 0.17876703 0.19294581
0.00041639537 -0.015591006 -0.015395693 -0.077775024 0.11307646 0.061900835 -0.03740137 -0.14576882
-0.015083237 -0.13496314 0.037847146 0.057249267 -0.140063 -0.08908987 -0.17262407 -0.111023664
-0.045987904 -0.017793639 -0.16950381 -0.058543045 -0.17054833 -0.0439522 0.105865076 -0.049394663
0.11296695 0.13677081 0.15760495 -0.0427605 0.043146044 0.005649744 -0.16861542 0.053036053
-0.19761018 -0.10640104 0.03469778 0.029758792 0.010597416 0.13199036 -0.09391714 -0.0044918275
0.08583836 0.06867451 -0.12621033 0.13851692 -0.044091336 0.1583367 0.0648067 0.035834335
-0.008146576 -0.14069764 -0.016827175 0.16894515 0.13919611 -0.12427632 0.098816365 -0.0011702275
0.15952091 -0.059664447 0.11235545 0.11513287 -0.10384413 0.14889298 0.020799583 0.020589534
0.09242004 0.010168803 -0.11142858 0.12630287 0.016521167 -0.16060859 -0.0695916 0.051534202
0.106854774 -0.100562856 -0.04402986 0.014516925 0.056833442 -0.13502198 0.04214231 0.109456226
0.060288582 -0.07089224 -0.107759885 0.06023309 -0.018564405 -0.16043948 0.11867528 0.05605399
-0.005216555 -0.017174983 0.025939832 0.026523307 0.052429397 -0.10921043 0.06496494 -0.06482007
0.039762143 0.023815252 0.037919372 0.01579814 0.09166886 -0.061496545 -0.104493976 -0.18665127
-0.09284636 -0.08933755 0.21769223 0.006135414 -0.1296906 0.16820814 -0.111339144 -0.17221858
-0.049653143 -0.11472113 0.17265004 0.13111693 0.15042926 -0.07256495 -0.1396179 0.06865678
0.10606878 0.099969834 -0.10563237 0.10801019 0.1253731 0.17883003 -0.15779668 0.03152559
0.030311786 0.03298363 0.050516557 0.08929513 -0.07805906 -0.04493692 -0.12589648 7.9762125e-05
0.051929187 -0.095845714 -0.015745878 -0.11282415 -0.018186038 -0.0161537 0.02193938 0.11468
-0.14740388 -0.022698378 -0.09978682 -0.16017659 -0.16462995 0.19197555 -0.09155596 -0.14318691
0.07101702 -0.13557658 0.016040668 0.002162018 0.14384313 -0.1872625 -0.011166269 -0.12679572
-0.023462415 -0.053555816 0.11049314 -0.08825899 -0.0012565295 0.123839416 -0.12942846 0.14538668
0.117734455 -0.03447823 -0.12455348 -0.046085082 -0.12683485 -0.059079856 0.1695448 0.12341212
-0.03374429 -0.10419473 -0.047166135 -0.1275397 -0.018140744 -0.023898432 0.0072853006 -0.048920676
00000000: 5e0a 983c 2496 133e a5b7 f6bd e705 ca3b
00000010: b6ee 98bd 4048 e83c 6278 09be 87af 0bbc
00000020: 46eb 03be 3a8c eebd dcfb b73d de56 d43d
00000030: 4753 113e 18be 0b3d 1948 213b cec9 1c3e
00000040: ecd0 0a3e 5598 c93d ba7a 94bd 2386 ad3a
00000050: 974a 47be c704 273e 1af8 b03c 6ee3 163d
00000060: c97d 00be 1e0f 843d 40a6 9d3d 7139 ba3d
00000070: 3427 efbd f8fa e63d e23b 00be 5731 043e
00000080: a08a 253e 69dc 883d c2dc 433e 577d b23d
00000090: 7855 ed3c 6f69 c23b f915 233e 5b99 16be
000000a0: e4e8 12be 1efd febc fe39 05be 2499 933d
000000b0: c01e 853d 1431 18bd 9174 13bc 7e01 11be
000000c0: 458d 273e 5793 213e cdb1 0f3e 1aa4 d7bd
000000d0: 0dd3 03be 7035 57bd e7dd 033d d873 dbbd
000000e0: 499d af3d ea7e b23c db0c 873c 7cf4 ae3d
000000f0: b7b8 1fbe 1d2f 0fbe 7568 023e b48b c7bd
00000100: 84a5 d83c a1d0 f7bb c831 ba3c e261 843d
00000110: 4393 27be 5695 c83d b40e 373e 9693 453e
00000120: a44f da39 6b71 7fbc 373e 7cbc 8348 9fbd
00000130: a294 e73d bb8b 7d3d 2e32 19bd 6c44 15be
00000140: ae1f 77bc c733 0abe 9c05 1b3d 357e 6a3d
00000150: ad6c 0fbe c074 b6bd 5dc4 30be 6060 e3bd
00000160: d05d 3cbd f7c3 91bc 6892 2dbe d5ca 6fbd
00000170: 39a4 2ebe 3907 34bd cacf d83d 0f52 4abd
00000180: 375b e73d a60d 0c3e 3163 213e a225 2fbd
00000190: e8b9 303d 7d21 b93b 85a9 2cbe 553c 593d
000001a0: 535a 4abe cae8 d9bd 421f 0e3d b6c8 f33c
000001b0: c9a0 2d3c 7b28 073e a157 c0bd 2e30 93bb
000001c0: 06cc af3d 39a5 8c3d 483d 01be 61d7 0d3e
000001d0: 1e99 34bd 0423 223e 60b9 843d 06c7 123d
000001e0: 3779 05bc 0b13 10be 25d9 89bc f5ff 2c3e
000001f0: 6d89 0e3e 9584 febd 3c60 ca3d 5262 99ba
00000200: 7359 233e b562 74bd 9d1a e63d c8ca eb3d
00000210: 3bac d4bd 6777 183e e363 aa3c 62ab a83c
00000220: b846 bd3d 0d9b 263c ab34 e4bd 8a55 013e
00000230: 6657 873c 9476 24be 0a86 8ebd 8715 533d
00000240: add6 da3d e6f3 cdbd a858 34bd 66d8 6d3c
00000250: 2fca 683d 3443 0abe 6a9d 2c3d 962a e03d
00000260: 29f1 763d f32f 91bd 37b1 dcbd f9b6 763d
00000270: 6114 98bc 3f4a 24be 060c f33d de98 653d
00000280: a3ef aabb 8db2 8cbc c57f d43c 6847 d93c
00000290: 35c0 563d b8a9 dfbd 570c 853d 63c0 84bd
000002a0: a1dd 223d 3418 c33c 5851 1b3d 1a6b 813c
000002b0: e2bc bb3d cde3 7bbd f000 d6bd 8321 3fbe
000002c0: 3b26 bebd 9bf6 b6bd b6ea 5e3e 950b c93b
000002d0: 9dcd 04be c13e 2c3e c705 e4bd 115a 30be
000002e0: 1861 4bbd e9f2 eabd 2ccb 303e 8443 063e
000002f0: 210a 1a3e ef9c 94bd fff7 0ebe ed9b 8c3d
00000300: 973a d93d fcbc cc3d c955 d8bd 7234 dd3d
00000310: ce61 003e 381f 373e 7495 21be fa20 013d
00000320: 6c50 f83c d819 073d 73ea 4e3d 5de0 b63d
00000330: 6edd 9fbd c70f 38bd 02eb 00be f745 a738
00000340: b3b3 543d c24a c4bd 80fd 80bc 5910 e7bd
00000350: e3fa 94bc c454 84bc 37ba b33c 59dd ea3d
00000360: 0bf1 16be f3f1 b9bc 085d ccbd 5505 24be
00000370: c194 28be 3d95 443e b181 bbbd 979f 12be
00000380: 5f71 913d 96d4 0abe b867 833c a5b0 0d3b
00000390: 9d4b 133e bec1 3fbe baf2 36bc bdd6 01be
000003a0: 4034 c0bc 585d 5bbd 3a4a e23d 21c1 b4bd
000003b0: 22b2 a4ba 859f fd3d e588 04be 3fe0 143e
000003c0: c31e f13d 0b39 0dbd e515 ffbd b6c3 3cbd
000003d0: ffe0 01be b8fd 71bd 279d 2d3e 7ebf fc3d
000003e0: 7437 0abd 0c64 d5bd 4731 41bd c499 02be
000003f0: e69b 94bc a5c6 c3bc 88b9 ee3b 0c61 48bd

model.transforms.0.encoder.noise_dist.transforms.0.ar_net.lstm.bias_ih_l0 f4 [128]
0.18482217 -0.15263328 -0.02924545 -0.1332541 0.09143287 -0.043762702 0.06697428 -0.039757024
-0.008012196 -0.03958137 0.072461836 -0.016238172 -0.019162359 -0.07388949 0.17600559 0.14490134
0.13894957 0.1403938 0.057090666 -0.07396752 -0.09612772 0.10339508 0.1697163 -0.025133079
-0.121943004 0.18155359 0.14234789 -0.07084373 -0.0021178545 -0.14159895 0.07777353 -0.16684976
-0.13960901 0.12780145 0.17859277 0.072141364 0.02456747 -0.071737215 -0.13713947 -0.16964741
0.05118782 -0.024272777 -0.11580057 0.1491986 0.053711265 0.047626853 0.035166882 -0.106295735
-0.14515483 0.033073813 -0.18541884 0.117338985 0.099659294 -0.1351057 0.14254007 -0.0039063543
0.010725061 0.034867883 0.01683322 0.06636758 -0.030756913 -0.04418621 0.16885209 -0.14292069
-0.050985895 0.08091724 -0.09055249 0.071076535 -0.0016028341 -0.0015205829 0.11355445 -0.057849303
-0.06788926 0.14510444 -0.17963533 -0.15789509 0.054631907 0.11987095 0.09762168 -0.036577772
0.030936193 0.14526218 -0.012162527 -0.034913592 0.06758378 0.14267194 -0.16452803 -0.13862407
0.08534837 -0.068153225 0.0970908 0.03020381 -0.03035426 0.11479401 -0.0075545562 -0.035939578
0.0007274579 0.108233966 0.10954202 -0.046207994 0.1194275 -0.1308384 0.023867102 -0.003154496
-0.10060813 0.037697837 0.010397311 -0.057644896 0.1564557 0.103758544 0.1346891 -0.17845693
0.15847564 0.19036926 -0.14464115 0.10563432 0.03125256 -0.02789352 -0.13968296 -0.074608475
-0.019327367 -0.044789802 -0.15944521 -0.024999153 0.054917373 0.012653217 -0.099175595 0.004225279
00000000: 0642 3d3e e64b 1cbe 2794 efbc c373 08be
00000010: 2841 bb3d 8540 33bd d029 893d 43d8 22bd
00000020: 9645 03bc 1320 22bd df66 943d ea05 85bc
00000030: 61fa 9cbc 5f53 97bd cf3a 343e 0461 143e
00000040: cc48 0e3e 64c3 0f3e e7d7 693d 487c 97bd
00000050: 9cde c4bd cdc0 d33d 1cca 2d3e e3e3 cdbc
00000060: 41bd f9bd 2fe9 393e a5c3 113e 8416 91bd
00000070: b4cb 0abb 51ff 10be ba47 9f3d aada 2abe
00000080: aaf5 0ebe 62de 023e 06e1 363e dabe 933d
00000090: b841 c93c f6ea 92bd 4a6e 0cbe 0db8 2dbe
000000a0: 52aa 513d b4d7 c6bc d928 edbd 85c7 183e
000000b0: 5800 5c3d 6014 433d 260b 103d 94b1 d9bd
000000c0: 78a3 14be 6878 073d 70de 3dbe 6c4f f03d
000000d0: 2c1a cc3d 2659 0abe 06f6 113e e000 80bb
000000e0: 2bb8 2f3c a0d1 0e3d d2e5 893c baeb 873d
000000f0: ecf5 fbbc 99fc 34bd 90e7 2c3e cd59 12be
00000100: 96d6 50bd f0b7 a53d 9573 b9bd 9390 913d
00000110: 3016 d2ba 4c4e c7ba 3c8f e83d 64f3 6cbd
00000120: 8609 8bbd 4296 143e 53f2 37be 40af 21be
00000130: b5c5 5f3d e77e f53d e0ed c73d 93d2 15bd
00000140: e66d fd3c 9cbf 143e 5645 47bc 8e01 0fbd
00000150: 5d69 8a3d 9818 123e 097a 28be 78f3 0dbe
00000160: 20cb ae3d eb93 8bbd 8bd7 c63d fb6d f73c
00000170: 7fa9 f8bc 1f19 eb3d 368c f7bb 6135 13bd
00000180: e0b2 3e3a c5a9 dd3d 9157 e03d 9844 3dbd
00000190: 6896 f43d 80fa 05be f184 c33c a9bb 4ebb
000001a0: a30b cebd 0c69 1a3d 7c59 2a3c 0e1d 6cbd
000001b0: ec35 203e 5c7f d43d f0eb 093e 6abd 36be
000001c0: 7047 223e 29f0 423e cf1c 14be ce56 d83d
000001d0: af02 003d f480 e4bc 0d09 0fbe 54cc 98bd
000001e0: 6d54 9ebc 8375 37bd 9b45 23be 06cb ccbc
000001f0: 0af1 603d 704f 4f3c 931c cbbd 3674 8a3b

model.transforms.0.encoder.noise_dist.transforms.0.ar_net.lstm.bias_hh_l0 f4 [128]
-0.05539528 0.037489258 -0.018184924 0.092074655 -0.06488826 0.16015488 -0.15581961 -0.08593137
-0.089572646 0.16060199 0.10716313 -0.102891855 0.034260992 0.039653566 -0.080937386 -0.000110103065
-0.015689276 -0.077615246 -0.07460667 0.18029119 -0.05988505 -0.0663736 0.092614144 -0.17515203
0.14942643 0.023346767 0.1367114 0.12404145 0.052322775 0.14176118 0.072471894 -0.027201762
0.0864169 -0.15657596 0.12897055 0.12724358 0.17528765 0.056389593 0.06548115 0.16738993
0.0102086235 0.049427453 0.14627859 -0.16953477 -0.09222252 0.053212922 0.03284941 -0.063259415
-0.0012464719 -0.01067158 -0.056149814 0.16856904 0.07892086 -0.16814564 -0.13572907 0.1317367
-0.15793307 -0.08099741 0.005734059 -0.04226655 0.13333833 0.12008766 0.15591498 0.04214854
-0.15703312 0.13174286 0.15101212 -0.071146265 -0.06170424 -0.056011766 0.1104725 0.10141487
0.13469903 0.09890595 -0.083694875 -0.1525104 0.06942235 0.12740701 -0.12746789 0.019008718
-0.17940286 -0.061999198 -0.13623531 -0.037678976 -0.023185702 -0.060684554 -0.0029911664 -0.14852543
0.09101158 0.032015633 0.085602924 -0.17198472 0.1354593 0.16861866 -0.109709576 0.120844565
0.17416935 -0.19033635 0.11902405 -0.072387435 -0.055983704 -0.06517566 -0.025909927 -0.087042205
-0.075767055 -0.0861653 0.0009203585 -0.08446383 -0.0041367062 -0.059627127 -0.026554283 0.121555805
-0.13668826 0.019483544 0.05715584 0.1337997 -0.054576077 0.019736413 -0.02418772 0.1152881
-0.016931845 0.11140548 0.14568648 -0.061045665 -0.082730226 -0.119987465 -0.049545392 0.11380319
00000000: 29e6 62bd 568e 193d 8df8 94bc a391 bc3d
00000010: 23e4 84bd a4ff 233e 2d8f 1fbe c9fc afbd
00000020: dd71 b7bd d974 243e 5878 db3d f7b8 d2bd
00000030: 4155 0c3d c76b 223d 80c2 a5bd 22e7 e6b8
00000040: cc86 80bc bef4 9ebd 62cb 98bd 419e 383e
00000050: 074a 75bd e2ee 87bd 7cac bd3d 0e5b 33be
00000060: 3e03 193e b841 bf3c 13fe 0b3e 7209 fe3d
00000070: 6850 563d d829 113e 256c 943d 3bd6 debc
00000080: 58fb b03d 7355 20be db10 043e 244c 023e
00000090: 9b7e 333e c6f8 663d fb1a 863d 4468 2b3e
000000a0: 1242 273c 7174 4a3d 0eca 153e 869a 2dbe
000000b0: 29df bcbd cbf5 593d 1a8d 063d 278e 81bd
000000c0: a860 a3ba dad7 2ebc 59fd 65bd 5d9d 2c3e
000000d0: 43a1 a13d 5f2e 2cbe 90fc 0abe fce5 063e
000000e0: 35b9 21be f8e1 a5bd c6e4 bb3b b11f 2dbd
000000f0: d889 083e 85f0 f53d 2da8 1f3e f3a3 2c3d
00000100: 4acd 20be 9ae7 063e eca2 1a3e 22b5 91bd
00000110: 96bd 7cbd 986c 65bd 683f e23d 99b2 cf3d
00000120: 8bee 093e 348f ca3d 3868 abbd b02b 1cbe
00000130: 4e2d 8e3d fc76 023e f186 02be 2cb8 9b3c
00000140: 62b5 37be dff2 7dbd 4581 0bbe 4555 1abd
00000150: f1ef bdbc 5e90 78bd 7207 44bb 0d17 18be
00000160: 4764 ba3d d322 033d 9650 af3d c31c 30be
00000170: d8b5 0a3e 5faa 2c3e 6aaf e0bd 5b7d f73d
00000180: 7359 323e 88e7 42be e2c2 f33d dd3f 94bd
00000190: 2b4f 65bd d17a 85bd 0e41 d4bc 2f43 b2bd
000001a0: c22b 9bbd 6f77 b0bd 3744 713a 5ffb acbd
000001b0: 358d 87bb 933b 74bd 5e88 d9bc 40f2 f83d
000001c0: 02f8 0bbe f49b 9f3c 3e1c 6a3d ca02 093e
000001d0: 2a8b 5fbd 42ae a13c 5325 c6bc 2b1c ec3d
000001e0: a7b4 8abc 8e28 e43d d62e 153e 050b 7abd
000001f0: 776e a9bd fdbb f5bd 1cf0 4abd a611 e93d

model.transforms.0.encoder.noise_dist.transforms.0.ar_net.lstm.weight_ih_l1 f4 [128, 32]
0.13689846 -0.14694665 0.04829388 -0.0021410866 0.029555049 -0.15606192 -0.12015239 0.09862158
0.049765896 -0.14897034 0.16601469 0.053053185 0.16070168 -0.004217065 0.13709651 -0.05640202
-0.12698045 0.01425925 0.14420508 0.06408888 0.12935828 0.117760785 -0.15928772 0.08238597
0.10915486 0.0812084 -0.17016904 -0.04257363 0.10995258 0.15953636 -0.06828473 0.110754035
-0.01371055 0.07625817 -0.15852414 -0.086533494 -0.08336369 -0.09943099 0.025944546 0.058216896
-0.016782898 0.0065740803 0.1527022 -0.17997135 0.13416325 0.15721269 0.1477046 0.15638037
0.16405453 0.10988252 0.11278782 -0.08607604 -0.0631372 0.052821744 -0.03734757 0.05457238
0.07356286 0.0777348 0.017101206 0.031345136 0.029824153 0.060861837 0.11290992 -0.07658956
0.14100258 0.01665454 0.16512272 -0.08139568 -0.14779149 0.076521404 -0.119963236 0.13279068
0.11324536 0.06326449 -0.00743758 -0.02887711 0.106375016 0.100865245 0.048845284 -0.042003408
-0.02238741 -0.053829476 0.0190164 0.04824748 0.12226666 -0.05046229 0.054409735 -0.12581964
-0.10953937 0.15045564 -0.12685585 0.01705234 -0.08229392 0.047961496 0.02763793 -0.011560215
-0.17029557 0.13413775 0.0039717113 0.05407907 0.08745977 0.098513305 -0.049525313 0.032116722
-0.044152346 -0.1452907 0.13653076 0.12567338 -0.056945235 0.16845442 -0.09024685 0.07989481
-0.03493059 0.109057866 0.106169425 -0.18567087 -0.13589184 0.015582758 0.043296527 -0.06749483
-0.13648851 -0.1401627 0.12069852 -0.055105332 0.099018574 0.044694416 0.03991382 0.14158057
-0.07671871 0.040445548 0.060806047 0.07256367 -0.07795761 -0.055559494 0.023486255 0.16192973
0.07607453 0.025393851 -0.029279 -0.113625646 0.0065200464 -0.10081164 0.070440754 0.027867038
-0.097212195 0.20372753 0.07657437 0.086427145 0.16992295 -0.08233712 0.10535109 0.0037888612
-0.013304721 0.029041635 0.082202144 -0.16118084 0.05520983 0.042408988 0.037663355 0.0679382
0.07439895 0.017605497 -0.16390696 -0.14740427 0.1028044 0.04997662 -0.1509785 0.01145398
0.06578787 -0.1567465 0.09449652 0.08273541 -0.09382974 -0.13874 0.15932417 -0.16043633
-0.102441646 -0.09775861 0.07748429 -0.12746902 -0.037340753 -0.14310354 -0.010546537 0.13378315
-0.017772986 0.12901737 0.11078811 0.006255782 -0.076108195 -0.0541485 0.12651655 0.108476944
0.05269443 -0.03549815 0.10445903 -0.11814254 -0.17718951 0.12339792 -0.19199368 -0.008439755
0.07699023 -0.029731303 -0.121499166 -0.13705221 0.0021116019 0.14926298 0.021188298 0.15742718
0.14120066 -0.06845158 -0.14428572 0.04796212 0.15960842 -0.16854183 0.016888732 0.041337498
-0.011758983 -0.18006815 -0.043527205 -0.14122815 0.12930281 0.16842954 -0.16702046 -0.05584171
0.023383439 0.07740259 -0.15482816 -0.13224186 0.01335933 -0.011815514 -0.043345876 0.053067155
0.07730272 -0.07054958 0.06910677 0.16092917 -0.04013876 -0.09037748 -0.012511637 0.15694505
0.11644805 0.08032972 -0.01063937 -0.02499521 -0.1357538 -0.13248838 0.12030193 -0.11800695
-0.040603835 0.054557398 0.045844957 0.06398511 0.02216097 -0.015059404 -0.080134444 -0.06902673
00000000: 1c2f 0c3e 2f79 16be cecf 453d 7951 0cbb
00000010: 6e1d f23c b2ce 1fbe 7512 f6bd 1cfa c93d
00000020: 53d7 4b3d ae8b 18be c1ff 293e 4c4e 593d
00000030: fb8e 243e 4e2f 8abb 0763 0c3e ce05 67bd
00000040: 2a07 02be a19f 693c 7faa 133e 0841 833d
00000050: 7f76 043e 912c f13d 521c 23be fab9 a83d
00000060: 958c df3d 9750 a63d cb40 2ebe b061 2ebd
00000070: d12e e13d 805d 233e ddd8 8bbd 03d3 e23d
00000080: 37a2 60bc 3e2d 9c3d 2754 22be 7938 b1bd
00000090: 95ba aabd 7aa2 cbbd a889 d43c d774 6e3d
000000a0: 4a7c 89bc 626b d73b f75d 1c3e 694a 38be
000000b0: 1762 093e 5dfc 203e e03f 173e 2d22 203e
000000c0: e9fd 273e 160a e13d 4dfd e63d a348 b0bd
000000d0: 144e 81bd 9d5b 583d c4f9 18bd 4a87 5f3d
000000e0: 20a8 963d 6c33 9f3d d417 8c3c c263 003d
000000f0: c851 f43c 434a 793d 513d e73d fdda 9cbd
00000100: fb62 103e 1a6f 883c ee15 293e c7b2 a6bd
00000110: a756 17be 41b7 9c3d 49af f5bd 48fa 073e
00000120: 2fed e73d d090 813d f1b6 f3bb b08f ecbc
00000130: 25db d93d 7092 ce3d fe11 483d c40b 2cbd
00000140: cd65 b7bc 4c7c 5cbd 48c8 9b3c 269f 453d
00000150: f166 fa3d 8cb1 4ebd bedc 5e3d ddd6 00be
00000160: 2d56 e0bd 0b11 1a3e 80e6 01be 59b1 8b3c
00000170: b789 a8bd 4673 443d f168 e23c 0e67 3dbc
00000180: f661 2ebe 685b 093e 2125 823b 0482 5d3d
00000190: 1c1e b33d 58c1 c93d 0edb 4abd d38c 033d
000001a0: 17d9 34bd 16c7 14be b8ce 0b3e 86b0 003e
000001b0: 683f 69bd 517f 2c3e 57d3 b8bd e49f a33d
000001c0: 6113 0fbd bb59 df3d 5b6f d93d 8120 3ebe
000001d0: 3b27 0bbe d34e 7f3c b357 313d bb3a 8abd
000001e0: a5c3 0bbe d086 0fbe c930 f73d 21b6 61bd
000001f0: 40ca ca3d 7e11 373d ac7c 233d 7ffa 103e
00000200: b31e 9dbd 3baa 253d c30f 793d 439c 943d
00000210: 3da8 9fbd 5a92 63bd 3f66 c03c e8d0 253e
00000220: f7cc 9b3d c406 d03c 83da efbc 90b4 e8bd
00000230: 1da6 d53b 5576 cebd 3e43 903d 6a49 e43c
00000240: 3017 c7bd f39d 503e 06d3 9c3d b700 b13d
00000250: 4800 2e3e 5da0 a8bd 50c2 d73d 8b4e 783b
00000260: 0bfc 59bc b9e8 ed3c 9959 a83d 970c 25be
00000270: b423 623d 0cb5 2d3d e444 1a3d 2f23 8b3d
00000280: 7a5e 983d 6739 903c 3ad7 27be 25f1 16be
00000290: 1d8b d23d 49b4 4c3d 1c9a 1abe 79a9 3b3c
000002a0: cabb 863d 2882 20be 6487 c13d 2f71 a93d
000002b0: cf29 c0bd dc11 0ebe e025 233e 6c49 24be
000002c0: edcc d1bd ab35 c8bd 15b0 9e3d 3d87 02be
000002d0: 9ef2 18bd bc89 12be 62cb 2cbc 73fe 083e
000002e0: a798 91bc 211d 043e e0e4 e23d 4efd cc3b
000002f0: 9dde 9bbd d1ca 5dbd 8e8d 013e 2929 de3d
00000300: 1dd6 573d 8266 11bd 9eee d53d b7f4 f1bd
00000310: 2b71 35be 0cb8 fc3d fe99 44be e646 0abc
00000320: 0ead 9d3d 108f f3bc 8ed4 f8bd 6a57 0cbe
00000330: cd62 0a3b 65d8 183e 1593 ad3c 9734 213e
00000340: e896 103e 5830 8cbd a3bf 13be ee73 443d
00000350: 6470 233e 3b96 2cbe 3d5a 8a3c 8251 293d
00000360: c0a8 40bc c963 38be 9549 32bd 1d9e 10be
00000370: f567 043e cb78 2c3e 6907 2bbe 47ba 64bd
00000380: a08e bf3c 4085 9e3d 468b 1ebe 696a 07be
00000390: 17e1 5a3c dc95 41bc 728b 31bd f25c 593d
000003a0: e350 9e3d 4c7c 90bd da87 8d3d 9eca 243e
000003b0: 8a68 24bd d417 b9bd 9cfd 4cbc 34b6 203e
000003c0: 517c ee3d e983 a43d c150 2ebc c1c2 ccbc
000003d0: 0b03 0bbe 09ab 07be dc60 f63d a1ad f1bd
000003e0: 3550 26bd 9477 5f3d ecc7 3b3d a00a 833d
000003f0: ec8a b53c b8bb 76bc 871d a4bd e35d 8dbd

model.transforms.0.encoder.noise_dist.transforms.0.ar_net.lstm.weight_hh_l1 f4 [128, 32]
0.16638216 0.047966428 0.16934238 0.16945778 0.12048484 0.1598626 -0.09201279 -0.065935165
0.04805755 0.15951958 0.1449515 -0.11848388 0.032899275 0.03429535 0.07719552 -0.09806944
-0.04795515 -0.072103366 0.095783845 -0.07256089 0.12502678 -0.005927835 0.18474625 0.10558653
-0.005880919 0.04614918 -0.04101553 0.06832954 0.057607047 0.10941024 0.095743306 -0.042625476
-0.12172892 -0.10558722 -0.09348668 -0.10538087 0.07120449 0.029736152 -0.0025073073 0.031231007
0.040790737 0.11469107 0.09461864 -0.12780471 0.025514329 0.11417056 -0.08573475 0.15247265
-0.1539362 -0.13776082 -0.10305919 -0.07902264 -0.1604063 0.07073478 -0.055269424 -0.005804402
0.092494965 -0.17215379 0.15817 -0.004067827 -0.068558194 0.13445295 -0.16241874 0.0075805485
-0.17237407 0.14307636 -0.016491393 -0.07201641 -0.05214903 0.1302542 -0.035795003 0.12160832
0.077960506 -0.20162939 -0.19237997 0.10567789 -0.11795388 0.18313894 0.01732589 0.12431923
-0.17821375 -0.15784696 -0.054863695 0.06529508 -0.02753112 0.052970417 -0.1609025 0.08565572
0.04147202 0.0220423 0.0347025 8.999576e-05 -0.0027777706 0.023873968 -0.14535014 0.12162456
-0.18896674 -0.089358404 0.028712554 -0.11790294 0.2051699 -0.1119497 0.07185507 0.043256186
0.13765821 -0.12522951 -0.09824316 0.035979543 0.07674913 -0.03651411 0.14789383 0.0045622364
0.18992317 0.08639469 -0.15472059 0.06751213 -0.10106106 0.005394612 0.08241098 0.18743724
-0.016174115 -0.106907725 -0.08291797 -0.057272132 -0.1413359 -0.017505962 0.1335122 -0.034618706
0.03699879 -0.2125191 0.022617288 0.034606557 0.2384829 -0.01363486 0.13851194 0.016533213
-0.13087416 0.23177052 -0.06755878 -0.14113364 -0.07997927 -0.066040084 0.032519557 -0.09910543
0.073820636 0.19732413 0.0740395 -0.01896792 0.046792556 -0.099532254 -0.09536723 -0.121287
0.047480024 0.00055499276 -0.06834823 -0.09133906 0.21255282 0.253634 0.08371701 0.073500335
-0.13849337 0.1502798 -0.033270217 0.18557248 0.04736048 0.06795142 -0.029843444 0.09110625
0.034005553 0.070800014 0.17991929 -0.007283019 0.15202923 -0.113066636 0.048671387 0.024421401
0.1192802 -0.074378796 -0.18675703 0.08613046 -0.017281549 0.1765708 0.15709026 0.12981406
-0.17539553 0.14477693 -0.13553736 0.10414163 -0.04067865 0.14320502 0.15127566 0.12423353
0.067599274 0.0026659803 0.015594472 0.17453629 -0.12452217 -0.17800567 0.10079927 0.0628464
-0.11082667 0.071805276 0.078176856 0.094326384 -0.087861694 -0.17050637 0.066382244 -0.11535777
0.15778068 -0.0035901882 -0.06759865 0.17269796 0.08790731 -0.07148867 -0.16177543 0.011860855
-0.0959929 0.07387815 0.123722 0.023060048 0.021724066 -0.11147574 -0.077678666 -0.13861474
0.053018678 0.12916642 -0.13317403 0.01764964 -0.022903712 -0.093158826 0.1045487 0.1657341
-0.16013539 -0.075253755 0.0143738855 0.12527695 0.05852907 0.13106862 -0.15438466 -0.0659033
-0.07474883 -0.122426264 0.1177083 2.4098135e-05 -0.068028554 0.086033024 0.071701825 -0.08443716
-0.14981514 -0.035705555 -0.03823672 0.07460836 0.0027519148 -0.022442073 0.016767427 0.13415587
00000000: 1660 2a3e 7278 443d 1768 2d3e 5786 2d3e
00000010: c1c0 f63d 05b3 233e 3471 bcbd 0409 87bd
00000020: fed7 443d 1a59 233e 2b6e 143e ada7 f2bd
00000030: 64c1 063d 4879 0c3d af18 9e3d a1d8 c8bd
00000040: 9f6c 44bd eeaa 93bd 522a c43d ce9a 94bd
00000050: 0507 003e 493e c2bb 1f2e 3d3e c03d d83d
00000060: b9b4 c0bb ec06 3d3d e6ff 27bd 5cf0 8b3d
00000070: 5ef5 6b3d 7a12 e03d 1115 c43d 0d98 2ebd
00000080: 034d f9bd 1d3e d8bd f275 bfbd edd1 d7bd
00000090: a9d3 913d 3b99 f33c a351 24bb 2bd8 ff3c
000000a0: 3014 273d 27e3 ea3d 6bc7 c13d 3ddf 02be
000000b0: 6d03 d13c 41d2 e93d b395 afbd ca21 1c3e
000000c0: 74a1 1dbe 2c11 0dbe b210 d3bd 9fd6 a1bd
000000d0: 8d41 24be 65dd 903d 3162 62bd da32 bebb
000000e0: 006e bd3d 1549 30be 51f7 213e 684b 85bb
000000f0: 3d68 8cbd 09ae 093e 1951 26be 4066 f83b
00000100: d482 30be 9c82 123e f518 87bc 577d 93bd
00000110: 399a 55bd 5b61 053e c89d 12bd c80d f93d
00000120: c2a9 9f3d ef77 4ebe 41ff 44be a66d d83d
00000130: ce91 f1bd c688 3b3e 06ef 8d3c 159b fe3d
00000140: aa7d 36be a2a2 21be c1b8 60bd 6db9 853d
00000150: f288 e1bc 82f7 583d a0c3 24be 446c af3d
00000160: 91de 293d 0e92 b43c 3524 0e3d 1bbc bc38
00000170: 420b 36bb 5793 c33c abd6 14be 4c16 f93d
00000180: 7f80 41be 8a01 b7bd 9736 eb3c 1977 f1bd
00000190: 0f18 523e e245 e5bd c028 933d 662d 313d
000001a0: 46f6 0c3e 2a3c 00be b633 c9bd 495f 133d
000001b0: a62e 9d3d d28f 15bd 7b71 173e d07e 953b
000001c0: 387b 423e b3ef b03d 136f 1ebe cd43 8a3d
000001d0: 1af9 cebd 49c5 b03b 16c7 a83d 8cef 3f3e
000001e0: 947f 84bc 70f2 dabd e6d0 a9bd 2f96 6abd
000001f0: 5cba 10be aa68 8fbc 6cb7 083e 58cc 0dbd
00000200: 0b8c 173d 9b9e 59be e447 b93c 9bbf 0d3d
00000210: dd34 743e bf64 5fbc 13d6 0d3e a970 873c
00000220: e003 06be 4055 6d3e 425c 8abd 5685 10be
00000230: 2ccc a3bd 0640 87bd 3a33 053d caf7 cabd
00000240: 462f 973d 560f 4a3e 05a2 973d 9d62 9bbc
00000250: 8da9 3f3d 91d7 cbbd e54f c3bd 5265 f8bd
00000260: 6a7a 423d ef7c 113a 28fa 8bbd f90f bbbd
00000270: 72a7 593e 51dc 813e d373 ab3d 5887 963d
00000280: 35d1 0dbe f3e2 193e 5a46 08bd b606 3e3e
00000290: 10fd 413d 1d2a 8b3d 3d7a f4bc ea95 ba3d
000002a0: 6849 0b3d 99ff 903d c33c 383e 64a6 eebb
000002b0: 8dad 1b3e 7b8f e7bd a65b 473d 640f c83c
000002c0: 2d49 f43d e953 98bd 3c3d 3fbe 2b65 b03d
000002d0: 0992 8dbc face 343e 45dc 203e faed 043e
000002e0: e39a 33be 6740 143e 4eca 0abe 3548 d53d
000002f0: a89e 26bd 56a4 123e 02e8 1a3e 266e fe3d
00000300: 7d71 8a3d bab7 2e3b f57f 7f3c a4b9 323e
00000310: 7b05 ffbd 1e47 36be d96f ce3d 9db5 803d
00000320: 18f9 e2bd a50e 933d 301b a03d 312e c13d
00000330: d5f0 b3bd 3999 2ebe 6af3 873d b240 ecbd
00000340: 4291 213e 5d49 6bbb 2971 8abd bcd7 303e
00000350: bf08 b43d a768 92bd 75a8 25be 0854 423c
00000360: ed97 c4bd 6d4d 973d f661 fd3d 6de8 bc3c
00000370: abf6 b13c 654d e4bd fe15 9fbd 06f1 0dbe
00000380: 1d2a 593d 3444 043e c65e 08be fa95 903c
00000390: 91a0 bbbc 0eca bebd a11d d63d 33b6 293e
000003a0: 88fa 23be a41e 9abd 7280 6b3c 9a48 003e
000003b0: 2ebc 6f3d da36 063e 0317 1ebe 4ff8 86bd
000003c0: ea15 99bd 9fba fabd 0d11 f13d 5a26 ca37
000003d0: 8e52 8bbd 1532 b03d 68d8 923d 64ed acbd
000003e0: 2469 19be fd3f 12bd 1b9e 1cbd 45cc 983d
000003f0: 7859 343b 70d8 b7bc d85b 893c 2860 093e

model.transforms.0.encoder.noise_dist.transforms.0.ar_net.lstm.bias_ih_l1 f4 [128]
-0.10315789 0.009203355 0.026109468 0.12627858 0.009843851 -0.011815636 -0.039083112 0.06838469
-0.045977913 0.1517177 -0.031672504 0.14035065 0.164067 -0.10019764 -0.13280594 -0.08675876
0.12927231 0.15651156 0.0331454 -0.09613933 0.099734135 0.10067757 0.17318842 -0.0913992
0.15823682 0.18366477 0.17450482 0.04268526 -0.17866185 -0.11123419 0.011908634 0.026386393
0.15676607 0.08891848 -0.102387585 -0.013710704 0.0739464 -0.07014652 0.16292502 -0.13751213
-0.066537805 -0.15445104 0.01909341 -0.049048617 0.04936096 0.09412407 0.14805156 -0.0021680375
0.118727624 0.18050052 0.083887406 -0.032661617 -0.098071665 0.006292203 -0.077412084 0.15023497
-0.017937468 0.090400144 -0.070975 0.18115163 0.023365771 -0.09533282 -0.076342784 0.06840054
-0.15431559 0.01653406 0.045557838 0.11880042 0.12751622 -0.008775676 -0.10461808 0.1542192
-0.15927583 0.00566797 0.026781905 0.12562042 0.010587753 0.040256657 -0.12592739 -0.11962297
0.038801957 -0.0026902528 0.12413949 0.0030255343 0.106446646 0.16564266 -0.07457013 0.0044438015
0.11006302 -0.10536723 0.10559792 -0.16232853 0.118524626 0.09207456 0.17336033 -0.0049419603
-0.033538144 0.030372653 0.031232573 0.15792884 0.14913547 -0.08356945 0.05056605 -0.055339526
0.09988715 -0.04634511 -0.025441822 -0.08940726 -0.053082276 -0.07503234 -0.075754926 -0.034831416
0.073985994 0.1386545 -0.087963 -0.09416203 0.0659576 -0.016275853 -0.02628706 -0.10776915
-0.11445539 0.05452716 -0.07564554 0.12088154 0.15250434 0.14493313 -0.13886479 0.06528809
00000000: 7244 d3bd abc9 163c 86e3 d53c 2c4f 013e
00000010: 1b48 213c 5f96 41bc 9d15 20bd 460d 8c3d
00000020: 5653 3cbd e25b 1b3e 07bb 01bd 15b8 0f3e
00000030: 2e01 283e 6c34 cdbd 48fe 07be 94ae b1bd
00000040: f65f 043e 9144 203e 79c3 073d b2e4 c4bd
00000050: 6941 cc3d 0b30 ce3d 4e58 313e 812f bbbd
00000060: d508 223e 9e12 3c3e 64b1 323e bdd6 2e3d
00000070: 22f3 36be c0ce e3bd 6e1c 433c 4728 d83c
00000080: 4987 203e e41a b63d 95b0 d1bd dca2 60bc
00000090: 3671 973d fba8 8fbd d1d5 263e fbcf 0cbe
000000a0: f944 88bd 6a28 1ebe c869 9c3c 34e7 48bd
000000b0: b82e 4a3d 1fc4 c03d d49a 173e a215 0ebb
000000c0: 7827 f33d 21d5 383e 29cd ab3d 30c8 05bd
000000d0: ccd9 c8bd d32e ce3b 3a8a 9ebd 32d7 193e
000000e0: 99f1 92bc b623 b93d 575b 91bd d07f 393e
000000f0: 9369 bf3c db3d c3bd 9b59 9cbd 9515 8c3d
00000100: e804 1ebe 7072 873c db9a 3a3d a24d f33d
00000110: 9d93 023e dac7 0fbc 0142 d6bd a3eb 1d3e
00000120: 3419 23be 61ba b93b ba65 db3c a4a2 003e
00000130: 4178 2d3c 2ae4 243d 1cf3 00be e3fc f4bd
00000140: cdee 1e3d f44e 30bb d83c fe3d 0b48 463b
00000150: b300 da3d 3b9e 293e 39b8 98bd 4f9d 913b
00000160: b868 e13d c6ca d7bd b943 d83d 7339 26be
00000170: 0abd f23d 9691 bc3d 5f85 313e 2bf0 a1bb
00000180: 4b5f 09bd 12d0 f83c 74db ff3c 19b8 213e
00000190: f8b6 183e 7626 abbd 591e 4f3d b3ab 62bd
000001a0: a291 cc3d 5fd4 3dbd 5e6b d0bc 271b b7bd
000001b0: cd6c 59bd 8eaa 99bd 6625 9bbd 63ab 0ebd
000001c0: f885 973d 72fb 0d3e f225 b4bd 06d8 c0bd
000001d0: c714 873d f054 85bc f657 d7bc 12b6 dcbd
000001e0: 9667 eabd df57 5f3d 0dec 9abd be90 f73d
000001f0: 192a 1c3e 5a69 143e 9232 0ebe c3b5 853d

model.transforms.0.encoder.noise_dist.transforms.0.ar_net.lstm.bias_hh_l1 f4 [128]
-0.09142996 0.14028586 -0.11485173 -0.0062910356 0.15977626 0.048678745 -0.14611833 -0.111476816
0.07641122 -0.006942422 -0.040570505 0.06313808 -0.11772899 -0.0272133 0.086472616 -0.113796964
0.10088424 0.1873346 0.08855202 -0.08568512 -0.11527283 0.17975403 0.02483765 -0.14860055
-0.13176212 -0.011791351 -0.081064545 -0.04855213 -0.04689416 0.12949605 -0.1281309 0.19780833
0.06101697 0.16250482 0.018355872 -0.12995254 0.22394022 -0.005336158 -0.12159727 0.12690033
0.16051173 -0.12853418 0.15313752 -0.122289374 -0.13622838 -0.03178869 0.004762835 0.07725704
0.101270325 -0.114410944 0.045906343 0.10949151 -0.08665804 0.1378295 0.10581636 -0.15805851
-0.015684161 0.06348415 0.065884754 -0.12540925 -0.16823086 0.15648252 0.050322708 0.014224731
-0.067241445 -0.1193605 0.13919635 0.15543115 -0.06011114 -0.15849414 -0.15359531 0.07487239
-0.0379936 -0.039760232 0.042086154 -0.17907032 -0.016860347 0.10064704 -0.11689747 0.14563417
0.031224506 0.100215666 -0.16360989 0.14566448 -0.08366727 0.06420473 -0.1431439 0.050760686
-0.07684057 -0.08846811 0.052308727 0.07628764 -0.045289166 -0.11299319 0.043684293 -0.10371322
0.10065438 -0.12443948 0.028800504 0.05499937 0.14528836 0.083015986 0.053252134 -0.13151294
-0.12418847 -0.0092681 -0.02917375 -0.07888502 -0.15092097 -0.048234083 -0.06516671 -0.10998349
-0.121956065 0.06617907 0.14644808 -0.08165533 0.11386375 0.11179075 -0.009739038 0.027386492
0.121275395 -0.04777746 0.1350202 -0.13086946 0.040020633 -0.082310095 0.14893784 0.081217684
00000000: a23f bbbd 19a7 0f3e 6237 ebbd 0825 cebb
00000010: 639c 233e 5d63 473d 0ba0 15be f54d e4bd
00000020: 7c7d 9c3d 427d e3bb 422d 26bd 8a4e 813d
00000030: e61b f1bd 6dee debc 8e18 b13d 620e e9bd
00000040: 659c ce3d a4d4 3f3e c35a b53d ae7b afbd
00000050: 2914 ecbd 7111 383e 5478 cb3c be2a 18be
00000060: a6ec 06be 8330 41bc 2b05 a6bd 99de 46bd
00000070: 1714 40bd 9d9a 043e bf34 03be 448e 4a3e
00000080: eeec 793d aa67 263e 0e5f 963c 4712 05be
00000090: 9650 653e f0da aebb fd07 f9bd 29f2 013e
000000a0: 305d 243e 779e 03be 15d0 1c3e da72 fabd
000000b0: 747f 0bbe db34 02bd 8e11 9c3b f038 9e3d
000000c0: d166 cf3d 4950 eabd 4a08 3c3d 163d e03d
000000d0: c579 b1bd 2d23 0d3e 3fb6 d83d 17da 21be
000000e0: 127c 80bc fa03 823d 96ee 863d 486b 00be
000000f0: b644 2cbe f43c 203e 2f1f 4e3d d90e 693c
00000100: e2b5 89bd 4773 f4bd 7d89 0e3e 5829 1f3e
00000110: 1937 76bd 4a4c 22be 1748 1dbe b256 993d
00000120: 2d9f 1bbd a0db 22bd 8862 2c3d 365e 37be
00000130: b61e 8abc 0920 ce3d f167 efbd 2021 153e
00000140: 89ca ff3c df3d cd3d 5a89 27be 1229 153e
00000150: bf59 abbd c57d 833d 5194 12be 70ea 4f3d
00000160: 975e 9dbd c52e b5bd ad41 563d b23c 9c3d
00000170: 2281 39bd f968 e7bd 4dee 323d 9967 d4bd
00000180: e223 ce3d 20da febd 09ef eb3c 0547 613d
00000190: 79c6 143e 4904 aa3d e91e 5a3d 54ab 06be
000001a0: 8656 febd 3bd9 17bc cafd eebc 788e a1bd
000001b0: 078b 1abe 1a91 45bd 2076 85bd 063f e1bd
000001c0: 1ac4 f9bd e488 873d 7cf6 153e e93a a7bd
000001d0: 6631 e93d 8cf2 e43d 7c90 1fbc a359 e03c
000001e0: 3c5f f83d 4cb2 43bd bc42 0a3e a502 06be
000001f0: adec 233d 3292 a8bd 2983 183e 7555 a63d

model.transforms.0.encoder.noise_dist.transforms.0.ar_net.l_out.0.weight f4 [33, 32]
-0.15739295 0.17145509 0.008528993 0.017754272 -0.117969744 0.044401944 0.04014037 -0.119987585
-0.04578294 -0.10946108 -0.05349697 0.09862767 -0.16438824 0.16328204 -0.09801447 0.16481881
-0.02936285 -0.14688858 0.009580852 0.034519482 0.08503293 -0.11579071 -0.068087175 0.16128893
0.018902324 0.16374967 -0.013919443 -0.10542963 -0.08710289 -0.1594914 -0.15611078 -0.019926595
-0.04426694 -0.1062883 0.04593809 -0.09300846 0.14439976 -0.055757105 0.13034827 -0.0025813729
0.12239435 -0.15495825 -0.14867905 0.14476988 0.0756171 0.043596365 0.13274834 -0.11200779
0.12019249 -0.007733443 0.03554843 -0.17895387 0.041415 0.02688865 0.055332392 0.04624787
-0.044535007 0.1637448 0.09170866 -0.09662318 -0.02494054 0.09761584 -0.13717128 0.16307656
0.048274294 -0.18655282 0.09468525 -0.0048212796 -0.030433945 -0.017239243 0.13727276 0.08823164
0.101335265 0.045785345 -0.17038883 -0.082541004 -0.1374125 -0.11709535 0.13708782 0.13948457
0.11238209 -0.05869189 -0.08188401 0.087803386 -0.0027941319 -0.103064336 0.13942365 0.18449919
-0.055261344 -0.1181497 0.044331063 0.026792917 -0.080569014 -0.0033121963 0.062472902 0.080021314
-0.12965725 0.03245796 -0.13011955 0.1738023 0.15501906 -0.1592467 -0.026855882 0.0028103245
-0.009950308 -0.11705527 -0.11320736 -0.13220419 -0.067662664 -0.112313956 -0.13379884 -0.06260437
-8.020928e-05 -0.04034725 -0.015345681 -0.05168846 0.13658355 0.06936774 5.2995285e-05 -0.07979403
0.019701736 -0.08604095 0.039182466 -0.027610699 -0.17769687 -0.085804984 0.112778924 0.04961532
-0.059004616 0.14610136 0.035263225 0.11939905 0.069390886 0.08503802 -0.045642182 -0.16683982
-0.03641099 0.07896327 -0.093485415 -0.10107233 0.027255503 0.076403305 -0.1485684 0.08223745
0.18528762 0.15136209 0.030706206 0.06533624 -0.006918666 0.034131248 0.08865137 0.013406878
-0.16774145 0.050311416 -0.00930362 -0.11610803 0.091274016 -0.08546556 0.09130223 -0.027406704
0.116264634 0.0964261 0.17266427 0.09709415 0.022067033 0.07090576 0.04666835 0.017490136
0.15698345 0.07062975 0.056417715 -0.04676554 -0.042291015 -0.14217435 0.16328773 -0.15781322
0.11576207 -0.027878229 0.025312059 -0.12547584 -0.119560145 0.07838292 -0.13693035 0.030351868
0.13029595 -0.0300839 -0.10777671 0.087046266 -0.07993175 -0.05643466 0.060894012 -0.139188
-0.09736844 0.02525031 -0.18981154 -0.031495653 0.15206687 0.06002254 -0.1561687 0.0010512137
0.046600137 -0.001380282 -0.13786513 0.11738158 -0.022918561 0.1292706 0.14063014 0.16928072
-0.033324655 0.13953161 -0.06772093 0.048688825 -0.016719898 0.0063851736 0.1485782 0.09700497
-0.09165759 -0.16167441 0.008653447 0.16938657 0.14610703 -0.14693351 -0.006003492 -0.010895762
0.09215073 0.012155092 -0.15096317 0.13544433 -0.06891508 -0.07143815 0.122181796 -0.14301655
-0.1437078 0.018139703 -0.11222952 -0.122557804 0.079684414 0.045262318 -0.00037549433 0.07899261
-0.024896488 0.053312484 -0.10540269 0.053363282 -0.12019234 0.059214335 -0.18880886 -0.08220909
0.03300797 -0.041899014 -0.11051211 -0.04103063 -0.059484337 -0.10766764 0.1056056 -0.05798106
00000000: 9e2b 21be ec91 2f3e 31bd 0b3c 6871 913c
00000010: 1f9a f1bd d0de 353d 3b6a 243d 0dbc f5bd
00000020: e486 3bbd 212d e0bd a41f 5bbd 4efd c93d
00000030: 6455 28be 6833 273e cfbb c8bd 43c6 283e
00000040: 5c8a f0bc f669 16be 02f9 1c3c 4d64 0d3d
00000050: bf25 ae3d ae23 edbd 4a71 8bbd ed28 253e
00000060: 0cd9 9a3c fead 273e 600e 64bc 7deb d7bd
00000070: 0063 b2bd b751 23be 81db 1fbe 193d a3bc
00000080: 4051 35bd aead d9bd 9429 3c3d 387b bebd
00000090: 88dd 133e 9061 64bd 047a 053e 402c 29bb
000000a0: e4a9 fa3d 60ad 1ebe 523f 18be 8e3e 143e
000000b0: 23dd 9a3d 1a92 323d 2eef 073e 5764 e5bd
000000c0: 7b27 f63d d268 fdbb 3b9b 113d af3f 37be
000000d0: c6a2 293d 9645 dc3c 38a4 623d 686e 3d3d
000000e0: 576a 36bd b8ac 273e c0d1 bb3d 60e2 c5bd
000000f0: 1a50 ccbc d0ea c73d a176 0cbe 8bfd 263e
00000100: 44bb 453d b407 3fbe 57ea c13d d3fb 9dbb
00000110: 9c50 f9bc 5039 8dbc 3b91 0c3e cab2 b43d
00000120: dd88 cf3d 6a89 3b3d 697a 2ebe 420b a9bd
00000130: ddb5 0cbe b0cf efbd c060 0c3e 0bd5 0e3e
00000140: 9528 e63d e866 70bd ceb2 a7bd 43d2 b33d
00000150: c11d 37bb 6513 d3bd 13c5 0e3e 5bed 3c3e
00000160: b859 62bd 78f8 f1bd 7d94 353d d27c db3c
00000170: 5e01 a5bd 6f11 59bb 96e3 7f3d 37e2 a33d
00000180: dfc4 04be a3f2 043d 0f3e 05be 3bf9 313e
00000190: 51bd 1e3e 9111 23be de00 dcbc 6c2d 383b
000001a0: 9e06 23bc acba efbd 43d9 e7bd 8960 07be
000001b0: b992 8abd dc04 e6bd 9002 09be b836 80bd
000001c0: 0836 a8b8 2843 25bd 746c 7bbc 47b7 53bd
000001d0: 8fdc 0b3e ac10 8e3d 4147 5e38 0d6b a3bd
000001e0: 8965 a13c 3d36 b0bd cb7d 203d d52f e2bc
000001f0: 2bf6 35be 86ba afbd a3f8 e63d 6f39 4b3d
00000200: d3ae 71bd 989b 153e 2c70 103d 7d87 f43d
00000210: cf1c 8e3d 6a28 ae3d 4cf3 3abd 0fd8 2abe
00000220: b123 15bd 7fb7 a13d 4875 bfbd 02ff cebd
00000230: ef46 df3c 5679 9c3d 5122 18be 1c6c a83d
00000240: 0abc 3d3e aafe 1a3e 958b fb3c 02cf 853d
00000250: fab5 e2bb 35cd 0b3d d98e b53d 86a8 5b3c
00000260: 6ac4 2bbe 5813 4e3d 366e 18bc 0cca edbd
00000270: dfed ba3d 9108 afbd aafc ba3d 0684 e0bc
00000280: 271c ee3d 0c7b c53d e7ce 303e 4cd9 c63d
00000290: ecc5 b43c 0a37 913d 5027 3f3d 7947 8f3c
000002a0: 45c0 203e 55a6 903d 4316 673d 398d 3fbd
000002b0: 5839 2dbd 2796 11be e634 273e ca99 21be
000002c0: aa14 ed3d e260 e4bc 3c5b cf3c bd7c 00be
000002d0: f3db f4bd 3987 a03d 7837 0cbe 7ba4 f83c
000002e0: 4d6c 053e 8372 f6bc 09ba dcbd 5045 b23d
000002f0: 42b3 a3bd 0828 67bd 006c 793d 4d87 0ebe
00000300: 1b69 c7bd bdd9 ce3c f55d 42be 9601 01bd
00000310: 6bb7 1b3e 32da 753d b0ea 1fbe e1c8 893a
00000320: c9df 3e3d 94ea b4ba 842c 0dbe c165 f03d
00000330: b5bf bbbc 835f 043e 5901 103e ed57 2d3e
00000340: 6f7f 08bd 60e1 0e3e 45b1 8abd ef6d 473d
00000350: 2bf8 88bc b83a d13b e224 183e 8baa c63d
00000360: f9b6 bbbd fa8d 25be 30c7 0d3c ac73 2d3e
00000370: 159d 153e bd75 16be f1b8 c4bb 2384 32bc
00000380: 86b9 bc3d 2726 473c 1796 1abe ebb1 0a3e
00000390: 5923 8dbd 2a4e 92bd 733a fa3d ee72 12be
000003a0: 2328 13be b799 943c 97d8 e5bd 96ff fabd
000003b0: 9531 a33d fb64 393d ffdd c4b9 e1c6 a13d
000003c0: b8f3 cbbc 315e 5a3d 5edd d7bd 7593 5a3d
000003d0: 6727 f6bd bb8a 723d 1c57 41be 3d5d a8bd
000003e0: 5d33 073d 4d9e 2bbd 2c54 e2bd bc0f 28bd
000003f0: d9a5 73bd da80 dcbd c047 d83d 8c7d 6dbd

model.transforms.0.encoder.noise_dist.transforms.0.ar_net.l_out.0.bias f4 [33]
0.16479187 0.032997154 -0.09450514 0.019795373 -0.13453142 0.09289001 0.13596758 0.011210328
0.087015755 -0.07055905 0.11391889 -0.0926538 0.052697666 0.1426388 0.06012904 0.08411539
0.09117151 0.08906365 0.036724452 -0.11747495 -0.08337568 0.040509574 0.045844913 0.087864116
0.005649001 -0.11148861 0.09640793 -0.060023535 -0.035096355 0.015906373 -0.045610778 0.101297736
-0.07327793
00000000: 33bf 283e 0628 073d e98b c1bd e829 a23c
00000010: 9bc2 09be 1e3d be3d 163b 0b3e 86ab 373c
00000020: 5135 b23d 4381 90bd 4f4e e93d 47c1 bdbd
00000030: 82d9 573d e80f 123e de49 763d b144 ac3d
00000040: 21b8 ba3d 0167 b63d 616c 163d b596 f0bd
00000050: dec0 aabd 5eed 253d e0c7 3b3d 1af2 b33d
00000060: 411b b93b 2454 e4bd 8571 c53d 3ddb 75bd
00000070: 32c1 0fbd 154e 823c 5ed2 3abd 3075 cf3d
00000080: bd12 96bd
