checkpoints/sort_1/S_6_K_6/ArgmaxAR/16_05_2023__00_10/cktp/checkpoint_0005000.tar (torch, 496987 bytes, 113 tensors)

model.base_dist.loc f4 [1, 3, 1]
0	0xbda01dc5	-0.07818178
1	0xbd03fc4e	-0.03222304
2	0x3c835399	0.016031073

model.base_dist.log_scale f4 [1, 3, 1]
0	0xbcf80ff9	-0.030281054
1	0x3dbd8c05	0.09255222
2	0x3d769b55	0.06020673

model.transforms.0.encoder.noise_dist.base_dist.net.weight f4 [6, 32, 1]
0	0xbe200740	-0.15627766
1	0x3daf8be2	0.085716024
2	0xbe8324a5	-0.25613895
3	0xbe95e5d4	-0.29276907
4	0x3e0486d2	0.12942055
5	0x3ce195c6	0.027537238
6	0xbe2668c0	-0.16250896
7	0x3bf580d0	0.0074921623
8	0xbe4d75e5	-0.20064504
9	0x3dd78e85	0.1052523
10	0xbe47feb0	-0.1953075
11	0xbe4946b6	-0.1965588
12	0x3e62f3b4	0.22163278
13	0xbda954aa	-0.082681015
14	0xbdec9de4	-0.11553553
15	0x3e8d514c	0.27601087
16	0x3e65dca7	0.22447453
17	0xbce0d796	-0.02744655
18	0x3dce1525	0.10062627
19	0x3e8d9c86	0.2765848
20	0xbda09064	-0.0784004
21	0xbdd3bde9	-0.10338957
22	0x3e7270ff	0.23675917
23	0xbe84c11a	-0.25928575
24	0xbdf21d41	-0.11821986
25	0xbd47232f	-0.048617538
26	0xbc0f889b	-0.008760597
27	0xbd1558f9	-0.036461804
28	0xbe657557	-0.22408043
29	0x3d0c2bcf	0.034221467
30	0x3c704c1a	0.0146665815
31	0x3e749508	0.23884976
32	0xbd375d64	-0.0447668
33	0x3d6bf655	0.057607967
34	0xbe87c887	-0.26520178
35	0xbe44bce6	-0.19212684
36	0x3e2f08c1	0.17093183
37	0xbcb8be15	-0.022551576
38	0x3dc6f74b	0.09715136
39	0xbde9c06f	-0.11413657
40	0x3d98a94f	0.07454168
41	0x3e85c27f	0.2612495
42	0xbe02e9ff	-0.12784575
43	0xbd547c6e	-0.051876478
44	0x3e122efb	0.14275734
45	0xbe109da4	-0.14122635
46	0xbdbaec54	-0.09127107
47	0x3e02e8ed	0.12784167
48	0x3d597044	0.05308558
49	0x3e53a71c	0.20669216
50	0x3b6f07fc	0.0036473265
51	0x3e00053d	0.12501998
52	0xbdd38fb7	-0.10330146
53	0x3d99ceac	0.07510123
54	0x3de7742d	0.11301456
55	0xbe4fd870	-0.20297408
56	0xbe8d7de9	-0.27635124
57	0xbdf9c97f	-0.121966355
58	0x3e62de86	0.22155198
59	0x3c1f21b2	0.009712623
60	0xbc440acd	-0.011965466
61	0xbe582f97	-0.21111904
62	0x3d06bb1a	0.032893278
63	0x3db13f48	0.08654648
64	0x3e1945ed	0.14968081
65	0x3e7a18b1	0.24423482
66	0xbd98b989	-0.07457263
67	0xbc2ade2a	-0.010428945
68	0xbe041c1b	-0.12901346
69	0x3e28ca18	0.16483343
70	0xbe86b5f8	-0.26310706
71	0xbaac696d	-0.0013153978
72	0xbd2324a6	-0.039829873
73	0xbbb980b1	-0.005661093
74	0xbe8578e2	-0.2606879
75	0xbe780a6d	-0.24222727
76	0x3e310343	0.172864
77	0x3d4481de	0.047975414
78	0x3c60b675	0.013715376
79	0x3d1f9431	0.038959686
80	0x3e821ee4	0.25414193
81	0xbd9c5d7d	-0.07635019
82	0x3d969ddc	0.07354328
83	0x3dbfdd2d	0.09368358
84	0x3e8d4783	0.27593622
85	0xbe8967d8	-0.2683704
86	0x3e3f9914	0.18710738
87	0xbe22c8c8	-0.15896904
88	0xbd1d1b4a	-0.038356103
89	0xbdfef591	-0.12449182
90	0x3cb1498f	0.02164152
91	0x3e813941	0.25238994
92	0xbe7503ca	-0.23927227
93	0xbdecffdf	-0.11572241
94	0x3e646320	0.22303438
95	0xbd65ad22	-0.056073315
96	0xbdf4ac70	-0.11946952
97	0xbdca5aa5	-0.0988057
98	0xbddb2d28	-0.10701972
99	0xbda70e94	-0.081570774
100	0x3cc70b2f	0.024297325
101	0xbdc54bb3	-0.09633579
102	0xbe0f8689	-0.14016165
103	0x3e1511bd	0.14557548
104	0x3e24a3dc	0.16078132
105	0xbd8ff5f8	-0.07029337
106	0xbe11d7c8	-0.1424247
107	0x3e238ec6	0.15972432
108	0x3e3703dc	0.17872566
109	0x3e1dd186	0.15411958
110	0x3d446558	0.04794821
111	0xbd8f034d	-0.069830514
112	0xbcd0c367	-0.0254838
113	0x3d2286de	0.0396794
114	0x3e36d9f5	0.17856582
115	0xbd9ac5b8	-0.07557243
116	0x3ccacd7c	0.024756186
117	0x3e2136c1	0.15743543
118	0xbcd00348	-0.02539219
119	0xbd42d47f	-0.047565933
120	0x3d40efb4	0.0471036
121	0xbde52a1b	-0.111896716
122	0x3dee11ee	0.116245136
123	0x3e267de3	0.1625896
124	0x3e28e933	0.16495208
125	0x3db25dac	0.08709273
126	0xbe25956b	-0.1617028
127	0x3da8dbba	0.082450345
128	0x3bfab828	0.0076513477
129	0x3d133192	0.035935946
130	0x3cc65b95	0.024213592
131	0xbddd1347	-0.107946925
132	0xbde727c1	-0.11286879
133	0x3d0cd3ec	0.034381792
134	0xbd9d7915	-0.0768911
135	0xbdae46b6	-0.08509581
136	0xbd873938	-0.066027105
137	0x3df63801	0.12022401
138	0xbdfda6f1	-0.12385357
139	0x3d19f553	0.037587475
140	0x3e085db9	0.13317002
141	0x3d72ca52	0.05927498
142	0x3d9356b3	0.07194271
143	0xbd0f2789	-0.034949813
144	0xbcca1e85	-0.024672756
145	0xbde67101	-0.112520225
146	0x3e181579	0.14851941
147	0x3d197526	0.037465237
148	0x3d5d122f	0.05397242
149	0x3e0fefd9	0.14056338
150	0xbe439ee3	-0.19103579
151	0x3e23fde0	0.16014814
152	0xbdf4d482	-0.11954595
153	0xbd26cb32	-0.040721126
154	0x3b847eb5	0.004043425
155	0xbd32d9f3	-0.043664884
156	0x3cacc834	0.021091558
157	0x3ddfee76	0.10934155
158	0x3d8c7c40	0.06859636
159	0xbe0b94d7	-0.13630997
160	0xbd6c8bcf	-0.05775052
161	0x3d89938c	0.067175955
162	0x3b694765	0.0035595533
163	0x3c987e7a	0.018614996
164	0x3e2487d2	0.16067436
165	0xbdf5b3be	-0.11997174
166	0xbe1228e9	-0.14273418
167	0xbdd66915	-0.104692616
168	0xbdc3f212	-0.095676556
169	0x3c333060	0.0109368265
170	0x3d7ed0c3	0.06221081
171	0x3e039635	0.12850268
172	0xbdd39317	-0.103307895
173	0xbd18181e	-0.037132375
174	0x3e04cfee	0.12969944
175	0x3ddf704b	0.1091009
176	0xbd50b7f5	-0.050956685
177	0xbdf5bf21	-0.119993456
178	0x3e122c1f	0.14274643
179	0x3deec66f	0.11658942
180	0x3d0ded3c	0.034650072
181	0xbdd36f03	-0.10323908
182	0x3e03b090	0.12860322
183	0x3e0c44f8	0.13698184
184	0xbdaaba61	-0.0833633
185	0xbe1ad620	-0.15120745
186	0xbe0dd97d	-0.13852496
187	0x3c8f5332	0.017495725
188	0xb899570b	-7.3118215e-05
189	0x3e101cc2	0.1407347
190	0xbc076603	-0.008264068
191	0x3df6be1e	0.12047981

model.transforms.0.encoder.noise_dist.base_dist.net.bias f4 [6]
0	0xbba665e9	-0.0050780666
1	0x3e09ab3d	0.13444228
2	0x3e0917dc	0.13388008
3	0xbc1828c0	-0.009287059
4	0x3dc4a2de	0.09601377
5	0xbb3821dc	-0.0028096354

model.transforms.0.encoder.noise_dist.transforms.0.ar_net.lstm.weight_ih_l0 f4 [128, 35]
0	0x3de53601	0.11191941
1	0xbe27b850	-0.16378903
2	0xbe15747d	-0.14595218
3	0x3e3f76cd	0.18697663
4	0xbd876525	-0.06611089
5	0xbb195a20	-0.0023399666
6	0x3d9cba5b	0.07652732
7	0x3d86918f	0.06570732
8	0xbd580431	-0.052738372
9	0xbe168ff0	-0.14703345
10	0x3d57d2c5	0.05269124
11	0x3e1c3033	0.15252762
12	0xbdbdcef6	-0.0926799
13	0x3e3824fe	0.17982861
14	0x3d005a9e	0.03133642
15	0x3e23dbf0	0.16001868
16	0x3d2c0c37	0.042003836
17	0x3e2d52e8	0.16926157
18	0x3dfe0bba	0.124045804
19	0x3c9377cf	0.018001465
20	0xbd125d99	-0.035733793
21	0xbdb7f17d	-0.08981607
22	0x3dba3af2	0.09093274
23	0x3d1dba06	0.038507484
24	0x3e00117e	0.12506673
25	0xbcd0959e	-0.025461968
26	0xbe00f4f8	-0.12593448
27	0x3e05e320	0.13074923
28	0x3d7d30c8	0.0618141
29	0x3e3045e1	0.17214157
30	0x3d4c12c0	0.04982257
31	0x3de2fac9	0.1108299
32	0x3dc9b8bb	0.09849688
33	0x3d483bac	0.048885033
34	0x3e27744a	0.16352955
35	0xbe2230e8	-0.15838969
36	0x3d5098cc	0.05092697
37	0x38ab5643	8.169983e-05
38	0x3d74d298	0.05977115
39	0x3d2df9f3	0.0424747
40	0xbe34603c	-0.17614836
41	0x3d6a47ee	0.057197504
42	0xbdb6dbc4	-0.08928636
43	0xbdde2235	-0.10846368
44	0xbd2a9142	-0.041642435
45	0xbdd53a66	-0.10411529
46	0xbd26ffd7	-0.04077133
47	0xbe07ba81	-0.1325474
48	0xbe00c6c6	-0.12575826
49	0xbda9ed97	-0.0829727
50	0xbe262cad	-0.1622798
51	0xbced2943	-0.02895034
52	0xbda5e793	-0.0810081
53	0xbe0c10a2	-0.1367822
54	0xbd27a8b7	-0.040932383
55	0x3dd189a4	0.10231331
56	0xbbdf0d6f	-0.0068070213
57	0xbdc2ff70	-0.09521377
58	0x3e158365	0.14600904
59	0xbe1c17cb	-0.15243451
60	0x3d2e2e58	0.042524666
61	0x3e0e2915	0.13882859
62	0xbd4f8dbd	-0.05067228
63	0x3e1095ba	0.14119616
64	0xbe2c7f2a	-0.16845384
65	0xbe360f64	-0.17779309
66	0xbe35f91d	-0.1777081
67	0x3dde5123	0.10855319
68	0x3e771c11	0.241318
69	0xbdd54d99	-0.10415191
70	0x3dda15b8	0.10648674
71	0x3e0ab636	0.1354607
72	0xbd7b8e6a	-0.061415114
73	0x3e195560	0.14973974
74	0xbb768013	-0.003761296
75	0x3e0a9a65	0.1353546
76	0xbe25b1b0	-0.16181064
77	0xbd66b2cc	-0.056322858
78	0x3d14ca7b	0.036325913
79	0x3e256be8	0.16154444
80	0xbe1f4afe	-0.15555951
81	0x3d84c77b	0.064833604
82	0xbe297f8e	-0.16552565
83	0x3d900cf5	0.07033721
84	0xbdd29696	-0.10282628
85	0x3d1786ed	0.03699391
86	0x3d985bd2	0.07439388
87	0x3e1784f6	0.14796814
88	0x3d18f1fd	0.037340153
89	0xbcf58328	-0.029969767
90	0xbdf06541	-0.11738063
91	0x3d909c86	0.070611045
92	0x3dba6e47	0.09103065
93	0xbde659c8	-0.11247593
94	0x3e088860	0.13333273
95	0xbd0d9601	-0.034566883
96	0xbdbd8b76	-0.09255116
97	0x3e0685d8	0.13136995
98	0x3cba859e	0.022768792
99	0x3bd2df36	0.0064353
100	0x3d2d2125	0.042267937
101	0xbd496361	-0.04916704
102	0xbcfa4224	-0.030549116
103	0xbd06dc4a	-0.032924928
104	0xbde3c9ac	-0.1112245
105	0x3d17caec	0.037058756
106	0xbcab7abe	-0.020932551
107	0xbc274600	-0.01020956
108	0xba3a2910	-0.00071014557
109	0xbd90a03b	-0.070618115
110	0x3e345fe3	0.17614703
111	0xbe073268	-0.13202822
112	0x3dba935e	0.09110139
113	0xbd4de2e9	-0.050265227
114	0x3e3943dc	0.18092293
115	0x3e1e148e	0.15437528
116	0x3d9aa90c	0.075517744
117	0x3e01730b	0.12641542
118	0x3cdd055f	0.0269801
119	0x3d322585	0.043492813
120	0x3cab6fef	0.020927398
121	0x3d75668d	0.059912253
122	0xbd2c6e3d	-0.04209732
123	0xbe55c46b	-0.20875709
124	0xbe021e76	-0.12706932
125	0x3d42f125	0.047593255
126	0xbe2d184d	-0.16903801
127	0x3d258235	0.04040738
128	0x3d8913bf	0.066932194
129	0x3e048e7e	0.12944981
130	0xbd8edb56	-0.06975429
131	0xbd51c4f9	-0.05121324
132	0xbdc4f4f2	-0.09617032
133	0x3deca8f6	0.11555664
134	0x3e2bca14	0.16776305
135	0xbbc2b9fd	-0.0059425817
136	0xbd0ce45f	-0.03439748
137	0x3cde05c9	0.027102368
138	0x3e043ace	0.12913057
139	0x3dba3284	0.09091666
140	0xbb16623f	-0.0022946743
141	0xbe1ec58a	-0.15505043
142	0x3d18505a	0.037186004
143	0xbcc46857	-0.023975534
144	0x3dacda01	0.084400184
145	0xbe2b9f48	-0.1675998
146	0xbc965da8	-0.018355206
147	0xbde91a35	-0.11381952
148	0xbdedf5b4	-0.1161913
149	0x3df7880f	0.12086498
150	0xbd2e971e	-0.042624585
151	0xbd0714be	-0.032978766
152	0xbd0dd469	-0.0346264
153	0xbc55dc87	-0.013053066
154	0x3d431de9	0.047635946
155	0xbdd11b9c	-0.10210344
156	0x3db7551d	0.08951781
157	0x3da75d75	0.081721224
158	0xbd98ed50	-0.07467139
159	0x3d0fec58	0.035137504
160	0xbd812730	-0.063063025
161	0xbdc96ddb	-0.098354064
162	0x3dc0c0bb	0.094117604
163	0x3d88be8a	0.066769674
164	0xbde3d798	-0.111251056
165	0xbe247860	-0.16061544
166	0xbd9899b5	-0.07451192
167	0xbda0d464	-0.0785301
168	0x3d7769fe	0.060403816
169	0xbc2ff901	-0.0107405195
170	0xbe1dfeac	-0.15429181
171	0xbd5c844b	-0.053837102
172	0x3db898d2	0.09013523
173	0xbc9a5a04	-0.01884175
174	0xbc4f9b3f	-0.012671291
175	0x3e2b46ac	0.16726178
176	0xbde4e88a	-0.11177166
177	0xbde11826	-0.10990934
178	0xbcd7df87	-0.026351703
179	0x3e443c7e	0.19163701
180	0xbda5dd1a	-0.080988124
181	0x3e05d628	0.13069975
182	0x3e187fa4	0.14892441
183	0xbc3f3ccd	-0.011672211
184	0xbd69c217	-0.057069864
185	0xbdb368ab	-0.08760198
186	0x3de623c4	0.112372905
187	0x3d85a137	0.0652489
188	0x3d1b43c3	0.03790642
189	0x3b3c9e57	0.0028780901
190	0xbde56ea0	-0.11202741
191	0xbd9f6e63	-0.077847265
192	0xbd97eccc	-0.07418212
193	0x3dacaf90	0.084319234
194	0xbd5ddd7a	-0.054166295
195	0xbc46fbbd	-0.01214498
196	0x3e3f5185	0.18683441
197	0x3d0461b7	0.03231975
198	0x3e4b748c	0.19868678
199	0xbe0e239d	-0.13880773
200	0x3ddbb448	0.10727745
201	0xbe0ec5f2	-0.13942698
202	0x3cb2b415	0.021814385
203	0xbdd8964f	-0.10575544
204	0xbddab4ab	-0.10678991
205	0x3d6917da	0.056907512
206	0x3d1c42a7	0.038149502
207	0xbe2284fd	-0.15871044
208	0xbd88247c	-0.06647584
209	0xbdc340f0	-0.0953387
210	0xbdcdfbf6	-0.10057823
211	0x3e0f4049	0.13989367
212	0xbcfad10c	-0.03061726
213	0x3e026be8	0.12736475
214	0x3e24f7e1	0.16110183
215	0xbde95906	-0.11393933
216	0x3da87566	0.08225517
217	0xbdf00a2b	-0.117206894
218	0xbe21c121	-0.15796329
219	0xbd06612f	-0.032807525
220	0xbdab61c9	-0.083682604
221	0x3e167827	0.14694272
222	0x3cb89960	0.022534072
223	0x3df0d868	0.11760026
224	0x3c2fea04	0.010736946
225	0x3db1f4c1	0.08689261
226	0x3e395313	0.18098097
227	0xbe370746	-0.17873868
228	0xbdf4980f	-0.119430654
229	0xbe2087a2	-0.1567674
230	0xbe2decbd	-0.1698484
231	0xbdf7918f	-0.1208831
232	0x3e3a8c5b	0.18217604
233	0x3e23d7bc	0.16000265
234	0xbe0ad7ac	-0.13558835
235	0xbe1ff04c	-0.1561901
236	0xbe1701af	-0.14746736
237	0xbb39c265	-0.0028344628
238	0x3c3f8204	0.011688713
239	0xbe065011	-0.1311648
240	0xbe2022e5	-0.15638311
241	0x3dbc6076	0.09198086
242	0xbcdbe3a6	-0.02684195
243	0xbd85a310	-0.06525242
244	0xbd7b4d10	-0.06135279
245	0x3d51a50e	0.0511828
246	0x3c2043ca	0.009781787
247	0x3d32593f	0.043542143
248	0xbe2689b5	-0.16263469
249	0x3e2afb44	0.16697413
250	0x3db6e722	0.08930804
251	0xbc8e4783	-0.017368084
252	0x3e21a013	0.1578372
253	0x3e4a37fd	0.1974792
254	0xbe632656	-0.22182593
255	0xbde45139	-0.111483045

model.transforms.0.encoder.noise_dist.transforms.0.ar_net.lstm.weight_hh_l0 f4 [128, 32]
0	0x3c842516	0.016130965
1	0x3e10037a	0.14063826
2	0xbe08d849	-0.13363756
3	0x3c8d219e	0.017227944
4	0xbd5b49bc	-0.053537115
5	0x3cc1f511	0.023676427
6	0xbe163ddf	-0.1467204
7	0x3abc005b	0.0014343368
8	0xbdfa443d	-0.12220047
9	0xbe0ddf17	-0.13854633
10	0x3db28eae	0.0871862
11	0x3dc532a3	0.09628799
12	0x3e1660d8	0.1468538
13	0x3d25f8a2	0.040520318
14	0x3c4a79e1	0.01235816
15	0x3e13c1d0	0.14429402
16	0x3e10d760	0.14144659
17	0x3ddb4dc9	0.10708196
18	0xbd928a43	-0.071552776
19	0x3b823378	0.0039734207
20	0xbe463a45	-0.19358166
21	0x3e22f58b	0.1591398
22	0x3c935128	0.017983034
23	0x3cd38afb	0.025823107
24	0xbdef3638	-0.11680263
25	0x3da96a7e	0.08272265
26	0x3d9f14c4	0.077676326
27	0x3db443ab	0.08801969
28	0xbde060e2	-0.10955979
29	0x3dec4e9f	0.11538433
30	0xbdff5957	-0.12468212
31	0x3df98fce	0.12185632
32	0x3e2e1d5b	0.17003386
33	0x3c184c37	0.009295515
34	0x3e34c586	0.17653474
35	0x3de8df54	0.113707215
36	0x3c0e88b7	0.008699588
37	0xbb33a1a4	-0.0027409578
38	0x3e379b40	0.17930317
39	0xbdfb8f6c	-0.12283215
40	0xbe194671	-0.14968278
41	0xbce141a5	-0.027497122
42	0xbe149852	-0.1451123
43	0x3da37352	0.0798098
44	0x3d7b44cf	0.061344918
45	0xbd2e42c3	-0.042544138
46	0xbce9207b	-0.02845787
47	0xbddaaf44	-0.106779605
48	0x3e26efee	0.16302463
49	0x3e09044a	0.13380542
50	0x3de36212	0.1110269
51	0xbddc75cd	-0.10764656
52	0xbdcc782d	-0.09983859
53	0xbd9e91db	-0.077426635
54	0x3d08bcf5	0.03338333
55	0xbdeae48f	-0.11469375
56	0x3db239db	0.08702441
57	0x3cc11090	0.023567468
58	0xbbbe4d05	-0.0058075213
59	0x3dce4754	0.100721985
60	0xbe30ccbd	-0.17265601
61	0xbe107cdb	-0.14110129
62	0x3e13f680	0.14449501
63	0xbda1fca1	-0.07909513
64	0x3cbf2c18	0.023336455
65	0xbc3102af	-0.0108038625
66	0x3c9e31b4	0.01931081
67	0x3d93187b	0.07182404
68	0xbe0dfc0a	-0.13865677
69	0x3dc27675	0.0949525
70	0x3e328019	0.17431678
71	0x3e40d48e	0.18831083
72	0x3c3e4e18	0.011615299
73	0xbcfbd1d5	-0.030739704
74	0xbc53add6	-0.012919864
75	0xbdaf4110	-0.085573316
76	0x3dee6988	0.11641222
77	0x3d8a4e51	0.06753219
78	0xbd0b9f72	-0.034087606
79	0xbe217b38	-0.1576966
80	0xbc7b1489	-0.01532472
81	0xbdfe7d4c	-0.12426242
82	0x3d26f5bd	0.040761698
83	0x3d6ca484	0.05777408
84	0xbe143484	-0.14473158
85	0xbda6adc5	-0.08138613
86	0xbe2fe2c2	-0.17176345
87	0xbdfd5c64	-0.12371138
88	0xbd0a0496	-0.03369578
89	0xba89d5e3	-0.0010516014
90	0xbe2611ea	-0.16217771
91	0xbd615156	-0.05500921
92	0xbe240795	-0.16018517
93	0xbd25fbb0	-0.04052323
94	0x3dd60c15	0.10451523
95	0xbd6b479e	-0.057441346
96	0x3df84348	0.12122208
97	0x3dd2492e	0.10267864
98	0x3e21efff	0.15814207
99	0xbd00dd6d	-0.031461168
100	0x3d88ecee	0.06685816
101	0xbcb29ea3	-0.02180416
102	0xbe202d5c	-0.15642303
103	0x3dc6beb4	0.097043425
104	0xbe51d86c	-0.20492715
105	0xbe1ad37d	-0.15119739
106	0x3d182c07	0.037151363
107	0x3d125049	0.035721097
108	0x3bc8d6e0	0.0061291307
109	0x3e08f4e5	0.1337467
110	0xbdd2cb72	-0.1029271
111	0x3b188a52	0.0023275805
112	0x3da0b793	0.07847514
113	0x3d687cd4	0.05675967
114	0xbe1b1fac	-0.151488
115	0x3e1469d5	0.14493497
116	0xbd069059	-0.032852504
117	0x3e0c7190	0.13715196
118	0x3d9527e1	0.07282997
119	0x3cd175f8	0.025568947
120	0xbc049a16	-0.008093378
121	0xbe0ab588	-0.13545811
122	0xbceaf726	-0.028682303
123	0x3e3b27b7	0.18276869
124	0x3df40ee2	0.11916901
125	0xbe0296ed	-0.12752886
126	0x3df24667	0.118298344
127	0x3c2045e9	0.009782293
128	0x3e24290d	0.16031285
129	0xbdacf2a3	-0.08444717
130	0x3de7f159	0.1132533
131	0x3de62d9a	0.112391666
132	0xbdd288ee	-0.102800235
133	0x3e06c2a9	0.13160194
134	0x3d12bde6	0.035825633
135	0x3d4d1875	0.050072152
136	0x3dab1936	0.08354418
137	0xbc39b403	-0.011334422
138	0xbdda8b61	-0.10671116
139	0x3e04ceb7	0.1296948
140	0x3c7d7b6f	0.015471323
141	0xbe22c0cc	-0.15893859
142	0xbd9f2894	-0.077714115
143	0x3d51ad6b	0.051190775
144	0x3dd31544	0.103067905
145	0xbde75141	-0.11294795
146	0xbd7a7d9c	-0.061154947
147	0x3c4dc9f4	0.012560356
148	0x3d96b35f	0.07358431
149	0xbe2012d4	-0.15632182
150	0x3d360b40	0.044444323
151	0x3dfb1187	0.122592025
152	0x3d523965	0.051324267
153	0xbd9823b1	-0.074286826
154	0xbdd6e648	-0.104931414
155	0x3d82f89c	0.06395075
156	0xbd0d07cf	-0.034431275
157	0xbe219020	-0.15777636
158	0x3e04683b	0.12930386
159	0x3d8d1612	0.06888975
160	0xbc93af0d	-0.018027807
161	0xbc05a03a	-0.008155877
162	0x3c55a5ad	0.013039988
163	0x3bb0f55c	0.005400343
164	0x3d081425	0.033222336
165	0xbdd276d7	-0.10276573
166	0x3d798411	0.060916964
167	0xbdd58cd3	-0.10427251
168	0x3d75be5e	0.059996
169	0x3d5fec5e	0.054668777
170	0x3d0df2eb	0.034655493
171	0x3c52fe8f	0.012878074
172	0x3dbc6c72	0.09200372
173	0xbd7df95a	-0.06200538
174	0xbdc33ccb	-0.0953308
175	0xbe4b3e15	-0.19847901
176	0xbd9794d0	-0.074014306
177	0xbdbd96d5	-0.092572846
178	0x3e725f55	0.23669179
179	0x3b4a54fd	0.003087341
180	0xbe1114de	-0.14168116
181	0x3e20608f	0.15661834
182	0xbdfa3adc	-0.12218258
183	0xbe15b827	-0.1462103
184	0xbcec9788	-0.02888085
185	0xbdc7ecc9	-0.0976196
186	0x3e2e7468	0.17036593
187	0x3ddbaa91	0.10725892
188	0x3e2644f8	0.16237247
189	0xbd968807	-0.07350164
190	0xbe1394ea	-0.14412275
191	0x3d60ec15	0.054912645
192	0x3de85ff0	0.113464236
193	0x3d64e10c	0.055878684
194	0xbdbd2824	-0.09236172
195	0x3e00fbe0	0.12596083
196	0x3e003613	0.12520628
197	0x3e106bcc	0.14103621
198	0xbe035d66	-0.12828597
199	0x3dbe5767	0.092940144
200	0x3c19ad80	0.0093797445
201	0x3a90a5ac	0.0011035702
202	0x3d84ba65	0.064808644
203	0x3dba143a	0.09085889
204	0xbda8c64e	-0.082409486
205	0xbd477264	-0.048693076
206	0xbe1432b2	-0.14472464
207	0x3b5b741d	0.0033485957
208	0x3d7ab7bc	0.06121038
209	0xbe02cc44	-0.12773234
210	0xbd6b4e90	-0.05744797
211	0xbdde5139	-0.10855336
212	0x3c9c69bd	0.019093389
213	0xbd8fc6bb	-0.07020327
214	0x3ca74f97	0.020423694
215	0x3e013a92	0.12619999
216	0xbe24395b	-0.16037504
217	0xbd1c9912	-0.038231917
218	0xbddf1117	-0.108919315
219	0xbe16dfc1	-0.14733793
220	0xbe4de07d	-0.20105167
221	0x3e44d0cf	0.19220279
222	0xbd7fa109	-0.062409434
223	0xbdfa0bb1	-0.12209261
224	0x3d5e8348	0.05432442
225	0xbdf6ab6c	-0.12044415
226	0x3c1ae429	0.009453812
227	0xbc5f96e0	-0.013646811
228	0x3dea4a2f	0.11439931
229	0xbe0a7791	-0.13522173
230	0xbd1dbd84	-0.038510814
231	0xbe21767f	-0.15767859
232	0x3c80ca7d	0.015721554
233	0x3c0651a1	0.008198173
234	0x3dab8f50	0.08376944
235	0xbde194f7	-0.11014741
236	0x3cbb7acd	0.022885704
237	0x3e0725e1	0.13198043
238	0xbdc98ce3	-0.09841325
239	0x3e12166f	0.1426637
240	0x3e02d78b	0.12777536
241	0x3b156f61	0.0022801983
242	0xbdb4326a	-0.08798678
243	0xbd8d4669	-0.06898195
244	0xbe13ffe7	-0.14453088
245	0xbd10bc9e	-0.03533613
246	0x3e1c7698	0.15279615
247	0x3dea4eeb	0.11440834
248	0x3a33872b	0.00068484497
249	0xbdbaad21	-0.09115053
250	0xbd009a8c	-0.031397387
251	0xbe220b9e	-0.15824744
252	0x3d012799	0.031531904
253	0xbc16fab3	-0.009215045
254	0xbcaa4a92	-0.020787511
255	0xbdad52bb	-0.08463045

model.transforms.0.encoder.noise_dist.transforms.0.ar_net.lstm.bias_ih_l0 f4 [128]
0	0x3e3bf17e	0.1835384
1	0xbe04a77d	-0.12954517
2	0xbcb93338	-0.02260743
3	0xbe0bd270	-0.13654494
4	0x3dc53011	0.096283086
5	0xbc9e525e	-0.019326385
6	0x3d9fe135	0.07806627
7	0x3caeaf55	0.02132384
8	0xbbef94c5	-0.007311436
9	0xbc371e8c	-0.011176717
10	0x3d7e13ac	0.06203048
11	0xbcb45b62	-0.022016231
12	0xbca7c80b	-0.02048113
13	0xbd9bba29	-0.076038666
14	0x3e31cd5f	0.17363499
15	0x3e199aea	0.15000501
16	0x3de1da1a	0.11027928
17	0x3e0f1094	0.13971168
18	0x3daeda34	0.08537713
19	0xbda6e568	-0.081492245
20	0xbdb1381d	-0.08653281
21	0x3df58b9f	0.11989521
22	0x3e314a4c	0.17313498
23	0xbcc429ac	-0.023945652
24	0xbe0771ed	-0.13227053
25	0x3e37d085	0.17950638
26	0x3e157b81	0.14597894
27	0xbd86cd12	-0.06582083
28	0x3ce589f9	0.028019892
29	0xbe1387c3	-0.14407258
30	0x3dafdd66	0.0858715
31	0xbe30e150	-0.1727345
32	0xbe0f5f6d	-0.14001246
33	0x3df0374e	0.117292985
34	0x3e407673	0.18795185
35	0x3d8a0c32	0.06740607
36	0x3cd4f5f5	0.025996188
37	0xbd92fdf5	-0.07177345
38	0xbe151fbe	-0.1456289
39	0xbe1fb3c6	-0.15595922
40	0x3d3f036a	0.046634115
41	0xbb36428c	-0.002781066
42	0xbdf3b57e	-0.11899851
43	0x3e1b36d5	0.15157636
44	0x3d4d34ae	0.050099067
45	0x3d468a5c	0.048471794
46	0x3d2274ca	0.03966216
47	0xbdebea13	-0.115192555
48	0xbe15b863	-0.14621119
49	0x3ce444e7	0.027864886
50	0xbe454503	-0.19264607
51	0x3de82ff8	0.11337274
52	0x3dc94699	0.098279186
53	0xbe0d2795	-0.1378463
54	0x3e11041b	0.14161722
55	0xbc82d7c9	-0.015972035
56	0x3bfc8f0d	0.0077074827
57	0x3d1103ec	0.03540413
58	0x3c8d5945	0.017254481
59	0x3d954290	0.072880864
60	0xbd0fb1f7	-0.03508183
61	0xbd2ae35a	-0.041720726
62	0x3e2c7c4f	0.16844295
63	0xbe13815c	-0.14404815
64	0xbd51efa1	-0.05125392
65	0x3da9aff3	0.08285513
66	0xbdb2c1c8	-0.08728367
67	0x3d904ef9	0.07046313
68	0xbb1c600d	-0.0023860962
69	0x3aa06d53	0.0012239612
70	0x3de74352	0.11292137
71	0xbd7fe9ce	-0.062478833
72	0xbd8d0481	-0.06885625
73	0x3e1f22ca	0.15540615
74	0xbe3bedc9	-0.18352427
75	0xbe23049b	-0.15919726
76	0x3d6700a3	0.05639709
77	0x3df7ad44	0.12093595
78	0x3dc31866	0.09526138
79	0xbd1ca7c0	-0.038245916
80	0x3d0024ed	0.031285215
81	0x3e17be8a	0.14818779
82	0xbc03a028	-0.00803379
83	0xbd0aba93	-0.033869337
84	0x3d8efc71	0.06981743
85	0x3e122243	0.14270882
86	0xbe2a2b9f	-0.16618203
87	0xbe0def95	-0.13860925
88	0x3db116d5	0.08646933
89	0xbd8c6de4	-0.068568975
90	0x3dcc7941	0.09984065
91	0x3cfb854a	0.030703206
92	0xbce72651	-0.028216513
93	0x3dea25e1	0.11433006
94	0xbc594e6c	-0.013263326
95	0xbd1314e5	-0.0359086
96	0xbbc52a75	-0.006017024
97	0x3e052521	0.13002445
98	0x3de8506b	0.113434635
99	0xbd3d1b5f	-0.04616868
100	0x3dfeacd1	0.12435306
101	0xbdf312f8	-0.118688524
102	0x3cfbd416	0.030740779
103	0x3cff3c74	0.031156756
104	0xbdd1e47b	-0.10248657
105	0x3d83d074	0.06436244
106	0x3b1507d2	0.0022740257
107	0xbd7ec71b	-0.0622016
108	0x3e1f15f8	0.15535724
109	0x3dd0d102	0.10196115
110	0x3e035548	0.12825501
111	0xbe34a5fc	-0.17641443
112	0x3e02ebce	0.12785265
113	0x3e3e4279	0.18580045
114	0xbde7c5f5	-0.11317054
115	0x3dce0f1f	0.10061478
116	0x3d195c5d	0.0374416
117	0xbc365c36	-0.011130383
118	0xbe0b0f2e	-0.1358001
119	0xbd9a2f21	-0.075285204
120	0xbcf5f420	-0.030023634
121	0xbd56d31e	-0.05244743
122	0xbe1f9339	-0.15583505
123	0xbcc7357c	-0.024317496
124	0x3d83f54c	0.06443271
125	0x3c13d643	0.009023252
126	0xbdc7f766	-0.097639844
127	0xbae42200	-0.0017405152

model.transforms.0.encoder.noise_dist.transforms.0.ar_net.lstm.bias_hh_l0 f4 [128]
0	0xbd6828e1	-0.05667961
1	0x3d781f8e	0.060576968
2	0xbc3d2f35	-0.0115469
3	0x3db5d40e	0.08878337
4	0xbd75ea8f	-0.060038146
5	0x3e3d0590	0.18459153
6	0xbe14337c	-0.14472765
7	0xbccb9384	-0.024850614
8	0xbdb6026f	-0.08887183
9	0x3e418af5	0.18900664
10	0x3dc61b4e	0.09673177
11	0xbdde8e6a	-0.10867007
12	0x3d06ee78	0.032942265
13	0x3d199e65	0.037504572
14	0xbdaa9d6f	-0.08330809
15	0x3ba3a65b	0.0049941964
16	0xbd35b23d	-0.044359434
17	0xbda05a81	-0.07829762
18	0xbd3dba1c	-0.046320066
19	0x3e30e9c0	0.17276669
20	0xbd4dfd5e	-0.050290458
21	0xbd4c4892	-0.049873896
22	0x3dc4ad1c	0.096033305
23	0xbe3223bd	-0.17396446
24	0x3e0e7004	0.13909918
25	0x3cae7c6c	0.021299563
26	0x3e0fb5e8	0.14034235
27	0x3e042986	0.12906465
28	0x3da8e0fc	0.08246037
29	0x3e0ea166	0.13928756
30	0x3da501d1	0.08056987
31	0xbd07856f	-0.033086237
32	0x3db0282e	0.08601414
33	0xbe2b1814	-0.16708404
34	0x3e0da646	0.1383296
35	0x3dfae57f	0.12250804
36	0x3e34f526	0.17671642
37	0x3d66d2a2	0.05635322
38	0x3d697079	0.056992028
39	0x3e396c8b	0.18107812
40	0x3bb94e1a	0.0056550624
41	0x3d913e21	0.07091928
42	0x3e1283bc	0.14308065
43	0xbe2b2b36	-0.16715702
44	0xbdc4451b	-0.09583493
45	0x3d5d6bca	0.054057874
46	0x3d18f6c7	0.03734472
47	0xbd93c69c	-0.07215616
48	0xbb16e71a	-0.002302593
49	0xbc8217e2	-0.015880529
50	0xbd81cbf9	-0.06337733
51	0x3e288d96	0.16460261
52	0x3d9ecdac	0.077540725
53	0xbe2efcba	-0.17088595
54	0xbe0bee7c	-0.13665193
55	0x3df515f8	0.11967081
56	0xbe24d03e	-0.16095063
57	0xbda4c8fb	-0.080461465
58	0x3bc9b222	0.0061552683
59	0xbd127224	-0.035753384
60	0x3e041c02	0.12901309
61	0x3dfafd2a	0.122553185
62	0x3e1f3ce4	0.15550572
63	0x3d280579	0.041020844
64	0xbe21136e	-0.15730068
65	0x3e08e39a	0.13368073
66	0x3e1dfbd7	0.154281
67	0xbd92f6bd	-0.07175968
68	0xbd7ff2bb	-0.062487345
69	0xbd5a2ecd	-0.05326729
70	0x3de0f37e	0.109839424
71	0x3dc6376f	0.09678542
72	0x3e08f0e7	0.13373147
73	0x3ddfa861	0.109207876
74	0xbdb35f13	-0.08758368
75	0xbe1d810b	-0.15381257
76	0x3d91cace	0.0711876
77	0x3e038e08	0.1284715
78	0xbe04f196	-0.12982783
79	0x3c8e0d96	0.017340463
80	0xbe3759d0	-0.17905354
81	0xbd71f6ba	-0.059073187
82	0xbe0746b8	-0.13210571
83	0xbd160e4b	-0.036634725
84	0xbcaba2e9	-0.020951705
85	0xbd7869ca	-0.060647763
86	0xbb983793	-0.004645297
87	0xbe18132a	-0.1485106
88	0x3dbcaffc	0.09213254
89	0x3d016eed	0.031599928
90	0x3db4f24c	0.08835277
91	0xbe2f99c9	-0.17148508
92	0x3e0ce624	0.13759667
93	0x3e2c30c9	0.16815485
94	0xbdec609c	-0.11541864
95	0x3df78d97	0.12087553
96	0x3e2b7161	0.1674247
97	0xbe2c9730	-0.16854548
98	0x3dfbbbd1	0.122916825
99	0xbd942b3d	-0.072348095
100	0xbd512263	-0.051058184
101	0xbd5931e2	-0.053026088
102	0xbc9bf1da	-0.019036222
103	0xbd57fc59	-0.05273089
104	0xbd9f049a	-0.077645496
105	0xbd73b6d0	-0.059500515
106	0xbbec0648	-0.007202897
107	0xbdb65054	-0.0890204
108	0xbbab8f58	-0.0052355938
109	0xbd7b97ef	-0.061424192
110	0xbd071e8c	-0.032988116
111	0x3dfd20f6	0.123598024
112	0xbe2b53a4	-0.16731125
113	0x3c745d02	0.014914753
114	0x3db581ae	0.08862625
115	0x3e03def7	0.12878023
116	0xbd463182	-0.048387058
117	0x3d1580a3	0.03649963
118	0xbca6563f	-0.020304797
119	0x3deab968	0.11461145
120	0xbce25447	-0.027628077
121	0x3dd4798f	0.10374748
122	0x3e18e138	0.14929664
123	0xbd774037	-0.060363974
124	0xbd95f1b8	-0.07321495
125	0xbdfd2b3c	-0.12361762
126	0xbd44a589	-0.04800943
127	0x3ddcd9e8	0.1078375

model.transforms.0.encoder.noise_dist.transforms.0.ar_net.lstm.weight_ih_l1 f4 [128, 32]
0	0x3e0e3c88	0.13890278
1	0xbe1ae916	-0.15127978
2	0x3d48bc24	0.04900755
3	0x3b59908f	0.0033197736
4	0x3ce0ecca	0.02745666
5	0xbe3c9f4f	-0.18420146
6	0xbddef1b4	-0.10885945
7	0x3e0c655d	0.13710542
8	0x3d251ad3	0.040308785
9	0xbe36007e	-0.17773625
10	0x3e2d6a7b	0.1693515
11	0x3d61a0a4	0.05508484
12	0x3e2086a5	0.15676363
13	0xbbc7402c	-0.006080648
14	0x3dfb2c5d	0.12264321
15	0xbd599d03	-0.053128254
16	0xbdff064a	-0.124523714
17	0xbc038823	-0.008028063
18	0x3e064b96	0.13114771
19	0x3d7b7933	0.06139488
20	0x3e19dfd3	0.15026788
21	0x3dce0356	0.1005923
22	0xbe228bfb	-0.15873711
23	0x3db924e3	0.09040239
24	0x3dd78375	0.1052312
25	0x3daff474	0.085915476
26	0xbe344bff	-0.17607115
27	0xbd1c0323	-0.03808893
28	0x3dab3f6f	0.083617084
29	0x3e22855b	0.15871184
30	0xbd58654c	-0.05283098
31	0x3e030297	0.12793957
32	0xbc7d18b1	-0.015447781
33	0x3d9dd51c	0.07706663
34	0xbe23f629	-0.16011871
35	0xbdd0edd9	-0.10201616
36	0xbd989126	-0.0744956
37	0xbdcf13c0	-0.10111189
38	0x3d0a9143	0.03382994
39	0x3d46bd80	0.048520565
40	0xbc88aa08	-0.01668264
41	0x3c3198ef	0.010839685
42	0x3e204114	0.15649825
43	0xbe381580	-0.17976952
44	0x3e07119a	0.13190308
45	0x3e1d0733	0.15334778
46	0x3e12da19	0.1434101
47	0x3e1ff5c6	0.15621099
48	0x3e22f71a	0.15914574
49	0x3dd6f7e0	0.10496497
50	0x3ddfff5d	0.109373786
51	0xbda331d7	-0.079684906
52	0xbd8719b1	-0.06596697
53	0x3d46a666	0.048498534
54	0xbd0b3cc1	-0.033993486
55	0x3d80118b	0.06253346
56	0x3d883787	0.06651216
57	0x3d94b3e1	0.07260872
58	0x3ccc063a	0.024905313
59	0x3d0ec74c	0.034858033
60	0x3cf341ff	0.029694555
61	0x3d7edced	0.06222241
62	0x3df43057	0.119232826
63	0xbd977253	-0.073948525
64	0x3e0e6d3a	0.13908854
65	0x3cb2962b	0.021800121
66	0x3e232aab	0.15934245
67	0xbdb55f67	-0.08856087
68	0xbe24dd09	-0.16099943
69	0x3d9bddb4	0.07610646
70	0xbe00e67c	-0.12587923
71	0x3dd4b948	0.10386902
72	0x3dfb3f8b	0.12267979
73	0x3d8ca298	0.0686695
74	0xbb344d73	-0.0027511984
75	0xbcde5e3b	-0.027144542
76	0x3dcbffde	0.09960912
77	0x3dc6ddaf	0.097102515
78	0x3d4216b7	0.047384944
79	0xbd675be0	-0.056484103
80	0xbbe98b3c	-0.0071271937
81	0xbd726e40	-0.059187174
82	0x3d25387f	0.040337082
83	0x3d670f90	0.056411326
84	0x3df707f3	0.12062063
85	0xbd822627	-0.06354933
86	0x3d51e1d8	0.051240772
87	0xbdfc67a2	-0.12324454
88	0xbdc5c36f	-0.096564166
89	0x3e211493	0.15730505
90	0xbdf18d79	-0.11794562
91	0x3c75b45c	0.014996614
92	0xbd9c7758	-0.076399505
93	0x3d3a90f4	0.045548394
94	0x3cfebaaf	0.031094877
95	0xbce06c4b	-0.027395388
96	0xbe2d81ba	-0.16944018
97	0x3ddbdfe9	0.10736067
98	0x39bcfa5a	0.0003604468
99	0x3d48b9cb	0.04900531
100	0x3dc0ff26	0.09423666
101	0x3d9a0f21	0.07522417
102	0xbcfe1729	-0.031016903
103	0x3d86ea09	0.065876074
104	0xbd4c0e11	-0.049818102
105	0xbe36b135	-0.17841037
106	0x3e0a39ad	0.13498564
107	0x3e0a62b6	0.13514218
108	0xbd6f8e8f	-0.058485564
109	0x3e2dccf3	0.16972713
110	0xbdd0dede	-0.101987585
111	0x3da8a5c9	0.08234746
112	0xbd47bc1f	-0.04876339
113	0x3dc8ef62	0.09811284
114	0x3dba08f2	0.090837374
115	0xbe3c3a95	-0.18381722
116	0xbdfc1d34	-0.123102576
117	0xbbf93b40	-0.00760594
118	0x3d3938dd	0.045220245
119	0xbd6ce976	-0.057839833
120	0xbe19aeb9	-0.15008058
121	0xbe112931	-0.1417587
122	0x3e002dd1	0.12517478
123	0xbd53952f	-0.051655944
124	0x3da0c27e	0.078495964
125	0x3d3e33b3	0.046436023
126	0x3d4d9d84	0.050199047
127	0x3e25051d	0.16115232
128	0xbd9f5f8f	-0.07781898
129	0x3c930ca5	0.017950365
130	0x3d4bc910	0.049752295
131	0x3d8c4cb2	0.06850566
132	0xbda18d1c	-0.078882426
133	0xbd92b3f8	-0.071632326
134	0x3cfbc691	0.030734332
135	0x3e3d2a16	0.18473086
136	0x3d9bd36f	0.07608687
137	0x3b9a7512	0.004713663
138	0xbd1af35d	-0.037829746
139	0xbddf811a	-0.10913296
140	0x3b281a35	0.0025650386
141	0xbdd03796	-0.10166852
142	0x3d81ca45	0.06337408
143	0x3d04c8f1	0.032418195
144	0xbdbd7fed	-0.092529155
145	0x3e42222c	0.18958348
146	0x3d7ed9c4	0.062219396
147	0x3db239a9	0.08702404
148	0x3e38e91b	0.18057673
149	0xbdeb4dcc	-0.11489448
150	0x3dd0d54b	0.101969324
151	0x3c49b6ad	0.01231162
152	0xbc1baabf	-0.009501158
153	0x3d1c8798	0.03821525
154	0x3da3fbe3	0.08007028
155	0xbe284957	-0.16434227
156	0x3d0f75a6	0.035024308
157	0x3d20ad0a	0.039227523
158	0x3d465ab6	0.048426352
159	0x3d94d347	0.072668605
160	0x3d955254	0.072910935
161	0x3c2c8b83	0.010531309
162	0xbe28c158	-0.16480005
163	0xbe220501	-0.15822221
164	0x3df1c6d1	0.11805499
165	0x3cf8c182	0.03036571
166	0xbe0e955c	-0.13924164
167	0x3cd7d6d0	0.026347548
168	0x3d530b4f	0.051524457
169	0xbe355954	-0.17709857
170	0x3ddcfc09	0.107902594
171	0x3daea951	0.08528388
172	0xbdc38fc8	-0.095489085
173	0xbe0c77a0	-0.13717508
174	0x3e203258	0.15644205
175	0xbe2d8649	-0.16945757
176	0xbdd7ccc5	-0.105371036
177	0xbdd8ab9c	-0.10579607
178	0x3d7d79a9	0.061883602
179	0xbe01f2eb	-0.12690322
180	0xbc9f62ed	-0.019456351
181	0xbe21546e	-0.15754864
182	0xbbf9c05e	-0.007621809
183	0x3e1ad21a	0.1511921
184	0xbcd408dd	-0.025883133
185	0x3e035341	0.12824728
186	0x3dd4a4b1	0.10382975
187	0x3c510ea4	0.012759838
188	0xbdbbbc0c	-0.091667265
189	0xbd4fd36e	-0.050738744
190	0x3e0ae3e9	0.13563503
191	0x3dfcdce8	0.12346822
192	0x3d153185	0.03642418
193	0xbbd84c04	-0.0066008586
194	0x3dcd7c51	0.10033477
195	0xbe238fcf	-0.15972827
196	0xbe8763a9	-0.26443222
197	0x3e331de9	0.17491879
198	0xbe6fe6ad	-0.2342784
199	0xbdc97195	-0.09836117
200	0x3de6b370	0.11264694
201	0x3d4f893f	0.050667997
202	0xbdf16e13	-0.11788573
203	0xbe1b5087	-0.15167437
204	0x3c2a12e0	0.010380477
205	0x3e1b2c4d	0.15153618
206	0x3d65cc3f	0.056102987
207	0x3e06dab7	0.1316937
208	0x3e302295	0.17200692
209	0xbd17963a	-0.0370085
210	0xbda5f002	-0.081024185
211	0x3cd67747	0.026179923
212	0x3e18c579	0.1491908
213	0xbe083523	-0.1330152
214	0x3a5997d4	0.0008300517
215	0x3d83e873	0.064408205
216	0x3d10bfe6	0.03533926
217	0xbe1eeb63	-0.1551948
218	0xbc1ff922	-0.009763988
219	0xbe32dcc3	-0.17467026
220	0x3e345598	0.17610776
221	0x3e349b8d	0.17637463
222	0xbe4b7aa3	-0.19871001
223	0xbdc4d653	-0.096111916
224	0x3cb421e3	0.021988815
225	0x3db8e5c6	0.09028201
226	0xbe21f9b9	-0.15817918
227	0xbe0fdab0	-0.14048266
228	0x3bd399c2	0.0064575383
229	0xbc23b0cf	-0.009990885
230	0xbd460be7	-0.048351195
231	0x3d359bba	0.044337966
232	0x3da22fa7	0.07919245
233	0xbd8c9f59	-0.06866331
234	0x3d890662	0.066906705
235	0x3e24da5b	0.16098921
236	0xbd1ebc02	-0.038753517
237	0xbdb738ea	-0.08946402
238	0xbc0208eb	-0.0079366965
239	0x3e19ced8	0.15020311
240	0x3dfad2e4	0.122472554
241	0x3d952af7	0.072835855
242	0xbbf55da1	-0.007487968
243	0xbcd3d308	-0.025857463
244	0xbdfd28bb	-0.12361284
245	0xbe16394f	-0.14670299
246	0x3de9dd59	0.11419172
247	0xbdea1378	-0.114294946
248	0xbd1a7172	-0.037705846
249	0x3d59fc78	0.05321929
250	0x3d395231	0.0452444
251	0x3d62de3e	0.055387728
252	0x3c98c181	0.018646957
253	0xbc850ed2	-0.016242418
254	0xbda3c171	-0.079958804
255	0xbd8b3a70	-0.067982554

model.transforms.0.encoder.noise_dist.transforms.0.ar_net.lstm.weight_hh_l1 f4 [128, 32]
0	0x3e2d6386	0.16932496
1	0x3d7f57e7	0.06233969
2	0x3e26bb99	0.162825
3	0x3e2d39d5	0.16916592
4	0x3de7e310	0.113226056
5	0x3e2c3ef4	0.1682089
6	0xbda20843	-0.07911732
7	0xbd7e0d71	-0.062024537
8	0x3d563bd1	0.05230314
9	0x3e043d1f	0.12913941
10	0x3e0d4c64	0.13798672
11	0xbdddf37e	-0.10837458
12	0x3cf146b1	0.029452654
13	0x3ca6c85a	0.020359207
14	0x3daf7d32	0.08568801
15	0xbdc702c9	-0.09717328
16	0xbd4719ed	-0.04860871
17	0xbd7ba17a	-0.061433293
18	0x3ddfcd71	0.10927857
19	0xbdaf8306	-0.085699126
20	0x3e1ddc7c	0.1541614
21	0xbc67d305	-0.014149432
22	0x3e3ebcbe	0.18626687
23	0x3dbf1604	0.09330371
24	0xbc5d7742	-0.013517203
25	0x3d546799	0.05185661
26	0xbd3a1a20	-0.04543507
27	0x3db01ba7	0.08599024
28	0x3d4f9ca3	0.05068649
29	0x3dcadf3b	0.09905859
30	0x3dc7c010	0.0975343
31	0xbc097c5a	-0.008391464
32	0xbdf4bf38	-0.119505346
33	0xbdc9af3d	-0.09847877
34	0xbdcb706b	-0.099335514
35	0xbddc0b19	-0.10744304
36	0x3d8ccca1	0.06874967
37	0x3cf98f06	0.030463707
38	0xbc13e7f0	-0.009027466
39	0x3ce8e31b	0.028428605
40	0x3d445f44	0.047942415
41	0x3df7fee7	0.12109166
42	0x3db6dc02	0.08928682
43	0xbe021c32	-0.12706068
44	0x3ca391b4	0.019966938
45	0x3dfdc66e	0.12391363
46	0xbda7add8	-0.08187455
47	0x3e1f5195	0.15558465
48	0xbe1e65fa	-0.15468588
49	0xbe10606c	-0.14099282
50	0xbdeb2c09	-0.114830084
51	0xbd9706f8	-0.07374376
52	0xbe350ef2	-0.17681482
53	0x3d91e60d	0.07123957
54	0xbd5e95dc	-0.054342136
55	0xba68783e	-0.0008868015
56	0x3dd79db4	0.10528126
57	0xbe2a9c6e	-0.16661236
58	0x3e207349	0.15668978
59	0xbbda596d	-0.0066634924
60	0xbd960b74	-0.07326403
61	0x3e05f63f	0.13082217
62	0xbe2afafa	-0.16697302
63	0x3c9d79a4	0.019223042
64	0xbe2bb348	-0.16767609
65	0x3e1a66d7	0.15078293
66	0xbcb4bbc1	-0.022062184
67	0xbd984de3	-0.07436731
68	0xbd77c026	-0.06048598
69	0x3e0a7395	0.13520654
70	0xbcc8201f	-0.024429379
71	0x3df9128b	0.1216174
72	0x3da9a492	0.082833424
73	0xbe644b52	-0.22294357
74	0xbe4b1c39	-0.19834985
75	0x3dea3e3f	0.11437654
76	0xbdfb9da7	-0.12285929
77	0x3e38db32	0.18052366
78	0x3ccf4e53	0.025305903
79	0x3dfa48f1	0.12220944
80	0xbe375891	-0.17904879
81	0xbe1f1aa9	-0.15537514
82	0xbd353a59	-0.044245098
83	0x3d690c25	0.056896348
84	0xbbe94883	-0.00711924
85	0x3d3b1bb0	0.0456807
86	0xbe26ae4e	-0.1627743
87	0x3dc43408	0.09580237
88	0x3d59649d	0.053074468
89	0x3d01661a	0.031591512
90	0x3ceaac80	0.028646708
91	0x3c71dbb2	0.014761852
92	0xbb54a326	-0.0032445877
93	0x3c2904df	0.010316103
94	0xbe1557b5	-0.14584239
95	0x3e08cb7c	0.13358873
96	0xbe3db76e	-0.18527004
97	0xbdab739c	-0.0837166
98	0x3ce21128	0.027596071
99	0xbdecfd36	-0.11571734
100	0x3e4c2daf	0.19939302
101	0xbdde6636	-0.10859339
102	0x3da6d821	0.08146692
103	0x3d441845	0.047874708
104	0x3e1019c2	0.14072326
105	0xbe1a6b12	-0.15079907
106	0xbdd0d98b	-0.10197743
107	0x3d25ea62	0.040506728
108	0x3d9c1962	0.07622029
109	0xbd557ddc	-0.052121982
110	0x3e1bb0ca	0.15204158
111	0x3a09c131	0.0005254923
112	0x3e45347f	0.19258307
113	0x3dbcdebd	0.092221715
114	0xbe1365a8	-0.14394248
115	0x3d7d0953	0.06177647
116	0xbd941ef1	-0.07232464
117	0x3b12e156	0.0022412143
118	0x3da1f362	0.0790775
119	0x3e3135dc	0.17305702
120	0xbcdfe4ae	-0.027330723
121	0xbdd99330	-0.10623777
122	0xbda991f8	-0.082797945
123	0xbd3f8e35	-0.04676648
124	0xbe131a5d	-0.14365526
125	0xbcb0d2e8	-0.021584943
126	0x3e0ba6e5	0.13637884
127	0xbca32d6b	-0.019919118
128	0x3d327dca	0.043576993
129	0xbe542fdd	-0.20721383
130	0x3c9aa1ff	0.018876074
131	0x3d15ae2b	0.036543053
132	0x3e6ebea4	0.23314911
133	0xbc3efd29	-0.011657038
134	0x3e1ed762	0.1551185
135	0x3ca180d7	0.019714756
136	0xbe02f595	-0.12788995
137	0x3e4e6caa	0.2015864
138	0xbd8e05e9	-0.06934721
139	0xbe0c5237	-0.13703237
140	0xbda20ffe	-0.079132065
141	0xbd90ddb8	-0.070735395
142	0x3d166d20	0.036725163
143	0xbdd194c1	-0.10233451
144	0x3d9cd648	0.076580584
145	0x3e4edf57	0.20202385
146	0x3da0d3a5	0.07852868
147	0xbcda5587	-0.02665211
148	0x3d9d0492	0.07666887
149	0xbdd332db	-0.10312434
150	0xbdcd3967	-0.10020714
151	0xbe02b577	-0.12764536
152	0x3d4fa0e5	0.05069055
153	0x3b899f7e	0.004199921
154	0xbd937045	-0.07199148
155	0xbd9dce95	-0.07705418
156	0x3e5d78ff	0.21628188
157	0x3e7e3156	0.24823508
158	0x3db3e97f	0.0878477
159	0x3da8ce89	0.082425185
160	0xbe08558c	-0.13313884
161	0x3e23c188	0.15991795
162	0xbd10f82f	-0.035392936
163	0x3e3e7bfe	0.18601987
164	0x3d29931c	0.04140006
165	0x3d9ea993	0.077471875
166	0xbcb4cb88	-0.022069708
167	0x3dd1b6a7	0.10239916
168	0x3d0f9fa9	0.035064373
169	0x3d5b6038	0.05355856
170	0x3e2f0e87	0.17095385
171	0x3b111175	0.002213565
172	0x3e16b46c	0.14717263
173	0xbded4569	-0.115855046
174	0x3d54a247	0.051912572
175	0x3cde9e04	0.027174957
176	0x3df976c9	0.121808596
177	0xbd83bba3	-0.06432273
178	0xbe3118d1	-0.17294623
179	0x3d9564ef	0.07294642
180	0xbb9bcfb1	-0.0047549834
181	0x3e32b6f1	0.17452599
182	0x3e2030b7	0.15643583
183	0x3e0028d1	0.1251557
184	0xbe35a762	-0.17739633
185	0x3e127bd5	0.1430505
186	0xbe08fa2f	-0.13376687
187	0x3de75ab8	0.112966
188	0xbd73e871	-0.059547845
189	0x3e12498c	0.14285868
190	0x3e22e88a	0.15909019
191	0x3e00d00b	0.12579362
192	0x3d8cf6c9	0.06883008
193	0x3c923f51	0.017852457
194	0x3c23ef3a	0.0100057665
195	0x3e370e2c	0.178765
196	0xbe063abc	-0.13108343
197	0xbe30b7dd	-0.17257638
198	0x3deb1898	0.114793
199	0x3d99e0b8	0.07513565
200	0xbde7d85a	-0.11320563
201	0x3d7900fa	0.060791947
202	0x3da35e75	0.079770006
203	0x3dce7a7b	0.10081955
204	0xbdabf465	-0.08396224
205	0xbe3500d8	-0.17676103
206	0x3d958d8d	0.07302389
207	0xbddad81f	-0.10685753
208	0x3e23c376	0.15992531
209	0x3c631030	0.01385884
210	0xbd8b9310	-0.06815159
211	0x3e2a9c2f	0.16661142
212	0x3dc7c583	0.09754469
213	0xbda67c73	-0.081292056
214	0xbe2856ca	-0.16439357
215	0xb98da2bc	-0.00027014862
216	0xbdce8a81	-0.10085011
217	0x3dada330	0.08478391
218	0x3def00c9	0.11670072
219	0x3d000390	0.031253397
220	0x3c206a7c	0.009791013
221	0xbe02d680	-0.12777138
222	0xbd89b7ea	-0.06724532
223	0xbe05b514	-0.13057357
224	0x3d5751ce	0.05256825
225	0x3e044565	0.12917097
226	0xbe076dd4	-0.1322549
227	0x3ca04789	0.01956536
228	0xbc60c540	-0.013718903
229	0xbdbff0a8	-0.093720734
230	0x3dd56a79	0.10420699
231	0x3e2e5f64	0.17028576
232	0xbe26c7a9	-0.16287102
233	0xbd7d8d13	-0.061902117
234	0x3c8b3b38	0.016996011
235	0x3df741ff	0.12073135
236	0x3d7f1927	0.062279847
237	0x3e00d765	0.12582166
238	0xbe2147c9	-0.1575004
239	0xbd889b9a	-0.06670304
240	0xbd91c5ed	-0.071178295
241	0xbdece218	-0.115665615
242	0x3def0a7f	0.11671924
243	0x388d1a0f	6.728258e-05
244	0xbd90493d	-0.07045219
245	0x3db5d61a	0.08878727
246	0x3d905072	0.07046594
247	0xbdbc12fc	-0.091833085
248	0xbe16d0e8	-0.14728129
249	0xbd2698fc	-0.04067324
250	0xbd11601d	-0.03549205
251	0x3d949b5e	0.072561964
252	0x3a3902d7	0.0007057613
253	0xbc771c8a	-0.015082488
254	0x3ca34a91	0.019933017
255	0x3e0cbcd5	0.13743909

model.transforms.0.encoder.noise_dist.transforms.0.ar_net.lstm.bias_ih_l1 f4 [128]
0	0xbdd9e0b6	-0.10638563
1	0x3c023db3	0.007949281
2	0x3ce7cad9	0.028294967
3	0x3df8e506	0.12153058
4	0x3bbc5199	0.005747032
5	0xbc93201a	-0.017959643
6	0xbcc2957e	-0.023752924
7	0x3d8ced84	0.0688124
8	0xbd227436	-0.03966161
9	0x3e4ad087	0.1980611
10	0xbd220d68	-0.039563566
11	0x3e0e90f1	0.13922478
12	0x3e21a683	0.15786175
13	0xbdb54df3	-0.08852758
14	0xbe09f98b	-0.134741
15	0xbdbf4c57	-0.093407325
16	0x3e060419	0.130875
17	0x3e24485e	0.16043231
18	0x3ce86fc5	0.028373608
19	0xbdcc288a	-0.0996867
20	0x3e0768c4	0.13223559
21	0x3dc4cdd0	0.09609568
22	0x3e3221d9	0.17395724
23	0xbdb196fd	-0.08671377
24	0x3e11ecd2	0.14250496
25	0x3e3cf642	0.18453315
26	0x3e360c36	0.17778096
27	0x3d63b64c	0.055593774
28	0xbe3cda4a	-0.18442646
29	0xbde3e16b	-0.111269794
30	0x3c0b8497	0.008515499
31	0x3d5ffac6	0.054682516
32	0x3e1daa0b	0.15396897
33	0x3db0ce9d	0.08633158
34	0xbdd7cec2	-0.10537483
35	0xbc843ef4	-0.0161433
36	0x3d8fac65	0.070153035
37	0xbd9497dc	-0.072555274
38	0x3e218a56	0.15775427
39	0xbe0ddbf7	-0.13853441
40	0xbd8a9cb0	-0.06768167
41	0xbe21b7f2	-0.15792826
42	0x3c5fe7bc	0.01366609
43	0xbd52ff3e	-0.05151295
44	0x3d2ee329	0.042697106
45	0x3db4056e	0.08790098
46	0x3e15b53a	0.14619914
47	0xbc26045c	-0.010132875
48	0x3df9209f	0.12164425
49	0x3e371284	0.17878157
50	0x3da0394f	0.07823431
51	0xbd0981a0	-0.033570886
52	0xbdc8d772	-0.09806718
53	0x3b8e6909	0.0043460173
54	0xbda47e83	-0.08031943
55	0x3e103b77	0.14085184
56	0xbd0fa008	-0.035064727
57	0x3dae513e	0.085115895
58	0xbd9993ad	-0.0749887
59	0x3e3a71d5	0.18207486
60	0x3c949778	0.018138632
61	0xbdc85150	-0.09781134
62	0xbd9a62b7	-0.075383596
63	0x3d45e907	0.048317935
64	0xbe1c8ee0	-0.15288877
65	0x3c843836	0.016140085
66	0x3d4d28ee	0.05008786
67	0x3dddf79d	0.10838244
68	0x3e00270b	0.12514894
69	0xbc05b9a6	-0.008161938
70	0xbde8d8c4	-0.1136947
71	0x3e19fbe8	0.15037501
72	0xbe2d0bad	-0.16898985
73	0x3cb00425	0.021486351
74	0x3cab625b	0.020920923
75	0x3e003523	0.1252027
76	0x3b602961	0.0034204351
77	0x3d3938c2	0.045220144
78	0xbe02e39b	-0.12782137
79	0xbdfe0f23	-0.12405231
80	0x3d26982a	0.04067246
81	0xbc509825	-0.012731587
82	0x3dfd7da4	0.1237748
83	0x3afafc3b	0.0019148657
84	0x3dbecf34	0.093168646
85	0x3e2793ef	0.16365026
86	0xbd9a4aab	-0.07533773
87	0x3c0125fc	0.007882591
88	0x3de44a8f	0.111470334
89	0xbde20936	-0.11036913
90	0x3de86001	0.11346436
91	0xbe2e7b92	-0.17039326
92	0x3dfd2651	0.12360824
93	0x3dc1e9c0	0.094684124
94	0x3e2d3069	0.16912998
95	0xbc8e586b	-0.017376145
96	0xbd15709b	-0.036484342
97	0x3ce7ebd9	0.028310703
98	0x3d069517	0.032857027
99	0x3e1d36a8	0.15352881
100	0x3e127d84	0.14305693
101	0xbdb7f7c7	-0.08982807
102	0x3d884ff1	0.066558726
103	0xbd61ca3b	-0.055124503
104	0x3dd80f1d	0.10549758
105	0xbbd93515	-0.0066286423
106	0xbd099b28	-0.033595234
107	0xbdb8b66a	-0.09019168
108	0xbd74412d	-0.05963247
109	0xbd8272a4	-0.06369522
110	0xbda07663	-0.078350805
111	0xbd302291	-0.043001715
112	0x3d9b42c2	0.075810924
113	0x3e10e937	0.14151464
114	0xbdbf7c09	-0.0934983
115	0xbdcd532d	-0.1002563
116	0x3dc2ce21	0.09511972
117	0xbcb0b63b	-0.02157127
118	0xbccf2652	-0.025286827
119	0xbdd76aaf	-0.10518395
120	0xbe049782	-0.1294842
121	0x3d644b4c	0.05573587
122	0xbd94d91b	-0.07267972
123	0x3e057322	0.13032201
124	0x3e15eba6	0.14640674
125	0x3e13abd8	0.14421022
126	0xbe1107d3	-0.14163141
127	0x3dbd7b06	0.092519805

model.transforms.0.encoder.noise_dist.transforms.0.ar_net.lstm.bias_hh_l1 f4 [128]
0	0xbdc1dbe6	-0.094657704
1	0x3e0e5e3d	0.13903137
2	0xbde6bd96	-0.112666294
3	0xbc34dced	-0.011039001
4	0x3e1f6a6d	0.15567942
5	0x3d2e390e	0.04253488
6	0xbe05ed7a	-0.13078871
7	0xbde36db9	-0.11104912
8	0x3da96d06	0.08272748
9	0x3d21632d	0.039401222
10	0xbd467fa1	-0.04846156
11	0x3d7e0064	0.06201209
12	0xbdfdd11d	-0.12393401
13	0xbc7ea925	-0.015543257
14	0x3dad222c	0.084537834
15	0xbdf6ac23	-0.12044551
16	0x3dd1e4bd	0.102487065
17	0x3e43d871	0.19125535
18	0x3dab9505	0.083780326
19	0xbdb6bf86	-0.08923249
20	0xbda9840b	-0.08277138
21	0x3e336051	0.1751721
22	0x3cd1c583	0.025606876
23	0xbe135e6a	-0.14391485
24	0xbe1708a9	-0.14749397
25	0xbc32f4d2	-0.0109226275
26	0xbd9f4f6b	-0.0777882
27	0xbd11ff0a	-0.035643615
28	0xbd57b0ce	-0.05265885
29	0x3e04914c	0.12946051
30	0xbe06ae1c	-0.13152355
31	0x3e6787d4	0.22610408
32	0x3d6e77a7	0.058219578
33	0x3e23c177	0.1599177
34	0x3c7bcc78	0.015368573
35	0xbe078fd7	-0.13238464
36	0x3e616e25	0.22014673
37	0xbbfdca4d	-0.0077450634
38	0xbe01cf6e	-0.12676784
39	0x3e00e635	0.12587817
40	0x3e23313e	0.15936753
41	0xbe072e05	-0.13201149
42	0x3e174163	0.14771037
43	0xbdff7f1c	-0.12475416
44	0xbe125269	-0.1428925
45	0xbd1bb28d	-0.038012076
46	0x3b3ebf1a	0.0029105605
47	0x3d8de903	0.06929209
48	0x3dd56011	0.10418714
49	0xbdedd5cf	-0.116130464
50	0x3d24e089	0.040253196
51	0x3dde6060	0.10858226
52	0xbdb1777b	-0.08665367
53	0x3e0b2535	0.13588412
54	0x3dd2c1fa	0.10290904
55	0xbe2b75d2	-0.16744164
56	0xbd066542	-0.03281141
57	0x3d6e62c6	0.058199666
58	0x3d7d6c8b	0.061871093
59	0xbdfef262	-0.124485746
60	0xbe319f03	-0.17345814
61	0x3e1db327	0.15400372
62	0x3d520d48	0.051282197
63	0xbbbff254	-0.005857745
64	0xbd86c986	-0.06581406
65	0xbdf541a6	-0.11975412
66	0x3e132d21	0.14372684
67	0x3e147e67	0.14501344
68	0xbd7fe9f5	-0.06247898
69	0xbe21ab73	-0.15788059
70	0xbe2693bc	-0.16267294
71	0x3d9176ba	0.071027234
72	0xbd4368e0	-0.04770744
73	0xbcc42182	-0.023941759
74	0x3d1460db	0.03622518
75	0xbe37cbab	-0.17948787
76	0xbcc4d5a3	-0.024027651
77	0x3dd84a7e	0.10561083
78	0xbdf348f4	-0.11879149
79	0x3e1097f6	0.14120468
80	0x3d078ea0	0.033095002
81	0x3db8ad66	0.09017448
82	0xbe27e920	-0.16397524
83	0x3e140600	0.14455414
84	0xbdc68b3e	-0.09694527
85	0x3d7ed1ba	0.06221173
86	0xbe135da3	-0.14391188
87	0x3d5e0039	0.05419943
88	0xbd9a7cc0	-0.075433254
89	0xbdbf6d35	-0.093470015
90	0x3d767a75	0.060175378
91	0x3d8bb8d8	0.068223655
92	0xbd24aeb7	-0.040205684
93	0xbde210cf	-0.11038362
94	0x3d219a8e	0.039454035
95	0xbdeddeb0	-0.1161474
96	0x3dc81b19	0.097707935
97	0xbe018985	-0.12650116
98	0x3cf93dc1	0.030424954
99	0x3d4f414e	0.05059939
100	0x3e0e8d05	0.13920982
101	0x3d9d32f8	0.07675737
102	0x3d8dd03c	0.06924483
103	0xbe0672ef	-0.13129781
104	0xbdf2d8ea	-0.11857779
105	0x3cf96ee7	0.03044839
106	0xbd18e46d	-0.03732722
107	0xbda329bb	-0.07966944
108	0xbe21403d	-0.15747161
109	0xbd172122	-0.036896832
110	0xbd8ac70e	-0.06776248
111	0xbdf1fa7d	-0.11815355
112	0xbdf60742	-0.12013103
113	0x3d8d6493	0.06903949
114	0x3e104ba9	0.14091362
115	0xbdb3b610	-0.0877496
116	0x3e127533	0.1430252
117	0x3dda1a30	0.10649526
118	0xbc0f2d00	-0.008738756
119	0x3cf5879d	0.029971892
120	0x3dd997e5	0.10624675
121	0xbd3ebee7	-0.046568777
122	0x3e0d4c39	0.13798608
123	0xbdf8b02a	-0.12142976
124	0x3d0af2ae	0.033922844
125	0xbdaa0d25	-0.08303288
126	0x3e15ade8	0.14617121
127	0x3dde1ab6	0.108449385
