checkpoints/sort_2/S_6_K_6/CDM/15_05_2023__10_37/cktp/checkpoint_0001000.tar (torch, 625371 bytes, 43 tensors)

cdm.log_alpha f4 [100]
0	0xb9a589f8	-0.00031574047
1	0xba127b22	-0.0005587806
2	0xba524386	-0.0008020926
3	0xba891311	-0.0010457953
4	0xbaa9157e	-0.0012900082
5	0xbac92d18	-0.0015348522
6	0xbae95df4	-0.001780449
7	0xbb04d61b	-0.0020269218
8	0xbb150e09	-0.0022743961
9	0xbb2558e6	-0.002522999
10	0xbb35b8dc	-0.0027728593
11	0xbb463024	-0.0030241096
12	0xbb56c0fe	-0.003276884
13	0xbb676dbc	-0.003531321
14	0xbb7838bd	-0.0037875616
15	0xbb849237	-0.0040457505
16	0xbb8d19a9	-0.0043060374
17	0xbb95b3ff	-0.0045685763
18	0xbb9e628c	-0.004833525
19	0xbba726b1	-0.005101048
20	0xbbb001d9	-0.005371314
21	0xbbb8f580	-0.0056445003
22	0xbbc2032b	-0.005920788
23	0xbbcb2c73	-0.006200367
24	0xbbd47300	-0.0064834356
25	0xbbddd88c	-0.006770199
26	0xbbe75ee4	-0.0070608724
27	0xbbf107ea	-0.0073556798
28	0xbbfad599	-0.0076548574
29	0xbc026501	-0.0079586515
30	0xbc0773a7	-0.00826732
31	0xbc0c97e4	-0.008581135
32	0xbc11d2eb	-0.008900384
33	0xbc172600	-0.0092253685
34	0xbc1c9277	-0.009556404
35	0xbc2219bb	-0.00989383
36	0xbc27bd49	-0.010238
37	0xbc2d7eb5	-0.010589291
38	0xbc335fac	-0.010948103
39	0xbc3961f5	-0.011314859
40	0xbc3f8776	-0.011690011
41	0xbc45d231	-0.012074039
42	0xbc4c444c	-0.012467455
43	0xbc52e014	-0.012870807
44	0xbc59a7fb	-0.013284679
45	0xbc609ea2	-0.013709696
46	0xbc67c6da	-0.014146531
47	0xbc6f23a9	-0.014595904
48	0xbc76b851	-0.015058593
49	0xbc7e8852	-0.015535431
50	0xbc834bbb	-0.016027322
51	0xbc8774e9	-0.01653524
52	0xbc8bc1ea	-0.017060239
53	0xbc903525	-0.017603466
54	0xbc94d135	-0.018166164
55	0xbc9998f3	-0.01874969
56	0xbc9e8f77	-0.019355519
57	0xbca3b824	-0.019985266
58	0xbca916b2	-0.020640705
59	0xbcaeaf33	-0.021323776
60	0xbcb48623	-0.022036618
61	0xbcbaa077	-0.022781594
62	0xbcc103a6	-0.02356131
63	0xbcc7b5c4	-0.024378665
64	0xbccebd91	-0.025236877
65	0xbcd62295	-0.026139537
66	0xbcdded3e	-0.027090665
67	0xbce62704	-0.028094776
68	0xbceeda90	-0.029156953
69	0xbcf813f2	-0.030282948
70	0xbd00f06d	-0.031479288
71	0xbd062873	-0.03275342
72	0xbd0bbafc	-0.03411387
73	0xbd11b252	-0.03557045
74	0xbd181a5b	-0.03713451
75	0xbd1f00f1	-0.038819257
76	0xbd267646	-0.040640138
77	0xbd2e8d71	-0.042615358
78	0xbd375d13	-0.044766497
79	0xbd41003a	-0.047119357
80	0xbd4b9780	-0.04970503
81	0xbd574a90	-0.052561343
82	0xbd644a25	-0.055734772
83	0xbd72d2d0	-0.059283078
84	0xbd819864	-0.06327894
85	0xbd8ae2a9	-0.06781513
86	0xbd95874b	-0.07301196
87	0xbda1d998	-0.07902831
88	0xbdb049eb	-0.08607849
89	0xbdc17393	-0.09445872
90	0xbdd6337d	-0.10459039
91	0xbdefcf13	-0.11709418
92	0xbe081d29	-0.13292374
93	0xbe1d4fa7	-0.15362416
94	0xbe3a3dbd	-0.18187614
95	0xbe642039	-0.22277917
96	0xbe9325ec	-0.2873987
97	0xbecf7e98	-0.4052627
98	0xbf316a23	-0.69302577
99	0xc05d0c55	-3.4538777

cdm.log_1_min_alpha f4 [100]
0	0xc100f8d3	-8.060748
1	0xc0efae5a	-7.490033
2	0xc0e41e35	-7.1286874
3	0xc0dba1cc	-6.8635006
4	0xc0d4eb89	-6.653752
5	0xc0cf5ce3	-6.4800887
6	0xc0ca9df1	-6.33178
7	0xc0c678d5	-6.20225
8	0xc0c2ca29	-6.0871778
9	0xc0bf7964	-5.983568
10	0xc0bc74d6	-5.889262
11	0xc0b9af50	-5.8026505
12	0xc0b71eb9	-5.7225003
13	0xc0b4bb2d	-5.6478486
14	0xc0b27e5f	-5.577926
15	0xc0b06335	-5.51211
16	0xc0ae657e	-5.449889
17	0xc0ac81bd	-5.390837
18	0xc0aab501	-5.334595
19	0xc0a8fccb	-5.2808585
20	0xc0a756fa	-5.2293673
21	0xc0a5c1b2	-5.1798944
22	0xc0a43b59	-5.1322446
23	0xc0a2c286	-5.0862455
24	0xc0a155f9	-5.0417447
25	0xc09ff499	-4.998608
26	0xc09e9d69	-4.956715
27	0xc09d4f87	-4.915958
28	0xc09c0a28	-4.87624
29	0xc09acc93	-4.8374724
30	0xc0999620	-4.799576
31	0xc0986635	-4.7624764
32	0xc0973c46	-4.7261076
33	0xc09617d1	-4.6904073
34	0xc094f85e	-4.6553183
35	0xc093dd7c	-4.6207867
36	0xc092c6c5	-4.586764
37	0xc091b3d5	-4.553202
38	0xc090a451	-4.520058
39	0xc08f97e2	-4.4872904
40	0xc08e8e36	-4.4548597
41	0xc08d86fe	-4.4227285
42	0xc08c81ef	-4.390861
43	0xc08b7ebf	-4.359222
44	0xc08a7d2a	-4.327779
45	0xc0897ceb	-4.296499
46	0xc0887dc1	-4.265351
47	0xc0877f6a	-4.2343035
48	0xc08681a6	-4.203326
49	0xc0858437	-4.1723895
50	0xc08486de	-4.1414633
51	0xc083895c	-4.1105175
52	0xc0828b73	-4.0795226
53	0xc0818ce3	-4.048448
54	0xc0808d6d	-4.017264
55	0xc07f199d	-3.9859383
56	0xc07d158b	-3.9544399
57	0xc07b0e1b	-3.922736
58	0xc07902c0	-3.8907928
59	0xc076f2e7	-3.8585756
60	0xc074ddf8	-3.826048
61	0xc072c353	-3.7931716
62	0xc070a250	-3.7599068
63	0xc06e7a40	-3.7262115
64	0xc06c4a66	-3.692041
65	0xc06a11fc	-3.6573477
66	0xc067d02c	-3.6220808
67	0xc0658413	-3.5861862
68	0xc0632cba	-3.549605
69	0xc060c918	-3.5122738
70	0xc05e580b	-3.4741237
71	0xc05bd859	-3.4350798
72	0xc05948a8	-3.3950596
73	0xc056a77d	-3.3539727
74	0xc053f331	-3.3117182
75	0xc05129f4	-3.2681856
76	0xc04e49bc	-3.2232504
77	0xc04b503e	-3.1767726
78	0xc0483ae7	-3.128595
79	0xc04506c7	-3.0785387
80	0xc041b084	-3.0263987
81	0xc03e3443	-2.9719398
82	0xc03a8d8b	-2.914889
83	0xc036b71e	-2.8549266
84	0xc032aacf	-2.7916753
85	0xc02e6141	-2.724686
86	0xc029d191	-2.653416
87	0xc024f0e5	-2.577203
88	0xc01fb1c9	-2.4952261
89	0xc01a0347	-2.40645
90	0xc013cf8d	-2.309543
91	0xc00cf9e6	-2.2027526
92	0xc0055b6e	-2.0837054
93	0xbff97b4b	-1.9490751
94	0xbfe5a173	-1.7939895
95	0xbfce31dd	-1.6108967
96	0xbfb18df7	-1.3871449
97	0xbf8cac98	-1.0990171
98	0xbf317a0d	-0.6932686
99	0xbd039e7f	-0.032133576

cdm.log_cumprod_alpha f4 [100]
0	0xb9a589f8	-0.00031574047
1	0xba65401e	-0.0008745211
2	0xbadbc1d2	-0.0016766137
3	0xbb326a71	-0.0027224089
4	0xbb837a98	-0.004012417
5	0xbbb5c5de	-0.0055472692
6	0xbbf01d5b	-0.007327718
7	0xbc194434	-0.00935464
8	0xbc3e87b7	-0.011629037
9	0xbc67ddf0	-0.014152035
10	0xbc8aa614	-0.016924895
11	0xbca36c18	-0.019949004
12	0xbcbe4438	-0.023225889
13	0xbcdb31ef	-0.026757209
14	0xbcfa3907	-0.03054477
15	0xbd0daeca	-0.03459052
16	0xbd1f5200	-0.03889656
17	0xbd32087f	-0.043465134
18	0xbd45d4d1	-0.04829866
19	0xbd5ab9a7	-0.053399708
20	0xbd70b9e2	-0.05877102
21	0xbd83ec49	-0.06441552
22	0xbd900c7c	-0.07033631
23	0xbd9cbf43	-0.07653668
24	0xbdaa0673	-0.08302011
25	0xbdb7e3fc	-0.089790314
26	0xbdc659ea	-0.096851185
27	0xbdd56a69	-0.10420687
28	0xbde517c2	-0.11186172
29	0xbdf56462	-0.11982037
30	0xbe03296c	-0.1280877
31	0xbe0bf2ea	-0.13666883
32	0xbe151019	-0.14556922
33	0xbe1e8279	-0.15479459
34	0xbe284ba0	-0.16435099
35	0xbe326d3c	-0.17424482
36	0xbe3ce910	-0.18448281
37	0xbe47c0fc	-0.19507211
38	0xbe52f6f6	-0.2060202
39	0xbe5e8d16	-0.21733508
40	0xbe6a858d	-0.22902508
41	0xbe76e2b0	-0.24109912
42	0xbe81d37a	-0.25356656
43	0xbe886a7b	-0.26643738
44	0xbe8f37bb	-0.27972206
45	0xbe963cb0	-0.29343176
46	0xbe9d7ae7	-0.3075783
47	0xbea4f404	-0.3221742
48	0xbeaca9c7	-0.3372328
49	0xbeb49e09	-0.3527682
50	0xbebcd2c5	-0.36879554
51	0xbec54a13	-0.38533077
52	0xbece0632	-0.40239102
53	0xbed70984	-0.41999447
54	0xbee05698	-0.43816066
55	0xbee9f027	-0.45691034
56	0xbef3d91e	-0.47626585
57	0xbefe14a0	-0.4962511
58	0xbf045306	-0.51689184
59	0xbf09c87f	-0.5382156
60	0xbf0f6cb0	-0.5602522
61	0xbf1541b4	-0.5830338
62	0xbf1b49d1	-0.6065951
63	0xbf218780	-0.6309738
64	0xbf27fd6c	-0.65621066
65	0xbf2eae81	-0.6823502
66	0xbf359deb	-0.7094409
67	0xbf3ccf23	-0.73753566
68	0xbf4445f7	-0.7666926
69	0xbf4c0697	-0.79697555
70	0xbf54159e	-0.82845485
71	0xbf5c7825	-0.86120826
72	0xbf6533d5	-0.89532214
73	0xbf6e4efa	-0.9308926
74	0xbf77d09f	-0.96802706
75	0xbf80e057	-1.0068463
76	0xbf861409	-1.0474864
77	0xbf8b8875	-1.0901018
78	0xbf91435e	-1.1348684
79	0xbf974b5f	-1.1819876
80	0xbf9da81b	-1.2316927
81	0xbfa46270	-1.2842541
82	0xbfab84c1	-1.3399888
83	0xbfb31b58	-1.399272
84	0xbfbb34de	-1.4625509
85	0xbfc3e308	-1.530366
86	0xbfcd3b7d	-1.6033779
87	0xbfd75916	-1.6824062
88	0xbfe25db5	-1.7684847
89	0xbfee74ee	-1.8629434
90	0xbffbd826	-1.9675338
91	0xc0056a8c	-2.084628
92	0xc00dec5e	-2.2175517
93	0xc017c159	-2.371176
94	0xc0236534	-2.553052
95	0xc031a738	-2.7758312
96	0xc0440bf6	-3.06323
97	0xc05dfbc9	-3.4684927
98	0xc0852b29	-4.1615186
99	0xc0f3b153	-7.615396

cdm.log_1_min_cumprod_alpha f4 [100]
0	0xc100f8d3	-8.060748
1	0xc0e15a49	-7.042271
2	0xc0cc89c5	-6.3918176
3	0xc0bd0b0d	-5.907599
4	0xc0b0a6d9	-5.520367
5	0xc0a64fa4	-5.1972218
6	0xc09d6e9d	-4.9197526
7	0xc095a65a	-4.6765566
8	0xc08eb8ce	-4.460059
9	0xc0887a97	-4.2649646
10	0xc082cc25	-4.08742
11	0xc07b2b91	-3.924534
12	0xc0718a7f	-3.7740781
13	0xc068985f	-3.6343
14	0xc0603e2f	-3.5037954
15	0xc0586934	-3.381421
16	0xc05109fd	-3.2662346
17	0xc04a13a9	-3.15745
18	0xc0437b59	-3.0544035
19	0xc03d37ce	-2.956531
20	0xc0374118	-2.863348
21	0xc031905a	-2.7744355
22	0xc02c1f9b	-2.689429
23	0xc026e9a1	-2.6080096
24	0xc021e9ce	-2.5298953
25	0xc01d1c0f	-2.4548376
26	0xc0187cc1	-2.3826144
27	0xc01408a8	-2.3130283
28	0xc00fbcd9	-2.2459013
29	0xc00b96b6	-2.1810737
30	0xc00793e0	-2.1184006
31	0xc003b231	-2.057751
32	0xbfffdf69	-1.9990054
33	0xbff89546	-1.9420555
34	0xbff182b4	-1.8868012
35	0xbfeaa4b7	-1.8331517
36	0xbfe3f88d	-1.7810227
37	0xbfdd7baf	-1.730337
38	0xbfd72bc5	-1.6810232
39	0xbfd106a5	-1.6330153
40	0xbfcb0a4c	-1.5862517
41	0xbfc534de	-1.5406759
42	0xbfbf849d	-1.4962345
43	0xbfb9f7ed	-1.4528786
44	0xbfb48d4a	-1.4105618
45	0xbfaf434a	-1.369241
46	0xbfaa189c	-1.328876
47	0xbfa50c02	-1.289429
48	0xbfa01c51	-1.2508641
49	0xbf9b4872	-1.2131484
50	0xbf968f5c	-1.17625
51	0xbf91f018	-1.1401396
52	0xbf8d69ba	-1.104789
53	0xbf88fb65	-1.070172
54	0xbf84a447	-1.0362633
55	0xbf80639b	-1.0030397
56	0xbf787149	-0.9704786
57	0xbf704562	-0.9385587
58	0xbf68422f	-0.9072599
59	0xbf60666f	-0.876563
60	0xbf58b0f1	-0.8464499
61	0xbf512092	-0.81690323
62	0xbf49b43d	-0.78790647
63	0xbf426aea	-0.7594439
64	0xbf3b439e	-0.7315005
65	0xbf343d68	-0.704062
66	0xbf2d5764	-0.6771147
67	0xbf2690b6	-0.6506456
68	0xbf1fe88c	-0.62464213
69	0xbf195e1d	-0.5990923
70	0xbf12f0ab	-0.5739848
71	0xbf0c9f7c	-0.54930854
72	0xbf0669e0	-0.525053
73	0xbf004f2e	-0.5012082
74	0xbef49d87	-0.47776434
75	0xbee8d00a	-0.4547122
76	0xbedd34b8	-0.43204284
77	0xbed1ca72	-0.40974766
78	0xbec69022	-0.3878184
79	0xbebb84bf	-0.36624715
80	0xbeb0a747	-0.34502622
81	0xbea5f6c5	-0.32414833
82	0xbe9b7249	-0.3036063
83	0xbe9118f0	-0.28339338
84	0xbe86e9db	-0.26350293
85	0xbe79c86c	-0.24392861
86	0xbe660e66	-0.2246643
87	0xbe52a417	-0.20570408
88	0xbe3f87ff	-0.18704222
89	0xbe2cb8ad	-0.16867323
90	0xbe1a34ba	-0.15059176
91	0xbe07facc	-0.13279265
92	0xbdec132c	-0.11527094
93	0xbdc8bfa8	-0.098021805
94	0xbda5f899	-0.08104057
95	0xbd83bba2	-0.064322725
96	0xbd440cf3	-0.04786391
97	0xbd01adcf	-0.031659897
98	0xbc80ab17	-0.015706582
99	0xba0137c4	-0.0004929269

cdm.Lt_history f4 [100]
0	0x31e71085	6.724863e-09
1	0x33588775	5.0414616e-08
2	0x332b9774	3.9951786e-08
3	0x343fd3cc	1.7865312e-07
4	0x38076769	3.2282816e-05
5	0x350a96d8	5.162851e-07
6	0x38914025	6.926087e-05
7	0x345fd354	2.0845374e-07
8	0x35736a7e	9.067952e-07
9	0x386956c0	5.563232e-05
10	0x38f70b85	0.000117800235
11	0x352417e9	6.1129555e-07
12	0x3b9775f5	0.004622216
13	0x3ab98472	0.0014153852
14	0x3a12c4dc	0.00055987923
15	0x3e6055c2	0.21907714
16	0x3a81dd8f	0.0009907949
17	0x398102a0	0.00024606753
18	0x3bc7a406	0.006092551
19	0x3aaca09d	0.0013170425
20	0x3c792d0a	0.015208492
21	0x3c084ce5	0.008319114
22	0x3b7e58f3	0.0038810342
23	0x3a921e8c	0.001114802
24	0x3ddfc606	0.10926442
25	0x3c190311	0.00933911
26	0x3d08860d	0.033330966
27	0x3b5aad61	0.0033367502
28	0x3c1faea7	0.00974623
29	0x3d47a12c	0.04873769
30	0x3baa710d	0.005201465
31	0x3c675088	0.014118321
32	0x3c177cea	0.00924609
33	0x3b76f7de	0.0037684361
34	0x3c11c62f	0.008897348
35	0x3c4240f8	0.01185631
36	0x3c2ee736	0.010675242
37	0x3cc98a96	0.024602216
38	0x3c7d8ef1	0.015475974
39	0x3bf0b57f	0.007345855
40	0x3cc5a0c0	0.024124503
41	0x3c6a81d7	0.014313183
42	0x3bbfc306	0.005852106
43	0x3c412340	0.011788189
44	0x3be99cdb	0.0071292943
45	0x3ccd385e	0.025051292
46	0x3c558811	0.013032929
47	0x3c9c5eda	0.019088197
48	0x3c523b5e	0.012831537
49	0x3cc2137b	0.02369093
50	0x3cf09748	0.029369012
51	0x3cc36b56	0.023854893
52	0x3c737964	0.014860485
53	0x3c506fe7	0.012721992
54	0x3c9df8d8	0.019283697
55	0x3c78da34	0.015188742
56	0x3c831c9c	0.016004853
57	0x3ca701d3	0.020386612
58	0x3c8ae1d4	0.016953386
59	0x3c491f16	0.012275478
60	0x3c869b92	0.016431604
61	0x3c6e3bef	0.0145406565
62	0x3ca09750	0.019603401
63	0x3c7bdd0a	0.015372524
64	0x3c8d7807	0.017269148
65	0x3c92eeb7	0.017936094
66	0x3c471ccc	0.012152862
67	0x3c87bca4	0.016569443
68	0x3c717f61	0.014739842
69	0x3c81ed06	0.015860092
70	0x3c36c3e2	0.011155101
71	0x3c4e3aa2	0.012587221
72	0x3c6ac151	0.014328317
73	0x3c31d328	0.010853566
74	0x3c14c0bd	0.0090791555
75	0x3c2aedd8	0.010432683
76	0x3c310bd6	0.010806045
77	0x3c211d87	0.0098337
78	0x3c1bba2c	0.009504836
79	0x3c1422cc	0.009041499
80	0x3c01ed5f	0.007930129
81	0x3bf5c9e2	0.007500873
82	0x3bed35e2	0.0072390893
83	0x3bced0ea	0.0063115256
84	0x3bc933cd	0.0061402083
85	0x3bafb4fa	0.0053621503
86	0x3bb217ec	0.0054349806
87	0x3b8f9f2a	0.0043829875
88	0x3b759b43	0.0037476576
89	0x3b60d8fb	0.0034309018
90	0x3b3d223e	0.0028859521
91	0x3b0ee44d	0.0021803558
92	0x3b0d44b4	0.0021555843
93	0x3ae37710	0.0017354209
94	0x3aaedba4	0.0013340604
95	0x3a589e5b	0.0008263343
96	0x3a14b15c	0.00056721806
97	0x398dfc81	0.00027081746
98	0x39057f0f	0.00012731201
99	0x375a2a10	1.3003606e-05

cdm.Lt_count f4 [100]
0	0x43110000	145.0
1	0x42e60000	115.0
2	0x44de2000	1777.0
3	0x452d4000	2772.0
4	0x4639d000	11892.0
5	0x45a68000	5328.0
6	0x46010000	8256.0
7	0x45d79800	6899.0
8	0x463a5000	11924.0
9	0x462f6800	11226.0
10	0x460fb800	9198.0
11	0x45f85000	7946.0
12	0x46277000	10716.0
13	0x462c8000	11040.0
14	0x4616f000	9660.0
15	0x4625d400	10613.0
16	0x461a2c00	9867.0
17	0x462ba400	10985.0
18	0x46361000	11652.0
19	0x462af400	10941.0
20	0x462a1800	10886.0
21	0x462d4000	11088.0
22	0x462d5400	11093.0
23	0x4627f800	10750.0
24	0x464f9000	13284.0
25	0x462efc00	11199.0
26	0x4649a800	12906.0
27	0x4631d000	11380.0
28	0x463efc00	12223.0
29	0x4640dc00	12343.0
30	0x4639a400	11881.0
31	0x46499000	12900.0
32	0x46459400	12645.0
33	0x46504000	13328.0
34	0x464a3800	12942.0
35	0x465a2c00	13963.0
36	0x46454800	12626.0
37	0x4654c400	13617.0
38	0x465af000	14012.0
39	0x464c0800	13058.0
40	0x46448c00	12579.0
41	0x46592000	13896.0
42	0x46560400	13697.0
43	0x46535400	13525.0
44	0x465c2400	14089.0
45	0x46529c00	13479.0
46	0x46514000	13392.0
47	0x46476800	12762.0
48	0x46524800	13458.0
49	0x4652a000	13480.0
50	0x4651e000	13432.0
51	0x4657b000	13804.0
52	0x4642a800	12458.0
53	0x464d8000	13152.0
54	0x46510c00	13379.0
55	0x46455800	12630.0
56	0x46472400	12745.0
57	0x46483c00	12815.0
58	0x4646c000	12720.0
59	0x46436400	12505.0
60	0x46444c00	12563.0
61	0x46473400	12749.0
62	0x4642f800	12478.0
63	0x4642a400	12457.0
64	0x463b4000	11984.0
65	0x46396800	11866.0
66	0x46364800	11666.0
67	0x4638c000	11824.0
68	0x46332800	11466.0
69	0x4631e400	11385.0
70	0x462d7800	11102.0
71	0x46295000	10836.0
72	0x46270000	10688.0
73	0x46223c00	10383.0
74	0x46215800	10326.0
75	0x461f2400	10185.0
76	0x461a4400	9873.0
77	0x46185c00	9751.0
78	0x46156800	9562.0
79	0x460acc00	8883.0
80	0x46095000	8788.0
81	0x4605f000	8572.0
82	0x46006c00	8219.0
83	0x45f8d800	7963.0
84	0x45e8b000	7446.0
85	0x45df7000	7150.0
86	0x45d49000	6802.0
87	0x45c30800	6241.0
88	0x45bb7800	5999.0
89	0x45b56000	5804.0
90	0x45a4e000	5276.0
91	0x45965000	4810.0
92	0x45868000	4304.0
93	0x456e8000	3816.0
94	0x45531000	3377.0
95	0x45359000	2905.0
96	0x450e5000	2277.0
97	0x44d24000	1682.0
98	0x44860000	1072.0
99	0x43c68000	397.0

cdm._denoise_fn.transformer.first.weight f4 [6, 64]
0	0xbf881a9f	-1.0633124
1	0x3f734871	0.9503241
2	0xbfa86605	-1.3156134
3	0xbf88c01d	-1.0683628
4	0xbf9ac06e	-1.2089975
5	0x3f9a1081	1.2036287
6	0xbf8d2664	-1.1027341
7	0xbdb717ea	-0.08940108
8	0xbf68d897	-0.9095549
9	0x3eac4a1c	0.3365029
10	0xbf0ece53	-0.55783576
11	0xbe6aaed2	-0.22918251
12	0x3f79e0ed	0.97608835
13	0xbf3f8519	-0.74812466
14	0xbe733e6a	-0.23754278
15	0xbed5b02f	-0.4173598
16	0xbfbf1a58	-1.4929914
17	0xbee263b8	-0.44216704
18	0xbf5fee33	-0.8747284
19	0x3f09d98d	0.5384758
20	0xbcf53a35	-0.029934982
21	0xbad3dd4e	-0.0016163976
22	0x3f857ac2	1.0428088
23	0x3f5d0e1b	0.8634965
24	0x3ee9939b	0.45620427
25	0xbef284ab	-0.47366843
26	0x3db9d57c	0.09073922
27	0x402f498d	2.7388642
28	0x3e2d712b	0.16937701
29	0x3f8ececc	1.1156859
30	0x3e97a1f4	0.29615748
31	0x3fe0e5f6	1.7570179
32	0xbf44e841	-0.7691689
33	0x3fe9302b	1.8217825
34	0xbe99ea33	-0.30061492
35	0xbe83e918	-0.25763774
36	0xbfa23b6d	-1.2674385
37	0x3c1046d5	0.00880595
38	0xbe76b839	-0.24093713
39	0xbf407eca	-0.75193465
40	0x3f90d1f2	1.131407
41	0x3edd242b	0.43191656
42	0xbf97ad1e	-1.1849706
43	0xbf3dd10a	-0.74147093
44	0xbf5dce21	-0.8664265
45	0xbf5ed6c7	-0.87046474
46	0xbf791bac	-0.9730785
47	0xbe15d00f	-0.1463015
48	0xbf8098f0	-1.0046673
49	0x3eb5ab4a	0.35482246
50	0xbfcdbb10	-1.6072712
51	0x3fe78395	1.8087031
52	0x3d4f5151	0.05061466
53	0x3fcb57a9	1.5886127
54	0xbf203ec8	-0.62595797
55	0x3f94424d	1.1582733
56	0x3f41c91a	0.7569748
57	0xbf9513b7	-1.1646641
58	0xbf163544	-0.58675027
59	0xbeecfa5f	-0.46284768
60	0xbff87d48	-1.9413233
61	0x3f4761ce	0.77883613
62	0xbf4ee53b	-0.8081853
63	0xbe112016	-0.14172396
64	0x3f943f01	1.1581727
65	0xbf1f040b	-0.62115544
66	0xbfbb8919	-1.4651214
67	0xbe65f75b	-0.2245764
68	0xbf5c4eff	-0.8605804
69	0x3fcf1843	1.6179279
70	0xbe5030c2	-0.203311
71	0x3f700f59	0.9377342
72	0x400535dc	2.0814123
73	0xbf7bf2f9	-0.9841762
74	0x3e2171b2	0.15766028
75	0xbe091abf	-0.13389109
76	0xbe8c9c26	-0.27462882
77	0x3ec87312	0.39150292
78	0x3e541348	0.2071048
79	0x40086772	2.1313138
80	0x3f61b710	0.88169956
81	0x3d3d7044	0.046249643
82	0xbd42065d	-0.04736935
83	0x3f559eed	0.83445626
84	0x3f1488f4	0.58021474
85	0xbf4ccd66	-0.80000913
86	0x3ead9334	0.3390137
87	0x3e0b094e	0.13577768
88	0x400644c6	2.0979476
89	0x3f8748df	1.0569113
90	0x3d4617cb	0.048362534
91	0x3f94bfc3	1.1621021
92	0xbfb97f44	-1.4491963
93	0xbe81326f	-0.2523379
94	0xbf8406b2	-1.0314543
95	0xbfcc39d6	-1.595515
96	0x3db0fc39	0.08641858
97	0xbeb0b569	-0.34513405
98	0x3e88cdc6	0.26719493
99	0x3f22bb76	0.6356729
100	0x3f610ba2	0.87908375
101	0xbf734f47	-0.9504284
102	0x3e4af2a9	0.1981913
103	0x3f82c1eb	1.0215429
104	0xbee657de	-0.44988912
105	0xbf0f0a52	-0.5587512
106	0xbf04113b	-0.5158879
107	0xbf153993	-0.58290976
108	0x3c8155ae	0.015787926
109	0xbeefaddb	-0.4681233
110	0xbd532f42	-0.05155874
111	0x3f963716	1.1735561
112	0x3f013336	0.50468767
113	0xbe5f6930	-0.2181747
114	0x3f188430	0.595767
115	0x3f4101e7	0.7539353
116	0x3f0678b5	0.52527934
117	0x3fc04f2a	1.5024159
118	0xbf05ccee	-0.5226582
119	0x3f65e45a	0.8980156
120	0xbf1e689a	-0.6187836
121	0xbf91786b	-1.1364874
122	0x3e7a301f	0.24432419
123	0xbf36c062	-0.713873
124	0xbf6fbdd1	-0.9364901
125	0x3fef485c	1.8693957
126	0x3f84573b	1.0339121
127	0xbfb9ba51	-1.4509984
128	0xbd41a9c6	-0.04728105
129	0x3e945fe3	0.28979406
130	0x3f120fff	0.5705566
131	0xbfb407ab	-1.406484
132	0x3f5956c9	0.8489805
133	0xbea67002	-0.3250733
134	0x3f2d368f	0.67661375
135	0xbe49616e	-0.19666073
136	0xbdb4ee7a	-0.08834548
137	0x3df17652	0.11790146
138	0xbca8277b	-0.020526638
139	0x3eaec2d3	0.34133014
140	0x3e0984d5	0.13429578
141	0x3e0261b6	0.12732586
142	0xbfab0a30	-1.3362484
143	0xbfd265e6	-1.6437347
144	0x3f81bcf9	1.0135795
145	0xbff85f18	-1.940402
146	0xbe1be732	-0.15224913
147	0x3fdf89ac	1.7463889
148	0x400d07a0	2.2035904
149	0xbf27edcb	-0.6559722
150	0x3fab0093	1.335955
151	0xbedd6a43	-0.43245134
152	0x3f0e5af1	0.55607516
153	0x3d349f3a	0.044097163
154	0x3e8e0f09	0.27745846
155	0x3f5b3e10	0.85641575
156	0x401f27cb	2.4868038
157	0xbcb91ebe	-0.022597667
158	0xbea47af1	-0.32125047
159	0xbf71ac81	-0.94403845
160	0xbc50a52d	-0.0127346935
161	0x3fc0be2b	1.5058035
162	0x3e837151	0.2567239
163	0xbe0e9c57	-0.13926826
164	0x3f054fd6	0.52074945
165	0xbfc8511d	-1.5649754
166	0x3f333cd2	0.7001468
167	0xbf8da7c5	-1.1066824
168	0x3f1a0da1	0.60177046
169	0x3f941ea5	1.1571852
170	0x3f9dd2d6	1.2329967
171	0xbd8d7974	-0.06907931
172	0xbf87757e	-1.0582731
173	0x3f82d44b	1.0221037
174	0x3e434ca9	0.19072212
175	0x3d3392c4	0.04384114
176	0x3eafff7e	0.34374613
177	0x3e9abab0	0.30220556
178	0xbf65f818	-0.89831686
179	0xbf221659	-0.6331535
180	0x3f214bef	0.6300649
181	0xbe3fb15d	-0.18720002
182	0xbf12d72f	-0.57359594
183	0x3fa324a1	1.2745553
184	0x3d8d4908	0.06898695
185	0x3f94c20d	1.162172
186	0x3fe8e698	1.8195372
187	0xbfbd7dae	-1.4803979
188	0xbe55b664	-0.20870358
189	0xbf81d3ee	-1.0142801
190	0xbfb65598	-1.4244871
191	0x3f2ef04b	0.6833541
192	0x3f655260	0.8957882
193	0x3f0636e0	0.5242748
194	0xbe642c5b	-0.22282545
195	0x3f2c99d4	0.67422223
196	0xbfaf0b8e	-1.3675401
197	0x3e6aa508	0.22914517
198	0xbf1c6a89	-0.6110006
199	0xbf8ff88f	-1.1247729
200	0x3fd3b428	1.6539354
201	0x3fb2e772	1.3976882
202	0x3f64a525	0.8931449
203	0x3eb83648	0.35978913
204	0x3f08ef55	0.5349019
205	0xbf2fe039	-0.6870151
206	0xbfb6d1ae	-1.4282739
207	0x3fdd202f	1.7275447
208	0xbf71b594	-0.9441769
209	0xbed61e25	-0.41819873
210	0xbeaac441	-0.33352855
211	0x3f68dbad	0.909602
212	0xbf980681	-1.1876985
213	0x3ece43a4	0.4028598
214	0x3f153ada	0.58292925
215	0x3f6da82e	0.92834747
216	0xbf00b6b6	-0.50278795
217	0x3f2a9447	0.66632503
218	0xbea67b89	-0.32516125
219	0xbe82f346	-0.25576228
220	0xbe75f1a3	-0.24017958
221	0x3f2ebe81	0.68259436
222	0xbe0f5599	-0.13997497
223	0xbf8d3353	-1.1031288
224	0xbf452a6b	-0.7701785
225	0xbf464c1f	-0.774599
226	0x3d5c3663	0.053762805
227	0xc0147c26	-2.3200774
228	0xbf8fb4aa	-1.1227009
229	0xbec70d79	-0.38877466
230	0x3c3b3c0a	0.011427889
231	0xbd0c073d	-0.03418659
232	0xbf4cad57	-0.79951996
233	0x3e16d999	0.14731444
234	0x3f530ed2	0.8244449
235	0x3e3569d3	0.1771615
236	0x3fa4ab08	1.2864695
237	0x3f2acd86	0.66719854
238	0x3f9817de	1.1882284
239	0x3faff5dc	1.3746905
240	0xbe8682ad	-0.26271573
241	0x3f17bcca	0.59272444
242	0x3e4646c4	0.19362932
243	0xbe43e974	-0.19132024
244	0xbfcedc43	-1.6160969
245	0x3fbcf5b6	1.4762485
246	0x3fab2edf	1.3373679
247	0x3e8dd1e7	0.27699205
248	0x3f4650cf	0.77467054
249	0x3fb4b6d8	1.41183
250	0x3eb9c0f8	0.36280036
251	0x3d1feba1	0.039043073
252	0xbfc4374a	-1.5329373
253	0x3e869bf9	0.26290873
254	0x3f92ee53	1.1478981
255	0xbfc98c2e	-1.5745904

cdm._denoise_fn.transformer.mlp.0.weight f4 [256, 64]
0	0xbcae8ecd	-0.021308327
1	0x3b1c9a0d	0.0023895532
2	0x3caa1fe3	0.020767158
3	0xbdcbab68	-0.099448025
4	0xbc069ff6	-0.008216849
5	0xbcc3145e	-0.023813423
6	0xbc0def35	-0.008662988
7	0x3d82dccd	0.06389771
8	0xbdc83f74	-0.09777728
9	0x3cb1b0ee	0.021690812
10	0x3dd04cad	0.10170875
11	0xbdebcd38	-0.11513752
12	0x3d46de36	0.04855176
13	0x3e083990	0.13303208
14	0x3d8859fa	0.06657787
15	0x3d6c2675	0.057653863
16	0xbd49a95a	-0.04923377
17	0x3d260f37	0.040541854
18	0xbc3f4e96	-0.011676451
19	0x3de95103	0.11392405
20	0xbdf092ae	-0.11746727
21	0x3dddd136	0.108309194
22	0xbda77638	-0.08176845
23	0xbe06cba4	-0.1316362
24	0x3dc86c25	0.09786252
25	0x3c0cd0db	0.008594717
26	0xbdac5486	-0.08414559
27	0xbe06d77b	-0.13168137
28	0xbd1fb848	-0.038994104
29	0xbd285cdb	-0.04110418
30	0xbcbf2d18	-0.023336932
31	0xbd4df2bb	-0.050280314
32	0x3d11f849	0.035637174
33	0x3d89319b	0.066989146
34	0xbdd7d2d0	-0.10538256
35	0xbd13eb97	-0.036113348
36	0x3df9e342	0.12201549
37	0xbde2bcfb	-0.110712014
38	0x3d9ea906	0.077470824
39	0x3bae6982	0.005322636
40	0x3d23c482	0.039982326
41	0xbd6b5294	-0.0574518
42	0x3d99cb54	0.07509485
43	0xbb97e720	-0.0046357065
44	0xbd0fcf79	-0.03510997
45	0x3ddb24fb	0.10700413
46	0xbe00a51f	-0.12562989
47	0x3dac3402	0.08408357
48	0x3dbbd30d	0.09171114
49	0xbc04425a	-0.00807246
50	0xbc8f552d	-0.01749667
51	0x3dd096ab	0.10184988
52	0x3bda1ff4	0.006656641
53	0xbdd31796	-0.10307233
54	0xbd7de4c1	-0.061985735
55	0xbdcb2a9b	-0.09920236
56	0xbd81b8b0	-0.063340545
57	0xbd19adc3	-0.037519228
58	0x3cf194a5	0.029489825
59	0x3d6c842d	0.05774324
60	0xbe018753	-0.12649278
61	0x3d48ff7e	0.04907178
62	0x3ced72e1	0.028985443
63	0x3cd9eaa3	0.026601141
64	0xbdea6383	-0.114447616
65	0xbdcf4c1e	-0.1012194
66	0xbc0745d4	-0.008256394
67	0x3d6db74d	0.058036137
68	0xbc6f215b	-0.014595355
69	0xbd8179ca	-0.063220575
70	0x3c415dd9	0.01180216
71	0x3be3fb89	0.0069574756
72	0xbbfed623	-0.007776992
73	0x3c62d39f	0.0138444
74	0xbd75cbff	-0.060009
75	0x3dbf58ee	0.09343134
76	0x3c26e643	0.010186735
77	0x3d312e54	0.043257073
78	0xbd9bc195	-0.07605282
79	0xbccbf6c6	-0.024897944
80	0x3ccfb9d6	0.025357168
81	0xbdcb6ae7	-0.099324994
82	0xbd9d421a	-0.076786235
83	0xbe08d32c	-0.13361806
84	0xbd91493e	-0.07094048
85	0x3bca0ff2	0.0061664516
86	0xbe6d2fa0	-0.23162699
87	0xbd672c13	-0.056438517
88	0x3d87d476	0.066323206
89	0xbd8bdaa5	-0.068288125
90	0x3d76baae	0.060236625
91	0x3d5d1840	0.053978205
92	0xbcc8cb75	-0.024511078
93	0x3d87a59a	0.06623383
94	0x3e4a08d5	0.19729932
95	0x3de53a12	0.11192717
96	0xbbb8e305	-0.005642297
97	0x3dc6c9d2	0.09706463
98	0x3d1740b1	0.03692693
99	0x3d7b7c75	0.06139799
100	0xbdd686bd	-0.10474918
101	0x3d1b9a3a	0.03798888
102	0x3dcc0621	0.099621065
103	0x3cc95c32	0.024580095
104	0xbd13ace8	-0.036053568
105	0x3dac5fb1	0.08416689
106	0xbd6adda7	-0.05734029
107	0x3d12a65f	0.035803195
108	0xbddf5a0c	-0.10905847
109	0xbdbd32c0	-0.092381954
110	0xbdf5cf11	-0.120023854
111	0xbdc6652d	-0.096872665
112	0xbc4e1c9a	-0.012580061
113	0xbdeee437	-0.11664622
114	0xbdb8d58c	-0.09025106
115	0x3d864b6f	0.065573566
116	0xbd75802f	-0.0599367
117	0x3e3f7bea	0.18699613
118	0x3d8ae485	0.06781868
119	0xbe53424b	-0.20630758
120	0xbe81cb21	-0.25350288
121	0xbd6d99d7	-0.05800804
122	0xbe10f509	-0.14155973
123	0xbe099c32	-0.1343849
124	0xbd7dbb66	-0.061946295
125	0x3de8538d	0.11344061
126	0x3dd5a2f8	0.104314744
127	0xbdcc32b2	-0.09970607
128	0x3e0d4052	0.13794068
129	0xbd831afe	-0.06401633
130	0xbd2c36f0	-0.04204458
131	0xbdb6141c	-0.08890554
132	0x3e13e83c	0.14444059
133	0x3dc71296	0.09720342
134	0x3ddcb906	0.10777478
135	0x3c664a43	0.014055791
136	0xbd5619c2	-0.05227066
137	0x3d77e86b	0.060524385
138	0xbd361fbc	-0.044463858
139	0xbddae187	-0.10687547
140	0xbdabf733	-0.08396759
141	0x3d577f93	0.0526119
142	0xbdbed494	-0.0931789
143	0xbded716a	-0.11593898
144	0x3dab85b7	0.083751135
145	0xbdaa1691	-0.083050855
146	0x3bceada2	0.0063073197
147	0x3de839e7	0.11339169
148	0x3c734ef1	0.014850364
149	0xbd003743	-0.0313027
150	0x3cb3023e	0.021851655
151	0x3dd76c7e	0.1051874
152	0xbdc43648	-0.09580666
153	0x3d73b652	0.059500046
154	0xbd433bb5	-0.047664363
155	0xbd9ac020	-0.07556176
156	0xbacc8c35	-0.001560575
157	0x3dac8111	0.08423055
158	0xbdc58c80	-0.09645939
159	0xbcbef588	-0.023310438
160	0xbc91947d	-0.017771
161	0x3d445da7	0.047940876
162	0x3d1f5e82	0.03890849
163	0x3d81c9c7	0.06337314
164	0x3dc98668	0.09840089
165	0x3da6821f	0.081302874
166	0xbc689fc4	-0.014198247
167	0xbad0ce0b	-0.0015930546
168	0x3daa51e5	0.083164014
169	0x3dab02e8	0.08350164
170	0xbdb21190	-0.08694756
171	0x3aeb5131	0.0017953274
172	0x3d46fa5c	0.048578605
173	0x3d673e96	0.05645617
174	0xbb63916e	-0.0034724134
175	0x3cabe879	0.020984875
176	0x3d1a6dfc	0.037702546
177	0xbd47f0bb	-0.048813563
178	0x3dc44034	0.09582558
179	0xbdb556e7	-0.08854466
180	0xbdf21e25	-0.11822156
181	0x3cab6847	0.020923747
182	0x3c8d0b97	0.01721744
183	0x3c25557e	0.010091184
184	0xbde61562	-0.11234547
185	0x3c4dfcc7	0.012572474
186	0xbdf581a5	-0.11987618
187	0x3d4b74a0	0.04967177
188	0x3d8eab82	0.06966306
189	0xbd8c479c	-0.06849596
190	0x3c662942	0.014047923
191	0x3d92a76d	0.0716084
192	0xbcc0c996	-0.023533624
193	0x3d18457c	0.03717564
194	0xbdafa29e	-0.08575939
195	0x3d1b0c19	0.037853334
196	0x3d3b4b0f	0.04572588
197	0x3ca6b83e	0.020351525
198	0xbd9ed0a0	-0.07754636
199	0x3caf9707	0.02143432
200	0x3dbf523c	0.09341857
201	0xbdbdf551	-0.09275306
202	0xbbadceb4	-0.005304182
203	0xbd2f65d5	-0.042821724
204	0xbd394d2d	-0.045239616
205	0xbd93b460	-0.07212138
206	0x3d3c2e79	0.045942757
207	0x3d8f9aa8	0.0701192
208	0xbdd6733d	-0.10471199
209	0x3dd43c7d	0.103631
210	0x3d7e63db	0.06210695
211	0x3bf67023	0.007520692
212	0x3d8d5bcb	0.06902274
213	0x3cb76e4b	0.022391459
214	0x3cadacc4	0.021200545
215	0x3d948f76	0.072539255
216	0xbcd9e9e6	-0.02660079
217	0x3d86be6c	0.06579289
218	0xbd05df29	-0.032683525
219	0x3dabd5ee	0.08390413
220	0xbc647d7e	-0.013945935
221	0xbd91d27b	-0.07120224
222	0xbd384582	-0.044988163
223	0xbe0babc0	-0.13639736
224	0xbd046c53	-0.03232987
225	0x3be66469	0.007031013
226	0xbdb0fd48	-0.086420596
227	0xbd827f2b	-0.063719116
228	0x3cea6fa3	0.028617686
229	0x3d3f5a6a	0.046717085
230	0xbd8fd10c	-0.070222944
231	0x3dd770a6	0.10519533
232	0xbd1a2721	-0.037634972
233	0xbd898685	-0.06715111
234	0x3d0b319f	0.03398287
235	0x3d3dcf34	0.046340182
236	0xbd92718b	-0.07150563
237	0x3cbf87c9	0.023380177
238	0x3c714ac3	0.014727297
239	0x3d1c5f94	0.038177088
240	0x3c7e0c77	0.015505902
241	0xbde99b54	-0.114065796
242	0xbd9d1322	-0.07669665
243	0x3dbe947e	0.093056664
244	0x3d7b9a50	0.06142646
245	0x3dd18444	0.10230306
246	0x3d87323c	0.06601378
247	0x3d3d8259	0.046266887
248	0xbd074c07	-0.03303149
249	0x3d0e0660	0.03467405
250	0x3d1624d1	0.036656205
251	0xbdc84994	-0.09779659
252	0xbcb815e7	-0.022471381
253	0xbe1394e0	-0.1441226
254	0x3d121fe6	0.035674952
255	0xbd282684	-0.041052356

cdm._denoise_fn.transformer.mlp.0.bias f4 [256]
0	0x3d92a99e	0.07161258
1	0xbd219bb5	-0.039455134
2	0x3cce013c	0.025147073
3	0xbda56060	-0.08075023
4	0xbd472217	-0.048616495
5	0xbd9c7301	-0.07639123
6	0x3cd3c68a	0.025851507
7	0x3c35597b	0.011068697
8	0xbddc75a5	-0.107646264
9	0x3dbad924	0.091234475
10	0xbd92fe16	-0.07177369
11	0x3c5ad980	0.01335752
12	0xbe00b46b	-0.12568824
13	0xbdc07da8	-0.09398967
14	0xbca59611	-0.020213159
15	0xbde26bda	-0.11055727
16	0xbe1023e9	-0.14076199
17	0xbb19bd8a	-0.0023458921
18	0x3a63e792	0.00086938695
19	0xbd71528d	-0.058916617
20	0xbdb80ef1	-0.08987225
21	0x3dd43487	0.10361581
22	0x3cfd1fe2	0.030898992
23	0x3e023792	0.12716511
24	0x3da2f026	0.07955961
25	0x3b52195c	0.0032058572
26	0xbe05e7e3	-0.13076739
27	0xbddc7e91	-0.10766328
28	0x3db1347c	0.08652589
29	0xbd26f71d	-0.04076301
30	0xbdbf813d	-0.09350822
31	0x3d1fe093	0.03903253
32	0xbda906b2	-0.0825323
33	0xbd97932b	-0.07401117
34	0xbda900e2	-0.082521215
35	0x3c0f4b53	0.008745986
36	0xbdac5e8f	-0.08416473
37	0x3ce5046f	0.027956216
38	0x3dc98184	0.09839156
39	0xbc00b7a3	-0.007856282
40	0x3d9df762	0.077132
41	0xbe0ad78d	-0.13558789
42	0xbdf8aad3	-0.12141957
43	0xbdf1672a	-0.11787255
44	0x3c14edfb	0.009089942
45	0xbd2b3b14	-0.04180439
46	0x3c294fba	0.01033395
47	0x3d8acf0e	0.06777774
48	0xbde72439	-0.11286206
49	0x3d94754c	0.07248935
50	0x3bde3664	0.006781386
51	0xbdbf210e	-0.093324766
52	0x3d64d7b3	0.05586977
53	0xbcb12948	-0.02162613
54	0xbdbce25f	-0.09222864
55	0x3ba987d3	0.005173662
56	0xbc1563d8	-0.009118043
57	0xbd2824b6	-0.041050635
58	0xbdaf17a2	-0.085494295
59	0xbc04c092	-0.008102553
60	0x3b815190	0.0039464906
61	0xbace77c1	-0.0015752242
62	0x3dd9aa3d	0.106281735
63	0xbe08ba5e	-0.13352343
64	0xbd90bedc	-0.070676535
65	0xbd96234d	-0.07330952
66	0x3d66d2a1	0.056353215
67	0xbded12d9	-0.115758605
68	0x3dc47632	0.095928565
69	0x3d95cac9	0.07314069
70	0xbdc3ee5d	-0.095669486
71	0xbd6af21a	-0.057359792
72	0xbdf54528	-0.11976081
73	0x3d4343d6	0.047672115
74	0x3c3adbb6	0.011404922
75	0xbdd8073d	-0.105482556
76	0x3cd48b8f	0.025945453
77	0xbcd22073	-0.025650239
78	0x3c200bb8	0.009768419
79	0xbdbf1959	-0.093310066
80	0xbdd6ad74	-0.10482302
81	0xbba3e73f	-0.005001932
82	0x3da2163e	0.079143986
83	0xbdb5adcd	-0.088710405
84	0x3c610ecd	0.013736439
85	0xbcbbba57	-0.022916002
86	0x3d0135e7	0.031545546
87	0x3da25bbc	0.07927653
88	0xba8cffbc	-0.0010757367
89	0xbc44597e	-0.011984227
90	0xbd82f45c	-0.06394264
91	0x3de5ea90	0.1122638
92	0x3dcf4da2	0.10122229
93	0x3dac6c90	0.08419144
94	0x3dd60147	0.104494624
95	0x3d819fe6	0.06329326
96	0xbe033920	-0.1281476
97	0xbd0759b9	-0.03304455
98	0xbdfe2d4c	-0.124109834
99	0x3dd1ada6	0.10238199
100	0x3d1563a0	0.036471963
101	0xbde91b01	-0.11382104
102	0xbc01fd96	-0.007933995
103	0x3d3352ce	0.04378014
104	0x3c37b7b5	0.011213233
105	0x3d5514df	0.052021857
106	0xbd8f40d4	-0.06994787
107	0xbd122ba7	-0.03568616
108	0x3cd4973c	0.02595102
109	0xbc650d9c	-0.0139802955
110	0xbe1978f9	-0.14987554
111	0xbcc7babf	-0.02438104
112	0x3dd7b552	0.10532631
113	0xbd38c016	-0.045105062
114	0xbdbf10c3	-0.09329369
115	0xbd7abd76	-0.06121584
116	0xbbd0ffcd	-0.00637815
117	0xbcabaec6	-0.020957362
118	0xbda2b9f3	-0.07945623
119	0x3dc026de	0.09382413
120	0x3cd71d1c	0.026258998
121	0x3c5b7a04	0.01339579
122	0xbde0ba8a	-0.109730795
123	0x3d59cdbc	0.05317472
124	0x3bab640f	0.005230434
125	0xbdf82768	-0.12116891
126	0x3d3da040	0.046295404
127	0x3d34eecc	0.044173047
128	0x3b885734	0.004160786
129	0xbdc59d29	-0.096491165
130	0xbe126f66	-0.14300308
131	0x3db6eaee	0.08931528
132	0x3c0b3863	0.00849733
133	0x3d8a4e86	0.067532584
134	0x3d2061fc	0.039155945
135	0x3d3e7f02	0.046507843
136	0xbdf2b735	-0.1185135
137	0x3da4eb6d	0.080527164
138	0xbdeb91d1	-0.11502422
139	0x3b1e9140	0.0024195462
140	0x3ca77c74	0.020445086
141	0x3c894435	0.016756156
142	0xbda0cab1	-0.0785116
143	0xbde45520	-0.11149049
144	0x3d852358	0.06500882
145	0x3d8c54a7	0.06852084
146	0xbda7e9a2	-0.08198859
147	0xbde4b47a	-0.11167236
148	0xbc83edad	-0.016104544
149	0xbdfbe9a3	-0.12300422
150	0x3d258f56	0.0404199
151	0x3db8a179	0.090151735
152	0xbd44eafa	-0.048075654
153	0xbc8fe252	-0.017563973
154	0xbd3c4170	-0.045960844
155	0x3d8b393b	0.06798025
156	0xbc0cd842	-0.008596482
157	0xbdee99b4	-0.1165041
158	0xbdd27060	-0.1027534
159	0xbd958405	-0.07300571
160	0xbdf5b986	-0.119982764
161	0xbdbf7413	-0.09348311
162	0xbd98138d	-0.07425604
163	0xbdb519f1	-0.088428386
164	0xbdb657c6	-0.0890346
165	0xbd4466cb	-0.047949594
166	0xbd7a0e7c	-0.06104897
167	0xbc6e900d	-0.014560712
168	0xbd025254	-0.031816795
169	0xbbb77fb6	-0.005599941
170	0xbdc000c7	-0.09375148
171	0x3ce57e55	0.028014341
172	0x3c34f3ba	0.011044437
173	0xbd0d61e1	-0.034517173
174	0x3d9138b5	0.07090894
175	0x3d40648e	0.046970896
176	0xbd428398	-0.04748878
177	0x3c84c3c4	0.01620663
178	0xbd72bb8c	-0.05926089
179	0x3d13ffa3	0.036132466
180	0x3c7a88c2	0.015291395
181	0xbdc852fc	-0.09781453
182	0xbd0c010b	-0.034180682
183	0xbe067b73	-0.1313303
184	0x3db2b713	0.08726325
185	0xbcce4fc1	-0.025184514
186	0xbe0db0d2	-0.13836983
187	0x3d1277c5	0.035758752
188	0x3dc3abf3	0.09554281
189	0xbde8143f	-0.11331987
190	0xbd3dabb2	-0.04630632
191	0x3d4fee69	0.050764475
192	0x3d0d30ca	0.034470357
193	0x3d2a54ab	0.041584652
194	0xbdcf4fd7	-0.1012265
195	0xbdfbccff	-0.12294959
196	0xbd164eb8	-0.036696166
197	0x3d4057ea	0.04695884
198	0x3c90a846	0.017658364
199	0xbd82eee7	-0.06393223
200	0x3b8c60bb	0.004283992
201	0x3d9d909e	0.07693599
202	0xbc5f667e	-0.013635276
203	0xbd4c577f	-0.04988813
204	0xbc130bc9	-0.008974978
205	0xbd01ff8e	-0.031737857
206	0xbdae9441	-0.08524371
207	0xbcd982f1	-0.026551696
208	0x3d3e25f4	0.046422914
209	0xbdc1fbe1	-0.0947187
210	0xbe109a67	-0.141214
211	0x3d28a7e1	0.041175727
212	0xbe00baa1	-0.12571193
213	0x3cfb4c56	0.030676048
214	0x3ddc27a0	0.10749745
215	0x3cea8119	0.028626012
216	0xbdc309f2	-0.09523381
217	0x3dcc8f8c	0.09988317
218	0xbccd4831	-0.025058838
219	0xbd7958ff	-0.06087589
220	0x3d88d6c0	0.06681585
221	0xbd645323	-0.055743348
222	0xbd2533ec	-0.04033272
223	0xbd8f2a80	-0.06990528
224	0xbddbb9ee	-0.10728823
225	0xbd3c826c	-0.046022817
226	0xbd8ad636	-0.06779139
227	0xbd034b9e	-0.032054536
228	0x3d0b7225	0.034044404
229	0x3bc89a86	0.0061219363
230	0x3da2a458	0.07941502
231	0xbdb18d49	-0.08669526
232	0x3d10fd6f	0.035397943
233	0xbc598b5a	-0.013277853
234	0x3ddbcc44	0.1073232
235	0xbda0eb67	-0.078573994
236	0x3dd4e69d	0.103955485
237	0x3d9f2045	0.07769827
238	0x3980463d	0.00024466394
239	0xbdb66941	-0.08906794
240	0x3d9aa436	0.07550852
241	0xbdd73924	-0.105089456
242	0x3d6ab033	0.057296943
243	0x3d97c9d8	0.074115455
244	0xbc9a86ce	-0.018863108
245	0xbc76666c	-0.015039068
246	0xbd1b4d57	-0.037915554
247	0x3d608072	0.054809995
248	0xbda9bded	-0.082881786
249	0xbda854cb	-0.08219298
250	0xbccf27ae	-0.025287475
251	0x3c963c85	0.018339405
252	0x3d495315	0.0491515
253	0x3b9e2690	0.0048263744
254	0x3dc8566a	0.09782107
255	0x3d99175a	0.07475157

cdm._denoise_fn.transformer.mlp.2.weight f4 [128, 256]
0	0xbbdfb9fc	-0.006827591
1	0x3c68c21e	0.014206437
2	0x3d367c3e	0.04455208
3	0x3d5df3d4	0.05418761
4	0xbca347e7	-0.019931747
5	0xbafee52d	-0.0019446962
6	0x3d4924be	0.049107306
7	0xbd312037	-0.043243613
8	0x3d513ea7	0.05108514
9	0x3d3138ca	0.04326705
10	0xbcecc89f	-0.028904257
11	0x3d7a521e	0.06111347
12	0x3d653f9d	0.05596887
13	0xbd4d7777	-0.05016276
14	0x3c73050f	0.014832749
15	0x3c58c957	0.013231597
16	0xbd27bfbd	-0.04095434
17	0x3d79c7b2	0.06098146
18	0xbd0cae17	-0.034345713
19	0xbcd730d0	-0.026268393
20	0x3d6fd92a	0.058556713
21	0x3d70dcf2	0.05880446
22	0x3d1e0d53	0.038586926
23	0x3b1d39e8	0.0023990814
24	0xbbec6054	-0.0072136316
25	0x3c270326	0.010193622
26	0xbd374dc2	-0.04475189
27	0xbd758ca2	-0.05994857
28	0xbc48a824	-0.012247119
29	0xbd269504	-0.040669456
30	0x3d25d8f1	0.040490095
31	0x3d09c60d	0.03363614
32	0xbd2b8d9e	-0.041883104
33	0xbc895232	-0.016762827
34	0xbd3dfad0	-0.04638177
35	0xbc9d7abe	-0.019223567
36	0xbd3a9d32	-0.04556007
37	0x3d105e6d	0.0352463
38	0x3d3d1135	0.046158988
39	0x3b2f364d	0.0026735247
40	0xbd0144a1	-0.03155959
41	0x3cac20b2	0.021011684
42	0x3d36d039	0.04463217
43	0x3d321de0	0.043485522
44	0x3911eef6	0.00013917297
45	0xbce248ed	-0.027622664
46	0x3d40c24a	0.04706029
47	0x3ab82b5c	0.0014051008
48	0xbc311dd7	-0.010810337
49	0xbccb5b71	-0.024823876
50	0xbd65d3e5	-0.05611028
51	0x3ca0aefa	0.019614685
52	0xbd11cb20	-0.035594106
53	0xbd0ab118	-0.033860296
54	0xbcdf7d29	-0.02728136
55	0x3d3cadde	0.04606425
56	0xbcc059fb	-0.023480406
57	0xbd6643e7	-0.0562171
58	0xbcf50359	-0.029908823
59	0x3d483acb	0.048884194
60	0xbcb8660e	-0.022509601
61	0xbd400bd2	-0.046886273
62	0xbb97c830	-0.0046320185
63	0xbd0f9fc0	-0.03506446
64	0x3d092fcd	0.033492852
65	0xbc6075a8	-0.013699926
66	0x3d03c8a0	0.032173753
67	0x3d7dcef7	0.061964955
68	0xbcde98e8	-0.02717252
69	0x3cbfbccb	0.023405453
70	0xbd64adc0	-0.055829763
71	0x3d3477bc	0.0440595
72	0xbb0c19dc	-0.0021377718
73	0x3d198ac2	0.037485845
74	0xbae568ee	-0.0017502585
75	0xbd2c9a9a	-0.042139627
76	0x3d05e58e	0.032689624
77	0x3c2c94cb	0.010533522
78	0x3d5fa165	0.054597277
79	0x3d2a0f31	0.041518394
80	0x3d77b5bc	0.06047605
81	0xbc6622fc	-0.014046427
82	0x3d58d565	0.052937884
83	0x3c157d57	0.009124122
84	0xbcaa3459	-0.020776914
85	0x3ce28bf3	0.027654624
86	0x3d37175b	0.044700008
87	0xbacefd7f	-0.00157921
88	0xbd6a90aa	-0.05726687
89	0xbca16483	-0.019701248
90	0x3c8e0ee5	0.017341087
91	0x3d588ed0	0.05287057
92	0x3d42ccfe	0.047558777
93	0xbc7f315b	-0.015575732
94	0x3bd86ac0	0.0066045225
95	0xbcc7cc1a	-0.024389315
96	0xbca600ba	-0.020264018
97	0xbc690e54	-0.0142246075
98	0xb9e49f26	-0.00043606124
99	0x3c650517	0.013978264
100	0x3a05eb1c	0.00051085814
101	0x3ca7d845	0.020488868
102	0xbcb19061	-0.02167529
103	0xbd0c8b7b	-0.034312706
104	0xbd753f70	-0.05987495
105	0xbc5ab4b2	-0.013348745
106	0x3d171bb2	0.036891647
107	0x3d2f6ac6	0.042826436
108	0xbd06f7c8	-0.032951146
109	0x3bd8ead7	0.006619792
110	0x3cdffedc	0.027343206
111	0xbb872d8b	-0.004125302
112	0xbcb8cb40	-0.022557855
113	0x3cd61e27	0.026137425
114	0xbd168fcc	-0.03675823
115	0xbd392cc1	-0.045208696
116	0x3d4f6ece	0.05064278
117	0x3c07c6b3	0.00828712
118	0x3ca3a34c	0.019975327
119	0xbd377a67	-0.044794466
120	0x3d1869ed	0.037210394
121	0x3b584cdc	0.0033004796
122	0x3c3ef474	0.011654962
123	0x3cdaf92a	0.026730139
124	0xbd673cf8	-0.05645463
125	0xbc17d46b	-0.009266953
126	0x3cc88881	0.024479153
127	0x3c976fc3	0.01848591
128	0x3cd40a7c	0.025883906
129	0x3b20d90e	0.0024543437
130	0x3d495954	0.049157456
131	0xbd3612e4	-0.04445161
132	0xbd6db053	-0.058029484
133	0x3d1e90a3	0.038712155
134	0xbd4921f4	-0.049104646
135	0x3d2907cf	0.041267212
136	0xbb50ab10	-0.0031840242
137	0x3d207af9	0.039179776
138	0xbcd75122	-0.026283804
139	0x3d0ceb48	0.03440407
140	0x3d432ecd	0.047652055
141	0x3c4a8e5d	0.012363044
142	0x3d5a66ef	0.05332082
143	0x3d7274ec	0.059193537
144	0x3d462fae	0.048385315
145	0xbbf0898c	-0.0073406156
146	0x3b2fa7f4	0.0026802989
147	0xbd4f2e5e	-0.05058133
148	0xbd75c6ac	-0.06000392
149	0xbd6abb9f	-0.057307836
150	0xba4dad70	-0.00078459736
151	0xbcf5c9e6	-0.0300035
152	0x3cbe95cb	0.023264786
153	0x3d4bb573	0.04973359
154	0x3cb02214	0.021500625
155	0x3d51f6eb	0.05126087
156	0x3d794a54	0.0608619
157	0x3d04d0f0	0.03242582
158	0xbd673a67	-0.05645218
159	0x3d025b0e	0.031825118
160	0x3d40153a	0.046895243
161	0xbd389e10	-0.045072615
162	0xbc2f3e53	-0.010696012
163	0x3c2c1b28	0.010504521
164	0x3d2e2567	0.04251614
165	0xbcb32f58	-0.021873161
166	0xbd4eedd0	-0.050519764
167	0x3b7c9f04	0.003854693
168	0xbd4388f1	-0.04773802
169	0x3c4fe5af	0.012689038
170	0xbd5781b6	-0.052613936
171	0x3cddfd86	0.027098428
172	0x3cba5b4c	0.022748612
173	0x3c7dead2	0.01549788
174	0x3d0bc81f	0.034126397
175	0xbd04f391	-0.032458846
176	0x3d2664ca	0.040623464
177	0x3bc7e725	0.0061005526
178	0xbcbc54b4	-0.022989608
179	0x3b35a27f	0.0027715263
180	0x3d423381	0.0474124
181	0x3d1123b0	0.035434425
182	0xbc5ccf26	-0.013477122
183	0xbd45151a	-0.048115827
184	0xbd2b557a	-0.041829564
185	0xbc1730ee	-0.009227974
186	0xbc158ebc	-0.009128269
187	0x3d513210	0.051073134
188	0x3c12ecd2	0.008967595
189	0xbd46fbe7	-0.048580077
190	0x3d326589	0.043553863
191	0xbc838a4e	-0.01605716
192	0x3d4e48fa	0.050362565
193	0x3c8c1b9a	0.017103005
194	0x3d6e88d1	0.058235947
195	0x3c872767	0.01649828
196	0x3d22bd50	0.039731324
197	0x3c993df8	0.018706307
198	0xbc9dacec	-0.019247495
199	0xbc984cb7	-0.018591268
200	0x3ccc6fa8	0.024955586
201	0x3cab4322	0.020906035
202	0x3d4140c3	0.047180902
203	0x3d55c3cf	0.05218869
204	0xbc5b7b66	-0.01339612
205	0x3c5de178	0.0135425255
206	0x3b19f5cc	0.0023492454
207	0x3cc62dda	0.024191786
208	0x3d81a3a9	0.06330044
209	0x3d0a4d15	0.033764917
210	0x3d20ca2e	0.039255314
211	0x3d198c26	0.03748717
212	0xbd46c748	-0.048529893
213	0xbc038274	-0.008026708
214	0xbc7e91c1	-0.01553768
215	0xbd2f133a	-0.042742945
216	0x39da4f8e	0.00041639473
217	0xbcd11db8	-0.025526866
218	0xbd4dc324	-0.05023493
219	0xbcaf0913	-0.021366632
220	0xbd2bcbea	-0.041942514
221	0xbd2eb585	-0.04265358
222	0x3d69edba	0.05711148
223	0x3b76803b	0.0037613052
224	0x3ca00509	0.019533651
225	0x3ca35016	0.019935649
226	0xbd3ec6d0	-0.04657632
227	0xbd5d60d0	-0.054047406
228	0x3d52a2f1	0.051424924
229	0xbd50068d	-0.050787497
230	0xbcff3cea	-0.031156976
231	0x3ce85827	0.028362347
232	0xbba014b1	-0.004885279
233	0x3b0280f5	0.001991329
234	0xbcbd2e56	-0.023093384
235	0x3cfc300e	0.030784633
236	0x3c591bdf	0.013251274
237	0x3bb00894	0.0053721163
238	0xbc0536d1	-0.008130745
239	0xbbebbe77	-0.007194336
240	0xbc5ad417	-0.01335623
241	0x3d6c9cd9	0.05776677
242	0xbc98c9a6	-0.018650841
243	0xbd0010f1	-0.031266157
244	0xbcc4b43d	-0.024011726
245	0x3ca8eddc	0.020621233
246	0xbd5a7f69	-0.053344164
247	0x3d5524ff	0.052037235
248	0xbcf89563	-0.03034467
249	0xbc9e649e	-0.019335087
250	0x3d6b6d82	0.05747748
251	0xbc29b445	-0.010357921
252	0xbc5f22c1	-0.013619126
253	0x3d05d18b	0.03267054
254	0x3c32a317	0.010903141
255	0x3cee9e78	0.029128298

cdm._denoise_fn.transformer.mlp.2.bias f4 [128]
0	0xbd440c4f	-0.0478633
1	0xbb98b4ed	-0.00466024
2	0xbd3a31bc	-0.045457587
3	0xbd2587ce	-0.040412717
4	0xbd8a641e	-0.06757377
5	0xbcc4a8c6	-0.024006259
6	0xbd5e4438	-0.054264277
7	0x3d0b1090	0.033951342
8	0xbc30d67b	-0.010793324
9	0x3d4f06d2	0.050543614
10	0x3d8a8ccc	0.06765136
11	0xbd7a0b69	-0.061046038
12	0x3d0c9f08	0.03433135
13	0xbc08062f	-0.0083022555
14	0x3d1a31f6	0.037645303
15	0x3d769989	0.060205016
16	0x3c56e199	0.01311531
17	0xbc2e653c	-0.010644253
18	0x3d4cee27	0.050031807
19	0x3c92c4bc	0.017916076
20	0x3d673d49	0.05645493
21	0xbd156ecb	-0.036482614
22	0x3d15a205	0.036531467
23	0xbbc819d5	-0.006106595
24	0xbd3ed4c0	-0.046589613
25	0x3d0fbc52	0.035091706
26	0x3cdc06ae	0.026858654
27	0xbcb4891c	-0.022038035
28	0x3a6b6060	0.00089788996
29	0x3d87eb0c	0.066366285
30	0x3cf20a74	0.029546
31	0x3c8e7596	0.017390054
32	0x3d7b0741	0.061286215
33	0xbb81f5df	-0.0039660777
34	0x3cd23a63	0.025662607
35	0xbc044a6b	-0.008074383
36	0x3c6dc921	0.014513285
37	0x3cab55e0	0.020914972
38	0xbb027c12	-0.0019910377
39	0xb9e58060	-0.0004377393
40	0xbd22ecb6	-0.039776526
41	0x3d2f27bb	0.0427625
42	0x3bf98bb3	0.0076155304
43	0xbcb0a92b	-0.02156504
44	0x3c439427	0.011937178
45	0x3c7af08a	0.015316138
46	0xbc214307	-0.009842641
47	0x3b40ba8d	0.0029408068
48	0x3d39252b	0.04520146
49	0xbd2f7f28	-0.042845875
50	0x3c9165c5	0.017748723
51	0xbae1cb36	-0.0017226699
52	0xbd56cf3f	-0.05244374
53	0x3d4b52aa	0.04963938
54	0x3b5de80c	0.0033860235
55	0xbd19c29e	-0.037539117
56	0x3cf460f2	0.029831383
57	0x3cdc9995	0.026928702
58	0xbc205ae7	-0.009787298
59	0x3b78c1d9	0.003795734
60	0xbd34e9cd	-0.044168282
61	0xbd1e7013	-0.0386811
62	0xbd454400	-0.048160553
63	0x3ceffc6b	0.029295167
64	0xbd4373d0	-0.04771787
65	0xbd194651	-0.037420575
66	0xbd1c6b9f	-0.038188573
67	0x3c02b9ad	0.007978839
68	0xbc399ce6	-0.011328911
69	0xbcfc3c8a	-0.030790586
70	0x3ce80670	0.028323382
71	0xbc7602c1	-0.015015305
72	0x3d2fde08	0.042936355
73	0x3cb69fea	0.02229305
74	0xbaf05973	-0.0018337205
75	0x3cc15f9d	0.023605162
76	0x3c764ee9	0.015033462
77	0xbd017731	-0.03160781
78	0x3d586e97	0.05283984
79	0x3d1153bc	0.035480246
80	0xbd435fcc	-0.04769878
81	0x3cacfeac	0.02111753
82	0x3ce7876f	0.028262822
83	0x3c9324b9	0.017961847
84	0xbc5df6b9	-0.013547593
85	0xbd720dcd	-0.059095193
86	0xbcd3cd49	-0.025854724
87	0xbd6fe80a	-0.0585709
88	0xbd211402	-0.03932572
89	0x3d719394	0.058978632
90	0xbd0a0670	-0.033697546
91	0x3d2b2df6	0.04179188
92	0xbc6bb442	-0.0143862385
93	0x3d46eb16	0.04856404
94	0x3ca66c72	0.020315383
95	0x3ce13ecb	0.027495762
96	0x3b5c8ed6	0.0033654473
97	0x3bfe15ae	0.0077540493
98	0xbccf801e	-0.025329646
99	0x3d36218d	0.04446559
100	0xbc953e57	-0.018218203
101	0xbd5f679b	-0.054542165
102	0x3cadbfe7	0.02120967
103	0xbd4c3fb8	-0.049865454
104	0xbd65b294	-0.05607851
105	0xbd57d16e	-0.052689962
106	0xbc364ebc	-0.01112717
107	0x3c3f0416	0.011658689
108	0xbd65cda9	-0.056104336
109	0xbcfb9110	-0.03070882
110	0xbd1d850f	-0.038456973
111	0x3c88e720	0.016711771
112	0x3d6a55f1	0.057210866
113	0xbc11db91	-0.008902446
114	0x3c3840ed	0.011245948
115	0x3c07419b	0.008255388
116	0x3d65b444	0.056080118
117	0xbc80a57e	-0.015703913
118	0xbd859caa	-0.06524022
119	0x3c225c61	0.00990972
120	0x3d8f2e1b	0.06991216
121	0xbcac20a7	-0.021011664
122	0xbbb24e7e	-0.005441486
123	0xbb9f93d6	-0.0048699183
124	0x3c6ba7be	0.014383255
125	0x3b1d4dc9	0.0024002662
126	0xbcea770f	-0.028621225
127	0xbd6dac66	-0.05802574

cdm._denoise_fn.transformer.axial_pos_emb.weights_0 f4 [1, 1, 1, 64]
0	0x3f3bd955	0.733785
1	0xbf39cbc5	-0.7257655
2	0x3fa94e60	1.3227043
3	0x3fcf67d1	1.6203557
4	0x3f3c6c0c	0.73602366
5	0xbf2e196b	-0.68007535
6	0x3f31a2df	0.69389147
7	0xbf323095	-0.6960538
8	0xbe5f94aa	-0.21834055
9	0x3efff905	0.49994674
10	0xbf025c0e	-0.50921714
11	0xbf1af976	-0.605369
12	0x3fcc94a4	1.5982862
13	0xbe7d14f6	-0.24715027
14	0xbfe71907	-1.8054513
15	0x3f251b9f	0.6449527
16	0x3edfc86c	0.43707597
17	0x3f00935a	0.5022484
18	0x3fac4289	1.3457805
19	0x3f75aeb8	0.95969725
20	0x3e41b538	0.18916786
21	0xbeda23d6	-0.42605466
22	0xbe242404	-0.16029364
23	0x3ebf429e	0.37355512
24	0xbf529fa5	-0.8227485
25	0xbf103e3a	-0.5634495
26	0xbf0df5c3	-0.5545313
27	0x3f12c363	0.57329386
28	0x3f7fc59d	0.9991091
29	0x3d30dbe2	0.043178447
30	0x3f945c58	1.1590681
31	0x3febca58	1.8421125
32	0x3e30cc3d	0.1726541
33	0x3dc964cf	0.09833681
34	0x3ef45345	0.4771978
35	0xbeca805a	-0.3955105
36	0x3f903f27	1.1269273
37	0xbf99d936	-1.2019413
38	0xc011d4ce	-2.2786136
39	0xbf476e42	-0.77902615
40	0x400c0454	2.1877642
41	0x3eabedac	0.33579767
42	0x3f9a8133	1.2070678
43	0x3f6626f0	0.89903164
44	0xbff8c663	-1.9435543
45	0x3eb1416b	0.34620222
46	0xbf258324	-0.6465323
47	0x40191370	2.3918114
48	0x3f509dfd	0.8149107
49	0x3f1532c6	0.582806
50	0x3fd74eea	1.6820958
51	0x3e8bfe55	0.27342477
52	0xbf61c575	-0.8819192
53	0xbf49eec5	-0.7887996
54	0x3ea80297	0.32814476
55	0x3fac00fc	1.34378
56	0x3e0457c1	0.129241
57	0xbf54718c	-0.8298576
58	0x3dc7fe5c	0.09765312
59	0x3f7251cd	0.9465607
60	0xbf966c43	-1.1751789
61	0x3f43afdb	0.7644021
62	0xbf8d525c	-1.1040759
63	0x3f97cefc	1.1860042
